Training/PyTrainer/epoch=17.ckpt (torch, 654277 bytes, 28 tensors)

net.0.weight f4 [256, 120]
-0.22356747 -0.20046905 -0.015062937 0.0033324407 -0.11872102 -0.21752658 0.07821812 -0.42195824
-0.035723448 -0.024111833 -0.1608605 -0.0035354942 -0.03394448 -0.050849028 -0.44948846 0.019120391
-0.023929274 0.007861797 0.2663533 0.4120006 -0.06645064 -0.03116226 -0.039294638 0.41250646
-0.118511125 -0.037612118 0.35422826 -0.023065982 -0.04582843 0.011012445 0.07424863 -0.030156245
-0.055917285 0.012839626 0.05716563 0.023247525 -0.051626164 0.05935128 -0.07158594 -0.31291983
-0.03353874 0.07905968 0.43749762 0.10019829 -0.107851 0.6495006 -0.8098978 0.024999974
-0.12826943 0.1947963 -0.29781228 1.6392841 0.22181526 0.029043391 -0.03974897 -0.58649945
-0.13987622 0.09087607 0.17263964 0.08138938 -0.12330504 0.028996004 -0.19634178 0.17148826
-0.07345995 -0.1078129 -0.031476863 -0.123558424 -0.09340051 0.033697017 0.031320147 0.106065646
-0.013973771 -0.1269924 -0.15304247 -0.18045115 -0.15727775 -0.067254 0.04040509 -0.019456238
0.026013985 -0.12299981 -0.16442174 -0.19456968 0.0048247585 -0.1756118 -0.084520094 -0.09038442
-0.18244237 -0.05626809 0.0030618976 -0.07864005 -0.113035195 -0.036534235 -0.17197055 -0.14050293
-0.19964352 0.026698764 -0.20889652 -0.0856382 -0.18067786 -0.07242433 -0.16324615 -0.08281707
-0.21184239 -0.18789169 -0.047043733 0.009463336 -0.15294847 -0.10550311 -0.043302797 -0.16532815
-0.02634873 -0.022059305 0.013579864 -0.14669487 -0.26999336 -0.19608593 -0.17849922 0.107116915
-0.32078224 -0.29241213 0.35695446 -0.18145418 -0.06533378 -0.17772913 0.3361665 -0.046259686
-0.08671813 0.051381335 -0.3304699 0.16643462 -0.0892007 -0.18476135 -0.1570391 -0.11435349
0.31850666 -0.0638204 0.07418571 0.022854894 0.06575155 0.09981805 0.55084497 -0.025239993
0.09813827 0.09550655 0.30113965 0.18158081 0.2354358 -0.034795914 -0.28278735 -0.13869971
-0.03507807 -0.18266895 -0.35540193 -0.10902265 -0.12143285 -0.09210192 -0.04602039 -0.3203173
-0.16117886 -0.09350261 0.37174124 0.0008369777 0.13709068 -0.17168796 0.15962717 0.040536456
-0.37875324 -0.32554471 0.054530516 0.2304947 -0.058767766 -0.0007912495 -0.079080716 -0.14529273
0.16215554 -0.057434935 -0.08048029 0.10228046 0.33033234 -0.056834456 0.15230909 0.2842486
0.02223586 0.24851781 0.047439773 0.12036987 0.11401141 -0.07891531 0.028415166 -0.0032414056
0.08169153 0.13838065 0.14346111 0.063176155 0.04558848 0.010133795 -0.07449974 -0.11009763
-0.08986047 -0.12815133 -0.10082142 0.0037551268 -0.05655714 0.05105122 -0.008217422 0.06682475
-0.13569555 0.039643086 0.08198196 0.052388728 -0.0917086 -0.034779154 -0.014039818 -0.12531523
0.043539822 -0.10601197 -0.1571458 -0.1212343 -0.14735827 -0.1359081 -0.014042739 -0.1235213
-0.12816292 -0.1339419 -0.08040987 -0.12773472 -0.13730904 0.054081544 -0.09230942 0.051891185
-0.10252635 -0.24680421 -0.03960823 -0.14253965 -0.0221259 0.3231852 0.2292575 -0.5402392
0.051318552 0.10733934 -0.18323651 -0.047257826 -0.065148324 0.169024 -0.102126144 0.11182909
-0.104197495 -0.55527544 0.16790685 0.015988298 -0.4258781 -0.24536109 -0.16818213 -0.099288605
00000000: dfee 64be c247 4dbe 89ca 76bc 1465 5a3b
00000010: 0224 f3bd 4abf 5ebe d230 a03d e90a d8be
00000020: c052 12bd 2e86 c5bc 9db8 24be c0b3 67bb
00000030: 5e09 0bbd 1247 50bd 5a23 e6be 5ea2 9c3c
00000040: 5307 c4bc c4ce 003c 765f 883e bef1 d23e
00000050: 4617 88bd ff47 ffbc 6af3 20bd 0c34 d33e
00000060: f6b5 f2bd 2a0f 1abd 685d b53e dff4 bcbc
00000070: 98b6 3bbd 8b6d 343c aa0f 983d 3b0a f7bc
00000080: 8609 65bd 4b5d 523c 8226 6a3d 9871 be3c
00000090: f575 53bd 541a 733d a69b 92bd 0737 a0be
000000a0: eb5f 09bd 0bea a13d b0ff df3e c334 cd3d
000000b0: fce0 dcbd ac45 263f 7655 4fbf bfcc cc3c
000000c0: 1059 03be ae78 473e da7a 98be 10d4 d13f
000000d0: 8a23 633e 68ec ed3c d1cf 22bd d424 16bf
000000e0: b63b 0fbe 3c1d ba3d 72c8 303e 7aaf a63d
000000f0: 5a87 fcbd 0789 ed3c d20d 49be 9e9a 2f3e
00000100: 2c72 96bd 02cd dcbd e2ed 00bd 330c fdbd
00000110: c448 bfbd e205 0a3d 8e49 003d f238 d93d
00000120: 3ef2 64bc 4c0a 02be 2ab7 1cbe 30c8 38be
00000130: 6b0d 21be 77bc 89bd cf7f 253d b062 9fbc
00000140: 481b d53c 53e7 fbbd 2c5e 28be 463d 47be
00000150: 0219 9e3b 94d3 33be df18 adbd 771b b9bd
00000160: 2cd2 3abe 5e79 66bd 1eaa 483b 090e a1bd
00000170: ff7e e7bd eca4 15bd 0c19 30be 00e0 0fbe
00000180: 5a6f 4cbe 5eb7 da3c f8e8 55be 1563 afbd
00000190: 9e03 39be 3553 94bd 002a 27be ff9b a9bd
000001a0: 36ed 58be ae66 40be eeb0 40bd 1c0c 1b3c
000001b0: 869e 1cbe 0412 d8bd 465e 31bd c84b 29be
000001c0: 4bd9 d7bc b7b5 b4bc 147e 5e3c 2e37 16be
000001d0: 923c 8abe c0ca 48be 80c8 36be 1d60 db3d
000001e0: 923d a4be 0bb7 95be bcc2 b63e 20cf 39be
000001f0: b8cd 85bd a0fe 35be 041e ac3e cc7a 3dbd
00000200: 4699 b1bd 3c75 523d 5a33 a9be d66d 2a3e
00000210: dbae b6bd 1432 3dbe dcce 20be 2a32 eabd
00000220: 4e13 a33e 45b4 82bd adee 973d 303a bb3c
00000230: c0a8 863d 686d cc3d 2d04 0d3f 1ac4 cebc
00000240: b8fc c83d f098 c33d fa2e 9a3e 52f0 393e
00000250: 1516 713e 2986 0ebd 81c9 90be 4c07 0ebe
00000260: 06ae 0fbd 920d 3bbe 3ef7 b5be 4447 dfbd
00000270: c9b1 f8bd ee9f bcbd e07f 3cbd a100 a4be
00000280: 120c 25be 4c7e bfbd de54 be3e 9f68 5b3a
00000290: 8061 0c3e f8ce 2fbe 4e75 233e 8e09 263d
000002a0: f2eb c1be ccad a6be 645b 5f3d cd06 6c3e
000002b0: 78b6 70bd db6b 4fba 12f5 a1bd 9ec7 14be
000002c0: 1a0c 263e e540 6bbd dad2 a4bd 6b78 d13d
000002d0: 5221 a93e 3fcb 68bd eaf6 1b3e 0889 913e
000002e0: fa27 b63c 747b 7e3e 3550 423d 7a84 f63d
000002f0: d07e e93d 5a9e a1bd ecc6 e83c c36d 54bb
00000300: e44d a73d a8b3 0d3e 78e7 123e 8062 813d
00000310: fcba 3a3d 3808 263c 5293 98bd de7a e1bd
00000320: c408 b8bd 1a3a 03be 767b cebd 9318 763b
00000330: 76a8 67bd 161b 513d 5ea2 06bc 6adb 883d
00000340: c6f3 0abe ca60 223d 28e6 a73d 9095 563d
00000350: b8d1 bbbd 9674 0ebd 4407 66bc a352 00be
00000360: d056 323d ce1c d9bd d4ea 20be b049 f8bd
00000370: 16e5 16be 7e2b 0bbe 8413 66bc bcf8 fcbd
00000380: 243d 03be 1128 09be eead a4bd e4cc 02be
00000390: be9a 0cbe 9c84 5d3d b90c bdbd da8b 543d
000003a0: 56f9 d1bd 3eba 7cbe 3d3c 22bd eaf5 11be
000003b0: 6041 b5bc 8878 a53e 7ac2 6a3e 1e4d 0abf
000003c0: 6733 523d bad4 db3d 5aa2 3bbe 6c91 41bd
000003d0: 7c6c 85bd a114 2d3e 8327 d1bd a606 e53d
000003e0: 7f65 d5bd 8826 0ebf c6ef 2b3e e4f9 823c
000003f0: b20c dabe f03f 7bbe f037 2cbe d357 cbbd

net.0.bias f4 [256]
-1.2523432 -0.3631922 0.14854802 -0.24140412 -0.18378243 -0.013820913 0.11686547 -0.46196175
0.19525377 -0.049846753 0.4846487 0.20360234 0.096859485 -0.47461787 -0.71823376 0.45131147
-0.041465435 0.21733901 -0.2788418 -0.09576599 -0.3824173 -0.13465571 0.11034869 0.06877196
0.09442185 -0.020069327 -0.2715997 0.01145426 -0.010863328 -0.25532943 -0.33020604 -0.26460665
-0.026145894 -0.7681637 -0.10839312 -0.15936567 0.1232344 -0.4746052 -0.304171 0.3135689
-0.09970215 -0.3601405 -0.13314328 0.12813185 -0.30731347 -0.076248094 0.36237562 0.42147982
-0.019367335 -0.04894826 0.11557897 -0.10811305 0.1807054 -0.37428656 -0.093931675 -0.49869546
-0.022694007 0.09826265 0.2912526 0.32612458 -0.058047134 -0.2947821 0.16830575 -0.04417201
0.26984116 -0.024509765 0.27388394 0.28151813 -0.09972061 -0.68991566 -0.0077676284 0.04567942
0.075138 -0.12083903 -0.11359133 -0.09259544 0.32090718 -0.16399235 0.05651099 0.049861133
0.013885725 0.03820031 -0.0751386 0.31641564 -0.20803764 0.28450513 -0.17140031 0.28498816
0.06358278 -0.0349778 0.21741623 -0.042016085 0.14278519 0.22019394 -0.2704181 0.033580795
-0.75351715 0.114075504 -0.23959646 -0.062151503 -0.1280925 -0.26476204 -0.42977023 0.21730204
-0.086982965 -0.3103457 0.06193978 -0.030877221 0.27684855 -0.045689873 -0.08137326 -0.022035446
-0.56848514 0.3805204 -0.13516822 -0.14807856 0.14553165 0.03519059 -0.16771984 -0.40107757
-0.015873391 0.4067539 0.00023018854 0.19134662 -0.40115994 -0.29433256 -0.041419744 0.06319964
-0.4562409 -0.12643689 0.060289614 -0.14998952 0.002963495 -0.27075955 -0.29545987 0.08398877
-0.1093992 0.15582207 -0.4611292 0.13330835 0.06864511 -0.5884106 -0.28071994 0.22010455
0.5265081 0.26009375 -0.1983853 0.10910247 0.30562723 -0.19134022 -0.24347627 -0.1530092
0.1948923 -0.9495846 0.029254675 0.017063629 -0.5149796 -0.15469283 0.12120472 0.3936479
0.006672498 -0.13966365 -0.14621797 -0.63795656 0.12966637 -0.16554543 -0.5992159 0.24652725
-0.2854294 -0.02516392 -0.111196116 0.0045393445 -0.63171923 -0.32365233 -0.3378039 -0.16560593
-0.35004556 0.060778692 -0.5228784 -0.36674452 0.31189948 0.2054625 0.138037 -0.049199544
-0.327177 -0.42227328 -0.10835339 0.10524584 -0.45002934 0.063130036 0.39663738 0.09808187
-0.31003243 -0.07296112 0.56999767 0.23072785 -0.29359025 -0.24692926 -0.052441426 0.4841469
-0.02238305 0.14249536 -0.59091496 -0.32296777 0.24766907 -0.13976726 -0.25071564 -0.30983478
0.18425341 -0.008303805 0.040264335 0.15427297 0.30589503 -0.29482484 -0.39556772 -0.13855566
-0.059517972 0.10777743 -0.30450147 -0.08574505 -0.0150941815 -0.40004417 0.04608023 0.11799876
0.2675234 0.3926412 -0.4708411 -0.025010904 -0.016883887 0.12541373 0.30288565 0.0983388
-0.6110256 -0.06323281 -0.26504928 0.04005702 0.026994463 -0.07006681 -0.6292542 0.030227467
0.26863316 0.14732867 0.24195151 -0.051071122 -0.25858706 -0.019707594 0.07749055 -0.04052506
-0.19497925 -0.24737054 0.030040748 0.06275253 -0.32413492 0.014258182 -0.1307335 -0.5616411
00000000: c84c a0bf 54f4 b9be f91c 183e a432 77be
00000010: 7631 3cbe 1c71 62bc 2a57 ef3d 4086 ecbe
00000020: 9bf0 473e 1c2c 4cbd e023 f83e 227d 503e
00000030: 445e c63d 1d01 f3be 2bde 37bf 4c12 e73e
00000040: a9d7 29bd 1e8e 5e3e 5ac4 8ebe f620 c4bd
00000050: 33cc c3be 30e3 09be 7efe e13d 50d8 8c3d
00000060: 3e60 c13d 6e68 a4bc 1e0f 8bbe a6aa 3b3c
00000070: 1afc 31bc 8aba 82be c410 a9be 867a 87be
00000080: ea2f d6bc 60a6 44bf 36fd ddbd c130 23be
00000090: 5162 fc3d 74ff f2be 4dbc 9bbe 1a8c a03e
000000a0: a430 ccbd 5664 b8be b656 08be ff34 033e
000000b0: 3158 9dbe f627 9cbd 4c89 b93e 34cc d73e
000000c0: 3fa8 9ebc f87d 48bd abb4 ec3d 606a ddbd
000000d0: d60a 393e 7da2 bfbe 405f c0bd 0355 ffbe
000000e0: c8e8 b9bc ee3d c93d 101f 953e cdf9 a63e
000000f0: d5c2 6dbd aeed 96be 5858 2c3e b6ed 34bd
00000100: 9f28 8a3e b4c8 c8bc 843a 8c3e 2523 903e
00000110: 523a ccbd 509e 30bf 9787 febb 581a 3b3d
00000120: f4e1 993d 747a f7bd 92a2 e8bd aea2 bdbd
00000130: f24d a43e 9ced 27be 1178 673d 303b 4c3d
00000140: f480 633c ee77 1c3d 44e2 99bd 3b01 a23e
00000150: d207 55be a8aa 913e 9083 2fbe f8e9 913e
00000160: b037 823d e244 0fbd 5ca2 5e3e 0f19 2cbd
00000170: 4836 123e 857a 613e 3e74 8abe 048c 093d
00000180: 80e6 40bf 6ba0 e93d c658 75be 9392 7ebd
00000190: ae2a 03be e48e 87be d80a dcbe 6d84 5e3e
000001a0: 2024 b2bd a2e5 9ebe 91b4 7d3d 3af2 fcbc
000001b0: 18bf 8d3e 4e25 3bbd 06a7 a6bd ae83 b4bc
000001c0: 3e88 11bf 92d3 c23e 8a69 0abe e8a1 17be
000001d0: 4006 153e 0224 103d c0be 2bbe 0a5a cdbe
000001e0: ea08 82bc 0c42 d03e c45e 7139 5ef0 433e
000001f0: d664 cdbe c2b2 96be c0a7 29bd d06e 813d
00000200: 6898 e9be ac78 01be 3ef2 763d da96 19be
00000210: 3237 423b ffa0 8abe 8446 97be 4e02 ac3d
00000220: b00c e0bd d28f 1f3e 2019 ecbe fc81 083e
00000230: cf95 8c3d 14a2 16bf 86ba 8fbe 1663 613e
00000240: 3cc9 063f 022b 853e 8425 4bbe 1e71 df3d
00000250: 2c7b 9c3e b1ee 43be d851 79be 72ae 1cbe
00000260: d991 473e fa17 73bf 80a7 ef3c 06c9 8b3c
00000270: b4d5 03bf cc67 1ebe 2e3a f83d 388c c93e
00000280: f8a4 da3b fd03 0fbe 2aba 15be 1f51 23bf
00000290: 43c7 043e be84 29be 3766 19bf a471 7c3e
000002a0: cd23 92be 9124 cebc caba e3bd c8be 943b
000002b0: 5ab8 21bf c2b5 a5be a2f4 acbe 9a94 29be
000002c0: 2c39 b3be 14f3 783d 5cdb 05bf f0c5 bbbe
000002d0: 4ab1 9f3e c364 523e 9259 0d3e 7685 49bd
000002e0: be83 a7be 3434 d8be 62e8 ddbd 228b d73d
000002f0: 3f6a e6be 524a 813d 0e14 cb3e 26df c83d
00000300: 92bc 9ebe a46c 95bd 5eeb 113f ec43 6c3e
00000310: 7651 96be 06db 7cbe d2cc 56bd 1ae2 f73e
00000320: a85c b7bc 4eea 113e 3446 17bf 085c a5be
00000330: f69c 7d3e 261f 0fbe cd5d 80be aaa2 9ebe
00000340: edac 3c3e af0c 08bc 37ec 243d bcf9 1d3e
00000350: 469e 9c3e 48f3 96be da87 cabe 89e1 0dbe
00000360: 1ec9 73bd 6aba dc3d 9ee7 9bbe 1a9b afbd
00000370: 964d 77bc 97d2 ccbe a0be 3c3d 55a9 f13d
00000380: d4f8 883e 4408 c93e 1612 f1be abe3 ccbc
00000390: 1450 8abc 756c 003e d413 9b3e da65 c93d
000003a0: 2c6c 1cbf 3480 81bd 8ab4 87be d412 243d
000003b0: 7e23 dd3c 307f 8fbd ce16 21bf 989f f73c
000003c0: 498a 893e 54dd 163e 23c2 773e f42f 51bd
000003d0: 8665 84be d271 a1bc 5eb3 9e3d 9bfd 25bd
000003e0: a4a8 47be b44e 7dbe 0418 f63c 6684 803d
000003f0: 03f5 a5be 269b 693c 01df 05be b6c7 0fbf

net.2.weight f4 [32, 256]
-0.09901799 0.08207579 0.3353438 -0.40859318 0.18542212 0.147629 -0.060641177 -0.036178626
-0.25205955 0.36418122 0.042726833 0.162645 -0.045201063 0.1264438 -0.03483569 -0.008830169
-0.10740901 -0.09433575 0.25605935 -0.39406812 -0.03262649 0.0015015951 -0.050788917 -0.08948004
0.030849608 -0.055940636 0.02079378 -0.04371997 -0.4074852 0.049246952 -0.18950358 0.042948455
-0.2037411 0.24904197 0.34024987 0.07458235 -0.0809085 0.3396951 -0.10345586 -0.33796048
0.26128015 0.19883433 0.07427402 0.1207861 0.19216505 -0.010352568 0.21623859 -0.24408294
0.07074459 -0.018215574 0.063832894 0.000571953 0.43135256 0.032554932 0.2830143 0.071878746
-0.035428103 -0.042748727 0.102256745 -0.13172075 -0.09386972 -0.049532413 -0.2190235 0.22933888
0.17141175 0.16113743 0.006567835 -0.23838188 -0.10802841 0.09364639 0.25526208 0.013403447
-0.13243228 -0.20166728 0.055872984 0.114927456 -0.08002215 -0.2604638 -0.22458927 -0.0628009
-0.12142272 0.43127286 -0.09595011 -0.013237235 -0.07846091 0.0012891055 0.057329472 0.17603417
-0.082788214 -0.2891737 -0.12760541 -0.13773614 -0.04930095 0.21188721 0.046780758 0.012425867
0.038029574 0.007005097 0.1036186 -0.2779739 -0.2544023 0.026456058 0.16322808 -0.013170362
0.08888377 0.24749315 0.008145414 0.22160716 -0.04243222 -0.30992478 -0.099644676 -0.45668498
-0.12141351 -0.091917634 -0.15848228 -0.08523362 -0.37431523 -0.1356349 0.18525878 0.13303354
-0.25761586 -0.34682846 -0.05835507 -0.01047153 0.14101595 -0.070557654 -0.17291912 0.19429389
0.21681204 0.0048811184 0.15542632 0.09636171 0.07582864 0.15637158 0.25691032 -0.08865453
0.014034256 6.7462744e-05 0.015826024 0.062951356 -0.1301353 -0.07342503 -0.20730588 0.07122095
0.050109785 -0.23458554 -0.10990696 0.21028467 0.2680457 0.34464142 0.13195494 0.15891084
0.018911708 -0.29124773 0.13969024 0.18596494 0.030415576 0.1990151 -0.085006535 0.12916002
-0.32301092 -0.14739731 -0.10814209 0.1937106 0.052564256 -0.25708163 0.29309973 -0.09332186
0.39522412 0.20995454 0.039302826 0.11558643 0.19103721 -0.07176325 0.25675216 -0.16478126
0.058014106 0.11395532 -0.010823838 0.530496 0.27971083 0.096832134 0.015748365 -0.01675736
-0.089947335 0.2434712 -0.41255307 -0.341457 -0.09895999 -0.07960659 0.06748666 0.14832819
0.31350023 -0.04954061 -0.054726563 -0.03637137 0.23212445 -0.13420087 -0.22160941 -0.00036955695
0.30950254 0.019653458 -0.14178798 0.18450077 -0.0890546 -0.16604468 0.29796147 0.3239322
0.040546186 0.23954652 0.24642435 -0.05056205 -0.100595444 0.1321396 0.30498594 0.07854465
0.035598055 -0.07584113 0.14418566 -0.06363453 0.011200881 0.10463556 -0.0796849 0.20481649
-0.2427107 -0.044249766 -0.17735806 -0.16760659 -0.040185355 -0.05875285 -0.042351495 -0.049515527
0.10693104 -0.19188762 0.40553683 -0.029339293 -0.067067504 -0.11784816 -0.07900358 0.25100994
-0.17429468 -0.7888918 -0.28609538 -0.14930752 0.075836614 0.17883912 0.2594949 0.47037622
-0.2186051 0.103877544 -0.12257767 -0.01047867 0.15005007 -0.05870276 0.007821266 -0.15659511
00000000: f2c9 cabd 5a17 a83d 2fb2 ab3e 2033 d1be
00000010: 4cdf 3d3e 0e2c 173e e262 78bd 0a30 14bd
00000020: f30d 81be f675 ba3e 5502 2f3d 698c 263e
00000030: c024 39bd 7c7a 013e deaf 0ebd 6aac 10bc
00000040: 41f9 dbbd 1a33 c1bd 361a 833e 4cc3 c9be
00000050: 5ba3 05bd 2cd1 c43a 0a08 50bd 5041 b7bd
00000060: 51b8 fc3c 0222 65bd b857 aa3c b613 33bd
00000070: e6a1 d0be 2cb7 493d 3a0d 42be b8ea 2f3d
00000080: 82a1 50be dc04 7f3e 3b35 ae3e a2be 983d
00000090: 5bb3 a5bd 84ec ad3e aae0 d3bd 2809 adbe
000000a0: 83c6 853e 3a9b 4b3e fa1c 983d b45e f73d
000000b0: eac6 443e d19d 29bc a66d 5d3e e1f0 79be
000000c0: 8ae2 903d d438 95bc d2ba 823d 1eef 153a
000000d0: 3eda dc3e 5258 053d 40e7 903e 2a35 933d
000000e0: 0f1d 11bd 4a19 2fbd fc6b d13d cee1 06be
000000f0: c53e c0bd 80e2 4abd b247 60be d0d7 6a3e
00000100: 9086 2f3e 3601 253e fe36 d73b 611a 74be
00000110: 003e ddbd aec9 bf3d b6b1 823e 229a 5b3c
00000120: 549c 07be de81 4ebe 12db 643d 165f eb3d
00000130: a7e2 a3bd 835b 85be bbfa 65be c29d 80bd
00000140: 7aac f8bd cccf dc3e 7e81 c4bd fde0 58bc
00000150: 1db0 a0bd 34f7 a83a 4fd2 6a3d 4d42 343e
00000160: de8c a9bd 930e 94be feaa 02be b40a 0dbe
00000170: cbef 49bd f6f8 583e 2e9d 3f3d dd95 4b3c
00000180: e6c4 1b3d 038b e53b fd35 d43d 9852 8ebe
00000190: 0541 82be 60ba d83c 4325 273e 81c8 57bc
000001a0: b208 b63d d86e 7d3e 5874 053c fdec 623e
000001b0: 68cd 2dbd 76ae 9ebe 8212 ccbd 9dd2 e9be
000001c0: a5a7 f8bd 503f bcbd 2e49 22be f78e aebd
000001d0: 3fa6 bfbe e0e3 0abe 7ab4 3d3e f239 083e
000001e0: 3ae6 83be 8093 b1be ba05 6fbd c890 2bbc
000001f0: 7c66 103e 8880 90bd b611 31be faf4 463e
00000200: fa03 5e3e caf1 9f3b 1428 1f3e 4a59 c53d
00000210: 0c4c 9b3d df1f 203e c089 833e 8290 b5bd
00000220: f0ef 653c c97a 8d38 94a5 813c a4ec 803d
00000230: 3042 05be dd5f 96bd fe47 54be 4adc 913d
00000240: eb3f 4d3d 3137 70be e616 e1bd dd54 573e
00000250: 493d 893e d774 b03e 321f 073e 86b9 223e
00000260: baec 9a3c 6c1e 95be f50a 0f3e 986d 3e3e
00000270: 162a f93c 9dca 4b3e e817 aebd 8642 043e
00000280: b061 a5be 52ef 16be 9a79 ddbd 125c 463e
00000290: 9e4d 573d 34a0 83be 2b11 963e 881f bfbd
000002a0: d15a ca3e 53fe 563e 00fc 203d 94b8 ec3d
000002b0: 429f 433e 9cf8 92bd 0575 833e 6bbc 28be
000002c0: 33a0 6d3d 6861 e93d 7856 31bc 96ce 073f
000002d0: 4236 8f3e ed4f c63d b702 813c bb46 89bc
000002e0: 4f36 b8bd 8450 793e 283a d3be 74d3 aebe
000002f0: 89ab cabd c808 a3bd 7236 8a3d 58e3 173e
00000300: 1a83 a03e 18eb 4abd f628 60bd 25fa 14bd
00000310: 08b2 6d3e f46b 09be 94ed 62be 18c1 c1b9
00000320: 1e77 9e3e 4a00 a13c de30 11be c5ed 3c3e
00000330: 4262 b6bd 9e07 2abe 688e 983e 71da a53e
00000340: c213 263d af4b 753e aa56 7c3e 271a 4fbd
00000350: fc04 cebd 9a4f 073e 1e27 9c3e 04dc a03d
00000360: 44cf 113d 9852 9bbd 68a5 133e d252 82bd
00000370: e683 373c 2b4b d63d d631 a3bd 6abb 513e
00000380: 2789 78be 3e3f 35bd 5a9d 35be 10a1 2bbe
00000390: 6699 24bd d4a6 70bd c378 2dbd cbd0 4abd
000003a0: a9fe da3d 307e 44be 86a2 cf3e f558 f0bc
000003b0: b05a 89bd 605a f1bd a1cc a1bd 6084 803e
000003c0: 4e7a 32be d0f4 49bf 187b 92be 12e4 18be
000003d0: 3a50 9b3d 9a21 373e 84dc 843e 27d5 f03e
000003e0: 04da 5fbe c0bd d43d 000a fbbd baae 2bbc
000003f0: baa6 193e 4e72 70bd c424 003c 785a 20be

net.2.bias f4 [32]
-0.2592981 0.005788084 -0.85413074 -0.1068842 -0.08210911 -0.48864076 0.16303927 -0.5612771
-0.5998781 -0.34404996 -0.31493568 0.25224435 -0.07761006 -0.077454895 -0.35287577 -0.5915377
0.20687217 0.090317436 -0.4112413 0.5774597 0.05324509 0.04542335 -0.19825304 -0.020113762
-0.55650157 -0.76764166 0.24073623 0.22674394 -0.048512034 -1.0363011 0.39930212 -0.45416436
00000000: b8c2 84be f8a9 bd3b 50a8 5abf 1ae6 dabd
00000010: d228 a8bd 1f2f fabe c4f3 263e dbaf 0fbf
00000020: 9c91 19bf 5127 b0be 403f a1be 2c26 813e
00000030: 06f2 9ebd aca0 9ebd 22ac b4be 046f 17bf
00000040: 4cd6 533e 59f8 b83d 388e d2be 66d4 133f
00000050: 8617 5a3d d60d 3a3d d802 4bbe 9ec5 a4bc
00000060: e376 0ebf 2a84 44bf 8f83 763e 902f 683e
00000070: 8eb4 46bd 84a5 84bf 5471 cc3e 3b88 e8be

net.4.weight f4 [32, 32]
0.66726077 0.30791372 0.17080596 -0.24427095 0.31856883 0.13057113 0.89743626 -0.62119144
-0.3472419 0.69920903 0.21601008 0.06747745 0.046978913 -0.4611367 0.38071823 0.3527058
-0.982596 -0.43710586 -0.23231685 -0.4584632 0.47034746 -0.9732123 0.38567558 -0.60517395
0.33717734 -0.7034746 -0.482094 -0.05897753 -0.07618612 0.40083188 0.23526102 -0.088705555
0.5842016 -0.7269591 0.32061145 0.5026507 0.38439584 -0.10401565 -0.733188 -0.4594816
-0.10394253 0.036352213 0.37157774 -0.4347349 0.6974145 0.7542548 0.32111824 0.37718332
0.12806351 0.026871797 -0.17837915 0.4601862 0.22824225 0.26929677 -0.27832192 -0.4342051
0.3544922 -0.57316065 -0.46121535 -0.47393534 -0.2755815 -0.80189276 -0.41020024 -0.29503566
-0.18801403 -0.026169807 0.16210103 -0.11661421 -0.04431781 -0.11229764 -0.03310279 -0.13281688
-0.101708174 -0.055107124 0.08962926 -0.10062519 -0.065657556 0.26961315 0.24413002 0.18679903
0.15394607 -0.19327372 0.10352659 0.047448322 0.19088131 0.26461625 -0.030534264 -0.10933483
0.35935664 -0.08675447 -0.016749002 -0.015523779 0.40089774 -0.23205568 0.029753957 -0.276674
0.245649 -0.13055967 -0.289904 0.3029076 0.11289835 0.2268385 0.068526484 -0.14929198
-0.1444673 -0.29955524 -0.35155785 0.037654623 -0.054444663 0.4859941 -0.030137498 0.14184183
-0.35542896 0.03816995 0.0904924 0.21894002 -0.12135793 -0.01620387 0.0983371 -0.08882862
-0.26283717 -0.20557803 0.10991727 0.18882202 -0.15753359 -0.0715069 0.23646244 0.12790868
0.3383233 0.20369717 0.31357005 -0.057872403 0.20044419 -0.37014276 -0.13594657 -0.10901777
-0.42777503 0.28136614 -0.3368692 0.31328696 0.2863704 0.5610858 0.18855762 0.15988016
0.27961415 -0.23642579 -0.07619119 0.022860253 -0.06771406 -0.27249604 0.244842 0.07462898
-0.2807519 0.005695861 -0.17994484 0.47651255 -0.12982175 -0.20630914 -0.19546026 0.05125837
0.18730482 -0.25627923 0.14552256 0.33402458 0.22289489 -0.31997144 0.13538134 -0.25708178
-0.13734263 -0.041396663 -0.34066653 0.24575076 0.35778257 0.004158113 -0.3372047 0.40816647
0.25067428 -0.591611 -0.056527056 0.1398173 0.18576303 0.23615451 0.31174058 -0.09082836
0.3683191 -0.080165364 0.23687004 -0.22492903 -0.010037825 -0.2869057 -0.16072759 0.005620715
-0.19726759 -0.23233669 0.10917874 -0.002403683 0.17223507 -0.30405474 -0.25021982 -0.124295585
-0.042675138 0.10529257 0.37399256 -0.24999896 0.26677436 0.15057051 -0.2158126 0.31446964
0.40791488 -0.22724439 -0.43938488 0.65713793 0.4066005 0.25985596 -0.7021645 -0.39761686
0.14505365 0.16086394 -0.22672847 -0.40065694 -0.12584794 -0.16670367 -0.028880615 -0.15352118
-0.3917595 0.16966543 -0.18960959 -0.15695518 -0.4740889 1.060317 0.10058646 0.24418035
-0.16542673 -1.2866888 -0.3812897 0.07414918 -0.5173486 -1.239114 -0.71564734 0.6205611
-0.3783995 0.5140161 0.27429563 -0.35898095 0.3820613 -1.1134505 0.6477311 0.5723742
-0.33158726 1.0352952 -0.6688527 0.29723632 -0.8243941 0.39275134 0.101048484 0.45188552
00000000: 9ad1 2a3f dea6 9d3e c2e7 2e3e 2a22 7abe
00000010: 741b a33e 70b4 053e 62be 653f 6706 1fbf
00000020: b1c9 b1be 5dff 323f bf31 5d3e 9e31 8a3d
00000030: f66c 403d 1c1a ecbe 80ed c23e db95 b43e
00000040: 698b 7bbf 57cc dfbe 78e4 6dbe b0bb eabe
00000050: 62d1 f03e 7124 79bf 4577 c53e aeec 1abf
00000060: 82a2 ac3e e916 34bf 06d5 f6be 6c92 71bd
00000070: 7807 9cbd d639 cd3e 44e8 703e 42ab b5bd
00000080: 3c8e 153f fe19 3abf 2f27 a43e b7ad 003f
00000090: 88cf c43e 2806 d5bd 35b2 3bbf 2c41 ebbe
000000a0: d2df d4bd 0fe6 143d 703f be3e 9395 debe
000000b0: c289 323f d816 413f 9c69 a43e 2c1e c13e
000000c0: 1523 033e 3e22 dc3c 06a9 36be 879d eb3e
000000d0: 56b8 693e 44e1 893e 3680 8ebe 2250 debe
000000e0: 0080 b53e a8ba 12bf 6b24 ecbe a7a7 f2be
000000f0: 0519 8dbe d848 4dbf c405 d2be ea0e 97be
00000100: c086 40be 1062 d6bc d0fd 253e 6ed3 eebd
00000110: 9886 35bd 4efc e5bd cb96 07bd 2601 08be
00000120: 604c d0bd 02b8 61bd 8c8f b73d 9414 cebd
00000130: 7877 86bd bc0a 8a3e 38fd 793e 3f48 3f3e
00000140: 0aa4 1d3e 8ce9 45be c005 d43d 2c59 423d
00000150: 6476 433e c87b 873e fe22 fabc f0ea dfbd
00000160: 98fd b73e 54ac b1bd 3435 89bc 7357 7ebc
00000170: 7842 cd3e 01a0 6dbe 92be f33c 37a8 8dbe
00000180: 698b 7b3e 6fb1 05be 4c6e 94be b416 9b3e
00000190: 4037 e73d 5a48 683e 9d57 8c3d ffdf 18be
000001a0: 3cef 13be 4e5f 99be 64ff b3be bc3b 1a3d
000001b0: 5e01 5fbd 38d4 f83e eae2 f6bc fc3e 113e
000001c0: c9fa b5be 1858 1c3d 1454 b93d d031 603e
000001d0: 828a f8bd fabd 84bc f664 c93d c8eb b5bd
000001e0: 9892 86be 0c83 52be 4e1c e13d 8f5a 413e
000001f0: 7c50 21be 3672 92bd 3623 723e 7efa 023e
00000200: b638 ad3e fe95 503e 418c a03e 9d0b 6dbd
00000210: 3e41 4d3e 5a83 bdbe 9435 0bbe b544 dfbd
00000220: 5405 dbbe 390f 903e 1f7a acbe 2667 a03e
00000230: 249f 923e 52a3 0f3f 4015 413e a0b7 233e
00000240: 9629 8f3e 9a19 72be 200a 9cbd 6d45 bb3c
00000250: abad 8abd 9a84 8bbe dcb7 7a3e 14d7 983d
00000260: b7be 8fbe 58a4 ba3b 7643 38be 74f9 f33e
00000270: feef 04be b442 53be bc26 48be 4cf4 513d
00000280: d6cc 3f3e 0837 83be de03 153e 4505 ab3e
00000290: 8f3e 643e 4cd3 a3be 68a1 0a3e 39a0 83be
000002a0: 8ca3 0cbe 8c8f 29bd d86b aebe 16a6 7b3e
000002b0: 472f b73e c840 883b 18a6 acbe 32fb d03e
000002c0: 6158 803e d273 17bf ea88 67bd 442c 0f3e
000002d0: aa38 3e3e 7dd2 713e 769c 9f3e 3804 babd
000002e0: 5294 bc3e bd2d a4bd 0f8e 723e cc53 66be
000002f0: b175 24bc 4ee5 92be c695 24be fa2d b83b
00000300: 8400 4abe abe9 6dbe 1a99 df3d 1c87 1dbb
00000310: 645e 303e 10ad 9bbe d01c 80be af8e febd
00000320: 20cc 2ebd a2a3 d73d f47b bf3e baff 7fbe
00000330: a696 883e 282f 1a3e fafd 5cbe 2a02 a13e
00000340: 38da d03e c1b2 68be 0ef7 e0be 313a 283f
00000350: f12d d03e d70b 853e 0dc1 33bf 7094 cbbe
00000360: f288 143e 84b9 243e 822b 68be e822 cdbe
00000370: 48de 00be 5eb4 2abe 0a97 ecbc a834 1dbe
00000380: b494 c8be c6bc 2d3e 0429 42be dcb8 20be
00000390: c8bb f2be 78b8 873f 4600 ce3d 6a0a 7a3e
000003a0: a065 29be 38b2 a4bf 6738 c3be 86db 973d
000003b0: f570 04bf 4a9b 9ebf aa34 37bf 18dd 1e3f
000003c0: 94bd c1be 8f96 033f 7a70 8c3e 5acc b7be
000003d0: 8a9d c33e 8c85 8ebf b5d1 253f 1e87 123f
000003e0: cec5 a9be 8e84 843f ee39 2bbf 5c2f 983e
000003f0: 7e0b 53bf b416 c93e 82f2 ce3d 8a5d e73e

net.4.bias f4 [32]
-0.18135878 -0.423725 0.11650002 0.16866484 -0.00063007383 -0.092205286 0.22028181 -0.16364372
0.18451619 -0.052465543 -0.044992175 -0.21931544 -0.23185456 -0.07595662 0.1208342 0.1457273
0.2202194 0.10299178 0.066122666 0.110623345 0.14392072 0.057408877 0.20437247 0.036394842
-0.8129429 0.1865952 -0.004094896 -0.068703905 -0.083558604 0.17313537 0.07003954 0.1026583
00000000: 1eb6 39be 7cf2 d8be 9097 ee3d 7ab6 2c3e
00000010: 8a2b 25ba 20d6 bcbd 8e91 613e 3892 27be
00000020: d0f1 3c3e 1ce6 56bd b749 38bd 3a94 60be
00000030: 486b 6dbe 258f 9bbd ec77 f73d 8a39 153e
00000040: 3281 613e 5bed d23d 526b 873d 7e8e e23d
00000050: f45f 133e 9225 6b3d 0447 513e c212 153d
00000060: 071d 50bf d012 3f3e 7a2e 86bb a2b4 8cbd
00000070: c620 abbd 664a 313e e470 8f3d 843e d23d

net.6.weight f4 [1, 32]
-0.63102955 -1.2533171 -0.86970484 0.77708894 -0.41518575 -0.46695316 1.047446 0.66093457
-0.4296834 -0.8189307 -0.5109622 0.3594591 -0.44230637 0.47735065 -0.31284168 0.49937177
-0.5748284 -0.58200514 0.9150555 -0.39920783 0.50591254 -0.49882668 -0.5400116 -0.5584307
-0.7411675 0.5044827 0.4170308 0.5371654 0.60935974 -0.5467622 0.5639852 -0.57892406
00000000: 278b 21bf b26c a0bf faa4 5ebf 4def 463f
00000010: 3a93 d4be 7c14 efbe b612 863f 0233 293f
00000020: 76ff dbbe 71a5 51bf 6bce 02bf 060b b83e
00000030: fb75 e2be 4e67 f43e c92c a0be a8ad ff3e
00000040: f427 13bf 4afe 14bf 1441 6a3f f864 ccbe
00000050: 7c83 013f 3666 ffbe 333e 0abf 50f5 0ebf
00000060: 27bd 3dbf c725 013f 1085 d53e ac83 093f
00000070: 00ff 1b3f 9cf8 0bbf 5661 103f 5e34 14bf

exp_avg f4 [256, 120]
-2.3782322e-05 -2.9861776e-05 -2.9878003e-05 -2.9784867e-05 -1.9258387e-05 -1.0312392e-05 -3.4244946e-05 -1.9373878e-05
1.8366602e-05 2.2078295e-07 -2.5450823e-05 -2.1606698e-05 0.000100587415 -4.666892e-06 -4.9095037e-05 0.000112472924
0.00010989333 0.00010880853 7.486419e-05 5.2618343e-05 0.00018714019 0.00022344664 3.2722855e-05 5.36005e-05
8.614298e-06 2.3129263e-05 0.00018241578 -1.9536152e-05 0.00011131297 0.000117637086 5.839701e-05 2.7394677e-05
0.00010747526 0.00016953987 1.2800158e-05 1.1537268e-05 4.4992623e-05 0.00014928637 3.5643465e-05 5.9394542e-06
7.8426754e-05 6.753901e-05 0.000121435274 8.713404e-05 -2.204466e-05 1.0639585e-05 -3.2578475e-05 -6.612607e-06
-4.0105966e-05 -2.5603302e-05 -3.3220032e-05 1.0279613e-05 -3.4062163e-05 -3.016715e-05 -2.9904077e-05 -3.1961823e-05
-2.9879115e-05 -3.0022238e-05 -2.5115203e-05 -3.4043736e-05 -2.9783036e-05 -3.014407e-05 -2.9012313e-05 -2.9964616e-05
-2.9869487e-05 -2.9869487e-05 -2.9869549e-05 -2.9870333e-05 -2.9901765e-05 -2.9869487e-05 -2.9869487e-05 -2.9868881e-05
-2.9869487e-05 -2.9869487e-05 -2.9869487e-05 -2.9869487e-05 -2.9869487e-05 -2.9869487e-05 -2.9869487e-05 -2.9869487e-05
-2.9869487e-05 -2.9869487e-05 -2.9869487e-05 -2.9869487e-05 -2.9869487e-05 -2.9869487e-05 -2.9869487e-05 -2.9869487e-05
-2.9869487e-05 -2.9869487e-05 -2.9869487e-05 -2.9869487e-05 -2.9869487e-05 -2.9869487e-05 -2.9869487e-05 -2.9869487e-05
-2.9869487e-05 -2.9869487e-05 -2.9869487e-05 -2.9869487e-05 -2.9869487e-05 -2.9869487e-05 -2.9869487e-05 -2.9869487e-05
-2.977568e-05 -2.9869487e-05 -2.9869487e-05 -2.9869487e-05 -2.9869487e-05 -3.014403e-05 -2.9869487e-05 -2.9869487e-05
-3.0315388e-05 -2.9869487e-05 -2.9768908e-05 -2.9869487e-05 -3.0084695e-05 -2.990307e-05 -2.986949e-05 -3.1606065e-05
2.3155815e-05 2.597581e-05 2.5925128e-05 2.6365142e-05 3.340105e-05 2.3586681e-05 -6.910255e-06 1.9338982e-05
5.285708e-06 1.323017e-05 1.4138085e-05 -2.310496e-05 4.6140165e-05 -3.419669e-05 -2.3897746e-05 -8.114114e-06
-0.00015618933 -0.00013171256 -7.805953e-05 -9.133734e-05 -2.464105e-05 -6.405905e-05 -9.1418384e-05 -2.9340898e-05
1.0425767e-06 -9.3066235e-05 -0.00010215807 -0.0001068277 -7.42122e-05 -7.510599e-05 -0.000107498905 -7.345591e-05
-8.5078915e-05 -2.331164e-05 2.2976308e-06 -9.341089e-05 8.313599e-06 -6.045424e-05 -0.00011022316 -7.083048e-05
-5.1952098e-05 -0.00012783313 -0.000101354126 -2.6927217e-05 2.7382508e-05 2.4573701e-05 2.5637382e-07 -2.5892692e-05
9.99183e-06 2.5434674e-05 3.2629912e-05 1.4689942e-05 2.7717786e-05 2.5739984e-05 2.6777794e-05 2.6685238e-05
2.8234788e-05 2.5255906e-05 2.6430565e-05 2.4189905e-05 2.5801603e-05 2.5315068e-05 2.5371593e-05 2.8237593e-05
2.597358e-05 2.597358e-05 2.6411704e-05 2.5999427e-05 2.5964786e-05 2.597358e-05 2.597358e-05 2.5973337e-05
2.597358e-05 2.59732e-05 2.598189e-05 2.597358e-05 2.597358e-05 2.597358e-05 2.597358e-05 2.597358e-05
2.597358e-05 2.597358e-05 2.597358e-05 2.597358e-05 2.597358e-05 2.597358e-05 2.597358e-05 2.597358e-05
2.597358e-05 2.597358e-05 2.597358e-05 2.597358e-05 2.597358e-05 2.597358e-05 2.597358e-05 2.597358e-05
2.597358e-05 2.597358e-05 2.597358e-05 2.597358e-05 2.597358e-05 2.597358e-05 2.597358e-05 2.6004172e-05
2.597358e-05 2.597358e-05 2.597358e-05 2.5973299e-05 2.597358e-05 2.5207673e-05 2.5973684e-05 2.5893221e-05
2.6168102e-05 2.597358e-05 2.5973613e-05 2.595657e-05 2.6640366e-05 2.4506808e-05 2.6472084e-05 2.5592131e-05
1.5020322e-05 -8.309945e-07 3.565987e-06 1.6984067e-06 1.529474e-05 2.0085693e-07 1.1678359e-05 -3.3627046e-05
3.2498443e-05 -5.357372e-06 3.6327747e-05 2.8264662e-05 -7.313679e-05 7.084236e-05 2.5536014e-05 -0.0001550118
00000000: 2680 c7b7 ad7f fab7 86a2 fab7 84da f9b7
00000010: 128d a1b7 6303 2db7 3ba2 0fb8 1685 a2b7
00000020: fa11 9a37 5b10 6d34 3a7f d5b7 0840 b5b7
00000030: 75f2 d238 4c98 9cb6 65eb 4db8 71df eb38
00000040: 8876 e638 2230 e438 6800 9d38 84b2 5c38
00000050: 103b 4439 004d 6a39 e63f 0938 19d1 6038
00000060: 2186 1037 b705 c237 dd46 3f39 91e1 a3b7
00000070: b270 e938 eeb3 f638 50ef 7438 9fcd e537
00000080: 5764 e138 83c6 3139 43c0 5637 3090 4137
00000090: 76b6 3c38 c189 1c39 e17f 1538 864b c736
000000a0: 0b79 a438 bba3 8d38 11ab fe38 bbbb b638
000000b0: 8cec b8b7 ab80 3237 dfa4 08b8 dde1 ddb6
000000c0: 7437 28b8 acc6 d6b7 bd55 0bb8 9a76 2c37
000000d0: f8dd 0eb8 760f fdb7 84da fab7 bf0e 06b8
000000e0: e9a4 fab7 44d8 fbb7 7dae d2b7 2fca 0eb8
000000f0: 95d6 f9b7 e6dd fcb7 785f f3b7 865c fbb7
00000100: 3c90 fab7 3c90 fab7 5e90 fab7 0d92 fab7
00000110: 8dd5 fab7 3c90 fab7 3c90 fab7 ef8e fab7
00000120: 3c90 fab7 3c90 fab7 3c90 fab7 3c90 fab7
00000130: 3c90 fab7 3c90 fab7 3c90 fab7 3c90 fab7
00000140: 3c90 fab7 3c90 fab7 3c90 fab7 3c90 fab7
00000150: 3c90 fab7 3c90 fab7 3c90 fab7 3c90 fab7
00000160: 3c90 fab7 3c90 fab7 3c90 fab7 3c90 fab7
00000170: 3c90 fab7 3c90 fab7 3c90 fab7 3c90 fab7
00000180: 3c90 fab7 3c90 fab7 3c90 fab7 3c90 fab7
00000190: 3c90 fab7 3c90 fab7 3c90 fab7 3c90 fab7
000001a0: c9c6 f9b7 3c90 fab7 3c90 fab7 3c90 fab7
000001b0: 3c90 fab7 d0dd fcb7 3c90 fab7 3c90 fab7
000001c0: cd4d feb7 3c90 fab7 3eb8 f9b7 3c90 fab7
000001d0: 645e fcb7 5bd8 fab7 3e90 fab7 c190 04b8
000001e0: bc3e c237 a1e6 d937 ca79 d937 b62a dd37
000001f0: 1b18 0c38 03dc c537 a3de e7b6 263a a237
00000200: e35b b136 26f7 5d37 9d32 6d37 86d1 c1b7
00000210: a086 4138 6b6e 0fb8 0578 c8b7 db21 08b7
00000220: c1c6 23b9 521c 0ab9 e4b3 a3b8 5c8c bfb8
00000230: 40b4 ceb7 7157 86b8 dfb7 bfb8 1921 f6b7
00000240: aaee 8b35 8e2c c3b8 b23d d6b8 af08 e0b8
00000250: 5fa2 9bb8 3982 9db8 0971 e1b8 570c 9ab8
00000260: 656c b2b8 5e8d c3b7 ff30 1a36 97e5 c3b8
00000270: a37a 0b37 3f90 7db8 9c27 e7b8 d38a 94b8
00000280: 24e7 59b8 f20a 06b9 158e d4b8 c2e1 e1b7
00000290: 7db3 e537 9f23 ce37 c0a3 8934 2234 d9b7
000002a0: 95a2 2737 8c5c d537 1adc 0838 d274 7637
000002b0: 7e83 e837 32ec d737 e0a0 e037 1dda df37
000002c0: bfd9 ec37 a5dc d337 35b7 dd37 6deb ca37
000002d0: 8570 d837 b25b d437 15d5 d437 c5df ec37
000002e0: d7e1 d937 d7e1 d937 b48e dd37 5819 da37
000002f0: f4ce d937 d7e1 d937 d7e1 d937 51e1 d937
00000300: d7e1 d937 06e1 d937 aff3 d937 d7e1 d937
00000310: d7e1 d937 d7e1 d937 d7e1 d937 d7e1 d937
00000320: d7e1 d937 d7e1 d937 d7e1 d937 d7e1 d937
00000330: d7e1 d937 d7e1 d937 d7e1 d937 d7e1 d937
00000340: d7e1 d937 d7e1 d937 d7e1 d937 d7e1 d937
00000350: d7e1 d937 d7e1 d937 d7e1 d937 d7e1 d937
00000360: d7e1 d937 d7e1 d937 d7e1 d937 d7e1 d937
00000370: d7e1 d937 d7e1 d937 d7e1 d937 8923 da37
00000380: d7e1 d937 d7e1 d937 d7e1 d937 3ce1 d937
00000390: d7e1 d937 1175 d337 10e2 d937 4535 d937
000003a0: 9283 db37 d7e1 d937 e9e1 d937 4fbd d937
000003b0: c079 df37 f893 cd37 5e10 de37 afae d637
000003c0: cbff 7b37 8211 5fb5 314f 6f36 cff4 e335
000003d0: 344d 8037 22ab 5734 2cee 4337 c40a 0db8
000003e0: f04e 0838 7ac3 b3b6 9f5e 1838 e619 ed37
000003f0: 0461 99b8 3491 9438 2c36 d637 aa8a 22b9

exp_avg_sq f4 [256, 120]
2.1026517e-08 2.014974e-08 2.0256183e-08 2.0239717e-08 2.2871731e-08 2.097172e-08 2.2928655e-08 2.8707412e-08
1.02383915e-07 4.145546e-08 2.1432404e-08 3.1067838e-08 1.7454346e-07 7.155918e-08 3.451458e-08 1.4670415e-07
3.3104988e-07 3.1072773e-07 3.0901876e-07 3.484762e-07 2.8067174e-07 3.1329455e-07 2.8222868e-07 3.5518602e-07
2.7396464e-07 2.7641687e-07 4.1107725e-07 3.127221e-07 3.399964e-07 3.6828789e-07 3.432743e-07 2.8060754e-07
2.8233416e-07 2.8157731e-07 2.761308e-07 2.499817e-07 1.7891394e-07 2.946415e-07 2.3637483e-07 1.9427715e-07
1.5109639e-07 1.8418012e-07 3.5555772e-07 2.2275674e-07 2.254847e-08 8.2587476e-08 2.1500712e-08 6.620818e-08
2.756386e-08 2.2625713e-08 2.0442672e-08 3.6975504e-08 2.0794849e-08 2.0220652e-08 2.0194674e-08 2.0375316e-08
2.0303304e-08 2.0232418e-08 2.0295253e-08 2.0792069e-08 2.0201373e-08 2.0198222e-08 2.0225638e-08 2.0216273e-08
2.0176065e-08 2.0179906e-08 2.0181057e-08 2.0184952e-08 2.0184945e-08 2.0179648e-08 2.0179629e-08 2.018216e-08
2.0178355e-08 2.0199641e-08 2.0179582e-08 2.0179648e-08 2.0183686e-08 2.0179648e-08 2.0182554e-08 2.0179648e-08
2.0179648e-08 2.0179648e-08 2.0179648e-08 2.0179648e-08 2.0179648e-08 2.0179648e-08 2.0179648e-08 2.0179648e-08
2.0179648e-08 2.0179648e-08 2.0179648e-08 2.0179648e-08 2.0179648e-08 2.0179648e-08 2.0179648e-08 2.0179648e-08
2.0179627e-08 2.0179648e-08 2.0179648e-08 2.0179659e-08 2.0179648e-08 2.0179696e-08 2.0179648e-08 2.0179682e-08
2.0179737e-08 2.0185686e-08 2.0179508e-08 2.0179648e-08 2.0181767e-08 2.0183712e-08 2.0179538e-08 2.0179646e-08
2.0392156e-08 2.0176495e-08 2.014968e-08 2.018023e-08 2.0237136e-08 2.028225e-08 2.019651e-08 2.0296167e-08
1.0770127e-08 9.856149e-09 9.866267e-09 9.889675e-09 1.2865446e-08 1.06611155e-08 1.2695431e-08 2.1673138e-08
6.850414e-08 2.5982233e-08 1.3227932e-08 1.5592281e-08 8.797526e-08 4.13023e-08 4.6011444e-08 7.0456416e-08
1.9508668e-07 1.1797124e-07 1.10193554e-07 1.1207582e-07 1.1959595e-07 1.5826308e-07 2.1136056e-07 1.56385e-07
1.4272908e-07 1.7941807e-07 2.1636541e-07 1.9687758e-07 2.1041316e-07 1.9640079e-07 1.5812502e-07 1.3875572e-07
1.4892824e-07 1.4927305e-07 1.2280884e-07 1.1926222e-07 1.01035425e-07 1.3861172e-07 1.278993e-07 1.2326801e-07
5.5713013e-08 1.0502531e-07 1.4124954e-07 7.49908e-08 1.4912214e-08 2.8439862e-08 5.9616255e-08 5.2940372e-08
1.1046953e-08 1.1701677e-08 1.1373456e-08 1.4238238e-08 1.0095685e-08 9.893159e-09 9.9578e-09 1.1575687e-08
9.931112e-09 9.823705e-09 9.906084e-09 1.0055913e-08 9.883592e-09 9.814207e-09 9.852151e-09 9.831585e-09
9.812583e-09 9.809626e-09 9.823184e-09 9.800956e-09 9.813556e-09 9.811986e-09 9.819064e-09 9.815748e-09
9.811123e-09 9.812087e-09 9.812493e-09 9.811946e-09 9.8207416e-09 9.811946e-09 9.811733e-09 9.811946e-09
9.811946e-09 9.811946e-09 9.811946e-09 9.811946e-09 9.811946e-09 9.811946e-09 9.811946e-09 9.811946e-09
9.811946e-09 9.811946e-09 9.811946e-09 9.811946e-09 9.811946e-09 9.811946e-09 9.811946e-09 9.811946e-09
9.8119415e-09 9.811946e-09 9.811946e-09 9.811946e-09 9.810077e-09 9.811943e-09 9.811976e-09 9.811913e-09
9.81164e-09 9.816981e-09 9.811181e-09 9.81247e-09 9.810733e-09 9.838225e-09 9.810966e-09 9.816108e-09
9.834892e-09 9.855731e-09 9.8313455e-09 9.819073e-09 9.977378e-09 9.961249e-09 9.888482e-09 9.829514e-09
3.9136864e-08 3.4458566e-08 3.4172e-08 3.471475e-08 3.8212654e-08 3.7088018e-08 4.199597e-08 6.052614e-08
2.1248255e-07 7.077453e-08 6.00813e-08 4.9150902e-08 1.7073252e-07 1.6230422e-07 2.2985883e-07 2.6762484e-07
00000000: cd9d b432 bf15 ad32 d1ff ad32 9cdb ad32
00000010: 7877 c432 4d25 b432 a5f4 c432 4498 f632
00000020: 27de db33 c30c 3233 5b1a b832 736f 0533
00000030: 246a 3b34 13ac 9933 2f3d 1433 bb85 1d34
00000040: 26bb b134 18d2 a634 37e7 a534 3416 bb34
00000050: 3baf 9634 e032 a834 3785 9734 65b0 be34
00000060: 6a15 9334 7266 9434 07b2 dc34 33e4 a734
00000070: c088 b634 1ab9 c534 434b b834 68a6 9634
00000080: b693 9734 b12b 9734 213f 9434 3935 8634
00000090: 7d1b 4034 382f 9e34 38ce 7d34 7f9a 5034
000000a0: 0f3d 2234 0cc3 4534 7be3 be34 e82e 6f34
000000b0: 9cb0 c132 f25a b133 91b0 b832 552e 8e33
000000c0: 92c5 ec32 785a c232 e999 af32 ffce 1e33
000000d0: 5ba0 b232 afb1 ad32 8f78 ad32 cb05 af32
000000e0: 7067 ae32 8fcb ad32 bc55 ae32 3e9a b232
000000f0: 4a87 ad32 5c80 ad32 a6bc ad32 0ea8 ad32
00000100: a34f ad32 1558 ad32 9d5a ad32 2e63 ad32
00000110: 2a63 ad32 8457 ad32 7957 ad32 0a5d ad32
00000120: ac54 ad32 7b83 ad32 5f57 ad32 8457 ad32
00000130: 6560 ad32 8457 ad32 e85d ad32 8457 ad32
00000140: 8457 ad32 8457 ad32 8457 ad32 8457 ad32
00000150: 8457 ad32 8457 ad32 8457 ad32 8457 ad32
00000160: 8457 ad32 8457 ad32 8457 ad32 8457 ad32
00000170: 8457 ad32 8457 ad32 8457 ad32 8457 ad32
00000180: 7857 ad32 8457 ad32 8457 ad32 8a57 ad32
00000190: 8457 ad32 9f57 ad32 8457 ad32 9757 ad32
000001a0: b657 ad32 cb64 ad32 3557 ad32 8457 ad32
000001b0: 2d5c ad32 7460 ad32 4657 ad32 8357 ad32
000001c0: d32a af32 9550 ad32 9d15 ad32 cc58 ad32
000001d0: efd5 ad32 2439 ae32 987c ad32 be57 ae32
000001e0: 8507 3932 cd53 2932 4d80 2932 40e7 2932
000001f0: d406 5d32 1528 3732 191b 5a32 bc2b ba32
00000200: 8d1c 9333 892f df32 0f41 6332 caef 8532
00000210: e9ec bc33 5c64 3133 1e9e 4533 d34d 9733
00000220: 0579 5134 6057 fd33 8ca3 ec33 55ae f033
00000230: 496a 0034 06ef 2934 59f2 6234 c8ea 2734
00000240: 1241 1934 10a6 4034 1252 6834 4c65 5334
00000250: eeed 6134 3de2 5234 13c9 2934 e2fc 1434
00000260: 15e9 1f34 dd47 2034 70dd 0334 8d0e 0034
00000270: d0f8 d833 4dd5 1434 b154 0934 a75b 0434
00000280: 1b49 6f33 468a e133 61aa 1734 a10a a133
00000290: 4e18 8032 eb4b f432 6206 8033 8e60 6333
000002a0: 03c9 3d32 8508 4932 fd64 4332 6f9c 7432
000002b0: 4b71 2d32 93f6 2932 de12 2b32 69de 4632
000002c0: 7e9d 2a32 1dc5 2832 6b2f 2a32 60c2 2c32
000002d0: 7fcc 2932 579b 2832 3842 2932 c5e7 2832
000002e0: 3294 2832 3187 2832 d2c2 2832 0f61 2832
000002f0: 7a98 2832 9291 2832 b3b0 2832 1ea2 2832
00000300: c68d 2832 0492 2832 cd93 2832 6591 2832
00000310: 14b8 2832 6591 2832 7590 2832 6591 2832
00000320: 6591 2832 6591 2832 6591 2832 6591 2832
00000330: 6591 2832 6591 2832 6591 2832 6591 2832
00000340: 6591 2832 6591 2832 6591 2832 6591 2832
00000350: 6591 2832 6591 2832 6591 2832 6591 2832
00000360: 6091 2832 6591 2832 6591 2832 6591 2832
00000370: 2d89 2832 6291 2832 8791 2832 4091 2832
00000380: 0d90 2832 8aa7 2832 088e 2832 b393 2832
00000390: 0f8c 2832 f904 2932 168d 2832 b3a3 2832
000003a0: 50f6 2832 f751 2932 b7e6 2832 bdb0 2832
000003b0: f968 2b32 0922 2b32 01e2 2932 a9de 2832
000003c0: 7017 2833 98ff 1333 83c4 1233 4519 1533
000003d0: 421f 2433 b54a 1f33 0f5f 3433 99fa 8133
000003e0: c226 6434 b6fc 9733 0b06 8133 fd19 5333
000003f0: 9952 3734 d845 2e34 1dcf 7634 14ae 8f34

slow_buffer f4 [256, 120]
-0.22356747 -0.20046905 -0.015062937 0.0033324407 -0.11872102 -0.21752658 0.07821812 -0.42195824
-0.035723448 -0.024111833 -0.1608605 -0.0035354942 -0.03394448 -0.050849028 -0.44948846 0.019120391
-0.023929274 0.007861797 0.2663533 0.4120006 -0.06645064 -0.03116226 -0.039294638 0.41250646
-0.118511125 -0.037612118 0.35422826 -0.023065982 -0.04582843 0.011012445 0.07424863 -0.030156245
-0.055917285 0.012839626 0.05716563 0.023247525 -0.051626164 0.05935128 -0.07158594 -0.31291983
-0.03353874 0.07905968 0.43749762 0.10019829 -0.107851 0.6495006 -0.8098978 0.024999974
-0.12826943 0.1947963 -0.29781228 1.6392841 0.22181526 0.029043391 -0.03974897 -0.58649945
-0.13987622 0.09087607 0.17263964 0.08138938 -0.12330504 0.028996004 -0.19634178 0.17148826
-0.07345995 -0.1078129 -0.031476863 -0.123558424 -0.09340051 0.033697017 0.031320147 0.106065646
-0.013973771 -0.1269924 -0.15304247 -0.18045115 -0.15727775 -0.067254 0.04040509 -0.019456238
0.026013985 -0.12299981 -0.16442174 -0.19456968 0.0048247585 -0.1756118 -0.084520094 -0.09038442
-0.18244237 -0.05626809 0.0030618976 -0.07864005 -0.113035195 -0.036534235 -0.17197055 -0.14050293
-0.19964352 0.026698764 -0.20889652 -0.0856382 -0.18067786 -0.07242433 -0.16324615 -0.08281707
-0.21184239 -0.18789169 -0.047043733 0.009463336 -0.15294847 -0.10550311 -0.043302797 -0.16532815
-0.02634873 -0.022059305 0.013579864 -0.14669487 -0.26999336 -0.19608593 -0.17849922 0.107116915
-0.32078224 -0.29241213 0.35695446 -0.18145418 -0.06533378 -0.17772913 0.3361665 -0.046259686
-0.08671813 0.051381335 -0.3304699 0.16643462 -0.0892007 -0.18476135 -0.1570391 -0.11435349
0.31850666 -0.0638204 0.07418571 0.022854894 0.06575155 0.09981805 0.55084497 -0.025239993
0.09813827 0.09550655 0.30113965 0.18158081 0.2354358 -0.034795914 -0.28278735 -0.13869971
-0.03507807 -0.18266895 -0.35540193 -0.10902265 -0.12143285 -0.09210192 -0.04602039 -0.3203173
-0.16117886 -0.09350261 0.37174124 0.0008369777 0.13709068 -0.17168796 0.15962717 0.040536456
-0.37875324 -0.32554471 0.054530516 0.2304947 -0.058767766 -0.0007912495 -0.079080716 -0.14529273
0.16215554 -0.057434935 -0.08048029 0.10228046 0.33033234 -0.056834456 0.15230909 0.2842486
0.02223586 0.24851781 0.047439773 0.12036987 0.11401141 -0.07891531 0.028415166 -0.0032414056
0.08169153 0.13838065 0.14346111 0.063176155 0.04558848 0.010133795 -0.07449974 -0.11009763
-0.08986047 -0.12815133 -0.10082142 0.0037551268 -0.05655714 0.05105122 -0.008217422 0.06682475
-0.13569555 0.039643086 0.08198196 0.052388728 -0.0917086 -0.034779154 -0.014039818 -0.12531523
0.043539822 -0.10601197 -0.1571458 -0.1212343 -0.14735827 -0.1359081 -0.014042739 -0.1235213
-0.12816292 -0.1339419 -0.08040987 -0.12773472 -0.13730904 0.054081544 -0.09230942 0.051891185
-0.10252635 -0.24680421 -0.03960823 -0.14253965 -0.0221259 0.3231852 0.2292575 -0.5402392
0.051318552 0.10733934 -0.18323651 -0.047257826 -0.065148324 0.169024 -0.102126144 0.11182909
-0.104197495 -0.55527544 0.16790685 0.015988298 -0.4258781 -0.24536109 -0.16818213 -0.099288605
00000000: dfee 64be c247 4dbe 89ca 76bc 1465 5a3b
00000010: 0224 f3bd 4abf 5ebe d230 a03d e90a d8be
00000020: c052 12bd 2e86 c5bc 9db8 24be c0b3 67bb
00000030: 5e09 0bbd 1247 50bd 5a23 e6be 5ea2 9c3c
00000040: 5307 c4bc c4ce 003c 765f 883e bef1 d23e
00000050: 4617 88bd ff47 ffbc 6af3 20bd 0c34 d33e
00000060: f6b5 f2bd 2a0f 1abd 685d b53e dff4 bcbc
00000070: 98b6 3bbd 8b6d 343c aa0f 983d 3b0a f7bc
00000080: 8609 65bd 4b5d 523c 8226 6a3d 9871 be3c
00000090: f575 53bd 541a 733d a69b 92bd 0737 a0be
000000a0: eb5f 09bd 0bea a13d b0ff df3e c334 cd3d
000000b0: fce0 dcbd ac45 263f 7655 4fbf bfcc cc3c
000000c0: 1059 03be ae78 473e da7a 98be 10d4 d13f
000000d0: 8a23 633e 68ec ed3c d1cf 22bd d424 16bf
000000e0: b63b 0fbe 3c1d ba3d 72c8 303e 7aaf a63d
000000f0: 5a87 fcbd 0789 ed3c d20d 49be 9e9a 2f3e
00000100: 2c72 96bd 02cd dcbd e2ed 00bd 330c fdbd
00000110: c448 bfbd e205 0a3d 8e49 003d f238 d93d
00000120: 3ef2 64bc 4c0a 02be 2ab7 1cbe 30c8 38be
00000130: 6b0d 21be 77bc 89bd cf7f 253d b062 9fbc
00000140: 481b d53c 53e7 fbbd 2c5e 28be 463d 47be
00000150: 0219 9e3b 94d3 33be df18 adbd 771b b9bd
00000160: 2cd2 3abe 5e79 66bd 1eaa 483b 090e a1bd
00000170: ff7e e7bd eca4 15bd 0c19 30be 00e0 0fbe
00000180: 5a6f 4cbe 5eb7 da3c f8e8 55be 1563 afbd
00000190: 9e03 39be 3553 94bd 002a 27be ff9b a9bd
000001a0: 36ed 58be ae66 40be eeb0 40bd 1c0c 1b3c
000001b0: 869e 1cbe 0412 d8bd 465e 31bd c84b 29be
000001c0: 4bd9 d7bc b7b5 b4bc 147e 5e3c 2e37 16be
000001d0: 923c 8abe c0ca 48be 80c8 36be 1d60 db3d
000001e0: 923d a4be 0bb7 95be bcc2 b63e 20cf 39be
000001f0: b8cd 85bd a0fe 35be 041e ac3e cc7a 3dbd
00000200: 4699 b1bd 3c75 523d 5a33 a9be d66d 2a3e
00000210: dbae b6bd 1432 3dbe dcce 20be 2a32 eabd
00000220: 4e13 a33e 45b4 82bd adee 973d 303a bb3c
00000230: c0a8 863d 686d cc3d 2d04 0d3f 1ac4 cebc
00000240: b8fc c83d f098 c33d fa2e 9a3e 52f0 393e
00000250: 1516 713e 2986 0ebd 81c9 90be 4c07 0ebe
00000260: 06ae 0fbd 920d 3bbe 3ef7 b5be 4447 dfbd
00000270: c9b1 f8bd ee9f bcbd e07f 3cbd a100 a4be
00000280: 120c 25be 4c7e bfbd de54 be3e 9f68 5b3a
00000290: 8061 0c3e f8ce 2fbe 4e75 233e 8e09 263d
000002a0: f2eb c1be ccad a6be 645b 5f3d cd06 6c3e
000002b0: 78b6 70bd db6b 4fba 12f5 a1bd 9ec7 14be
000002c0: 1a0c 263e e540 6bbd dad2 a4bd 6b78 d13d
000002d0: 5221 a93e 3fcb 68bd eaf6 1b3e 0889 913e
000002e0: fa27 b63c 747b 7e3e 3550 423d 7a84 f63d
000002f0: d07e e93d 5a9e a1bd ecc6 e83c c36d 54bb
00000300: e44d a73d a8b3 0d3e 78e7 123e 8062 813d
00000310: fcba 3a3d 3808 263c 5293 98bd de7a e1bd
00000320: c408 b8bd 1a3a 03be 767b cebd 9318 763b
00000330: 76a8 67bd 161b 513d 5ea2 06bc 6adb 883d
00000340: c6f3 0abe ca60 223d 28e6 a73d 9095 563d
00000350: b8d1 bbbd 9674 0ebd 4407 66bc a352 00be
00000360: d056 323d ce1c d9bd d4ea 20be b049 f8bd
00000370: 16e5 16be 7e2b 0bbe 8413 66bc bcf8 fcbd
00000380: 243d 03be 1128 09be eead a4bd e4cc 02be
00000390: be9a 0cbe 9c84 5d3d b90c bdbd da8b 543d
000003a0: 56f9 d1bd 3eba 7cbe 3d3c 22bd eaf5 11be
000003b0: 6041 b5bc 8878 a53e 7ac2 6a3e 1e4d 0abf
000003c0: 6733 523d bad4 db3d 5aa2 3bbe 6c91 41bd
000003d0: 7c6c 85bd a114 2d3e 8327 d1bd a606 e53d
000003e0: 7f65 d5bd 8826 0ebf c6ef 2b3e e4f9 823c
000003f0: b20c dabe f03f 7bbe f037 2cbe d357 cbbd
