Training/PyTrainer/epoch=64-v1.ckpt (torch, 654021 bytes, 28 tensors)

net.0.weight f4 [256, 120]
-0.0677705 -0.09240031 -0.08918338 -0.032558937 -0.09594876 -0.046412315 0.1175452 0.035426885
-0.06411578 0.21093583 0.021752387 0.03810591 0.030872397 0.042280708 0.02822629 0.1321682
0.10780572 -0.09355901 0.09861355 -0.089322455 0.12564208 0.09452171 -0.11063415 -0.13873218
0.007843007 -0.05771928 0.039154742 0.012514824 0.018917909 0.08292448 -0.026173491 0.0081934
0.0025926281 -0.041753706 -0.041011147 -0.017641453 -0.00047787902 -0.08068424 -0.02679152 -0.025377044
-0.018536521 -0.063556045 -0.17820199 0.10836573 0.053637758 -0.11908229 0.042699095 0.05251453
-0.060918752 -0.018311571 0.03027712 0.08987967 -0.10641952 0.009008958 -0.02862228 0.10060099
-0.02622436 -0.015938113 -0.041054245 0.011681767 0.09549091 0.03874742 0.08495714 -0.12405826
-0.08108465 -0.024257988 0.0029643485 -0.033237435 0.03247914 -0.053052373 -0.0048053027 -0.037205093
0.17790057 -0.07952672 0.059575118 0.05232537 0.04943255 0.043638937 0.03796391 -0.073874824
0.16001879 0.16221818 -0.03533031 0.123493046 0.15954258 0.14648816 0.19564568 0.10133563
0.12678573 -0.06777089 0.109132804 0.1264521 0.036769923 0.0107326945 -0.09452115 0.06690131
0.07673387 0.16881217 0.097827144 -0.05102839 -0.02862469 0.026500471 0.12774813 0.028479367
0.07573727 -0.104803726 -0.10632149 -0.050866127 0.088753805 0.006553832 -0.054204836 0.030865032
-0.064072594 -0.117408745 -0.05762043 0.008648886 0.06694411 0.036615506 -0.09835861 -0.033533297
0.009305963 0.003243931 0.0024112458 0.061101496 -0.05783793 -0.03282096 -0.07218035 0.0493532
0.056085046 -0.09313003 0.1200482 0.010191276 -0.08164677 0.09193199 0.08901326 0.036849085
0.05614828 0.04080707 0.054422908 0.030736642 0.12740275 0.12041367 -0.04066682 0.01677261
0.16132316 -0.09528226 -0.057680354 0.0876583 0.072455965 -0.024033956 0.00924928 -0.026161067
0.09282155 0.02956049 -0.043595485 0.011384811 0.07042251 0.06476625 0.085240506 -0.06513494
0.016378362 -0.0877143 -0.028381722 0.08772065 0.008029966 -0.14968465 -0.122999035 0.0690596
0.07781975 0.033157967 -0.06868557 0.0055643558 -0.020687032 0.0638706 -0.11047852 -0.0030861918
0.06599989 -0.015666513 0.12724286 0.107754566 -0.052262872 -0.027907463 0.0070736706 0.02772645
-0.0014235469 -0.025835846 0.055547137 0.039529197 0.10416162 0.10807725 -0.07758414 0.011788458
0.05323521 0.006127061 0.08351617 0.1609766 0.026011622 0.17607503 0.026390705 0.012073741
0.09241336 -0.019774644 0.11472351 0.054497004 0.016077003 0.026041778 -0.05547621 0.107544
0.12382946 0.015121135 0.0002909685 -0.028310467 0.020201206 0.03721981 -0.04222932 -0.032812364
-0.11951858 -0.038004745 -0.11292366 -0.070165396 -0.06990364 -0.010924215 0.009277621 -0.11790371
-0.106411174 -0.028841686 -0.11928798 0.048001073 0.033610515 -0.035386447 -0.06738369 -0.15228865
0.030000238 -0.010164625 -0.0607058 0.065008126 -0.03279217 0.024104081 -0.08138952 -0.07531619
0.09144046 -0.14355916 0.10496102 0.00034320165 -0.21879938 -0.14652291 0.04810902 0.078641854
-0.06178327 0.098186396 0.12437152 0.15087862 -0.052001774 0.03165235 0.07422772 0.09191108
00000000: 43cb 8abd 603c bdbd c7a5 b6bd 855c 05bd
00000010: c980 c4bd d71a 3ebd 8abb f03d c81b 113d
00000020: 224f 83bd 90ff 573e 1032 b23c f114 1c3d
00000030: 1ce8 fc3c 892e 2d3d d23a e73c 1a57 073e
00000040: 3fc9 dc3d de9b bfbd e7f5 c93d b1ee b6bd
00000050: 51a8 003e 9994 c13d 2894 e2bd cf0f 0ebe
00000060: f57f 003c 0d6b 6cbd b960 203d fa0a 4d3c
00000070: bbf9 9a3c 4fd4 a93d ca69 d6bc 9c3d 063c
00000080: 15e9 293b ef05 2bbd 4efb 27bd cf84 90bc
00000090: d68b fab9 c73d a5bd e479 dbbc 85e3 cfbc
000000a0: e7d9 97bc ac29 82bd 957a 36be daee dd3d
000000b0: 44b3 5b3d 6ae1 f3bd 3fe5 2e3d 7a19 573d
000000c0: f185 79bd 2602 96bc b907 f83c d512 b83d
000000d0: 7af2 d9bd 4f9a 133c 4679 eabc e407 ce3d
000000e0: 78d4 d6bc a590 82bc 7f28 28bd e264 3f3c
000000f0: bd90 c33d 9db5 1e3d 02fe ad3d 4212 febd
00000100: b50f a6bd b0b8 c6bc 8445 423b fa23 08bd
00000110: d908 053d 724d 59bd cd75 9dbb 5e64 18bd
00000120: 912b 363e e8de a2bd 0a05 743d 2153 563d
00000130: c979 4a3d bebe 323d 0b80 1b3d af4b 97bd
00000140: f7db 233e 861c 263e 84b6 10bd ece9 fc3d
00000150: 215f 233e fe00 163e 5757 483e 0e89 cf3d
00000160: 1ed4 013e 77cb 8abd 0581 df3d a97c 013e
00000170: 0f9c 163d 2fd8 2f3c 4e94 c1bd 8e03 893d
00000180: a626 9d3d 19dd 2c3e 9959 c83d 2503 51bd
00000190: 537e eabc 8417 d93c 68d0 023e 904d e93c
000001a0: 241c 9b3d 56a3 d6bd 15bf d9bd 0059 50bd
000001b0: 8ec4 b53d 87c1 d63b e405 5ebd aad8 fc3c
000001c0: 7e38 83bd ff73 f0bd 6603 6cbd 0fb4 0d3c
000001d0: fe19 893d 24fa 153d 3d70 c9bd 365a 09bd
000001e0: 0a78 183c 2298 543b fe05 1e3b 9045 7a3d
000001f0: 77e7 6cbd 456f 06bd 4bd3 93bd 9526 4a3d
00000200: 6fb9 653d f5ba bebd d5db f53d 4ff9 263c
00000210: 6c36 a7bd d746 bc3d 964c b63d 11ef 163d
00000220: bdfb 653d 5025 273d 8eea 5e3d 69cb fb3c
00000230: de75 023e 719b f63d 4092 26bd b666 893c
00000240: e631 253e 5823 c3bd 3c42 6cbd 3286 b33d
00000250: cb63 943d dce2 c4bc 4b8a 173c bc4f d6bc
00000260: 3a19 be3d d728 f23c 2e91 32bd 5c87 3a3c
00000270: ad39 903d 2ba4 843d 9392 ae3d 7865 85bd
00000280: ea2b 863c 8ea3 b3bd c980 e8bc e2a6 b33d
00000290: 1e90 033c ef46 19be ebe6 fbbd 1f6f 8d3d
000002a0: f65f 9f3d a6d0 073d 05ab 8cbd 3355 b63b
000002b0: da77 a9bc 97ce 823d 9042 e2bd b541 4abb
000002c0: f32a 873d 0f57 80bc f44b 023e 6dae dc3d
000002d0: 9811 56bd 319e e4bc 40ca e73b 9422 e33c
000002e0: 4f96 baba b2a5 d3bc 6585 633d 5ee9 213d
000002f0: b052 d53d 9b57 dd3d 6fe4 9ebd 6024 413c
00000300: 2a0d 5a3d 83c5 c83b 870a ab3d 0dd7 243e
00000310: 5316 d53c 034d 343e 5231 d83c f1d0 453c
00000320: 3743 bd3d 6ffe a1bc 29f4 ea3d 4038 5f3d
00000330: ebb3 833c 9155 d53c 063b 63bd 0740 dc3d
00000340: 4d9a fd3d a3be 773c 228d 9839 5aeb e7bc
00000350: 007d a53c cd73 183d a7f8 2cbd 4266 06bd
00000360: 28c6 f4bd ddaa 1bbd 8544 e7bd e0b2 8fbd
00000370: a429 8fbd 7bfb 32bc 2a01 183c 8077 f1bd
00000380: 1aee d9bd 6645 ecbc 424d f4bd c69c 443d
00000390: 2eab 093d 61f1 10bd 7600 8abd 8ef1 1bbe
000003a0: 0fc3 f53c 8789 26bc a5a6 78bd fb22 853d
000003b0: 1551 06bd ec75 c53c 8caf a6bd 603f 9abd
000003c0: 2345 bb3d 2c01 13be cef5 d63d bfef b339
000003d0: f20c 60be 1a0a 16be f70d 453d fb0e a13d
000003e0: 7410 7dbd f315 c93d 7fb6 fe3d ed7f 1a3e
000003f0: d0ff 54bd e5a5 013d b404 983d e03b bc3d

net.0.bias f4 [256]
-0.023376906 -0.011900073 0.019238668 0.058650743 0.066417485 0.029520912 0.059364118 -0.0055295606
-0.047310684 0.069606826 0.029464137 -0.005797348 0.07863906 0.012971943 -0.03923859 0.06478976
0.011658494 0.00017970018 0.057702664 0.0696136 -0.010260905 0.046634793 0.07633315 0.020993717
-0.015320525 0.00045572146 0.00011948987 -0.0014997411 -0.020940322 0.032750893 0.055709794 0.02732866
0.0546781 0.028802162 0.07709795 0.009685105 0.03847816 0.010144425 0.06152581 0.029607067
-0.0064184647 0.014438959 -0.0010669654 0.022428883 0.054474026 0.028308133 0.03235342 0.07994077
0.010933116 0.014933428 0.02680057 0.058039814 0.07183869 -0.00022399172 0.074294366 -0.014818343
0.007373832 0.044561367 0.019550504 0.004760229 0.034646653 0.036717515 0.017844368 0.03983932
0.03272574 0.03723095 0.046916705 -0.07066707 0.015637865 0.03589439 0.0777586 0.0040349783
0.05449024 -0.01262002 0.05707731 -0.016161473 -0.037537843 0.0441166 0.04379423 -0.016050672
-0.0045030294 0.031070778 0.019299136 0.014961863 0.07347832 0.012527434 -0.003996258 0.012168055
0.087015964 0.030069547 0.028344454 0.020820921 0.012118115 -0.0050951336 0.010860862 0.04993193
0.0063179047 0.017515939 0.040950794 0.044398423 -0.041567866 0.010116485 0.00044735667 -0.018651884
0.033410694 0.048482485 0.07031056 0.017398069 0.013328522 0.06282364 0.0399655 -0.003611549
0.01415321 0.007375858 0.013607263 0.02158739 0.029752731 0.03326022 0.006190646 0.015894406
0.023485351 0.012981035 0.022902004 -0.019686056 0.011946403 0.008988959 0.017847843 0.012221098
0.03914496 -0.03589711 0.039841924 0.018509246 0.07473517 0.060193613 -0.007869726 0.046702415
0.050285105 0.05232494 0.07622276 0.016799964 0.000668171 0.048799947 0.023012633 -0.027478622
-0.0030956732 0.040572952 0.011374986 0.024684478 0.046940196 0.05406705 0.02864014 -0.0041500274
0.048569255 0.0011057073 -0.0065501076 -0.005529809 0.0040667164 0.031459823 0.021365615 0.017634032
0.011826554 0.023024429 0.023815667 0.027689978 0.061645344 0.022270394 0.016862273 0.06181206
-0.027920162 0.0076009 0.032146983 0.012826298 0.038249895 0.05211148 0.011722227 0.057225205
0.014947712 0.048086226 0.014084075 0.032956153 0.034626134 0.015110683 -0.001955411 -0.0049877735
0.054047704 0.01301174 0.030904572 0.031545576 0.01593034 0.014653198 -0.0049893097 0.025547639
0.02229452 0.04150015 0.02626901 0.002849954 0.040722597 0.03646057 0.03692718 -0.037548542
0.020222614 0.034911465 0.022385012 0.08764049 0.055383783 0.09987527 0.0494208 0.025133966
0.0009984492 -0.012878778 -0.0015604619 0.0032283587 0.008447591 0.037117597 0.059053607 0.04261707
0.002135279 0.06474445 0.027154235 0.06399779 0.01381152 0.030564172 0.00074161787 -0.023870649
0.013244359 0.040402852 0.039230764 0.07136885 0.08926 0.016268224 0.024366723 0.032577667
0.012397237 0.0003653034 0.06643777 -0.027252553 0.014382013 0.004157875 0.0062450087 -0.06011888
-0.01701935 0.036297474 0.06429475 0.04659842 0.047046576 0.048326813 0.044931196 0.0046160743
0.016992724 0.02040425 0.058325622 0.009870058 0.089959376 -0.0068577384 0.010440321 -0.037878975
00000000: ed80 bfbc 86f8 42bc 699a 9d3c c33b 703d
00000010: e405 883d d7d5 f13c ca27 733d 5131 b5bb
00000020: d9c8 41bd 068e 8e3d c65e f13c aef7 bdbb
00000030: 840d a13d 4688 543c a5b8 20bd 7eb0 843d
00000040: 4503 3f3c e66d 3c39 a159 6c3d 9391 8e3d
00000050: 5b1d 28bc 2004 3f3d 8e54 9c3d 04fb ab3c
00000060: f002 7bbc e6ed ee39 a396 fa38 f692 c4ba
00000070: 0a8b abbc cd25 063d f42f 643d 5be0 df3c
00000080: 25f6 5f3d 83f2 eb3c 88e5 9d3d 46ae 1e3c
00000090: 469b 1d3d cd34 263c 7d02 7c3d 858a f23c
000000a0: fc51 d2bb 6291 6c3c 6bd9 8bba c7bc b73c
000000b0: 2820 5f3d 75e6 e73c 0585 043d fdb7 a33d
000000c0: d020 333c 56ab 743c de8c db3c 28bb 6d3d
000000d0: 2a20 933d 52df 6ab9 a527 983d a3c8 72bc
000000e0: 30a0 f13b fb85 363d 6128 a03c b2fb 9b3b
000000f0: a6e9 0d3d 1b65 163d 5a2e 923c 8e2e 233d
00000100: 6d0b 063d 7b7f 183d bb2b 403d e6b9 90bd
00000110: fb1a 803c ff05 133d e73f 9f3d da37 843b
00000120: 2831 5f3d 33c4 4ebc e6c9 693d 1165 84bc
00000130: 48c1 19bd 9cb3 343d 9461 333d b37c 83bc
00000140: 268e 93bb 2588 fe3c 3919 9e3c 9a22 753c
00000150: cd7b 963d de3f 4d3c 0bf3 82bb 865c 473c
00000160: 6d35 b23d 6954 f63c a132 e83c a390 aa3c
00000170: 0f8b 463c 14f5 a6bb c2f1 313c 6c85 4c3d
00000180: 6d06 cf3b 967d 8f3c 05bc 273d 1fdb 353d
00000190: 1143 2abd 9dbf 253c 328b ea39 d6cb 98bc
000001a0: a7d9 083d 9295 463d fcfe 8f3d 6586 8e3c
000001b0: e05f 5a3c aea9 803d ddb2 233d bdaf 6cbb
000001c0: dee2 673c 2eb1 f13b fff0 5e3c 0ad8 b03c
000001d0: 00bc f33c de3b 083d e7da ca3b fc34 823c
000001e0: 5a64 c03c 68ae 543c fc9c bb3c a744 a1bc
000001f0: d9ba 433c 6d46 133c a435 923c 003b 483c
00000200: 7756 203d d908 13bd 4931 233d b4a0 973c
00000210: c10e 993d 948d 763d 06f0 00bc 084b 3f3d
00000220: c1f7 4d3d ad52 563d ae1a 9c3d 14a0 893c
00000230: 3228 2f3a 74e2 473d fd84 bc3c d91a e1bc
00000240: c7e0 4abb d32f 263d 265e 3a3c 1a37 ca3c
00000250: 5d44 403d 6975 5d3d ba9e ea3c f4fc 87bb
00000260: 8ef0 463d 61ed 903a 49a2 d6bb 6633 b5bb
00000270: 1742 853b 04dc 003d f106 af3c 3f75 903c
00000280: 2ac4 413c ba9d bc3c 1319 c33c 18d6 e23c
00000290: d47f 7c3d 6770 b63c c022 8a3c a52e 7d3d
000002a0: d3b8 e4bc f810 f93b 8eac 033d 6525 523c
000002b0: ecab 1c3d d972 553d 950e 403c fa64 6a3d
000002c0: 40e7 743c 10f6 443d e4c0 663c 08fd 063d
000002d0: 22d4 0d3d cc92 773c 5a26 00bb 7a70 a3bb
000002e0: 2061 5d3d 312f 553c 962b fd3c ef35 013d
000002f0: 5880 823c f813 703c 5d7d a3bb 4849 d13c
00000300: ffa2 b63c 10fc 293d 1b32 d73c 4bc6 3a3b
00000310: bdcc 263d ae57 153d f440 173d 80cc 19bd
00000320: e5a9 a53c 53ff 0e3d c660 b73c db7c b33d
00000330: 1bda 623d 688b cc3d 776d 4a3d bfe5 cd3c
00000340: 65de 823a 8301 53bc 6a88 ccba df92 533b
00000350: c467 0a3c 9f08 183d 32e2 713d 3d8f 2e3d
00000360: 09f0 0b3b bd98 843d 8f72 de3c 4611 833d
00000370: b749 623c b761 fa3c 2269 423a 618c c3bc
00000380: defe 583c 767d 253d 70b0 203d d529 923d
00000390: f2cd b63d f044 853c b99c c73c 2970 053d
000003a0: c81d 4b3c 3186 bf39 8710 883d bf40 dfbc
000003b0: 89a2 6b3c c93e 883b eea2 cc3b 373f 76bd
000003c0: 2a6c 8bbc a9ac 143d f7ac 833d fcdd 3e3d
000003d0: e9b3 403d 56f2 453d c609 383d 7042 973b
000003e0: 5334 8b3c d026 a73c d9e6 6e3d 06b6 213c
000003f0: 9f3c b83d e1b6 e0bb e10d 2b3c fc26 1bbd

net.2.weight f4 [32, 256]
-0.11717691 -0.039505538 -0.06379609 -0.12748054 4.6710025e-05 -0.10803309 0.10610412 0.05983231
0.00473572 -0.11623304 -0.046338312 0.12440544 -0.08439262 0.052316267 -0.093048565 -0.062593386
0.17345753 -0.03713784 0.045010503 -0.13865139 0.16996737 0.02578437 -0.058070574 -0.0582902
-0.0088013625 -0.091785766 -0.06604423 -0.02646143 0.12545799 -0.07483787 0.0012418763 -0.116668545
-0.19433433 0.021624241 -0.13853113 0.1694898 0.031164384 -0.09150991 0.013236029 0.078175284
0.095444664 -0.05101514 -0.071750626 0.05819152 0.049300294 0.13951154 -0.061199084 0.20560792
-0.056565136 0.06890804 -0.13693005 -0.090472184 0.12509906 0.089211755 -0.13447742 -0.00042935243
-0.040799238 -0.068206385 0.045565173 0.029953383 -0.11864368 -0.031611327 -0.06218365 -0.09435332
-0.03668756 -0.081991985 -0.13509852 -0.07105251 0.045319047 0.0052390923 -0.08804017 -0.021057393
0.034682892 0.13783173 0.12909587 0.05395936 -0.08393815 0.18159877 0.036771107 -0.10076587
-0.0852884 0.034616128 -0.10456882 0.08136417 0.037916876 0.011351492 -0.12642998 -0.07146035
0.05497124 0.19070655 0.010963658 0.09501586 -0.03714001 0.05377817 -0.0036736988 0.030668128
-0.04047728 -0.15617363 0.066662565 -0.076327056 0.09941552 0.04527359 0.08358421 0.12538767
-0.14210789 0.10655184 0.076103404 -0.11127477 0.06762402 0.077395946 -0.13404706 -0.16014035
-0.12668513 -0.20806785 -0.15605561 0.12577498 -0.08957034 0.119601645 0.04471986 -0.08970788
-0.090061605 -0.06547028 -0.13459158 0.0065149134 0.16390203 0.045333557 0.09434787 0.051772002
-0.04733439 -0.05846961 0.12140858 -0.037017882 0.11929756 0.05633022 -0.08877354 -0.17431472
0.016879948 0.028360553 0.022730768 0.056375958 -0.054832585 0.014459772 -0.04671344 0.10880058
-0.0873939 0.078296706 -0.018889321 -0.0116065 -0.06090461 -0.07094333 0.098348334 -0.14193246
-0.014943843 0.008457897 -0.033601027 -0.11976514 -0.18744813 0.07577234 -0.13870859 0.017431168
-0.03192196 -0.13128234 -0.0043969387 -0.020009995 -0.018389158 0.16271271 0.12690963 0.07074431
0.1330671 -0.045397732 0.0036384794 0.090423934 0.0781052 -0.037299223 -0.14067487 0.035828833
0.11217555 -0.2376808 0.06055061 -0.017351268 -0.04239911 -0.072430775 0.0854352 -0.0013088469
0.09044789 0.014124198 -0.15332344 -0.028492192 0.015953286 -0.045841843 0.004517203 0.040987458
-0.14597268 0.12009784 -0.046899494 -0.080050305 0.012163341 -0.047985163 0.06499528 0.059603825
0.014140996 -0.0656796 -0.13290304 0.08617873 -0.047498006 -0.041771065 0.029375033 -0.019692112
0.096378215 -0.025898777 -0.112488195 -0.02292461 -0.1520378 0.026247373 -0.018357687 -0.14526312
0.012835545 0.1400912 0.092353456 0.089447394 0.012696662 -0.0104113575 0.1558399 -0.05610151
0.13264097 -0.070745885 0.06120549 0.15314853 0.0005406261 0.13038723 0.08296905 -0.07633254
-0.07614641 0.025794629 0.062678866 -0.13975348 -0.13023809 -0.031132517 -0.03961722 -0.1399854
-0.05876163 -0.044456076 0.054567937 0.14243707 -0.13513117 -0.18098915 0.06048927 0.06846227
0.09217602 -0.06441331 -0.08485912 -0.13549168 0.035334084 0.048775535 -0.007697876 0.006741378
00000000: 73fa efbd 8fd0 21bd 86a7 82bd 428a 02be
00000010: 82ea 4338 7440 ddbd 1e4d d93d b912 753d
00000020: 192e 9b3b 970b eebd 3ecd 3dbd 48c8 fe3d
00000030: 0ad6 acbd 9549 563d 3f90 bebd f630 80bd
00000040: da9e 313e d91d 18bd ef5c 383d a1fa 0dbe
00000050: ed0b 2e3e be39 d33c 69db 6dbd b4c1 6ebd
00000060: 9733 10bc 2dfa bbbd 3242 87bd a4c5 d8bc
00000070: 0f78 003e 9944 99bd 74c6 a23a ebef eebd
00000080: 94ff 46be 5225 b13c 1bdb 0dbe bc8e 2d3e
00000090: 734c ff3c 8c69 bbbd eedb 583c 5d1a a03d
000000a0: 7e78 c33d 40f5 50bd fef1 92bd 3b5a 6e3d
000000b0: 1bef 493d 1ddc 0e3e e4ab 7abd e28a 523e
000000c0: d8b0 67bd a91f 8d3d 6437 0cbe 7b49 b9bd
000000d0: f819 003e a7b4 b63d 73b4 09be b51a e1b9
000000e0: 1a1d 27bd caaf 8bbd 8ca2 3a3d cc60 f53c
000000f0: 75fb f2bd e17a 01bd 48b4 7ebd 503c c1bd
00000100: b245 16bd 6aeb a7bd 4457 0abe fa83 91bd
00000110: 77a0 393d b1ac ab3b 684e b4bd 8e80 acbc
00000120: a60f 0e3d c323 0d3e b531 043e 7d04 5d3d
00000130: c4e7 abbd 07f5 393e 4d9d 163d 565e cebd
00000140: afab aebd a4c9 0d3d 2d28 d6bd 42a2 a63d
00000150: ba4e 1b3d 9cfb 393c dc76 01be ce59 92bd
00000160: 8629 613d 9448 433e eaa0 333c ad97 c23d
00000170: 2020 18bd 8046 5c3d 70c2 70bb ba3b fb3c
00000180: 81cb 25bd fbeb 1fbe 6286 883d 5c51 9cbd
00000190: 5d9a cb3d cd70 393d 332e ab3d a065 003e
000001a0: bb84 11be da37 da3d 1adc 9b3d 07e4 e3bd
000001b0: 767e 8a3d c481 9e3d a243 09be d5fb 23be
000001c0: bfb9 01be bd0f 55be 0bcd 1fbe 28cb 003e
000001d0: a870 b7bd b5f1 f43d 2c2c 373d c4b8 b7bd
000001e0: 3872 b8bd 4815 86bd 60d2 09be 0e7b d53b
000001f0: efd5 273e aeaf 393d 7539 c13d e10e 543d
00000200: b5e1 41bd d47d 6fbd 10a5 f83d 10a0 17bd
00000210: 4752 f43d 84ba 663d e7ce b5bd 8f7f 32be
00000220: d147 8a3c 6454 e83c e035 ba3c 7aea 663d
00000230: 2298 60bd aee8 6c3c 9856 3fbd d7d2 de3d
00000240: 93fb b2bd 065a a03d c7bd 9abc 3029 3ebc
00000250: 1d77 79bd bd4a 91bd da6a c93d be56 11be
00000260: 05d7 74bc fe92 0a3c 3ba1 09bd 6d47 f5bd
00000270: 67f2 3fbe 872e 9b3d a009 0ebe cfcb 8e3c
00000280: 9ac0 02bd e16e 06be 3214 90bb 00ec a3bc
00000290: dca4 96bc 299e 263e 99f4 013e 65e2 903d
000002a0: be42 083e f9f2 39bd 8e73 6e3b 2f30 b93d
000002b0: 9ef5 9f3d 12c7 18bd 130d 10be 41c1 123d
000002c0: 4bbc e53d 9862 73be eb03 783d 3f24 8ebc
000002d0: b0aa 2dbd 9656 94bd a6f8 ae3d 9d8d abba
000002e0: be3c b93d 2e69 673c d200 1dbe 7568 e9bc
000002f0: 77b0 823c a8c4 3bbd 0c05 943b 77e2 273d
00000300: dd79 15be dbf5 f53d af19 40bd 6af1 a3bd
00000310: c048 473c 178c 44bd 3f1c 853d 2423 743d
00000320: a3af 673c 0783 86bd bc17 08be 797e b03d
00000330: 458d 42bd 2318 2bbd e9a3 f03c 5a51 a1bc
00000340: f161 c53d ac29 d4bc 3660 e6bd 64cc bbbc
00000350: ccaf 1bbe bb04 d73c dc62 96bc dbbf 14be
00000360: 2e4c 523c 1174 0f3e cf23 bd3d 3230 b73d
00000370: a905 503c 6694 2abc 7f94 1f3e b2ca 65bd
00000380: 09d3 073e 38e3 90bd 9cb2 7a3d f8d2 1c3e
00000390: ceb8 0d3a 3b84 053e adeb a93d 3c54 9cbd
000003a0: a6f2 9bbd 424f d33c c75d 803d 891b 0fbe
000003b0: 225d 05be 9f09 ffbc ab45 22bd 5558 0fbe
000003c0: 09b0 70bd 9317 36bd a182 5f3d 06db 113e
000003d0: d35f 0abe 3855 39be 99c3 773d f235 8c3d
000003e0: c8c6 bc3d 20eb 83bd 9eca adbd 55be 0abe
000003f0: 79ba 103d dbc8 473d 773e fcbb c7e6 dc3b

net.2.bias f4 [32]
0.012231827 -0.013807303 0.020856885 0.02536763 0.049616937 -0.003386271 -0.03393677 0.0067339404
0.011269379 0.02459256 0.020652076 0.021302167 0.04497332 -0.015914366 0.037807036 0.010428905
0.028926117 -0.0033129943 0.03713034 0.08108001 0.032307364 0.051081333 0.014368069 0.043444164
0.035239093 0.0026546454 0.0059836768 0.0034030562 0.0092245685 0.01188769 -0.009185752 0.08267955
00000000: 0068 483c 0738 62bc 0fdc aa3c c7cf cf3c
00000010: 213b 4b3d 33ec 5dbb 4801 0bbd 63a8 dc3b
00000020: 34a3 383c 5676 c93c 8b2e a93c e281 ae3c
00000030: f235 383d d85e 82bc 8ddb 1a3d ffdd 2a3c
00000040: 77f6 ec3c d21e 59bb fc15 183d 470d a63d
00000050: ba54 043d a93a 513d 0d68 6b3c 82f2 313d
00000060: de56 103d 8ff9 2d3b b812 c43b cf05 5f3b
00000070: a522 173c 96c4 423c d67f 16bc e553 a93d

net.4.weight f4 [32, 32]
-0.21656533 -0.31652707 -0.14450148 -0.20265149 0.13951291 -0.11488811 -0.23289153 0.13587852
0.16168344 0.13892812 -0.18341456 0.22885066 -0.251025 -0.24030274 -0.10899161 -0.04168181
-0.31145823 0.14023599 -0.24821371 -0.031798992 -0.22081427 0.1213131 0.2166795 -0.11711783
-0.12943004 -0.20866768 0.36492956 0.28734228 0.17036554 0.1253957 -0.17409118 -0.063062094
0.24167974 0.08048361 0.17255166 -0.15518539 0.12299957 0.1334176 -0.19878544 0.06307129
0.08814435 -0.3790076 0.22953092 0.2872321 0.11493993 0.2959807 0.20711064 0.24272162
-0.03364709 0.058025394 0.20715153 -0.29035088 -0.25297752 -0.111609004 0.21588206 0.10475977
0.19120775 0.46641493 -0.24968955 -0.07476207 0.059046663 -0.2435038 0.41609678 -0.070880465
-0.124052554 -0.10929732 -0.1115631 0.022692326 0.19376343 0.038684964 -0.096739866 0.09637882
0.30881456 0.06057962 0.09173233 -0.28994796 0.19563797 -0.27691308 -0.20612743 -0.071271
-0.25769016 0.19941913 0.17505817 0.23730488 -0.18105596 -0.31012473 -0.02335271 -0.17217895
-0.007695463 0.08456546 -0.22604139 0.1003995 -0.04479982 0.34219944 -0.31566846 0.27972534
0.12331187 -0.07074298 0.06189743 -0.28013486 -0.026717324 -0.15129685 -0.12192925 -0.34630415
-0.10215917 0.38519174 -0.24418285 -0.07818244 0.35334146 -0.19044892 0.07518831 -0.22771965
0.025441077 -0.1186577 0.091564216 -0.11698444 0.053673256 0.22479568 -0.006276252 0.31779727
0.27920824 -0.36287692 0.18055876 -0.33356014 0.12110445 0.10935507 -0.29629996 0.36253667
-0.06283802 -0.35723516 0.3282386 -0.35741785 -0.25532657 -0.05612952 0.23877776 0.045049876
-0.25373352 -0.17603356 0.34603304 0.11635893 0.2404539 -0.2105146 0.22334145 0.20486006
0.33916503 0.06584212 -0.072829194 -0.18295802 0.0416562 0.054539185 0.12739393 -0.22587304
-0.008464117 0.0912865 -0.15613073 0.07212203 0.27127895 -0.20236705 -0.010172678 0.017324792
0.24922512 -0.027972078 0.057737358 -0.3210884 0.18902403 0.23957305 0.22504218 0.35025612
-0.16152824 -0.22692497 0.34321308 0.31152907 0.15116309 0.297263 0.2264561 -0.23008223
0.094261065 0.19127546 0.068573646 -0.3094458 0.0033189058 0.078122 0.14972037 -0.37048122
-0.077525154 0.152892 -0.096180774 0.1718587 -0.20956339 -0.30596647 -0.078602746 0.035047665
0.22466436 0.1019113 0.1839586 0.16115107 -0.04972076 -0.1604796 0.11107883 -0.05524959
-0.19925807 -0.042383265 -0.12001813 0.20179555 -0.09140903 0.16217904 -0.040324546 0.079363555
-0.2597089 0.03361916 -0.17654641 -0.08912076 0.29505482 -0.10383585 -0.0061966283 -0.042226706
-0.15455717 0.08236152 -0.14159684 0.19054443 -0.08047012 -0.13214962 0.24511138 -0.30041063
0.1909744 0.025160547 0.29237866 -0.26402226 0.17449111 -0.040350694 -0.12062463 -0.012596342
-0.08243192 -0.23909192 -0.13210143 -0.11236814 -0.2466736 0.042669393 0.110912226 0.025901837
0.26857787 -0.060964145 0.16354251 -0.15726681 0.23414645 0.07480513 -0.1595073 -0.07327418
-0.06062625 0.10786436 -0.21042612 0.09219006 0.09957921 0.18472096 0.29558364 0.022653203
00000000: 4dc3 5dbe d60f a2be 32f8 13be df83 4fbe
00000010: 79dc 0e3e 754a ebbd 1e7b 6ebe bd23 0b3e
00000020: 5890 253e 2c43 0e3e 07d1 3bbe d457 6a3e
00000030: 5986 80be ec11 76be fe36 dfbd 8cba 2abd
00000040: 7477 9fbe 069a 0f3e bc2b 7ebe a93f 02bd
00000050: 231d 62be 0173 f83d 3be1 5d3e 79db efbd
00000060: 4f89 04be fbac 55be 0cd8 ba3e 871e 933e
00000070: 4e74 2e3e bb67 003e f544 32be b326 81bd
00000080: e57a 773e 97d4 a43d 62b1 303e ebe8 1ebe
00000090: 33e7 fb3d a09e 083e 698e 4bbe 852b 813d
000000a0: 0685 b43d 490d c2be 270a 6b3e 1610 933e
000000b0: a065 eb3d c88a 973e d014 543e 048c 783e
000000c0: 88d1 09bd 09ac 6d3d 881f 543e dfa8 94be
000000d0: 4586 81be 4393 e4bd 3010 5d3e 4a8c d63d
000000e0: f7cb 433e f0cd ee3e 9eae 7fbe db1c 99bd
000000f0: eada 713d 0f59 79be a30a d53e c729 91bd
00000100: 440f febd 46d7 dfbd 327b e4bd 42e5 b93c
00000110: ec69 463e 2074 1e3d 8d1f c6bd 4262 c53d
00000120: f11c 9e3e 5622 783d 29de bb3d 0f74 94be
00000130: 5255 483e 8dc7 8dbe 1213 53be 88f6 91bd
00000140: f7ef 83be 8734 4c3e 7342 333e 0d00 733e
00000150: bc66 39be abc8 9ebe 2f4e bfbc ae4f 30be
00000160: 392a fcbb a830 ad3d 6577 67be 419e cd3d
00000170: 0480 37bd c434 af3e 4c9f a1be 2938 8f3e
00000180: ef8a fc3d b2e1 90bd 2988 7d3d d66d 8fbe
00000190: 4ade dabc 90ed 1abe 0bb6 f9bd c74e b1be
000001a0: d438 d1bd da37 c53e 120b 7abe 1d1e a0bd
000001b0: 2ce9 b43e 0b05 43be 54fc 993d 572f 69be
000001c0: ce69 d03c cf02 f3bd 0586 bb3d 8a95 efbd
000001d0: 7dd8 5b3d d730 663e 05a9 cdbb 53b6 a23e
000001e0: 62f4 8e3e 01cb b9be 65e4 383e 65c8 aabe
000001f0: 9c05 f83d 8df5 df3d a1b4 97be 689e b93e
00000200: 38b1 80bd 87e7 b6be e40e a83e 79ff b6be
00000210: 2aba 82be 11e8 65bd 2882 743e 3886 383d
00000220: 5ce9 81be 2442 34be 3e2b b13e 974d ee3d
00000230: 8c39 763e 2491 57be 9fb3 643e d6c6 513e
00000240: 0aa7 ad3e 3cd8 863d 7927 95bd 5959 3bbe
00000250: b19f 2a3d 7b64 5f3d 8e73 023e 434b 67be
00000260: 14ad 0abc 6bf4 ba3d bce0 1fbe b7b4 933d
00000270: 13e5 8a3e 4f39 4fbe 4eab 26bc b9ec 8d3c
00000280: df34 7f3e b325 e5bc 027e 6c3d b365 a4be
00000290: 848f 413e a352 753e 7571 663e c554 b33e
000002a0: a967 25be 055f 68be a0b9 af3e bd80 9f3e
000002b0: 7fca 1a3e db32 983e 1ce4 673e ad9a 6bbe
000002c0: f20b c13d b7dd 433e 5770 8c3d ae6f 9ebe
000002d0: 0082 593b 6dfe 9f3d 4c50 193e b7af bdbe
000002e0: 82c5 9ebd b88f 1c3e 6dfa c4bd bafb 2f3e
000002f0: c997 56be a3a7 9cbe 7afa a0bd 248e 0f3d
00000300: 6a0e 663e dfb6 d03d a55f 3c3e c904 253e
00000310: ffa7 4bbd c454 24be 4c7d e33d 654d 62bd
00000320: 4f0a 4cbe 139a 2dbd 11cc f5bd 7ea3 4e3e
00000330: a834 bbbd 4312 263e 5a2b 25bd 5c89 a23d
00000340: 91f8 84be 3fb4 093d 95c8 34be f284 b6bd
00000350: 6d11 973e e4a7 d4bd 160d cbbb e9f5 2cbd
00000360: 3c44 1ebe 28ad a83d c3fe 10be 141e 433e
00000370: 85cd a4bd 3b52 07be 7afe 7a3e 6ccf 99be
00000380: cb8e 433e 7e1d ce3c a8b2 953e ed2d 87be
00000390: ccad 323e c546 25bd 0c0a f7bd e360 4ebc
000003a0: 11d2 a8bd 83d4 74be 9945 07be 4421 e6bd
000003b0: 0198 7cbe 1ac6 2e3d f325 e33d 1730 d43c
000003c0: 0a83 893e 8ab5 79bd b077 273e 8d0a 21be
000003d0: 16c4 6f3e 6f33 993d e255 23be c610 96bd
000003e0: 3b53 78bd fde7 dc3d f279 57be 24ce bc3d
000003f0: 2ff0 cb3d 7e27 3d3e bd56 973e 3693 b93c

net.4.bias f4 [32]
0.01007456 -0.00056557416 0.019135395 0.04251538 0.034302153 0.037175614 0.023256123 0.00524793
-0.00994502 0.00051376584 -0.0029229454 0.009684246 0.025825446 0.02713015 0.015722875 0.071234815
0.04697398 0.0057798764 0.014474423 0.012810004 0.051392496 0.008609907 0.014856666 0.0032835274
0.0069724876 -0.0035039904 0.009442767 -0.0050532264 0.014907784 0.043091837 0.042114057 0.029235214
00000000: c40f 253c 0a43 14ba d5c1 9c3c 9b24 2e3d
00000010: 6a80 0c3d 7545 183d a083 be3c d4f6 ab3b
00000020: 70f0 22bc 3eae 063a e38e 3fbb acaa 1e3c
00000030: e38f d33c 0c40 de3c 42cd 803c 8fe3 913d
00000040: ca67 403d 1e65 bd3b 2126 6d3c 0de1 513c
00000050: f080 523d 9110 0d3c 6069 733c 7330 573b
00000060: 7779 e43b 34a3 65bb d6b5 1a3c 8995 a5bb
00000070: c73f 743c 1181 303d ca7f 2c3d b07e ef3c

net.6.weight f4 [1, 32]
0.22052301 0.250748 -0.51375836 -0.4930277 0.51890504 0.40755343 0.07913748 0.17882498
0.1889285 -0.13739741 0.5091989 0.3154622 -0.5707567 -0.5799767 0.21962395 0.41349608
0.3092257 -0.002179616 0.36148039 -0.03346248 -0.5784393 0.043266274 0.4289216 0.41437197
0.45536146 -0.06663566 -0.18838888 0.04505736 0.0003166654 -0.45304424 0.66683096 -0.48004586
00000000: c9d0 613e 0b62 803e ab85 03bf 206e fcbe
00000010: f6d6 043f d8aa d03e d512 a23d e51d 373e
00000020: 7976 413e e8b1 0cbe dc5a 023f 4384 a13e
00000030: 1c1d 12bf 5a79 14bf 1ae5 603e c2b5 d33e
00000040: d552 9e3e e3d7 0ebb f513 b93e f40f 09bd
00000050: 9914 14bf fa37 313d 9d9b db3e 9028 d43e
00000060: 2325 e93e 4778 88bd 04e9 40be 118e 383d
00000070: 1c06 a639 6af5 e7be 6fb5 2a3f 92c8 f5be

exp_avg f4 [256, 120]
-1.2416617e-05 -8.1119815e-06 -4.4242543e-06 3.6412428e-06 -1.5120792e-05 -1.6239968e-05 -2.4310862e-06 -4.130983e-06
-4.582375e-06 -2.2334083e-05 1.8090306e-07 1.5117531e-06 1.7848738e-06 2.767306e-05 1.5066277e-06 3.2826763e-05
3.0461033e-05 4.6098576e-05 2.4742734e-05 2.6656073e-05 2.6413722e-05 4.007949e-05 1.44314345e-05 2.2011995e-05
1.362856e-05 4.1720872e-05 1.5081165e-05 4.5713266e-05 5.27016e-05 3.8237515e-05 4.8114714e-05 2.4009473e-06
2.1675905e-05 2.9898434e-05 3.9230097e-05 -2.4427722e-05 -1.3411357e-05 2.6345178e-05 2.1379992e-05 1.6180311e-05
6.994649e-05 -8.448789e-06 1.0251001e-05 2.3244069e-05 3.070762e-06 1.7438849e-06 9.858385e-06 9.914041e-06
-4.6249506e-06 -1.794316e-05 1.8452175e-06 -1.2038169e-05 -7.374536e-06 -8.255229e-06 -8.5855345e-06 -4.0722693e-07
-4.71998e-06 -7.895719e-06 -9.080341e-06 -8.284833e-07 -5.871885e-06 -6.324389e-06 -7.1392683e-06 -3.936213e-06
-1.0900801e-05 -7.4179206e-06 -1.3478287e-05 -1.3762431e-05 -9.481286e-06 -1.3490011e-05 -5.316026e-06 -9.553069e-06
-1.3340391e-05 -1.1694599e-05 -1.0530271e-05 -1.0429881e-05 -1.2807979e-05 -9.904245e-06 -1.2391969e-05 -8.874463e-06
-1.3298692e-05 -1.2520057e-05 -1.2972954e-05 -1.2294144e-05 -1.19764245e-05 -1.710263e-05 -1.4079352e-05 -1.2410755e-05
-1.1570827e-05 -1.14488785e-05 -8.825985e-06 -1.0546684e-05 -1.0589929e-05 -1.1663784e-05 -1.1448896e-05 -1.0443239e-05
-9.907546e-06 -1.6322652e-05 -1.1636735e-05 -1.1651658e-05 -1.3147289e-05 -9.559624e-06 -1.0355235e-05 -6.6104285e-06
-5.674894e-06 -7.9453885e-06 -1.0399634e-05 -8.20493e-06 -6.460553e-06 2.5302054e-06 -1.3325622e-05 -9.99862e-06
-1.7904658e-05 -1.1069829e-05 -1.00407115e-05 -9.678973e-06 2.5024688e-06 -1.2674267e-05 -1.8608727e-05 -8.385288e-06
-3.106443e-06 -3.719987e-06 -1.1013506e-05 5.8599508e-06 -1.0957106e-05 -4.472529e-06 4.5191223e-06 4.0991663e-06
-1.0660788e-05 2.5515362e-06 -2.5517709e-06 1.435872e-05 3.034554e-05 1.3003719e-05 9.678624e-06 -2.1040563e-05
2.7284292e-05 6.157654e-05 1.0761547e-05 1.620896e-05 4.3370477e-05 2.3734588e-05 -2.2061287e-05 2.9902985e-05
3.0411102e-06 2.8517286e-05 3.2995288e-06 -1.0721746e-05 1.8466902e-05 1.2752128e-05 2.729515e-05 1.2595326e-05
3.1311814e-05 4.081053e-05 7.5343865e-05 -2.0496738e-05 9.181782e-06 1.5859747e-05 -3.894533e-06 2.1079684e-05
2.3980692e-05 7.1566224e-06 -3.210773e-05 1.4541153e-05 3.1023905e-07 -4.1512662e-06 6.4409046e-06 2.1323289e-05
1.4668762e-05 -9.1937903e-07 -2.982225e-06 -6.9164503e-06 -1.39493395e-05 -1.2753475e-05 5.5165297e-06 -3.1771606e-06
-1.2968875e-05 -9.679834e-06 -2.595318e-06 -7.917336e-06 -1.2880794e-05 -8.830471e-06 -5.1878824e-06 -9.498823e-06
-5.088823e-06 -3.5665475e-06 -1.2408114e-05 -1.221003e-05 -6.901528e-06 -3.533967e-06 -4.9297482e-06 -5.755812e-06
-9.5248515e-06 -9.0525145e-06 -5.5870532e-06 -7.909736e-06 -8.912412e-06 -6.4991837e-06 -8.792722e-06 -5.1907027e-06
-9.100984e-06 -8.945758e-06 -1.01423875e-05 -8.8756315e-06 -8.526468e-06 -1.054672e-05 -9.462197e-06 -8.205427e-06
-8.117638e-06 -5.6862536e-06 -6.8397353e-06 -5.8244636e-06 -5.892189e-06 -6.4686433e-06 -5.545118e-06 -6.927756e-06
-7.973678e-06 -1.1299971e-05 -1.0032828e-05 -5.516998e-06 -7.4130176e-06 -1.1165248e-05 -3.7066002e-06 -1.0091386e-05
-1.1422645e-05 -7.5043595e-06 -1.203926e-05 -5.2762325e-06 -8.602683e-06 -5.6328156e-07 -8.737318e-06 -4.8433317e-06
-1.1982265e-05 -6.1574597e-06 2.5239428e-06 -5.6886356e-06 -8.812936e-06 -8.982538e-06 -1.2249338e-05 -1.0262128e-06
-9.0748545e-06 5.0885606e-06 -6.279347e-06 -5.9192303e-06 -4.9150167e-06 -3.3379283e-06 9.857084e-06 1.0488241e-05
2.0320045e-05 -1.0213615e-05 -1.3512691e-05 3.4312623e-05 -1.0150203e-06 -1.0583419e-05 4.4401527e-06 -5.751032e-06
00000000: f750 50b7 b218 08b7 0e74 94b6 135c 7436
00000010: 4faf 7db7 113b 88b7 be25 23b6 e09c 8ab6
00000020: 4dc2 99b6 145a bbb7 413e 4234 71e7 ca35
00000030: cc8f ef35 7223 e837 5537 ca35 78af 0938
00000040: 9286 ff37 f859 4138 9e8e cf37 7b9b df37
00000050: 0993 dd37 061b 2838 8a1e 7237 66a6 b837
00000060: 38a6 6437 72fd 2e38 1c05 7d37 3fbc 3f38
00000070: ea0b 5d38 3861 2038 c8ce 4938 f61f 2136
00000080: a7d4 b537 66ce fa37 ff8a 2438 22ea ccb7
00000090: 5701 61b7 d7ff dc37 2f59 b337 f4ba 8737
000000a0: 3cb0 9238 46bf 0db7 b7fb 2b37 42fc c237
000000b0: 4a13 4e36 6e0f ea35 7165 2537 7b54 2637
000000c0: 0630 9bb6 a584 96b7 31a9 f735 8bf7 49b7
000000d0: c872 f7b6 f07f 0ab7 970a 10b7 d8a0 dab4
000000e0: 5260 9eb6 db77 04b7 c557 18b7 f064 5eb5
000000f0: 1c07 c5b6 1636 d4b6 d98d efb6 d013 84b6
00000100: 95e2 36b7 74e7 f8b6 cd20 62b7 31e5 66b7
00000110: d011 1fb7 2853 62b7 5160 b2b6 1e46 20b7
00000120: 8bd0 5fb7 ec33 44b7 2bab 30b7 fffb 2eb7
00000130: dae1 56b7 692a 26b7 1ae7 4fb7 87e3 14b7
00000140: 721d 5fb7 3c0d 52b7 6aa6 59b7 f242 4eb7
00000150: 5aee 48b7 9e77 8fb7 5b36 6cb7 c937 50b7
00000160: 5320 42b7 8f14 40b7 5113 14b7 aaf1 30b7
00000170: 66ab 31b7 92af 43b7 a214 40b7 5f35 2fb7
00000180: 9638 26b7 a1ec 88b7 653b 43b7 7d7b 43b7
00000190: 2d93 5cb7 4662 20b7 65bb 2db7 26cf ddb6
000001a0: f86a beb6 2f4d 05b7 177a 2eb7 e8a7 09b7
000001b0: bac7 d8b6 99cc 2936 1c91 5fb7 bfbf 27b7
000001c0: f631 96b7 8eb8 39b7 8774 28b7 df62 22b7
000001d0: 16f0 2736 90a3 54b7 f019 9cb7 8aae 0cb7
000001e0: 4978 50b6 e4a4 79b6 a6c6 38b7 98a0 c436
000001f0: 69d4 37b7 bb12 96b6 f7a2 9736 928b 8936
00000200: bcdb 32b7 0f3b 2b36 173f 2bb6 3ce6 7037
00000210: 8d8e fe37 8c2a 5a37 6061 2237 4480 b0b7
00000220: 92e0 e437 a722 8138 7e8c 3437 7af8 8737
00000230: b2e8 3538 a419 c737 4110 b9b7 2cd8 fa37
00000240: e015 4c36 6838 ef37 796d 5d36 8ce1 33b7
00000250: 5fe9 9a37 f9f1 5537 e3f7 e437 8350 5337
00000260: ce54 0338 f92b 2b38 ee01 9e38 69f0 abb7
00000270: 740b 1a37 8c0a 8537 c9ad 82b6 47d4 b037
00000280: 252a c937 eb22 f036 6aab 06b8 c7f5 7337
00000290: ee8e a634 1b4b 8bb6 f31e d836 6adf b237
000002a0: da19 7637 3fcb 76b5 3c22 48b6 db13 e8b6
000002b0: f507 6ab7 c2f7 55b7 a11a b936 3437 55b6
000002c0: e594 59b7 9266 22b7 392b 2eb6 b3d4 04b7
000002d0: 971a 58b7 9626 14b7 9213 aeb6 225d 1fb7
000002e0: a8c0 aab6 d258 6fb6 722c 50b7 aed9 4cb7
000002f0: ad93 e7b6 1729 6db6 376a a5b6 0c22 c1b6
00000300: edcc 1fb7 41e0 17b7 6c78 bbb6 0fb4 04b7
00000310: 8586 15b7 9013 dab6 7484 13b7 cc2b aeb6
00000320: 6eb0 18b7 bd15 16b7 3929 2ab7 8ce8 14b7
00000330: e70c 0fb7 d1f1 30b7 d4bf 1eb7 0aaa 09b7
00000340: fd30 08b7 8ccc beb6 e180 e5b6 c36f c3b6
00000350: 85b5 c5b6 390d d9b6 3310 bab6 f974 e8b6
00000360: b0c6 05b7 0295 3db7 ab52 28b7 a71e b9b6
00000370: 56bd f8b6 6052 3bb7 e8be 78b6 2c4e 29b7
00000380: e3a3 3fb7 f5cd fbb6 3afc 49b7 7e0a b1b6
00000390: 3e54 10b7 6a34 17b5 7f96 12b7 e783 a2b6
000003a0: 7007 49b7 2d9c ceb6 0261 2936 02e1 beb6
000003b0: 46db 13b7 b5b3 16b7 8282 4db7 67bc 89b5
000003c0: 3440 18b7 67be aa36 2eb3 d2b6 cd9d c6b6
000003d0: aceb a4b6 2c01 60b6 da5f 2537 a7f6 2f37
000003e0: f774 aa37 245b 2bb7 91b4 62b7 e6ea 0f38
000003f0: d53b 88b5 708f 31b7 9ffc 9436 fdf8 c0b6

exp_avg_sq f4 [256, 120]
4.4200092e-09 4.199352e-09 4.0232226e-09 3.863505e-09 4.2866706e-09 4.0989514e-09 4.469977e-09 6.26402e-09
8.453567e-09 1.5558985e-08 5.9137086e-09 4.3354915e-09 8.41123e-09 3.470853e-08 2.5240372e-08 2.5237583e-08
6.129988e-08 1.773768e-08 6.2542e-08 9.758281e-09 3.8453166e-08 4.9809216e-08 3.5041182e-08 1.6143474e-08
1.6845867e-08 4.6972783e-08 8.65495e-08 6.7067596e-08 4.7063935e-08 8.9560736e-08 6.0731104e-08 1.494069e-08
5.4013444e-08 3.5393295e-08 4.654862e-08 1.9686885e-08 2.624157e-08 2.7837519e-08 3.6241936e-08 6.055296e-08
2.7448586e-08 1.1265623e-08 5.4170184e-09 2.5303951e-08 5.042585e-09 3.946895e-09 5.3699702e-09 1.7907903e-08
4.801532e-09 4.2255803e-09 4.3709583e-09 4.0711616e-09 4.139689e-09 4.1682786e-09 4.046943e-09 5.2972666e-09
4.0462367e-09 4.2035215e-09 4.115811e-09 4.073161e-09 4.172498e-09 4.260233e-09 4.1297157e-09 4.0842036e-09
4.1542885e-09 4.199491e-09 4.31331e-09 4.1658277e-09 4.12659e-09 4.0992076e-09 4.196301e-09 4.153925e-09
4.165073e-09 4.1632218e-09 4.161094e-09 4.1746486e-09 4.144803e-09 4.1769477e-09 4.1746784e-09 4.169982e-09
4.1514334e-09 4.1718278e-09 4.1635233e-09 4.161174e-09 4.14952e-09 4.198768e-09 4.165073e-09 4.1426613e-09
4.1479207e-09 4.1351287e-09 4.158565e-09 4.1390433e-09 4.1432675e-09 4.180093e-09 4.1435215e-09 4.1744035e-09
4.1255674e-09 4.179124e-09 4.1072385e-09 4.138857e-09 4.1466253e-09 4.2299364e-09 4.1484585e-09 4.1837325e-09
4.1274797e-09 4.144568e-09 4.225393e-09 4.1283608e-09 4.0562473e-09 4.3814588e-09 4.2864707e-09 4.0874917e-09
4.0803325e-09 4.1443116e-09 4.248146e-09 4.120925e-09 4.0248103e-09 4.3003783e-09 4.2102255e-09 4.1161434e-09
7.6903595e-09 8.0503915e-09 7.9832745e-09 7.656523e-09 7.861242e-09 7.782672e-09 7.4090782e-09 1.18663115e-08
2.5194229e-08 1.0790982e-08 8.917546e-09 8.038796e-09 1.2390882e-08 3.843942e-08 3.9478984e-08 2.8852998e-08
9.400198e-08 7.4018615e-08 8.899727e-08 4.854289e-08 4.105692e-08 8.433585e-08 9.472122e-08 7.180072e-08
2.297299e-08 1.1235131e-07 1.2299782e-07 9.119489e-08 8.63347e-08 1.2310885e-07 1.1361902e-07 2.1256e-08
8.1910265e-08 7.141987e-08 6.9114066e-08 3.8156465e-08 4.6046857e-08 7.53326e-08 6.003091e-08 1.1467443e-07
5.574413e-08 3.2767936e-08 2.005211e-08 2.3296158e-08 6.888865e-09 6.6880244e-09 6.6189267e-09 4.210079e-08
1.4229309e-08 7.6423845e-09 7.46949e-09 6.9318857e-09 7.744269e-09 7.98326e-09 7.921491e-09 7.709343e-09
7.717066e-09 7.696306e-09 7.859887e-09 7.985556e-09 8.481885e-09 8.319223e-09 8.129698e-09 8.352922e-09
8.488559e-09 8.4209235e-09 8.604723e-09 8.582715e-09 8.535553e-09 8.400742e-09 8.388175e-09 8.437901e-09
8.60231e-09 8.563817e-09 8.510821e-09 8.640484e-09 8.544401e-09 8.613829e-09 8.559718e-09 8.59064e-09
8.579392e-09 8.565855e-09 8.5615195e-09 8.546768e-09 8.5632506e-09 8.573653e-09 8.536918e-09 8.558276e-09
8.546074e-09 8.543317e-09 8.581543e-09 8.541792e-09 8.56631e-09 8.6176595e-09 8.615576e-09 8.575428e-09
8.532208e-09 8.553606e-09 8.458897e-09 8.57055e-09 8.532848e-09 8.592951e-09 8.514363e-09 8.635072e-09
8.496563e-09 8.397796e-09 8.560706e-09 8.525501e-09 8.334738e-09 8.287559e-09 8.679754e-09 8.274121e-09
7.976161e-09 8.225901e-09 8.6677625e-09 8.557246e-09 7.86333e-09 7.934149e-09 7.918567e-09 8.077828e-09
9.987687e-09 1.1110755e-08 1.0544059e-08 1.0600938e-08 1.137323e-08 1.06888605e-08 1.0568218e-08 1.153361e-08
1.8893727e-08 1.3804011e-08 1.1088411e-08 1.0963636e-08 1.3269363e-08 4.199971e-08 3.31884e-08 5.5732986e-08
00000000: d0de 9731 e449 9031 a43c 8a31 c0bf 8431
00000010: f449 9331 c2d6 8c31 5596 9931 e73a d731
00000020: 2e3b 1132 92a6 8532 8831 cb31 63f7 9431
00000030: fb80 1032 6f12 1533 2ad0 d832 08ca d832
00000040: f7a3 8333 925d 9832 d44e 8633 60a5 2732
00000050: b427 2533 d0ed 5533 3080 1633 e0ab 8a32
00000060: 74b4 9032 1fbf 4933 17dd b933 cd06 9033
00000070: 5823 4a33 8954 c033 476b 8233 ed56 8032
00000080: 69fc 6733 5703 1833 c0ec 4733 eb1b a932
00000090: d369 e132 5a1f ef32 6ea8 1b33 5809 8233
000000a0: 14c8 eb32 bc8a 4132 9920 ba31 fa5b d932
000000b0: 0c43 ad31 419d 8731 c282 b831 e5d3 9932
000000c0: b9fa a431 9930 9131 5b2f 9631 51e2 8b31
000000d0: 173d 8e31 9138 8f31 490d 8b31 4003 b631
000000e0: 1307 8b31 916e 9031 0e6b 8d31 e7f3 8b31
000000f0: ae5d 8f31 6861 9231 5de5 8d31 0955 8c31
00000100: 82bd 8e31 1d4b 9031 4734 9431 0223 8f31
00000110: dfc9 8d31 03d9 8c31 0e2f 9031 50ba 8e31
00000120: 5f1c 8f31 160c 8f31 5ff9 8e31 9970 8f31
00000130: 136a 8e31 d284 8f31 dc70 8f31 8d47 8f31
00000140: 65a4 8e31 c957 8f31 bd0e 8f31 13fa 8e31
00000150: 9093 8e31 c144 9031 5f1c 8f31 3c57 8e31
00000160: 7f85 8e31 fa14 8e31 20e3 8e31 6937 8e31
00000170: 915c 8e31 7da0 8f31 cd5e 8e31 716e 8f31
00000180: e0c0 8d31 f797 8f31 a71f 8d31 c535 8e31
00000190: 1a7a 8e31 ea56 9131 3a8a 8e31 80c0 8f31
000001a0: b2d1 8d31 0168 8e31 f32e 9131 72d9 8d31
000001b0: 215f 8b31 b88b 9631 3248 9331 f571 8c31
000001c0: fc32 8c31 c065 8e31 16f7 9131 0a98 8d31
000001d0: 9b4a 8a31 87c2 9331 89a9 9031 fb6d 8d31
000001e0: 8f1e 0432 ff4d 0a32 d026 0932 bf89 0332
000001f0: 1c0e 0732 8eb4 0532 f192 fe31 97dc 4b32
00000200: b26a d832 3e63 3932 c833 1932 001b 0a32
00000210: addf 5432 9718 2533 9a8f 2933 6ad8 f732
00000220: 23de c933 2af4 9e33 c41e bf33 797d 5033
00000230: 9056 3033 201c b533 8b69 cb33 dd30 9a33
00000240: 2456 c532 c945 f133 6211 0434 ecd6 c333
00000250: 0167 b933 e72f 0434 b8fe f333 7096 b632
00000260: a5e6 af33 7d5f 9933 dc6b 9433 7ae1 2333
00000270: 0ec5 4533 89c6 a133 57ea 8033 ef42 f633
00000280: 526b 6f33 babc 0c33 0e3f ac32 cb1c c832
00000290: 19b3 ec31 7ccc e531 b26c e331 4fd2 3433
000002a0: 2a75 7432 904b 0332 2a53 0032 832d ee31
000002b0: a80b 0532 c026 0932 1617 0832 0d72 0432
000002c0: 0494 0432 b638 0432 2608 0732 d930 0932
000002d0: bab7 1132 54ec 0e32 caaa 0b32 8a80 0f32
000002e0: 14d5 1132 9dab 1032 f9d3 1332 2e73 1332
000002f0: c2a3 1232 db52 1032 951b 1032 48f6 1032
00000300: 5cc9 1332 1120 1332 fd36 1232 4071 1432
00000310: acca 1232 05fc 1332 0a0e 1332 0996 1332
00000320: 9164 1332 0729 1332 f615 1332 15d5 1232
00000330: 931d 1332 534b 1332 c3a9 1232 b207 1332
00000340: 08d2 1232 e8c5 1232 066e 1332 33bf 1232
00000350: 082b 1332 de0c 1432 b403 1432 2253 1332
00000360: 0c95 1232 28f3 1232 9f52 1132 ad3d 1332
00000370: dd97 1232 33a0 1332 9146 1232 7359 1432
00000380: 47f8 1132 e645 1032 6212 1332 8d77 1232
00000390: 9130 0f32 1261 0e32 f61d 1532 f825 0e32
000003a0: 8707 0932 e551 0d32 39e9 1432 2a03 1332
000003b0: 4b17 0732 c24e 0832 3a0a 0832 aac6 0a32
000003c0: 5096 2b32 9ee1 3e32 4325 3532 6b1f 3632
000003d0: ff63 4332 1ba2 3732 848f 3532 5a25 4632
000003e0: bf4b a232 af26 6d32 597f 3e32 955a 3c32
000003f0: 47f7 6332 2b63 3433 088b 0e33 115f 6f33

slow_buffer f4 [256, 120]
-0.06799539 -0.09251284 -0.08921498 -0.032275353 -0.09631172 -0.04695239 0.11752364 0.03537356
-0.06403818 0.21035331 0.021929942 0.03836792 0.030980404 0.042377107 0.028350595 0.13245517
0.10790096 -0.0931199 0.09868598 -0.088947095 0.1258202 0.09474504 -0.110648274 -0.13849625
0.008124784 -0.057412542 0.039105628 0.012822518 0.019283049 0.08301462 -0.0258479 0.008142704
0.0027231807 -0.041446462 -0.040768094 -0.018158052 -0.00086772355 -0.08036869 -0.026794609 -0.02538625
-0.017882846 -0.06362672 -0.17809498 0.10844289 0.053892918 -0.11887176 0.04288687 0.05278217
-0.061040886 -0.018732004 0.030606255 0.08966618 -0.106548466 0.008794186 -0.028771361 0.10068412
-0.026291847 -0.01606359 -0.041220203 0.011826467 0.0954272 0.038681842 0.08485628 -0.124056324
-0.081260934 -0.024350762 0.0027535926 -0.033516467 0.03232625 -0.05332789 -0.0048728073 -0.037368253
0.17764571 -0.07975644 0.05938347 0.052135304 0.049178682 0.04348269 0.03772784 -0.07400294
0.15974444 0.1619682 -0.035591386 0.12325084 0.15931138 0.14608978 0.19534984 0.10109027
0.12656823 -0.06798217 0.10900812 0.12626629 0.03658221 0.010511335 -0.094736725 0.06673263
0.0765738 0.16844593 0.09761056 -0.05124839 -0.028888565 0.026349185 0.12756607 0.028418524
0.07569529 -0.1048892 -0.10647716 -0.050986372 0.08870216 0.0067781424 -0.054422636 0.030707404
-0.06447145 -0.11762923 -0.057874985 0.008470248 0.06717293 0.036396176 -0.09886862 -0.033587553
0.009324852 0.0032784897 0.0021796513 0.06135673 -0.058131948 -0.032886 -0.07204863 0.04946047
0.056080278 -0.09315455 0.12008457 0.010616265 -0.08112908 0.09184807 0.08921731 0.036490444
0.05628743 0.041101146 0.054377586 0.030723352 0.12779503 0.12045361 -0.041000597 0.01681941
0.16127853 -0.09516585 -0.05779542 0.0875787 0.0724958 -0.024106968 0.009317581 -0.02602807
0.092974976 0.029898483 -0.043018445 0.011014439 0.070439786 0.06481771 0.0850499 -0.065124564
0.016278261 -0.08753609 -0.029007304 0.087653 0.0081501305 -0.14966595 -0.12299012 0.069210075
0.07801673 0.03312873 -0.06853263 0.005549191 -0.02097147 0.06363704 -0.1102356 -0.0031273277
0.065737315 -0.015826838 0.12719914 0.107690886 -0.052435644 -0.028002173 0.0070960964 0.027667716
-0.0013947268 -0.025806967 0.05540562 0.03939573 0.104129344 0.108108744 -0.07761524 0.011781622
0.053167872 0.0060559968 0.08351737 0.16091922 0.02594129 0.17605703 0.026312986 0.012086326
0.092335746 -0.019850394 0.11462484 0.054425552 0.016012661 0.025928736 -0.0555598 0.10748781
0.123775125 0.015129827 0.0002679951 -0.028312173 0.02019848 0.0372025 -0.042226188 -0.032826044
-0.11957361 -0.038127586 -0.113023356 -0.07015538 -0.0699358 -0.011055732 0.009320125 -0.11800068
-0.10655351 -0.02885108 -0.11942902 0.047997534 0.033534057 -0.03526409 -0.06745812 -0.15226847
0.029861057 -0.010209339 -0.060585044 0.06496498 -0.03283611 0.024018673 -0.0815888 -0.075078435
0.09142771 -0.1433088 0.10492675 0.00037535114 -0.21877733 -0.14644498 0.048309226 0.07900103
-0.061315246 0.09792866 0.124284565 0.15166101 -0.05197017 0.03130334 0.074285515 0.09168546
00000000: 2b41 8bbd 5f77 bdbd 58b6 b6bd 2933 04bd
00000010: 143f c5bd 2651 40bd 3cb0 f03d dee3 103d
00000020: 7326 83bd dc66 573e 6ca6 b33c ae27 1d3d
00000030: 9eca fd3c 9e93 2d3d 823f e83c 54a2 073e
00000040: 2efb dc3d a5b5 bebd e01b ca3d e529 b6bd
00000050: 03d7 003e b009 c23d 909b e2bd f6d1 0dbe
00000060: d01d 053c 6a29 6bbd 392d 203d 8a15 523c
00000070: 7cf7 9d3c 9203 aa3d fabe d3bc fa68 053c
00000080: 6477 323b c4c3 29bd 72fc 26bd 32c0 94bc
00000090: f177 63ba 5798 a4bd 5e80 dbbc d3f6 cfbc
000000a0: 0c7f 92bc ba4e 82bd 885e 36be 4e17 de3d
000000b0: d2be 5c3d 0a73 f3bd 25aa 2f3d 1e32 583d
000000c0: 0206 7abd dc73 99bc f8b9 fa3c e7a2 b73d
000000d0: 1536 dabd 7d15 103c ebb1 ebbc 7a33 ce3d
000000e0: 0062 d7bc ca97 83bc 84d6 28bd ccc3 413c
000000f0: 566f c33d da70 1e3d 21c9 ad3d 3e11 febd
00000100: 226c a6bd 407b c7bc 9e75 343b 9048 09bd
00000110: 8868 043d 586e 5abd 12ac 9fbb 740f 19bd
00000120: c2e8 353e 5857 a3bd 153c 733d d48b 553d
00000130: 966f 493d e81a 323d 8288 1a3d da8e 97bd
00000140: 0c94 233e feda 253e 46c8 11bd f06a fc3d
00000150: 8622 233e 8f98 153e ca09 483e 6a08 cf3d
00000160: 1a9b 013e 3c3a 8bbd a63f df3d f34b 013e
00000170: 3ad7 153d bc37 2c3c 5405 c2bd 1eab 883d
00000180: b9d2 9c3d 177d 2c3e 0ce8 c73d d5e9 51bd
00000190: b6a7 ecbc 3fda d73c aea0 023e f7cd e83c
000001a0: 2206 9b3d 26d0 d6bd b210 dabd 16d7 50bd
000001b0: 7aa9 b53d 2e1b de3b 45ea 5ebd 188e fb3c
000001c0: 9c09 84bd 98e7 f0bd 520e 6dbd ccc6 0a3c
000001d0: f691 893d 2814 153d a27b cabd 1a93 09bd
000001e0: 44c7 183c eedb 563b 7bd8 0e3b 3251 7b3d
000001f0: c41b 6ebd 78b3 06bd 3b8e 93bd 1097 4a3d
00000200: 6fb4 653d d0c7 bebd e6ee f53d d8ef 2d3c
00000210: 0127 a6bd d71a bc3d 91b7 b63d 0177 153d
00000220: a68d 663d ad59 283d 08bb 5e3d 8aaf fb3c
00000230: b3dc 023e 62b0 f63d 3ef0 27bd dcc8 893c
00000240: 3326 253e 50e6 c2bd e4ba 6cbd 765c b33d
00000250: ae78 943d fa7b c5bc c4a8 183c d238 d5bc
00000260: aa69 be3d aaed f43c 1c34 30bd e875 343c
00000270: bc42 903d 26bf 843d a42e ae3d 0760 85bd
00000280: fd59 853c 1f46 b3bd baa0 edbc 6b83 b33d
00000290: 2088 053c 0842 19be 3ee2 fbbd 03be 8d3d
000002a0: 3cc7 9f3d feb1 073d d65a 8cbd fdd5 b53b
000002b0: 5ccc abbc 2354 823d 34c3 e1bd daf3 4cbb
000002c0: 49a1 863d 49a7 81bc 7e40 023e 0a8d dc3d
000002d0: c2c6 56bd d064 e5bc 5f86 e83b 68a7 e23c
000002e0: 44cf b6ba 2269 d3bc 01f1 623d 6b5d 213d
000002f0: c441 d53d 1e68 dd3d bdf4 9ebd b407 413c
00000300: 8ec6 593d 6271 c63b 280b ab3d 02c8 243e
00000310: d482 d43c 4b48 343e 558e d73c ba05 463c
00000320: 861a bd3d 4b9d a2bc 6ec0 ea3d 54ed 5e3d
00000330: fc2c 833c 8068 d43c ac92 63bd 9222 dc3d
00000340: d07d fd3d 18e3 773c b281 8c39 eeee e7bc
00000350: 4877 a53c a661 183d 5ef5 2cbd 9a74 06bd
00000360: 02e3 f4bd ac2b 1cbd ca78 e7bd a0ad 8fbd
00000370: 803a 8fbd 1a23 35bc 70b3 183c 57aa f1bd
00000380: ba38 dabd 1a59 ecbc 3497 f4bd 1099 443d
00000390: 025b 093d 1471 10bd 7c27 8abd 44ec 1bbe
000003a0: 2d9f f43c 1245 27bc 0628 78bd 5c0c 853d
000003b0: 287f 06bd cfc2 c43c 0718 a7bd b9c2 99bd
000003c0: 743e bb3d 8bbf 12be d6e3 d63d c7ca c439
000003d0: 2a07 60be acf5 15be e5df 453d 4bcb a13d
000003e0: b225 7bbd d28e c83d e888 fe3d 064d 1b3e
000003f0: acde 54bd ee37 003d 0123 983d 96c5 bb3d
