Training/PyTrainer/epoch=2.ckpt (torch, 654021 bytes, 28 tensors)

net.0.weight f4 [256, 120]
-0.10766945 -0.11359197 -0.01453673 -0.09674074 -0.048786886 0.074585706 -0.05130385 -0.26805428
0.043320812 0.023117032 0.04830619 -0.16859037 0.010172886 0.03954426 -0.07527086 -0.05921568
-0.004100583 0.0678306 -0.04950838 -0.10291413 -0.047024794 0.027328197 0.03588758 0.06663996
-0.06290596 0.081123345 -0.0491305 0.014124496 0.00038474135 0.08483139 -0.061847255 0.13925196
-0.027177542 0.0897824 0.07770796 0.16051504 -0.04543351 0.014216086 0.013696593 0.050607543
0.021305513 0.021536032 0.0377451 -0.09138619 -0.09775391 -0.030910712 -0.12771547 -0.25432232
0.026116095 -0.0524576 -0.1016204 0.0029837287 0.022010399 0.06230289 -0.015045858 -0.058923453
-0.16217226 0.048884656 -0.032279223 -0.010186498 -0.086017944 -0.02305282 -0.00022444151 -0.08886229
0.05047868 -0.02837569 0.025683664 -0.012592737 -0.041593697 0.0003491485 -0.025375636 -0.10825895
0.0797992 -0.02611016 -0.05934722 -0.04428477 0.0063090455 0.06531221 0.059327815 -0.026788846
-0.0992055 -0.08184785 -0.023102604 0.055318326 -0.055681385 0.057652175 0.10496428 0.116192274
0.062341154 0.06328345 -0.050222453 -0.041507673 0.037351392 0.07610345 0.1395658 0.14680162
-0.09507878 0.01186555 0.14180307 -0.063960925 0.051624928 0.14733192 -0.056290444 -0.08635288
0.065283544 -0.06753796 -0.0664811 0.043077964 0.07961088 -0.08918064 0.11957382 0.027436139
-0.06699949 -0.08447715 0.11871837 -0.09009881 -0.06820333 0.006478741 -0.13990551 -0.092132255
-0.06348227 -0.037648756 -0.10755553 -0.101557724 -0.07374213 0.037692387 -0.056411453 -0.031678937
-0.102495104 0.059872568 0.03624607 -0.12784667 -0.08548312 0.06356893 -0.13303901 -0.0046836035
-0.05705496 0.081387505 -0.15165502 0.014262677 -0.012920026 0.03915146 -0.028192172 0.027934264
-0.001772058 -0.08995127 0.022728836 -0.031799845 0.15749028 0.085906245 0.05231941 0.03818704
0.10929138 0.1495615 0.017280867 0.112696506 0.13386151 0.046117887 -0.05265502 -0.016084189
0.06176238 0.038769193 0.071040794 -0.005620629 0.051482115 0.029875636 -0.07827809 0.09686028
-0.018778436 0.024270521 0.12853646 0.114720866 0.089210086 0.13308322 -0.038002837 0.12383369
0.02083963 0.026859796 -0.08231153 -0.061635528 -0.09737893 -0.0024136605 -0.09215029 -0.06827895
-0.008474207 -0.114649475 0.0503651 -0.114306435 0.0049948003 -0.082418256 -0.11174393 -0.1777849
-0.13152428 -0.010409082 -0.16809705 -0.11802419 -0.018991692 -0.06282688 -0.10341751 -0.073125154
-0.10651677 -0.105203755 -0.050802 -0.12080476 -0.07792865 0.05130473 -0.07968614 -0.051872708
-0.12712984 -0.015996711 -0.030800745 -0.030469814 -0.10753814 0.014187535 0.041302986 0.061463874
-0.043916862 0.11878349 0.060301334 0.07920569 0.07428972 0.10706445 0.14348732 -0.09639809
-0.062028196 -0.056761175 -0.026472386 -0.083270155 -0.049027923 0.078594156 -0.017861534 -0.06642243
0.117751375 0.047116604 -0.04597715 0.09508887 0.14150436 -0.020038512 0.031537157 0.048926916
-0.04562171 0.05920464 0.10175306 0.02868752 0.027353818 -0.018554902 0.023532515 0.17128877
0.03415441 0.08594083 0.11705646 -0.07547538 0.03653603 -0.038934544 0.071550466 0.06982667
00000000: cd81 dcbd e8a2 e8bd 772b 6ebc 0220 c6bd
00000010: c2d4 47bd 64c0 983d fc23 52bd 693e 89be
00000020: 2a71 313d ee5f bd3c b6dc 453d f4a2 2cbe
00000030: 2dac 263c 29f9 213d 9c27 9abd 248c 72bd
00000040: 2f5e 86bb c5ea 8a3d 4dc9 4abd a5c4 d2bd
00000050: 129d 40bd 62df df3c dbfe 123d 887a 883d
00000060: d7d4 80bd ff23 a63d 103d 49bd 6e6a 673c
00000070: 1cb7 c939 14bc ad3d 8c53 7dbd 1198 0e3e
00000080: 70a3 debc d6df b73d 5a25 9f3d 0e5e 243e
00000090: 7d18 3abd 96ea 683c ad67 603c db49 4f3d
000000a0: e688 ae3c 556c b03c 9b9a 1a3d af28 bbbd
000000b0: 3433 c8bd 7638 fdbc d8c7 02be 8936 82be
000000c0: 6cf1 d53c c8dd 56bd 5b1e d0bd a98a 433b
000000d0: 274f b43c 5131 7f3d e782 76bc b859 71bd
000000e0: 7c10 26be 473b 483d 3837 04bd 45e5 26bc
000000f0: 2d2a b0bd 44d9 bcbc 0f58 6bb9 6ffd b5bd
00000100: bbc2 4e3d 2374 e8bc 8c66 d23c c451 4ebc
00000110: 275e 2abd eb0d b739 91e0 cfbc deb6 ddbd
00000120: c36d a33d f9e4 d5bc 1216 73bd f263 35bd
00000130: 1cbc ce3b 68c2 853d b901 733d 4874 dbbc
00000140: 412c cbbd d89f a7bd ac41 bdbc 7895 623d
00000150: 2a12 64bd b024 6c3d 83f7 d63d 37f6 ed3d
00000160: 7059 7f3d c19a 813d 0fb6 4dbd f303 2abd
00000170: c6fd 183d 20dc 9b3d 56ea 0e3e 2a53 163e
00000180: aab8 c2bd b967 423c d334 113e f2fd 82bd
00000190: a974 533d 2ede 163e cf90 66bd c7d9 b0bd
000001a0: 61b3 853d 5851 8abd 3e27 88bd 8572 303d
000001b0: 070b a33d 57a4 b6bd 1ee3 f43d c1c1 e03c
000001c0: 0737 89bd 5b02 adbd 9e22 f33d ba85 b8bd
000001d0: 30ae 8bbd 9e4b d43b 6443 0fbe d6af bcbd
000001e0: fe02 82bd 9535 1abd 1346 dcbd 7ffd cfbd
000001f0: 1d06 97bd 5563 1a3d b20f 67bd c6c1 01bd
00000200: f4e8 d1bd f03c 753d c276 143d 3dea 02be
00000210: c611 afbd 6d30 823d 613b 08be ea78 99bb
00000220: 76b2 69bd 7eae a63d 744b 1bbe 01ae 693c
00000230: 84ae 53bc 485d 203d 45f3 e6bc 66d6 e43c
00000240: 6644 e8ba 5f38 b8bd d331 ba3c 8e40 02bd
00000250: 2245 213e 9def af3d e14c 563d 036a 1c3d
00000260: 29d4 df3d a626 193e 9b90 8d3c 6dcd e63d
00000270: fe12 093e 1ce6 3c3d caac 57bd fdc2 83bc
00000280: 8dfa 7c3d 72cc 1e3d d67d 913d 412d b8bb
00000290: e9de 523d c0bd f43c 4350 a0bd af5e c63d
000002a0: 3cd5 99bc f9d2 c63c 109f 033e c6f2 ea3d
000002b0: c7b3 b63d f846 083e dda8 1bbd 859c fd3d
000002c0: dfb7 aa3c 1309 dc3c f392 a8bd 8975 7cbd
000002d0: 9b6e c7bd 812e 1ebb 4bb9 bcbd d6d5 8bbd
000002e0: 66d7 0abc 58cd eabd a34b 4e3d 7e19 eabd
000002f0: 6cab a33b e7ca a8bd 00da e4bd 3f0d 36be
00000300: 4dae 06be db8a 2abc a221 2cbe abb6 f1bd
00000310: 7794 9bbc 61ab 80bd 8fcc d3bd a4c2 95bd
00000320: 7725 dabd 1175 d7bd c215 50bd 7c68 f7bd
00000330: 0e99 9fbd e924 523d 7d32 a3bd 7a78 54bd
00000340: 532e 02be 890b 83bc d851 fcbc d59b f9bc
00000350: f53c dcbd d672 683c 522d 293d 8bc1 7b3d
00000360: 2be2 33bd c244 f33d 88fe 763d 9836 a23d
00000370: 3525 983d 9b44 db3d 57ee 123e 5d6c c5bd
00000380: 4711 7ebd 687e 68bd 9edc d8bc 8b89 aabd
00000390: 81d1 48bd f9f5 a03d 5a52 92bc 7c08 88bd
000003a0: a227 f13d 57fd 403d 8952 3cbd f4bd c23d
000003b0: 85e6 103e ce27 a4bc 1b2d 013d 9767 483d
000003c0: d5dd 3abd 9180 723d e963 d03d 1702 eb3c
000003d0: 1d15 e03c 7300 98bc 43c7 c03c 5366 2f3e
000003e0: 7fe5 0b3d bf01 b03d 4cbb ef3d d692 9abd
000003f0: cea6 153d d479 1fbd 0d89 923d 4901 8f3d

net.0.bias f4 [256]
0.043509264 0.073237844 0.1714305 0.05018412 0.05648652 0.0030325486 0.029872162 0.12476499
0.19902767 0.034731477 0.11448531 0.04890038 0.06232464 0.059190877 0.07072618 0.03163918
-0.010141199 0.0624365 0.020844435 -0.0028159234 0.03920094 0.023788966 0.068996675 0.18536772
-0.045076776 -0.034046426 0.0020484047 0.024167376 0.03503322 0.052560974 0.013776939 0.01601501
0.08297408 0.047380093 0.103066795 0.07042367 0.01722564 0.05633738 0.03187517 0.045596644
0.011121785 0.07006638 0.06279678 -0.036426894 0.044873103 0.015331304 0.18460298 0.1619382
0.04781225 0.034804936 0.011108271 0.06438938 0.029596524 0.06940564 0.033523954 0.090229824
-0.120800704 0.045033183 0.023872698 -0.023561923 0.11326782 0.03778781 -0.023163844 0.06330982
0.048433855 0.043718636 0.14746577 0.077655666 0.027593171 -0.0024449013 0.21728945 0.047356565
-0.0013473387 0.014900281 0.009831034 -0.02861917 -0.027746692 0.053841252 -0.0087628625 -0.07708937
0.091350846 0.013284578 -0.08747785 0.03274346 -0.0596747 0.08208379 0.021092836 0.026067218
0.023171647 0.05293228 0.022652457 0.0040570274 0.03586938 0.04062431 -0.0025382948 0.15312548
0.033119787 -0.003532301 0.04937898 -0.06667535 0.06216108 0.028897006 0.014627395 0.004056195
-0.008563274 -0.0012131231 -0.011187111 0.045474347 0.035451014 0.09004451 0.049152948 0.022388067
0.04584751 0.071169965 0.0020917961 -0.011400087 -0.062715255 0.012674311 0.039619293 0.063625365
0.1396267 -0.018333165 0.042666156 -0.03421419 0.028677545 0.062422335 0.1146635 -0.06404066
0.0555838 0.05240523 0.050213244 0.044219546 0.024034616 0.070974424 0.021665083 0.07801001
-0.0815622 -0.0322796 0.028360404 0.05211335 0.016529929 0.080876455 0.13803127 0.047956325
-0.00805869 0.05518224 0.013262536 0.071704715 0.021378167 0.28574193 0.13926728 0.06442731
0.035025954 0.073934235 0.007190548 -0.008326447 0.07841269 0.003550032 0.04010578 0.03804582
0.07724238 0.017609889 0.01815252 -0.06871682 0.028635353 0.037571277 0.010767101 -0.0155902235
0.011531453 0.019523608 0.020499296 0.030874113 0.049620554 -0.046898045 -0.059878662 0.061002407
0.07093589 0.0166638 0.09975309 0.2791711 0.039779313 -0.017117888 0.08555381 0.114325546
0.02362954 0.0045129163 0.059139866 0.04090786 0.01023112 0.12381542 0.028622415 0.028038517
0.023441745 0.050111506 0.07139197 0.07903546 0.025790831 0.041740455 0.2050242 0.050599474
0.052527137 0.02951468 0.051177565 0.07702222 0.084581465 0.010607027 -0.052940402 0.06804669
0.015146268 0.045035176 -0.024709683 0.046984732 0.015984705 0.05362856 0.052778415 0.009283271
-0.009292557 0.040106684 0.08303373 0.022750573 0.060877927 0.05169155 0.04612219 0.054643318
0.06442631 -0.066149965 0.04256834 0.029378735 0.034712877 0.08168941 0.03255958 0.06014121
-0.086486116 -0.05434268 0.04373981 0.059182376 0.08068855 0.04193352 0.05305746 0.031354234
0.38532898 -0.10772016 0.03709495 -0.014175774 0.041880935 0.06280082 -0.085137784 0.046822976
-0.025063451 0.086646 0.05174912 0.0746213 0.04431331 -0.0358851 0.05088919 0.063314036
00000000: c536 323d b9fd 953d 7a8b 2f3e dd8d 4d3d
00000010: 695e 673d b9bd 463b 77b6 f43c c984 ff3d
00000020: e9cd 4b3e 9842 0e3d 4677 ea3d c44b 483d
00000030: 1f48 7f3d 2272 723d e3d8 903d 1698 013d
00000040: 4627 26bc 6abd 7f3d f3c1 aa3c 5b8b 38bb
00000050: 2a91 203d 14e1 c23c 214e 8d3d 09d1 3d3e
00000060: 6da2 38bd 4474 0bbd 873e 063b a9fa c53c
00000070: fe7e 0f3d 2d4a 573d acb8 613c e931 833c
00000080: 51ee a93d a111 423d af14 d33d 493a 903d
00000090: c91c 8d3c 06c2 663d 8a8f 023d 8cc3 3a3d
000000a0: 2638 363c f67e 8f3d 999b 803d 5e34 15bd
000000b0: dccc 373d 2630 7b3c 9008 3d3e 21d3 253e
000000c0: c7d6 433d 9f8f 0e3d 77ff 353c 94de 833d
000000d0: 6974 f23c 8b24 8e3d 6a50 093d 6aca b83d
000000e0: 5c66 f7bd b774 383d ad90 c33c ef04 c1bc
000000f0: f5f8 e73d 64c7 1a3d 1ac2 bdbc 94a8 813d
00000100: 9462 463d 5012 333d 4401 173e ef09 9f3d
00000110: 130b e23c a33a 20bb 2081 5e3e f5f8 413d
00000120: 2f99 b0ba 4f20 743c 5812 213c c072 eabc
00000130: 084d e3bc a588 5c3d 1c92 0fbc 08e1 9dbd
00000140: 2716 bb3d 8fa7 593c 9627 b3bd 021e 063d
00000150: 756d 74bd 8c1b a83d e2ca ac3c eb8a d53c
00000160: 77d2 bd3c 85cf 583d a591 b93c d0f0 843b
00000170: c5eb 123d ad65 263d 8559 26bb edcc 1c3e
00000180: 9da8 073d 2d7e 67bb 9d41 4a3d 168d 88bd
00000190: 9e9c 7e3d 6ab9 ec3c bea7 6f3c d4e9 843b
000001a0: f94c 0cbc a801 9fba 254a 37bc 4f43 3a3d
000001b0: 1535 113d 4269 b83d 9a54 493d 2e67 b73c
000001c0: 99ca 3b3d 8fc1 913d 8416 093b 6ec7 3abc
000001d0: db70 80bd eaa7 4f3c d747 223d 044e 823d
000001e0: 4dfa 0e3e 6f2f 96bc b5c2 2e3d 2e24 0cbd
000001f0: 2ced ea3c 90ae 7f3d b2d4 ea3d c027 83bd
00000200: d7ab 633d dea6 563d 67ac 4d3d 8e1f 353d
00000210: 3ee4 c43c 0a5b 913d f97a b13c b6c3 9f3d
00000220: 150a a7bd 9d37 04bd 1454 e83c cf74 553d
00000230: c669 873c 8ea2 a53d 1258 0d3e da6d 443d
00000240: 9808 04bc c606 623d 1c4b 593c ecd9 923d
00000250: 4421 af3c c44c 923e 159c 0e3e 77f2 833d
00000260: 6077 0f3d d56a 973d b09e eb3b a66b 08bc
00000270: d596 a03d a7a7 683b f545 243d efd5 1b3d
00000280: 4131 9e3d 9d42 903c 98b4 943c 67bb 8cbd
00000290: b094 ea3c 57e4 193d 7f68 303c 236e 7fbc
000002a0: 6bee 3c3c f9ef 9f3c 24ee a73c b5eb fc3c
000002b0: ec3e 4b3d 2a18 40bd 5443 75bd a9dd 793d
000002c0: d646 913d 8682 883c 594b cc3d 84ef 8e3e
000002d0: a2ef 223d d03a 8cbc d636 af3d 8323 ea3d
000002e0: bd92 c13c 16e1 933b a53c 723d 008f 273d
000002f0: 6da0 273c f092 fd3d 8e79 ea3c 08b1 e53c
00000300: e708 c03c b941 4d3d f435 923d 58dd a13d
00000310: 4b47 d33c 0af8 2a3d ddf1 513e 6541 4f3d
00000320: b226 573d c5c8 f13c 919f 513d d3bd 9d3d
00000330: 0c39 ad3d 19c9 2d3c 09d8 58bd 105c 8b3d
00000340: 0d28 783c ce76 383d f66b cabc 1073 403d
00000350: 5bf2 823c 9fa9 5b3d 2e2e 583d dc18 183c
00000360: cf3f 18bc e846 243d 970d aa3d 695f ba3c
00000370: 225b 793d 85ba 533d 9fea 3c3d acd1 5f3d
00000380: f1f1 833d a279 87bd 245c 2e3d acab f03c
00000390: 172f 0e3d c74c a73d 325d 053d a156 763d
000003a0: a21f b1bd 6e96 5ebd 8428 333d 3869 723d
000003b0: 0a40 a53d 7cc2 2b3d c752 593d 4c6d 003d
000003c0: d749 c53e 639c dcbd e0f0 173d 8141 68bc
000003d0: 588b 2b3d b79d 803d b85c aebd 73c9 3f3d
000003e0: de51 cdbc 7573 b13d e3f6 533d 0dd3 983d
000003f0: e081 353d 41fc 12bd 2f71 503d caaa 813d

net.2.weight f4 [32, 256]
-0.18543261 -0.0140243955 -0.17693596 0.052249458 -0.019541383 -0.044701908 0.0434357 -0.2584745
-0.15739873 -0.059106957 -0.038586427 -0.116861485 0.17782585 -0.16869202 -0.09459514 0.0043235337
-0.07903138 0.04488367 -0.015447166 -0.026248578 0.0048064156 0.18240125 -0.020218953 -0.14189069
0.05804204 -0.027624741 0.13522914 -0.04007554 0.09598029 -0.10917926 -0.10418124 -0.22046097
-0.1280478 0.051865887 -0.21741745 -0.18181704 0.2887242 -0.09499926 0.20358452 0.21146831
-0.066831924 0.1447593 -0.1601189 -0.10637279 -0.0018551477 -0.13231891 -0.12231216 -0.019311376
-0.103263825 0.07466633 -0.045269545 -0.021572717 -0.07758973 0.18410537 -0.061266057 0.11222846
-0.049956847 -0.17880991 0.25244474 -0.013351628 0.2407845 -0.19783665 0.07564925 -0.04733913
-0.017942363 0.18295412 -0.09243576 -0.15314952 -0.08367209 0.087722614 -0.22446951 0.1520946
0.22545649 -0.015780248 0.24269614 0.075299874 0.058609735 -0.09970029 -0.080375746 0.057537593
-0.01985702 -0.08622324 0.04661885 -0.16091405 -0.006968202 -0.043656047 0.22380087 -0.054336213
-0.13156165 -0.1374116 0.074972704 -0.0070409765 0.4675405 0.052154467 0.012481816 0.098447934
-0.06085516 0.12003733 -0.0876963 -0.09547765 0.118847266 -0.036755312 -0.04924885 -0.2059253
0.17778258 0.040969204 -0.04548886 -0.053537253 -0.09666514 -0.18716143 0.16474342 -0.080474935
-0.09229033 0.18480968 0.091373816 0.084704906 0.07031673 -0.10619339 0.14251709 -0.1490829
0.06295305 0.15748732 0.25042698 -0.123957716 -0.07523807 -0.026631147 -0.14813523 0.19742092
0.023497371 0.007515458 -0.18131441 -0.06949739 -0.09207941 0.24430221 -0.11593561 -0.17914468
0.13822825 0.06124599 0.07735943 -0.18462107 -0.027208326 0.15040384 -0.02795751 0.023229575
-0.121871375 0.026850658 -0.17458981 -0.0149882035 0.07243327 -0.13335761 0.111502476 -0.3038963
-0.34172672 0.109247595 -0.014439786 0.07395383 -0.15683383 0.11662253 0.14619848 0.057060935
-0.17464991 0.014498695 -0.04843578 -0.23818165 0.044365834 -0.007165852 -0.081027605 0.14342569
0.029472835 0.029685937 -0.041315574 -0.045090884 -0.031544063 -0.13526379 0.16111651 -0.09282017
0.27332523 -0.02946458 0.120652065 -0.19709843 0.028629214 0.12503211 -0.26457432 -0.30015758
0.06713534 -0.029726218 0.25799042 0.07801679 0.14123896 -0.102262504 -0.008628055 -0.04367976
-0.0746203 -0.1245182 0.0019336622 0.0029735412 -0.044605076 -0.19218111 -0.2682371 -0.12038103
-0.053820074 -0.015841974 -0.096430324 -0.080659695 -0.071528114 0.17084967 -0.15482354 0.13457948
-0.063224755 -0.102656476 -0.023535669 -0.048831362 -0.029876709 -0.17632958 0.002565698 0.20951505
-0.07626038 0.18384574 0.14400913 0.05129551 -0.06118758 0.009899788 -0.03375228 -0.028000588
-0.008953997 -0.0039525945 -0.0042011514 -0.036876734 -0.028035084 -0.027665276 -0.08535321 0.12944189
-0.019751426 -0.0032342898 0.048351258 0.09098275 -0.04338419 0.08685425 0.12216371 -0.054724492
-0.32869098 0.14647923 -0.16058077 0.19145292 -0.13387313 -0.11703895 0.016215578 0.07032272
-0.055947576 -0.029348416 0.12700014 0.0671461 -0.039485224 0.021584496 0.012450171 -0.23825262
00000000: 0ce2 3dbe 94c6 65bc b32e 35be 8703 563d
00000010: 4015 a0bc 5919 37bd a2e9 313d c556 84be
00000020: 222d 21be 231a 72bd cd0c 1ebd 1355 efbd
00000030: fb17 363e 9abd 2cbe 19bb c1bd 6eac 8d3b
00000040: 34db a1bd f0d7 373d 1c16 7dbc 4207 d7bc
00000050: 237f 9d3b 65c7 3a3e 38a2 a5bc cb4b 11be
00000060: 7dbd 6d3d 484d e2bc 8279 0a3e 4026 24bd
00000070: 5091 c43d 6099 dfbd f95c d5bd 85c0 61be
00000080: f61e 03be 5371 543d aea2 5ebe 3f2e 3abe
00000090: a9d3 933e f98e c2bd 7678 503e 268b 583e
000000a0: 2ddf 88bd c83b 143e 35f6 23be fad9 d9bd
000000b0: 6d28 f3ba 9c7e 07be cc7e fabd e432 9ebc
000000c0: fc7b d3bd a9ea 983d 8f6c 39bd 44b9 b0bc
000000d0: 5de7 9ebd 1e86 3c3e 1ef2 7abd 09d8 e53d
000000e0: 8d9f 4cbd f219 37be 7040 813e c9c0 5abc
000000f0: 3690 763e b195 4abe feed 9a3d ade6 41bd
00000100: ddfb 92bc 5358 3b3e f64e bdbd 3ad3 1cbe
00000110: 465c abbd eaa7 b33d 56db 65be b0be 1b3e
00000120: 11de 663e 9445 81bc 5685 783e d236 9a3d
00000130: c310 703d aa2f ccbd 0a9c a4bd 8aac 6b3d
00000140: 30ab a2bc cf95 b0bd 68f3 3e3d a7c6 24be
00000150: 8455 e4bb afd0 32bd 0e2c 653e a68f 5ebd
00000160: 19b8 06be a0b5 0cbe 4a8b 993d feb7 e6bb
00000170: 7861 ef3e ec9f 553d 8880 4c3c 129f c93d
00000180: 4343 79bd 22d6 f53d 1e9a b3bd c989 c3bd
00000190: 3266 f33d bd8c 16bd 2ab9 49bd 15de 52be
000001a0: a30c 363e 53cf 273d 8752 3abd e149 5bbd
000001b0: 5ff8 c5bd 3fa7 3fbe 80b2 283e 0bd0 a4bd
000001c0: b602 bdbd c03e 3d3e 3222 bb3d c479 ad3d
000001d0: 3802 903d ec7b d9bd 00f0 113e 30a9 18be
000001e0: 87ed 803d 5b44 213e f737 803e 8bdd fdbd
000001f0: 6b16 9abd 9029 dabc c3b0 17be b628 4a3e
00000200: 8f7d c03c 3b44 f63b 7caa 39be a654 8ebd
00000210: 2194 bcbd 5c2a 7a3e a66f edbd b471 37be
00000220: b58b 0d3e 13dd 7a3d 9f6e 9e3d 4e0d 3dbe
00000230: ffe3 debc 7703 1a3e 2607 e5bc f34b be3c
00000240: b397 f9bd e9f5 db3c acc7 32be 1591 75bc
00000250: e557 943d e68e 08be 695b e43d 4c98 9bbe
00000260: cef6 aebe 34bd df3d da94 6cbc 1b75 973d
00000270: 0c99 20be cbd7 ee3d 0eb5 153e bab8 693d
00000280: 6dd7 32be ef8b 6d3c 9964 46bd e4e5 73be
00000290: f3b8 353d 86cf eabb cdf1 a5bd 2fde 123e
000002a0: 0471 f13c ec2f f33c 853a 29bd 38b1 38bd
000002b0: 5934 01bd 9782 0abe bafb 243e 8018 bebd
000002c0: 49f1 8b3e b45f f1bc 6e18 f73d 2cd4 49be
000002d0: d087 ea3c 6b08 003e 4976 87be 41ae 99be
000002e0: 417e 893d 6684 f3bc 5217 843e 44c7 9f3d
000002f0: f2a0 103e 016f d1bd b05c 0dbc 8ce9 32bd
00000300: 87d2 98bd 6603 ffbd f072 fd3a bedf 423b
00000310: d0b3 36bd 20cb 44be 6056 89be 548a f6bd
00000320: 7072 5cbd 07c7 81bc 437d c5bd e930 a5bd
00000330: 557d 92bd 37f3 2e3e 108a 1ebe 34cf 093e
00000340: fb7b 81bd 8f3d d2bd e0cd c0bc 6503 48bd
00000350: 00c0 f4bc be8f 34be 4525 283b 1d8b 563e
00000360: 672e 9cbd 0f42 3c3e 2177 133e 3e1b 523d
00000370: d49f 7abd b832 223c d53f 0abd 7d61 e5bc
00000380: c9b3 12bc c484 81bb d0a9 89bb 0f0c 17bd
00000390: d5a9 e5bc 4aa2 e2bc aacd aebd 6a8c 043e
000003a0: becd a1bc 61f6 53bb f80b 463d 2a55 ba3d
000003b0: 9fb3 31bd a4e0 b13d f830 fa3d ca26 60bd
000003c0: 2f4a a8be a7fe 153e 496f 24be 3c0c 443e
000003d0: 0a16 09be 1eb2 efbd 88d6 843c 5c05 903d
000003e0: 4929 65bd 176c f0bc 530c 023e e583 893d
000003f0: 42bb 21bd f8d1 b03c cdfb 4b3c 7ff8 73be

net.2.bias f4 [32]
-0.05877139 0.011718205 -0.023127956 -0.14891657 0.08096151 0.39990625 -0.22515811 0.0011281312
0.048874356 -0.060113553 -0.033421814 0.032086726 0.017759342 0.4012695 0.17971322 -0.000121225705
0.048634227 0.18715124 0.03551714 0.02217935 0.01438143 0.0038454547 -0.057597812 -0.005642322
0.07267331 0.048141047 -0.021252614 0.023068946 0.030906554 0.028910879 0.016359773 0.040552262
00000000: 45ba 70bd b7fd 3f3c d776 bdbc 967d 18be
00000010: 26cf a53d 83c0 cc3e d98f 66be cddd 933a
00000020: 7a30 483d a139 76bd 50e5 08bd 5f6d 033d
00000030: 0a7c 913c 3273 cd3e be06 383e 8e3a feb8
00000040: af34 473d 93a4 3f3e 6c7a 113d 78b1 b53c
00000050: 17a0 6b3c 0604 7c3b afeb 6bbd 3ae3 b8bb
00000060: bfd5 943d 8c2f 453d f619 aebc 16fb bc3c
00000070: be2f fd3c 82d6 ec3c ee04 863c 211a 263d

net.4.weight f4 [32, 32]
-0.056868285 -0.20451243 -0.17730956 0.25440484 -0.10296315 -0.24895653 0.38694125 0.2960906
-0.23300754 -0.09938435 -0.07918125 0.16796672 0.41187906 -0.11957746 -0.017812382 0.24210292
-0.1219884 0.19436271 0.26342613 0.04535819 0.24205762 0.23735876 0.14596976 0.06872455
0.10454945 -0.22248249 0.024951348 0.30298588 -0.15728132 0.026642404 0.4019818 -0.22328696
0.13934925 -0.14691663 -0.28029808 -0.24643269 0.10834057 -0.2954881 -0.22561821 0.11977023
-0.06454717 0.17227829 -0.06850005 0.066935405 -0.24100456 -0.16717881 0.1961086 0.20333989
0.07464038 -0.29515228 -0.2888476 0.13397458 0.14910959 -0.09717679 0.068357155 -0.08959946
0.21018697 -0.24731548 -0.10808166 -0.15847142 0.046669345 -0.16640076 -0.29361412 -0.1934896
0.1768767 -0.14404336 0.22737366 -0.102401905 -0.14093314 0.27215526 0.15387128 0.23350868
-0.23091972 -0.04237114 -0.21867925 0.057919066 -0.30059534 0.13346034 -0.28402936 -0.16341574
0.09429483 0.2576476 -0.09889878 0.11595924 0.29151073 -0.15605253 -0.18401515 0.068570115
0.22882357 0.055584453 -0.07792647 0.4429367 0.34178492 0.18114083 0.123218544 -0.014016577
-0.3873674 -0.21779846 0.100184835 0.13481379 0.40037188 0.19289139 0.20498662 0.20329636
0.08017028 -0.38100153 -0.18567902 0.3394722 -0.28282118 0.07191636 0.33933574 -0.34260556
0.26228258 -0.33984146 -0.023962399 -0.2374053 0.11918988 -0.16054411 -0.073954076 -0.12873156
0.0930409 0.19968078 -0.18790576 -0.44239146 -0.31484255 -0.2084767 -0.2957442 0.11244665
-0.25565594 0.12623337 0.21852046 0.18275869 0.14557534 -0.26393417 0.20426469 0.053461336
-0.08452512 -0.2900053 0.23625386 -0.09098827 -0.11080312 0.08054806 -0.15458034 -0.0513635
-0.010127541 -0.2977146 -0.22912267 0.1816327 -0.13414274 -0.20068836 0.028306983 0.2672482
-0.28012523 -0.18415451 -0.17172678 0.111716844 0.24579091 -0.21641058 -0.086529225 0.049915295
0.32322595 0.055081293 -0.3112239 0.10774335 -0.19803217 -0.06629017 0.1418146 -0.18568599
-0.15896262 -0.27173978 0.1614783 -0.10900213 0.06880594 0.2099808 0.15109892 0.07840897
0.17748028 -0.25184137 0.34271398 0.21439633 0.21793479 -0.13299783 0.26449552 -0.05142776
0.20075308 0.15130545 0.08165755 0.21982512 0.022946168 -0.10274761 -0.018970398 0.27041996
0.03728828 -0.08060273 0.0017760572 0.040756702 0.13558173 0.19053364 -0.41870716 -0.07064172
-0.40090057 -0.09068447 -0.34011367 0.23705222 0.009260341 0.032938246 0.19069499 0.07901736
0.12110798 0.31689975 0.34095028 -0.34620634 0.2980374 0.19301625 0.057979766 -0.02976488
-0.07871668 -0.24950373 -0.3551341 0.07310693 0.24870218 0.12596093 -0.22647095 0.13113108
0.15267184 0.5278035 -0.041963745 0.070391916 0.31948423 0.082389385 0.14835493 0.2915766
0.15432562 -0.23307265 0.10199881 0.30982938 0.13421042 0.09350195 0.17441428 -0.2662344
0.11919357 -0.27498692 -0.030325122 0.15000929 -0.31528553 -0.3048089 0.12725617 -0.198619
-0.17040086 0.10692034 0.29356074 -0.0075442153 0.18399306 -0.3619714 -0.3257468 0.09868068
00000000: b8ee 68bd b56b 51be a390 35be 5a41 823e
00000010: 58de d2bd 76ee 7ebe 2a1d c63e 3099 973e
00000020: 8799 6ebe 068a cbbd c729 a2bd 78ff 2b3e
00000030: d0e1 d23e 07e5 f4bd 46eb 91bc d4e9 773e
00000040: 0ed5 f9bd 0507 473e cadf 863e 82c9 393d
00000050: f4dd 773e 2d0e 733e 1979 153e 75bf 8c3d
00000060: 061e d63d 73d2 63be c566 cc3c f720 9b3e
00000070: 5b0e 21be 2c41 da3c 8fd0 cd3e 56a5 64be
00000080: 92b1 0e3e 5071 16be 3b83 8fbe da58 7cbe
00000090: a9e1 dd3d 374a 97be 7608 67be 184a f53d
000000a0: 4f31 84bd b869 303e c149 8cbd 6e15 893d
000000b0: e6c9 76be ec30 2bbe b1d0 483e 5538 503e
000000c0: 0edd 983d 331e 97be d5e3 93be a230 093e
000000d0: 2fb0 183e a004 c7bd d6fe 8b3d ec7f b7bd
000000e0: 413b 573e 4540 7dbe eb59 ddbd 5546 22be
000000f0: 5b28 3f3d f664 2abe 9754 96be 2322 46be
00000100: 2a1f 353e 1a80 13be a4d4 683e 17b8 d1bd
00000110: c750 10be ef57 8b3e 6f90 1d3e e61c 6f3e
00000120: 3876 6cbe 5c8d 2dbd 74ed 5fbe 8b3c 6d3d
00000130: a2e7 99be d4a9 083e 4c6c 91be 7556 27be
00000140: a61d c13d 63ea 833e 728b cabd 0a7c ed3d
00000150: e540 953e 3ccc 1fbe 786e 3cbe 7d6e 8c3d
00000160: ba50 6a3e 86ac 633d ea97 9fbd 99c8 e23e
00000170: 6ffe ae3e fb7c 393e 015a fc3d c9a5 65bc
00000180: 0555 c6be 8f06 5fbe b52d cd3d a00c 0a3e
00000190: 8bfd cc3e 5285 453e 03e8 513e ec2c 503e
000001a0: 5130 a43d a212 c3be a422 3ebe 4dcf ad3e
000001b0: f0cd 90be e248 933d 6abd ad3e ff69 afbe
000001c0: e749 863e b3ff adbe cb4c c4bc 601a 73be
000001d0: d319 f43d ad65 24be 3c75 97bd 35d2 03be
000001e0: 3a8c be3d 1e79 4c3e 5e6a 40be 2281 e2be
000001f0: 0b33 a1be eb7a 55be c96b 97be 6e4a e63d
00000200: 56e5 82be 5243 013e d4c3 5f3e 1825 3b3e
00000210: b411 153e 6122 87be c32a 513e 46fa 5a3d
00000220: 821b adbd 937b 94be 88ec 713e 0f58 babd
00000230: bfec e2bd 62f6 a43d 4f4a 1ebe 8962 52bd
00000240: fced 25bc 0c6e 98be 229f 6abe ecfd 393e
00000250: b75c 09be 4081 4dbe 0ce4 e73c c2d4 883e
00000260: 936c 8fbe 0093 3cbe 25d9 2fbe cdcb e43d
00000270: 9db0 7b3e bc9a 5dbe 3c36 b1bd fb73 4c3d
00000280: df7d a53e ec9c 613d bd58 9fbe 8ca8 dc3d
00000290: f2c8 4abe 24c3 87bd d937 113e 7824 3ebe
000002a0: 19c7 22be 7a21 8bbe 915a 253e 823c dfbd
000002b0: 21ea 8c3d 3505 573e adb9 1a3e e294 a03d
000002c0: 64bd 353e 5af1 80be 3578 af3e b68a 5b3e
000002d0: 4c2a 5f3e 9530 08be f56b 873e eaa5 52bd
000002e0: 3792 4d3e d1ef 1a3e 133c a73d d619 613e
000002f0: 9af9 bb3c 576d d2bd cf67 9bbc 7c74 8a3e
00000300: 98bb 183d 0b13 a5bd 97ca e83a 80f0 263d
00000310: f0d5 0a3e 401b 433e c960 d6be 9bac 90bd
00000320: d742 cdbe c8b8 b9bd 6123 aebe d1bd 723e
00000330: afb8 173c 41ea 063d 8c45 433e dbd3 a13d
00000340: 7607 f83d af40 a23e 0991 ae3e f541 b1be
00000350: 5c98 983e 0da6 453e 317c 6d3d 7ad5 f3bc
00000360: 3636 a1bd e87d 7fbe 23d4 b5be 16b9 953d
00000370: c9ab 7e3e e7fb 003e 00e8 67be 3a47 063e
00000380: 0256 1c3e 211e 073f 2de2 2bbd a329 903d
00000390: 7093 a33e c4bb a83d 5bea 173e 8749 953e
000003a0: 8907 1e3e 99aa 6ebe c1e4 d03d f5a1 9e3e
000003b0: 756e 093e f37d bf3d a899 323e e04f 88be
000003c0: c21b f43d 16cb 8cbe 646c f8bc 099c 193e
000003d0: 1b6d a1be ea0f 9cbe 714f 023e c762 4bbe
000003e0: 907d 2ebe 0df9 da3d 984d 963e 7735 f7bb
000003f0: ad68 3c3e 5154 b9be 49c8 a6be 1919 ca3d

net.4.bias f4 [32]
-0.012639424 -0.018815503 0.02146902 0.082676955 -0.013817542 0.013738932 0.0061321296 -0.04207389
-0.123588935 0.05176076 -0.0022125784 0.019805431 -0.21664245 -0.0006237137 0.026004909 0.022704838
-0.24336226 -0.0048597674 0.014127863 0.1290507 0.07224057 0.069985285 0.000612163 0.03936919
0.02770405 -0.048427656 0.055652272 0.01743743 -0.21594729 -0.010642887 -0.020645497 -0.13556562
00000000: 9615 4fbc f822 9abc ccdf af3c 8952 a93d
00000010: f962 62bc 4219 613c 08f0 c83b ac55 2cbd
00000020: 321c fdbd 1703 543d e800 11bb 003f a23c
00000030: 85d7 5dbe b880 23ba 3f08 d53c 7fff b93c
00000040: f533 79be af3e 9fbb 8d78 673c de25 043e
00000050: ddf2 933d 7254 8f3d 9079 203a 9641 213d
00000060: 9bf3 e23c 145c 46bd a3f3 633d f1d8 8e3c
00000070: 4921 5dbe 815f 2ebc bf20 a9bc b7d1 0abe

net.6.weight f4 [1, 32]
-0.22050786 0.124023564 0.425002 -0.80770075 0.38391036 0.09944175 0.93642193 -0.40115783
-0.2776629 -0.016557887 0.43339503 -0.042653464 0.49456546 0.04454627 -0.3181073 0.6290675
0.3913991 0.51809967 -0.10435679 0.2553991 0.7670721 -0.46741292 -0.320146 -0.49660122
-0.5897219 0.45830992 0.04979388 0.34581912 -0.6310632 0.4208768 0.29501787 -0.18219587
00000000: d0cc 61be 1100 fe3d dd99 d93e 7ac5 4ebf
00000010: e68f c43e 1ea8 cb3d 59b9 6f3f 8f64 cdbe
00000020: d529 8ebe 68a4 87bc f4e5 dd3e 66b5 2ebd
00000030: af37 fd3e 2676 363d f6de a2be 910a 213f
00000040: 7665 c83e 2ea2 043f 03b9 d5bd acc3 823e
00000050: d65e 443f bf50 efbe 2dea a3be 8442 febe
00000060: 04f8 16bf 99a7 ea3e abf4 4b3d 340f b13e
00000070: 5c8d 21bf 2a7d d73e 950c 973e 8e91 3abe

exp_avg f4 [256, 120]
1.9170789e-06 7.6076863e-06 8.227518e-06 4.9336695e-06 4.6664463e-06 1.0552847e-05 1.0869622e-05 2.243067e-06
-1.181677e-05 1.8276819e-06 -1.2232835e-05 8.050138e-06 -3.8573194e-06 -1.503811e-05 -3.0918585e-05 -2.9993254e-05
-3.1658725e-05 -1.5638796e-05 -4.3376116e-05 1.1570152e-05 -1.11547415e-05 -2.16543e-05 8.3308134e-07 -1.1259163e-05
-2.1119271e-05 6.382212e-07 -8.042949e-06 -1.5963396e-05 -2.0198988e-05 -1.1135984e-05 -1.791617e-05 -9.431277e-06
-1.1827327e-05 -1.8506656e-05 -2.9787385e-05 1.4222229e-05 -2.0185122e-05 -2.4270292e-05 -8.667331e-06 -2.953172e-05
-1.9747853e-05 -2.0697287e-05 -1.49788175e-05 -1.9243054e-05 7.4993277e-06 1.003053e-05 -8.523455e-06 6.0874404e-06
1.5929614e-05 1.0681344e-05 2.8579548e-06 1.5424988e-05 6.6604825e-06 9.091308e-06 6.810247e-06 1.1522653e-05
7.5357516e-06 9.411953e-06 1.0529142e-05 8.38307e-06 5.9046592e-06 8.269963e-06 5.377258e-06 5.5561322e-06
6.7755414e-06 7.939227e-06 8.271906e-06 2.5967415e-06 5.731002e-06 4.166444e-06 5.6838326e-06 5.640548e-06
5.4272487e-06 4.6557334e-06 7.197181e-06 4.7124136e-06 5.4290867e-06 6.0029693e-06 5.2143446e-06 4.8280244e-06
5.068797e-06 5.3674967e-06 5.4145007e-06 5.9447866e-06 5.502007e-06 5.7068364e-06 6.3747043e-06 6.050595e-06
5.4157017e-06 5.4559537e-06 5.1008033e-06 5.258839e-06 5.376497e-06 5.0645936e-06 6.494028e-06 5.6166064e-06
5.7134775e-06 4.8779048e-06 6.971105e-06 5.316461e-06 4.9745704e-06 6.922175e-06 5.072657e-06 5.192316e-06
6.3481057e-06 4.4265366e-06 4.7249214e-06 5.7605494e-06 7.302908e-06 6.2201366e-06 8.472653e-06 5.8071782e-06
3.8045011e-06 5.9717354e-06 5.6976755e-06 5.94814e-06 1.0010734e-05 1.9296956e-06 2.9998057e-06 6.6988514e-06
-1.1461162e-06 1.6960617e-05 1.6744798e-05 7.3195843e-06 2.3920138e-05 1.1148072e-05 -1.1028654e-06 -2.166176e-06
2.9677487e-05 4.0925443e-06 -2.0767511e-05 1.5760717e-05 3.08746e-06 -6.486431e-05 -1.9340792e-05 -3.3303128e-05
-7.9111676e-05 -5.5878983e-05 -6.572527e-05 -1.6393422e-05 -1.7754126e-05 -1.0382306e-05 3.7384368e-06 -4.9775197e-05
-9.396826e-06 -1.256912e-05 -3.2995096e-05 -3.2506476e-05 -1.595689e-05 -2.7358356e-06 -5.0831655e-05 -1.8819228e-05
-6.050606e-05 -1.7802671e-05 -5.7625195e-05 -2.6563057e-05 -6.8289235e-05 -3.1323892e-05 3.5175651e-06 -2.4310137e-05
-6.763869e-05 -3.930172e-05 -2.4455598e-05 -7.3542246e-06 2.4777832e-05 7.550513e-07 -1.3967544e-05 -3.2177148e-05
3.3852804e-05 2.1258653e-05 1.51296545e-05 5.363074e-06 3.5875553e-06 1.3417266e-05 3.020172e-06 1.2378401e-05
1.8520768e-05 1.1382244e-05 3.0225463e-05 1.7121947e-05 1.3294816e-05 7.1502163e-06 8.518419e-06 1.7058515e-05
1.4995247e-05 1.6985223e-05 1.7006696e-05 8.431821e-06 1.1470089e-05 1.1816232e-05 3.9974298e-06 1.3417584e-05
1.1586738e-05 1.3141824e-05 1.32597315e-05 1.1688344e-05 1.2272327e-05 1.3172484e-05 1.1649915e-05 1.1259212e-05
1.1827607e-05 1.2506752e-05 1.2468889e-05 1.1197533e-05 1.1739473e-05 1.4333235e-05 1.3509793e-05 1.2381996e-05
1.2082223e-05 1.2502021e-05 1.1872938e-05 1.2189659e-05 1.2273594e-05 1.1860246e-05 1.2655365e-05 1.2485952e-05
8.653779e-06 8.724779e-06 1.0307464e-05 1.222744e-05 1.0978464e-05 1.5452464e-05 1.312847e-05 1.3167573e-05
7.0383185e-06 1.5251024e-05 1.4446132e-05 1.23499085e-05 1.3415586e-05 1.6220449e-05 1.7288223e-05 7.709711e-06
9.89326e-06 1.8425646e-05 1.190145e-05 1.3218592e-05 1.7832102e-05 5.0684707e-06 4.9278174e-06 2.0392126e-05
9.442176e-06 3.6670358e-06 3.065313e-06 -6.137054e-07 6.1261426e-06 -7.945575e-06 1.0778834e-05 -4.8154343e-06
-1.5596597e-06 8.446338e-06 -9.313296e-06 3.462951e-06 -7.430691e-06 -1.1630301e-05 1.721392e-05 -1.2750651e-05
00000000: 2aa7 0036 8745 ff36 ec08 0a37 e68b a536
00000010: 7894 9c36 220c 3137 ac5c 3637 9987 1636
00000020: a440 46b7 ac4e f535 a03b 4db7 140f 0737
00000030: 1f6e 81b6 314c 7cb7 94ae 01b8 069a fbb7
00000040: 4cc9 04b8 0f30 83b7 c0ee 35b8 6d1d 4237
00000050: 4025 3bb7 41a6 b5b7 eaa0 5f35 bde5 3cb7
00000060: 4a29 b1b7 3a52 2b35 34f0 06b7 22e9 85b7
00000070: ff70 a9b7 b0d4 3ab7 af4a 96b7 073b 1eb7
00000080: fc6d 46b7 be3e 9bb7 ecdf f9b7 029c 6e37
00000090: 3853 a9b7 0e98 cbb7 e769 11b7 e3ba f7b7
000000a0: 31a8 a5b7 169f adb7 884d 7bb7 256c a1b7
000000b0: bca2 fb36 cc48 2837 f6ff 0eb7 b742 cc36
000000c0: 96a0 8537 0634 3337 4acb 3f36 e964 8137
000000d0: 1c7d df36 df86 1837 9483 e436 6b51 4137
000000e0: 9ddb fc36 08e8 1d37 52a6 3037 03a5 0c37
000000f0: a320 c636 38bf 0a37 4b6e b436 d06e ba36
00000100: 7559 e336 b832 0537 91c7 0a37 ae43 2e36
00000110: ef4c c036 7bcd 8b36 c0b7 be36 f043 bd36
00000120: b61b b636 7238 9c36 507f f136 531f 9e36
00000130: 802b b636 1d6d c936 e1f6 ae36 6a00 a236
00000140: a214 aa36 721a b436 35ae b536 5479 c736
00000150: e19d b836 5a7d bf36 4be6 d536 3706 cb36
00000160: 86b8 b536 4912 b736 9127 ab36 1575 b036
00000170: c267 b436 87f0 a936 47e7 d936 4876 bc36
00000180: 66b6 bf36 e2ac a336 56e9 e936 0d64 b236
00000190: 3ceb a636 0845 e836 cb35 aa36 a839 ae36
000001a0: d001 d536 a987 9436 c48a 9e36 be4a c136
000001b0: 810b f536 91b6 d036 c425 0e37 48db c236
000001c0: d550 7f36 d160 c836 a92e bf36 2296 c736
000001d0: c6f3 2737 eb7f 0136 4550 4936 b2c6 e036
000001e0: 41d4 99b5 a646 8e37 2e77 8c37 c09a f536
000001f0: 1ba8 c837 9b08 3b37 2b06 94b5 9f5e 11b6
00000200: ebf3 f837 b052 8936 e435 aeb7 e235 8437
00000210: 2932 4f36 c307 88b8 093e a2b7 f6ae 0bb8
00000220: c2e8 a5b8 9a5f 6ab8 fcd5 89b8 9b84 89b7
00000230: b2ee 94b7 aa2f 2eb7 dbe1 7a36 b6c5 50b8
00000240: 0fa7 1db7 f6df 52b7 3764 0ab8 9057 08b8
00000250: 29db 85b7 4c99 37b6 1334 55b8 fcdd 9db7
00000260: e3c7 7db8 f256 95b7 95b2 71b8 bbd3 deb7
00000270: 8136 8fb8 c661 03b8 4f0f 6c36 9fed cbb7
00000280: 3fd9 8db8 e7d7 24b8 ff25 cdb7 4fc4 f6b6
00000290: fdd9 cf37 bbae 4a35 2556 6ab7 f3f5 06b8
000002a0: 2cfd 0d38 9c54 b237 5fd5 7d37 74f4 b336
000002b0: bbc1 7036 b81a 6137 29ae 4a36 d4ac 4f37
000002c0: 0c5d 9b37 5ef6 3e37 b08c fd37 1aa1 8f37
000002d0: cd0c 5f37 e4eb ef36 55ea 0e37 e218 8f37
000002e0: 1894 7b37 7d7b 8e37 9aa9 8e37 6576 0d37
000002f0: a86f 4037 543e 4637 a921 8636 161c 6137
00000300: a964 4237 b47b 5c37 1d76 5e37 0e19 4437
00000310: 3ee5 4d37 63ff 5c37 0174 4337 f3e5 3c37
00000320: 2f6f 4637 17d4 5137 7831 5137 0add 3b37
00000330: a7f4 4437 c778 7037 1ea8 6237 45bc 4f37
00000340: c1b4 4a37 c5bf 5137 e131 4737 3082 4c37
00000350: afea 4d37 5efb 4637 6152 5437 c17a 5137
00000360: b32f 1137 a460 1237 39ee 2c37 7424 4d37
00000370: 2530 3837 ea9f 8137 5942 5c37 4cea 5c37
00000380: b22a ec36 a6de 7f37 aa5d 7237 7432 4f37
00000390: 8113 6137 2611 8837 2d06 9137 f558 0137
000003a0: 3afb 2537 c690 9a37 57ac 4737 6cc5 5d37
000003b0: 2696 9537 d511 aa36 a159 a536 c20f ab37
000003c0: d669 1e37 3217 7636 adb5 4d36 84bd 24b5
000003d0: 2a8f cd36 fc4d 05b7 bdd6 3437 4494 a1b6
000003e0: 8055 d1b5 bfb4 0d37 4d40 1cb7 0c65 6836
000003f0: 2655 f9b6 c31f 43b7 9d66 9037 a1eb 55b7

exp_avg_sq f4 [256, 120]
1.7693793e-08 1.8164561e-08 1.816468e-08 1.7999017e-08 1.7400161e-08 1.7510516e-08 1.7766181e-08 1.6307759e-08
1.4329814e-08 1.0802157e-08 1.2720422e-08 1.6201906e-08 2.597034e-08 1.9897104e-08 5.1738574e-08 3.5920774e-08
2.7960778e-07 1.2931761e-07 1.7711942e-07 6.380952e-08 1.1967627e-07 2.2554248e-07 1.8812608e-07 1.8009003e-07
1.4824467e-07 2.7413006e-07 3.9601653e-07 2.979914e-07 2.52934e-07 3.5163174e-07 1.5832343e-07 1.508132e-07
1.4817606e-07 1.942136e-07 1.5995201e-07 1.3585594e-07 7.179782e-08 2.1815531e-07 1.2933097e-07 2.8671977e-07
3.025041e-08 9.723708e-08 5.5146753e-08 2.1854522e-08 1.4717101e-08 1.0883803e-08 1.2365024e-08 9.785508e-09
1.5442716e-08 1.6845021e-08 1.7180508e-08 1.6838037e-08 1.794105e-08 1.799177e-08 1.8030454e-08 1.7316111e-08
1.8116442e-08 1.8094882e-08 1.79074e-08 1.8133006e-08 1.8277133e-08 1.8179144e-08 1.8251523e-08 1.8272207e-08
1.8336499e-08 1.8280502e-08 1.8320755e-08 1.8241387e-08 1.8207883e-08 1.8212797e-08 1.818816e-08 1.8255998e-08
1.823899e-08 1.8213768e-08 1.8234012e-08 1.8247722e-08 1.8262918e-08 1.8271601e-08 1.8271672e-08 1.8263794e-08
1.8260128e-08 1.8265398e-08 1.8258717e-08 1.8276527e-08 1.8262599e-08 1.8245833e-08 1.8233726e-08 1.8277134e-08
1.8257992e-08 1.8261646e-08 1.8263323e-08 1.8262021e-08 1.8248581e-08 1.8256708e-08 1.8248906e-08 1.8258637e-08
1.8283997e-08 1.8236177e-08 1.8215742e-08 1.8265073e-08 1.8254278e-08 1.8308869e-08 1.8241057e-08 1.8325359e-08
1.8270654e-08 1.8230839e-08 1.8240902e-08 1.821918e-08 1.8262392e-08 1.8328395e-08 1.8303604e-08 1.8232942e-08
1.813779e-08 1.8220536e-08 1.8229462e-08 1.8211017e-08 1.8212035e-08 1.7991171e-08 1.8085071e-08 1.8023512e-08
1.0792442e-07 1.1627193e-07 1.1497279e-07 1.14343905e-07 1.0892725e-07 1.0976086e-07 1.0603545e-07 8.755611e-08
7.9340516e-08 5.570922e-08 7.040022e-08 9.0733856e-08 1.3948173e-07 2.0472847e-07 3.484491e-07 2.0509482e-07
1.7524661e-06 8.367434e-07 1.0728477e-06 4.5480616e-07 7.290595e-07 1.2243823e-06 1.1373991e-06 1.1898005e-06
9.3773764e-07 1.4969385e-06 2.3351747e-06 1.7761834e-06 1.7305157e-06 2.1849014e-06 1.3321772e-06 7.0522935e-07
1.0083169e-06 1.1947725e-06 1.1179426e-06 6.5331506e-07 4.7748114e-07 1.269914e-06 7.8100334e-07 1.6780485e-06
1.9387278e-07 4.3815834e-07 3.1101766e-07 1.3736202e-07 8.787874e-08 6.197081e-08 6.546755e-08 1.0154683e-07
8.6349694e-08 1.0587116e-07 1.0704833e-07 1.0310585e-07 1.1326593e-07 1.1375626e-07 1.1420194e-07 1.0652825e-07
1.1490557e-07 1.1460774e-07 1.1325158e-07 1.14749874e-07 1.1766188e-07 1.176332e-07 1.167228e-07 1.15889144e-07
1.1785548e-07 1.1739804e-07 1.17378534e-07 1.1790187e-07 1.1810493e-07 1.1745308e-07 1.16608895e-07 1.1779481e-07
1.17793164e-07 1.1778815e-07 1.17810984e-07 1.1781788e-07 1.1779456e-07 1.1804918e-07 1.1806893e-07 1.1782872e-07
1.1786827e-07 1.17806245e-07 1.1785509e-07 1.1788324e-07 1.1791742e-07 1.17967964e-07 1.1776576e-07 1.1796297e-07
1.1785664e-07 1.1781004e-07 1.1786521e-07 1.17945255e-07 1.1781494e-07 1.1789787e-07 1.1785794e-07 1.17920216e-07
1.1785863e-07 1.1774817e-07 1.1787498e-07 1.1779538e-07 1.17836436e-07 1.17779194e-07 1.17687e-07 1.1773312e-07
1.176645e-07 1.1758014e-07 1.17587575e-07 1.1783243e-07 1.18072734e-07 1.1691935e-07 1.17535514e-07 1.1690854e-07
1.15128984e-07 1.1727922e-07 1.1537805e-07 1.17413464e-07 1.1626766e-07 1.12962375e-07 1.14718716e-07 1.1404823e-07
4.5316115e-09 4.423953e-09 4.4149293e-09 4.2517407e-09 5.2621054e-09 5.1146087e-09 5.2459477e-09 8.558743e-09
1.3757061e-08 8.880567e-09 7.122479e-09 4.9210995e-09 1.4020802e-08 1.6925782e-08 7.539962e-08 4.5213298e-08
00000000: 10fd 9732 4b08 9c32 8e08 9c32 429c 9a32
00000010: 5c77 9532 086a 9632 3f9c 9832 2415 8c32
00000020: 302f 7632 6494 3932 0289 5a32 5e2c 8b32
00000030: 6215 df32 32ea aa32 2a37 5e33 4f47 1a33
00000040: 001d 9634 8eda 0a34 372e 3e34 a807 8933
00000050: 5d80 0034 a52c 7234 b4ff 4934 c55e 4134
00000060: 2f2d 1f34 262c 9334 199c d434 a0fb 9f34
00000070: fcca 8734 e6c7 bc34 9dff 2934 37ef 2134
00000080: 531a 1f34 0789 5034 46bf 2b34 ccdf 1134
00000090: 452f 9a33 133e 6a34 3ade 0a34 77ee 9934
000000a0: adec 0133 a6d0 d033 7fda 6c33 9aba bb32
000000b0: 7fd6 7c32 79fb 3a32 f36d 5432 1f1d 2832
000000c0: e4a6 8432 98b2 9032 5694 9332 3ca3 9032
000000d0: c91c 9a32 528c 9a32 63e1 9a32 88be 9432
000000e0: 7a9e 9b32 116f 9b32 cad2 9932 e7c2 9b32
000000f0: d7ff 9c32 5c28 9c32 86c7 9c32 02f5 9c32
00000100: 6382 9d32 4007 9d32 c45f 9d32 3cb1 9c32
00000110: 8f67 9c32 5d72 9c32 303c 9c32 5dd1 9c32
00000120: f7ab 9c32 8074 9c32 04a1 9c32 2abf 9c32
00000130: 95e0 9c32 adf3 9c32 d5f3 9c32 82e2 9c32
00000140: 72da 9c32 09e6 9c32 58d7 9c32 82fe 9c32
00000150: e1df 9c32 03bb 9c32 63a0 9c32 d8ff 9c32
00000160: c0d5 9c32 c9dd 9c32 79e1 9c32 9cde 9c32
00000170: 0ec1 9c32 edd2 9c32 c5c1 9c32 2bd7 9c32
00000180: ef0e 9d32 c7a5 9c32 d778 9c32 52e5 9c32
00000190: 95cd 9c32 a145 9d32 82b0 9c32 e469 9d32
000001a0: 98f1 9c32 0a9a 9c32 2bb0 9c32 6780 9c32
000001b0: 6ddf 9c32 9170 9d32 0d3a 9d32 aa9e 9c32
000001c0: 6ccd 9b32 6283 9c32 0397 9c32 736e 9c32
000001d0: b070 9c32 018b 9a32 7e59 9b32 1fd2 9a32
000001e0: 14c4 e733 2bb1 f933 f6e6 f633 3a8d f533
000001f0: 64eb e933 acb5 eb33 9bb5 e333 7b06 bc33
00000200: e961 aa33 ef44 6f33 ee2e 9733 77d9 c233
00000210: 72c4 1534 55d3 5b34 7b12 bb34 0938 5c34
00000220: 4736 eb35 929c 6035 c4fe 8f35 152c f434
00000230: 96b4 4335 7555 a435 bca8 9835 3cb1 9f35
00000240: d7b8 7b35 6aea c835 ffb5 1c36 3265 ee35
00000250: 1144 e835 52a0 1236 43cd b235 fe4e 3d35
00000260: 8155 8735 125c a035 370c 9635 785f 2f35
00000270: 412c 0035 ea71 aa35 24a6 5135 4f39 e135
00000280: 582b 5034 063c eb34 f1f9 a634 c97d 1334
00000290: d9b7 bc33 d014 8533 2b97 8c33 f611 da33
000002a0: 3f6f b933 495b e333 71e2 e533 0a6b dd33
000002b0: 9b3c f333 2a4a f433 2e3f f533 86c4 e433
000002c0: 01c2 f633 451e f633 b734 f333 696c f633
000002d0: 4dad fc33 899d fc33 0aa9 fa33 bbde f833
000002e0: bc17 fd33 411c fc33 8811 fc33 3d31 fd33
000002f0: dfa0 fd33 833a fc33 6b6a fa33 62f6 fc33
00000300: 7af5 fc33 b8f2 fc33 46ff fc33 1103 fd33
00000310: 3ff6 fc33 3982 fd33 158d fd33 0609 fd33
00000320: c41e fd33 abfc fc33 8517 fd33 ff26 fd33
00000330: ca39 fd33 9355 fd33 69e6 fc33 d452 fd33
00000340: 5f18 fd33 c1fe fc33 161d fd33 1749 fd33
00000350: 7301 fd33 0a2f fd33 1619 fd33 533b fd33
00000360: 7819 fd33 bedc fc33 7522 fd33 b2f6 fc33
00000370: 440d fd33 cced fc33 1dbb fc33 78d4 fc33
00000380: beae fc33 5e80 fc33 7484 fc33 100b fd33
00000390: 2c8f fd33 1815 fb33 d567 fc33 260f fb33
000003a0: d43c f733 efda fb33 c1c5 f733 bc24 fc33
000003b0: d2ae f933 b995 f233 485b f633 adea f433
000003c0: 7ab4 9b31 8101 9831 21b2 9731 b516 9231
000003d0: f8cd b431 93bc af31 d83f b431 c009 1332
000003e0: 3258 6c32 2691 1832 fdb9 f431 7316 a931
000003f0: 24e0 7032 3064 9132 61eb a133 8c30 4233

slow_buffer f4 [256, 120]
-0.107684344 -0.11348517 -0.014423174 -0.096689925 -0.048747763 0.07473147 -0.051147148 -0.26801527
0.04299406 0.023121987 0.04794771 -0.16848823 0.010186441 0.039354265 -0.07558574 -0.05960937
-0.004188427 0.067760676 -0.04978971 -0.10275448 -0.047012687 0.027212963 0.03595963 0.06660919
-0.062987335 0.08120117 -0.04911968 0.014125086 0.0003369233 0.08482301 -0.061934866 0.13928273
-0.027239384 0.08975138 0.07755554 0.1606432 -0.045468964 0.01410629 0.013679825 0.05046938
0.021047685 0.021371663 0.037573714 -0.091603756 -0.09769066 -0.030702697 -0.12801778 -0.25412083
0.026301675 -0.052261297 -0.101602145 0.0032804655 0.022066712 0.062436644 -0.0149594955 -0.058731504
-0.162074 0.049008973 -0.032116644 -0.010078805 -0.08594895 -0.022950463 -0.0001732104 -0.08881126
0.050561987 -0.02827632 0.025794823 -0.012591192 -0.04152894 0.00038346206 -0.02531416 -0.10820981
0.07983809 -0.026069153 -0.05926443 -0.0442485 0.0063599525 0.065374956 0.059370436 -0.026745342
-0.09916055 -0.08179779 -0.023052167 0.055380628 -0.05562885 0.057708595 0.105034314 0.11625321
0.06239078 0.063334 -0.050176904 -0.041460425 0.037402287 0.0761482 0.13963778 0.14685562
-0.09502387 0.011905272 0.14188522 -0.06391387 0.051668674 0.14741358 -0.056247175 -0.086304955
0.065353505 -0.067503855 -0.066441745 0.04313274 0.07970352 -0.08910571 0.119677946 0.027498115
-0.06697199 -0.084413245 0.11878722 -0.0900377 -0.06805956 0.006460783 -0.13988563 -0.092044644
-0.06355475 -0.037600514 -0.10750078 -0.10158241 -0.07363168 0.0377122 -0.0564667 -0.031646
-0.10227033 0.0598846 0.036003705 -0.12777494 -0.08535384 0.063300386 -0.13307884 -0.00479877
-0.057120457 0.0812711 -0.15180221 0.01423829 -0.012844725 0.03917067 -0.02809389 0.027865283
-0.0017017259 -0.08990206 0.022749765 -0.0317735 0.15756194 0.085977875 0.052286096 0.03823063
0.10916507 0.14962217 0.01719035 0.11263059 0.13377216 0.046106134 -0.052598633 -0.016093794
0.061428003 0.038646184 0.070957355 -0.0055380864 0.051595867 0.029868238 -0.07840084 0.09670217
-0.018626206 0.024374703 0.12858069 0.11472292 0.089135826 0.13310991 -0.038075626 0.12388393
0.020902863 0.026863955 -0.082131565 -0.061581798 -0.097345404 -0.002454937 -0.092168204 -0.06822237
-0.008434342 -0.114604525 0.050439477 -0.114317074 0.005003092 -0.082411975 -0.11182017 -0.1777714
-0.13152128 -0.010380417 -0.16807862 -0.11801898 -0.01897819 -0.062797375 -0.10341162 -0.07311615
-0.10650693 -0.1051874 -0.050783746 -0.120799825 -0.07791905 0.05133351 -0.07966258 -0.051860355
-0.12711817 -0.015982652 -0.030790674 -0.03045727 -0.10752469 0.014198241 0.04132175 0.06148141
-0.043934584 0.118764676 0.060298752 0.079219855 0.07429426 0.10710463 0.14350048 -0.09637456
-0.062058233 -0.05672726 -0.026451139 -0.083250694 -0.049007677 0.07863919 -0.017819602 -0.06644358
0.1177775 0.047178213 -0.045954637 0.095115736 0.14157596 -0.020077946 0.031506084 0.04901949
-0.04532121 0.05936713 0.1019223 0.0287196 0.027612317 -0.018808937 0.02383817 0.17094752
0.03412591 0.08619422 0.116814375 -0.07525304 0.0363323 -0.039221555 0.07167339 0.069647074
00000000: 9c89 dcbd ea6a e8bd 2d4f 6cbc 5e05 c6bd
00000010: bcab 47bd d00c 993d ac7f 51bd 4c39 89be
00000020: 8a1a 303d 526a bd3c d164 443d 2e88 2cbe
00000030: 08e5 263c f031 213d b2cc 9abd f428 74bd
00000040: 123f 89bb 1cc6 8a3d 4cf0 4bbd f170 d2bd
00000050: 6090 40bd b8ed de3c 684a 133d 666a 883d
00000060: 81ff 80bd cd4c a63d b831 49bd e86c 673c
00000070: 14a5 b039 b0b7 ad3d 6aaf 7dbd 22a0 0e3e
00000080: 2125 dfbc 92cf b73d 70d5 9e3d a77f 243e
00000090: aa3d 3abd 121e 673c 5821 603c fbb8 4e3d
000000a0: 326c ac3c a013 af3c e5e6 193d c09a bbbd
000000b0: 0a12 c8bd 3984 fbbc 1817 03be 201c 82be
000000c0: 9c76 d73c f10f 56bd c914 d0bd 14fd 563b
000000d0: 40c5 b43c 91bd 7f3d ac18 75bc 7290 70bd
000000e0: baf6 25be a2bd 483d be8c 03bd 9221 25bc
000000f0: 0106 b0bd 9c02 bcbc d09f 35b9 aee2 b5bd
00000100: 161a 4f3d bea3 e7bc aa4f d33c 494b 4ebc
00000110: 401a 2abd 680b c939 a45f cfbc 1b9d ddbd
00000120: 2782 a33d fa8e d5bc 42bf 72bd ea3d 35bd
00000130: 2667 d03b 4ee3 853d 6a2e 733d 0c19 dbbc
00000140: b014 cbbd 9a85 a7bd e6d7 bcbc ccd6 623d
00000150: 14db 63bd d95f 6c3d 3b1c d73d 2a16 ee3d
00000160: 798d 7f3d 42b5 813d 4c86 4dbd 68d2 29bd
00000170: 2433 193d 96f3 9b3d 35fd 0e3e 5261 163e
00000180: e09b c2bd 540e 433c 5c4a 113e 46e5 82bd
00000190: 88a2 533d 96f3 163e 7063 66bd a7c0 b0bd
000001a0: 0fd8 853d 763f 8abd 9c12 88bd f5ab 303d
000001b0: 993b a33d 0e7d b6bd b619 f53d ba43 e13c
000001c0: 9c28 89bd dae0 acbd b746 f33d b065 b8bd
000001d0: d062 8bbd fab4 d33b 2e3e 0fbe e781 bcbd
000001e0: fe28 82bd ff02 1abd 5e29 dcbd 700a d0bd
000001f0: 35cc 96bd 1c78 1a3d a049 67bd 3c9f 01bd
00000200: 1b73 d1bd 8e49 753d 9f78 133d 6fd7 02be
00000210: fecd aebd a2a3 813d d245 08be 003f 9dbb
00000220: 24f7 69bd 7671 a63d 0a72 1bbe b747 693c
00000230: ae72 52bc 6d71 203d 2825 e6bc bc45 e43c
00000240: 720c dfba 921e b8bd b75d ba3c ee24 02bd
00000250: eb57 213e 2b15 b03d f229 563d b997 1c3d
00000260: f091 df3d 8e36 193e c7d2 8c3c deaa e63d
00000270: 92fb 083e c9d9 3c3d aa71 57bd 22d7 83bc
00000280: ee9b 7b3d 764b 1e3d 1752 913d d678 b5bb
00000290: 3056 533d 3cae f43c 9f90 a0bd ca0b c63d
000002a0: fc95 98bc 75ad c73c a8aa 033e daf3 ea3d
000002b0: d88c b63d f74d 083e 30f5 1bbd dcb6 fd3d
000002c0: 7b3c ab3c cc11 dc3c 9834 a8bd 323d 7cbd
000002d0: 075d c7bd 02e3 20bb afc2 bcbd 2cb8 8bbd
000002e0: 3230 0abc c7b5 eabd a099 4e3d 121f eabd
000002f0: faf0 a33b 9cc7 a8bd f901 e5bd b509 36be
00000300: 84ad 06be a012 2abc cd1c 2cbe efb3 f1bd
00000310: 2678 9bbc e99b 80bd 79c9 d3bd ecbd 95bd
00000320: 4e20 dabd 7e6c d7bd 9e02 50bd e665 f7bd
00000330: 0694 9fbd 1643 523d 2226 a3bd 866b 54bd
00000340: 442b 02be 0dee 82bc b93c fcbc 8681 f9bc
00000350: e835 dcbd bd9f 683c ff40 293d eed3 7b3d
00000360: c0f4 33bd e53a f33d d3fb 763d 053e a23d
00000370: 9727 983d ac59 db3d caf1 123e 0660 c5bd
00000380: c630 7ebd d85a 68bd 0fb0 d8bc 577f aabd
00000390: 46bc 48bd 950d a13d 6afa 91bc 9213 88bd
000003a0: 5435 f13d f13d 413d ee3a 3cbd 0acc c23d
000003b0: 4af9 103e 817a a4bc 860c 013d a9c8 483d
000003c0: bca2 39bd f32a 733d a4bc d03d 5e45 eb3c
000003d0: 3a33 e23c 3315 9abc 4448 c33c de0c 2f3e
000003e0: 9cc7 0b3d 9886 b03d 603c ef3d 441e 9abd
000003f0: 2ed1 143d c8a6 20bd 80c9 923d 20a3 8e3d
