Training/PyTrainer/epoch=40.ckpt (torch, 654021 bytes, 28 tensors)

net.0.weight f4 [256, 120]
00000000: 1598 93bc 0f8d 0c3d 4f47 2d3d 81ce 823c
00000010: 9c41 a4bd 28cf 04bd ec88 ca3d 52ed a63c
00000020: c8a1 47bb 9b9a a73c a68b e3bc eb22 b33c
00000030: 650d b0bd 9cc7 2fbe 76ff 903d 841c 4a3d
00000040: e4fe 3c3c 8edf 04bd eaf3 c93d 1d78 913d
00000050: 19fd 923c 4b39 b23d 309d 063e 6b68 883d
00000060: fd7f 54bc d3f2 8d3d cd1d bb3d badc 16bd
00000070: a548 583d b16e 8abd 1fac 423b 0a1b df3c
00000080: 9a1a f73d 010a afbd cd46 cb3d 6898 07be
00000090: 0c85 bdbc f3b1 403d 9950 233d 2376 673d
000000a0: e9da ebbd 3280 9ebd 6638 c43a 16c5 d7bc
000000b0: 2849 b4bc 89fb 66bd 17fe d2bd f618 33bd
000000c0: 5818 3ebe 3e70 04be 8a21 a1bd 66f9 01be
000000d0: 78b9 02be 5298 0fbe 0f54 31be fe3e 83bc
000000e0: 6950 41bd 3800 023e afc1 023e d554 b63d
000000f0: 16b0 83bd 6415 de3d 0f28 a63d 7449 8c3c
00000100: 378e c93d b3af 313e 8681 173c 98e8 fd3c
00000110: 0f46 fe3d a039 5e3e 8012 353d 0469 033e
00000120: 7476 913d ca40 dc3d 5190 4f3b 7ced 253e
00000130: bd65 803d 6fb1 853e b164 753d 582f 433d
00000140: b975 083e 2328 e43c 887b b63d b369 2ebc
00000150: 8caf 743c 1e87 833d 6435 cbbd 0c61 d53d
00000160: 399f 22be ed26 f6bd c490 c0bc cbdd 0ebd
00000170: 63ae 333d 1bf9 43bd 699c 9fbd 7fc9 9dbd
00000180: a71f 23be 7e20 20be aad1 5cbb da8f 20be
00000190: 049a 8fbd f47b e4bd d7e1 eabd 5cc6 8e3c
000001a0: 786b 03be 24b0 b7bb 1506 18bd 5789 99bd
000001b0: 9e20 11be 1ce1 abbd 6018 ebbb c904 adbd
000001c0: 6612 82bd 166b 31bc 40c9 8b3b 18cf a5bd
000001d0: a0f5 b1bd 8c98 08be 4fbe 34be 99e6 8abd
000001e0: 7f7f a2bc 36cf e7bd 2a59 bdbd 1182 c6bd
000001f0: c428 7c3c cad4 b4bd 44f3 7fbd 0157 d2bb
00000200: aede 2bbd 3084 2ebd ee05 3ebd c6b3 91bd
00000210: 4c3f f5bc a34d 3dbd 6b07 9dbd e781 1cba
00000220: 2a3b 0b3e b1c9 0bbe c600 d9bd 7944 c5bd
00000230: b69f af3c f323 36be 2cbb babd deae d1bc
00000240: acfe b4bd a0bb 943d 5626 bdbd 864b 5a3d
00000250: 4cb1 023e 7921 1c3d 6779 dc3d acaf 043d
00000260: 4259 aabc e855 0e3c fe1b e83d 2ff9 ee3c
00000270: eb9e bbbb 468d 883b 71a3 463d b376 213e
00000280: 0fe2 303c da8d 9ebc dc7f 293d 5bd5 6c3d
00000290: f1d5 b1bd f80f 48bc 51ab 7abc c4bd 8b3d
000002a0: fe10 283e fa5f 053c 5486 a4bc 72f5 943d
000002b0: 5e36 bb3d aae3 3bba 82d6 a03d 6d8c 1f3e
000002c0: a838 23be 5bdc 57bd 073d 03be 4bd5 c33c
000002d0: 6a3b 00be 0d75 3f3c d14a b4bd 120b ebbc
000002e0: 86cd 50bc f7f7 d23c ef2c 8abd 60d1 b5bd
000002f0: e622 e2bd 543c 8a3d 0c42 4d3c a111 cdbc
00000300: 9f24 f8bd 2e96 a7bc 61d8 9bbc ad9f 4abe
00000310: 93cc 23bd c635 883c facb debd 8e06 a2bd
00000320: 7aaa 0abe 7e1f 4cbe 1580 3fbd c263 203d
00000330: 7147 cdbd 9233 b3bd a3ec dabd f824 c0bd
00000340: 9e9f 63bc 1ccd a63c 5696 a93d 54d5 6f3d
00000350: e233 b73d 14f9 47bc d576 ea3d 6870 94bd
00000360: bde9 b9bd 1f39 543d f328 073d ce51 b03d
00000370: 6dc7 443d ef9e 1e3e 1ef7 4c3e 4761 0d3e
00000380: 47d9 2e3e 64fe 643e d76c 3c3e 4f68 f73d
00000390: 37c0 533c b5ae 303e 4ce1 a23d 0028 ee3d
000003a0: 6a2a 903c 116f 063e fbe7 de3d ba7b 453e
000003b0: 0116 723d 657a 283d 1997 b33d 6626 203e
000003c0: 7a0f 83bc 3252 833a bf99 973b 1061 783d
000003d0: 0945 5a3d ce53 f0bd a51a e23b 6e30 9a3e
000003e0: bbaf 11be e219 11be d978 1c3e 9c15 8bbd
000003f0: 422b 45be 2b59 f13c 3664 21bd 79df 10be
-0.018016854 0.03431421 0.042304333 0.01596761 -0.080203265 -0.032424122 0.09889397 0.020376835
-0.003046142 0.020459464 -0.02777655 0.021867236 -0.08596305 -0.17165989 0.07079975 0.0493436
0.01153538 -0.03243976 0.09860976 0.07102988 0.017942952 0.08702334 0.131459 0.06660541
-0.012969968 0.06931081 0.091365434 -0.036831595 0.052803654 -0.06759394 0.0029704643 0.027234573
0.12065621 -0.0854683 0.099256136 -0.13241732 -0.02313473 0.047044706 0.039871786 0.05650915
-0.11516363 -0.07739295 0.0014970421 -0.026339095 -0.02200754 -0.056392226 -0.1030237 -0.043724976
-0.18563974 -0.12933442 -0.07867725 -0.12692794 -0.12766063 -0.1402295 -0.17317222 -0.016021248
-0.047195826 0.12695396 0.12769197 0.08902899 -0.0643007 0.10843924 0.08113109 0.017124869
0.098415785 0.1735218 0.009247189 0.030994698 0.12415706 0.2170167 0.044207096 0.12833029
0.07102671 0.10754545 0.0031671713 0.16203874 0.06269405 0.26111934 0.05991048 0.047652572
0.13326158 0.02785117 0.089102805 -0.010645318 0.014934432 0.06422256 -0.09922293 0.10418901
-0.15881051 -0.12019143 -0.02350653 -0.034879487 0.04386748 -0.047844987 -0.07793505 -0.07704448
-0.15930043 -0.15637395 -0.0033694305 -0.15679875 -0.07011798 -0.11156455 -0.11468857 0.01742857
-0.12833965 -0.0056057144 -0.037115175 -0.074968986 -0.14172599 -0.083925456 -0.0071745366 -0.08448178
-0.063511655 -0.010828754 0.004265934 -0.080961406 -0.086894274 -0.13339442 -0.17650722 -0.06782264
-0.019836186 -0.11318819 -0.09245522 -0.09692777 0.015390579 -0.08829649 -0.062487856 -0.006419063
-0.04196041 -0.042606533 -0.046392374 -0.07114367 -0.029937409 -0.04621662 -0.076674305 -0.00059702847
0.13596788 -0.13651158 -0.10595851 -0.09632201 0.02143846 -0.17787151 -0.091177315 -0.025596078
-0.08837637 0.07262349 -0.092358276 0.05329468 0.12762946 0.03811786 0.10765343 0.032394096
-0.020794515 0.008687474 0.11333464 0.029171554 -0.0057257316 0.0041672317 0.048495714 0.15767936
0.010796084 -0.01935475 0.0413817 0.05782066 -0.08683384 -0.0122108385 -0.015299634 0.06823304
0.16412732 0.008140558 -0.020083584 0.072733775 0.09141229 -0.00071674085 0.07853414 0.15580912
-0.15939581 -0.05270038 -0.12816249 0.023905417 -0.12522665 0.011685622 -0.088033326 -0.028691802
-0.012744313 0.025753004 -0.06746852 -0.08877826 -0.110418126 0.06749788 0.012527954 -0.02503282
-0.1211636 -0.020457353 -0.019024076 -0.19787474 -0.03999002 0.016627204 -0.10878749 -0.079114065
-0.13541594 -0.19933888 -0.046753008 0.039157636 -0.10023392 -0.08750071 -0.10689666 -0.09382051
-0.013893036 0.020361476 0.082806274 0.058553055 0.08945443 -0.012205381 0.11448447 -0.07248002
-0.09077785 0.051812287 0.032998037 0.08609353 0.04804175 0.15490316 0.20016143 0.1380664
0.17075072 0.22362667 0.18400894 0.12080442 0.012924246 0.17254145 0.07953128 0.11628723
0.01759835 0.13128306 0.108840905 0.19285479 0.059103016 0.04113235 0.08769054 0.15639648
-0.01599859 0.0010019003 0.0046264823 0.06063944 0.053288493 -0.117347345 0.006900149 0.30115074
-0.14227192 -0.1417003 0.15280475 -0.06791231 -0.19254783 0.029461464 -0.03940221 -0.14147748

net.0.bias f4 [256]
00000000: 54ff fa3d 556f 1c3e fd94 ce3c abff 443e
00000010: 2c10 833d c00a a43d f57c 713d 70ef 2e3d
00000020: dc4f 293d 674f a53d 73f7 403e 7978 8abd
00000030: 0c91 923d 903a 6ebc 3ae5 073e 6a1e be3d
00000040: e29f a13d 4e64 cd3d 2e34 a73d 9c21 b13c
00000050: d246 973d d0a5 3bbd c585 b33d 7753 cdbc
00000060: 3c22 dc3d dc6d 9abd fbba fe3d b9df 863c
00000070: 19a6 8a3c 8fa7 28be 4ed9 1d3e bba1 493c
00000080: 8ab9 6c3d c458 753d fd08 413e cdf1 1b3c
00000090: 1991 ec3d a6cf b5bc d673 7e3d bcb8 053e
000000a0: c900 843e d801 1abd 427c 353d a7db 3bbd
000000b0: 3e6f e23c 6f93 61bd a570 1b3d 8dd8 233e
000000c0: be33 ae3d 2098 76bd 3973 e93d 500f be3d
000000d0: 5d0d 03be cf46 79bd f1e7 a43d 2590 e93d
000000e0: df54 3abd 2a6d 073e 8485 44bd 06d9 a43c
000000f0: 348e 703d c78b 443e a4df c43d b881 00bc
00000100: 9e3f 073e acae dcbd e690 5dbd 43ab c83b
00000110: 80ae ca3d efc8 bb3d 163a f23d dab9 04bd
00000120: 3461 84bd f721 323e 1c38 18bd e09e f439
00000130: cbe0 473d 5e86 6dbd bb02 83bd 4e6e 28bd
00000140: 4489 12be 134c 073d 3074 f5bc 44a9 f7bd
00000150: dac4 d53d f4a6 213d 52e7 2b3d 83e6 e73b
00000160: f85f d33d f457 1bbe 955e c9bc 0f96 d73d
00000170: 278b cf3d b4d6 a6bd 92e0 2abd b887 093e
00000180: 075c c63d 4407 da3d b258 993e 6391 313e
00000190: 9508 b73d 05de be3d 6278 b53e a545 b63d
000001a0: 4b9d cb3d 1b0e 0e3e b5bf e9bb 35a9 6d3d
000001b0: 9f5c 173e 3fc2 b33d ae89 40be 1600 953b
000001c0: ab50 3d3c 14e4 313d f304 07ba c065 6c3e
000001d0: f6bc cfbb 68de 7f3d 315b 0e3d 2a59 693d
000001e0: aa96 d53d 4529 7abd be15 2a3d d760 0a3e
000001f0: 73d0 49bc dbab e53d 562e ed3d ec25 ee3d
00000200: b7d6 cd3c 7905 df3d 5dd8 913d 1e75 bdbd
00000210: 13ba 553e a483 fdbd 2107 1e3e 1f96 063e
00000220: 97d3 b93d ea90 76bc d03b 73be 12cb 913c
00000230: 8a63 323e 05bb 193d a90e edbd f0a3 45be
00000240: b347 183d 115d 073d d978 38be 912b aa3d
00000250: 1550 f93d 1fcb 983d 7442 9a3c cad4 4fbe
00000260: 26fd 183e 6e45 cc3d f238 c13c f29c f63c
00000270: fd43 f6bd f73e b2bc 80ee c43d eb99 903d
00000280: 1445 af3d 2e2c bb3d 4a38 fe3d 45d6 a2bd
00000290: d50b 6d3d 2700 b1bd cfd5 b63d 0b87 82bd
000002a0: 944e 2ebd 127f 0abd fb06 1bbb 4620 823d
000002b0: fa41 63bd 9ad4 ab3d f1ac 8e3c 7f03 67bd
000002c0: 75ef 6fbd 94ae 03be 5b80 11be 28b0 a73d
000002d0: e54f 5d3d 0424 313d 0ee0 6d3d 3b50 77bb
000002e0: 9486 2f3d 4d90 84be ad89 18bd 49d1 8abd
000002f0: b61c 753e dd8a 4f3d e3ad 0a3e f846 de3c
00000300: 388f 0f38 616b de3d 1e4e b9bd 5e38 2a3e
00000310: 3dc1 92bd 7e4c be3c 2c68 efbd 5fdb 133e
00000320: 109f 22bd 94e7 023c e63d 003e a252 103e
00000330: 6c55 2f3d fddd 203e 6c51 5fbe 10e1 a1bd
00000340: 5185 06be 1c5e e23d 9be9 0dbe b8bc cf3d
00000350: 2eef 0ebc 47b9 e6bc c4ac d7bc 965d 3f3e
00000360: 74af 203e 7430 ef3d 50ff a33d f0be 9a3d
00000370: 53af 0d3e 87b6 35be 212a 0dbc f53b 30bd
00000380: ed24 723d 4750 c13c 609f 56bd af06 dd3d
00000390: 48d0 943d 1205 3d3d f8c3 08be 81d4 f23d
000003a0: caa0 993d 51eb 313e 187d 9e3d f0e7 ea3d
000003b0: dddb c53c 59a6 c0bd efd8 5d3d 49ce eb3d
000003c0: f9b6 af3d 3ded d73c a626 c03d 360e e53d
000003d0: 1d69 7c3e e849 3cbc 4243 16be bc06 6bbc
000003e0: c23a 7bbc 4a41 c33d a73e 40be dca8 893d
000003f0: 0d6e dfbc 3abf 923d 66c3 1c3e 51a5 0c3e
0.12255731 0.15276845 0.025217528 0.19238155 0.06399569 0.08009863 0.05895706 0.042708814
0.041335925 0.080717854 0.18844394 -0.067612596 0.07156572 -0.01454033 0.13271037 0.09283145
0.07891823 0.10028897 0.08164249 0.021622472 0.07386555 -0.045812428 0.08765749 -0.025064213
0.10748717 -0.07540485 0.124380074 0.016464101 0.016924905 -0.16470169 0.15414926 0.012306626
0.05779413 0.059899107 0.18851085 0.009518099 0.11551113 -0.022193741 0.06212219 0.13058752
0.2578185 -0.037599415 0.044307955 -0.045863774 0.027640935 -0.055072244 0.037949223 0.16000576
0.08505963 -0.06020367 0.1139893 0.092802644 -0.12798066 -0.060858544 0.08052052 0.114044465
-0.045491096 0.13225237 -0.047978893 0.020123016 0.058729365 0.19193946 0.096129686 -0.007843427
0.13207862 -0.107755035 -0.054093264 0.0061239316 0.098965645 0.091691844 0.11827485 -0.032403804
-0.064638525 0.17395769 -0.037162885 0.00046657678 0.048798364 -0.05798947 -0.06397005 -0.04112082
-0.14310175 0.033031534 -0.02996263 -0.12092832 0.10437937 0.03946586 0.04196865 0.0070770397
0.10321039 -0.1517027 -0.024581233 0.10526668 0.10133963 -0.0814642 -0.041718073 0.13430679
0.096855216 0.10645917 0.29950482 0.17340617 0.08937184 0.093196906 0.35443407 0.089000024
0.09942111 0.13872568 -0.007133449 0.058022697 0.14781426 0.08777284 -0.1880252 0.0045471294
0.011554877 0.043430403 -0.0005150579 0.2308569 -0.0063396646 0.062467963 0.034754936 0.0569698
0.104291275 -0.061074514 0.04152464 0.13513504 -0.012317765 0.112144195 0.115811035 0.11628327
0.025126798 0.10889716 0.07121346 -0.09250854 0.20871763 -0.12378624 0.15432407 0.13143204
0.09073561 -0.015049199 -0.23753285 0.017797027 0.17420784 0.03753187 -0.11575062 -0.19300818
0.037177753 0.03304774 -0.1801485 0.08309091 0.121734776 0.07460617 0.018830515 -0.20296016
0.14940318 0.0997418 0.023586724 0.030104134 -0.120246865 -0.02175854 0.09615803 0.070606075
0.085580975 0.09139286 0.1241308 -0.07951025 0.057872612 -0.08642607 0.089274995 -0.06373414
-0.042555407 -0.03381259 -0.0023655284 0.06353812 -0.055482842 0.0839016 0.01741645 -0.05639982
-0.058577973 -0.12859565 -0.1420912 0.08187896 0.05403127 0.043247238 0.058075003 -0.003773703
0.042852953 -0.25891343 -0.037240673 -0.06778199 0.23936734 0.05066954 0.13542895 0.02713345
3.422724e-05 0.10860325 -0.09048103 0.16623065 -0.071657635 0.023229834 -0.11689791 0.14439152
-0.039702475 0.007989783 0.12523612 0.14094022 0.042806074 0.15709682 -0.21808404 -0.079042554
-0.13136794 0.11053106 -0.13858645 0.10143417 -0.008724017 -0.028164519 -0.026327498 0.18688044
0.1569193 0.116791636 0.08007681 0.0755595 0.13836412 -0.1774541 -0.008616001 -0.04302593
0.059117246 0.02359785 -0.052398086 0.107922904 0.07266289 0.046147414 -0.13356006 0.11856938
0.07501371 0.17374922 0.077387035 0.1147002 0.02415269 -0.09406728 0.054161962 0.11513955
0.08579821 0.026358241 0.093823716 0.11184351 0.24649473 -0.01149223 -0.14674094 -0.014344867
-0.015333833 0.09533937 -0.187739 0.067216605 -0.027274156 0.0716538 0.15308914 0.13734938

net.2.weight f4 [32, 256]
00000000: 1870 d83d a0af 2c3e cf74 a63c 87fb 1639
00000010: 83e5 233e 1b95 dabd b320 b4bb 4943 3abe
00000020: 5906 0fbe 961a ad3d 730d f9bc 6599 193e
00000030: 50dd 78bd bba1 5bbe debb b23d 73a0 eb3d
00000040: 7db2 df3d 5d71 d3bd f239 f9b9 3ff2 883d
00000050: 9f43 0d3d 773e 5a3d 2858 e3bd 390b 2b3d
00000060: c79d 11be 361b 70bd 4f83 8d3c 4dc6 863d
00000070: 8844 9dbc 4c44 4fbe 5492 b33d 2ac0 893e
00000080: 9077 c7bd c2b3 843d 239e bf3d 10cb 833d
00000090: 8497 a33d f96f ac3d f8e4 f6bc c3ac 413e
000000a0: d2bc dd3d 75e2 733d 8143 a9bd 9300 23bd
000000b0: 52ab e6bd d994 0b3e eca5 723d ca5f 4cbd
000000c0: a9f0 ee3d 6cd7 013e 0f32 333e c4f8 8e3c
000000d0: 6859 2a3e 4524 0b3d 80c7 8d3d 671a bd3c
000000e0: 0b11 0e3d 8906 b93d 745b 113e c688 c3bd
000000f0: e187 ccbb e7e6 56bd 6c0d 05be 9fbc edbc
00000100: 6d61 f0bd 2d34 fc3d 680a 50be 380a b0bc
00000110: c26c 07bc e532 b5bb 4d12 953d d34f a93b
00000120: ab7c 52be af80 5bbd 07a9 0e3e 4930 90bd
00000130: 3090 d43d 6c07 84bd e386 70be 7343 95bd
00000140: 584c a23c 3914 823d 466d fabd c618 e9bd
00000150: a87b 4a3d b001 6cbd 4d6a 24bd ee81 4ebe
00000160: 2751 7abd 87bd 103e 074c 39bd a2a4 46be
00000170: 7ba7 793d a66f d93d d2aa 6bbe 5a7f 54be
00000180: 4a80 953d 7c00 243e ddbd 693e e361 e7bc
00000190: e736 acbd a627 34be fe5d 143e 4bac 17bd
000001a0: 3214 c13d cf6f 333d 5ba2 7e3d 4eef 053e
000001b0: 2395 9a3c 1c44 1bbe d1de 25be a323 aabd
000001c0: 7a4f 2bbe 1cf2 34bd 38e3 293e a3c8 4dbd
000001d0: 89bb 0d3e 78b2 7b3c f057 95bd 5ed4 503d
000001e0: e0c8 663c 9384 833d 7a32 f83c 53b4 343e
000001f0: 6b1e 353d d937 113b 512c 85bd 5d41 3abd
00000200: c40a 06bc 4596 143e cc36 423e a9c9 ca3c
00000210: 5428 843d 8266 acbd aa0e c23c 595d f13d
00000220: 199b cebd 190a 243d ea66 95bd f1ac 8c3b
00000230: 2c74 1f3e c729 3dbe acfc d93d def1 f6bd
00000240: e639 7dbc db38 af3d 5d45 a6bc 42c0 463c
00000250: 2c65 25be 102f 69bd 3fa1 fe3d 35e8 3a3e
00000260: 8740 9ebd 5d1e f8bc d7be 9ebe 44db a2bd
00000270: 7ee8 73be ba17 0b3d 1392 a63c 665e c4bd
00000280: 16f8 813d 8966 603d ab8e 673e 9cc0 8cbe
00000290: e9ae 5a3e 512c cc3d 0e00 cc3d 2770 dcbd
000002a0: 600b d33d d318 f8bd af13 fdbd 42e5 d4bd
000002b0: 80b3 59be 4f7f 133d 5a26 06be 133d 2abe
000002c0: 2322 90bc c3c5 d03c 8375 043e fc64 693d
000002d0: 8d6b cb3d ccea 38be 35d2 58bd 71d8 543d
000002e0: 4637 2b3e c8d3 21bd 0c27 86bd 71bc d6bd
000002f0: 8089 16be f778 873d d75b ea3c cef6 0d3e
00000300: bd64 8739 0d57 623e 0a67 8f3d 500c c1bd
00000310: 25fa 15bc ea00 093e 85ae c93d 6d06 4bbd
00000320: 6ccd 683d c1dc c4bd 7643 6a3d 57bf d63d
00000330: 7f3b ecbd dee1 f0bd a295 fbbd cb7c 12be
00000340: f4f1 e93d 2c7c f5bd 5b84 40be e93e f5bc
00000350: 2db7 853d 6f12 183c e0b7 eb3d dbb8 56bd
00000360: 8f2c 37bd 84da 233e 97f2 16bd b15b ab3d
00000370: d08b 9e3d fda1 46be 158d 563e 4db4 28be
00000380: be44 003e 20d5 71bd 359e 6ebd 52d3 0abd
00000390: 7646 fabc 452a 5b3c 2ce0 1abd e17c f7bd
000003a0: c91c 4fbd 393b 383e f97a 87bd a65e 2ebd
000003b0: b5f2 cf3d 8151 51be 592e 003d e53d 083e
000003c0: 7162 f1bd b8db 0b3e 52d0 043e 5a66 ca3c
000003d0: c257 24be a4ae ec3d 3e3f d6bd 4e6a 08be
000003e0: cf6f 5dbb 5887 b93d df75 a83d 6cbc 523d
000003f0: cc1c 9bbd 31e8 eb3c a4ab f93d 2bc8 f5bd
0.10568255 0.1686387 0.02031937 0.00014398816 0.1600552 -0.10672971 -0.005497062 -0.1818973
-0.13967265 0.084523365 -0.03040192 0.14999922 -0.060757935 -0.21448414 0.08727239 0.11505213
0.10922716 -0.10324357 -0.00047536154 0.0668683 0.034488317 0.053282227 -0.11100799 0.04175875
-0.14220344 -0.0586197 0.017274527 0.065807916 -0.019197717 -0.20240897 0.08768144 0.26904422
-0.097396016 0.064795986 0.09356334 0.064352155 0.07987884 0.084197946 -0.030138478 0.1891356
0.1082703 0.059542138 -0.082648285 -0.03979547 -0.112631455 0.13631 0.059240267 -0.04989604
0.11666996 0.12679833 0.17499565 0.017452605 0.16635668 0.033970136 0.06922817 0.023083879
0.034684222 0.090344496 0.14195043 -0.09547572 -0.006241784 -0.0524663 -0.12993401 -0.029020606
-0.117373325 0.12314639 -0.2031647 -0.021489248 -0.008265676 -0.0055297487 0.07278881 0.0051669865
-0.2055537 -0.05358952 0.13931666 -0.0704046 0.10379064 -0.06446728 -0.23488955 -0.072882555
0.019811794 0.063515134 -0.122278735 -0.11381678 0.049434334 -0.057618797 -0.04014044 -0.20166752
-0.06111255 0.14134799 -0.04523852 -0.1939874 0.060950737 0.106169984 -0.23014382 -0.20751706
0.0729986 0.1601581 0.22826333 -0.028244918 -0.08408909 -0.1759325 0.1448898 -0.037029546
0.0942768 0.0438078 0.062166553 0.13079569 0.018869942 -0.151627 -0.16198279 -0.083075784
-0.16729537 -0.044176206 0.16590583 -0.05024017 0.1384107 0.0153623745 -0.07292163 0.05098378
0.014085978 0.06421771 0.030297507 0.17646913 0.044218462 0.0022158532 -0.06502593 -0.04547249
-0.008181278 0.14510448 0.18966216 0.024754362 0.064530045 -0.08417989 0.023688633 0.11785383
-0.10088176 0.040048692 -0.0729502 0.004293077 0.1557166 -0.18472968 0.106438965 -0.12057851
-0.015455699 0.08555766 -0.020296747 0.012130799 -0.16151875 -0.056929648 0.12433099 0.18252642
-0.07727151 -0.030287916 -0.31004974 -0.07951978 -0.23819157 0.033958174 0.020333325 -0.095883176
0.06346147 0.054785285 0.22613017 -0.274907 0.21355785 0.0996939 0.09960948 -0.10763579
0.10304904 -0.1211411 -0.1235727 -0.1039529 -0.2125988 0.036010083 -0.13100567 -0.1662486
-0.017594403 0.025484925 0.12935452 0.05698107 0.09932623 -0.18058318 -0.052934844 0.051964227
0.16720304 -0.03950861 -0.06550416 -0.10485161 -0.1470089 0.06614869 0.028608246 0.1386368
0.00025824262 0.2210352 0.07002075 -0.094261765 -0.009153877 0.13379255 0.0984774 -0.049566675
0.05683653 -0.09612418 0.057193242 0.10485714 -0.115347855 -0.11761831 -0.122843996 -0.14305417
0.11423102 -0.119865745 -0.1880049 -0.029937224 0.06529079 0.009281739 0.11509681 -0.052422386
-0.04472023 0.16001326 -0.036852445 0.08367098 0.07741511 -0.19397731 0.20952256 -0.1647503
0.12526223 -0.059041142 -0.058256347 -0.033892937 -0.030551177 0.013376777 -0.037811443 -0.12084366
-0.05056456 0.17991342 -0.06615252 -0.042570733 0.101537146 -0.20441248 0.0312942 0.13304861
-0.11786354 0.13658035 0.12970093 0.024707008 -0.16049102 0.115567476 -0.10461281 -0.13321802
-0.0033788567 0.09059018 0.08225607 0.051449224 -0.07573852 0.02879724 0.12190941 -0.1200107

net.2.bias f4 [32]
00000000: 2ca3 153e 3654 143b 3b7f bbbd 018f b63d
00000010: 5c9b de3d 1b12 a43d 8341 d9bd 0a2d bf3c
00000020: 9791 a83c e4db 203d dc57 9ebd 900c d73d
00000030: a275 e73c e2bb bd3d 7dd2 653d 5bad a43c
00000040: d8be d73d b7d4 acbd c9a2 d2bb a084 1fbd
00000050: 46ca ac3d 5bc8 013d 58c3 00be 09d8 ab3d
00000060: 2d97 e73d 7112 143e 4d20 bc3d a59b 983d
00000070: 6bd4 183e 0d5d 843d 0912 8f3d 5e6d c73d
0.14613026 0.0022633201 -0.09155127 0.089139946 0.10869476 0.08011266 -0.106081985 0.023336906
0.020577235 0.039272204 -0.077316016 0.10500443 0.028254334 0.092643514 0.05610894 0.020102194
0.105344474 -0.0843901 -0.006428097 -0.03894484 0.08437018 0.031685214 -0.12574518 0.08390815
0.11308131 0.1446016 0.091858484 0.07451562 0.14924781 0.064630605 0.06985862 0.09737657

net.4.weight f4 [32, 32]
00000000: 5c1e 47bf 2933 1b3f 4a24 29bd 4cae 3c3f
00000010: 5070 c7be 3563 cc3e dceb 06bf 86c1 a6be
00000020: 4f8b 17bf a8c3 70be fdb0 313e 2727 803e
00000030: b06a 123e 50c0 86be e02c df3e b9ba bdbe
00000040: 0b6a 8abe a588 e6be 35a5 2bbf 44c2 78be
00000050: 6cca 9ebe 06ba fa3e 554b 55be 4505 163f
00000060: 46b1 383f 83f3 ea3e 0f20 a7be 6051 eebe
00000070: 1085 19bf 3857 46bf 3bf0 10bf f6f5 e73e
00000080: aa1c 1abe 87d3 c23d ba6d 8e3d 3013 d7bd
00000090: 7ca4 653d 28b3 fa3d 7336 dc3c b8dc febd
000000a0: 3430 d0bd 9a4c a0be a61a dfbe 4acd 13bd
000000b0: 3055 543e 3a21 353b 264f 8bbd ebc9 303e
000000c0: 8383 3a3e 28df d13c bc99 c4be d570 8ebe
000000d0: 9215 2d3e 16b2 053e dc3c 28be 5f33 16be
000000e0: f1a5 f4bd 58c6 913e 36e8 cebd 96e0 2fbe
000000f0: 9ccc 843e 19dd d53d 5218 863d 5e8b edbd
00000100: 98a9 9b3e 13a9 a3bd 9ecd 9b3e 1f83 823e
00000110: 5271 c23d 9ad7 693e 005b cebe 6601 093e
00000120: 8dd2 ebbd 4dc1 923d 861f 453e 200b 833e
00000130: 84a7 87bd cab7 eebd 6b46 37be 0cdd 84be
00000140: 46ad d5bd 5493 8d3b 6cc6 a23d 16ab 3e3d
00000150: 8650 3a3e fae4 4a3e 1bd6 a9be 5346 963d
00000160: ade4 5ebe 5ad5 6e3d ce51 b63e b50a 0e3e
00000170: 3ed1 38be db8c 34be 94df 72be 5c5b 373d
00000180: 645f cd3d 217c 2f3e 5b8b 063d 9927 9b3c
00000190: 6d0b 9a3d da73 bf3d a5a7 58be 6a04 a3be
000001a0: 04dd 80bd fdad 733e 5ab3 803e 6603 fabd
000001b0: 0385 16be 0a4c 5b3e 3abd f13d 39f7 c73c
000001c0: 8775 63be e6cc 83be e444 89be 5bb9 1cbe
000001d0: 6791 49be 307d cd3d 3727 8d3d 664e 043d
000001e0: faf5 323e f6f7 523e e333 9c3e be25 62be
000001f0: d70c 11bc af27 1f3e 8816 42be a9bf 3b3d
00000200: 26ab 443e f855 0abe 2fd7 823d 95ef 5c3d
00000210: fbb5 0f3e ab28 a13c 92c5 643e 6b72 753e
00000220: 0d16 e2bd 6538 5ebb ef0d 8cbe 753a c7bd
00000230: 0bc2 863e 8c03 80bd 0597 3bbe 27dd 8f3e
00000240: e81f debc 7f71 42be bbfc 5b3d f42c 6abe
00000250: 2d8f af3e 03d5 de3d 4ac5 90be 5adb 30be
00000260: dc98 f7bd d0dd 703e 381d a5bd 765a ef3d
00000270: 3e7e 9cbd 4d06 b33d 5b9b 96be d620 dc3d
00000280: 1595 b63e 6fe1 20be 930e e9bd b896 9fbe
00000290: 0eae 813e 2437 09bf b1be cb3b 58d6 a2be
000002a0: 10f2 233f dfd3 a53e 5731 c2bc 03bf 353e
000002b0: c706 86be 38c2 023f 8a68 d8be 3ba0 10be
000002c0: d31e 223e 1acb cdbb 5238 853e 3504 1abe
000002d0: 7a91 f93e 378e 8bbe 4668 0b3e d32c 19be
000002e0: bcb8 07be 81f7 fd3c 9455 7f3e bb75 f33d
000002f0: 2eaf db3e e02a 473e 7cec a93e 2b96 83be
00000300: df11 713e caeb 9bbe 862c 38be 5525 abbd
00000310: 2036 83bd 7181 51be 861e 213d 2099 7b3e
00000320: 30d2 a93d 8b7c 87be 683e 4abd b630 13be
00000330: 005e 173e 14b2 303e 6f87 0cbd 22c0 883b
00000340: cbae 083e 5425 a23c fecd e9be 2219 0ebe
00000350: d78d 20be 36d4 7bbe 4880 9bbe 1ed3 943e
00000360: 67ee 39be c8dc 1a3e 306f fa3d 18ca c63d
00000370: 3256 1bbe 01d1 3e3c 73f7 173e 7e42 983e
00000380: 4e29 65be daf8 5b3e aa60 8dbe cef4 873e
00000390: 8644 45be bc1e 13be a0e7 e6bd a5ef 693d
000003a0: 3e18 f83d 5381 5bbe 267c 5b3e e88c 863d
000003b0: fb52 153d 7e96 653e 26a9 02be 41ee 53be
000003c0: ab51 67be c71d 9e3c 3b1c c13e 667f 07be
000003d0: 1b9a b3bd 49e9 58bc a0be 223e fa25 abbe
000003e0: 72a6 ccbd c8de 01be b7b7 dfbe ca48 bfbd
000003f0: 127e 57be b0b5 8b3d a622 e13d d9b8 ff3d
-0.777807 0.6062494 -0.041294374 0.73703456 -0.38952875 0.3991944 -0.5270364 -0.32569522
-0.59196943 -0.23512137 0.17352672 0.2502987 0.1429851 -0.26318598 0.43588924 -0.3705652
-0.2703403 -0.45026127 -0.6704896 -0.24292856 -0.3101381 0.4897005 -0.20829518 0.5860179
0.721455 0.4588891 -0.32641646 -0.4654646 -0.5996866 -0.77476835 -0.5661656 0.4530484
-0.15049997 0.09513002 0.069545224 -0.105017066 0.056065068 0.122412026 0.026881432 -0.124444425
-0.10165444 -0.31308442 -0.4357502 -0.03608445 0.20735621 0.0027638213 -0.06802206 0.17264526
0.1821423 0.025619105 -0.3839854 -0.2782046 0.1690276 0.13056216 -0.16429466 -0.14668034
-0.11945713 0.28471637 -0.101028845 -0.17175516 0.25937355 0.10442562 0.065476075 -0.11598848
0.30402827 -0.07991233 0.3043031 0.25490662 0.094942704 0.22836152 -0.40303802 0.1337944
-0.11514769 0.071657754 0.19250306 0.25594425 -0.06623748 -0.11656149 -0.17897956 -0.25949895
-0.1043344 0.0043205414 0.07948002 0.04654988 0.1819478 0.1981391 -0.33171162 0.07337632
-0.2176692 0.058308937 0.35609287 0.13871272 -0.1804857 -0.17631857 -0.23718101 0.04476486
0.1002796 0.17137195 0.032847743 0.01893978 0.075217105 0.09348269 -0.21157701 -0.31839305
-0.062921554 0.2379684 0.25136834 -0.122076795 -0.14699177 0.21415725 0.1180367 0.024409877
-0.22212802 -0.25742263 -0.26810372 -0.15305082 -0.19684373 0.10033643 0.06892245 0.03230133
0.17476645 0.20602402 0.30508336 -0.2208471 -0.008853159 0.15542482 -0.18953907 0.04583708
0.19205913 -0.13509357 0.06388699 0.05393942 0.14034264 0.019672712 0.22340992 0.23969428
-0.11039362 -0.0033908125 -0.2735438 -0.09727947 0.26319918 -0.062506765 -0.18319328 0.28098413
-0.027114823 -0.18988608 0.05370782 -0.22868711 0.34288922 0.108804725 -0.2827552 -0.17271176
-0.120897025 0.23522115 -0.08062214 0.11687176 -0.07641266 0.08741436 -0.29415402 0.107484505
0.35660616 -0.15710996 -0.11379733 -0.31169677 0.25328106 -0.5359976 0.0062178005 -0.31804156
0.64041233 0.32388207 -0.023705168 0.17748646 -0.26177046 0.51077604 -0.42267257 -0.14123623
0.15832071 -0.006280315 0.2601953 -0.15040667 0.48743802 -0.2725694 0.13613996 -0.14958505
-0.13254064 0.031001808 0.24934989 0.1188769 0.4290709 0.1944995 0.33188236 -0.25700507
0.23541974 -0.3045333 -0.17985734 -0.0835673 -0.06406808 -0.20459534 0.03933575 0.24570131
0.08292043 -0.26462206 -0.04937592 -0.1437405 0.14781952 0.17255431 -0.034308847 0.0041732946
0.13347928 0.01979319 -0.45664972 -0.13876775 -0.15679108 -0.24592671 -0.30371308 0.2906732
-0.1815735 0.15123284 0.122282386 0.09706515 -0.151696 0.01164651 0.14840488 0.2973823
-0.22379038 0.21481648 -0.2761281 0.2655396 -0.19264421 -0.14367193 -0.11274648 0.05711331
0.12113999 -0.21436052 0.21434078 0.065698445 0.03645609 0.2242069 -0.12759838 -0.20696355
-0.22589748 0.019301308 0.3771685 -0.13232192 -0.08769628 -0.013239213 0.1589303 -0.3342741
-0.099926844 -0.1268264 -0.4369485 -0.09340055 -0.21044186 0.068217635 0.10992937 0.12486429

net.4.bias f4 [32]
00000000: acd8 07be d504 be3d 6e57 e23d 5622 553c
00000010: c5d7 783d b7ad 023e 0ff3 e43d 645c 583c
00000020: c69a a63d d36e 7bbd 0eee b33d 17ee 29be
00000030: 259a 3ebd 8031 e83d 895f 1dbd 3b43 043e
00000040: 203c b8bb c657 9fbc e734 bd3d ae9f ed3d
00000050: c764 2d3d 2441 a03d bfd1 c53d 8fa8 c13d
00000060: 5842 4d3d 27ec 593d 669a e2ba 203e 2bbe
00000070: 18cb 253e b9b9 873d de9e 4f3c cef5 6cbc
-0.13266248 0.092782654 0.11051832 0.013008675 0.06075265 0.1276158 0.11179172 0.013205621
0.081349894 -0.061384987 0.0878564 -0.1659473 -0.046533722 0.113375664 -0.038421188 0.12916271
-0.005622402 -0.019451033 0.09238606 0.11602722 0.042332437 0.078249246 0.096591465 0.09455978
0.0501121 0.053203728 -0.0017288446 -0.16722918 0.16190755 0.06627221 0.012672154 -0.014462901

net.6.weight f4 [1, 32]
00000000: 8c48 df3f 74d4 0dbf 731e 223f 56ec c93e
00000010: f6f2 d0be 10ef a0be cbd2 77be 65e9 18be
00000020: 8f84 d33e 3599 84bd a511 253f a570 06be
00000030: 3e3d e63e f017 de3e 7c11 89bd e5c0 f8be
00000040: 69a1 f0be ee2c bd3f 2766 bc3e e4cb 0cbf
00000050: 6010 ea3e 28cc b2be 244f 9cbe b7a6 053f
00000060: 4a04 7e3e c788 1f3f 8397 f7be 945f 21c0
00000070: bc48 2e3e f5e1 00bf 7bb3 bfbe fe87 a6be
1.7444015 -0.554023 0.6332771 0.39438123 -0.40810364 -0.3143239 -0.24201505 -0.14932783
0.41312072 -0.064745344 0.6448005 -0.13128908 0.449686 0.43377638 -0.06692788 -0.48584667
-0.46998146 1.4779336 0.36796686 -0.5499861 0.45715618 -0.34921384 -0.3052913 0.5220751
0.24806324 0.6231808 -0.48357782 -2.5214586 0.17019933 -0.50344783 -0.3744162 -0.3252563

exp_avg f4 [256, 120]
00000000: ba47 73b7 3e5a c2b7 4428 f334 6df8 ea37
00000010: 5972 0c38 6546 e3b7 05f4 9437 8c8d 2338
00000020: 4d9d ba37 20ff 26b8 b836 2136 fcd9 a0b6
00000030: 1f4f 2db7 a598 07b7 a77f d638 cd1a 26b8
00000040: b09c 83b8 dc89 2d38 d52f 70b6 4cd7 36b8
00000050: 206f 0438 00c4 b536 b20e c9b8 bf70 6c37
00000060: 7e99 0d38 1793 aeb7 c4b3 3db8 a4c1 6bb8
00000070: 8195 7cb7 3124 30b8 bed7 9db7 4aa2 3fb7
00000080: 6f98 db38 e47b c437 8b41 2136 8786 a1b6
00000090: bf66 3338 e101 09b8 96f2 41b8 fdff 88b8
000000a0: 0da3 9cb8 d2d7 2138 005d 2db8 3ffd ff37
000000b0: 1e30 deb7 9f48 5237 c7b1 edb7 6cb8 78b7
000000c0: 83a3 2538 d8ee 51b6 758a 84b8 d72e 97b6
000000d0: 41bf 9536 1a47 9f37 695b 9037 208e 8137
000000e0: 7fc8 b6b7 c01c bbb7 91f5 07b7 55da 0d38
000000f0: 5c8c e736 6596 9337 e15c 23b7 239b c1b7
00000100: 4d46 09b7 fa96 fcb7 bbba a7b7 7423 3a37
00000110: 62a1 5937 e8a6 1138 4055 f736 c45d 0638
00000120: 7a84 5b35 d029 1938 6ed0 2ab7 22e5 1437
00000130: 750e 0637 d888 8bb7 0052 6636 2fb4 5637
00000140: fa40 b136 4a5a 4e37 46d1 4cb3 5080 7836
00000150: f88a c536 585b 34b6 a7a9 bd36 b592 2634
00000160: d091 de36 b223 4a37 d491 3a37 40ea 3836
00000170: e84b 1e37 15af 1f37 5a5f 8cb6 0307 f436
00000180: addb 27b5 05d1 7336 83b6 a636 be6a fe36
00000190: 6ea8 cbb6 d935 0c37 c01e 3137 dea2 48b6
000001a0: 39f8 ddb6 abad 2736 6d33 e1b6 79b4 3eb7
000001b0: 9db7 ab37 192b d5b6 ce26 71b7 faf1 ff37
000001c0: 969c f436 de62 66b7 ce4a 0f37 834c 9837
000001d0: b715 b037 d311 5638 e8eb f9b5 7e7b ad34
000001e0: 148c b8b7 967a 1338 d1af 4136 5c8c 67b8
000001f0: c582 f1b5 d16c c637 59a3 6fb7 180d 42b2
00000200: 52f6 fe36 ae43 4438 af7e 32b7 d267 fbb5
00000210: 5f3b c738 128c d8b7 58e9 a0b8 a39f fc38
00000220: c5ef 0439 905a 9cb7 934a 3ab8 0ece 8438
00000230: 84be 9cb8 0913 0bb8 a2f4 7938 8188 4bb6
00000240: 41dd 4337 09b0 b637 b42b db36 7a51 b238
00000250: 6377 47b8 0acf 9538 47ca 9f38 1e65 4cb7
00000260: f805 ceb8 7b28 8ab8 8824 9938 e12b 6338
00000270: 7442 66b8 b9e2 9238 c655 a438 686e cf38
00000280: b0f3 c438 e89c 84b8 9ee2 1f38 2c47 05b9
00000290: 8022 cc37 26b8 4738 de81 61b8 efe0 0cb8
000002a0: 6ee2 4bb8 c165 7d37 a89f 8038 a21d 3f38
000002b0: d37f 76b7 fcc5 4734 5386 d0b7 828b b637
000002c0: f4dc 9238 47d0 f037 364f c4b5 4be4 52b8
000002d0: 5c74 7036 d181 b8b7 84d2 8236 de8f 2eb7
000002e0: 4e1d c9b5 6da0 5538 076b 7137 4238 4eb7
000002f0: 9c6c f0b7 9c3e 72b8 0e1f f3b7 7626 0cb8
00000300: 22e6 6335 f9a0 30b8 18e7 8cb6 57c9 33b7
00000310: 4e79 46b7 3324 cb37 45ad e0b6 8a3a dab7
00000320: f014 54b7 cafb 1fb7 3fdd 6cb6 f9f4 7eb7
00000330: f880 2db7 9cce 5a36 ed2f bdb7 c233 39b6
00000340: 1489 4fb7 3e1d a9b7 df2b 9fb7 c89f ddb6
00000350: 3ec4 67b7 44b4 39b7 28e9 d436 2b92 2ab7
00000360: ec07 3037 bb0a 4ab7 8f56 51b6 8517 6cb7
00000370: fe4c ce36 eed1 b3b7 7fa9 adb7 d097 ccb6
00000380: 5eee 1437 d67f d0b6 0160 8b37 6089 e635
00000390: 4a9a f0b7 b9fa 5b36 09ec 9e37 2827 f6b7
000003a0: 2740 b7b7 5a9c 8337 bf20 9ab7 ec8a 27b8
000003b0: 615b 0fb8 7179 59b8 8953 d234 152a 46b7
000003c0: af95 b3b7 a647 ca37 9310 2737 c077 9bb7
000003d0: 38bc 1237 eeb3 7bb7 6434 49b6 25b7 7036
000003e0: 5d32 6eb7 a88b 6838 fa77 fdb7 6f3f 5937
000003f0: 251d a237 c03d 3bb7 2df0 1e38 3ffd 6cb7
-1.4500629e-05 -2.3168624e-05 4.5291574e-07 2.8010656e-05 3.3485096e-05 -2.7093289e-05 1.7756605e-05 3.8994054e-05
2.2246177e-05 -3.9815088e-05 2.402272e-06 -4.7937483e-06 -1.0330025e-05 -8.082167e-06 0.00010228092 -3.9602444e-05
-6.275752e-05 4.1374806e-05 -3.5790629e-06 -4.3592692e-05 3.1574746e-05 5.4170378e-06 -9.587164e-05 1.4092947e-05
3.375997e-05 -2.081091e-05 -4.522853e-05 -5.6208708e-05 -1.505518e-05 -4.1995376e-05 -1.8816321e-05 -1.1422273e-05
0.00010471127 2.3422712e-05 2.402902e-06 -4.813835e-06 4.2772615e-05 -3.2665095e-05 -4.624071e-05 -6.532667e-05
-7.46903e-05 3.858639e-05 -4.1333027e-05 3.0516296e-05 -2.6486869e-05 1.2533884e-05 -2.8335386e-05 -1.4824891e-05
3.9491348e-05 -3.1282452e-06 -6.32004e-05 -4.5056036e-06 4.462811e-06 1.8987386e-05 1.7208704e-05 1.544418e-05
-2.1789454e-05 -2.2305525e-05 -8.103802e-06 3.3820357e-05 6.9006765e-06 1.7593798e-05 -9.737182e-06 -2.3079634e-05
-8.1822045e-06 -3.0111045e-05 -1.9994905e-05 1.10947185e-05 1.2971783e-05 3.4726138e-05 7.371098e-06 3.2035416e-05
8.1776636e-07 3.6516984e-05 -1.0181318e-05 8.874837e-06 7.990388e-06 -1.6633814e-05 3.43204e-06 1.2797346e-05
5.2825753e-06 1.2299579e-05 -4.7687784e-08 3.7029567e-06 5.8872356e-06 -2.687526e-06 5.652389e-06 1.5513326e-07
6.6330904e-06 1.2048449e-05 1.1120417e-05 2.7554488e-06 9.435207e-06 9.517903e-06 -4.1834255e-06 7.272583e-06
-6.253202e-07 3.6331487e-06 4.9684327e-06 7.5822163e-06 -6.0694792e-06 8.357188e-06 1.0557182e-05 -2.9897124e-06
-6.61521e-06 2.4986027e-06 -6.7115093e-06 -1.1366902e-05 2.047029e-05 -6.352912e-06 -1.4373754e-05 3.0511048e-05
7.2899957e-06 -1.3732088e-05 8.540881e-06 1.815544e-05 2.0990947e-05 5.1038176e-05 -1.8620603e-06 3.2313613e-07
-2.1999738e-05 3.5161698e-05 2.886158e-06 -5.520541e-05 -1.7993958e-06 2.3654111e-05 -1.4283542e-05 -1.1295263e-08
7.5984653e-06 4.6793073e-05 -1.0639123e-05 -1.8731173e-06 9.500118e-05 -2.5814432e-05 -7.672858e-05 0.00012046031
0.00012677822 -1.863882e-05 -4.441531e-05 6.332631e-05 -7.474146e-05 -3.315791e-05 5.959406e-05 -3.0328813e-06
1.167442e-05 2.1778063e-05 6.5317963e-06 8.5028776e-05 -4.7556485e-05 7.143438e-05 7.619388e-05 -1.2182891e-05
-9.823957e-05 -6.587893e-05 7.302413e-05 5.4161883e-05 -5.4898162e-05 7.004053e-05 7.836106e-05 9.891094e-05
9.3913986e-05 -6.3234766e-05 3.8119608e-05 -0.00012710382 2.433476e-05 4.76168e-05 -5.376513e-05 -3.3588087e-05
-4.860985e-05 1.5103667e-05 6.133254e-05 4.5565546e-05 -1.4692504e-05 1.8605346e-07 -2.4858082e-05 2.1761054e-05
7.002978e-05 2.8707216e-05 -1.4626191e-06 -5.0280516e-05 3.5830517e-06 -2.199496e-05 3.898809e-06 -1.0404705e-05
-1.4984196e-06 5.0932566e-05 1.4389639e-05 -1.2291655e-05 -2.8660805e-05 -5.7755606e-05 -2.8982318e-05 -3.341442e-05
8.4898977e-07 -4.2111587e-05 -4.199228e-06 -1.07161095e-05 -1.1829963e-05 2.4216342e-05 -6.6958914e-06 -2.6014884e-05
-1.264106e-05 -9.535763e-06 -3.5295523e-06 -1.5196617e-05 -1.0341631e-05 3.2604794e-06 -2.2552873e-05 -2.7597275e-06
-1.23700775e-05 -2.0159987e-05 -1.8974706e-05 -6.6049142e-06 -1.3814364e-05 -1.1068831e-05 6.3452353e-06 -1.0166822e-05
1.0492262e-05 -1.2042637e-05 -3.119381e-06 -1.4072172e-05 6.1482415e-06 -2.1436219e-05 -2.0702135e-05 -6.097347e-06
8.876987e-06 -6.213765e-06 1.6614797e-05 1.7176317e-06 -2.8682076e-05 3.2779483e-06 1.894498e-05 -2.9343719e-05
-2.1845173e-05 1.5689224e-05 -1.837348e-05 -3.9945284e-05 -3.417896e-05 -5.1849933e-05 3.9176328e-07 -1.1811518e-05
-2.1408165e-05 2.411364e-05 9.957835e-06 -1.8533203e-05 8.746101e-06 -1.5002659e-05 -2.998183e-06 3.586939e-06
-1.4197632e-05 5.5443175e-05 -3.0215819e-05 1.2948977e-05 1.9325476e-05 -1.1160446e-05 3.7893817e-05 -1.412566e-05

exp_avg_sq f4 [256, 120]
00000000: 1a56 8833 64df 4833 d797 4f33 d20c 5233
00000010: 5d92 7d33 c725 a133 5830 9433 991c e833
00000020: 8d51 5c34 c9da f433 5d56 9533 b1d6 8b33
00000030: bd2a 3734 8d5d 2634 d405 8034 6065 ab34
00000040: 62c3 3b35 e02e cd34 4bb3 c034 37c8 a534
00000050: 1ee3 bd34 1ace f834 a4a4 fb34 4abe 1435
00000060: 0979 cf34 5728 2335 f77b 3d35 17a0 1c35
00000070: 0551 2b35 6f81 2635 1328 1f35 b9b2 b834
00000080: 9023 0c35 0044 e734 e6a1 f234 14db 9434
00000090: 62ad 9634 a456 dd34 ae72 e034 7df6 3035
000000a0: 1548 8f34 7b75 8c34 68cd 8134 7f8e 3634
000000b0: f615 a933 d579 d733 62df 0134 d5e9 3834
000000c0: 02a1 c933 1ef0 9133 dcbd 8a33 0b9d 6833
000000d0: ab86 4d33 0517 4f33 97e4 4533 b9ff 8133
000000e0: 86a7 4533 818f 8c33 3aaf 8533 f7c1 6133
000000f0: e24d 2d33 103e 7733 3581 7533 abbd 5733
00000100: 20ee 3e33 71e8 7933 1981 7333 070f 2a33
00000110: 7034 3133 56dc 6133 2d06 5833 5d00 3d33
00000120: dbee 2b33 5ead 3933 4d7a 3833 da4c 2b33
00000130: 480a 2133 df25 4133 75c2 3333 b61a 2733
00000140: 8c0b 2133 b1ea 2233 7332 2a33 bc40 2033
00000150: 7e4c 1f33 bba5 2133 b2a1 2033 95c9 2133
00000160: 332d 2133 a0c5 2533 ffe5 2133 693c 1e33
00000170: 142a 2233 4ee8 2833 73dd 2633 9246 2133
00000180: 544e 2d33 2b39 2f33 fd78 3e33 0a92 2033
00000190: b505 2a33 9dd8 4233 bd96 4a33 67ea 3433
000001a0: f322 3833 c745 6b33 df56 5f33 efd9 2933
000001b0: 8fdc 2c33 195d 7233 bb09 8733 a172 4c33
000001c0: 3756 6033 848e 6033 3880 7733 6c21 3933
000001d0: acb0 5033 83c1 6933 1d9c 5d33 e714 6733
000001e0: fc39 1c34 4e9b e533 6a0b ee33 3ab4 f733
000001f0: 89c4 0f34 ae59 2434 7c36 1c34 7d1c 6f34
00000200: 0f95 e234 4a85 6834 d902 3e34 c975 1834
00000210: c5f8 d134 5580 e734 523b 0a35 ae03 1e35
00000220: a8dc df35 43d9 7f35 3959 8135 417e 2635
00000230: 39ad 6f35 6040 8e35 c45b 9335 7843 9b35
00000240: b1da 7035 e841 d735 cc6e ee35 b7a8 ec35
00000250: 56f7 df35 df02 f235 887e ab35 b15b 6c35
00000260: e740 8f35 47ef 9835 842c 8635 654e 4d35
00000270: cf9c 2f35 a5d8 8535 ef4f 7335 75d9 dc35
00000280: 65f3 2435 3724 2435 448d fb34 9c94 0035
00000290: b196 1c34 79b1 3a34 cd52 7b34 bf11 dd34
000002a0: ea9d 8334 236c 0f34 320b 1a34 7b99 1734
000002b0: 4f08 eb33 ffcc f633 7341 f133 7742 2134
000002c0: 769f f033 0d64 1434 dd2b 0634 9b6d f833
000002d0: a900 de33 e9df 0a34 ff32 0934 c536 0434
000002e0: b5d4 e333 06b7 0634 bab6 1534 e02d d533
000002f0: cd09 d733 2854 ff33 9a6e 0d34 3cab e633
00000300: c8fc d333 b2dc e633 ee59 ec33 0d7a d333
00000310: 681b c933 c677 e333 aa95 e333 13a4 d233
00000320: 3aaa ca33 11d4 cb33 9b14 d633 c5a6 cb33
00000330: cff9 c833 b27c cb33 e328 ce33 a746 cb33
00000340: aab7 cb33 0a93 d133 6773 cb33 2e5a c733
00000350: a82a cb33 bed5 d233 0a60 d333 9fdf c933
00000360: f466 d633 feae df33 ce1d e233 a66a ca33
00000370: 219d d433 84c8 f333 3fd7 f533 d866 d933
00000380: f7e8 e533 59eb 0134 f07e 0234 6a3c d533
00000390: 92d0 d333 a113 0b34 37e1 1134 029e f333
000003a0: d526 0434 4050 0034 daba 0634 207a e233
000003b0: 392b f133 ee99 0234 3e79 0834 825a 0134
000003c0: 5933 f832 481c a432 98a8 ac32 9473 cf32
000003d0: 36a9 0b33 8d04 2133 c8e8 5a33 0467 d733
000003e0: 19a4 d733 f89d 8533 d48c a633 8940 2633
000003f0: bdbb 8f33 cb9f 1e34 8905 0034 c315 9b33
6.348655e-08 4.67693e-08 4.833404e-08 4.8906095e-08 5.903927e-08 7.5040184e-08 6.900581e-08 1.0808544e-07
2.0518765e-07 1.1401932e-07 6.9540626e-08 6.511744e-08 1.7058751e-07 1.5493988e-07 2.3846098e-07 3.1924992e-07
6.994725e-07 3.8218332e-07 3.589324e-07 3.087932e-07 3.5369243e-07 4.6343558e-07 4.6872185e-07 5.5411203e-07
3.864482e-07 6.0780934e-07 7.058838e-07 5.834749e-07 6.3820363e-07 6.202817e-07 5.929043e-07 3.440271e-07
5.2205814e-07 4.307658e-07 4.519381e-07 2.7726549e-07 2.806583e-07 4.1227497e-07 4.1806692e-07 6.5923797e-07
2.6688272e-07 2.616251e-07 2.4177575e-07 1.700191e-07 7.8736704e-08 1.0033879e-07 1.2095327e-07 1.7221403e-07
9.389079e-08 6.795766e-08 6.460661e-08 5.415954e-08 4.785276e-08 4.821688e-08 4.6075538e-08 6.053546e-08
4.602e-08 6.545361e-08 6.225169e-08 5.2563305e-08 4.0350535e-08 5.7565614e-08 5.716102e-08 5.023109e-08
4.4454396e-08 5.8186234e-08 5.669526e-08 3.9594877e-08 4.1258716e-08 5.258729e-08 5.0297036e-08 4.4005322e-08
4.0031278e-08 4.3231346e-08 4.295207e-08 3.9883936e-08 3.7495084e-08 4.4970758e-08 4.1853543e-08 3.890701e-08
3.7496235e-08 3.7932015e-08 3.9627093e-08 3.731178e-08 3.708964e-08 3.7636465e-08 3.7399964e-08 3.766907e-08
3.7526842e-08 3.8596795e-08 3.7694914e-08 3.6842184e-08 3.7756834e-08 3.9326828e-08 3.8851294e-08 3.7549917e-08
4.035094e-08 4.0797357e-08 4.434786e-08 3.7385725e-08 3.95864e-08 4.5366154e-08 4.7168886e-08 4.2122704e-08
4.2872625e-08 5.4778663e-08 5.2000242e-08 3.954659e-08 4.0247468e-08 5.6429688e-08 6.288197e-08 4.7601706e-08
5.2232476e-08 5.228368e-08 5.7625783e-08 4.3104066e-08 4.8589456e-08 5.4425538e-08 5.1597556e-08 5.380289e-08
1.4549727e-07 1.0691893e-07 1.1084815e-07 1.1534617e-07 1.3389412e-07 1.5306316e-07 1.4548453e-07 2.2268974e-07
4.2204235e-07 2.1655174e-07 1.7696165e-07 1.4198953e-07 3.9110287e-07 4.3120477e-07 5.149533e-07 5.886494e-07
1.6679014e-06 9.531106e-07 9.637216e-07 6.202354e-07 8.928651e-07 1.059856e-06 1.0979061e-06 1.1568036e-06
8.9725205e-07 1.603793e-06 1.7764628e-06 1.7632473e-06 1.6686779e-06 1.8031241e-06 1.2777318e-06 8.805028e-07
1.0673219e-06 1.1394521e-06 9.996734e-07 7.648253e-07 6.5420767e-07 9.972324e-07 9.0640873e-07 1.6454566e-06
6.1448947e-07 6.114746e-07 4.6855178e-07 4.789997e-07 1.4583453e-07 1.7387164e-07 2.340632e-07 4.117737e-07
2.451555e-07 1.3357253e-07 1.434644e-07 1.4118807e-07 1.09445516e-07 1.1492556e-07 1.1234342e-07 1.5018473e-07
1.1204877e-07 1.3819972e-07 1.249568e-07 1.1568337e-07 1.0337801e-07 1.293371e-07 1.2777672e-07 1.2313383e-07
1.06092024e-07 1.2546306e-07 1.3943182e-07 9.92693e-08 1.00135004e-07 1.1889671e-07 1.3171885e-07 1.0741357e-07
9.871434e-08 1.0750354e-07 1.10059645e-07 9.847654e-08 9.364777e-08 1.0592298e-07 1.0597735e-07 9.808732e-08
9.437322e-08 9.491499e-08 9.9689e-08 9.483259e-08 9.358666e-08 9.475606e-08 9.60006e-08 9.465776e-08
9.4863324e-08 9.759067e-08 9.473916e-08 9.283063e-08 9.460683e-08 9.8177665e-08 9.8429226e-08 9.400468e-08
9.9838786e-08 1.04160776e-07 1.05293665e-07 9.425757e-08 9.900601e-08 1.1352043e-07 1.14478546e-07 1.0123557e-07
1.07060195e-07 1.209968e-07 1.2153373e-07 9.929575e-08 9.863392e-08 1.2952525e-07 1.358611e-07 1.1344311e-07
1.2307585e-07 1.1950124e-07 1.2547699e-07 1.05461595e-07 1.1230299e-07 1.2163193e-07 1.2710095e-07 1.2046988e-07
2.889435e-08 1.9104974e-08 2.0100103e-08 2.415053e-08 3.2517356e-08 3.7489873e-08 5.0968794e-08 1.0030456e-07
1.0041567e-07 6.2220295e-08 7.755594e-08 3.870858e-08 6.693106e-08 1.4773029e-07 1.1922943e-07 7.2217084e-08

slow_buffer f4 [256, 120]
00000000: 2b0c 94bc b021 0c3d 6049 2d3d a4cc 833c
00000010: 37fc a3bd 3633 05bd 10ab ca3d b8de a73c
00000020: a17b 44bb 70aa a63c 3e79 e3bc 02fd b23c
00000030: 331a b0bd dccc 2fbe 126b 913d 4dd4 493d
00000040: e1c7 3b3c 7e9a 04bd d5f0 c93d b64f 913d
00000050: 996a 933c 683d b23d 0279 063e 3672 883d
00000060: d09f 53bc 02e5 8d3d e901 bb3d e428 17bd
00000070: 2135 583d 4c8a 8abd 6617 413b e2f2 de3c
00000080: 8c65 f73d 93f7 aebd a648 cb3d c29a 07be
00000090: ddde bcbc 6c7d 403d c006 233d cc22 673d
000000a0: 4625 ecbd 6759 9ebd 066c b93a 8e2d d7bc
000000b0: 4d08 b5bc 50d3 66bd 9d27 d3bd 8a3d 33bd
000000c0: a0f7 3dbe 4673 04be f79e a1bd 44fe 01be
000000d0: 5bb4 02be a482 0fbe fa3f 31be 7ec0 82bc
000000e0: 2cb6 41bd 39ea 013e 7fb9 023e f19e b63d
000000f0: ee9e 83bd 4c3a de3d 9013 a63d b87a 8b3c
00000100: ca7a c93d 4790 313e 822f 163c ee57 fe3c
00000110: f865 fe3d aa5f 5e3e 7e33 353d 3a8f 033e
00000120: 7e78 913d a598 dc3d 0e7e 4c3b 94f8 253e
00000130: 507a 803d 9ea7 853e 7675 753d 1870 433d
00000140: 867c 083e 1ca6 e43c 697b b63d 401d 2ebc
00000150: 6f29 753c 3680 833d d226 cbbd 7261 d53d
00000160: b096 22be 5408 f6bd 881e c0bc 7ccf 0ebd
00000170: d0de 333d 32c9 43bd 00a7 9fbd c9b6 9dbd
00000180: 6e20 23be 001c 20be c957 5bbb 1486 20be
00000190: 3ea9 8fbd 4e68 e4bd 7ac9 eabd 3ba9 8e3c
000001a0: 7573 03be 425a b7bb a623 18bd dfa5 99bd
000001b0: 2407 11be 90ee abbd c6e6 ecbb aebe acbd
000001c0: 6002 82bd 6c5c 32bc c6e7 8c3b 5aa3 a5bd
000001d0: ddc5 b1bd 8e61 08be 5ec0 34be e6e5 8abd
000001e0: 5cf5 a2bc 8198 e7bd c054 bdbd dad4 c6bd
000001f0: b014 7c3c e1b5 b4bd c40c 80bd 3357 d2bb
00000200: 9ad2 2bbd f71c 2ebd d51f 3ebd 50b6 91bd
00000210: bc05 f4bc 3d76 3dbd b53e 9dbd f9c1 e7b9
00000220: b354 0b3e a5ce 0bbe 4118 d9bd d81a c5bd
00000230: 91fb ae3c 502c 36be a39d babd bab4 d1bc
00000240: 47f8 b4bd 92c4 943d c923 bdbd 2a8e 5a3d
00000250: b8a7 023e d858 1c3d 6f9c dc3d 34a2 043d
00000260: c41e abbc 7455 0d3c e841 e83d 9879 ef3c
00000270: 54d1 bdbb ccd3 8a3b daf8 463d c28a 213e
00000280: 3ad2 323c 4c35 9fbc 6ab9 293d 8717 6c3d
00000290: 62b5 b1bd 383c 46bc fe73 7cbc bea2 8b3d
000002a0: c4f7 273e b208 063c 7a3b a3bc 6033 953d
000002b0: c41f bb3d e4bf 3bba c0b0 a03d c79a 1f3e
000002c0: 6803 23be 818d 57bd 153e 03be 20a8 c23c
000002d0: 9538 00be 787b 3e3c 4145 b4bd 8847 ebbc
000002e0: 3ee0 50bc 3e1d d43c 4219 8abd 33e5 b5bd
000002f0: ee50 e2bd fce6 893d 16fc 4b3c 1ce1 cdbc
00000300: 4023 f8bd 8f9b a8bc 26f2 9bbc 5aa8 4abe
00000310: d4f3 23bd 2acd 883c 70d6 debd c230 a2bd
00000320: ecb4 0abe 5a27 4cbe 728b 3fbd a431 203d
00000330: 9b58 cdbd 312e b3bd 9b11 dbbd 8629 c0bd
00000340: c642 64bc f849 a63c 0877 a93d 52bf 6f3d
00000350: 141d b73d aa88 48bc 1c81 ea3d 3e81 94bd
00000360: ddd8 b9bd 2c13 543d 2c1f 073d 883a b03d
00000370: 49db 443d bc8e 1e3e 8ae7 4c3e 685c 0d3e
00000380: 2ee0 2e3e d7f9 643e fc78 3c3e 146b f73d
00000390: fc4c 523c 08b1 303e 88fb a23d a4fb ed3d
000003a0: 72ab 8f3c a17a 063e 88cd de3d 725c 453e
000003b0: 28ae 713d d9e2 273d a897 b33d ba1d 203e
000003c0: ec08 84bc 14a5 983a 1ec0 993b 92eb 773d
000003d0: 3975 5a3d 6f7a f0bd f8af e13b de31 9a3e
000003e0: 1ebb 11be dde1 10be 645d 1c3e c6f4 8abd
000003f0: 6818 45be d11d f13c 60f4 20bd c2ec 10be
-0.018072208 0.034211814 0.042306304 0.016088791 -0.080070905 -0.03251954 0.09895909 0.020491943
-0.0029980915 0.020344943 -0.027767774 0.02184916 -0.08598747 -0.17167991 0.071005 0.04927473
0.011461229 -0.032373898 0.09860388 0.07095282 0.017995166 0.087031186 0.13132098 0.06662409
-0.01291652 0.069284454 0.09131224 -0.03690423 0.052785043 -0.06764659 0.002946341 0.027215425
0.120799154 -0.08543315 0.09925966 -0.13242629 -0.023055488 0.04699461 0.03980136 0.05642967
-0.11530547 -0.07731896 0.0014146573 -0.02626684 -0.022098685 -0.056353867 -0.1031029 -0.04375986
-0.18551493 -0.12934598 -0.07891648 -0.12694651 -0.12764113 -0.14014679 -0.17309561 -0.015960928
-0.047292873 0.12687005 0.12766074 0.089170344 -0.06426798 0.10850963 0.081092 0.01702629
0.09837873 0.17340194 0.0091666 0.031047788 0.12421793 0.2171618 0.04423856 0.12847605
0.0710306 0.10771302 0.0031203064 0.16208106 0.06273329 0.26104444 0.059926473 0.047714323
0.13328752 0.027911238 0.08910257 -0.010627091 0.014963492 0.06420939 -0.09919514 0.10418977
-0.15877795 -0.12013307 -0.023452058 -0.03486584 0.043913662 -0.047799297 -0.077955246 -0.07700879
-0.1593034 -0.15635681 -0.0033469072 -0.15676147 -0.07014702 -0.11152707 -0.1146421 0.01741468
-0.12837012 -0.0055954764 -0.037143372 -0.075023405 -0.1416288 -0.083951116 -0.007229659 -0.08434807
-0.06348109 -0.010886293 0.0043000905 -0.080877975 -0.086803176 -0.13318464 -0.17651507 -0.06782131
-0.019892387 -0.11308385 -0.092446804 -0.09708567 0.015385792 -0.08823753 -0.06252435 -0.0064190864
-0.041948892 -0.04250809 -0.046417076 -0.071148515 -0.02978789 -0.04625534 -0.07677976 -0.00044204274
0.13606529 -0.13653047 -0.10600329 -0.09624261 0.02136019 -0.17790341 -0.09112098 -0.025598872
-0.08836418 0.07264055 -0.09235341 0.053358234 0.12759292 0.038170666 0.10772025 0.03238125
-0.020888694 0.008626331 0.113406956 0.029232785 -0.005792776 0.004236674 0.048577167 0.15775588
0.01091438 -0.019434594 0.04143659 0.057639625 -0.08677174 -0.012099318 -0.015408514 0.0681815
0.16403109 0.008180784 -0.019925822 0.0728519 0.09136918 -0.0007162078 0.078462124 0.15586387
-0.15919268 -0.052625183 -0.12816651 0.023761809 -0.12521584 0.011626117 -0.08802272 -0.028720632
-0.012748776 0.02589285 -0.06743099 -0.08881607 -0.11050592 0.0673351 0.012450239 -0.025131755
-0.121160984 -0.020581989 -0.019036364 -0.19790784 -0.040027454 0.016699392 -0.108807445 -0.07919456
-0.13545579 -0.19936886 -0.046763845 0.03910984 -0.10026666 -0.08749045 -0.10696717 -0.0938292
-0.013931936 0.020298943 0.082746565 0.058532067 0.08941093 -0.0122396145 0.11450407 -0.072512135
-0.090745665 0.051776096 0.032988712 0.08604914 0.04806069 0.15484136 0.200102 0.13804781
0.17077705 0.22360931 0.18405527 0.120809704 0.012835737 0.17255032 0.07958132 0.11620262
0.017537806 0.13132717 0.10879046 0.19273546 0.05900398 0.040987823 0.087691605 0.1563634
-0.016117536 0.0011645877 0.0046920916 0.06052739 0.05333445 -0.11742102 0.006887432 0.3011617
-0.14231536 -0.1414866 0.1527 -0.06784968 -0.19247591 0.029433163 -0.039295554 -0.14152816
