Training/PyTrainer/epoch=39.ckpt (torch, 654085 bytes, 28 tensors)

net.0.weight f4 [256, 120]
000000 08 fa b8 39 a4 a3 74 3c 8c e4 a6 3c b5 3b 6a 3c
       0.00035281503 0.014931593 0.020372652 0.014296462
000010 fe cb d1 bb 0e 50 98 bc 9b 3a a1 3c 49 ad 3a bc
       -0.0064024916 -0.01859286 0.019681266 -0.011393853
000020 85 79 b9 bb 82 25 c2 3c 2a 2e 49 ba e2 40 37 3e
       -0.005660238 0.023699526 -0.00076744205 0.17895845
000030 30 3e ac bc 32 ae ba 3c 8a 14 a4 3e 8a d3 14 3e
       -0.021025747 0.02278814 0.3204692 0.14533821
000040 d6 f9 a2 3c b5 4a 03 bd ba 4c f5 3e a4 8e bb 3e
       0.019894522 -0.032053668 0.479101 0.36632264
000050 ad 4d 6c 3d 78 68 67 ba ae 30 60 3e 1c 0a 94 bd
       0.057691265 -0.0008827518 0.2189357 -0.07228491
000060 79 e5 be 3b 5f c8 5f 3c 46 ba dd 3d a6 be 99 3d
       0.005825695 0.013658612 0.108265445 0.075070664
000070 2e 2c 87 3a 74 7d 8d bc b0 99 07 3d 4c 15 12 3d
       0.0010312849 -0.017271735 0.033105552 0.03566484
000080 64 a4 0f bc 33 87 59 bc 32 b8 39 bd b1 19 81 3b
       -0.008767221 -0.013276863 -0.045341678 0.00393983
000090 1c fe d9 bc 7e 21 92 bc 39 b9 5a 3c 4a 0f a8 3d
       -0.026610427 -0.017838236 0.013349825 0.08206041
0000a0 2b 63 cf bc c3 32 fc 3c b8 4d 8e be 52 72 10 3d
       -0.025315842 0.030785924 -0.2779367 0.035265274
0000b0 40 59 5f bd 20 0b 67 be a2 13 f1 be 89 d4 a7 bc
       -0.054528475 -0.22562838 -0.4708529 -0.020487087
0000c0 72 fb 0a 3c 4a 91 b3 bd b2 26 4b 3e be 41 27 be
       0.008482801 -0.08767946 0.1983898 -0.16333672
0000d0 7a ed 76 bd a8 80 45 be 36 16 b1 be 4a 96 38 be
       -0.06028507 -0.1928736 -0.34587258 -0.1802608
0000e0 48 a5 c3 bb 82 c1 f5 3b 83 30 38 3c 8e 31 a6 3c
       -0.005970631 0.0074998746 0.011242035 0.020287301
0000f0 32 bd 73 3a 29 a5 27 bc 3c 4b 1c bb 4a 5f a3 3b
       0.00092979067 -0.010232248 -0.0023848554 0.0049857246
000100 1c e8 13 3c 44 d3 5e bd be 2f ac 3c 62 a8 e0 bc
       0.009027507 -0.054400697 0.021018859 -0.027424041
000110 8e 94 fe 3c 0e b0 f6 bc 8c 69 bf 3c 26 ed ab bd
       0.031076696 -0.030113246 0.023365758 -0.08394842
000120 7d 04 8d bc 23 d5 1f 3d 40 9e 01 3e a1 a3 0c 3e
       -0.017214054 0.039021622 0.12658024 0.13734294
000130 fa 0b ee 3c 88 d5 a9 3c b3 b0 9f 3d c9 d3 27 3e
       0.029058445 0.020731702 0.077973746 0.16389383
000140 9c b7 77 3d c5 cb de 3d ae b6 28 3e cb c6 83 3d
       0.060477838 0.1087871 0.16475937 0.06434401
000150 f6 96 e9 3d f5 54 5d bc a0 94 82 3d 51 37 15 3c
       0.11405747 -0.013509025 0.06376004 0.009107427
000160 60 fc d6 3d 73 81 d8 bc 5b 80 ab 3c 1e 1c 1b 3d
       0.104973555 -0.026428914 0.020935228 0.03786861
000170 78 fc 76 3d c3 8d d6 bc 53 c1 90 bc 66 d1 41 3c
       0.060299367 -0.026190644 -0.01767031 0.01182971
000180 02 d4 95 bc e0 3a dd bc 52 c4 43 3d 3c a8 a8 3d
       -0.01828957 -0.027005613 0.047794648 0.08235213
000190 70 93 45 bb ca ad 85 bc 1b e2 d3 bd 53 08 36 bc
       -0.0030147694 -0.01631822 -0.103458606 -0.011110383
0001a0 7b 1e 86 bd 9d a2 41 bd 5c ff 71 be c0 1b 1f be
       -0.065487824 -0.04727422 -0.23632568 -0.1553793
0001b0 0c bb 63 bd ec 93 b7 bd ed 6a be bd 73 56 1d bf
       -0.055598304 -0.08963761 -0.09297738 -0.61460036
0001c0 12 0f b1 bd ce cc 29 be fa de 06 bf cc 81 9e be
       -0.086454526 -0.16582033 -0.52683985 -0.30958402
0001d0 ee e4 60 bc c0 14 bb bd 94 c1 c1 be 6c c8 b3 be
       -0.013726456 -0.09134817 -0.37843 -0.35113847
0001e0 88 82 61 bc fc 66 72 3d 55 67 28 3d 1e a4 9a 3c
       -0.013764031 0.059180245 0.04111417 0.018877085
0001f0 da 85 6b 3d 53 96 a1 3c 32 cc 48 3c 16 f8 7e 3d
       0.057500698 0.019725 0.012255715 0.062248312
000200 4e b0 55 3d 57 71 11 3c 30 85 30 3d da 0f 86 3d
       0.05217009 0.00887712 0.043095767 0.06545992
000210 ae 9c a0 bc 82 69 d6 bc 2d 80 a0 3d 29 f9 a9 3d
       -0.01960596 -0.026173357 0.078369476 0.08299477
000220 3d 61 d3 bc 65 b7 99 3d ec d5 b8 3c 68 12 a0 3d
       -0.025803203 0.07505683 0.022562943 0.07816011
000230 0a 67 a8 bc 63 38 04 3c 8d 0a ef be 34 4b f1 3e
       -0.020556945 0.008070084 -0.46687737 0.47127688
000240 6a 2e c5 3c 09 5a a0 3d da 56 88 bd 0e d4 62 3d
       0.024069984 0.07829673 -0.066571906 0.055378012
000250 f4 9c f8 3c 41 45 92 3d 44 60 92 3d dc 62 ab 3d
       0.030348279 0.071421154 0.071472675 0.08368465
000260 ca 45 58 3d b4 a5 0d 3d 7a c4 c9 3d b6 3f bc 3d
       0.05280093 0.034581855 0.09851928 0.091918394
000270 70 be 4c bd 78 40 4a bd b4 38 f2 3d a6 26 e2 3d
       -0.049986303 -0.04937789 0.118272215 0.11042528
000280 44 2e 64 bc 56 0b 57 bd 13 86 d9 bc de 1f cb 3d
       -0.013927046 -0.052501045 -0.02655319 0.099181876
000290 74 32 96 bd ed 46 0c be 44 e2 81 3d a8 4c 52 3d
       -0.07333842 -0.13698931 0.06341985 0.051342636
0002a0 dd ad 6b bd 62 dd c6 bd f2 3a 20 bd 8c c5 a6 3e
       -0.057538856 -0.09710194 -0.039118715 0.3257259
0002b0 46 ef 23 be 5f a6 72 bd fd f2 ce ba 75 9f 19 3e
       -0.16009244 -0.059240695 -0.0015788969 0.15002234
0002c0 4b 2d 9b 3d 5e 6f a3 3d d0 01 8d 3d 6e 46 a3 3d
       0.07576998 0.07980226 0.06885111 0.07972418
0002d0 91 de a2 3d 93 8b ae 3d 7b 20 93 3d 00 87 38 3d
       0.079526074 0.085227154 0.071839295 0.04505062
0002e0 a4 51 d6 3d 02 0a b1 3d c4 43 90 3d cc 5b 8d 3d
       0.104647905 0.08644487 0.07044175 0.069022745
0002f0 4a a6 98 3d 8c c0 8e 3d 77 73 69 3d 3e 1f 88 3d
       0.07453592 0.06970319 0.05699488 0.06646584
000300 d8 c1 d2 3d 92 e6 b9 3d 74 22 92 3d d6 ac 37 3e
       0.10290879 0.09077181 0.07135478 0.17937025
000310 66 e3 90 3d cc a3 06 3e 56 ec 87 3d 52 ca 0e 3c
       0.07074623 0.13148421 0.066368744 0.008715229
000320 a2 1a 01 3e f8 5d 25 3e 3b f1 7f 3d a1 ef f8 3d
       0.12607816 0.16149127 0.062485915 0.121550806
000330 4f 15 6d bc 3e c4 0b 3e f2 85 3b 3d e9 7d 33 3c
       -0.014470412 0.13649079 0.045782037 0.010955312
000340 bf fe 74 be f3 f9 3c be 78 3c 9c be 33 e9 22 bf
       -0.23925303 -0.18454723 -0.30514884 -0.63637084
000350 5c f9 83 be 1d 4d 0a be af 3f ee bd 46 60 15 be
       -0.25776184 -0.13505979 -0.116332404 -0.14587507
000360 3c 16 08 be 6a 88 09 be 84 ec b1 bd 8b 50 55 3d
       -0.13289732 -0.13430944 -0.0868769 0.052078765
000370 aa 9b 0c be 62 26 35 be 3e 61 df bd 98 03 46 bd
       -0.13731256 -0.17690423 -0.10907219 -0.04834327
000380 9b 33 2f be 16 fa 88 be 22 2e 16 be 5a cd a3 be
       -0.1710953 -0.267533 -0.14666036 -0.31992608
000390 a7 80 35 be 36 93 03 be 36 7a fc bd 36 43 c2 3c
       -0.17724858 -0.12849125 -0.123279974 0.02371369
0003a0 e8 5b 3f be ea 78 05 be 68 7c 83 bd ee 1f ac 3d
       -0.18687403 -0.13034406 -0.06420213 0.084045276
0003b0 df 30 3d be 7b c1 16 be e7 da 61 3c b2 71 22 3e
       -0.18475674 -0.14722244 0.013785101 0.15863684
0003c0 0d 21 82 3d 95 a6 a0 3d 91 6a 82 3d b1 b3 9f 3d
       0.0635396 0.07844273 0.06367982 0.07797945
0003d0 22 6d af 3d b0 8f a7 3d 94 22 77 3d 80 48 24 3d
       0.08565737 0.08181703 0.06033571 0.040108204
0003e0 66 ee 48 3a a0 8b 82 3d 1a 87 52 3d 6c c0 e4 3d
       0.00076649187 0.063742876 0.051398374 0.11169514
0003f0 43 82 40 bc 94 8d 7d 3d c6 78 07 be e6 98 15 bd
       -0.011749807 0.061902598 -0.13229665 -0.03652277

net.0.bias f4 [256]
000000 20 96 8f be ac f0 66 3d b6 b5 0e 3d 32 4b 19 be
       -0.28044224 0.056381866 0.03484126 -0.14970091
000010 ee 5c 99 bd 69 e7 3f 3d 98 cc 78 3e 1e b3 36 3e
       -0.07488428 0.04685155 0.24296796 0.17841765
000020 d0 de 2b 3e f3 d3 fd bd 8c 54 27 3e 99 7a 8c 3e
       0.16784215 -0.12393942 0.16340846 0.27437285
000030 90 82 39 3e 37 78 1b 3e a6 ba 33 3c e2 f1 b8 bd
       0.18116212 0.15182577 0.010969793 -0.090305105
000040 ee af 3b 3e b8 de 39 3e 7e 4e ad bc 50 3f 44 3e
       0.1832883 0.18151367 -0.021155592 0.19164777
000050 72 5b bc 3d 40 14 c5 3d fa 7c 63 3e cd 21 bf 3e
       0.09197129 0.09623003 0.22215644 0.37330475
000060 88 39 32 bf dd 2b 01 bf 1f 51 88 3b f6 7c 11 bc
       -0.69619036 -0.50457555 0.004160061 -0.008879891
000070 d4 12 d4 3d b8 3a 04 3e 1c fc 16 3e 53 e5 5c be
       0.10355154 0.12913024 0.1474461 -0.21571855
000080 6e fc c5 be c0 e2 9d 3e 4e 18 5a 3e 3b 4a 9d 3e
       -0.3866915 0.3083706 0.21298334 0.30720696
000090 54 d9 b1 3e ad 3f 8a 3d c4 f6 ee bd 7e 30 1a 3e
       0.3473612 0.067504264 -0.116681606 0.15057561
0000a0 64 2b 03 bf 26 0b a7 3d 48 ec b0 3d 8e 08 be be
       -0.51238084 0.08156423 0.08638817 -0.37115902
0000b0 66 e4 72 3d c3 52 c7 3d 1c d6 0b bf 32 9d 07 bf
       0.05929985 0.097325824 -0.5462358 -0.52974236
0000c0 0a a8 09 3d fc 86 18 be 62 18 84 3d e2 ee 90 be
       0.03360752 -0.14895242 0.06449963 -0.28307253
0000d0 12 51 13 3e 49 91 af bd 00 cd 60 be 65 fc 1a 3e
       0.14386395 -0.08572633 -0.21953201 0.15135343
0000e0 fa 7e 3c 3e f0 8a 0e 3e d0 99 81 3c 40 6f 2d 3e
       0.18407813 0.13920188 0.015820414 0.1693697
0000f0 5c 02 e1 3d b4 79 8c bd 6c dd 57 3d 30 9f a7 3d
       0.10986778 -0.068591505 0.0527014 0.081846595
000100 b6 66 91 3c fe f1 5c 3e cc e1 ea bd bb 2f 33 bf
       0.017749172 0.21576688 -0.114688486 -0.69994706
000110 b7 1b 86 3c 6c 0d 75 bd 48 10 73 3e a6 b1 75 be
       0.016370637 -0.059827253 0.2373668 -0.23993549
000120 22 b1 f0 3d eb 1c 93 bd a7 71 b1 3e d4 84 d3 bd
       0.117525354 -0.0718325 0.34657022 -0.10328069
000130 62 3a 62 be e2 d9 18 3e 24 bc c4 bd f0 7e c4 3d
       -0.22092584 0.14926866 -0.096061975 0.09594524
000140 6f dd b3 3d 2e 92 8c be cc 94 86 3e 06 52 49 be
       0.087824695 -0.27455276 0.26285398 -0.19660196
000150 29 4a 99 be 6c c6 6f 3e 4e 90 f1 bd 97 cd 07 be
       -0.29939392 0.23415536 -0.11795102 -0.1326202
000160 11 40 fa bd 0a f4 84 3c 8a d5 1e 3e 00 97 83 3e
       -0.12219251 0.016229648 0.15511146 0.2570114
000170 5a 1d c8 bc 1e bc 67 3e 25 02 2e be c4 50 45 3d
       -0.024428058 0.22630355 -0.16993006 0.048172727
000180 00 05 64 bd 16 ed 93 3e 66 a6 09 3e d1 e5 c9 3d
       -0.05566883 0.2889182 0.13442382 0.09858287
000190 3c dc 3d be cc ac 14 bd bf 05 62 3d 12 2e 97 bd
       -0.18541044 -0.036297604 0.05518126 -0.07381834
0001a0 2c 20 00 3e 74 e7 1c bf 0e 72 b4 3d c4 15 fd bd
       0.12512273 -0.6129067 0.08810817 -0.12357667
0001b0 82 d9 78 3e 49 56 1e be 1e 8e 8f bc 63 7b 0e be
       0.24301723 -0.15462603 -0.017523821 -0.13914256
0001c0 83 64 42 3e 24 21 34 bf 6a 43 b1 3e a5 8f ca 3c
       0.18983655 -0.7036307 0.34621745 0.024726698
0001d0 87 c5 3d 3e 8c c9 b5 be 5c 27 06 3e e8 14 ba 3d
       0.18532382 -0.3550533 0.13100952 0.09086019
0001e0 ff 23 11 be f5 6f a6 3e 0e 64 48 3d 6e 7a af bb
       -0.14173888 0.3250729 0.048923545 -0.005355171
0001f0 5f eb dd 3d 66 c9 57 3e e2 6f 9f 3e 3f c9 44 bc
       0.10835909 0.21072921 0.31140047 -0.012010871
000200 a5 59 19 3e 0a 66 cc 3c 88 68 8b 3e 35 74 89 be
       0.14975603 0.024951 0.2722819 -0.2684647
000210 4f d0 0e 3e 61 e2 1c 3e 06 8f 9a be c4 ab 26 be
       0.13946651 0.15320732 -0.30187243 -0.16276461
000220 23 f4 06 3b 8d 6a 9b 3c 9c 78 d0 3d ee 75 86 3e
       0.0020592294 0.018971706 0.101792544 0.26261848
000230 2f f4 16 be c4 b2 ac 3d 70 ed f0 be fb 7c 15 3e
       -0.14741586 0.08432534 -0.4705615 0.14598458
000240 6f d0 d3 3d 00 e2 03 3e f4 bc 2b 3e b2 09 c4 be
       0.1034249 0.12879181 0.16771299 -0.38288647
000250 cc 11 af b9 3c 58 b4 3e 00 b3 ab be ab 16 fe 3c
       -0.0003339186 0.35223567 -0.33535004 0.031016668
000260 f0 b1 3c be b9 98 8b 3e b7 2f 64 3e c2 ab 91 3d
       -0.18427253 0.27264956 0.22283827 0.07112838
000270 db 37 cb bd 16 58 9c bd 36 d8 21 3d 00 8d e2 be
       -0.09922763 -0.076339886 0.039512835 -0.442482
000280 dc c7 3d 3e 9c e9 16 3e b2 dd 8c 3e ab 8d c9 3d
       0.18533272 0.14737552 0.2751289 0.09841474
000290 a8 49 95 3d e6 4f 85 3e 63 95 57 3d 9c 60 59 3c
       0.072894394 0.2603752 0.0526327 0.013267662
0002a0 ae dd 9b 3d ae 09 ba be 06 72 57 3e 1c 95 33 be
       0.076106414 -0.3633551 0.2103959 -0.1753735
0002b0 00 2f 1b 3d 1f b4 14 3e af 40 00 be 9a 18 eb 3c
       0.03788662 0.14521836 -0.12524675 0.028698254
0002c0 0a 53 40 3d da 64 a7 bf 40 76 0a 3e 98 a2 96 be
       0.046954192 -1.3077652 0.13521671 -0.29420924
0002d0 56 9a 93 3e d9 a9 c9 3d 99 18 e6 bd 62 36 62 3e
       0.28828686 0.09846849 -0.112351604 0.22091058
0002e0 4a 55 8c be 54 4e 01 3d 4d 37 c4 3d 20 2b 15 3e
       -0.2740882 0.03156884 0.0958086 0.14567232
0002f0 3a 9d a1 3d 76 36 f3 3d d0 95 04 3e 1f a5 61 3e
       0.07891317 0.11875622 0.12947774 0.22035645
000300 47 b1 40 3d 0c 84 de 3d d2 6b fb 3b 20 77 8f be
       0.047044065 0.1086503 0.0076727653 -0.28020573
000310 d9 81 b4 3d b4 a1 39 3c a5 11 2f 3d b8 5d 01 be
       0.08813829 0.011330057 0.042741437 -0.12633407
000320 6e d6 2d 3e ff 68 bf 3c 9e a7 2f 3c 76 24 ab 3e
       0.1697633 0.023365496 0.010721115 0.33426255
000330 7c 73 8a 3e 58 8b 29 3e 41 43 c4 bd e5 dd d0 3d
       0.27041233 0.16557062 -0.0958314 0.10198573
000340 5a f2 0d 3e fd a3 0c bb 8c 14 b9 be f9 e4 11 bd
       0.13861981 -0.002146005 -0.3614849 -0.035618756
000350 dc 80 d1 3d 0a bb 86 3c 5b 39 d3 bd e6 a5 8b 3e
       0.10229656 0.016446609 -0.10313674 0.27275008
000360 66 ae 8a bd 7a 86 f0 be a2 30 4a 3e 56 b6 c2 be
       -0.06771545 -0.46977597 0.19745114 -0.38029736
000370 4f 23 6a 3e 1e bd 4b 3e da 6e b1 3e d8 1b ec bf
       0.22865032 0.19896361 0.34654886 -1.8445997
000380 4e c5 15 bd cb ab d9 3d d3 af 86 3d 18 2d 36 bd
       -0.036565118 0.1062847 0.065765046 -0.0444766
000390 be a2 85 3e c8 b4 9d bf d0 e5 33 3d 42 a5 98 be
       0.26100725 -1.2320795 0.04392034 -0.29813582
0003a0 bd 6c d5 3d de 7e 6c 3d d5 20 43 3e 5f 2a 83 3d
       0.10421131 0.057738177 0.19055493 0.06404566
0003b0 73 e6 30 bd 2d d4 67 3d 85 fb d7 3d 86 32 6e 3e
       -0.043188524 0.05659883 0.105460204 0.2326146
0003c0 8a be ec be 54 90 5d be 48 6f 0f 3e 40 f0 2e bd
       -0.4623912 -0.21637088 0.14007294 -0.04270959
0003d0 e0 39 29 3e 05 7a 0c 3e a2 4a da be d8 ef 51 3e
       0.16525984 0.13718422 -0.42635065 0.2050165
0003e0 c8 49 1c be a7 b3 88 3d 50 10 4b 3e 76 bd 6e be
       -0.1526252 0.06674891 0.19830441 -0.23314461
0003f0 18 03 c2 3c 6c ed 6c 3d 6c 79 17 3e 64 2f 4d 3e
       0.023683116 0.05784361 0.14792413 0.2003761

net.2.weight f4 [32, 256]
000000 c6 68 c8 3b 3e eb ec bd 7e 82 cd 3c fb 55 37 bd
       0.0061160056 -0.115683064 0.025086638 -0.04475973
000010 d8 07 1f be 64 f8 53 3e 35 3d 40 3d 3f 97 7b bd
       -0.15530336 0.20700222 0.04693337 -0.061423536
000020 c8 f7 eb bd 47 dd c4 bd 9a cb 98 bc 1e 2d a5 3e
       -0.1152187 -0.09612518 -0.018651772 0.32260984
000030 be 91 74 3e e6 c2 ad be 30 05 4f 3d c5 e6 42 be
       0.23883721 -0.33937758 0.050542057 -0.19033344
000040 34 c7 06 3e f2 dd 58 3e 99 96 d9 3d 8e e0 05 3e
       0.13161927 0.21178415 0.10624427 0.13073942
000050 60 f0 bb bc a2 04 de 3c b6 f2 f8 3c c0 e5 78 3c
       -0.022941768 0.027101818 0.030389171 0.015191495
000060 69 e3 f7 3c cc 4d 19 bd 66 1f d2 3d 82 08 ee bd
       0.030259805 -0.03742771 0.10259895 -0.116227165
000070 4c e4 26 3e f0 d5 7a 3b 5c ad b0 3e d6 2f 81 bd
       0.16298026 0.003827449 0.34507263 -0.06307952
000080 25 7d 06 bd 7e 68 37 bd 8b ad 04 3e 80 f5 f9 3d
       -0.03283419 -0.044777386 0.12956826 0.122050285
000090 5f 27 9a bd 95 03 fc bc ae 41 b4 be 31 92 11 3e
       -0.07527041 -0.030763427 -0.3520636 0.14215924
0000a0 18 ae 73 be 6a ae 52 3d 9c 0b 45 3e c2 ca 94 3d
       -0.2379688 0.051435865 0.1924271 0.072652355
0000b0 8e 07 8d be 9f 56 a9 3d 01 48 06 bd 18 96 98 3c
       -0.27544826 0.08268475 -0.032783512 0.018626258
0000c0 84 d7 c5 3d 81 af 55 be db 40 65 3d c8 fa 6f be
       0.09660247 -0.2086773 0.055970054 -0.23435509
0000d0 62 31 20 3d e9 75 83 3b 6f 27 d4 3d f4 1c 31 3e
       0.039109595 0.0040118587 0.10359084 0.17296201
0000e0 50 b0 dc 3d 38 2a 1d 3e fb 3a 49 be aa d6 fc 3d
       0.107758164 0.15348136 -0.19651406 0.123456314
0000f0 4c da 5b be 01 6c 37 3d 8c 5d ef bd 90 d9 73 3d
       -0.21469992 0.044780735 -0.116877645 0.059533656
000100 84 cb 9d bd 8d 99 91 be 7c 36 ec bd 26 b9 07 3e
       -0.07704833 -0.28437462 -0.115338296 0.13254222
000110 e0 22 8b 3d 64 11 cd bd 30 18 8d 3e 1d 13 3f bc
       0.06793761 -0.100130826 0.27557516 -0.011662272
000120 cc a2 38 3e 76 25 3a be 10 13 e6 3d 38 50 74 3e
       0.18030852 -0.18178353 0.11234105 0.23858726
000130 fa f8 37 bb 12 34 3c be 22 70 24 bd a0 d0 d2 bd
       -0.0028071986 -0.18379238 -0.040146 -0.10293698
000140 72 ef 2c 3e f3 2e a0 bd 54 ac ad 3d a2 8b af bd
       0.16888216 -0.07821455 0.084801346 -0.08571555
000150 00 50 e7 3d a6 0e c8 3e b7 2b 0c bd df 8d a7 bc
       0.11294556 0.39073676 -0.034221377 -0.020453392
000160 20 34 34 3d 6e 16 98 bd 13 25 d3 3d 5c 6f 5a be
       0.043995023 -0.07426153 0.10309806 -0.21331543
000170 7c ef a0 3d 47 41 fa bd b5 db 49 3c 22 39 fa 3d
       0.07858178 -0.12219482 0.012320449 0.122179285
000180 7a b6 fb 3d c6 0f b8 bd 98 cb 55 bc 50 ba 8a 3d
       0.12290664 -0.089873835 -0.013049029 0.067738175
000190 45 ef a7 bb ee a3 1e ba 02 c4 23 3e b3 cf 05 bd
       -0.0051249587 -0.0006051649 0.1599274 -0.03266878
0001a0 e4 ba d1 bc 9c c4 8f 3c 06 04 bd 3e a2 75 0c 3e
       -0.025601812 0.017549805 0.36917132 0.13716748
0001b0 26 f5 75 3d 22 d4 be bd 4a ba 30 3e 98 ce aa bd
       0.060048245 -0.09317805 0.17258564 -0.08340186
0001c0 bb 80 9a 3d 65 d5 96 3e de c4 bf bc ea c5 1e 3d
       0.07544085 0.29459682 -0.023409303 0.038762964
0001d0 3a 55 97 bb 0d 17 03 bd 74 ae 50 bd 9e a8 38 3d
       -0.004618314 -0.032004405 -0.05094762 0.04508268
0001e0 d2 c3 2e 3e 05 98 1c bd d6 4f c7 bd b0 15 40 bd
       0.17066887 -0.038230915 -0.09732024 -0.046895683
0001f0 d7 b4 43 3e 14 56 23 bd d1 f5 c5 bd 10 8a 00 be
       0.19111954 -0.039877012 -0.096660264 -0.12552667
000200 0c a6 03 3e 4a 64 c7 bd d5 6c 8d 3d 24 d5 dc 3d
       0.1285631 -0.097359255 0.06905524 0.10782841
000210 aa d4 67 3e 18 6a 8d bd 89 0e 89 3c d2 56 ed bd
       0.22639719 -0.069050014 0.016730564 -0.11588825
000220 c9 8d 64 be 76 12 3c bd 56 f9 01 3e 00 d6 8f be
       -0.22319712 -0.045916043 0.1269277 -0.28092957
000230 74 53 1e 3e 1c 5c 34 bd 68 5a 70 bd 48 0c 8e be
       0.15461522 -0.044033155 -0.058679968 -0.27743745
000240 41 c0 82 3e 46 c9 e7 bb 4a bb 46 be 12 48 72 3e
       0.25537303 -0.007073554 -0.19407383 0.23660305
000250 91 91 c9 3d 6b 14 a6 3d 42 5c 04 bd 38 f2 c0 3d
       0.09842218 0.08109363 -0.032314546 0.094211996
000260 e0 7b 8f bd 3e 74 1f 3e f2 81 81 be 36 d0 d0 be
       -0.07006049 0.15571687 -0.25294453 -0.40783852
000270 fe 0a 95 bc 12 74 fc bd 26 7c 1a 3e 8e 0d d7 3e
       -0.018193718 -0.12326826 0.15086421 0.4200253
000280 43 fd 4e 3e b7 d7 63 3d c4 38 04 3e 38 95 21 3e
       0.20213799 0.055625644 0.1291228 0.15779579
000290 5d 9a 97 be aa 4e 85 3e 0c ae f5 3c 6a 16 d6 3d
       -0.29609957 0.26036578 0.029990219 0.10453494
0002a0 8c 6c 9d 3c 06 cb 60 3d b8 57 e0 3d 3e af e3 3d
       0.019216798 0.05488112 0.10954231 0.11117409
0002b0 b2 97 bc bc 77 ff a8 3d 84 cb ee 3d b5 d5 6b be
       -0.023021553 0.08251851 0.11659911 -0.23030742
0002c0 20 aa 12 3e 40 4d a3 3d b0 bf 94 3d dc 03 0d be
       0.1432271 0.07973719 0.07263124 -0.13771003
0002d0 8e af e5 bc 00 35 be bc d4 9d 5d 3d 88 a8 11 3e
       -0.028037813 -0.023218632 0.054105595 0.14224446
0002e0 4c a0 e7 3b 08 ab ac bd 21 86 68 bd 1e c1 87 be
       0.0070686694 -0.08431059 -0.05676854 -0.26514524
0002f0 76 89 00 be 46 4b 86 3d 26 46 91 3c 68 ec fb 3d
       -0.12552437 0.06557326 0.017733645 0.1230095
000300 a5 66 0a be d2 4a c4 bd f0 09 33 3e e6 eb 1d 3d
       -0.13515718 -0.09584583 0.1748426 0.03855505
000310 26 6e 25 bd 01 88 39 be 6f b1 b0 bb 70 0a a4 3d
       -0.04038825 -0.18118288 -0.0053922455 0.08009803
000320 8c b7 85 bd 3f 96 80 bc 9c d8 93 bd 2a 0e 83 be
       -0.065291494 -0.015696643 -0.07219049 -0.25596744
000330 9e 4a e2 3c c2 54 15 be f9 fc d4 3d 8b d0 06 be
       0.02762347 -0.14583114 0.10399813 -0.1316549
000340 48 cc 80 be 9e 4d 77 be ec 4b bc bc 6b 9c 11 be
       -0.25155854 -0.24150702 -0.022985421 -0.14219825
000350 98 e5 81 bd 07 e5 63 be 1c bb 7c be 34 f3 f2 3d
       -0.0634262 -0.22255336 -0.24680752 0.118627936
000360 0f 61 6a be de 99 46 be 7a 63 38 be 6d c9 6e bd
       -0.22888587 -0.19394633 -0.18006697 -0.058297563
000370 5c f3 fc 3d 5a 7a 17 3e 6f 4a 66 3d ca 11 a7 3d
       0.123511046 0.14792767 0.05622333 0.0815769
000380 9e 4d 38 3d a4 7e a7 3d fc f1 0b bd f8 27 99 bc
       0.044995897 0.08178452 -0.03416632 -0.018695816
000390 62 67 3d 3e 7a 60 e6 3d 91 4a ab 3d 52 5d 93 be
       0.18496469 0.1124887 0.08363832 -0.28782135
0003a0 14 3a 15 bd fb 49 25 bc e4 78 2c bd 9c 94 20 be
       -0.03643234 -0.010088439 -0.042107478 -0.1568169
0003b0 58 74 b4 bd 6b 44 31 bd 0e ee 2f 3d 74 a5 df 3b
       -0.08811253 -0.04327814 0.042951636 0.0068251435
0003c0 f0 99 f3 bd 0e 8c 97 be cf 10 9c bd 60 d1 9c be
       -0.118945956 -0.2959904 -0.076203935 -0.3062849
0003d0 58 b8 3b be 84 c4 8e bd e3 4b e5 bd 51 67 da bd
       -0.1833204 -0.06971076 -0.11196115 -0.10664237
0003e0 00 e9 9c be 66 7c a1 3d e3 0a 1a 3e 08 cd dd 3d
       -0.30646515 0.07885055 0.15043215 0.10830122
0003f0 40 48 9b 3d be f6 1a 3c a8 9e c9 3c 52 78 13 be
       0.0758214 0.009458242 0.024611786 -0.14401367

net.2.bias f4 [32]
000000 56 a1 0f bd d6 12 64 3e d0 78 77 3d c0 f7 7e be
       -0.03506597 0.2227281 0.06041795 -0.24899197
000010 bc b8 f9 3c 1e 09 4d be ba 60 fb be cc 7c 5f 3e
       0.030483596 -0.20023009 -0.49097234 0.2182495
000020 97 dd 4e 3e 2c f6 75 3e 0c 80 ba 3d 9a 50 cd 3d
       0.20201717 0.24019688 0.09106454 0.10025139
000030 a7 5a d4 3c 08 eb 1c 3d 02 31 04 3e da 03 a5 3d
       0.025922133 0.03831008 0.1290932 0.08057375
000040 f7 92 18 3d fc ca 9c be 52 52 d8 be c4 14 d8 bd
       0.03724953 -0.30623615 -0.42250305 -0.10550836
000050 4c 13 4a bc da 80 99 be e6 04 9b bd 96 1e 55 3e
       -0.012333702 -0.29981118 -0.07569294 0.20812449
000060 80 09 32 3e 48 f6 9a be 93 a1 88 3e 94 61 d8 3d
       0.17386436 -0.30266023 0.2668577 0.105654866
000070 81 f8 1a bf 45 0a b6 bc ef 0d 52 bf a6 56 82 3b
       -0.60535437 -0.022221694 -0.8205251 0.0039776145

net.4.weight f4 [32, 32]
000000 86 b4 e5 3d 7e da e6 bd e6 35 0a be 40 00 d0 3d
       0.11216073 -0.11272143 -0.13497123 0.10156298
000010 c6 95 1e bd da 68 74 be d2 e7 57 3d 3c a2 4a bd
       -0.038717054 -0.23868123 0.052711315 -0.049471125
000020 66 41 fb 3d ea ef 35 3e 9f b4 1a bb ea ee 54 be
       0.12268333 0.17767301 -0.0023606194 -0.20794263
000030 40 76 6f be 5c ab fe bd 01 c3 1e be 9d 87 78 be
       -0.23384953 -0.12435028 -0.15504076 -0.24270482
000040 20 51 f3 3c 90 84 33 bd 16 26 93 bd e4 07 25 be
       0.02970177 -0.043827593 -0.07184999 -0.16116291
000050 ec 7b 52 be a9 13 f0 3b 06 74 75 be 26 3d 23 be
       -0.20555085 0.0073265624 -0.2397004 -0.15941295
000060 aa 51 01 3d 9d ad 10 3e 46 92 c4 3a ee d6 9a bd
       0.03157202 0.14128728 0.0014997206 -0.07560526
000070 bc f5 2d be 06 69 0f 3e 20 e9 2d be 59 88 26 3e
       -0.16988271 0.14004907 -0.16983461 0.1626295
000080 d5 98 26 3e 20 8d 88 3e 49 22 33 3c 0d 93 96 3e
       0.16269238 0.2667017 0.010933467 0.29409066
000090 6a 72 06 bd 24 ae ae bd f6 a0 ec 3d 3f 79 68 be
       -0.032823958 -0.085293084 0.11554138 -0.22702502
0000a0 84 42 f9 bd e6 67 ee 3d 5e 6b 9a be 59 de 24 be
       -0.1217089 0.11640911 -0.3016004 -0.16100444
0000b0 85 f3 9d 3e 6f a9 bb 3d e5 4d d3 3c a8 8f 08 be
       0.30849853 0.09163176 0.025793979 -0.1333605
0000c0 fc c7 3e 3d b7 27 43 3e 68 cd f5 3d 4a 3b 97 bd
       0.04657744 0.19058119 0.12002069 -0.07384355
0000d0 d4 73 66 3d be ad 55 3d c6 7d 00 3e af 3f 1b be
       0.056262806 0.052167647 0.12547979 -0.15161012
0000e0 28 2f 62 3e 8b e1 1d bf 84 46 5b be 8c 2c 64 3e
       0.22088301 -0.61672276 -0.21413618 0.22282618
0000f0 66 4f b8 3e ca 0b 90 3e fd d1 89 3b 66 3e 21 3e
       0.35998076 0.28133994 0.0042059408 0.1574646
000100 f6 db da be b8 87 3b 3d 50 6e bd 3e f3 68 d6 bc
       -0.42745942 0.04578373 0.36998224 -0.02617309
000110 b8 c4 3b bd ea 0d e8 3e 42 9d 70 be 0e 07 74 3e
       -0.045841902 0.45323116 -0.23497489 0.23830816
000120 9a 87 e0 3d e4 cc d7 be e4 72 87 be d2 4f 9e 3d
       0.10963364 -0.42148507 -0.26454842 0.07730068
000130 0e 49 bb 3e 10 c0 6a be 02 dd 12 3e e2 48 42 3e
       0.36579174 -0.22924829 0.1434212 0.18973115
000140 20 14 95 bc a1 76 3d 3d e2 6d 7a 3e 11 2d d6 be
       -0.018198073 0.04625571 0.2445598 -0.41831258
000150 c6 d1 a9 bd 9d f3 91 3d 10 b1 7c 3e f7 21 93 3d
       -0.08291964 0.07126544 0.24676919 0.07184213
000160 e6 96 8b 3c 34 55 94 be e9 5d de be 8e 14 a2 be
       0.017039727 -0.28971255 -0.43431023 -0.31656307
000170 07 4e 9c be 32 6f 7e 3e 96 ea b5 be b6 95 cc bd
       -0.3052828 0.24847105 -0.35530537 -0.099894926
000180 cd 3f b2 3c 38 e3 2b be 16 92 c1 3e b9 a6 92 be
       0.021758938 -0.16785896 0.37806767 -0.28642824
000190 04 bd af 3c 42 88 5b 3e 68 33 e8 be 92 83 84 be
       0.021452434 0.21438697 -0.4535172 -0.2588163
0001a0 62 d6 52 bd 48 30 c3 bd ca 8c 78 3e 18 ce 4b be
       -0.051473983 -0.09530693 0.24272457 -0.19902837
0001b0 a7 ff 86 3e b8 cf e7 bd 2b c9 4e be 64 bb 0f 3e
       0.26366922 -0.11318916 -0.20193927 0.14036328
0001c0 ae d8 ac 3d 76 e5 06 bf 24 ac 21 3f 90 d3 ae 3e
       0.08439766 -0.5269388 0.6315329 0.34145784
0001d0 0e 61 8c be b8 d2 86 3e 28 ab 1c 3e 0c 3b 5d 3e
       -0.27417797 0.2633264 0.15299666 0.21604556
0001e0 b0 09 f4 bd d6 61 25 bd 38 1f f2 be 2d c9 c2 3b
       -0.1191591 -0.040376507 -0.47289443 0.005944392
0001f0 7a 3f e5 bd 25 f7 d2 be ce f6 ab be 08 73 a3 be
       -0.11193748 -0.4120418 -0.33586735 -0.319237
000200 60 bf 21 bd 7c ac 06 3e 5c fe 61 3e 5e 7f 3f 3d
       -0.03948915 0.13151735 0.22069687 0.046752326
000210 f4 19 a0 3e 6c 4f ac be ba 6a df be ec 47 f9 bd
       0.312698 -0.33654344 -0.43636113 -0.12171921
000220 05 7a 30 3e 4a 59 62 be 0c 75 22 3e 76 55 05 be
       0.17234047 -0.22104374 0.15864962 -0.13020882
000230 ee 33 a8 bd e3 2a 69 bd a6 60 6b 3c fe cf 2a 3c
       -0.0821303 -0.056925666 0.0143663045 0.010425566
000240 5e 0f 0e 3e ba 14 a1 be 41 23 bb bd b6 3a 7d bc
       0.1387305 -0.31461126 -0.091375835 -0.015455892
000250 b8 44 33 3e e9 4b 2a be b3 1e 6c 3d 40 f3 8f ba
       0.17506683 -0.1663052 0.057646465 -0.0010982528
000260 10 5b 47 bc ca 80 a3 3e f4 1d 33 3e c0 26 51 3e
       -0.012167707 0.31934196 0.17491895 0.20424938
000270 56 c0 36 be 07 02 57 be 78 bf c1 3d aa a4 3f bd
       -0.17846808 -0.20996867 0.09460348 -0.046787895
000280 fa 9c dd 3d 8a a9 4c bd dc 3f b5 bd 70 36 28 be
       0.108209565 -0.049966373 -0.08850071 -0.16427016
000290 9e 69 e3 3d 6b 89 8d be 50 07 29 be d0 04 2c 3e
       0.11104129 -0.27643904 -0.16506696 0.16798711
0002a0 38 cd 5a be ea 91 05 3f 56 f5 04 3d 9e 48 f5 bd
       -0.21367347 0.5217577 0.032460533 -0.11976741
0002b0 f6 23 9e bd 9e 7c 05 bd 04 82 97 3e 8a 09 67 3e
       -0.07721703 -0.032589547 0.29591382 0.22562233
0002c0 2c c8 10 bd f4 96 b2 3e 92 77 28 bf 1d 9f fe 3c
       -0.03534715 0.34880793 -0.6580745 0.03108173
0002d0 a6 48 13 be 62 03 11 3e 6f ff b9 bd 7c 6c 18 3d
       -0.14383182 0.14161447 -0.09081923 0.037212834
0002e0 b8 5e 00 3e d5 71 c0 be 2a d6 ae 3e aa 13 0f 3d
       0.12536132 -0.37586847 0.3414777 0.034930862
0002f0 d6 26 85 be 0f 0b 41 3e b5 d1 e4 bd 58 af 8e 3e
       -0.26006192 0.18851875 -0.11172811 0.27868152
000300 7f 04 5e be 60 81 42 3e fc df 9a 3d 42 da 33 3e
       -0.21681403 0.18994665 0.07562253 0.17563727
000310 46 60 75 bd 46 ca c8 be 7e cd ac 3e 7d c1 8e bc
       -0.059906267 -0.39216822 0.33750528 -0.017426247
000320 14 59 0c 3d c6 34 e5 bd 14 c0 49 3d 06 e9 30 3b
       0.03426464 -0.11191706 0.049255446 0.0026994362
000330 1a 3e 24 3e 1c b1 92 3d be 4e 5b 3e d6 be 1f be
       0.16039315 0.07162687 0.21416757 -0.15600142
000340 a2 7e 92 3d a0 84 f2 3e 86 a2 66 3d 2a 19 8f be
       0.071530595 0.4736681 0.05630734 -0.27948886
000350 46 54 e8 3d be b8 37 be 5e 7e 3f 3e b4 60 cc 3c
       0.11344199 -0.17941567 0.18700549 0.024948455
000360 28 31 e2 3b d1 a7 d7 be 4c 76 72 3e 06 85 9c 3e
       0.0069028325 -0.4212022 0.23677939 0.3057024
000370 28 ca 36 be b9 93 03 3e ab 88 74 3e ed 0c 04 3f
       -0.17850554 0.1284932 0.2388026 0.51582223
000380 88 24 12 3e 7e 78 60 3e 25 47 21 3e 6a 5b 75 3c
       0.14271748 0.21920964 0.15749796 0.014975408
000390 7e 77 8a 3c 02 58 e6 bb 76 ee b1 be be 81 2c be
       0.016902681 -0.0070295343 -0.34752244 -0.16846368
0003a0 68 74 1e 3e 3c a8 08 be 8f 02 6f bd 44 f4 c3 be
       0.15474093 -0.13345426 -0.05835205 -0.38272297
0003b0 66 80 c5 3d 92 58 2e be 8f 0f b6 bc a9 89 8b bd
       0.09643631 -0.17025974 -0.022224216 -0.06813366
0003c0 db f0 1c bc cf 15 c6 be 5e b1 9e 3d 00 52 10 be
       -0.009578909 -0.38688514 0.07748674 -0.1409378
0003d0 e4 5d b5 bd 76 20 1e be 16 a6 42 3c ec eb a9 3c
       -0.08855799 -0.1544207 0.011880418 0.02074238
0003e0 2a 3a 44 3e 64 08 bd be 20 33 a1 3d 3e 96 87 3d
       0.19162813 -0.36920464 0.078710794 0.06620453
0003f0 28 ea a3 be 9a 27 82 bd bc 5a af be 0e 5f 65 bd
       -0.32014585 -0.0635521 -0.34248912 -0.055998854

net.4.bias f4 [32]
000000 6f bd b6 bd 94 f2 ce 3d d0 76 38 3e 80 9b 2d 3e
       -0.0892285 0.10104862 0.18014073 0.1695385
000010 a0 cb 0d 3e 32 b0 00 3d 0a 38 4b bd 3a 56 60 3e
       0.13847208 0.031418033 -0.04961399 0.21907893
000020 a5 70 6a 3e 10 11 dd 3e 54 c7 50 3d 0a 60 94 be
       0.22894533 0.4317708 0.050971344 -0.28979522
000030 0b af 51 3d 6d 8a 15 be aa cf d6 3d 1b 7d 20 3d
       0.051192325 -0.14603586 0.104888275 0.03918181
000040 00 bc e5 be 00 ef 27 bc dd 3e 46 3e 28 43 a0 bd
       -0.44869995 -0.010249853 0.19359918 -0.07825309
000050 17 b2 11 3e 38 0f ea 3c 0e b8 73 bd a5 a0 e9 3c
       0.14228092 0.02857171 -0.0595017 0.028518984
000060 d6 31 4d be c2 b5 a3 3d b6 7a 6d bd 82 d4 58 bd
       -0.20038542 0.07993652 -0.057978354 -0.05293704
000070 75 70 ae bb cc 07 83 bd a6 66 03 be 90 34 1b be
       -0.0053234645 -0.063979715 -0.12832126 -0.1515677

net.6.weight f4 [1, 32]
000000 66 8b 4e 3f 02 4c 57 bf 18 aa ec be e4 89 e3 be
       0.80681455 -0.84100354 -0.4622352 -0.4444114
000010 05 d1 44 bf c0 e2 24 3f bc 94 51 3e e8 15 25 bf
       -0.7688144 0.64408493 0.20466894 -0.6448655
000020 4b b8 57 3f 30 c9 96 3f 9d 2d 1e 3e 6e c4 4d c0
       0.84265584 1.1780148 0.15447088 -3.215114
000030 aa 98 06 3f ac 5c 54 3e 0a 5e 18 bf 01 e2 07 3f
       0.52576697 0.20738477 -0.5951849 0.5307923
000040 ee 1e 55 40 96 83 3f 3f 92 96 07 bf c2 78 4c 3f
       3.3300128 0.7481016 -0.5296413 0.7987176
000050 d9 ae 0f 3f 61 21 86 3f de 8f 61 3e a6 32 d2 3e
       0.5612617 1.0478936 0.22027537 0.41054267
000060 46 c8 6a bf 3b 84 06 3f e0 5c dc bf ee 19 84 3d
       -0.91711843 0.5254552 -1.7215843 0.06450258
000070 b0 5e 18 3e 7f f0 2d be 3a 4f 34 3e 80 8b 94 bf
       0.1487987 -0.16986273 0.17608348 -1.1605072

exp_avg f4 [256, 120]
000000 1e 89 48 b5 a7 12 8a 35 9f ea 9a b5 75 a8 f9 35
       -7.470534e-07 1.028723e-06 -1.1542178e-06 1.8600973e-06
000010 06 da 93 b5 1a 16 5f b6 d8 7a fa 35 38 22 9e b5
       -1.1015807e-06 -3.3242454e-06 1.8662204e-06 -1.1781876e-06
000020 10 b5 b2 34 25 1e a7 b5 86 83 a3 34 90 3a fc 35
       3.3286824e-07 -1.2451243e-06 3.0456812e-07 1.8792507e-06
000030 f9 f0 7a b5 41 fa 78 35 a2 ac 12 b7 e3 8b 52 b7
       -9.348292e-07 9.2751367e-07 -8.742472e-06 -1.2549545e-05
000040 84 78 5b 36 97 bd 80 b5 86 d8 3b b7 5d 5c 50 b6
       3.2703692e-06 -9.591921e-07 -1.1196482e-05 -3.1048178e-06
000050 41 ea 93 b6 af b2 f0 33 c4 72 86 b7 cd ec b6 35
       -4.408212e-06 1.1208373e-07 -1.6027487e-05 1.3628975e-06
000060 f5 a4 b9 35 d8 8a 22 b6 55 e8 e6 36 ca e5 2f 36
       1.3831583e-06 -2.4220699e-06 6.881581e-06 2.6210787e-06
000070 f4 9b a5 35 cb 9c 1e b6 57 3e ca b5 cf 8c 18 b6
       1.2338846e-06 -2.36351e-06 -1.5068316e-06 -2.2731726e-06
000080 46 dd 37 b7 63 58 96 35 41 2c 03 36 1b ff ad b6
       -1.0959169e-05 1.1201595e-06 1.954628e-06 -5.1855e-06
000090 7c bb 51 b6 2a 1c 0e b6 f6 ed 1e b7 b2 b1 9f b7
       -3.1252557e-06 -2.1176043e-06 -9.4729385e-06 -1.9037023e-05
0000a0 d1 b8 b3 b6 32 f6 c6 b5 16 84 27 b5 38 6c b9 b6
       -5.356131e-06 -1.4823802e-06 -6.240456e-07 -5.526028e-06
0000b0 09 71 a8 b6 3b 52 b3 36 69 94 1e 36 1e ce 0b b7
       -5.019949e-06 5.3441886e-06 2.363022e-06 -8.333036e-06
0000c0 1c 7c 20 b7 89 6c e2 35 44 ee 96 36 e4 ea ae 34
       -9.56564e-06 1.68699e-06 4.498086e-06 3.258093e-07
0000d0 03 66 a4 34 b4 f5 38 35 cc 10 86 36 d9 22 c1 36
       3.0621604e-07 6.8902887e-07 3.9954666e-06 5.755905e-06
0000e0 f1 6c 70 35 52 01 95 b6 8a b2 e1 b6 3a 7a b3 36
       8.95655e-07 -4.4406997e-06 -6.726307e-06 5.3488448e-06
0000f0 b4 0b 95 36 c7 12 1a 35 ba 40 98 34 2a 60 e7 36
       4.4419085e-06 5.7396795e-07 2.83593e-07 6.8955314e-06
000100 3f 3c ab 34 39 2f 9d 36 1e b3 8b 36 59 3c cd 35
       3.1895067e-07 4.684462e-06 4.163375e-06 1.5291254e-06
000110 ba 38 76 b3 e1 87 32 36 ea 7d b8 35 8b 29 bc 35
       -5.732793e-08 2.6603159e-06 1.3745714e-06 1.4019182e-06
000120 ee f7 27 36 24 9c 8e b6 0a 3b 27 b5 77 40 6b 36
       2.5029253e-06 -4.250107e-06 -6.229826e-07 3.5055252e-06
000130 03 46 60 35 60 8c 91 35 47 18 28 b5 fd 16 e9 35
       8.3548383e-07 1.0844196e-06 -6.2620205e-07 1.7366543e-06
000140 44 c4 41 36 6c 4b 54 36 da f5 64 b4 12 7e 83 36
       2.8873483e-06 3.1634363e-06 -2.1323595e-07 3.9187807e-06
000150 d1 1b 37 36 e8 a7 28 36 04 c2 5e 36 5e ee 29 36
       2.7285316e-06 2.5131685e-06 3.319351e-06 2.532171e-06
000160 e8 f3 1c 36 4f e0 5a 36 84 f9 20 36 91 d2 66 36
       2.3387784e-06 3.2615096e-06 2.3987095e-06 3.4395237e-06
000170 7a fc b3 35 16 bf 9b 36 2b 24 8b 36 94 01 18 36
       1.341002e-06 4.6416053e-06 4.1467333e-06 2.2650684e-06
000180 62 b6 ef 35 f2 b6 fc 35 c9 7e 36 b6 db d2 92 35
       1.7859968e-06 1.8828707e-06 -2.7193912e-06 1.0939215e-06
000190 ed 00 de b2 ae 2d 90 36 aa cd 67 34 98 38 e3 35
       -2.5844622e-08 4.2968522e-06 2.1588372e-07 1.6929289e-06
0001a0 0d ed e4 b4 84 4b 1b b7 33 b7 3b 36 66 ce bd 35
       -4.2640787e-07 -9.256302e-06 2.7971807e-06 1.4141667e-06
0001b0 fd 51 6d 36 e5 65 a8 36 e4 6a 16 b6 a1 c0 14 36
       3.5363475e-06 5.0186522e-06 -2.241396e-06 2.2165843e-06
0001c0 5b d5 88 36 76 29 fc 35 23 b5 f9 b4 06 89 2f 36
       4.0779537e-06 1.878753e-06 -4.6511659e-07 2.615679e-06
0001d0 01 5d a0 36 58 b2 df 36 21 7f 94 36 95 af 01 35
       4.7791987e-06 6.66668e-06 4.4255435e-06 4.831175e-07
0001e0 57 b7 a3 36 31 b2 00 b5 09 41 1d 37 08 c3 28 b6
       4.879122e-06 -4.794302e-07 9.373071e-06 -2.5147474e-06
0001f0 28 06 bb b4 37 1c 13 37 a3 37 01 36 aa 58 44 36
       -3.4835944e-07 8.768452e-06 1.9254883e-06 2.9257885e-06
000200 55 3a a2 36 00 b2 19 b7 4c 2d f5 b5 39 18 ae b6
       4.834767e-06 -9.1609545e-06 -1.8267106e-06 -5.188424e-06
000210 5a 24 11 b7 8e 4d 22 37 f8 d0 0a b7 11 7c 5e 36
       -8.651137e-06 9.67401e-06 -8.274095e-06 3.3152794e-06
000220 92 ab 3a 35 7b da c6 b6 49 6d 87 b5 2c 2c b5 33
       6.954007e-07 -5.9262943e-06 -1.009009e-06 8.436504e-08
000230 a6 80 fb b6 84 e6 a4 b6 ed 47 59 b6 58 3f 4d b7
       -7.4953596e-06 -4.9144164e-06 -3.2377386e-06 -1.22337005e-05
000240 81 ee 14 b6 18 01 5b b7 d6 93 54 37 69 1e 24 b6
       -2.2192546e-06 -1.3053672e-05 1.2670605e-05 -2.4455605e-06
000250 9b ee 2d b6 a2 a5 bf b6 cc 2f 9e b6 ce 53 49 36
       -2.5917896e-06 -5.711526e-06 -4.714331e-06 3.0000115e-06
000260 40 a3 6e b6 66 85 db 36 c7 e6 8c 36 39 e0 ff 36
       -3.5559788e-06 6.542238e-06 4.199191e-06 7.625695e-06
000270 25 4b 59 36 1c 76 a7 36 7f 2f f4 36 99 3a a1 b6
       3.237926e-06 4.9907376e-06 7.277296e-06 -4.8049956e-06
000280 70 1e 43 b7 9d 03 3b b7 c7 c9 96 36 8c d5 35 b7
       -1.16299925e-05 -1.114691e-05 4.4938383e-06 -1.0838161e-05
000290 c7 14 e1 b6 a8 07 0b 36 55 f4 f4 b6 e7 a4 63 37
       -6.7079413e-06 2.071707e-06 -7.3002107e-06 1.3568649e-05
0002a0 96 9b 86 b6 45 d0 05 37 9e c5 e2 b6 ef 69 1c b7
       -4.011624e-06 7.975909e-06 -6.7583305e-06 -9.322989e-06
0002b0 d8 f4 95 35 70 a3 cf 36 3f c9 f2 b6 17 b8 42 36
       1.1172624e-06 6.1881074e-06 -7.23559e-06 2.9015407e-06
0002c0 89 c6 a8 35 ed ea a9 b6 b3 49 b0 b6 30 85 b7 35
       1.2574757e-06 -5.0639414e-06 -5.2537885e-06 1.3673325e-06
0002d0 c5 4c 92 b5 26 fe 3a 37 f0 14 6d 37 f8 06 3b b6
       -1.090019e-06 1.11456375e-05 1.4131176e-05 -2.7869228e-06
0002e0 92 f6 c5 b5 8e 2c 03 37 17 69 26 37 e0 fd a1 35
       -1.4749405e-06 7.818582e-06 9.918839e-06 1.2069322e-06
0002f0 75 e6 a2 b6 b9 e8 a2 b6 7a 61 2e b7 20 9d 5f 36
       -4.854805e-06 -4.8550687e-06 -1.0393904e-05 3.3321048e-06
000300 e0 86 14 35 3d 0b b1 b6 10 12 be 34 a7 e7 9d b6
       5.5330565e-07 -5.2763194e-06 3.54034e-07 -4.7059325e-06
000310 40 55 dd 35 eb de 72 b5 e7 66 46 37 9a 0b 02 36
       1.6490594e-06 -9.0476414e-07 1.18256785e-05 1.9378263e-06
000320 9c a7 cb 35 a8 ba b4 36 03 fe 81 b6 4d f2 0c b5
       1.5173459e-06 5.3861477e-06 -3.8740704e-06 -5.250666e-07
000330 d8 04 40 36 99 ac c3 35 e2 30 a4 36 99 60 4c b5
       2.861305e-06 1.4578865e-06 4.8932716e-06 -7.613649e-07
000340 7e 6c 2b b6 bc e9 19 b6 cc 54 a6 b5 2d fd f9 34
       -2.5544136e-06 -2.2934828e-06 -1.2392643e-06 4.6564074e-07
000350 21 bc bf b5 4b 28 a7 b3 48 07 9f b4 5a 53 60 36
       -1.4285362e-06 -7.783873e-08 -2.9621356e-07 3.3427118e-06
000360 59 02 2f b4 74 4d 40 b6 03 ab a4 b6 06 1d 1e b6
       -1.6298999e-07 -2.8655313e-06 -4.9074893e-06 -2.3560729e-06
000370 4f 8e f7 35 8f 3a 0f 36 1d ea a0 36 3a 7a 3b 36
       1.8444351e-06 2.1342746e-06 4.795626e-06 2.7936317e-06
000380 60 50 8a 35 8c 55 42 36 a4 5c 17 b7 ea 76 29 b4
       1.0305193e-06 2.8958048e-06 -9.021871e-06 -1.5782612e-07
000390 be bf 02 36 01 be 79 37 69 f1 d2 b6 b5 93 ad b6
       1.9483118e-06 1.4885795e-05 -6.2865915e-06 -5.172997e-06
0003a0 80 19 71 b6 2d ab 35 b3 bd 92 3f b6 28 b9 31 37
       -3.5926641e-06 -4.229803e-08 -2.854663e-06 1.0593132e-05
0003b0 43 76 23 37 bd 1c 31 36 86 24 81 b6 f5 94 2b 37
       9.743092e-06 2.6391783e-06 -3.8487515e-06 1.0227076e-05
0003c0 52 8b 12 35 63 f8 26 b6 09 e1 fc 36 84 b2 5e 36
       5.4591976e-07 -2.4880508e-06 7.536383e-06 3.3184488e-06
0003d0 06 17 fb 34 a6 48 3e 37 34 09 de b5 1e e0 07 37
       4.6769145e-07 1.1341797e-05 -1.6542967e-06 8.098808e-06
0003e0 96 39 59 36 90 94 f1 b6 16 fe 55 b6 19 bd 01 35
       3.236904e-06 -7.1996546e-06 -3.188737e-06 4.833142e-07
0003f0 8f ae ee b4 c3 b5 9c b5 de 12 59 b5 ac 57 0d 35
       -4.4457963e-07 -1.1675805e-06 -8.0866255e-07 5.265417e-07

exp_avg_sq f4 [256, 120]
000000 df 8a fc 2f 5d 82 1b 30 81 ca 02 30 38 16 ba 2f
       4.5937207e-10 5.657393e-10 4.75815e-10 3.384899e-10
000010 15 9f 37 30 f3 b5 5e 30 75 9f 2b 30 02 cb 54 30
       6.680108e-10 8.1021695e-10 6.243604e-10 7.741364e-10
000020 5d 6c 76 30 2f a4 77 30 c5 b4 27 30 66 dd 56 30
       8.964827e-10 9.0091395e-10 6.1011135e-10 7.816737e-10
000030 4d fa 0a 30 d4 4a 83 30 0c 61 7b 31 a4 ea 32 31
       5.0559806e-10 9.552772e-10 3.6580472e-09 2.6035787e-09
000040 6e 50 f9 30 33 ab 78 30 cf 24 5f 31 fe 0e 41 31
       1.8139994e-09 9.0465163e-10 3.2471694e-09 2.8093718e-09
000050 64 1f 1b 30 ba 0a 00 30 b3 b7 33 31 36 52 a8 30
       5.643328e-10 4.658137e-10 2.615235e-09 1.2246975e-09
000060 71 39 1f 30 90 a3 d7 30 3c 79 dc 30 5d 8a ea 30
       5.792549e-10 1.5689796e-09 1.6041564e-09 1.7065066e-09
000070 b7 75 9f 30 64 48 a7 30 02 44 f6 30 3f ab 6c 30
       1.1602229e-09 1.2171424e-09 1.7918185e-09 8.6099655e-10
000080 e2 84 c8 30 94 a3 20 30 6f 52 66 30 8e 18 ae 30
       1.4589683e-09 5.844012e-10 8.379066e-10 1.2667145e-09
000090 c3 bc 65 30 7d 44 78 30 3b d1 06 31 74 b1 bd 31
       8.357796e-10 9.03192e-10 1.96185e-09 5.520798e-09
0000a0 9d a2 11 31 af 7d ce 30 36 ab 0c 30 75 e3 13 31
       2.1192712e-09 1.5024194e-09 5.117501e-10 2.152061e-09
0000b0 5a 32 66 30 4f 34 b0 2f d3 6b b8 2e 79 32 3f 31
       8.3745066e-10 3.205138e-10 8.386505e-11 2.7822848e-09
0000c0 1e e8 cf 30 db 1e 61 30 9e 20 94 30 18 cc 9b 2f
       1.5127204e-09 8.189837e-10 1.0777688e-09 2.8339353e-10
0000d0 68 fa 11 30 6e fe 96 2f cb 7c 07 2f b0 3f 98 2f
       5.310654e-10 2.7465624e-10 1.2322514e-10 2.7693892e-10
0000e0 bb 92 07 30 e2 72 55 30 e3 17 19 30 ac d7 a0 2f
       4.932123e-10 7.7652207e-10 5.569502e-10 2.9257075e-10
0000f0 b3 3f 78 2f 47 0e 14 30 f6 44 de 2f c6 20 b9 2f
       2.2578099e-10 5.3862376e-10 4.0430564e-10 3.367459e-10
000100 5e 56 a3 2f 5d 36 ca 2f 29 68 fb 2f 38 cb ce 2e
       2.9710895e-10 3.6782213e-10 4.5730644e-10 9.403894e-11
000110 91 b3 3b 2f 68 dd bd 2f 56 a6 03 30 05 30 0d 2f
       1.7071346e-10 3.4536218e-10 4.78939e-10 1.2840935e-10
000120 ef 71 1a 2f 10 9b aa 2f b1 9f be 2f be d1 2c 2f
       1.4046696e-10 3.1032998e-10 3.4674266e-10 1.5717824e-10
000130 c9 cd d4 2e cd 3d 78 2f b3 22 9f 2f 2e 92 58 2f
       9.6771986e-11 2.2577425e-10 2.8946587e-10 1.9697019e-10
000140 2f d6 eb 2e ef 25 4c 2f 55 2e 4c 2f 82 53 ce 2e
       1.07246094e-10 1.8567169e-10 1.8570152e-10 9.3826294e-11
000150 55 01 c6 2e 3d fd d7 2e 17 80 f0 2e f7 16 bf 2e
       9.004234e-11 9.822052e-11 1.093669e-10 8.689754e-11
000160 33 93 21 2f 68 99 04 2f 4d 61 d1 2e f7 8a a6 2e
       1.469516e-10 1.2059831e-10 9.521504e-11 7.573491e-11
000170 5a 25 07 2f 22 5b 25 2f ef c2 1f 2f 46 f8 fa 2e
       1.2291448e-10 1.503904e-10 1.453022e-10 1.1412786e-10
000180 3b 01 40 2f 4a f5 8b 2f bf db aa 2f a8 e8 e4 2e
       1.7462735e-10 2.545824e-10 3.107896e-10 1.04095677e-10
000190 9a e1 50 2f 0b f5 c6 2f a1 46 ad 2f 62 5e 50 2f
       1.899764e-10 3.6190104e-10 3.1518702e-10 1.8951021e-10
0001a0 54 3b a5 2f e3 5c 3a 30 a0 3f c9 2e fb 50 cb 2e
       3.005548e-10 6.7798406e-10 9.151724e-11 9.245756e-11
0001b0 1f 93 62 2f 96 c8 43 30 ac 9b f4 2f 37 e7 9a 2e
       2.0606848e-10 7.1225636e-10 4.4493953e-10 7.044181e-11
0001c0 ba 38 23 30 dc f4 82 30 59 98 12 2f c1 0b 13 2f
       5.937967e-10 9.528338e-10 1.3332747e-10 1.3373748e-10
0001d0 ac 6d 00 30 8b de 54 30 53 72 95 2f ca 99 2d 2f
       4.672198e-10 7.7441403e-10 2.7184174e-10 1.5788895e-10
0001e0 c2 33 f3 30 57 e1 ef 30 9a f1 e3 30 e2 22 9f 30
       1.7695287e-09 1.7453584e-09 1.6585091e-09 1.1578687e-09
0001f0 c0 d1 05 31 0d 2c 43 31 ef 8c 17 31 20 43 10 31
       1.9473276e-09 2.8401275e-09 2.2053503e-09 2.0992914e-09
000200 5d c4 6d 31 65 78 2c 31 e4 30 db 30 0f cc a3 30
       3.4599659e-09 2.509773e-09 1.5948243e-09 1.1917808e-09
000210 c8 e8 08 31 e5 88 07 31 ce 90 36 31 a2 56 b9 31
       1.9922926e-09 1.97229e-09 2.6566798e-09 5.3940576e-09
000220 03 d6 be 31 bf e6 28 31 fb a3 e5 30 93 f5 0a 31
       5.554058e-09 2.4578382e-09 1.6708549e-09 2.0221236e-09
000230 f3 85 d2 30 74 53 d8 30 25 83 2f 31 29 d0 11 32
       1.5317582e-09 1.5739787e-09 2.5540399e-09 8.487441e-09
000240 bf 2c f9 30 d0 57 3e 32 de 25 d8 31 df d9 65 32
       1.8129852e-09 1.1079422e-08 6.2907324e-09 1.33790925e-08
000250 93 d3 84 31 55 cf 88 31 0b 89 97 31 50 36 4b 31
       3.865759e-09 3.981692e-09 4.4102584e-09 2.957126e-09
000260 a3 97 ec 31 3d 20 e0 30 f0 08 a8 30 28 7c 3a 31
       6.885743e-09 1.6307308e-09 1.2226149e-09 2.7137137e-09
000270 bb 40 0e 31 bf 0f c4 30 9d c7 45 31 44 62 74 32
       2.0700515e-09 1.4265352e-09 2.878074e-09 1.4225012e-08
000280 94 51 e5 31 dc de 12 31 13 01 15 31 62 cf a9 31
       6.6740515e-09 2.1372477e-09 2.1682964e-09 4.942124e-09
000290 da d2 03 31 67 82 db 30 6d 7f 8d 31 59 9b 31 32
       1.9182864e-09 1.597141e-09 4.1181267e-09 1.0338078e-08
0002a0 0e d0 e5 31 26 fa 4d 31 92 12 b9 31 d6 8a 46 31
       6.6884303e-09 2.997362e-09 5.38632e-09 2.8891711e-09
0002b0 0a 5f c7 30 90 a5 b9 30 e7 31 9e 30 44 fe 9f 31
       1.4506167e-09 1.3507577e-09 1.1510196e-09 4.6564157e-09
0002c0 26 d9 14 31 ef 5c 52 31 d8 61 2a 31 85 28 8f 30
       2.166027e-09 3.0611849e-09 2.4793874e-09 1.0416136e-09
0002d0 a0 fa 83 30 14 e3 2c 31 c2 1a 2d 31 b9 2b ec 30
       9.602736e-10 2.5158373e-09 2.5190023e-09 1.7183687e-09
0002e0 a1 71 c1 30 10 cb 6a 31 3a 92 5c 31 ff e3 2f 30
       1.4074893e-09 3.416691e-09 3.2097334e-09 6.398863e-10
0002f0 b8 9c 36 30 16 8c 1f 31 21 12 88 31 8f 1a 93 30
       6.6433925e-10 2.3217175e-09 3.960182e-09 1.0703206e-09
000300 02 6b 76 30 d3 ca 2c 31 0f 71 40 31 36 d1 4e 30
       8.9646346e-10 2.5144586e-09 2.8003944e-09 7.523967e-10
000310 f9 63 e2 2f 86 81 f2 30 f4 ab 29 31 66 04 8a 30
       4.1180195e-10 1.764463e-09 2.469048e-09 1.0042072e-09
000320 4a 1f f4 2f 20 58 7c 30 e5 c2 91 30 ee d8 0a 30
       4.4405574e-10 9.18023e-10 1.0605531e-09 5.0512383e-10
000330 8c cf aa 2f af 8d 24 30 76 ac 44 30 b8 bd 2c 30
       3.107029e-10 5.9864197e-10 7.1549466e-10 6.284284e-10
000340 19 9e d0 2f 2b a9 03 30 30 ba ab 2f 49 55 93 2f
       3.7947315e-10 4.7897925e-10 3.1237013e-10 2.6799743e-10
000350 f0 a3 da 2f dd 76 20 30 06 32 0e 30 8c fe e0 2f
       3.9770454e-10 5.8376576e-10 5.1730387e-10 4.092623e-10
000360 d7 2e 3f 30 a8 9e 5b 30 af 0d 38 30 dd e7 00 30
       6.955196e-10 7.98972e-10 6.6958256e-10 4.6895626e-10
000370 c0 a8 3b 30 41 ba 8d 30 28 fe 93 30 ed 7b 5a 30
       6.827001e-10 1.0312037e-09 1.0767893e-09 7.9484047e-10
000380 5a 05 b2 30 d9 cc cd 30 3e 24 9f 30 49 f9 11 30
       1.2952726e-09 1.4973934e-09 1.1579073e-09 5.310495e-10
000390 46 83 80 30 56 49 2e 31 06 b5 fb 30 85 2e c0 30
       9.350536e-10 2.536202e-09 1.8314104e-09 1.398306e-09
0003a0 43 60 18 31 71 c9 13 31 2a db f2 30 ad b2 b6 30
       2.217363e-09 2.1505822e-09 1.7670108e-09 1.3293026e-09
0003b0 f7 2f e8 30 ea 7b 2e 31 8d d2 8f 31 e9 40 16 31
       1.6893854e-09 2.539077e-09 4.1857846e-09 2.186477e-09
0003c0 16 2a 54 30 57 fe 77 30 23 04 63 30 8b 3a 29 30
       7.718496e-10 9.0219515e-10 8.2588e-10 6.1565036e-10
0003d0 ea c1 83 30 62 75 af 30 b9 cd 88 30 55 5d a6 30
       9.586618e-10 1.2766288e-09 9.953772e-10 1.2104616e-09
0003e0 90 d2 c0 30 ec 2d b1 30 1d 19 81 30 a8 51 5b 30
       1.4029684e-09 1.2891497e-09 9.393123e-10 7.9787776e-10
0003f0 92 31 68 30 d6 b2 94 30 37 e1 a6 30 fc 24 32 31
       8.447155e-10 1.0819245e-09 1.21421e-09 2.5923432e-09
