Training/PyTrainer/epoch=2.ckpt (torch, 654021 bytes, 28 tensors)

net.0.weight f4 [256, 120]
00000000: 26d6 3ebd b27b c0bd 3e79 3a3d e56b 363d
00000010: d411 e1bc 7454 00bc f071 8f3d ca66 e2bd
00000020: eca0 ecbb cee2 c03d a4bb eb3d 4a67 8e3d
00000030: d4b9 233b 8185 143d f232 c9bc 90b6 d8bd
00000040: 8422 2a3c 94c5 4ebb 8b61 4a3d e6cd 6b3d
00000050: 088b 24bd 46cf 903d f285 c6bd 3004 a73c
00000060: 5280 3c3d 5dbe c43d a4a3 8abd 1b9b d3bd
00000070: fcd9 2abd 631e 69bd a340 813d 4e5b 14bc
00000080: af3b 58bd f14a 653d c814 eb3d 2a16 ec3d
00000090: 12f1 653d 40fa da3d c494 40bd 6631 c33d
000000a0: da57 aeb8 3f8b 843c f877 223d 1314 c0bd
000000b0: 8056 1c3d 6eee 18bb 6a78 4cbc a030 c8bc
000000c0: 4fec 9d3c dc11 843c 7049 d43d 52c0 abbd
000000d0: cc03 82bc e6c1 e33d 5bbe c2bd e243 b6bd
000000e0: acac f83d 7eac c0bc 5030 683d c65e 47bd
000000f0: c395 3d3d 6f47 763d 38de a6bd fb9b 5fbd
00000100: 2975 5ebd f7c6 b63d 5c5d 393d 742d 77bd
00000110: bcea 643d 9372 00be 2260 213c 42a1 843c
00000120: 67c4 dabc 22fc e33d 9b17 d03d 7cd7 eb3d
00000130: ff6c ec3d 56a3 983d c6bb aebd f82c 4abd
00000140: 803c ef39 f600 2bb9 dfa9 b1bc 7eeb e0bd
00000150: 1667 11bc 06b4 f2bb 562c e63d 3c64 b8bb
00000160: b6f7 683c f2f7 03bd 728b 0fbd 8233 283d
00000170: 904d 07bd 0843 783d 1cc2 45bd d6f6 d7bd
00000180: 6659 aa3d da79 db3d 1a59 bbbd 81b4 c13c
00000190: 1cf8 99bd 2d09 98bd d2cf babd 7832 933d
000001a0: a6a6 b6bd f827 883d b88f d9bc 4acb 82bd
000001b0: 3444 e33d 1282 abbd e92a 5c3a be00 d63d
000001c0: 6465 edbd 50bc c3bd 5241 c83c d238 fa3d
000001d0: e090 e23d 3f3b 03bd 7a05 ef3d f3b8 c73b
000001e0: ad07 5d3d a21f 0e3d 1ce6 3ebd b6cf b13d
000001f0: 72fe 02bd b534 ab3c 120b b8bd 411e 8e3d
00000200: defb 82bd 4323 a3bd c1b0 acbd 666f ad3d
00000210: 8a48 84bd 0a10 7a3c ee08 b73d ecab 2abd
00000220: ad35 7abd 2edb 493b 1477 3cbd 74c3 adbd
00000230: 50dd 32bd c471 b7bd f37d e0bd d245 86bd
00000240: 2561 9f3d f6c9 ca3d 84f0 453b 181e 6f3d
00000250: 2638 893d 30a3 873d ffc7 1cbc 33bb e4bd
00000260: d242 973c 0c3b cfbd 80de e3bd 28fe 293c
00000270: 72df 353c 292c df3c 7021 b03d 2dd2 edbd
00000280: 1230 69bd eb3b a9bd ced8 b43c 2703 ed3d
00000290: 8d2a 6cbd 2a39 5cbc 088c b8bd ead3 7d3d
000002a0: a772 2dbd 525a d73d a54a d33d 5e63 c0bd
000002b0: 7ad2 be3d f996 503d 6f9e afbd 5c36 d33d
000002c0: 98c2 643b 2afd bdbd ca8e d4bd 4727 b0bc
000002d0: 9a35 323d a6b7 05bb 065b 653d d657 233b
000002e0: a481 bfbd ea5c 78bc 91cf ed3c 9643 1f3d
000002f0: 7ae9 183d 6634 dfbc 6c2b 333d 36c4 a13d
00000300: 3121 dd3b 7a10 963d e258 c6bd 2cc0 eebc
00000310: da2c 5a3d e237 cabd 1658 1cbd efd0 c9bd
00000320: 71c0 47bd bcd7 e73d 0d3e dcbd 2cc3 aa3c
00000330: ea8f c23d 1acc 5dbd ca99 df3d b076 04bc
00000340: 3332 e2bc f4a9 803d 733c 87bc 2896 373d
00000350: bcb4 f43d fc8a c2bd 656e a33c 8e50 87ba
00000360: 1cd1 b93d acfc 303d 79da 773d 303e b83d
00000370: 2237 98bd 6c12 3dbd 1607 ebbc 4871 c6bd
00000380: 7e76 3f3d 40fb cbbd 9148 54b9 47cc e93d
00000390: 84d8 0ebc d1eb 85ba d94c 97bc fdc1 b8bd
000003a0: 7445 b33d 1734 693d 06eb b63d 7876 aebd
000003b0: 8cfd afbd a29f ec3d 24cb 43bd 5c9f 843a
000003c0: 4e5e c3bd b43e f6bd 9653 e83d c2f6 cb3d
000003d0: b4c4 f23c 5505 ee3d 4262 e73d 0354 953d
000003e0: b899 8dbd 0df4 00bd 16dc fabc 3dc3 46bd
000003f0: 2c9e 32bd d690 a83d 2650 2b3c 002c b13a
-0.046590947 -0.09398593 0.04552578 0.04453649 -0.027474321 -0.007832635 0.07004154 -0.11054762
-0.007221332 0.094182596 0.11510399 0.069532946 0.0024982588 0.03626013 -0.024560425 -0.10581696
0.010384206 -0.0031550871 0.04940943 0.057569407 -0.040171653 0.07070784 -0.09693517 0.020387739
0.046020813 0.096066214 -0.06769493 -0.103323184 -0.041711792 -0.056913745 0.063111566 -0.009054972
-0.052791294 0.055979673 0.11478573 0.11527665 0.056138106 0.10692263 -0.047016874 0.095309064
-8.31333e-05 0.016179679 0.039665192 -0.09378829 0.03816843 -0.0023335475 -0.012479881 -0.024437249
0.01927772 0.016121797 0.103655696 -0.083862916 -0.015870951 0.111209676 -0.09508964 -0.08899666
0.121423095 -0.02351975 0.0566867 -0.048674367 0.046285402 0.060126718 -0.081478536 -0.054592114
-0.05431095 0.08924668 0.04525505 -0.06034608 0.055887923 -0.12543707 0.00984958 0.016190175
-0.02670498 0.11132075 0.101607524 0.1151571 0.11544227 0.07453029 -0.08531909 -0.04935929
0.00045630708 -0.00016308189 -0.021687446 -0.109824166 -0.008874675 -0.0074067144 0.11238925 -0.0056271832
0.014219215 -0.03221888 -0.035045095 0.041064747 -0.033032954 0.0606108 -0.04828082 -0.10545127
0.08317833 0.10716601 -0.09147854 0.023645641 -0.07518026 -0.07423625 -0.0912167 0.071873605
-0.089185044 0.066482484 -0.026557788 -0.063864306 0.11096993 -0.08374418 0.0008398728 0.1044936
-0.11591604 -0.09557402 0.02444521 0.12217869 0.11062789 -0.032038923 0.116709664 0.0060950457
0.0539624 0.034698136 -0.04660617 0.08682196 -0.03198094 0.020899156 -0.089864865 0.06939364
-0.06395696 -0.0796571 -0.08432151 0.08468513 -0.06459148 0.015262613 0.0893725 -0.041667864
-0.061086345 0.0030800807 -0.046012 -0.08484545 -0.04366809 -0.08957246 -0.10961523 -0.06556286
0.07782201 0.09901802 0.0030203173 0.05837831 0.067001626 0.066229224 -0.009569167 -0.11168518
0.01846448 -0.10118684 -0.11126423 0.010375537 0.011100637 0.027242737 0.08600128 -0.116123535
-0.05693061 -0.082633816 0.022076037 0.11572867 -0.057657767 -0.013441363 -0.09011084 0.061969675
-0.04234567 0.10515274 0.10316972 -0.09393953 0.09317489 0.05092523 -0.08575141 0.103131026
0.0034906026 -0.09276803 -0.10378797 -0.021503104 0.04350815 -0.0020403652 0.05599501 0.002492418
-0.09350899 -0.015158871 0.02902964 0.038882814 0.037332036 -0.027246665 0.043742582 0.078987524
0.0067483415 0.073273614 -0.09684922 -0.029144369 0.05326543 -0.0987394 -0.038169943 -0.09854304
-0.04876751 0.11320445 -0.10754023 0.020845018 0.09500106 -0.054149725 0.10918005 -0.008084938
-0.027611827 0.06282416 -0.016508317 0.044820935 0.11948535 -0.094991654 0.019950101 -0.001032369
0.090730876 0.043209717 0.060511086 0.08996236 -0.07432391 -0.046160147 -0.028689902 -0.096895754
0.046743862 -0.099600315 -0.00020244929 0.11415916 -0.008718614 -0.0010217373 -0.018469261 -0.09021375
0.087534815 0.056934442 0.08931546 -0.0851869 -0.08593282 0.11553885 -0.047801152 0.0010118294
-0.095394716 -0.120236784 0.11344068 0.09959175 0.029634811 0.11622111 0.11298038 0.072914146
-0.06914085 -0.031482745 -0.030622523 -0.048526037 -0.043607876 0.0823075 0.010456121 0.0013517141

net.0.bias f4 [256]
00000000: bc1e 0f3c 7a63 4fbc d875 c13c 118b f83c
00000010: d841 123c 9587 dc3c 16ee 89bc 7aa7 cfbc
00000020: 68db cc3b 042e f8bb 25d3 06bd c6b9 a13c
00000030: 4f39 d5bc 62b7 0bbd 7ed6 5dbc ba2e 8b3c
00000040: 5884 14bc 6185 1f3c 8833 043d 5998 523c
00000050: aaa7 e2bb d802 1c3c a498 593d 8254 9bbb
00000060: 84a2 983c a217 013c 7e9b 86bc c602 363c
00000070: 20a1 fb3c 846b 1d3c 8e99 fdbc 9ffe ba3d
00000080: 1405 2bbc 389c 15bc 94e3 f7bb fc8e 553c
00000090: 04a9 76bc e5b8 38bc 26cf 8a3c 2616 c2bc
000000a0: 9079 ca3b 2a6a 42bd dfc2 993b a680 653c
000000b0: cdfb 17b9 e9b0 c3bc 0cbc ae3c 741f 68bc
000000c0: 3618 b03a c04f 0abd bce2 4b3d d64b 073d
000000d0: a8ac a7bc 986b 6f3c 6a8c dabc 4b32 223c
000000e0: b2c3 97bb 9074 33bd 48ec 253c bc86 dabc
000000f0: 420c 373d 00fa 7dbd d030 ce3c 3090 813c
00000100: 0bf6 70bc da74 9fba e48a a03d 8a97 6ebc
00000110: 1182 b4bc c403 f2bc 5986 9c3c d3e5 983a
00000120: 00fb 603b 07cc e4bc 7e54 853d 58ab 413c
00000130: 2c56 133d 186e f0bc 28c5 213d 6a27 a93d
00000140: d6e4 6b3d 75bd 99bc 5e6f f6bb 3f03 353d
00000150: 8599 93bc a815 06bc a859 823c 315d 2dbb
00000160: 2cbd 82bc 3245 5ebc ac8e 7abb dee7 0f3c
00000170: f927 f73c bebf 39bc 64d5 8cbc 40f2 983d
00000180: 84d1 b13b 3add 813b 1547 963c 2a7a c23b
00000190: 8a40 693d 69b8 b63b 6adf 93bc 668c 5abc
000001a0: eef5 91bb 2f0d 9e3d d82b 433c 925c 4dbb
000001b0: bf19 d93c 836c 1e3d 18ec adbc ea88 303d
000001c0: 2a59 c23c 9039 4c3d 960b 813c 726e 24bd
000001d0: 60f6 16bd 78ca 563a 61ee 8fbc f7b7 013d
000001e0: c4ed 8a3c 24e5 91bc 16b6 cc3c e997 c9bc
000001f0: 7d41 d83c e88c 793d 5bc9 bb3c 6a5e 023d
00000200: 1b38 b93c 2a98 693d a4e7 db3b 327c bfbb
00000210: a2bc 483d f254 dbbb 5ed9 503d 3884 ba3c
00000220: 8cac ddbb 7551 13bd b88a c7bc 6603 16bc
00000230: 1b9f da3c 66d6 df3c e656 53bc 8851 5a3d
00000240: 06e0 1ebd 66a1 0b3d 5e42 553c ba38 353d
00000250: 1834 6fbb 1fbf 2b3d 2e71 90bb 2a64 3fbb
00000260: cdf1 57bd 3939 2f3c 7c58 cebc 8620 9b3b
00000270: 6d6c 41bc 78dc 84bc 1880 1abb ecf3 943c
00000280: cb0e 4f3c aa13 2bbc cc9f 8e3d 78f3 b4bc
00000290: 3ba0 1db9 ec69 fb3c 7281 653d c4de 69ba
000002a0: c60e d2bc 1a98 45bc de4c 423d 6aed 46bd
000002b0: 560f 77bc b767 e33a 5f7a 16bb 25f4 e23c
000002c0: 5877 a838 41d8 2e3d c7af febc 2a35 57bc
000002d0: 0fb7 763d 88dd 2d3d 943f 9e3c e1e0 0d3d
000002e0: e6b5 97bb acca 4abc 809f 00bd b00c c33b
000002f0: d11b 323c d592 c6bc 6008 82bc 18ed 9ebc
00000300: 68ea 103d ff25 54bd f462 2cbb aabf 973b
00000310: f220 093a 9a7c eb3b 0508 7bbb f0a9 cd3b
00000320: 98c2 2e3d 4cc9 d1bc bc1d 9bbc ccdd b43c
00000330: bd7a 2a3d 3bd2 92bc 3ef3 29bd bd43 dcbc
00000340: 113a 153d d390 063b a122 a83c 34b1 87bc
00000350: add4 5cbc 805a 5fbc 863c 17bc 0874 ccbc
00000360: 9aa6 fe3c c251 e73c 245e f53d 625e db3b
00000370: 42fa 273d 567c c3bc a70d 29bd b1f7 9abc
00000380: 3d98 80bc 1466 24bc d0d5 413d 6bbd 4d3c
00000390: 5e4f 3abd 2028 8639 0295 b0ba 4cc0 11bd
000003a0: d2e4 a33d 26ba 5e3c 0a07 c2bb 0402 16bc
000003b0: f4dd 04bc 320e 8cbb 9301 f93b 53ba 19bd
000003c0: 1491 2c3d 6e4b 78bc 341a b5bc 8f16 27bc
000003d0: 896d a23c d82f 6cbc 2429 b2bc 28b1 3e3d
000003e0: dc48 0f3c e79d 46bd afb1 52bd 59a8 2f3d
000003f0: ca28 8a3c dc67 24bd 7496 45bc 4499 b73c
0.008735355 -0.012657994 0.023615763 0.03033975 0.008926831 0.02692012 -0.016837161 -0.025348414
0.006251741 -0.007573845 -0.032916207 0.019741904 -0.026028303 -0.034110434 -0.013539908 0.016990054
-0.009064756 0.00973639 0.032275707 0.012853705 -0.00691696 0.009522162 0.053124085 -0.0047402987
0.018632181 0.00787917 -0.016431566 0.01110906 0.030716479 0.009608153 -0.03095701 0.09130596
-0.010438222 -0.009131484 -0.007564971 0.013034578 -0.015054945 -0.011274551 0.01694448 -0.023692202
0.006179042 -0.047464527 0.00469242 0.014007723 -0.00014494285 -0.023888068 0.021329902 -0.014167655
0.001343495 -0.03376746 0.049776778 0.033031307 -0.020468071 0.014613055 -0.026678283 0.009899686
-0.004631483 -0.043812335 0.010127135 -0.026675574 0.044689424 -0.062005997 0.02516976 0.015815824
-0.014707099 -0.0012165562 0.07838991 -0.014562497 -0.022034677 -0.029542811 0.01910703 0.0011665173
0.0034329295 -0.02792932 0.06510256 0.011820637 0.03597085 -0.029349372 0.039494663 0.08259471
0.05759128 -0.018767098 -0.0075206 0.04419255 -0.01801754 -0.008183874 0.015911892 -0.0026453251
-0.015959345 -0.013566302 -0.0038232012 0.008783309 0.030170428 -0.011337219 -0.017191596 0.074680805
0.0054265875 0.00396314 0.018344441 0.0059349732 0.056946315 0.0055761826 -0.018050868 -0.013339138
-0.004454366 0.07717358 0.011912309 -0.0031335694 0.026501535 0.038677704 -0.021230742 0.04309932
0.023724157 0.049859583 0.015752595 -0.04014439 -0.036856055 0.00081936223 -0.017569723 0.031669583
0.016959079 -0.017809458 0.02498917 -0.02460857 0.026398415 0.060925394 0.022923162 0.03182832
0.022609761 0.05702988 0.0067109633 -0.0058436627 0.04900802 -0.006693476 0.050988548 0.022768125
-0.006764954 -0.035966355 -0.024358138 -0.009156084 0.026687196 0.027323913 -0.012899136 0.05330041
-0.038787864 0.03408947 0.013016311 0.04424355 -0.0036499556 0.041930314 -0.0044080233 -0.002920399
-0.052720834 0.010694795 -0.025188677 0.0047341017 -0.011805636 -0.016218409 -0.0023574885 0.018182717
0.012637804 -0.0104417 0.069640726 -0.022088751 -0.00015032377 0.030690156 0.05603165 -0.00089214393
-0.02564181 -0.01206019 0.047436588 -0.04856626 -0.01507934 0.0017349635 -0.0022961122 0.027704308
8.033094e-05 0.042686705 -0.031089677 -0.013135234 0.060233172 0.042447597 0.019317426 0.03463829
-0.0046298383 -0.012377422 -0.03140211 0.00595244 0.01087089 -0.024239937 -0.015873134 -0.019400164
0.035379797 -0.05179405 -0.0026304098 0.0046310024 0.00052310445 0.0071864845 -0.003830434 0.0062763616
0.042666048 -0.025608681 -0.018935077 0.022078417 0.04162096 -0.017922511 -0.04149174 -0.026887769
0.03643233 0.00205331 0.020524325 -0.01656399 -0.01347844 -0.013632417 -0.0092307385 -0.024957672
0.031085301 0.028237227 0.119808465 0.006694601 0.04101015 -0.023862999 -0.041272786 -0.018916937
-0.015697593 -0.010034103 0.047323048 0.012557368 -0.045485847 0.00025588367 -0.0013472142 -0.03558378
0.080026284 0.013594186 -0.0059212493 -0.009155754 -0.008109558 -0.004274153 0.0075990646 -0.03753121
0.042130545 -0.015154703 -0.022107221 -0.0101982495 0.019827621 -0.014415704 -0.021748133 0.046555668
0.008745398 -0.04849043 -0.051438984 0.04288516 0.016865153 -0.04013811 -0.012059797 0.02241195

net.2.weight f4 [32, 256]
00000000: c471 463c f4f9 863c fc79 c73d 3040 e3bc
00000010: 9e2d 81bd d1b0 09bd b022 4f3d fc19 06bd
00000020: 7810 a5bd c2ac 4fbc 1a79 473d ffb3 8d3d
00000030: 8238 eebd 9e82 e1ba 649f 7ebd ca3e 54bd
00000040: 867b ddbd 52c3 c5bd e9c4 e5bd 063d cdbd
00000050: ecd1 10be c4b4 1c3d b6c1 11be 00e9 3abc
00000060: 18b5 a0bd 822a 3ebd 08a8 92bd 20a1 f93d
00000070: d9d7 33bd 6ae5 d63d 7e42 09bc a090 45bd
00000080: 057f 363d 9b73 593d aa95 00be 0e0a 17bb
00000090: 93b1 90bd 4395 f93c eeb4 853d d912 0f3e
000000a0: 7c08 e8bd 2c38 523c 06bc 5cbd 843a 7d3c
000000b0: 4417 043e 6c68 833d 7c0f f9bc 1239 0d3e
000000c0: aa99 863d 769b 8dbd 285a fcbc af82 be3d
000000d0: 86e2 61bd 0ed5 59ba 46a1 013e 1059 3cbc
000000e0: 867c 06be 3674 523d 5f3f 9b3d a09a 043d
000000f0: c2bf 0d3c 0d70 033d a902 e23c 2849 d13d
00000100: 1102 e7bd a529 c7bc 5fa0 c8bd 041b 063e
00000110: e98f 003e 7cb8 02be 045e c4bd 2c7d 9dbc
00000120: 3c0f 50bd b60a 573d f2be 63bd 9dd1 963d
00000130: 84ff bd3d d7af 8e3d 04fd 933d 9c2a ef3d
00000140: 0a40 163d 3c57 b2bd be59 903d 94c2 223b
00000150: 48a8 0fbd f3e0 143c d88e 4abd 081c b6bd
00000160: d41f d5bd 1e0f 0c3e baf1 813d 94e5 10bd
00000170: acda d0bb b606 9bbd 60ee a03d 61b7 2f3c
00000180: ca66 c03c d89d d3bd 2826 483d 24ca 573a
00000190: 1263 8bbd de26 15bd 365a debd 4234 933d
000001a0: 145f 9e3c 7975 52bc 7f55 bcbc 0011 f5bd
000001b0: c208 16be f6d4 bfbd 381e 14bc fee0 983d
000001c0: eb70 debd deaa e83d 8752 77bd 204e c93d
000001d0: 8460 863d 7a56 38bd d07e e5bd ba7b af3c
000001e0: a944 d23d cc61 463d 306f a03c 6ef1 97bd
000001f0: f028 88bc 0190 093d 8264 ffbd 3e10 083e
00000200: 633b c93a 2378 ec3d b0c3 b63d 625c abbd
00000210: c8c7 033e 3df8 fabd c2f1 c63d be97 5fbc
00000220: aeab 6b3d 2501 8e3b 9a55 79bd 8652 dcbd
00000230: 3655 b9b9 ba13 0fbe 4146 b3bd 4c9e 373d
00000240: 602d 953d 9794 cc3c a0d4 30bd 76c4 723c
00000250: c64e 1d3e 4a54 803c 5ca7 a33d 0083 7dbd
00000260: 38d6 9f3d 8ce2 32bd e1f1 d3bd 26e1 c03c
00000270: 42e3 e63d 24be 013e 1e0e bf3d f8df 033c
00000280: 9840 de3d 316b 56bd 5933 0fbe 4e0a a9bd
00000290: 5a96 c4bd d284 5abd 2002 99bd ecb5 0cbe
000002a0: a698 933d 12d9 84bd ecd6 543d 9303 0ebd
000002b0: 8ad0 35b9 2e86 833d 182d ffbc 8286 bdbd
000002c0: c9f6 e93d 4768 05be 8bae 0c3e 3f88 e93c
000002d0: ae13 223d ebe6 e8bd bc1d dfbd ddb9 5abc
000002e0: a043 963d 004c 213d 70ef 003d a8e0 c4bc
000002f0: b4c8 66bc 2a69 a4bc 2aee 073e 822d 46bc
00000300: c098 003e 55b2 8b3d 48e2 68bd b440 abbd
00000310: f403 b63d aa31 0abe 55a7 1c3d 4749 76bc
00000320: 0d10 303d 9e3d 803d 6c59 de3d 6de2 c1bd
00000330: c78d 0dbc e98b a8bd 5077 d33d df45 0dbe
00000340: 0cb9 b03d 1aa2 0ebe 42db 02be 3039 a0bc
00000350: 22c4 80bd be40 1cbd 86c4 1e3d 2eb4 adbc
00000360: 4e0f cc3c 5009 e43d e18e 953c d0af 6dbd
00000370: 64c8 04be 7b8d f03c 3b4d e73d 24c0 213d
00000380: 5f07 08bd ba18 9d3b 3aa9 a33c 74e5 fd3d
00000390: 6a09 5e3c 4ab6 d53d 20f6 afbd 101d e3bd
000003a0: 8262 12be fa40 273d dc4e 783d 56ad f6bc
000003b0: 5890 f4bd 8859 aabc a645 e9bd 9e30 dbbd
000003c0: 7c42 f1bd 484e c5bc e083 b33d 9d26 3abc
000003d0: 4318 06be 486c fabd 06c0 dabc 98ba fb3d
000003e0: 1f00 74bc 9c29 a83d 801e a53d 6ab8 d23d
000003f0: 5262 dbbc 23d5 003e 09de ab3d 0cca 06be
0.012112085 0.016476609 0.097400635 -0.027740568 -0.06307529 -0.03361589 0.05057019 -0.032739624
-0.08059782 -0.012675466 0.048699476 0.06919097 -0.11631872 -0.0017205065 -0.062163725 -0.051817693
-0.10814576 -0.09656395 -0.11219198 -0.10021405 -0.14142579 0.03825833 -0.14234051 -0.011408091
-0.07847041 -0.046427257 -0.07160956 0.12188935 -0.04390702 0.10492976 -0.008377669 -0.04823363
0.04455473 0.053088766 -0.12557092 -0.0023046765 -0.070651196 0.030466681 0.0652865 0.13972034
-0.11329743 0.012830775 -0.05389025 0.015455846 0.128995 0.06416401 -0.030402891 0.13791302
0.06572278 -0.069144174 -0.030804709 0.0930227 -0.05514767 -0.00083096407 0.12659177 -0.0114958435
-0.1313344 0.05138036 0.075804465 0.032374024 0.008651676 0.03208928 0.02758916 0.102190316
-0.11279691 -0.02431185 -0.09796213 0.13096243 0.12554897 -0.12765688 -0.095882446 -0.019224726
-0.05079578 0.05250045 -0.05560202 0.07364199 0.09277251 0.069671325 0.07225993 0.11678049
0.036682166 -0.08708045 0.07048367 0.0024835216 -0.035072595 0.009086835 -0.049452633 -0.08892065
-0.10406461 0.13677642 0.06344934 -0.035375193 -0.006373724 -0.075696394 0.078579664 0.010724873
0.023486514 -0.10332841 0.048864514 0.00082317204 -0.068060055 -0.03641402 -0.1085705 0.07187702
0.019332446 -0.0128453905 -0.022989986 -0.11966133 -0.14651778 -0.09366791 -0.009040408 0.07464789
-0.10861381 0.11360715 -0.06038144 0.09829354 0.06561378 -0.045004345 -0.11205828 0.021421302
0.10267002 0.04843311 0.019584268 -0.07419096 -0.016621083 0.0335846 -0.12470342 0.13287446
0.0015352782 0.11546352 0.08924043 -0.0836723 0.12869179 -0.12254379 0.097140804 -0.013647018
0.057536773 0.0043336325 -0.06087265 -0.107579276 -0.00035349437 -0.13972369 -0.08753634 0.044828698
0.07284045 0.024973197 -0.043171525 0.014817348 0.15362081 0.015665192 0.07990906 -0.06189251
0.07804531 -0.043673083 -0.10348869 0.02354486 0.11273815 0.12670189 0.093288645 0.008049004
0.10852164 -0.05234832 -0.13984431 -0.082539186 -0.0959899 -0.053349324 -0.074711084 -0.13741273
0.0720685 -0.064867154 0.051962778 -0.034671377 -0.00017339192 0.06422077 -0.031149432 -0.09254171
0.11424024 -0.1302806 0.13738458 0.02850735 0.03956955 -0.11372169 -0.10894343 -0.013349977
0.07337117 0.03937912 0.031478345 -0.024032906 -0.014085937 -0.020069677 0.13274446 -0.012095811
0.1255827 0.068211235 -0.056856424 -0.083619505 0.08887473 -0.13495508 0.038245518 -0.015032119
0.042984057 0.062617525 0.108568996 -0.094670154 -0.008639759 -0.08229811 0.103254914 -0.13796185
0.08629045 -0.13929024 -0.12778953 -0.01955852 -0.06287409 -0.03814768 0.038761638 -0.02120408
0.024909642 0.11134589 0.018256607 -0.058028996 -0.12967068 0.029364338 0.112940274 0.03948988
-0.033210155 0.0047942074 0.019978154 0.1239728 0.013552049 0.104351595 -0.085918665 -0.110895276
-0.1429539 0.04083345 0.06062208 -0.03011195 -0.11941594 -0.020794645 -0.113902375 -0.10702632
-0.11780259 -0.024085179 0.087653875 -0.011361745 -0.13095193 -0.12227684 -0.026702892 0.12291449
-0.014892607 0.08211061 0.08062458 0.102890804 -0.026780281 0.12581305 0.08391959 -0.13163012

net.2.bias f4 [32]
00000000: 320d 5fbd 5ab1 fb3c 51bd c5bd fa9c 79bc
00000010: aca2 b4bd 61d6 c5ba 0230 c7bc a986 64bc
00000020: 46a2 41bc 1014 10bc 8f9e bebc 542c 8ebc
00000030: fe4e 33bd f003 8f3c da79 76bd 5a0d 2cbc
00000040: 06c7 fcbc 132b efbc b062 423c 7a6f 80bc
00000050: bfbc 07bc 72fd 1a3d 8b19 65bd 6ed3 a4bc
00000060: f4ab 8ebc 52c1 c1bc a8fd 08bd 2406 09bd
00000070: a935 42bd ba2c 223d ee0a 79bc 28a1 dd3d
-0.054455943 0.030724216 -0.0965525 -0.01523518 -0.0882009 -0.0015093797 -0.024314884 -0.013948121
-0.011818474 -0.008793846 -0.023268966 -0.017355122 -0.043776505 0.017457932 -0.0601748 -0.01050123
-0.03085662 -0.029195344 0.011864349 -0.015678156 -0.008284747 0.03783936 -0.055932563 -0.020120349
-0.017415978 -0.023651753 -0.03344503 -0.03345312 -0.047414456 0.039593436 -0.01520036 0.10821754

net.4.weight f4 [32, 32]
00000000: 346c 453d 8a0f a63d 6a3f 6b3e f6f6 6d3e
00000010: 19f8 5e3d 96ed 0d3e 0001 09be 4200 0e3e
00000020: 0ea6 6cbe daec 1d3e aed7 77bd 6746 023e
00000030: e3f1 d8bd e298 203d 4033 e23d 199f 9cbe
00000040: fe74 94be 66ba 623e 1a88 783e 0eb1 8bbe
00000050: 855d 89be 42ff 833e 2cf7 693d 3863 9b3d
00000060: 00af 713e 751b 77bd 6ee0 223e 08fc 243e
00000070: 22a1 40be 5311 a6bd 04ad 923e eae5 81bd
00000080: e0bf 54be c27b 143d 3aca 9a3e e8a1 acbd
00000090: 9c6a 063e 26ab 89be d91f 933d 3c05 013d
000000a0: a2df afbd f813 10be 2c87 933e 1c0f 59bc
000000b0: 4918 75bc e8fe 013e 8c48 91be a01a 09ba
000000c0: 3b1a 05bb d0c3 d0bd dc5e 04be 22cd 12be
000000d0: 6034 32be fe55 8fbe 8ad3 033d a9bb 623e
000000e0: fa12 ccbb c08a 5a3e ea84 a6bd 86a3 813e
000000f0: 3d2e 85be b195 22be 1686 613e 08ab 03be
00000100: 7a74 473e dcb4 a73d 272b 9bbe 6d4c f93c
00000110: c89b 9bbe 5512 813e fc7a eabd 5460 713e
00000120: d25e 1bbd bea1 e1bc 765d 87be e414 8dbe
00000130: 56db 2abe 33e8 453d d6e6 d6b9 c6eb 5cbe
00000140: d3f2 55bc 6e34 e0bd e418 4abe cc9e 853e
00000150: d006 b9bd d688 b1bd 0718 0b3e 341f 51bd
00000160: f69f 8bbe 16fa b5bd 1e7f 34bd 3cfa 603d
00000170: e282 2abe bf06 473d bb9c cb3d ee5e 7dbe
00000180: 3e28 713e 70e6 3dbe 19b6 46be 1321 04bd
00000190: 9468 8bbe 278e 8c3e 944d 27be 4265 433d
000001a0: a4d7 843e 52d0 a43e ff14 e23d ec73 62be
000001b0: c4b9 423e aa1c 97be 0654 8e3e 9446 c5bd
000001c0: 78ad 38be ec4b 01be 6bae d6bd 33aa b43d
000001d0: ccfd 003e f426 4b3e a236 49bd f27c 503e
000001e0: e908 993e bc96 243e a666 33be c403 643e
000001f0: db97 43bc df58 3d3d 62a4 003e 84b8 13bb
00000200: a21a f23d 5e17 f2bd c28e fd3d c327 dc3c
00000210: d2a4 883e 41a8 7a3e 644f 5cbe c488 81bb
00000220: 36a1 cdbd 1a09 98be ce5b f6bd 04e7 6a3d
00000230: b029 0dbe 3a78 45bd 40dc 40be e203 a33d
00000240: eeb7 1e3e 3790 343e 30ab 623b 763b dfbd
00000250: 85ef 56bd 0508 04be 0e18 b7bd 5cba 963e
00000260: 7dc3 2e3e 42cd 95be 48fa 553e aa7c 933e
00000270: 28e3 b7bd b9d5 55be a97d 1cbd 5819 0fbe
00000280: 0c09 10be 729c 9e3e b1c2 483e 34c5 19be
00000290: 38b1 6ebe 3d59 8dbe bedd 8e3e 8475 26be
000002a0: 0c8b 173e f24a 523e 7846 b03d dcba 71bd
000002b0: ae35 5f3e 5d10 38bd 7676 2e3e f6ee 42be
000002c0: ef7e 423e 3656 97bd 3a5a 1d3e 348e 993e
000002d0: 0b88 763d 99c2 ffbd 20ac 233e 9ff9 473e
000002e0: 3cb5 013d 8857 47be aef1 37be c627 063a
000002f0: 6664 cdbd a6e5 1c3d bcad 753b 1c94 153e
00000300: e628 2bbe 72dd 233e ba4a 32be abd0 5dbe
00000310: 8595 d33d f02f 5fbe 6b21 72be 3c07 f6bd
00000320: f8e4 5c3e c229 cdbc 51d5 9b3d f68a a0bd
00000330: f42f 85be a0f4 783b fb3f 6cbe a496 983d
00000340: f1d0 dc3d 9cad ecbd e120 f03d aaed f6bd
00000350: 85f7 3fbe 01a1 12be fa88 13be 9af5 223e
00000360: 8a91 6f3e 8a3f 52bd 811e c8bc 7266 5fbe
00000370: ff89 5e3d ccc9 0cbe faa6 8abe 9a5d 903e
00000380: 7f48 4d3e 7519 af3d 7ebb 54be e259 913e
00000390: 7760 11bc 9d3e 18be 8acf 093e 1824 563e
000003a0: e044 623d 3654 873e f039 6bbe 4963 e03c
000003b0: 7246 94bc f44d 9c3d 44a1 56ba 122e 363c
000003c0: 2478 36be be1d a73c 3168 14be d57f 8fbd
000003d0: 4886 8abe 6287 963c c09b 013e e667 cb3c
000003e0: e67f bebd f8d5 56be b442 43be 5bce a3bd
000003f0: 76ea 2d3d f6e9 30be 100f a0bd 6284 28be
0.048198894 0.081084326 0.2297341 0.2323874 0.054435823 0.13860163 -0.13379288 0.13867286
-0.2311022 0.15422383 -0.060508423 0.12722169 -0.10593011 0.0392083 0.110449314 -0.30590132
-0.28995508 0.22141418 0.24270669 -0.2728352 -0.26829162 0.25780684 0.057120487 0.07587284
0.23601913 -0.06032892 0.15905926 0.16111767 -0.18811467 -0.08108773 0.28647625 -0.06342681
-0.2077632 0.036250837 0.30232412 -0.08429319 0.13126606 -0.26888388 0.07183809 0.031499133
-0.085875764 -0.14070117 0.28814065 -0.013248231 -0.014959403 0.12694895 -0.2837566 -0.00052301027
-0.0020309824 -0.10193598 -0.12926811 -0.14336064 -0.17402792 -0.27995294 0.03218416 0.22141899
-0.006227848 0.21341991 -0.0813082 0.2532007 -0.2601184 -0.15877415 0.22023806 -0.12858212
0.19478026 0.08188793 -0.3030636 0.03043195 -0.3039229 0.252093 -0.11449239 0.23571903
-0.037932225 -0.027542945 -0.26438493 -0.27555 -0.16685233 0.048317146 -0.00040989247 -0.21574315
-0.013058382 -0.109475 -0.19736058 0.26097715 -0.090345025 -0.086686775 0.13583384 -0.05105515
-0.27270478 -0.08885591 -0.04406654 0.054926142 -0.1665149 0.048590418 0.09942003 -0.24743244
0.23550507 -0.18544936 -0.19405402 -0.032258105 -0.27228224 0.27452204 -0.16338187 0.04770399
0.2594577 0.32190186 0.11039161 -0.22114533 0.19016176 -0.29514056 0.2779848 -0.09632602
-0.18034923 -0.12626618 -0.10482486 0.088215254 0.12596816 0.19839078 -0.049124368 0.20360163
0.2988961 0.16073126 -0.17519626 0.22267061 -0.011938061 0.046227332 0.12562707 -0.00225404
0.11821486 -0.11820863 0.123807445 0.026874429 0.26688248 0.24478246 -0.2151466 -0.0039530713
-0.10040514 -0.29694444 -0.12029229 0.05734922 -0.13785434 -0.04821036 -0.18834019 0.07959725
0.15499851 0.17633139 0.00345869 -0.10900013 -0.052474517 -0.12893684 -0.08940135 0.29439056
0.1706676 -0.29258162 0.20896256 0.2880605 -0.089788735 -0.2088231 -0.038205776 -0.13974512
-0.14065951 0.30978733 0.19605519 -0.15016633 -0.23309791 -0.27607146 0.2790355 -0.16255766
0.14799136 0.20536402 0.08607191 -0.059016094 0.21797821 -0.04493748 0.17037377 -0.19036469
0.18993734 -0.0738949 0.1536645 0.29991305 0.060188334 -0.124882884 0.15983629 0.19528817
0.03166698 -0.19466984 -0.17963287 0.0005117621 -0.10028915 0.038304947 0.0037487587 0.1460728
-0.1671482 0.16002443 -0.17411318 -0.21661632 0.10331253 -0.2179563 -0.2364556 -0.120130986
0.2157172 -0.025044326 0.07609046 -0.07839005 -0.26013148 0.0037987605 -0.23071282 0.074506074
0.1078204 -0.11556551 0.11725021 -0.120570496 -0.18746765 -0.1431923 -0.14407721 0.15914002
0.23395362 -0.051330127 -0.024428608 -0.21816424 0.054330822 -0.13748854 -0.27080518 0.28196412
0.20047186 0.085497774 -0.20774648 0.28388888 -0.008873097 -0.14867635 0.13458076 0.20912206
0.055241466 0.26431435 -0.2297132 0.027391093 -0.018099997 0.07632056 -0.00081874826 0.011119382
-0.17819268 0.020399924 -0.14492871 -0.07006804 -0.27055573 0.018375102 0.1265707 0.024829816
-0.093017384 -0.2098006 -0.19068414 -0.079983436 0.042459927 -0.17276749 -0.07815373 -0.1645675

net.4.bias f4 [32]
00000000: 72f3 b13c dcfb 163c 3e11 453c e8ef 8f3c
00000010: 022c 883b 488d 9a3c 1d92 053d 8c3a 95bc
00000020: 5ab6 d13c 631b e7bc f052 c23b a663 95bc
00000030: b8bd a1bc fa8f 8c3d 82b9 4e3c a6d7 773c
00000040: 9ebf d3bc d78e 613c 82f7 0fbd b61a 3b3c
00000050: a744 98bc aedc 3f3c 1883 a73c ae63 bd3c
00000060: 8287 42bb 0f9d 813c 7ffa f5bc aa8c e13b
00000070: 08d1 0a3c c4cf dbbc 5aee 3b3d eaa1 70bc
0.02172253 0.009215321 0.012028037 0.01757045 0.0041556368 0.018866196 0.032610048 -0.018216394
0.025599647 -0.028211301 0.005930297 -0.018235993 -0.019743785 0.06863399 0.012617471 0.015127098
-0.025848206 0.013766966 -0.03514815 0.011419943 -0.018587423 0.011710329 0.020448253 0.02311882
-0.002968282 0.015821962 -0.030026672 0.0068832235 0.0084726885 -0.026832469 0.045881607 -0.014687041

net.6.weight f4 [1, 32]
00000000: 24f7 febd 1868 abbe 3720 eebd 2842 323d
00000010: 4c81 b53c dcc6 8cbe b63d eebd 7cf1 863e
00000020: d2e4 bebd 6272 873e 7b66 923c 7ad1 ac3e
00000030: a4d9 773e 5441 5d3d 8639 933d d049 0e3d
00000040: be1e b33e 8cc6 3c3c 3022 c83e 9c55 1b3e
00000050: 54c0 3e3e acb5 933e a855 ab3d 58db b53c
00000060: e7c0 af3d 57bf 8cbe a3ab 85be debb 75bd
00000070: 7a32 3ebe 0047 9a3e 4af5 1bbe 57ac 333e
-0.12449482 -0.33477855 -0.11627238 0.043520123 0.02215638 -0.27495468 -0.11632864 0.26356113
-0.09320988 0.26454455 0.017871132 0.33753568 0.24204117 0.05401738 0.07188706 0.03473836
0.34984392 0.011521947 0.39088583 0.15169376 0.18628055 0.28849542 0.08365947 0.022199318
0.08581715 -0.2748973 -0.2610751 -0.059993617 -0.18573943 0.30132294 -0.15230289 0.17546211

exp_avg f4 [256, 120]
00000000: 271e d131 2ba8 1cb1 d797 6db0 a103 b4b0
00000010: 2eef b6b1 a1e8 68b0 a70f 99af ac0f 0c31
00000020: 911c 83b1 f882 a630 c95a cd31 6f32 8aaf
00000030: a120 90b1 e601 3a31 e156 1031 f5b4 1e31
00000040: 82a1 ae30 dfec 88b0 78a7 7f31 7446 1c32
00000050: 3b4b ab31 176f 1131 d695 8b31 cedc 3b32
00000060: f6fa d131 ed63 5132 3dd5 1130 c9f9 80b1
00000070: 5098 0232 9d9b 31b1 f45a 5631 66d6 c2b0
00000080: 1f72 0c32 8d33 5831 c1d4 bd31 60cc a631
00000090: 823f 5531 84e5 4431 d8a3 87b0 b33d 7d32
000000a0: f8c6 2432 df06 c130 2c92 dc30 190c 3430
000000b0: 3178 8f31 92e9 1eb1 30d2 ad2f 2720 c5b1
000000c0: f2d0 2a32 e483 2bb0 a8fe 3bb1 868f 8eb0
000000d0: 6d4f 80b1 3854 1ab1 c33e 02b1 df6e 96b1
000000e0: f5e1 b4af b9ff 22b1 b1fe a9b1 73df 06b1
000000f0: 4a4f 0db0 72fc beb0 d5fc 82b1 d51d 18b0
00000100: adbd 95b0 d773 c331 88ee e931 b18f 96b1
00000110: 0d74 e7b0 faa8 89b1 50ef 0eb2 5a09 6630
00000120: 6b78 9fb0 bd0f e72f bbb8 3cb1 c689 83b0
00000130: 7407 19b1 f518 4e30 421d c1b0 7edf e1b0
00000140: 630b 59b1 fa5b 10b1 3a92 44b1 1438 1eb1
00000150: 34eb 5db1 4871 89b1 7b1d 6a2f 2b79 8eb1
00000160: d1c5 60b1 e48e 3cb1 d59f 09b1 c749 63b1
00000170: da4a 21b1 b6e8 26b1 adeb 66b1 a1fa 60b1
00000180: 1a16 78b1 5489 beb0 f8dd 61b1 7b7c 29b1
00000190: 5ad2 2bb1 c4ff b8b0 1ba7 70b1 1731 c6b0
000001a0: 7e49 8baf 4c7c d430 6717 adb0 de66 36b1
000001b0: 6b0f f7af 76f2 e32f 4da4 d7b0 753b 23b1
000001c0: 384b e7b0 7030 5db1 4ec8 72b1 80cc 8e31
000001d0: dc50 f530 4162 ceb0 7df5 2eb0 e252 c430
000001e0: 3e37 b531 cd51 7f31 ea20 95b0 7598 8a30
000001f0: 8155 f530 cc5b 422f 413f 9a30 210f c531
00000200: 109e 612f 54f3 f1b0 c4dc b3b0 1d74 47b1
00000210: 32c0 93b0 01ed 4f30 2a6b e0af a0ff 53b1
00000220: f632 1431 a456 0aae adea 8bb0 40c1 212f
00000230: 8208 e7b0 3525 56b0 95c8 17b1 36b8 4db1
00000240: edd9 f5b0 b899 3731 180d 8731 b661 fa31
00000250: aa90 ca31 6e66 2c31 5741 a631 4599 23b1
00000260: 842f 122f 03d5 15b1 5ed2 3faf e0b4 b3b0
00000270: 3e29 3b30 c377 512f b11c 2db1 f517 8030
00000280: 7309 2830 178f 0bb1 b37f 71b1 a051 a831
00000290: 7448 77b1 3480 b2af 10ad e6b0 2c41 a231
000002a0: c02f da30 b9cb 84af c4c0 4731 9670 e8b0
000002b0: dec5 d42f d84c baaf b8ef 912f 9436 1e31
000002c0: 2cde 962f d84c 7d30 d6eb c5b0 ad1d 1830
000002d0: 5f3f 10b1 13ed 72b0 4d0c d531 3800 b0b0
000002e0: 4310 31b1 75c0 76b0 74eb 0d32 fe23 a0b0
000002f0: 78fc 9eae cd1a 3331 25ea 0530 ab9f 44b1
00000300: 83a3 0d31 e6ea 0231 4da0 08b1 e2f1 8cb0
00000310: a987 b0b0 8b1b 0db1 b6e2 c830 ef93 93b1
00000320: 3f7e 23b1 e3e0 07b0 66ad dfb0 b7db f3b0
00000330: 9f6f 83b0 4c72 e2b0 159b 70b1 92f0 a2b0
00000340: 3cef dcb0 086d ae2f 7bb8 30b1 ee79 19b1
00000350: a67a 24b1 2d89 00b0 62a3 cab0 c516 fcb0
00000360: e045 c0b0 7461 05b0 766c d12f bf4f e7b0
00000370: f40a 91b0 ea5f dfb0 721f 83b0 99eb 14b1
00000380: 2cbf 91b1 b399 feae 71f5 1831 26f3 3431
00000390: f582 2cb1 b478 fdb0 0743 d030 4612 f92c
000003a0: 17c0 2f31 1c7d 1bb1 09ad 9731 0c3a 5cb1
000003b0: 186b 8cb0 180c eb31 e215 2b31 608b f730
000003c0: 447a 08b2 27a0 8d2f 4c42 f5b0 d2f4 a030
000003d0: 434c de31 dfa1 29b0 e424 9631 2a88 12b1
000003e0: 9b50 a2b0 08b1 23b1 ac85 dab1 d29c a0b0
000003f0: 6556 9331 8afa 77b1 d327 7231 2507 c5b1
6.0861285e-09 -2.279658e-09 -8.6435875e-10 -1.3097755e-09 -5.3240887e-09 -8.4731694e-10 -2.784166e-10 2.038159e-09
-3.8158494e-09 1.2115313e-09 5.9766063e-09 -2.513789e-10 -4.194661e-09 2.7067641e-09 2.1004143e-09 2.3094888e-09
1.270607e-09 -9.962625e-10 3.7202579e-09 9.096414e-09 4.9853077e-09 2.1163424e-09 4.062467e-09 1.0935038e-08
6.1112315e-09 1.2188122e-08 5.305372e-10 -3.7536876e-09 7.601628e-09 -2.5845346e-09 3.11928e-09 -1.4176293e-09
8.175021e-09 3.146144e-09 5.5248113e-09 4.8544706e-09 3.103168e-09 2.8652218e-09 -9.86911e-10 1.4740567e-08
9.591297e-09 1.4044551e-09 1.6048651e-09 6.550081e-10 4.175512e-09 -2.3124795e-09 3.1617864e-10 -5.73711e-09
9.942811e-09 -6.2396865e-10 -2.7356837e-09 -1.0372652e-09 -3.73432e-09 -2.2457822e-09 -1.8953166e-09 -4.378179e-09
-3.2902361e-10 -2.3719464e-09 -4.9475024e-09 -1.9626583e-09 -5.140818e-10 -1.3896069e-09 -3.8122416e-09 -5.533967e-10
-1.0895086e-09 5.6884164e-09 6.8083104e-09 -4.3819104e-09 -1.6840446e-09 -4.006435e-09 -8.319901e-09 8.36868e-10
-1.1602997e-09 4.2029838e-10 -2.7462608e-09 -9.570662e-10 -2.2268667e-09 7.497783e-10 -1.4050914e-09 -1.6434425e-09
-3.1584129e-09 -2.100704e-09 -2.8604874e-09 -2.3023903e-09 -3.229343e-09 -4.0001034e-09 2.129265e-10 -4.146519e-09
-3.2708736e-09 -2.7438825e-09 -2.0026978e-09 -3.3074785e-09 -2.3471132e-09 -2.428846e-09 -3.3603371e-09 -3.2738756e-09
-3.6101313e-09 -1.386335e-09 -3.2867984e-09 -2.4663496e-09 -2.5003346e-09 -1.3460455e-09 -3.5019585e-09 -1.4420348e-09
-2.5336172e-10 1.5460357e-09 -1.2594058e-09 -2.654296e-09 -4.4939993e-10 4.1463338e-10 -1.5690006e-09 -2.375342e-09
-1.682884e-09 -3.2187266e-09 -3.5329495e-09 4.155993e-09 1.7849078e-09 -1.5016398e-09 -6.364969e-10 1.4284434e-09
5.2740736e-09 3.7153882e-09 -1.0850532e-09 1.0084152e-09 1.7850398e-09 1.767681e-10 1.1222953e-09 5.7351746e-09
2.0519786e-10 -1.7604216e-09 -1.308671e-09 -2.9024314e-09 -1.0750283e-09 7.5642964e-10 -4.0821507e-10 -3.0849847e-09
2.1565802e-09 -3.145452e-11 -1.018028e-09 1.4711521e-10 -1.680988e-09 -7.790562e-10 -2.208741e-09 -2.9936138e-09
-1.7888034e-09 2.6717384e-09 3.9305057e-09 7.287066e-09 5.89542e-09 2.5087519e-09 4.838664e-09 -2.3806745e-09
1.3295504e-10 -2.1803437e-09 -1.7446086e-10 -1.3075372e-09 6.808881e-10 1.9050987e-10 -2.5191123e-09 9.320035e-10
6.113147e-10 -2.03085e-09 -3.5142704e-09 4.898723e-09 -3.5984415e-09 -3.2469105e-10 -1.678389e-09 4.7222297e-09
1.5875159e-09 -2.4155414e-10 2.9067886e-09 -1.691222e-09 3.8703168e-10 -3.3887804e-10 2.6545677e-10 2.302305e-09
2.7442704e-10 9.2150065e-10 -1.4400665e-09 5.533945e-10 -2.099078e-09 -8.837599e-10 6.2005143e-09 -1.2805748e-09
-2.5766134e-09 -8.9767777e-10 8.260816e-09 -1.1651762e-09 -7.2298556e-11 2.6063163e-09 4.871786e-10 -2.8612515e-09
2.0611146e-09 1.9051014e-09 -1.9881725e-09 -1.0255088e-09 -1.2844242e-09 -2.0533857e-09 1.461635e-09 -4.295081e-09
-2.3791384e-09 -4.9432297e-10 -1.6274668e-09 -1.7743024e-09 -9.563229e-10 -1.6476149e-09 -3.501275e-09 -1.1855426e-09
-1.6075101e-09 3.1727887e-10 -2.5716236e-09 -2.233374e-09 -2.3934859e-09 -4.676107e-10 -1.4743871e-09 -1.8341885e-09
-1.3989698e-09 -4.852361e-10 3.8093945e-10 -1.6830127e-09 -1.0553252e-09 -1.6252646e-09 -9.540442e-10 -2.1670756e-09
-4.241789e-09 -1.1577885e-10 2.2258428e-09 2.6331661e-09 -2.5103735e-09 -1.8442479e-09 1.5153042e-09 7.0790344e-12
2.5575042e-09 -2.2626585e-09 4.41435e-09 -3.204721e-09 -1.0216779e-09 6.840775e-09 2.4896214e-09 1.8011228e-09
-7.944042e-09 2.5761546e-10 -1.7844939e-09 1.1711114e-09 6.4697203e-09 -6.1711874e-10 4.3697685e-09 -2.1323197e-09
-1.1809961e-09 -2.3820252e-09 -6.3598318e-09 -1.1686103e-09 4.288085e-09 -3.6085646e-09 3.5238272e-09 -5.734267e-09

exp_avg_sq f4 [256, 120]
00000000: 343f 052b 1374 972b cfdb 592b 7088 912b
00000010: 59cc 102b 2d3b 052b be09 592b c056 c52a
00000020: f97c 272b abd9 af29 55e2 f329 f103 842a
00000030: 17ef c12a 79e9 262b b476 932b a1ba 4a2b
00000040: 437b 9b2d 4146 8c2c 3b89 ba2c cfcd d52b
00000050: 3890 742c bdde ce2c dfce 032d 5473 412d
00000060: 9604 632c c9b9 872d fd10 7b2d 701e 322d
00000070: b527 342d 8251 5f2d ee6f 3e2d 886f 322c
00000080: 0c8f 0a2d fb3c be2c 1577 002d 4a76 dc2b
00000090: 99a7 412c a397 822c 5908 512c 7fab dc2d
000000a0: 0355 c52b 2533 e22b af98 f32b fbc2 ea29
000000b0: de9f 5a2a ad38 432a 33ed 7b29 0fb9 252c
000000c0: 4bbd c32a 982b 582b 5b50 482b b39f 482b
000000d0: 532b 472b daad 632b d3be 4b2b ee60 7a2b
000000e0: 4740 d82a bfc1 2b2b 587c 862a ae5f 9b2b
000000f0: 352e 752b 2a02 ae2a d436 4d2b dd29 252b
00000100: 6ef6 872b ffb3 912a a05a 8b2a e3d7 b72b
00000110: a02c 4e2b a34d 792b d1c1 d62a 4dde a02b
00000120: 4c25 762b a922 812b b435 6f2b 8bbc 9b2b
00000130: 84f5 af2b fdc1 942b 6f4a 902b 1eea b42b
00000140: 1f5a b72b 354f b32b 6e45 b72b 7ede b72b
00000150: 3697 bb2b 3b33 b72b 91f1 b02b c0d1 ad2b
00000160: f6b0 b62b ddc0 b42b 9521 b92b 4e7d b92b
00000170: 7011 ba2b a584 aa2b b607 ac2b 5a42 b52b
00000180: 8983 9e2b daf0 922b 3e24 8d2b aa8e b62b
00000190: de3b a62b 7a71 702b eebe 9f2b a6b5 922b
000001a0: c262 a72b 3c6d ae2a 3f40 fb2a d5b2 672b
000001b0: e137 9b2b 4130 042b cb08 d62a b5d6 fb2a
000001c0: d8d8 6c2b a36b 522b 18fe 302b 478c 5c2b
000001d0: b336 4d2b d650 2a2b 652e 862a b88c 382b
000001e0: 4f13 1b29 0f58 dc27 61fb c927 f7ce 3928
000001f0: d5dd 0028 e838 2928 dadf 2528 372a 5429
00000200: b11f 6e28 b09c 4428 19e2 c927 48c3 2228
00000210: 681b ea27 8d94 8e28 63bf 6628 9302 6728
00000220: a0bf 9c29 a37e 2e29 5a54 5428 412d 1528
00000230: c940 2429 185c 1e28 bb47 8c29 8f37 3629
00000240: 4112 9028 28f7 ff28 e895 9329 eb6f 452a
00000250: c277 4229 769c 2029 9c84 ca29 bdf0 2e28
00000260: 9c30 a528 b6eb 8328 7fc2 2628 f461 7e28
00000270: 0da8 8128 52cd b228 8d09 8f28 ae3d 5729
00000280: 8801 8328 eef6 0728 f986 6528 a111 9028
00000290: dee3 b127 512d e827 a25e 0b28 219f be2a
000002a0: 5da4 5328 9e33 6728 10fa 6e28 547c 4a28
000002b0: 7786 b928 b725 e327 8036 0928 a1da 6428
000002c0: ae4c 2928 c0d7 f427 863c d627 c7cc 1528
000002d0: 1cc0 4528 99df c428 606d 8228 a78b 6d28
000002e0: 374a 5328 c15b 7928 e5ba 9f29 2775 3028
000002f0: 4587 7928 fea6 2d28 f7b6 8629 afbd 3f28
00000300: 02a8 0128 1203 fc27 4524 d427 2498 ca27
00000310: 05c1 1928 0c0e ff27 ddc2 b427 c5b8 4f28
00000320: 2ff6 2b28 91d8 f927 fd3b 3228 60c2 e827
00000330: 2366 2a28 2d82 2128 e629 5a28 f6d5 2028
00000340: a858 3428 32d3 0b28 d61e 2a28 5b2f 3928
00000350: b5f8 3028 998a 1128 9203 2028 04f6 1728
00000360: ddee d027 c325 1d28 e136 fd27 13dc 1528
00000370: 45dd d527 746b b527 2bf0 ff27 755e 2528
00000380: da40 0a28 5566 c127 2527 b729 20f3 3829
00000390: 7300 ef27 2ff7 ce28 e4b0 2329 3e17 8d28
000003a0: 350d 8528 b599 5628 9092 1429 3585 e427
000003b0: 5e7c db27 c895 6129 2d8d 2129 594c f327
000003c0: f7de a02a 7a38 232b 8184 eb2a 93bc 2a2b
000003d0: 7d76 962a 0875 412a b3b4 f72a a77d 9d29
000003e0: 95bf f22a 698b 8129 6225 112a 13f2 c72a
000003f0: f1aa 9d29 c070 a02a 4309 1d2b 445c 0929
4.7338804e-13 1.0761412e-12 7.739893e-13 1.0340739e-12 5.1442666e-13 4.7333215e-13 7.7107407e-13 3.5054425e-13
5.9503753e-13 7.8093205e-14 1.083063e-13 2.3450645e-13 3.444959e-13 5.9299055e-13 1.0477925e-12 7.2023816e-13
1.7676199e-11 3.986839e-12 5.3016736e-12 1.5191684e-12 3.4754543e-12 5.879601e-12 7.4924225e-12 1.0996388e-11
3.2261186e-12 1.5430228e-11 1.427147e-11 1.0124887e-11 1.0240632e-11 1.2694181e-11 1.0825103e-11 2.5357234e-12
7.876155e-12 5.406895e-12 7.302399e-12 1.5664772e-12 2.7519985e-12 3.7116573e-12 2.970532e-12 2.5087264e-11
1.4021287e-12 1.6072461e-12 1.7308567e-12 1.0425511e-13 1.9417755e-13 1.7339143e-13 5.5938933e-14 2.3550638e-12
3.4770307e-13 7.6799114e-13 7.116579e-13 7.12759e-13 7.0759127e-13 8.088787e-13 7.238491e-13 8.895236e-13
3.841391e-13 6.102028e-13 2.3889462e-13 1.1039969e-12 8.710561e-13 3.091011e-13 7.290672e-13 5.867787e-13
9.660725e-13 2.5882072e-13 2.4754244e-13 1.3062853e-12 7.324783e-13 8.8570313e-13 3.8148524e-13 1.1430385e-12
8.7448516e-13 9.175621e-13 8.4984385e-13 1.1065744e-12 1.2502642e-12 1.0569875e-12 1.0252475e-12 1.285475e-12
1.3027946e-12 1.2740699e-12 1.3022203e-12 1.3064686e-12 1.3329119e-12 1.3017151e-12 1.25726e-12 1.2350607e-12
1.2980994e-12 1.28433e-12 1.3154361e-12 1.317982e-12 1.3220935e-12 1.2116043e-12 1.2223475e-12 1.287924e-12
1.1263084e-12 1.0440774e-12 1.0028712e-12 1.2971475e-12 1.1811626e-12 8.542261e-13 1.1350623e-12 1.0424342e-12
1.1893474e-12 3.0984406e-13 4.4631136e-13 8.2315865e-13 1.1028922e-12 4.6962786e-13 3.8020138e-13 4.473554e-13
8.4144974e-13 7.4756363e-13 6.2880387e-13 7.8354375e-13 7.290654e-13 6.0508315e-13 2.3835374e-13 6.556522e-13
3.443366e-14 6.115774e-15 5.6061253e-15 1.0314441e-14 7.1535295e-15 9.393724e-15 9.20788e-15 4.7110072e-14
1.3218526e-14 1.0914162e-14 5.6033843e-15 9.035151e-15 6.497776e-15 1.582959e-14 1.2809065e-14 1.2823634e-14
6.961033e-14 3.87456e-14 1.1786655e-14 8.280974e-15 3.6471507e-14 8.7907315e-15 6.229692e-14 4.0460307e-14
1.5995128e-14 2.8417874e-14 6.554116e-14 1.7535944e-13 4.3180527e-14 3.5662845e-14 8.993606e-14 9.711142e-15
1.8339761e-14 1.4646145e-14 9.257026e-15 1.4121073e-14 1.4394757e-14 1.9851013e-14 1.5880331e-14 4.779309e-14
1.4544586e-14 7.54755e-15 1.2741321e-14 1.5994857e-14 4.9374423e-15 6.4442068e-15 7.73657e-15 3.3861198e-13
1.17484935e-14 1.2834269e-14 1.3265878e-14 1.1240212e-14 2.059744e-14 6.3046047e-15 7.6168455e-15 1.270395e-14
9.398012e-15 6.795752e-15 5.946255e-15 8.3155655e-15 1.0977354e-14 2.1857341e-14 1.4480333e-14 1.3186425e-14
1.1728946e-14 1.3842173e-14 7.0934395e-14 9.795366e-15 1.38516086e-14 9.63964e-15 5.982535e-14 1.0643761e-14
7.197369e-15 6.994738e-15 5.8881144e-15 5.6231214e-15 8.535061e-15 7.0791947e-15 5.0171307e-15 1.1530874e-14
9.545789e-15 6.9346185e-15 9.893993e-15 6.4603677e-15 9.459043e-15 8.965523e-15 1.2110516e-14 8.92818e-15
1.00112315e-14 7.761846e-15 9.443582e-15 1.02798316e-14 9.823892e-15 8.0791705e-15 8.882558e-15 8.43553e-15
5.7990573e-15 8.723439e-15 7.0281106e-15 8.3188825e-15 5.9359277e-15 5.0354093e-15 7.103711e-15 9.179822e-15
7.674601e-15 5.367921e-15 8.133623e-14 4.1067085e-14 6.6336313e-15 2.2977793e-14 3.63467e-14 1.5664224e-14
1.4771694e-14 1.1912716e-14 3.2989724e-14 6.3427136e-15 6.091955e-15 5.008995e-14 3.5871632e-14 6.7528825e-15
2.8576422e-13 5.798761e-13 4.183633e-13 6.065783e-13 2.672757e-13 1.7182447e-13 4.40014e-13 6.993998e-14
4.3120772e-13 5.7529346e-14 1.2891557e-13 3.5517474e-13 7.001854e-14 2.8499945e-13 5.579046e-13 3.050014e-14

slow_buffer f4 [256, 120]
00000000: 26d6 3ebd b27b c0bd 3e79 3a3d e56b 363d
00000010: d411 e1bc 7454 00bc f071 8f3d ca66 e2bd
00000020: eca0 ecbb cee2 c03d a4bb eb3d 4a67 8e3d
00000030: d4b9 233b 8185 143d f232 c9bc 90b6 d8bd
00000040: 8422 2a3c 94c5 4ebb 8b61 4a3d e6cd 6b3d
00000050: 088b 24bd 46cf 903d f285 c6bd 3004 a73c
00000060: 5280 3c3d 5dbe c43d a4a3 8abd 1b9b d3bd
00000070: fcd9 2abd 631e 69bd a340 813d 4e5b 14bc
00000080: af3b 58bd f14a 653d c814 eb3d 2a16 ec3d
00000090: 12f1 653d 40fa da3d c494 40bd 6631 c33d
000000a0: da57 aeb8 3f8b 843c f877 223d 1314 c0bd
000000b0: 8056 1c3d 6eee 18bb 6a78 4cbc a030 c8bc
000000c0: 4fec 9d3c dc11 843c 7049 d43d 52c0 abbd
000000d0: cc03 82bc e6c1 e33d 5bbe c2bd e243 b6bd
000000e0: acac f83d 7eac c0bc 5030 683d c65e 47bd
000000f0: c395 3d3d 6f47 763d 38de a6bd fb9b 5fbd
00000100: 2975 5ebd f7c6 b63d 5c5d 393d 742d 77bd
00000110: bcea 643d 9372 00be 2260 213c 42a1 843c
00000120: 67c4 dabc 22fc e33d 9b17 d03d 7cd7 eb3d
00000130: ff6c ec3d 56a3 983d c6bb aebd f82c 4abd
00000140: 803c ef39 f600 2bb9 dfa9 b1bc 7eeb e0bd
00000150: 1667 11bc 06b4 f2bb 562c e63d 3c64 b8bb
00000160: b6f7 683c f2f7 03bd 728b 0fbd 8233 283d
00000170: 904d 07bd 0843 783d 1cc2 45bd d6f6 d7bd
00000180: 6659 aa3d da79 db3d 1a59 bbbd 81b4 c13c
00000190: 1cf8 99bd 2d09 98bd d2cf babd 7832 933d
000001a0: a6a6 b6bd f827 883d b88f d9bc 4acb 82bd
000001b0: 3444 e33d 1282 abbd e92a 5c3a be00 d63d
000001c0: 6465 edbd 50bc c3bd 5241 c83c d238 fa3d
000001d0: e090 e23d 3f3b 03bd 7a05 ef3d f3b8 c73b
000001e0: ad07 5d3d a21f 0e3d 1ce6 3ebd b6cf b13d
000001f0: 72fe 02bd b534 ab3c 120b b8bd 411e 8e3d
00000200: defb 82bd 4323 a3bd c1b0 acbd 666f ad3d
00000210: 8a48 84bd 0a10 7a3c ee08 b73d ecab 2abd
00000220: ad35 7abd 2edb 493b 1477 3cbd 74c3 adbd
00000230: 50dd 32bd c471 b7bd f37d e0bd d245 86bd
00000240: 2561 9f3d f6c9 ca3d 84f0 453b 181e 6f3d
00000250: 2638 893d 30a3 873d ffc7 1cbc 33bb e4bd
00000260: d242 973c 0c3b cfbd 80de e3bd 28fe 293c
00000270: 72df 353c 292c df3c 7021 b03d 2dd2 edbd
00000280: 1230 69bd eb3b a9bd ced8 b43c 2703 ed3d
00000290: 8d2a 6cbd 2a39 5cbc 088c b8bd ead3 7d3d
000002a0: a772 2dbd 525a d73d a54a d33d 5e63 c0bd
000002b0: 7ad2 be3d f996 503d 6f9e afbd 5c36 d33d
000002c0: 98c2 643b 2afd bdbd ca8e d4bd 4727 b0bc
000002d0: 9a35 323d a6b7 05bb 065b 653d d657 233b
000002e0: a481 bfbd ea5c 78bc 91cf ed3c 9643 1f3d
000002f0: 7ae9 183d 6634 dfbc 6c2b 333d 36c4 a13d
00000300: 3121 dd3b 7a10 963d e258 c6bd 2cc0 eebc
00000310: da2c 5a3d e237 cabd 1658 1cbd efd0 c9bd
00000320: 71c0 47bd bcd7 e73d 0d3e dcbd 2cc3 aa3c
00000330: ea8f c23d 1acc 5dbd ca99 df3d b076 04bc
00000340: 3332 e2bc f4a9 803d 733c 87bc 2896 373d
00000350: bcb4 f43d fc8a c2bd 656e a33c 8e50 87ba
00000360: 1cd1 b93d acfc 303d 79da 773d 303e b83d
00000370: 2237 98bd 6c12 3dbd 1607 ebbc 4871 c6bd
00000380: 7e76 3f3d 40fb cbbd 9148 54b9 47cc e93d
00000390: 84d8 0ebc d1eb 85ba d94c 97bc fdc1 b8bd
000003a0: 7445 b33d 1734 693d 06eb b63d 7876 aebd
000003b0: 8cfd afbd a29f ec3d 24cb 43bd 5c9f 843a
000003c0: 4e5e c3bd b43e f6bd 9653 e83d c2f6 cb3d
000003d0: b4c4 f23c 5505 ee3d 4262 e73d 0354 953d
000003e0: b899 8dbd 0df4 00bd 16dc fabc 3dc3 46bd
000003f0: 2c9e 32bd d690 a83d 2650 2b3c 002c b13a
-0.046590947 -0.09398593 0.04552578 0.04453649 -0.027474321 -0.007832635 0.07004154 -0.11054762
-0.007221332 0.094182596 0.11510399 0.069532946 0.0024982588 0.03626013 -0.024560425 -0.10581696
0.010384206 -0.0031550871 0.04940943 0.057569407 -0.040171653 0.07070784 -0.09693517 0.020387739
0.046020813 0.096066214 -0.06769493 -0.103323184 -0.041711792 -0.056913745 0.063111566 -0.009054972
-0.052791294 0.055979673 0.11478573 0.11527665 0.056138106 0.10692263 -0.047016874 0.095309064
-8.31333e-05 0.016179679 0.039665192 -0.09378829 0.03816843 -0.0023335475 -0.012479881 -0.024437249
0.01927772 0.016121797 0.103655696 -0.083862916 -0.015870951 0.111209676 -0.09508964 -0.08899666
0.121423095 -0.02351975 0.0566867 -0.048674367 0.046285402 0.060126718 -0.081478536 -0.054592114
-0.05431095 0.08924668 0.04525505 -0.06034608 0.055887923 -0.12543707 0.00984958 0.016190175
-0.02670498 0.11132075 0.101607524 0.1151571 0.11544227 0.07453029 -0.08531909 -0.04935929
0.00045630708 -0.00016308189 -0.021687446 -0.109824166 -0.008874675 -0.0074067144 0.11238925 -0.0056271832
0.014219215 -0.03221888 -0.035045095 0.041064747 -0.033032954 0.0606108 -0.04828082 -0.10545127
0.08317833 0.10716601 -0.09147854 0.023645641 -0.07518026 -0.07423625 -0.0912167 0.071873605
-0.089185044 0.066482484 -0.026557788 -0.063864306 0.11096993 -0.08374418 0.0008398728 0.1044936
-0.11591604 -0.09557402 0.02444521 0.12217869 0.11062789 -0.032038923 0.116709664 0.0060950457
0.0539624 0.034698136 -0.04660617 0.08682196 -0.03198094 0.020899156 -0.089864865 0.06939364
-0.06395696 -0.0796571 -0.08432151 0.08468513 -0.06459148 0.015262613 0.0893725 -0.041667864
-0.061086345 0.0030800807 -0.046012 -0.08484545 -0.04366809 -0.08957246 -0.10961523 -0.06556286
0.07782201 0.09901802 0.0030203173 0.05837831 0.067001626 0.066229224 -0.009569167 -0.11168518
0.01846448 -0.10118684 -0.11126423 0.010375537 0.011100637 0.027242737 0.08600128 -0.116123535
-0.05693061 -0.082633816 0.022076037 0.11572867 -0.057657767 -0.013441363 -0.09011084 0.061969675
-0.04234567 0.10515274 0.10316972 -0.09393953 0.09317489 0.05092523 -0.08575141 0.103131026
0.0034906026 -0.09276803 -0.10378797 -0.021503104 0.04350815 -0.0020403652 0.05599501 0.002492418
-0.09350899 -0.015158871 0.02902964 0.038882814 0.037332036 -0.027246665 0.043742582 0.078987524
0.0067483415 0.073273614 -0.09684922 -0.029144369 0.05326543 -0.0987394 -0.038169943 -0.09854304
-0.04876751 0.11320445 -0.10754023 0.020845018 0.09500106 -0.054149725 0.10918005 -0.008084938
-0.027611827 0.06282416 -0.016508317 0.044820935 0.11948535 -0.094991654 0.019950101 -0.001032369
0.090730876 0.043209717 0.060511086 0.08996236 -0.07432391 -0.046160147 -0.028689902 -0.096895754
0.046743862 -0.099600315 -0.00020244929 0.11415916 -0.008718614 -0.0010217373 -0.018469261 -0.09021375
0.087534815 0.056934442 0.08931546 -0.0851869 -0.08593282 0.11553885 -0.047801152 0.0010118294
-0.095394716 -0.120236784 0.11344068 0.09959175 0.029634811 0.11622111 0.11298038 0.072914146
-0.06914085 -0.031482745 -0.030622523 -0.048526037 -0.043607876 0.0823075 0.010456121 0.0013517141
