Training/PyTrainer/epoch=42.ckpt (torch, 654021 bytes, 28 tensors)

net.0.weight f4 [256, 120]
0	0xbe41ee7f	-0.18938635
1	0xbdada53e	-0.08478783
2	0xbc879d4c	-0.016554497
3	0x3d7dafed	0.061935354
4	0xbdd058b6	-0.1017317
5	0xbe16cfc9	-0.14727701
6	0xbbdf3f91	-0.0068129976
7	0xbe36831a	-0.17823449
8	0xbdc252ee	-0.09488474
9	0xbdf59654	-0.119915634
10	0x3c4075eb	0.011746864
11	0xbda224fe	-0.07917212
12	0xbdbbc4c4	-0.091683894
13	0x3c221295	0.009892126
14	0x3cfaec5e	0.030630287
15	0xbe1937f5	-0.14962752
16	0xbd660d2f	-0.056164917
17	0xbd615052	-0.05500824
18	0x3d8e12e6	0.06937198
19	0xbd2b4682	-0.04181529
20	0xbd909013	-0.0705873
21	0x3d29dcc6	0.04147031
22	0x3c05b68a	0.0081611965
23	0x3c9be691	0.019030841
24	0xbe462467	-0.19349824
25	0xbd658749	-0.05603722
26	0x3e16aa3d	0.14713378
27	0x3dc218f5	0.094774164
28	0xbc4c0ff0	-0.012454972
29	0xbcd04e3f	-0.025427936
30	0x3c6d5975	0.01448666
31	0xba3d1091	-0.00072122464
32	0x3cdc1df7	0.026869757
33	0x3c6661bf	0.01406139
34	0xbd8aed7c	-0.06783578
35	0xbd49c959	-0.049264286
36	0xbc34f81a	-0.01104548
37	0x3d193b83	0.03741027
38	0x3d372493	0.044712614
39	0x3c516aa5	0.012781774
40	0xbdb196d8	-0.08671349
41	0xb9a593d1	-0.00031581384
42	0x3d89d412	0.06729902
43	0x3c93112e	0.017952528
44	0xbdda7b00	-0.10667992
45	0xbd2ac344	-0.041690126
46	0x3d782dbb	0.060590487
47	0xbd791351	-0.060809437
48	0x3e66f003	0.22552495
49	0x3d456cc9	0.04819945
50	0xbe1c6b0f	-0.15275215
51	0xbdc8b3b5	-0.097999014
52	0x3dbd7e0c	0.09252557
53	0x3c411d6b	0.011786799
54	0xbd992338	-0.074774206
55	0x3c8a776b	0.016902646
56	0xbd662d90	-0.056195796
57	0xbca98411	-0.020692857
58	0x3c507b8a	0.0127247665
59	0xbd97e54c	-0.07416782
60	0xbd4bfb9e	-0.049800508
61	0x3c9c4384	0.019075163
62	0xbda82478	-0.08210081
63	0xbe1d6d4b	-0.15373723
64	0x3d1fd293	0.03901918
65	0xbbf24fc9	-0.007394765
66	0xbdcccacb	-0.09999617
67	0xbd77b450	-0.060474694
68	0xbd4eed8c	-0.05051951
69	0x3c1d784c	0.009611201
70	0xbc3c5145	-0.011493986
71	0xb952113c	-0.00020033581
72	0x3d64993d	0.055810202
73	0x3cad2e45	0.021140227
74	0xbce9a600	-0.028521538
75	0xbdd6f7b1	-0.10496462
76	0x3cee0e52	0.029059563
77	0x3bb957d2	0.005656221
78	0x3df46193	0.11932673
79	0xbc8ba122	-0.017044608
80	0xbdbe86da	-0.09303065
81	0xbdae45ee	-0.08509432
82	0xbcf5d499	-0.030008601
83	0xbd3cb67b	-0.046072464
84	0x3dd3ee8b	0.10348233
85	0xbc015625	-0.007894074
86	0x3dd62c5e	0.10457681
87	0x3dbcab20	0.09212327
88	0x3e006d31	0.12541653
89	0x3e2b8458	0.16749704
90	0x3a6e3bb7	0.00090878777
91	0xbd85709d	-0.0651562
92	0x3dd94da6	0.106105134
93	0xbd067c9b	-0.032833677
94	0x3d55e427	0.052219536
95	0x3e2904d2	0.16505745
96	0x3cc3dca1	0.023908915
97	0x3e05c8ce	0.13064882
98	0xbdd775c5	-0.1052051
99	0x3c579ac1	0.013159455
100	0xbd04d367	-0.03242817
101	0xbd25db6d	-0.040492464
102	0x3d687a0e	0.056757025
103	0xbd847f5f	-0.064696066
104	0x3db793f3	0.08963766
105	0x3c0ffb8a	0.008787999
106	0x3e00447d	0.12526126
107	0xbdbb6141	-0.09149409
108	0x3dc9be95	0.09850804
109	0x3c7888b4	0.015169311
110	0x3cb55700	0.022136211
111	0x3dcbc3c8	0.09949452
112	0xbda44a4c	-0.080219835
113	0x3d9f3844	0.07774404
114	0x3dd9b355	0.10629908
115	0xbdb8caa1	-0.090230234
116	0x3dc67355	0.096899666
117	0x3e2834d2	0.164264
118	0xbc3d8feb	-0.011569957
119	0xb9cff28d	-0.0003966283
120	0x3c078e71	0.008273707
121	0xbe37c0f7	-0.17944704
122	0xbcc5198d	-0.024060035
123	0xbc13f2a3	-0.009030017
124	0xbbfee079	-0.007778224
125	0xbdbd9389	-0.09256656
126	0xbe09b5a1	-0.13448192
127	0x3c4fcec7	0.012683577
128	0xbd5b339a	-0.053516008
129	0x3bb1f4aa	0.0054307776
130	0xbdf84d9e	-0.12124179
131	0xbd916620	-0.07099557
132	0x3dc98ca4	0.09841278
133	0xbd79e90a	-0.06101326
134	0xbdb4f09e	-0.088349566
135	0xbd8563db	-0.065131865
136	0xbdc09f0d	-0.094053365
137	0x3ccd7c68	0.025083736
138	0x3c6c95ca	0.014440009
139	0xbd98bd89	-0.07458026
140	0xbd5811ad	-0.052751232
141	0xbbfac8a9	-0.007653315
142	0xbd7212bc	-0.059099898
143	0xbd76b103	-0.060227405
144	0xbdabca97	-0.0838825
145	0x3df774ec	0.12082848
146	0xbdc63bae	-0.09679352
147	0x3db65cd3	0.089044236
148	0x3d91af71	0.07113541
149	0x3d156f60	0.03648317
150	0x3b1fde01	0.00243938
151	0xbd51d883	-0.051231872
152	0x3dc5e48e	0.09662734
153	0x3d5e0b35	0.054209907
154	0x3c4d2f91	0.012523548
155	0xbd04b6fe	-0.032401077
156	0x3da525cb	0.08063849
157	0x3d646627	0.055761483
158	0xbd833e97	-0.064084224
159	0xbd918588	-0.07105547
160	0x3e2d2a94	0.16910774
161	0x3da4d5b6	0.080485746
162	0x3e039371	0.12849213
163	0x3db70612	0.08936705
164	0xbe2d8733	-0.16946106
165	0x3d0b8401	0.034061436
166	0x3ce470e5	0.027885864
167	0x3d595e59	0.053068493
168	0xbe549e88	-0.207636
169	0x3be82a8c	0.00708515
170	0xbca798f1	-0.02045867
171	0xbc9600b4	-0.018310882
172	0xbcbaebda	-0.02281754
173	0xbd82e9e3	-0.063922666
174	0x3d226d9d	0.039655317
175	0xbcbcd7d2	-0.02305213
176	0x3d2440fe	0.040101044
177	0x3c484776	0.012224069
178	0xbd17ee5c	-0.03709255
179	0xbe02cbcf	-0.1277306
180	0xbd57bd23	-0.05267061
181	0xbe02483e	-0.1272287
182	0x3d1c4539	0.038151953
183	0xbd912211	-0.07086576
184	0xbc0c6b22	-0.008570464
185	0x3c124937	0.008928589
186	0x3db053bb	0.0860972
187	0x3d691aba	0.056910254
188	0xbdd85c06	-0.10564427
189	0xbc705328	-0.0146682635
190	0xbbf74d9b	-0.007547093
191	0xbd43910b	-0.047745746
192	0x3d32b557	0.04362997
193	0x3dbffa4d	0.09373913
194	0x3da87141	0.082247265
195	0x3cab5ff7	0.020919783
196	0x3d9615e0	0.07328391
197	0x3d63d082	0.05561877
198	0x3d68a640	0.056799173
199	0xbd34df97	-0.044158544
200	0xbdceee38	-0.1010403
201	0x3d9e9ac9	0.07744367
202	0xbd96fc77	-0.073723726
203	0xbdc0d53f	-0.094156735
204	0x3da3c1b9	0.07995934
205	0xbd9ee01e	-0.07757591
206	0xbdaa17e4	-0.08305338
207	0xbdf7d71b	-0.12101575
208	0xbdb718a7	-0.08940249
209	0x3bef1824	0.007296579
210	0x3b9ede59	0.0048482832
211	0x3c89d922	0.01682717
212	0xbda5fa52	-0.081043854
213	0x3e25c1b7	0.16187178
214	0xbd38539f	-0.045001622
215	0x3e502553	0.20326738
216	0xbc97646b	-0.0184805
217	0x3cf4c3df	0.029878555
218	0x3c54aee3	0.012981149
219	0x3e0b8c9e	0.1362786
220	0x3e392454	0.18080264
221	0x3d2feed4	0.042952374
222	0x3df24b3d	0.11830757
223	0x3e0b52d7	0.1360582
224	0x3ce71ff6	0.028213482
225	0x3d258da9	0.0404183
226	0xbbe41bda	-0.006961328
227	0x3e098994	0.13431388
228	0x3d2173bc	0.039417014
229	0x3d44cd8a	0.04804758
230	0xbb5af909	-0.0033412597
231	0x3d788a85	0.060678978
232	0xbd60b4d4	-0.05485995
233	0x3cfafbe7	0.030637695
234	0x3d39327b	0.045214158
235	0xbd90d9bd	-0.0707278
236	0xbd4ba057	-0.04971346
237	0x3d01089e	0.03150236
238	0xbe033408	-0.12812817
239	0x3dbf56b2	0.09342708
240	0xbdd70adc	-0.10500118
241	0xbdbca2f8	-0.09210771
242	0xbdb45a8e	-0.088063344
243	0xbd9290bb	-0.071565114
244	0x3ba5e779	0.005062994
245	0xbde9d81d	-0.114181735
246	0xbc55ec80	-0.013056874
247	0x3daaaa35	0.08333246
248	0x3ced24ac	0.02894815
249	0xbd6882a3	-0.05676521
250	0xbd4dc161	-0.05023325
251	0x3d1b8474	0.037968114
252	0xbdf9b641	-0.12192965
253	0xbe191457	-0.14949165
254	0xbe1b8867	-0.15188752
255	0xba348c1e	-0.0006887334

net.0.bias f4 [256]
0	0x3d612c3f	0.054973837
1	0xbc9bacb2	-0.019003246
2	0x3bf8ea9b	0.0075963265
3	0xbab9782f	-0.0014150197
4	0x3d8f0093	0.069825314
5	0xbcca5dd3	-0.024702942
6	0xbd7f6e7a	-0.062361218
7	0x3de60778	0.11231893
8	0x3d708893	0.058723997
9	0x3c846ae9	0.01616426
10	0x3d49b99b	0.049249273
11	0xbcf3bd82	-0.02975345
12	0x3ca8e13e	0.020615216
13	0x3d6a9628	0.057272106
14	0xbd004918	-0.031319708
15	0x3de63770	0.112410426
16	0x3cfbd9de	0.030743536
17	0x3d4abd8f	0.049497183
18	0x3c26581a	0.010152841
19	0xbb5ada29	-0.0033394194
20	0x3d45606c	0.04818766
21	0x3cce0614	0.025149383
22	0x3d6b3773	0.057425927
23	0x3e0011ca	0.12506786
24	0xbb5f9b10	-0.0034119524
25	0x3d854385	0.06507019
26	0x3c669e67	0.014075852
27	0x3d0db37f	0.03459501
28	0x3c47b24a	0.0121885035
29	0xbc38df45	-0.0112837
30	0x3d9e0a6d	0.07716832
31	0x3d31532b	0.043292206
32	0x3dc4738d	0.09592352
33	0xbd0480ab	-0.03234927
34	0xbde7c5bd	-0.113170125
35	0x3e23733e	0.1596193
36	0x3d0f7c35	0.035030562
37	0x3aab27a7	0.0013058082
38	0x3d2c5343	0.042071592
39	0x3dcf53ab	0.1012338
40	0x3c5aa473	0.013344872
41	0x3dc1f9ce	0.094714746
42	0xbcb2771a	-0.021785308
43	0x3e60509c	0.2190575
44	0x3db9325f	0.09042811
45	0x3d262a72	0.040567823
46	0x3dc95318	0.09830302
47	0x3d543afb	0.05181406
48	0x3cf12def	0.029440848
49	0x3d2887eb	0.041145246
50	0x3db50e8f	0.088406675
51	0x3c1b9a0f	0.00949718
52	0x3d996acc	0.07491073
53	0x3bd64f7a	0.006540236
54	0xbd98a775	-0.07453815
55	0x3d8f498a	0.06996448
56	0x3d3ee629	0.046606217
57	0xbd871bb0	-0.06597078
58	0x3d8b381d	0.06797812
59	0x3d6243d6	0.055240475
60	0x3e01ba8b	0.12668817
61	0x3d6c8261	0.057741527
62	0x3c03b60e	0.008039011
63	0x3d92b20a	0.071628645
64	0xbd265881	-0.040611748
65	0x3d3e8a42	0.04651857
66	0xbb3332c5	-0.0027343493
67	0x3cb00461	0.021486463
68	0xbcc87481	-0.024469616
69	0x3d0145f9	0.03156087
70	0xbb52efb1	-0.0032186324
71	0x3c95307c	0.018211596
72	0x3de4a3a9	0.11164028
73	0x3ce3cd70	0.027807921
74	0x3d4e6c6c	0.050396368
75	0x3cfe3b04	0.031034
76	0x3d05a064	0.032623664
77	0x3ba28900	0.0049601793
78	0x3b9bcf90	0.004754968
79	0xbd3bd752	-0.045859642
80	0xbbb27f7b	-0.0054473258
81	0x3ca7fd57	0.020506544
82	0x3d0b927a	0.034075238
83	0xbe30b699	-0.17257155
84	0x3dc180d5	0.09448401
85	0xbbd7b682	-0.006583036
86	0x3b82030e	0.0039676493
87	0xbcaf479f	-0.021396456
88	0x3d8de495	0.06928364
89	0x3d2f67fb	0.042823773
90	0x3d9962f7	0.07489579
91	0x3cfb126e	0.030648436
92	0x3beffe6d	0.007324031
93	0x3d30d3e8	0.04317084
94	0xbd042b5c	-0.032267913
95	0x3df3a029	0.118957825
96	0xbdafe9fd	-0.085895516
97	0x3bdd983f	0.006762534
98	0x3d58c85e	0.05292546
99	0x3d6d4cac	0.057934448
100	0xbdf9921e	-0.12186073
101	0xbdf7057d	-0.12061594
102	0x3b8f88eb	0.0043803356
103	0xbbc34637	-0.005959298
104	0x3d3005d3	0.042974304
105	0x3cf9d100	0.030495167
106	0x3dacbbf8	0.0843429
107	0xbc8a7528	-0.016901568
108	0xbd48252f	-0.048863586
109	0x3dd5b4e2	0.10434891
110	0x3cf0f692	0.029414449
111	0x3e482b13	0.19547682
112	0x3ec52009	0.38501003
113	0x3dbb6dd9	0.09151811
114	0x3d6382f1	0.055544797
115	0x3d102c47	0.035198476
116	0x3dbdf946	0.09276061
117	0x3d10c5c5	0.035344858
118	0x3ce4ef8f	0.027946262
119	0x3ab2b7f4	0.0013635145
120	0xbdd99a8a	-0.10625179
121	0x3d3a03b7	0.0454137
122	0xbbd04b13	-0.006356606
123	0x3e2a3aeb	0.16624038
124	0x3e7fd885	0.2498494
125	0x3c9808b6	0.018558841
126	0xbd6f642f	-0.058445152
127	0x3d9877e5	0.07444743
128	0x3d47a808	0.04874423
129	0x3d2bb3df	0.041919585
130	0xba7dcb7e	-0.0009681507
131	0x3bbd3582	0.005774201
132	0x3d0c5345	0.0342591
133	0x3d31559a	0.043294527
134	0xbc99e096	-0.018783849
135	0xbd9186c9	-0.07105786
136	0xbc9f6bc2	-0.019460563
137	0x3e4f514b	0.20245855
138	0x3bf987e4	0.0076150764
139	0xbb7fddf4	-0.0039042206
140	0x3cfb5af9	0.030683028
141	0xbd15ebc5	-0.0366018
142	0xbc509007	-0.012729651
143	0xbca73dce	-0.020415213
144	0x3d8cc418	0.068733394
145	0x3cd564bc	0.02604901
146	0x3d1f67a0	0.038917184
147	0x3d3c6a0c	0.04599957
148	0xbd853079	-0.06503386
149	0xbaab0065	-0.0013046382
150	0x3c560dc9	0.01306481
151	0x3b37e720	0.0028061345
152	0x3cf87452	0.030328903
153	0x3d5640b7	0.05230781
154	0x3decd2a6	0.115636155
155	0x3c460631	0.012086437
156	0x3d376eed	0.04478352
157	0x3d90289c	0.070389956
158	0x3c0d8036	0.008636525
159	0x3d892d63	0.0669811
160	0x3dc15723	0.09440448
161	0x3cdd08be	0.026981708
162	0x3d57eab3	0.05271406
163	0x3dcb968f	0.09940826
164	0x3e27f591	0.1640227
165	0x3d8df856	0.06932132
166	0x3d749548	0.05971268
167	0x3d2819a7	0.04104009
168	0x3da72c12	0.081627026
169	0xbbaae7fd	-0.0052156434
170	0x3d4bfef7	0.0498037
171	0x3d9ad64a	0.07560404
172	0x3d13aa90	0.036051333
173	0x3d217983	0.039422523
174	0x3d385ba2	0.045009263
175	0x3d204917	0.039132204
176	0xbd537d0c	-0.051632926
177	0xbcfb2c12	-0.030660663
178	0x3d33601d	0.043792833
179	0x3d06cb7d	0.032908905
180	0x3ccbc235	0.024872879
181	0x3cd56d30	0.026053041
182	0x3dbe9ca1	0.09307218
183	0x3cfbe14c	0.030747078
184	0x3c6042e8	0.013687827
185	0x3cac7b2a	0.021054823
186	0xbd99e859	-0.0751502
187	0x3c4c2b57	0.012461505
188	0x3d5680c0	0.05236888
189	0x3dcc1f43	0.099669
190	0x3cea017d	0.028565163
191	0x3d80e0cd	0.06292877
192	0xbd203b35	-0.039118964
193	0xbc016820	-0.0078983605
194	0x3e25302f	0.16131662
195	0x3c982550	0.01857248
196	0x3c142db5	0.0090441005
197	0x3d0218f1	0.031762067
198	0x3d12152b	0.03566472
199	0x3d522bfb	0.051311474
200	0x3d304345	0.043032903
201	0x3d813f30	0.0631088
202	0xbd88a3ae	-0.066718444
203	0x3adcc5a9	0.0016843575
204	0x3d9e737c	0.07736871
205	0x3d0fac83	0.03507663
206	0xbd8b46d0	-0.06800616
207	0xbdade98d	-0.08491812
208	0x3de6e04f	0.11273252
209	0x3d1ccf73	0.038283776
210	0x3e09e2c9	0.13465418
211	0x3d3f9523	0.046773087
212	0x3db364de	0.08759473
213	0xbdd38bf3	-0.103294276
214	0x3e32d46b	0.17463844
215	0x3d920a22	0.07130839
216	0x3df3c1dd	0.11902211
217	0x3cf130ac	0.029442154
218	0x3b0d8732	0.0021595475
219	0x3d1b3286	0.03788998
220	0x3c97f0fb	0.018547526
221	0x3dc1f507	0.094705634
222	0xbbf58103	-0.007492186
223	0x3cea62e9	0.028611617
224	0x3e1d5387	0.15363894
225	0xbc695890	-0.014242306
226	0x3e539632	0.20662764
227	0x3c5671bd	0.013088641
228	0x3c146937	0.009058288
229	0xbabf7aac	-0.0014608703
230	0xbae80fd3	-0.0017704911
231	0x3dd36e96	0.10323827
232	0x3d7152af	0.058916744
233	0x3d12d896	0.035851084
234	0xbd492f9e	-0.049117677
235	0xbbc33316	-0.0059570177
236	0x3d012a73	0.031534623
237	0x3d3f36e3	0.046683203
238	0xbc8c1e12	-0.017104182
239	0x3e1cf129	0.1532637
240	0x3c1a6f0f	0.0094258925
241	0xbdb49a52	-0.08818497
242	0x3cca7ef2	0.024718735
243	0x3db64965	0.08900718
244	0x3d344104	0.044007316
245	0xbd6eafc0	-0.058273077
246	0x3d3721c6	0.044709943
247	0x3d5ab69f	0.053396817
248	0x3daa2a45	0.083088435
249	0xb9259b2f	-0.00015793437
250	0x3cab0ee9	0.020881133
251	0x3d2c4838	0.04206106
252	0x3dbb492f	0.09144818
253	0xbd027458	-0.031849235
254	0x3c9864e5	0.018602798
255	0x3cfab36e	0.030603137

net.2.weight f4 [32, 256]
0	0xbd9b500f	-0.07583629
1	0xbe32077a	-0.17385665
2	0x3d92be19	0.071651645
3	0xbdf6c1cc	-0.120486826
4	0x3de2d055	0.110748924
5	0x3dcf7a05	0.10130695
6	0xbe0e989d	-0.13925405
7	0x3da4d691	0.08048738
8	0x3d62537a	0.05525539
9	0xbce33406	-0.027734768
10	0x3dcdd861	0.100510366
11	0x3da09d9d	0.07842562
12	0x3cd34b4b	0.025792738
13	0x3e081837	0.13290487
14	0x3d4cafd1	0.04997236
15	0x3dbe8d11	0.0930425
16	0xbdb57c94	-0.08861652
17	0x3dca706a	0.098847225
18	0xbdb6dad0	-0.08928454
19	0x3e0c9714	0.13729507
20	0xbdbd00de	-0.09228681
21	0xbd6ec448	-0.058292657
22	0xbdc6ed92	-0.09713282
23	0xbd8c3918	-0.06846827
24	0x3da8ad4e	0.0823618
25	0xbd2d17a6	-0.04225888
26	0xbcfa8548	-0.030581132
27	0xbdd13edb	-0.10217067
28	0xbd9d3580	-0.0767622
29	0xbd8993e5	-0.06717662
30	0xbb97bfe4	-0.0046310294
31	0x3dfe5b6b	0.1241978
32	0xbdbc3d14	-0.09191337
33	0x3db8ec2f	0.090294234
34	0xbd221599	-0.03957138
35	0x3d7f7a81	0.06237269
36	0x3b95046f	0.0045476477
37	0x3cd57e41	0.02606118
38	0x3d3d0833	0.046150398
39	0xbdde8372	-0.10864915
40	0x3d6eac2e	0.058269672
41	0xbe1a54fd	-0.15071483
42	0xbc3e34f4	-0.011609305
43	0xbd52a61a	-0.051427938
44	0x3be4a8a9	0.0069781137
45	0xbda59b11	-0.08086217
46	0x3de465b0	0.11152208
47	0x3ce8cad6	0.028417032
48	0x3d76b537	0.060231414
49	0xbd3c23b1	-0.045932475
50	0xbe004216	-0.1252521
51	0x3d2f9622	0.042867787
52	0x3d84e365	0.064886846
53	0x3d7386b7	0.059454646
54	0x3de173a3	0.11008384
55	0x3ceef573	0.029169774
56	0x3e276f8d	0.16351147
57	0x3de525da	0.1118886
58	0x3c3a0f27	0.011356152
59	0x3dcef10a	0.10104568
60	0xbbaa7d4d	-0.0052029253
61	0xbd2c300f	-0.04203802
62	0xbdc0364f	-0.093853585
63	0xbc85d76b	-0.01633807
64	0xbe4420af	-0.19153093
65	0xbc406794	-0.011743445
66	0xbded87c6	-0.11598162
67	0xbd828a57	-0.063740425
68	0x3d8665b0	0.06562364
69	0x3d02e91f	0.031960603
70	0xbc8876ad	-0.016658152
71	0xbdf57e2f	-0.11986958
72	0x3e0e3b8e	0.13889906
73	0x3d92e00c	0.0717164
74	0xbd9c782c	-0.076401085
75	0x3b1dbf9c	0.0024070507
76	0x3d74dad8	0.05977902
77	0x3c271565	0.010197972
78	0x3d60dbab	0.05489699
79	0xbe512d8e	-0.20427534
80	0xbe014d2a	-0.12627092
81	0xbd9d0489	-0.07666881
82	0x3da7476b	0.08167919
83	0x3d3f4a2c	0.046701595
84	0xbd2018b7	-0.03908607
85	0xbe0151a4	-0.126288
86	0xbd301724	-0.04299082
87	0xbdb0f6ea	-0.08640845
88	0x3dd6350d	0.104593374
89	0xbdfbe2a3	-0.12299087
90	0xbe0dcdc9	-0.13848032
91	0x3d889a01	0.06669999
92	0x3da90d2e	0.08254467
93	0xbcce6b53	-0.02519766
94	0xbe092d1b	-0.13396113
95	0x3d9b2cb2	0.07576884
96	0x3d51352b	0.051076096
97	0xbc37b243	-0.0112119345
98	0x3e0885ee	0.1333234
99	0x3d230b49	0.039805684
100	0xbd95b338	-0.07309574
101	0x3d24d411	0.040241305
102	0xbd894f99	-0.06704635
103	0x3d32254d	0.043492604
104	0xbe22131c	-0.15827602
105	0x3cc936eb	0.02456232
106	0x3d54e615	0.051977236
107	0xbe5267c3	-0.20547394
108	0xbcd20e5d	-0.025641615
109	0xbe114748	-0.14187348
110	0xbdbd26a7	-0.09235888
111	0x3dfc4d27	0.12319403
112	0x3e136c2d	0.14396735
113	0xbd0c72c5	-0.03428914
114	0xbdb64c81	-0.08901311
115	0x3e10c699	0.14138259
116	0x3bd89cfe	0.006610512
117	0xbd04df4d	-0.03243952
118	0x3e039cc5	0.12852772
119	0xbdc02fac	-0.09384093
120	0x3e04041f	0.12892197
121	0x3d97e1fe	0.074161515
122	0xbd81cefe	-0.06338309
123	0x3d2e8094	0.04260309
124	0x3cce3a04	0.025174148
125	0xbddb8337	-0.107183866
126	0x3c50b2e7	0.012737966
127	0x3b50359b	0.0031770233
128	0x3cf8666a	0.030322272
129	0xbd21fccd	-0.03954773
130	0x3e1a08cb	0.15042417
131	0xbddb57c6	-0.10710101
132	0x3da90e56	0.082546875
133	0x3d74a498	0.05972728
134	0x3c49c311	0.012314574
135	0x3dc2c9a5	0.09511117
136	0xbd9cb837	-0.07652324
137	0xbe67df25	-0.22643717
138	0xbd77a8a4	-0.060463563
139	0xbd44e757	-0.048072185
140	0xbd4caa75	-0.049967248
141	0xbd96f86b	-0.07371601
142	0xbdd61f7a	-0.104552224
143	0x3d7d24d2	0.061802693
144	0x3dbb2d73	0.09139528
145	0xbc61ac93	-0.013774055
146	0x3b95100e	0.004549033
147	0xbe69127e	-0.2276096
148	0xbd2c5ee8	-0.042082697
149	0xbb3969e9	-0.0028291887
150	0xbc35b99f	-0.011091619
151	0xbbb3b69a	-0.0054844143
152	0xbdfc7288	-0.123265326
153	0x3e053582	0.13008693
154	0x3d789807	0.06069186
155	0xbdcacd06	-0.09902386
156	0xbd403e00	-0.046934128
157	0xbd13d05f	-0.03608739
158	0xbd71cd81	-0.059033874
159	0xbd89eb0c	-0.06734285
160	0x3df89945	0.12138609
161	0xbe27c2d0	-0.16382909
162	0x3dd2b510	0.10288441
163	0x3d32b424	0.043628827
164	0xbdbbc94e	-0.09169255
165	0xbaa6b178	-0.0012717685
166	0x3e022b55	0.12711842
167	0xbce5ef4b	-0.028068205
168	0x3df5d143	0.12002804
169	0x3d84729d	0.06467173
170	0xbe055cd4	-0.13023692
171	0x3e1fc05c	0.15600723
172	0x3d35bb57	0.044368114
173	0x3c2492a8	0.010044731
174	0x3db6256e	0.08893858
175	0x3c631a4b	0.013861249
176	0xbe04f2c0	-0.12983227
177	0x3df2bf64	0.11852911
178	0x3dd18ab3	0.10231533
179	0xbc0bac1c	-0.008524921
180	0x3db7fd5b	0.089838706
181	0xbd8da074	-0.0691537
182	0xbcc8d1b1	-0.024514051
183	0xbba82093	-0.0051308363
184	0xbd07989f	-0.033104535
185	0x3d80938c	0.06278142
186	0x3ce778b3	0.028255796
187	0x3cd13701	0.025538923
188	0xbc6e1c96	-0.014533183
189	0x3dea7c3d	0.11449478
190	0x3df2d321	0.11856676
191	0x3df809e0	0.121112585
192	0x3dfdfe2a	0.124019936
193	0x3c8d6173	0.017258381
194	0xbc69c297	-0.014267585
195	0x3e02466c	0.12722176
196	0xbe037f5b	-0.12841551
197	0xbdde304a	-0.10849054
198	0x3dcc8ac8	0.09987408
199	0x3d88e873	0.06684961
200	0x3cda2da6	0.026633095
201	0x3cbe9f8c	0.023269437
202	0x3dc95de9	0.09832365
203	0xbc7a0aba	-0.0152613465
204	0xbe13bfa3	-0.14428572
205	0xbddba715	-0.10725228
206	0xbe1b1c46	-0.15147504
207	0xbc16ae27	-0.009196795
208	0xbdc79011	-0.09744275
209	0xbd6dbef2	-0.058043428
210	0xbe1ee458	-0.15516794
211	0xbb0ae1ba	-0.0021191672
212	0x3cb709f2	0.02234361
213	0x3da7d8aa	0.08195622
214	0xbdcadac9	-0.09905011
215	0x3e49d788	0.19711125
216	0xbe203a27	-0.15647183
217	0xbd0c9c44	-0.034328714
218	0xbc2bb466	-0.010480022
219	0xbca01f98	-0.019546315
220	0x3dddff08	0.10839659
221	0xbe1daab3	-0.15397148
222	0x3bb74854	0.005593339
223	0x3c07ab62	0.008280607
224	0x3ceac3db	0.028657844
225	0x3df74dc2	0.12075378
226	0x3db4dd0c	0.08831224
227	0xbcf37ee6	-0.029723596
228	0xbdadfed1	-0.08495868
229	0xbdd44290	-0.10364258
230	0x38afecb6	8.388741e-05
231	0x3d10b6c8	0.035330564
232	0xbe09b589	-0.13448156
233	0xbd7c394c	-0.06157808
234	0x3e1f599b	0.15561526
235	0xb91eed5a	-0.00015156475
236	0x3e0cf085	0.13763626
237	0x3d9901bc	0.07471034
238	0x3db734ab	0.089455925
239	0xbe46caca	-0.19413295
240	0x3de663da	0.11249514
241	0xbc2b6178	-0.01046025
242	0xbd5ac987	-0.053414848
243	0x3d74d065	0.059769053
244	0xbe061179	-0.13092603
245	0x3daab9f2	0.083362475
246	0x3d2f24af	0.042759594
247	0x3dc937dc	0.098251075
248	0x3c74ab80	0.014933467
249	0x3c836728	0.0160404
250	0xbcec660f	-0.02885726
251	0x3e363134	0.17792207
252	0xbd7d3124	-0.061814442
253	0xbde87c71	-0.1135186
254	0xbd288b88	-0.041148692
255	0x3dfff383	0.12497618

net.2.bias f4 [32]
0	0x3bd17dc3	0.006393166
1	0xbc14e452	-0.009087639
2	0x3c2c03a0	0.010498911
3	0x3d5a4713	0.053290438
4	0x3d9f1a29	0.077686615
5	0x3d058ec6	0.032606862
6	0x3d436d5e	0.047711723
7	0x3cac9834	0.02106867
8	0x3b33509e	0.0027361284
9	0xbd0fb6b1	-0.035086337
10	0x3d8ad2b9	0.067784734
11	0x3ce758df	0.02824062
12	0x3d16b896	0.03679713
13	0x3c2cf9ff	0.010557651
14	0x3d3b2711	0.045691554
15	0xbc52ef2d	-0.012874407
16	0x3e1770ad	0.14789076
17	0x3e2fd229	0.17170013
18	0xbb28f731	-0.0025782103
19	0x3e4dcced	0.20097704
20	0x3dcf5913	0.101244114
21	0x3cc0d55c	0.023539238
22	0xbcc21498	-0.02369146
23	0xbd91f535	-0.07126848
24	0x3d89fd28	0.06737739
25	0xbc125344	-0.008930985
26	0xbe13020b	-0.14356248
27	0x3d562151	0.052277867
28	0x3dd1181b	0.10209676
29	0xbc44b3c5	-0.012005751
30	0xbdb1fe22	-0.0869105
31	0x3be3e269	0.0069544804

net.4.weight f4 [32, 32]
0	0xbc5f6949	-0.013635942
1	0x3e2e62f6	0.17029938
2	0xbe52a74f	-0.20571636
3	0xbdb2a84a	-0.08723505
4	0xbe2b697e	-0.16739461
5	0x3d47c8b8	0.048775405
6	0x3e6a7148	0.22894776
7	0xbe0126ad	-0.1261241
8	0xbdeb2981	-0.114825256
9	0xbe549eec	-0.20763749
10	0x3ec08357	0.37600204
11	0xbe4f1a09	-0.20224775
12	0xbe5e0497	-0.21681438
13	0xbdb5e690	-0.08881867
14	0x3c935810	0.017986327
15	0x3e3fb67c	0.18721956
16	0xbe68988c	-0.22714442
17	0x3e52cecd	0.205867
18	0xbedcb0fa	-0.43103772
19	0xbbaccfc7	-0.0052737924
20	0xbeb2c662	-0.3491698
21	0x3da14b00	0.07875633
22	0x3e3a780c	0.18209857
23	0x3e9900e0	0.2988348
24	0xbe7004b4	-0.23439294
25	0x3eb21450	0.34781122
26	0x3e555d83	0.20836453
27	0x3e83fd05	0.25778976
28	0xbd92e5bd	-0.07172725
29	0x3dee380e	0.11631785
30	0x3e84ca7f	0.25935742
31	0x3d916803	0.07099917
32	0x3e57b405	0.21064766
33	0xbdd8b846	-0.10582022
34	0xbeb24a8f	-0.3482251
35	0x3e72bddb	0.23705237
36	0xbece9e27	-0.40355036
37	0xbe91a614	-0.2844702
38	0xbeb30419	-0.34964064
39	0xbe18302b	-0.14862125
40	0xbee2cf55	-0.44298807
41	0x3e79195a	0.24326077
42	0xbe5845f4	-0.21120435
43	0x3eb77a72	0.35835606
44	0x3e8287dd	0.2549428
45	0xbeb75cb1	-0.35812905
46	0x3ed5489a	0.41656953
47	0x3e0ba35b	0.13636534
48	0xbead516a	-0.33851177
49	0x3e96ff63	0.2949172
50	0x3e6f02c3	0.23340897
51	0xbdcf0cbd	-0.101098515
52	0x3eb51f9d	0.35375682
53	0xbe3a281c	-0.18179363
54	0xbefa63f7	-0.48904392
55	0x3e914c97	0.28378746
56	0xbe0ca8e8	-0.13736308
57	0xbe8711b6	-0.263807
58	0x3c810d05	0.015753279
59	0xbe1de395	-0.15418847
60	0xbdc7556b	-0.09733089
61	0xbee4acf8	-0.44663215
62	0xbd8595ad	-0.06522689
63	0xbe4fe0a9	-0.20300545
64	0xbcf82564	-0.030291267
65	0x3e2726ae	0.16323349
66	0xbdf5f23c	-0.12009093
67	0x3f0df071	0.5544501
68	0xbeb31c6f	-0.3498263
69	0xbed2ba4f	-0.41157767
70	0x3a5352b7	0.00080613367
71	0xbe7de8bb	-0.24795811
72	0xbe1319cf	-0.14365314
73	0x3ea8d4f6	0.32974976
74	0xbece578f	-0.40301177
75	0x3f0b6054	0.5444386
76	0x3eece6b3	0.4626976
77	0x3cefb563	0.029261297
78	0x3e971f81	0.29516223
79	0x3e5038dc	0.2033419
80	0xbe91eaff	-0.284996
81	0xbe9311b3	-0.2872444
82	0x3f33d895	0.7025235
83	0xbf7f995f	-0.998434
84	0x3ee115d5	0.4396197
85	0xbd8e473e	-0.06947182
86	0x3df6105e	0.120148405
87	0x3d8952f6	0.06705277
88	0xbde09f03	-0.10967829
89	0xbf187f8d	-0.5956963
90	0xbeb2ba20	-0.34907627
91	0xbdfc7a27	-0.12327986
92	0xbf0d1493	-0.5510952
93	0xbec76b21	-0.3894892
94	0xbdd627ce	-0.10456811
95	0xbe2ee8af	-0.17080949
96	0xbe85fba3	-0.26168546
97	0xbd40b049	-0.04704312
98	0xbe42174f	-0.18954204
99	0x3ed71de7	0.42015
100	0x3c0e618a	0.008690247
101	0xbe304a20	-0.17215776
102	0xbe11c247	-0.14234267
103	0x3dd5fea8	0.104489625
104	0x3cb33e7c	0.02188038
105	0xbdcb14c7	-0.09916072
106	0xbe962e6c	-0.29332292
107	0x3ed5c167	0.41749117
108	0x3e6e9a32	0.23301008
109	0x3eb11937	0.3458955
110	0xbc0f5926	-0.008749282
111	0x3dc2996b	0.095019184
112	0x3df5eb15	0.12007729
113	0xbe1b0434	-0.15138322
114	0x3eec8010	0.46191454
115	0xbe7e66d9	-0.24843921
116	0xbc84a5c3	-0.016192323
117	0x3e9c39fe	0.30512995
118	0x3e20c28f	0.15699218
119	0x3eb373ae	0.35049194
120	0xbe511e84	-0.20421797
121	0xbcf85c2e	-0.030317392
122	0xbeab983b	-0.3351458
123	0xbeb80bec	-0.35946596
124	0xbeb865c6	-0.36015147
125	0x3dcb874e	0.09937917
126	0xbea2791d	-0.31733027
127	0xbe03ac13	-0.1285861
128	0x3eab3e08	0.33445764
129	0xbe581913	-0.21103315
130	0xbe9595fc	-0.29215991
131	0x3f0a722d	0.5408047
132	0x3d10e5ce	0.03537541
133	0xbe9e7ba4	-0.30953705
134	0xbed1263c	-0.40849483
135	0xbee774af	-0.4520621
136	0xbed5415f	-0.41651437
137	0xbcbf5cb5	-0.023359636
138	0xbed440c2	-0.41455656
139	0x3d3c5e48	0.04598835
140	0x3ebd960b	0.37028536
141	0xbec70996	-0.388745
142	0x3ed03c25	0.40670887
143	0xbe3029d2	-0.17203453
144	0x3ea41dfa	0.3205412
145	0xbe7cc84e	-0.24685785
146	0x3e15e7bd	0.14639182
147	0xbf24bc1c	-0.6434953
148	0x3efddb8a	0.49581558
149	0xbf22baa3	-0.63566035
150	0xbebf8b6c	-0.37411058
151	0x3f5a94a8	0.8538308
152	0xbe93efcc	-0.28893888
153	0x3d3bf5ab	0.045888584
154	0x3ebc1b3c	0.36739528
155	0xbe8a0210	-0.269547
156	0xbea179d4	-0.3153826
157	0x3ea05fe3	0.31323156
158	0xbd2f9930	-0.0428707
159	0x3e0dac7e	0.13835332
160	0x3ee41b55	0.44552103
161	0xbe876512	-0.26444298
162	0xbe98b7fd	-0.29827872
163	0x3ea4fe84	0.3222543
164	0xbea8f034	-0.3299576
165	0xbddcdcf9	-0.10784335
166	0x3e651e8c	0.22374934
167	0x3d209394	0.03920324
168	0xbec6c126	-0.38819236
169	0x3e2bb8bf	0.16769694
170	0xbcacc651	-0.021090658
171	0x3e55120f	0.2080767
172	0x3eacd54c	0.33756483
173	0xbec2f49e	-0.38077253
174	0x3eb8c107	0.36084768
175	0x3df19982	0.117968574
176	0x3a90fe2c	0.0011062077
177	0x3e21d98b	0.15805642
178	0x3ec2e943	0.3806859
179	0xbe6798ce	-0.22616884
180	0x3ec408e4	0.38288033
181	0xbce86f8c	-0.028373502
182	0xbec20689	-0.3789561
183	0x3d8cb784	0.0687094
184	0x3e78b33c	0.24287122
185	0x3d3c8827	0.046028282
186	0xbe0708af	-0.13186906
187	0x3da27377	0.079321794
188	0x3e288413	0.16456632
189	0xbe9fad19	-0.3118675
190	0x3de15d7c	0.11004159
191	0xbe6b49a8	-0.22977316
192	0x3ad864f8	0.0016509583
193	0xbe859d39	-0.26096514
194	0x3e8280c0	0.25488853
195	0xbecdd94e	-0.40204853
196	0x3dd88f1e	0.105741724
197	0x3e038eee	0.12847492
198	0xbe0d1c70	-0.1378038
199	0xbe6ba937	-0.23013769
200	0x3eaa6585	0.33280578
201	0xbdac9b46	-0.084280536
202	0x3e2b1281	0.16706277
203	0xbe92e999	-0.28693846
204	0xbe5e0851	-0.2168286
205	0xbea59d45	-0.3234655
206	0xbe8cd2c9	-0.27504566
207	0xbe83ad2f	-0.25718066
208	0x3e14c982	0.14529994
209	0x3e92a69c	0.28642738
210	0x3d5ed33c	0.054400668
211	0x3e557473	0.20845203
212	0x3ce0332b	0.027368149
213	0x3e458788	0.19289982
214	0xbde54639	-0.111950345
215	0x3e6874c9	0.227008
216	0x3d5c6984	0.053811565
217	0x3ccbc5cc	0.02487459
218	0x3d0b4efd	0.034010876
219	0x3d5efe12	0.05444152
220	0x3ec53555	0.38517252
221	0xbe30928d	-0.17243405
222	0x3e268986	0.16263399
223	0x3e4d6938	0.20059669
224	0x3e4b2093	0.19836645
225	0xbe3213e6	-0.17390403
226	0x3e8b3f1c	0.27196586
227	0xbe35c70b	-0.1775171
228	0x3e02d4d0	0.12776494
229	0x3da6593b	0.08122488
230	0xbd95f106	-0.07321362
231	0x3e8ad955	0.27118936
232	0xbe607628	-0.21920073
233	0x3d74494c	0.059640214
234	0x3d3232a7	0.043505337
235	0xbe67139e	-0.22566077
236	0xbe7ecfcb	-0.24883954
237	0x3e1eafa5	0.1549669
238	0xbe872fe1	-0.26403716
239	0x3e1c05ab	0.15236537
240	0x3e1f0f36	0.15533146
241	0x3e60748d	0.2191946
242	0xbe5e038b	-0.21681039
243	0x3e7af27a	0.2450656
244	0xbe967bad	-0.29391232
245	0x3cb5d370	0.022195548
246	0x3e54aca0	0.20768976
247	0x3e5af32f	0.2138183
248	0xbd866746	-0.065626666
249	0x3d098158	0.033570617
250	0x3dda2c99	0.106530376
251	0x3e86c699	0.26323393
252	0x3eb614bd	0.35562697
253	0x3d564806	0.05231478
254	0xbe8395ce	-0.2570023
255	0xbe7525c7	-0.23940192

net.4.bias f4 [32]
0	0x3d366ed0	0.044539273
1	0x3dc76514	0.09736076
2	0xbd85a2e5	-0.0652521
3	0xbbc59634	-0.0060298685
4	0xbb5f5353	-0.0034076765
5	0x3d3b76af	0.045767482
6	0x3d1643ad	0.036685634
7	0x3b416371	0.0029508735
8	0x3d01b463	0.03166617
9	0x3d0a9b84	0.033839718
10	0x3d4a8335	0.049441535
11	0xbe59a0d4	-0.21252757
12	0x3df20e12	0.1181909
13	0x3d7dada6	0.061933182
14	0x3ca45cc8	0.020063773
15	0xbdcbca60	-0.09950709
16	0xbe5dfbd4	-0.21678096
17	0x3ccc2050	0.024917752
18	0x3d9a7535	0.07541887
19	0x3acda8f8	0.0015690615
20	0x3e20b21e	0.15692946
21	0xbc97cb83	-0.01852966
22	0x3d09bcdf	0.033627387
23	0x3d998aef	0.074972026
24	0x3e076f7c	0.13226122
25	0x3d00aa4b	0.031412404
26	0xbd913e1f	-0.07091927
27	0x3c60357e	0.0136846285
28	0x3cdd09b8	0.026982173
29	0x3d2d51b0	0.04231423
30	0x3e7f25c7	0.24916755
31	0x394b0b1f	0.00019363732

net.6.weight f4 [1, 32]
0	0xbec3dd04	-0.3825456
1	0x3f463f57	0.774404
2	0xbee35089	-0.4439738
3	0xbe55ffac	-0.20898312
4	0xbf07236c	-0.52788424
5	0x3ebfc429	0.37454346
6	0xbef20e76	-0.47276658
7	0xbe3fe90e	-0.18741247
8	0x3f194995	0.598779
9	0xbf36d689	-0.71421105
10	0xbf29bb29	-0.6630121
11	0x3f21a172	0.6313697
12	0x3dfc181d	0.12309287
13	0x3f07632e	0.5288571
14	0xbe215ded	-0.15758486
15	0xbea62dbc	-0.32456768
16	0xbeff97fd	-0.49920645
17	0x3eb49827	0.35272333
18	0x3ebdc5f6	0.37065095
19	0xbe783477	-0.24238764
20	0x3e1bf6c8	0.15230858
21	0x3ec854f9	0.3912733
22	0xbe6466c2	-0.22304824
23	0xbf4e2d86	-0.80538213
24	0xbe645e75	-0.22301657
25	0xbe304c93	-0.17216711
26	0x3f076aeb	0.5289752
27	0x3f26c535	0.65144664
28	0xbe2f7eed	-0.17138262
29	0x3ec655fb	0.38737473
30	0xbe8ef129	-0.27918366
31	0x3eb1de9d	0.34740153

exp_avg f4 [256, 120]
0	0x36c6d873	5.926058e-06
1	0xb602bd5f	-1.9481738e-06
2	0xb5bc05fd	-1.4008834e-06
3	0xb6ed7c21	-7.077601e-06
4	0xb4ef1325	-4.4531149e-07
5	0x373442cf	1.0744391e-05
6	0x374260b5	1.1585817e-05
7	0xb6d04bff	-6.20773e-06
8	0x37fbec93	3.0031695e-05
9	0xb6397c62	-2.7639549e-06
10	0xb679166d	-3.7116945e-06
11	0x3624c421	2.4552066e-06
12	0xb6b1608e	-5.2862515e-06
13	0x37874100	1.6123522e-05
14	0xb7ec96d2	-2.8203624e-05
15	0xb58684cb	-1.0022426e-06
16	0xb7ddeed7	-2.6456471e-05
17	0xb80d7e77	-3.37348e-05
18	0x368959d3	4.093375e-06
19	0x37504a17	1.24150165e-05
20	0xb6892e1e	-4.088287e-06
21	0xb68bd6a1	-4.167509e-06
22	0xb5c16d0b	-1.4411356e-06
23	0x37a73f85	1.993753e-05
24	0x36f9b44d	7.441768e-06
25	0x37deeb16	2.6573933e-05
26	0x378afa45	1.6567423e-05
27	0x38017df2	3.0873292e-05
28	0x363f944a	2.8547533e-06
29	0xb6d3cfc5	-6.3124776e-06
30	0x37ab3522	2.040953e-05
31	0x3804c551	3.1655018e-05
32	0x3694ea96	4.438053e-06
33	0x37070d77	8.049762e-06
34	0xb70e2f9b	-8.474944e-06
35	0xb6b1e1ac	-5.3012827e-06
36	0x3662794d	3.374723e-06
37	0xb717fa7b	-9.058621e-06
38	0xb6a3c720	-4.8809598e-06
39	0x37513904	1.2470646e-05
40	0x36eaf7a3	7.002572e-06
41	0xb74867ed	-1.1945126e-05
42	0x37bf8173	2.2829254e-05
43	0x375d773a	1.3200386e-05
44	0x37472f30	1.1872311e-05
45	0x3541beba	7.2175646e-07
46	0x3706b940	8.030154e-06
47	0xb8009985	-3.0660554e-05
48	0x3735f8a1	1.0846329e-05
49	0xb72db49b	-1.0353654e-05
50	0xb487124b	-2.515902e-07
51	0x3639da6e	2.769429e-06
52	0xb6a6deb7	-4.973113e-06
53	0xb609c0b2	-2.0526754e-06
54	0x35ecb3b0	1.7635666e-06
55	0xb5460e21	-7.378131e-07
56	0xb682b603	-3.895491e-06
57	0x36c07581	5.735725e-06
58	0xb6480208	-2.9803505e-06
59	0xb59ba80d	-1.1597309e-06
60	0xb616433c	-2.2390877e-06
61	0xb6a5621d	-4.928805e-06
62	0xb6bf6dce	-5.7050265e-06
63	0xb60ee0e2	-2.1290548e-06
64	0x3513dc6a	5.508251e-07
65	0xb6d3d0c5	-6.312594e-06
66	0xb63b275e	-2.7888086e-06
67	0xb5f30f31	-1.8109332e-06
68	0xb624b098	-2.4540695e-06
69	0xb62aabc2	-2.543195e-06
70	0xb5d2aafc	-1.5695982e-06
71	0xb6cf8a8f	-6.185211e-06
72	0xb5c85a29	-1.4927401e-06
73	0xb35fa6c2	-5.20729e-08
74	0xb68464da	-3.945647e-06
75	0xb5d04c58	-1.5519427e-06
76	0xb628043f	-2.5036422e-06
77	0xb617321d	-2.2529923e-06
78	0xb616239c	-2.237247e-06
79	0xb585fa79	-9.982169e-07
80	0xb61bdaec	-2.322423e-06
81	0xb63cda66	-2.8141308e-06
82	0xb61f78a0	-2.376306e-06
83	0xb61e102f	-2.3553255e-06
84	0xb61d3b5a	-2.342937e-06
85	0xb5b82720	-1.3720455e-06
86	0xb605ee22	-1.9957156e-06
87	0xb63a3c2c	-2.7751184e-06
88	0xb62ba48d	-2.5576767e-06
89	0xb60fa722	-2.1405945e-06
90	0xb622a1b3	-2.4234002e-06
91	0xb6113694	-2.1638452e-06
92	0xb5f91ad0	-1.8559749e-06
93	0xb608898a	-2.0345637e-06
94	0xb5c5d90e	-1.4740815e-06
95	0xb62308b1	-2.4293952e-06
96	0xb5cb03ec	-1.512582e-06
97	0xb58b3d6f	-1.0374187e-06
98	0xb5b5f394	-1.3556441e-06
99	0xb5fb2360	-1.8711253e-06
100	0xb5d1aa0c	-1.5621204e-06
101	0xb610e8db	-2.1593212e-06
102	0xb6185637	-2.2699949e-06
103	0xb62f6857	-2.6137766e-06
104	0xb696f352	-4.4986746e-06
105	0x360204b5	1.937425e-06
106	0xb64fdc3c	-3.0973597e-06
107	0xb61bafa4	-2.3199036e-06
108	0xb61abfc7	-2.3059417e-06
109	0xb6707051	-3.5828164e-06
110	0xb6437da4	-2.9130397e-06
111	0xb52d80b2	-6.46348e-07
112	0xb703279a	-7.817429e-06
113	0xb573332c	-9.059902e-07
114	0xb626c3c2	-2.4849874e-06
115	0xb52f4d45	-6.530502e-07
116	0x36e8d5b4	6.939017e-06
117	0xb5c07823	-1.4340079e-06
118	0xb670c187	-3.5875435e-06
119	0xb5c703e7	-1.4827791e-06
120	0x35029a32	4.865316e-07
121	0x36919690	4.3388645e-06
122	0x353e785c	7.095566e-07
123	0x3641c2f6	2.8872723e-06
124	0xb54a6f9f	-7.5413294e-07
125	0x376ae12b	1.3999913e-05
126	0xb647d8b4	-2.9779449e-06
127	0xb738fca5	-1.1026078e-05
128	0x37cfa8b3	2.475488e-05
129	0xb70fdeb1	-8.575314e-06
130	0x3789b466	1.6415677e-05
131	0xb7acdd72	-2.0607116e-05
132	0x363218b9	2.6538457e-06
133	0x37867289	1.602738e-05
134	0xb6e52e25	-6.8301038e-06
135	0xb78fa9fe	-1.7126087e-05
136	0xb7f30bfd	-2.897344e-05
137	0xb6ffceff	-7.6236897e-06
138	0x37967c63	1.7939316e-05
139	0xb72a6cf3	-1.0158156e-05
140	0x366b4696	3.5058815e-06
141	0x36e789dd	6.900386e-06
142	0xb72830ac	-1.0024913e-05
143	0x36ff287d	7.6043057e-06
144	0x364cfa72	3.0544147e-06
145	0xb806f12a	-3.217269e-05
146	0xb4c410aa	-3.651997e-07
147	0xb71fcd99	-9.525008e-06
148	0xb52f7cda	-6.5374263e-07
149	0xb7bafaef	-2.2289778e-05
150	0xb793fcdc	-1.7641512e-05
151	0xb7460914	-1.1803833e-05
152	0xb743d94c	-1.1673499e-05
153	0x37c4ce09	2.3460963e-05
154	0x372b8718	1.0223848e-05
155	0x35d1f2ab	1.5642339e-06
156	0x377cac44	1.5060479e-05
157	0xb7f6014b	-2.9326087e-05
158	0xb7353824	-1.0801512e-05
159	0x374c9e86	1.2196257e-05
160	0xb6fccf19	-7.5342946e-06
161	0xb8312af2	-4.2240084e-05
162	0xb6cf1333	-6.171316e-06
163	0x351bb8e2	5.801104e-07
164	0x35ea6b64	1.7465613e-06
165	0xb78c827f	-1.6750068e-05
166	0x3702a7ed	7.787702e-06
167	0x373944d0	1.1042881e-05
168	0x3656832b	3.1964835e-06
169	0xb70fb6ad	-8.565997e-06
170	0x3719f02e	9.175432e-06
171	0x351797f4	5.6473004e-07
172	0xb6037bdd	-1.959262e-06
173	0x3668d663	3.4695483e-06
174	0x3669454c	3.4760042e-06
175	0x36c81d9a	5.9639106e-06
176	0x368238b7	3.8809044e-06
177	0x36a64f8c	4.956446e-06
178	0x3515d236	5.581272e-07
179	0x36ae18e6	5.1885027e-06
180	0x362ea49d	2.6023838e-06
181	0xb511da37	-5.4334254e-07
182	0xb6be04f3	-5.6630174e-06
183	0xb3094c80	-3.1967375e-08
184	0x3637b555	2.7374674e-06
185	0x369e35c4	4.715026e-06
186	0xb62af114	-2.54723e-06
187	0x3673ec32	3.6347305e-06
188	0x3648212c	2.982163e-06
189	0xb641ee3e	-2.8897916e-06
190	0x36493e29	2.9987516e-06
191	0x34d385a6	3.9399055e-07
192	0x359a9fa8	1.152036e-06
193	0x3611e314	2.173886e-06
194	0x3634f04b	2.696196e-06
195	0x3630d464	2.6349671e-06
196	0x3630570b	2.627671e-06
197	0x366a7b37	3.4940438e-06
198	0x3607077d	2.0120926e-06
199	0x35a73f67	1.2460922e-06
200	0x3623981b	2.437743e-06
201	0x36288e42	2.5116756e-06
202	0x35fd160c	1.8856385e-06
203	0x36472b6a	2.967858e-06
204	0x36383590	2.7449314e-06
205	0x3624f77d	2.4581961e-06
206	0x361c5120	2.3293032e-06
207	0x362aa88f	2.5430088e-06
208	0x360f3e27	2.1344838e-06
209	0x361ff4ca	2.3835332e-06
210	0x363212f9	2.653511e-06
211	0x3631a0dd	2.646869e-06
212	0x361471d0	2.2119966e-06
213	0x35f3e399	1.817115e-06
214	0x3605d02e	1.993972e-06
215	0x35dbc47c	1.6373956e-06
216	0x3630a90f	2.6324449e-06
217	0x368db6db	4.2234146e-06
218	0x35dc2b12	1.6403812e-06
219	0x3626f015	2.4875674e-06
220	0x3634b36a	2.6926523e-06
221	0x3485191d	2.4791453e-07
222	0x35e6a8a9	1.7185422e-06
223	0x3605328b	1.9847964e-06
224	0x368444a1	3.941896e-06
225	0xb57313fd	-9.055364e-07
226	0x3684e1aa	3.9601773e-06
227	0x35ce2453	1.5358768e-06
228	0x35a90de6	1.2595526e-06
229	0x361ab45f	2.3052778e-06
230	0x365df84a	3.307609e-06
231	0xb5461313	-7.3788505e-07
232	0xb3c81d53	-9.31856e-08
233	0xb5ec36cb	-1.7599317e-06
234	0x35ecb78e	1.7636792e-06
235	0x3582a41f	9.73352e-07
236	0x370cc3a6	8.390203e-06
237	0x36cf3262	6.174946e-06
238	0xb61b2443	-2.3117907e-06
239	0xb4e9e559	-4.3566504e-07
240	0x364090a9	2.8694433e-06
241	0x350f61d3	5.3414004e-07
242	0x361ea9a0	2.364257e-06
243	0xb58281cc	-9.723531e-07
244	0xb62ab7bb	-2.543892e-06
245	0x3620fa60	2.3987595e-06
246	0xb67624c7	-3.6678264e-06
247	0xb6b27192	-5.3180347e-06
248	0x3684db5c	3.9594433e-06
249	0xb6f8f59e	-7.4195696e-06
250	0x369c99ed	4.6670816e-06
251	0x360ed8d9	2.128587e-06
252	0x377a7f1c	1.4930756e-05
253	0x370793d4	8.081046e-06
254	0xb76848ec	-1.3845256e-05
255	0xb7a78d1d	-1.9973662e-05

exp_avg_sq f4 [256, 120]
0	0x323ec73c	1.1104756e-08
1	0x324647d6	1.15414505e-08
2	0x3245bb67	1.150952e-08
3	0x3245af4d	1.1506768e-08
4	0x323ba96a	1.0923353e-08
5	0x3243131a	1.1354837e-08
6	0x3244cf60	1.1455853e-08
7	0x323f3418	1.1129508e-08
8	0x328302c6	1.5251668e-08
9	0x3226757a	9.689183e-09
10	0x3221c5bf	9.416396e-09
11	0x323945e8	1.0784312e-08
12	0x32859a25	1.5553335e-08
13	0x32e1a5ba	2.6268811e-08
14	0x339cf62b	7.309094e-08
15	0x324dd198	1.1980227e-08
16	0x34409c8c	1.7938345e-07
17	0x339f6884	7.423026e-08
18	0x3446183e	1.8449006e-07
19	0x33748904	5.6935292e-08
20	0x33674eed	5.385566e-08
21	0x342371fb	1.5222024e-07
22	0x340bacb1	1.3008209e-07
23	0x3404a587	1.2353676e-07
24	0x3309998c	3.203745e-08
25	0x34244d72	1.5301865e-07
26	0x34abf0c2	3.2026406e-07
27	0x348858b2	2.5396508e-07
28	0x3442f634	1.8157226e-07
29	0x34700875	2.2354818e-07
30	0x341698db	1.4025447e-07
31	0x33915234	6.767041e-08
32	0x33c2e54f	9.07554e-08
33	0x33ed2ad5	1.10439636e-07
34	0x33a2a073	7.5728984e-08
35	0x333aaaae	4.3461732e-08
36	0x3359ed48	5.0740056e-08
37	0x344f0d86	1.9283297e-07
38	0x33fe51f2	1.18427025e-07
39	0x34817360	2.411207e-07
40	0x32507093	1.213279e-08
41	0x3392bba4	6.8327864e-08
42	0x338014ff	5.964284e-08
43	0x32fda9cb	2.953029e-08
44	0x32296e17	9.862126e-09
45	0x32397ad3	1.0796344e-08
46	0x324d015e	1.1932881e-08
47	0x32613ad6	1.31101014e-08
48	0x3235a6d5	1.057352e-08
49	0x324244ca	1.1307927e-08
50	0x3247f5ac	1.1639184e-08
51	0x323f17dc	1.1123088e-08
52	0x3248245c	1.1649799e-08
53	0x3246a4e3	1.1562608e-08
54	0x3248bdc2	1.1684678e-08
55	0x3245d90d	1.1516261e-08
56	0x3248b20e	1.1682017e-08
57	0x3247f37e	1.1638688e-08
58	0x32455f94	1.1488641e-08
59	0x3248f828	1.1697956e-08
60	0x3248131f	1.164588e-08
61	0x3245cd9b	1.15136585e-08
62	0x32480e69	1.1644809e-08
63	0x32478b21	1.1614959e-08
64	0x3248ef26	1.1695908e-08
65	0x3249bdc3	1.1742887e-08
66	0x324919c6	1.17056e-08
67	0x32487ee1	1.1670381e-08
68	0x3247fea1	1.164122e-08
69	0x3246c5cc	1.1570091e-08
70	0x324836c4	1.16539844e-08
71	0x3247ca35	1.1629301e-08
72	0x3248dc69	1.1691648e-08
73	0x32486662	1.1664811e-08
74	0x32489026	1.1674308e-08
75	0x32480171	1.164186e-08
76	0x32485e51	1.1662977e-08
77	0x3248f5ea	1.1697447e-08
78	0x32487979	1.1669152e-08
79	0x3247b655	1.1624782e-08
80	0x3247fdb8	1.16410135e-08
81	0x3247cb7b	1.1629591e-08
82	0x3247cecd	1.1630346e-08
83	0x3247b614	1.1624724e-08
84	0x3247bc0e	1.1626083e-08
85	0x324819f1	1.1647431e-08
86	0x32482fa8	1.1652368e-08
87	0x3247dff8	1.1634249e-08
88	0x3247f531	1.1639075e-08
89	0x3247fdec	1.164106e-08
90	0x3247c682	1.162846e-08
91	0x3247cde1	1.1630136e-08
92	0x32480b8b	1.1644157e-08
93	0x3247f3d7	1.1638767e-08
94	0x3248020c	1.1641998e-08
95	0x32480542	1.1642728e-08
96	0x32483409	1.1653364e-08
97	0x32477f93	1.16123315e-08
98	0x3247dd0b	1.1633584e-08
99	0x3247c5e2	1.1628318e-08
100	0x324728bb	1.1592586e-08
101	0x32482dc2	1.1651936e-08
102	0x32485f9b	1.166327e-08
103	0x3247e65b	1.1635701e-08
104	0x3248654b	1.16645635e-08
105	0x3247b4ba	1.1624417e-08
106	0x324a520c	1.1776603e-08
107	0x3247ef36	1.1637715e-08
108	0x3247ccdc	1.1629904e-08
109	0x3245f0db	1.1521673e-08
110	0x32489739	1.1675916e-08
111	0x3249577a	1.171963e-08
112	0x324b04d8	1.18172565e-08
113	0x32479678	1.1617537e-08
114	0x3249954e	1.1733688e-08
115	0x32481a7a	1.1647552e-08
116	0x3249cdb9	1.1746516e-08
117	0x3243e9a7	1.140362e-08
118	0x3247299d	1.1592786e-08
119	0x32462ef8	1.1535796e-08
120	0x32d35671	2.4602942e-08
121	0x32de4e5e	2.5879839e-08
122	0x32dadcea	2.5479e-08
123	0x32d9085f	2.5265932e-08
124	0x32d1a10f	2.4404043e-08
125	0x32d7f3c3	2.5140144e-08
126	0x32d0e0d2	2.4316623e-08
127	0x32af370b	2.0397712e-08
128	0x32d2b415	2.452911e-08
129	0x3297edcc	1.7686851e-08
130	0x32aace3b	1.9884387e-08
131	0x32b514ad	2.1080576e-08
132	0x33b8a8d6	8.598879e-08
133	0x330cbd98	3.2768725e-08
134	0x3341fcf9	4.516639e-08
135	0x33102c86	3.3568107e-08
136	0x34cf3ef3	3.8602556e-07
137	0x349676c8	2.8026102e-07
138	0x3487dd82	2.5306878e-07
139	0x33b3c1f4	8.370617e-08
140	0x3413d822	1.376907e-07
141	0x34983dba	2.8357118e-07
142	0x3485940b	2.4880896e-07
143	0x3470149e	2.2359242e-07
144	0x342b6bb2	1.5964795e-07
145	0x34f6d251	4.5974096e-07
146	0x35027e4f	4.8612577e-07
147	0x350a58ad	5.1538046e-07
148	0x34cb8bb3	3.791334e-07
149	0x35029150	4.864023e-07
150	0x349f3898	2.9657235e-07
151	0x3414ace2	1.3846469e-07
152	0x349e966e	2.9539245e-07
153	0x348f5fe3	2.6705592e-07
154	0x34745182	2.2753923e-07
155	0x33dfe1bc	1.04253076e-07
156	0x34092c02	1.2775129e-07
157	0x34b1b40c	3.309982e-07
158	0x33f2e78b	1.13111206e-07
159	0x34995bdd	2.856531e-07
160	0x33bcf09b	8.798198e-08
161	0x33d7e842	1.0053965e-07
162	0x34278966	1.5603072e-07
163	0x336c6fe6	5.5049803e-08
164	0x32d35005	2.4600022e-08
165	0x32a2c90e	1.8950711e-08
166	0x32a5a1fc	1.928219e-08
167	0x32f33eb3	2.8317436e-08
168	0x32cda7fa	2.3941528e-08
169	0x32d312a9	2.4572119e-08
170	0x32d1ca28	2.4422732e-08
171	0x32cad126	2.3611005e-08
172	0x32db803f	2.5553275e-08
173	0x32dcbe18	2.5697815e-08
174	0x32d99ea7	2.5334272e-08
175	0x32cf001e	2.4098025e-08
176	0x32d86f36	2.5196282e-08
177	0x32ddca73	2.581985e-08
178	0x32d787c3	2.5091031e-08
179	0x32da4f11	2.5414495e-08
180	0x32ddef35	2.5836565e-08
181	0x32dd9d95	2.5799446e-08
182	0x32dbd046	2.5589667e-08
183	0x32db8863	2.5556977e-08
184	0x32dde006	2.582966e-08
185	0x32deba42	2.5928902e-08
186	0x32dcfd6f	2.5726619e-08
187	0x32dee92d	2.5950238e-08
188	0x32de6b8c	2.5893108e-08
189	0x32de26cf	2.586185e-08
190	0x32dfb41a	2.6042517e-08
191	0x32df3800	2.5986083e-08
192	0x32ded930	2.5942967e-08
193	0x32dde9d5	2.583412e-08
194	0x32de5ddb	2.5886882e-08
195	0x32de495f	2.5877567e-08
196	0x32de215f	2.5859377e-08
197	0x32ded03a	2.5938892e-08
198	0x32dd58c6	2.5768156e-08
199	0x32de295f	2.5863015e-08
200	0x32ddfd90	2.5843093e-08
201	0x32de16cf	2.5854574e-08
202	0x32de72c3	2.5896389e-08
203	0x32ddf579	2.5839414e-08
204	0x32de24dd	2.5860965e-08
205	0x32de1cfd	2.5857384e-08
206	0x32ddfdb3	2.5843155e-08
207	0x32de24d4	2.5860949e-08
208	0x32de25a7	2.5861324e-08
209	0x32de1974	2.5855776e-08
210	0x32de587c	2.588444e-08
211	0x32de57af	2.5884075e-08
212	0x32de28c6	2.5862743e-08
213	0x32de51cc	2.5881398e-08
214	0x32ddc26a	2.5816195e-08
215	0x32de1cfc	2.5857382e-08
216	0x32de57d9	2.588415e-08
217	0x32ddbf2a	2.5814717e-08
218	0x32dcfff0	2.5727758e-08
219	0x32dde61a	2.5832424e-08
220	0x32ddca95	2.581991e-08
221	0x32dec100	2.5931968e-08
222	0x32df42fd	2.599108e-08
223	0x32de74ec	2.5897371e-08
224	0x32deceb0	2.5938192e-08
225	0x32ddb145	2.5808399e-08
226	0x32de462d	2.5876114e-08
227	0x32ddf884	2.5840798e-08
228	0x32debf01	2.593106e-08
229	0x32de9c1a	2.5915188e-08
230	0x32dd3a8a	2.5754407e-08
231	0x32deb0c8	2.5924592e-08
232	0x32df287f	2.5979032e-08
233	0x32dde76c	2.5833025e-08
234	0x32db25c7	2.5512135e-08
235	0x32dc8f8e	2.5676652e-08
236	0x32dd5fd1	2.5771358e-08
237	0x32dd271d	2.5745573e-08
238	0x32dacf29	2.5472746e-08
239	0x32d9d2a9	2.5357922e-08
240	0x323b1470	1.08894795e-08
241	0x32493ff5	1.1714282e-08
242	0x3248444a	1.1657059e-08
243	0x3248a2ba	1.1678532e-08
244	0x3236ef91	1.0648265e-08
245	0x323edf5b	1.1110241e-08
246	0x32394b51	1.0785542e-08
247	0x321fce09	9.301865e-09
248	0x324e17f6	1.1996226e-08
249	0x320a5a0b	8.053131e-09
250	0x320bb1ae	8.1312646e-09
251	0x32265c50	9.683461e-09
252	0x3270af85	1.4009747e-08
253	0x329d19ab	1.8288878e-08
254	0x337f8038	5.948843e-08
255	0x32abbbfd	1.9992507e-08
