Training/PyTrainer/epoch=3.ckpt (torch, 654277 bytes, 28 tensors)

net.0.weight f4 [256, 120]
000000 7c 6c 42 3d 07 26 6b be de 49 1d bf 22 38 96 bf
       0.04746674 -0.22963725 -0.6144084 -1.173588
000010 cd 8c 77 be 2c 99 cf 3e 66 e0 ac bf 9e 97 80 3f
       -0.24174805 0.40546548 -1.3505981 1.004627
000020 7a 6d 2e 3d 02 47 b0 3c da 84 8a bf d9 28 3d bf
       0.042584874 0.021518234 -1.0821793 -0.73890454
000030 06 e9 af bc 04 23 aa be 56 92 e6 be 42 f3 70 be
       -0.021473419 -0.3322984 -0.4503352 -0.23530295
000040 9d 07 73 bd de 8f 4c bc a5 49 4a be e6 fb 82 be
       -0.059333432 -0.0124854725 -0.19754656 -0.25582808
000050 a6 5f bf bc 39 3a 4e be 92 bf 85 be 52 dc 96 be
       -0.023361038 -0.20139398 -0.2612272 -0.29464966
000060 5a 1a 67 bd b9 b0 b0 bd ae 86 c7 bd 88 97 6c be
       -0.056421615 -0.08627457 -0.09742485 -0.2310468
000070 18 cf 98 3d fe 1b 40 3e 1f 99 0e be 74 dc f6 3c
       0.07461375 0.18760678 -0.13925599 0.030134417
000080 f4 5d 12 3e 4d 35 c7 3d ac 2a c0 3e d5 22 6b 3e
       0.14293653 0.09726963 0.37532556 0.22962506
000090 4e e5 62 3e e3 c1 b1 3e 0e eb e3 3e 56 9f e2 3e
       0.22157785 0.34718236 0.4451527 0.4426219
0000a0 0b f3 33 3e 41 67 80 3e d4 9a 61 3e 76 93 7d 3e
       0.17573182 0.25078776 0.22031718 0.24763283
0000b0 0a fa 88 3e d4 65 38 3e 18 2a 8a 3e 68 1e 04 3c
       0.26753265 0.18007594 0.2698524 0.00806389
0000c0 b5 52 47 3e f6 3b 56 3e cc cd 39 3e 34 ee 24 3e
       0.19465144 0.20921311 0.18144912 0.16106492
0000d0 40 3b 7c 3e 2c 2f 57 3e 4c e7 13 3e 0a dd fb 3d
       0.24631977 0.21014088 0.14443702 0.12298019
0000e0 32 bc 5f bd f0 4a 7c be 50 e1 41 bf e2 d7 a1 bf
       -0.054622836 -0.24637961 -0.75734425 -1.2644007
0000f0 cf 21 08 be 2e 10 5f bd f0 ad e2 be da 08 92 bf
       -0.13294147 -0.05445879 -0.4427333 -1.1408951
000100 63 61 19 be a2 b0 a2 be 7e 7c 73 bf 8d af ff be
       -0.14978556 -0.31775385 -0.95111835 -0.49938622
000110 50 fe 4f be 2e f8 51 be 3e 40 05 bf b0 c7 1b bf
       -0.20311856 -0.2050483 -0.5205115 -0.60851574
000120 6a 6c 62 be 89 90 6e be 8d d9 cc be f7 f7 be be
       -0.22111669 -0.23297323 -0.40009728 -0.37298557
000130 fa 31 be bd 64 5a 75 be 12 e6 b8 be cd 35 c6 be
       -0.09286876 -0.23960263 -0.3611303 -0.38712922
000140 00 80 74 3d 2a e9 55 bd ef 80 c0 bd 75 bc 34 3e
       0.059692383 -0.052224316 -0.09399592 0.17650016
000150 a0 95 a0 3e d4 08 fe bd aa 43 1e bd 76 6c 80 3e
       0.31364155 -0.124040276 -0.03863875 0.2508275
000160 70 07 9f 3e c0 3f e3 3e 47 e3 10 3f 9a 5e 12 3f
       0.31060362 0.44384575 0.565968 0.571756
000170 72 80 1f 3e 82 ff 93 3e eb fc 28 3f 4c 9c 95 3e
       0.15576342 0.28905874 0.6601092 0.29220808
000180 44 c6 81 3e f0 28 b9 3e 8c cc b0 3e 04 50 bb 3e
       0.25346577 0.36164045 0.34531057 0.36584485
000190 cb 46 b5 3e 4e 4e 6f 3e 2e a2 25 3f f6 13 59 3e
       0.35405573 0.23369715 0.6470059 0.2119902
0001a0 2a d6 64 3e 33 fb 25 3e 08 0e 1b 3d 76 8e 0f 3e
       0.22347322 0.16209106 0.037855178 0.14019188
0001b0 c2 21 77 3e 2c d3 16 3e ba be 30 3e c6 16 d9 3d
       0.24133971 0.14728993 0.17260256 0.10600047
0001c0 1c 7a 68 3e 7e 3f 32 3e 53 a8 cb 3d 0a fb d1 3d
       0.22702831 0.17407033 0.09944215 0.1025296
0001d0 64 4a 71 3e 40 ae 55 3e 3c bd 07 3e 58 e7 b7 3d
       0.23563534 0.20867252 0.13255781 0.08979672
0001e0 e2 46 16 be 4c 42 aa be dd 80 ea be 56 f9 9e be
       -0.14675477 -0.33253706 -0.4580144 -0.31049603
0001f0 80 7a e7 bd 5c 6b a0 be cd 80 5a be 6c 3a 55 be
       -0.11302662 -0.3133191 -0.21338196 -0.20823067
000200 38 0f 2a be 7e 08 5b bd f6 ab 0e be 46 fc 8e bd
       -0.16607368 -0.053474896 -0.13932785 -0.06981711
000210 20 3d c8 bd 30 cf 81 bc 58 72 30 bd c2 b5 02 be
       -0.09777284 -0.015845865 -0.043077797 -0.12764648
000220 20 f5 79 bd d3 67 c4 3c a8 85 f9 bd 64 95 26 be
       -0.061024785 0.023975288 -0.12183696 -0.16267926
000230 f8 29 a3 bd 24 ec 62 3c f8 36 0e be 80 ba f5 bd
       -0.07966989 0.013850246 -0.13888156 -0.11998463
000240 a3 d0 37 bd 85 df 2c bd 8d d9 aa bd 78 fa a1 bd
       -0.044876706 -0.042205352 -0.08342276 -0.07909101
000250 68 8e 84 3e 7a d2 70 3e 4e c0 a8 3e 4a c1 65 3e
       0.25889897 0.2351779 0.32959217 0.22437015
000260 12 23 34 3e 9e 6d 86 3e fb 70 a3 3e c5 39 48 3e
       0.17591503 0.26255506 0.31922135 0.19553287
000270 68 51 f8 3d e2 2f 18 3e 4a 51 81 3e ed 26 1b 3e
       0.12124902 0.14862016 0.2525733 0.15151568
000280 82 1d be 3c 50 4b 97 3e 80 ef bb 3e f6 bd 8b 3e
       0.02320743 0.29549646 0.36706161 0.27293366
000290 9b 1a 18 3e ec 73 a0 3e 0a 0e 26 3e 38 d0 30 3e
       0.14853899 0.3133844 0.16216293 0.17266929
0002a0 53 c7 c0 bd 32 4c f4 bc fe 41 0a 3e 78 b3 95 3d
       -0.09413018 -0.029821489 0.13501737 0.073096216
0002b0 b2 8a 0d be 10 df 98 bd b8 75 5e bd 19 82 29 bc
       -0.1382244 -0.07464421 -0.054311484 -0.010345959
0002c0 3a 55 b5 be 74 9c 01 bf ce 12 b2 be 71 7a c5 be
       -0.35416585 -0.50629354 -0.34779972 -0.38569978
0002d0 3c bf 9b be 28 7b dd be b7 8f e6 be 30 f8 b6 be
       -0.30419338 -0.43258023 -0.4503152 -0.35736227
0002e0 53 f6 98 be dd 9f b0 be bc 9a c2 be 27 c1 99 be
       -0.2987543 -0.34496966 -0.38008678 -0.30030176
0002f0 86 ad 82 be 06 21 8c be 90 51 7a be e4 31 8e be
       -0.25523013 -0.27368945 -0.24445176 -0.2777244
000300 7e 46 0b be 21 83 46 be ba 1b a2 be d4 e5 53 be
       -0.1360111 -0.19385959 -0.3166178 -0.20693141
000310 00 4b 96 bd 08 fb 87 be 4e fd e5 be 53 05 5e be
       -0.07338524 -0.2655871 -0.4491982 -0.21681719
000320 c5 43 50 be b8 84 a0 be 62 fa 9f be 08 41 3d be
       -0.20338352 -0.31351256 -0.31245714 -0.18481839
000330 a7 88 44 3d a6 7d d0 bd 58 2c 8f be 98 8e 6f be
       0.047981884 -0.101802155 -0.2796352 -0.23394239
000340 16 1f 0d 3e ee b9 3a 3e 0e 5d 88 3e b6 92 2a 3e
       0.1378139 0.18234989 0.26633495 0.16657528
000350 05 df 22 3e a5 38 91 3e 1a dc 97 3e 3f a7 27 3e
       0.15905388 0.2836353 0.29660112 0.16372393
000360 07 4e 55 3e 91 42 6f 3e 04 79 41 3e f7 ae 89 3e
       0.20830546 0.23365237 0.1889382 0.268913
000370 e2 12 ac 3e f9 93 df 3c 7a 3d 2a 3d 41 7d b0 3e
       0.33608156 0.027292239 0.041562535 0.3447056
000380 bc 33 12 3e 20 cc 4e 3e 5d fd 7a 3d 50 fc fb 3d
       0.14277548 0.20195055 0.061276782 0.12303984
000390 82 19 43 3e de f5 4b be f0 20 86 3d 92 9c 43 bd
       0.19052699 -0.1991801 0.06549251 -0.04775674
0003a0 bc f7 50 be 14 b1 e9 bd d6 16 7b bb 95 2c 0f bd
       -0.20407003 -0.11410728 -0.0038313172 -0.034954626
0003b0 d6 fe 8c bd 5f 07 6b bd 50 36 07 bc 22 aa 97 bd
       -0.068845436 -0.057380076 -0.008252695 -0.07405497
0003c0 1f 73 7b 3e a0 7b 53 3e d6 89 84 3e 90 96 62 3e
       0.24555634 0.20652628 0.2588641 0.22127748
0003d0 3d 12 c7 3e de a7 b3 3e 56 34 75 3e 49 42 66 3e
       0.38881102 0.3508901 0.23945746 0.22486223
0003e0 c4 15 59 3e 2e ad 84 3e bb df a2 3e 12 eb 8e 3e
       0.21199709 0.25913376 0.31811318 0.2791372
0003f0 59 9d 8b 3d 43 1a 76 3e 24 6c 91 3e 00 18 56 3e
       0.06817121 0.24033456 0.28402817 0.20907593

net.0.bias f4 [256]
000000 c0 12 93 bd 70 3d a3 be c9 cf 98 3e 7c 35 80 3e
       -0.07181311 -0.3188281 0.29846027 0.25040805
000010 7a 3f 95 be 30 34 04 3f 87 d0 bb bd 7d 18 bd 3d
       -0.2914999 0.5164213 -0.09170633 0.092331864
000020 5e 1b 1a bf d1 72 94 be c2 6d 2f bc c5 b0 d1 be
       -0.6019801 -0.28993848 -0.010707321 -0.40955177
000030 b8 7e f6 bd cd bc 6f bf 4c b3 71 3d 84 ec b2 be
       -0.120358884 -0.9364746 0.05900888 -0.34946072
000040 58 93 46 be a9 f8 2f bd 0c a2 c8 be 80 84 90 be
       -0.19392145 -0.04296175 -0.39186132 -0.2822609
000050 2d 58 98 3e b4 77 e6 be 3c 64 1f 3c bb 49 0f be
       0.29754773 -0.450132 0.009728488 -0.1399297
000060 10 0a 38 bf 46 43 47 3e 5e 49 be bc 1a a3 30 be
       -0.71890354 0.19459257 -0.023228344 -0.17249718
000070 ce f6 de 3e 6a 7e 82 3e f8 c2 c0 bc c2 60 7e 3e
       0.43547672 0.2548707 -0.023530468 0.24841598
000080 ea 03 fc bd 6d 37 90 3e 62 0d 23 be 8a 3f ea 3e
       -0.12305434 0.28167287 -0.15923074 0.457516
000090 2d e6 1c bf bb 86 d9 3e f1 b4 0c 3f a4 95 19 3f
       -0.6128872 0.42485604 0.54963595 0.5999396
0000a0 99 67 d7 bc 76 5d 14 3e 3e 76 b9 3e b6 a0 b9 be
       -0.026294516 0.14488778 0.36223024 -0.36255425
0000b0 81 ef 1a be 31 74 56 be 84 0c 70 be 46 76 e9 3d
       -0.15130426 -0.20942761 -0.23442274 0.11399512
0000c0 f8 57 fa 3d 4a 97 d6 bf 7c 9e 99 be 1d 5c bc be
       0.1222381 -1.676492 -0.30003726 -0.36789027
0000d0 b0 73 df bd 2c 68 26 bf 94 b5 d0 be 58 cf 89 3e
       -0.109107375 -0.65002704 -0.40763533 0.26916003
0000e0 b8 01 8c be 4c ee b7 be ae 5a 53 be d0 44 6d bf
       -0.2734506 -0.35923994 -0.2064006 -0.92683125
0000f0 22 ea b1 be a8 ec 79 be 47 77 4f bf cd 5f 81 3e
       -0.34748942 -0.24406683 -0.8104138 0.25268403
000100 47 9a 65 3d 60 d1 03 3e 57 ad 21 be 82 6c b9 be
       0.056055333 0.12872839 -0.1578878 -0.36215597
000110 2b 4f ad be 82 51 bb 3e 7c 44 f9 bc d4 06 8a be
       -0.33849463 0.36585623 -0.030428164 -0.26958334
000120 42 9e c1 3e 26 a5 01 bf ab 7e 88 be b2 b2 5f be
       0.37816054 -0.5064262 -0.2665914 -0.2184551
000130 d2 3e 80 3e e4 79 cc be cd b5 31 be ea 0e 62 bf
       0.25047928 -0.39936745 -0.17354508 -0.8830401
000140 8c 24 27 bd 60 d6 ff be cf 74 6e 3e 88 f2 1e 3e
       -0.04080634 -0.49968243 0.23286746 0.15522206
000150 4d 8f 53 bf 47 70 58 be 6a 82 06 bf a8 c6 9e bf
       -0.82640535 -0.2113658 -0.52542746 -1.2404375
000160 98 40 93 be e7 84 27 bf fe ee a5 3e da cc 4f 3e
       -0.2876022 -0.6543717 0.324089 0.20292988
000170 8a 52 1c bf 3a 3c f9 3e a8 36 43 bf 08 48 3a 3f
       -0.61063445 0.48678762 -0.76255274 0.7276616
000180 88 6c 0d be cd 96 3d bf 01 6f 80 be 97 6d 7b 3c
       -0.13810933 -0.7405823 -0.2508469 0.0153459525
000190 d0 f6 f8 be 00 e1 b1 3d 00 7e c1 3e f6 5e 5e be
       -0.48625803 0.086854935 0.37791443 -0.21715912
0001a0 bd 8f da be 4d 4c a8 bf 4a 1d fd bd b0 bc 39 bf
       -0.4268779 -1.3148285 -0.12359102 -0.7255354
0001b0 34 c5 34 bf d0 ce 81 bf 8c 34 98 3e bb 3d bb 3f
       -0.7061341 -1.0141239 0.2972759 1.4628214
0001c0 ae fa c5 be f6 55 87 be ec d2 ca be 49 2c 43 be
       -0.38667816 -0.2643277 -0.39614046 -0.19059862
0001d0 50 68 e2 bb 8c cd 41 3e 52 50 22 3e f4 e4 30 bf
       -0.0069094077 0.18926066 0.15850952 -0.69099355
0001e0 ff cf 2e bf db 48 4a bf 02 e8 a7 bf 8a be a3 be
       -0.68286127 -0.7901742 -1.3117678 -0.31981307
0001f0 4c ab 3e 3d a2 1f 67 3d ef 91 5b 3c a1 6e 43 3c
       0.04655008 0.05642665 0.0134014925 0.011928231
000200 3e a0 4c bf 6d 4e be bd 08 88 55 be 5d 74 92 be
       -0.7993201 -0.09292302 -0.20852673 -0.28604403
000210 c4 d5 df 3b 37 1f ea be 9f f7 ce be 98 a9 bc be
       0.006830903 -0.4572694 -0.40423295 -0.3684814
000220 52 54 10 bf de e8 bb bd 38 60 e4 bc aa c0 52 bf
       -0.5637866 -0.09175275 -0.027877912 -0.8232523
000230 b2 e7 29 be 1e ee 50 bd d6 17 1f bf 06 6f 37 be
       -0.16592291 -0.051008336 -0.62145746 -0.17913446
000240 05 e9 86 bf d8 dd ac bd 30 69 03 bf ae 58 8e 3d
       -1.0539862 -0.08440751 -0.5133238 0.06950508
000250 0a df 10 3d 00 46 d2 be 22 cf 45 bf 1a b5 50 3e
       0.035368957 -0.4106903 -0.77269185 0.20381585
000260 8a 39 a6 be c8 bc 6c bf 54 14 c9 bd 6b d4 db be
       -0.32465774 -0.9247556 -0.098183304 -0.429355
000270 1c 50 8d bd 2a ca 8d bc 82 1c 6d bf 38 95 16 bf
       -0.06900045 -0.017308313 -0.92621624 -0.5882144
000280 25 25 f2 be d4 ab 65 be 7c ec a4 3e b4 82 c4 3e
       -0.47293964 -0.22428828 0.32211673 0.3838097
000290 00 a2 ca bc 04 c8 07 3f d9 6d 3e bd 58 eb ec be
       -0.02473545 0.53039575 -0.046491478 -0.46273303
0002a0 7d fb 9d bd ee 7d e1 3d f2 9f af bc 3a 9d 9f bf
       -0.07713983 0.11010347 -0.021438573 -1.2469857
0002b0 82 d5 aa 3d 6e e3 1e be ef c0 b8 be 21 d8 9e bb
       0.08341505 -0.15516445 -0.36084697 -0.004847542
0002c0 8e 7b e4 3c c6 91 a6 3d e5 26 bc 3e 6c e2 92 be
       0.027890947 0.08133273 0.36748424 -0.2868837
0002d0 be 41 9a bd c0 09 70 be 6e 2e 3a be fa ad 71 bf
       -0.075320706 -0.2344122 -0.18181774 -0.9440609
0002e0 12 53 3f 3f 26 76 59 3d 8c 8b 97 3e 0a 51 94 bd
       0.7473613 0.05309119 0.29598653 -0.072420195
0002f0 92 df df 3e ce 9f 7f 3e 60 a6 de be 2e 3d 66 bf
       0.43725258 0.24963304 -0.4348631 -0.899371
000300 98 0d 2b bf 8e f3 04 bf 55 6d 55 bf 5a d4 03 3e
       -0.6681762 -0.51934135 -0.8336995 0.12873974
000310 44 aa fb 3e fc 23 63 3e 24 b0 8f 3d e4 a2 44 3d
       0.4915334 0.22181696 0.07016018 0.048006907
000320 d3 70 fa 3c 04 07 fb 3e 8d 6c 68 bf e2 0c 78 3e
       0.030571377 0.4902879 -0.90790635 0.24223664
000330 31 19 52 3e 70 24 82 be a0 7c 1c bf a9 73 26 bf
       0.20517422 -0.25418425 -0.6112766 -0.65020233
000340 9e c2 9c be d1 fb 6f bf ae ac b5 be e0 d5 29 3e
       -0.3061723 -0.93743616 -0.35483307 0.16585493
000350 54 d6 dd 3e d2 8f 34 bf 90 d4 4f 3d 38 4f 94 bd
       0.43327582 -0.7053195 0.050739825 -0.07241672
000360 e4 39 52 bd c6 9c 86 be 1a 41 ae 3e 90 73 2b bf
       -0.05132474 -0.26291484 0.34034044 -0.6697321
000370 22 0b 83 3e 87 62 fc 3d e0 5e 16 3f 10 65 96 bf
       0.2559443 0.1232348 0.5873852 -1.1749592
000380 a4 8d 83 be a4 2f 0e bf e6 65 df bd 65 f1 b5 be
       -0.25694 -0.55541444 -0.109081075 -0.35535732
000390 ea 28 d2 bd fe ed f7 bf 98 43 1c 3e 1a 75 71 3e
       -0.1026171 -1.9369504 0.1526016 0.23579827
0003a0 c8 1b 5d bf c4 ae 82 bf 58 cb 8b be 36 4d 02 3f
       -0.86370516 -1.0209584 -0.27303576 0.50899065
0003b0 dc 11 1d bf 0c c7 9a bd 02 a0 25 3e 51 b0 7c bf
       -0.61355376 -0.075574964 0.1617432 -0.9870654
0003c0 52 73 fe be 4c 7f 47 3d a8 0d 24 be 17 26 2b 3b
       -0.49697357 0.048705384 -0.16020834 0.0026115233
0003d0 ec d6 dd 3c 2f 0f cb be 46 f2 1f be 0c 8c dd 3d
       0.027080022 -0.39660022 -0.15619764 0.108177274
0003e0 30 c5 ac be 6e 74 02 be a1 f0 47 bf 6d cd 2e bf
       -0.33744192 -0.12739727 -0.78101546 -0.68282205
0003f0 6e 85 90 be d8 12 47 3e ac 96 6d 3e 37 05 03 3f
       -0.282268 0.19440782 0.23202008 0.5117983

net.2.weight f4 [32, 256]
000000 e6 31 e3 3c c6 4b fa be 60 c0 43 be ba b3 8a 3e
       0.027733754 -0.48885936 -0.19116354 0.27090245
000010 22 7e e3 bc a2 9d 0e 3d 3d f1 c6 3c 6b db 97 bd
       -0.027770106 0.0348183 0.024284953 -0.074148975
000020 b4 c7 d2 3c 44 46 02 3e 0c 25 15 be 64 43 1c 3e
       0.025729991 0.12722117 -0.14564914 0.15260082
000030 05 68 2a 3e c4 fe 0b 3f 42 82 c3 3c 08 98 7b 3a
       0.16641243 0.54685616 0.023865823 0.00095975446
000040 6c 01 ea 3d 04 2e 09 be 0a d8 55 be 66 f5 56 3d
       0.114260525 -0.1339646 -0.20883194 0.052480124
000050 2d 70 c3 bd 5b 34 13 3e fe 4c de bd 4a 86 4a bd
       -0.0954288 0.14375441 -0.10854529 -0.049444474
000060 f0 bb a9 be f1 50 2e be d8 1d 19 bd 06 83 da 3c
       -0.33151197 -0.17023064 -0.037381977 0.026673805
000070 b6 3e 0c be d6 02 1a bd 47 ab f5 bd 20 de 5f be
       -0.13695797 -0.03760036 -0.11995559 -0.21862078
000080 55 85 b0 3d 0a c0 0f be ab d3 c2 3c ef ea a5 3d
       0.08619181 -0.14038101 0.023782572 0.08101451
000090 a2 49 11 3e 38 79 64 3b 90 e4 8d be 52 0e 6d be
       0.14188245 0.003486229 -0.27713442 -0.23149994
0000a0 ea c4 1d bc 11 49 16 3e 9e 85 ff 3c 79 7e 1e bb
       -0.0096294675 0.1467631 0.031191643 -0.002418427
0000b0 dc 5a 0d 3e 6a 38 28 3e 02 43 07 bd 0d 59 d4 3c
       0.13804191 0.1642777 -0.033022888 0.025921369
0000c0 08 03 88 bc 62 af 86 3d 72 2d 2b bd d6 67 49 be
       -0.016603008 0.0657642 -0.041791387 -0.19668517
0000d0 8c c2 31 3b 2c 2d 23 3d e0 33 47 be b4 d0 5e 3e
       0.0027124016 0.039838 -0.19453382 0.21759301
0000e0 2c cc 28 3e 12 3d ef bc 4c ea 50 be e6 a1 a9 3d
       0.16484135 -0.029203925 -0.20401877 0.08282833
0000f0 c1 37 1c 3e d0 2d 89 bd 00 ec ef 3b 9c 0e 1e 3e
       0.15255643 -0.06698191 0.0073218346 0.1543526
000100 96 4c 62 3d b2 d2 b4 3c 47 1f 01 be b7 e8 85 3e
       0.05524882 0.022073124 -0.12609588 0.2615411
000110 52 28 c4 bd 97 e7 17 3e 8c 40 ff bb 9d 8a 8c bd
       -0.09578003 0.14834438 -0.007789677 -0.06862376
000120 5c 61 31 3e 2e c0 bc 3d 01 a7 03 3e 6e 8e be bd
       0.17322296 0.09216343 0.12856676 -0.0930451
000130 8c ae 8f 3d 40 b7 6b bc 5c a4 66 3c 03 3b 41 be
       0.07015714 -0.014386952 0.014077272 -0.18870167
000140 d0 c1 a4 3d 10 b3 90 3d 32 4c 9f 3d 64 69 d9 3d
       0.08044779 0.070654035 0.07778205 0.10615805
000150 66 8a 83 be 6c 4a 41 be 1c d5 f9 bc 12 8e 5f 3d
       -0.25691527 -0.18876046 -0.030497126 0.05457885
000160 54 31 0d bf c6 d7 d0 bd 89 85 ab 3c aa ad 2e bd
       -0.55153394 -0.101974055 0.020937698 -0.042646088
000170 d2 a7 60 3e 8a 8a 1e 3d e5 cd 91 bd 59 37 ce 3d
       0.21939018 0.03870634 -0.071193494 0.100691505
000180 a2 fc bd bc a2 3b ae bd 46 7b 82 3d 24 37 e9 3d
       -0.023191754 -0.08507468 0.06371169 0.1138747
000190 c8 e1 bb be f2 31 13 3d 73 25 2e 3d 48 7e ae bd
       -0.36695695 0.035936303 0.042516183 -0.0852018
0001a0 e4 06 a1 bd 59 40 55 3e 38 7b d1 3c 5d 98 2a be
       -0.078626424 0.20825328 0.02557145 -0.16659684
0001b0 48 09 ef bd 98 4c 93 bd ad ba 2e bd 95 99 bc be
       -0.11671692 -0.071923435 -0.042658497 -0.36835924
0001c0 8a 55 fe bd 96 6e 20 bf e4 d0 93 3c 76 f7 af bc
       -0.12418659 -0.6266874 0.018043943 -0.021480303
0001d0 2f 23 3f 3d 8a 4a 49 bd 62 00 17 bd cc 11 f8 3d
       0.046664413 -0.04914335 -0.0368656 0.121127695
0001e0 b0 c3 e7 bc 21 cf 9f 3e 32 4c 09 bd ac 9b 84 3d
       -0.028291553 0.31212714 -0.03351993 0.064750046
0001f0 ea b5 37 be 4f 6d 23 bc 64 fa 83 3d 15 7c ba 3d
       -0.17940488 -0.009974792 0.064442426 0.09105698
000200 80 c9 8c bd 10 17 f6 bc 72 87 23 3e 6c 37 ee 3e
       -0.068743706 -0.030040294 0.15969637 0.4652666
000210 a0 46 0a bc 12 3d 37 be a3 fe 39 3e 09 20 19 bd
       -0.00843969 -0.1789439 0.18163542 -0.037384067
000220 e4 17 5b 3e b5 ea 87 3e 21 1b cb 3d 73 df 43 be
       0.21395832 0.26546255 0.09917284 -0.19128208
000230 c4 e5 38 bd e7 73 32 3e 89 a2 c6 3d 64 ca 54 3d
       -0.045140997 0.17427026 0.0969897 0.051950827
000240 d2 c0 51 3b ec 7e fa 3d 0c 1a ca bd a7 a5 fc bd
       0.00320058 0.1223124 -0.09868249 -0.12336283
000250 f0 85 1f 3e 93 e6 18 be 8c cf 0a be f3 ed 26 3e
       0.15578437 -0.14931707 -0.13555735 0.16301708
000260 ce 61 00 3e 48 fb ab bd d7 7c 4f 3c 0c 49 86 be
       0.1253731 -0.083975375 0.0126640415 -0.26227605
000270 cb a5 f0 bc 12 8e 1d be a8 36 ba 3e 3b 48 e6 3b
       -0.029375931 -0.15386227 0.36369824 0.0070276535
000280 90 d6 20 3d 5a 8c 02 3d b0 b8 bd 3d bc 19 c2 bd
       0.039267123 0.03187213 0.09263742 -0.09477565
000290 f4 a3 0b 3c 07 5c 21 3e 58 1a a3 bd 66 0e 1f 3d
       0.008522976 0.15757762 -0.07964009 0.03883209
0002a0 24 80 a9 be 30 78 94 bd be 16 58 bb aa f0 78 be
       -0.33105576 -0.072494864 -0.003297254 -0.24310556
0002b0 9a 23 77 3d ea 8d a4 bc 62 c9 23 3e 25 d5 25 3d
       0.060336687 -0.020087201 0.1599479 0.040486474
0002c0 bd db 5f 3d 44 4a 40 3e 40 3f 0a be e6 16 63 3d
       0.054652918 0.1877833 -0.1350069 0.05544176
0002d0 2c 14 34 bb 68 65 b9 3d 0f de c8 bd da a6 1e be
       -0.0027477844 0.09052545 -0.09807979 -0.15493336
0002e0 9a 05 bd 3d 0c cd 9d 3d 28 5e 35 3e 1c 83 14 3e
       0.09229584 0.07705125 0.17711699 0.1450314
0002f0 74 d2 f4 3d 05 7d 9b be ba 81 18 be 92 2f 84 3e
       0.11954203 -0.3036882 -0.14893237 0.25817543
000300 51 f1 ac 3e 6c a1 da bd b4 9f 89 be 53 8a 58 be
       0.3377786 -0.1067532 -0.26879656 -0.21146517
000310 92 be c2 3d 45 4b 61 be c0 2f 5d bc d0 3d a2 3d
       0.09509005 -0.2200137 -0.013500154 0.07921946
000320 89 9f ed bc 98 12 4d 3e 8c ae ea bd 82 30 10 bd
       -0.029006736 0.20026624 -0.114590734 -0.03520251
000330 d8 96 19 bd c6 4d a3 3d 84 11 cd bc e4 1d c2 bd
       -0.03749737 0.079738185 -0.025032766 -0.094783574
000340 74 1d 44 3d b2 24 6f 3d 55 81 d9 bd fc b0 3f 3d
       0.04787965 0.058384605 -0.10620371 0.046799645
000350 1e 11 51 3d 74 9a f2 3d ab d1 03 3d fc e0 05 3d
       0.051041715 0.11845866 0.032182377 0.032685265
000360 48 75 ec bd e1 ae 46 bc fc 5b 00 3b a8 aa 18 3e
       -0.11545807 -0.012126655 0.0019586077 0.1490885
000370 8c d2 99 3b f7 a5 11 bd 7c da 06 3d 70 fc 62 3e
       0.0046942886 -0.035558667 0.032923207 0.2216661
000380 9e 30 3e 3d d0 35 cd 3d cc d8 0b bc 97 a3 5c be
       0.046433084 0.100200295 -0.008535575 -0.2154678
000390 09 da 79 bd 06 14 22 bf 16 f1 43 3e 1a 5a 21 3b
       -0.06099895 -0.63311803 0.19134936 0.0024620355
0003a0 bc c7 03 3e ea da b4 39 82 30 87 be b4 1e e2 bd
       0.12869161 0.0003449538 -0.26404196 -0.110410124
0003b0 9a 32 e9 bd 79 8b cf 3d 4a 69 05 bd f8 5f 13 be
       -0.113866046 0.10134024 -0.032571115 -0.14392078
0003c0 8a 20 b0 3d 72 01 89 3c e4 fd a3 bd be 45 d2 bc
       0.08599956 0.016724322 -0.0800741 -0.025668021
0003d0 30 a1 73 bd ca 8e 20 3e 42 b9 a3 bd ba da 34 be
       -0.059479892 0.1567947 -0.079943195 -0.17661563
0003e0 8c 56 ab bc 8f 14 39 be 7c fb 02 3e 3e 6e 20 3e
       -0.020915292 -0.18074249 0.12791246 0.15667054
0003f0 83 cd 84 3b 06 9b 9c 3e 14 98 5b 3e 88 47 c5 3d
       0.004052819 0.30587023 0.21444732 0.09632784

net.2.bias f4 [32]
000000 bc 5c d5 bc 70 bd bf be ca ca 0e 3e 56 5d 14 bf
       -0.026045196 -0.37449217 0.13944545 -0.5795492
000010 06 f3 f3 3e ea 48 e4 be 89 0b 4e bf 84 96 19 3f
       0.4764635 -0.4458688 -0.8048635 0.59995294
000020 28 e4 c8 be d1 0f fe 3e c7 e3 05 bf 8a ff cf be
       -0.3923657 0.49621442 -0.52300686 -0.40624648
000030 6c f3 ea 3e 04 f7 f0 be 13 cb 45 bd aa f7 3f bf
       0.4588884 -0.47063458 -0.04828937 -0.7498728
000040 30 f2 be bf 2c a0 1b be a8 44 b0 be e4 61 37 be
       -1.491766 -0.1519782 -0.3442738 -0.17908436
000050 be ce 65 3e 10 a6 07 bf 7e 85 07 bf d8 d2 95 be
       0.22442147 -0.52987766 -0.5293807 -0.29262424
000060 9a a9 c9 3e 2d 8b 7b 3f 13 3e 1a c0 2c 0e 84 bf
       0.39387208 0.9825924 -2.4100387 -1.0316825
000070 df 85 21 bf 04 80 da be 8b 5f 15 bf 36 cc ea 3e
       -0.63094896 -0.42675793 -0.5834891 0.45858926

net.4.weight f4 [32, 32]
000000 7c 52 8a bd 87 40 eb 3d 54 53 4d be 1a ef 72 bc
       -0.06754014 0.11486917 -0.20051318 -0.014827514
000010 a0 fc 13 be 9a 82 6f be ba f4 e7 3c 9a 2b ae be
       -0.14451838 -0.23389664 0.028314937 -0.3401764
000020 ea b4 32 3e 1c 25 22 be c8 34 41 3c ca b3 4f 3e
       0.17451826 -0.15834469 0.011792369 0.20283428
000030 18 20 6f 3d c0 8b 1f be da 96 7b 3d 78 6c 0a 3e
       0.058380216 -0.15580654 0.06142316 0.1351794
000040 de f3 24 3d b4 ef 7c be 46 22 8a 3d 2c 46 2e be
       0.040271632 -0.24700814 0.067448184 -0.17018956
000050 58 2e d9 3d 8c 87 52 be 30 a7 41 bc d0 04 22 3e
       0.106045425 -0.2055952 -0.011819646 0.15822148
000060 8e a5 86 be aa aa 16 3e 26 b7 02 bb ae 3b 1e 3d
       -0.26298183 0.1471354 -0.001994559 0.038631134
000070 2e 8d 43 bc cc de 36 3c fa 2f 1d bd a4 3a b3 be
       -0.011935515 0.011161517 -0.038375832 -0.35005677
000080 24 69 0e be a6 13 81 3d ac 70 96 3c da 35 bd 3d
       -0.13907295 0.06302576 0.018364273 0.09238787
000090 db 2c 3f 3e 02 f0 94 bc 10 57 b7 3e 7c 76 c3 3d
       0.18669455 -0.01818085 0.3580861 0.095440835
0000a0 70 0f 5e 3e c7 36 57 3e 2e ec 42 3e 22 c3 b4 be
       0.21685576 0.2101699 0.19035408 -0.35305125
0000b0 76 70 66 3a 17 7c b4 be b9 56 dd bd 5b 9c 8a be
       0.00087905617 -0.35250923 -0.10807557 -0.27072415
0000c0 4d da 1a bd 64 d3 f5 3a 33 03 a1 be 7a a3 86 bc
       -0.037805844 0.0018755016 -0.31447753 -0.016435374
0000d0 34 47 2f be ac 78 78 bd 0c 47 cf 3e 0e f4 f6 bd
       -0.17117006 -0.060661957 0.40483892 -0.120582685
0000e0 64 fc 11 3f c8 b5 23 3d ed b1 7f 3b d2 98 14 3f
       0.5702574 0.039968282 0.0039015964 0.58045685
0000f0 44 bd 8f 3e 63 f7 13 3e f4 ae aa be 1b ab 93 bd
       0.28074086 0.1444984 -0.33336604 -0.0721037
000100 9f 76 3b bd a2 f1 ea 3d b3 05 00 3d ca 21 e9 bd
       -0.045767423 0.11471869 0.031255435 -0.11383398
000110 62 fc fd 3e 3c d2 7c 3e 9e 4a 92 be de 6d 5c be
       0.49606615 0.24689573 -0.28572553 -0.21526286
000120 4b 73 37 3e e6 e8 6a 3e 41 b5 cf 3e d8 59 10 be
       0.17915075 0.22940406 0.40567973 -0.14096773
000130 72 1c 12 be 8a b1 87 3d 2c 92 96 bd 70 3d a2 bd
       -0.14268664 0.0662566 -0.07352099 -0.079218745
000140 c4 18 44 be c2 e2 0d 3e 88 35 02 3e d2 11 97 be
       -0.19150072 0.13856032 0.12715733 -0.29505783
000150 28 de 30 3e 6f cf b2 bd 17 f3 48 be fa 78 c2 bd
       0.17272246 -0.08730971 -0.19623981 -0.09495731
000160 93 37 0f 3e d4 ae ac bc cf f6 7e bc 60 4a 87 be
       0.13986044 -0.021079458 -0.015561773 -0.2642393
000170 32 14 19 be a9 83 e2 3e ba 2f 8e be 24 e1 18 3e
       -0.1494911 0.44241074 -0.27770787 0.14929634
000180 b0 08 e6 3d 87 98 07 be ba 54 e9 bc 16 15 91 3e
       0.11232126 -0.13241778 -0.028482784 0.283364
000190 08 bf ea 3b 02 59 3e 3d 20 e5 53 3e 49 50 7b 3d
       0.007163886 0.046471603 0.20692873 0.061355863
0001a0 ce a4 f4 be 95 99 93 3d 78 a1 85 bd 3b a3 6f 3e
       -0.47781986 0.07207028 -0.06524938 0.23402111
0001b0 b8 88 08 be 1f a6 19 be 68 fc 16 bc d4 56 52 be
       -0.13333404 -0.15004776 -0.009215452 -0.20540935
0001c0 05 41 9b bd 97 79 4d bd 5a 23 34 3e 5a 5c cd bd
       -0.07580761 -0.050164785 0.1759161 -0.1002738
0001d0 e0 f1 3b 3d 3e 79 90 bd 86 71 15 3e 2c 98 8a bc
       0.045884967 -0.07054375 0.14594087 -0.016918264
0001e0 04 1e 01 3e 74 b8 d7 3d c4 a6 c9 3d f0 67 c3 bd
       0.12609106 0.105332285 0.09846261 -0.09541309
0001f0 1e 18 83 3e 83 5e 4d be 30 69 05 be 02 56 3e 3d
       0.25604337 -0.20055585 -0.13028407 0.046468742
000200 95 ff 68 bc b1 47 1e be 94 55 8c bc a8 56 83 bf
       -0.014221092 -0.15457036 -0.01713065 -1.026082
000210 7f fd 94 3d f6 dd e0 be 48 3f bf 3d 4a 65 78 3e
       0.07274913 -0.43919343 0.09338242 0.24257389
000220 ef 47 b0 bd de e4 4c 3d 66 9b 3c bd 6a 26 c3 3d
       -0.0860747 0.050022952 -0.046046637 0.09528811
000230 f3 30 82 3e 5e 5e 97 bb 92 f8 9b 3d aa 39 9b be
       0.2542797 -0.0046194037 0.076157704 -0.30317432
000240 8a a1 bf bd 42 20 97 3d f9 b2 94 3e d5 68 6d bd
       -0.09356983 0.073791996 0.29042795 -0.057961304
000250 60 03 08 3e 70 2d 40 bc 9e 4f 2d be be 15 5d 3c
       0.13282537 -0.011729583 -0.16924903 0.013493953
000260 b4 be 8d 3e 5a 1c cc bc 89 0f 7b bb 3c b8 09 be
       0.27684557 -0.024915863 -0.003830882 -0.13449186
000270 88 b7 af 3d 78 c3 6e bd 6a 1c f5 be 44 ff 96 bd
       0.08579928 -0.058291882 -0.4787324 -0.07372907
000280 2c 8d 31 be 51 d3 eb 3c 8d 0c 3e 3f a6 82 02 be
       -0.17339009 0.028787287 0.742379 -0.12745151
000290 c2 b5 ad 3e 2e 91 c2 bd 62 c8 1e 3f 78 0a 78 3d
       0.33927733 -0.09500347 0.6202451 0.06055686
0002a0 e2 4f ec 3c 32 c9 37 3d ec a4 65 3e 48 ee 19 bd
       0.028846685 0.04486961 0.22426194 -0.03758076
0002b0 aa 59 df be 46 4c 85 3e d6 15 c4 3d 58 d2 d3 3e
       -0.43623096 0.26034755 0.095744774 0.41371417
0002c0 d8 76 f5 3b 3c 89 04 be 24 e3 46 3d 17 7c 43 bb
       0.007490974 -0.12942976 0.048556462 -0.0029828602
0002d0 2e 35 ee 3d 9c 89 66 bd b8 46 a5 3d e1 72 22 bf
       0.11631237 -0.05628358 0.08070129 -0.6345654
0002e0 62 a2 f6 3d 36 80 c5 bd 4c 79 df be 9f e5 68 3d
       0.12042691 -0.09643595 -0.4364723 0.05685961
0002f0 65 5a c4 bd 1a 8d b4 bc fa 56 23 bd ea c2 c1 3e
       -0.09587554 -0.022039939 -0.03987787 0.3784402
000300 7a 15 b9 be 8a 0c 2e bf e7 12 d9 bd 94 17 50 3e
       -0.36149198 -0.67987883 -0.105993085 0.20321494
000310 b0 eb c7 3e 59 cd 5d 3d e0 ed b0 3e 16 b8 4b 3d
       0.39047003 0.054150913 0.34556484 0.049736105
000320 84 6d 64 be 74 49 36 bb b7 5d 8c be 90 28 1a 3e
       -0.22307402 -0.0027814778 -0.2741525 0.15054536
000330 34 a7 64 bb 1c d8 c8 be 26 57 0c 3e bd b5 f3 be
       -0.00348897 -0.39227378 0.1370512 -0.47599593
000340 c8 f2 ac bd 8d 58 8c 3c d6 58 8b 3e c2 fa a9 3d
       -0.08444744 0.017132068 0.27216214 0.082997814
000350 91 7e 30 b9 90 00 9d bd eb e2 83 3d d3 35 37 3e
       -0.00016831818 -0.07666123 0.064397655 0.17891626
000360 dc 2b 29 3e 8c 2f 8b 3c fe 7e c9 3d 3c 8f cc be
       0.16520637 0.016990446 0.09838675 -0.3995303
000370 30 84 18 bc 42 06 32 3e 10 84 3e 3e 69 97 43 3c
       -0.00930886 0.173852 0.18605065 0.011937954
000380 a8 be cc 3d f8 3d 20 bd f1 1d 13 3e 4d 68 84 3d
       0.09997302 -0.039121598 0.1436689 0.06465206
000390 62 26 08 3e 62 5d 98 3e d8 8f 94 3e e4 3a 0e 3d
       0.13295892 0.29758745 0.29015994 0.03472413
0003a0 a5 88 07 bd 0f 43 9c 3c a8 a7 94 bd ce b8 43 3e
       -0.0330893 0.019074945 -0.072585404 0.19113466
0003b0 08 9a 08 3c 08 03 5f 3e cf bf 53 be 71 d0 30 3d
       0.008337505 0.217785 -0.20678638 0.043167535
0003c0 3c 67 55 bd af 55 2c bd 64 cd fd be 06 3e 07 3e
       -0.052100405 -0.0420739 -0.49570763 0.13207254
0003d0 4e e2 b4 be d0 cb ae 3e f4 73 b8 3e 66 a1 3a 3e
       -0.35328907 0.34139872 0.36025965 0.18225631
0003e0 10 9f 78 3e c3 4a 2c 3e 38 0b 0b 3f 38 25 5b 3e
       0.24279428 0.16825394 0.54313993 0.21400917
0003f0 65 13 85 be 56 21 f4 bd 60 7c 9b 3e 4f 71 e8 3d
       -0.2599136 -0.11920421 0.30368328 0.11349737

net.4.bias f4 [32]
000000 4e 47 10 be c6 2f 0e be 70 83 dd bd d4 8c 45 3e
       -0.140897 -0.13885412 -0.10816085 0.19292003
000010 30 de 37 3e 9c 5c 75 be ee 81 cb 3d 4e bc 8d 3d
       0.17955852 -0.23961109 0.099368915 0.06920682
000020 80 a4 bf bc ae 1e f6 bb d7 b7 8d 3e 44 9f 32 3e
       -0.02339387 -0.0075109815 0.2767932 0.17443568
000030 41 dd 0d bf 0a f1 22 3e 50 ea 3b 3e 04 2e bf be
       -0.5541573 0.15912262 0.18351102 -0.37339795
000040 48 26 f8 3d d8 1f 20 3e d0 1d 2f be d4 b7 0a 3d
       0.121166766 0.15637147 -0.17101216 0.03386672
000050 5b 5d 85 bf 62 60 9f be 6d 4c a4 3d fc 48 c1 be
       -1.0419115 -0.31128222 0.080223896 -0.37750995
000060 50 09 fc be f2 8b 3d bf 51 a7 19 3e e8 34 86 3e
       -0.49225855 -0.74041665 0.15005232 0.2621224
000070 74 d6 9b 3e 55 6d 69 bd 51 30 52 be ec 24 11 3e
       0.30437052 -0.056989033 -0.20526244 0.14174241

net.6.weight f4 [1, 32]
000000 41 f8 8e 3e ed f8 b4 be 04 63 98 3e 46 66 59 bf
       0.27923778 -0.35346165 0.29763043 -0.8492168
000010 30 bc 77 be 4a 4c b8 3e 38 d9 f4 3e ef 75 db 3e
       -0.24192882 0.35995704 0.47821975 0.42863414
000020 52 af 41 be ef f2 30 3f bf bf 36 bf ff 86 29 3f
       -0.18914536 0.6912069 -0.7138633 0.6622161
000030 04 3c a6 3f a4 f7 01 3f d0 e0 bc be b5 56 f0 3e
       1.2987065 0.50768495 -0.36890268 0.46941152
000040 e2 c4 29 bf 02 a8 c5 be 09 bf 24 bf 38 40 de 3e
       -0.66316044 -0.38604742 -0.64353997 0.4340837
000050 e8 c7 94 3f e0 12 60 3f 02 a8 05 3f ba d1 c9 3f
       1.1623507 0.875288 0.52209485 1.5767128
000060 30 2b ee bf 6c f6 d9 bf f4 29 9e 3e b2 32 2a bf
       -1.860693 -1.7028327 0.30891383 -0.66483605
000070 20 5f e6 3e f9 64 2a bf ce dd 2e bf de f1 8e 3e
       0.4499445 -0.6656032 -0.683072 0.27918905

exp_avg f4 [256, 120]
000000 68 51 ae b6 6d 8a 07 b7 fa 63 c8 b5 35 af 7d b6
       -5.195081e-06 -8.078857e-06 -1.4930258e-06 -3.7801922e-06
000010 8d 4b 37 b7 a3 73 85 b6 71 29 64 b6 4c 51 34 b7
       -1.09252405e-05 -3.9771708e-06 -3.399877e-06 -1.07477645e-05
000020 e0 f5 91 37 8e c5 c2 b7 24 76 a6 b6 1d 09 a2 b6
       1.7399841e-05 -2.3218596e-05 -4.960939e-06 -4.829037e-06
000030 10 db 87 36 ae d6 fb b7 81 02 0f 37 9b ab 3c 38
       4.0488158e-06 -3.00215e-05 8.524047e-06 4.4982513e-05
000040 a0 31 3c 38 a6 b7 17 38 4a a2 a1 37 39 cf da b6
       4.486891e-05 3.617224e-05 1.9268267e-05 -6.52103e-06
000050 f8 65 9b 37 8e 62 23 37 02 05 15 36 81 bd 65 38
       1.8524923e-05 9.738504e-06 2.2205645e-06 5.4774344e-05
000060 47 34 f9 37 88 9a 51 36 f7 2a a2 36 e0 da 8b b7
       2.9707457e-05 3.1233376e-06 4.832978e-06 -1.6672013e-05
000070 06 4f 89 37 22 40 18 38 ba c9 1d 38 8f c1 6a b5
       1.636847e-05 3.6299352e-05 3.761959e-05 -8.745346e-07
000080 a1 f0 f8 37 74 6d 36 38 dd d0 c0 b7 b3 1f 01 b8
       2.9675955e-05 4.3494118e-05 -2.2985443e-05 -3.078552e-05
000090 bd b1 e4 36 3b 60 77 37 db 1c 1a 37 66 bf 1c 37
       6.815621e-06 1.4744753e-05 9.185834e-06 9.342888e-06
0000a0 40 3f cc 37 a4 c8 04 38 a5 03 93 b7 92 d3 40 b6
       2.4348148e-05 3.1658114e-05 -1.7525463e-05 -2.873338e-06
0000b0 d5 50 aa 36 61 0c b6 36 e5 01 82 b7 6b d5 50 b7
       5.075805e-06 5.4254638e-06 -1.549809e-05 -1.2447456e-05
0000c0 94 4e f7 b6 d3 8c a3 36 aa 28 34 36 20 14 22 b7
       -7.3703213e-06 4.8741726e-06 2.684576e-06 -9.660638e-06
0000d0 61 8d ab b6 5f a0 fc 35 c7 cb 29 b7 62 00 f5 b6
       -5.112656e-06 1.8822137e-06 -1.0120631e-05 -7.3016136e-06
0000e0 a7 0f 31 b7 b5 33 8a b6 11 27 2d b7 81 04 4c b6
       -1.05536665e-05 -4.11874e-06 -1.0320699e-05 -3.040099e-06
0000f0 09 61 11 b7 3e dc 10 b7 37 93 b7 b6 9d 1f e5 b6
       -8.665266e-06 -8.634348e-06 -5.470963e-06 -6.828412e-06
000100 70 ac fa 35 f0 bf f5 34 f7 fe 79 b6 a7 38 87 b6
       1.8676637e-06 4.577446e-07 -3.72523e-06 -4.0299087e-06
000110 bd b2 6e b6 77 46 c2 36 99 34 3e b7 d5 d0 f7 b6
       -3.5568803e-06 5.7898537e-06 -1.1337129e-05 -7.385485e-06
000120 b3 53 21 36 8e 8e 76 b6 cc 4b 85 b6 d2 80 84 b6
       2.403959e-06 -3.6739834e-06 -3.972533e-06 -3.948903e-06
000130 50 ea 83 b6 e9 91 1b b7 62 c8 ab b6 51 c7 b0 b6
       -3.931382e-06 -9.272692e-06 -5.1195248e-06 -5.268412e-06
000140 fa d2 94 b6 75 d5 59 b6 e4 17 a4 b6 15 51 2d b6
       -4.4353046e-06 -3.2459768e-06 -4.890362e-06 -2.5826205e-06
000150 ae af a7 b6 1c bc a1 b6 32 40 28 b7 98 47 d7 b6
       -4.9974396e-06 -4.8200727e-06 -1.0028527e-05 -6.415834e-06
000160 de 16 21 b6 59 33 07 b7 89 3a 2e b7 89 67 7e b6
       -2.400418e-06 -8.058582e-06 -1.0384837e-05 -3.7909215e-06
000170 7e 9e 8d b6 b6 51 c7 b6 0a ac 63 b5 3c 3e aa b6
       -4.2205784e-06 -5.9401746e-06 -8.481444e-07 -5.07364e-06
000180 03 78 a2 b6 13 5b 85 b6 10 c7 71 b6 18 bc 9c b6
       -4.8419474e-06 -3.9743113e-06 -3.6027668e-06 -4.6710593e-06
000190 bb b4 a5 b6 06 a4 7a b5 35 0b a7 b6 e3 8c 73 b6
       -4.938423e-06 -9.3370943e-07 -4.9782925e-06 -3.6291829e-06
0001a0 7b a0 ac b5 d1 35 6b b6 72 ea 8f 36 53 86 85 b6
       -1.2861705e-06 -3.5049054e-06 4.289025e-06 -3.9793463e-06
0001b0 b2 39 02 b7 d7 5e d6 b6 ef 30 4c b6 0f 2b af b6
       -7.762037e-06 -6.388738e-06 -3.0426852e-06 -5.220419e-06
0001c0 5f d8 94 b7 8f 7f 58 b6 0a 8c 2a b5 3b 0b 7b b6
       -1.774373e-05 -3.2260757e-06 -6.353372e-07 -3.7408452e-06
0001d0 b0 69 c6 b6 98 38 57 35 90 6b 4b b7 50 49 c2 b6
       -5.9131635e-06 8.0176096e-07 -1.2124787e-05 -5.7901852e-06
0001e0 02 bb 9c b7 3c 77 46 37 e0 ac c3 37 4d 2b 97 37
       -1.8683731e-05 1.1829481e-05 2.3326313e-05 1.8020766e-05
0001f0 3d f1 f6 b7 b0 4e b2 37 6e be 7a 37 5f 0c 4b b8
       -2.943782e-05 2.1255895e-05 1.4945499e-05 -4.8410493e-05
000200 0c 28 ad b7 05 72 d8 b7 fa cf ad 37 c9 19 b9 b7
       -2.0641855e-05 -2.5802301e-05 2.0720054e-05 -2.2065726e-05
000210 86 f0 84 38 ec 07 8e b7 b5 49 90 36 be 34 12 37
       6.3390515e-05 -1.6931408e-05 4.300115e-06 8.714558e-06
000220 28 dc 7f b7 58 3a 43 b7 50 12 e2 b7 a8 14 12 b8
       -1.52504435e-05 -1.163649e-05 -2.6949827e-05 -3.482835e-05
000230 34 b1 09 b8 2a 90 fb b7 f4 56 b9 b6 a8 55 84 b7
       -3.282838e-05 -2.9988663e-05 -5.5235523e-06 -1.5775513e-05
000240 6c 80 df b8 60 90 93 b8 5c ba bb b8 fd ad ab b8
       -0.00010657389 -7.036398e-05 -8.951567e-05 -8.186323e-05
000250 7d ef 63 b8 cd 1b 5b b8 61 96 77 b8 66 f0 b2 b7
       -5.434406e-05 -5.223956e-05 -5.902944e-05 -2.1331198e-05
000260 e2 08 09 b7 8b 57 7a 38 90 af ac b8 60 4f 9c b8
       -8.1679045e-06 5.9686176e-05 -8.2343e-05 -7.4534444e-05
000270 b7 34 3b 37 f9 b7 a0 b8 9f 0c 52 b8 50 04 9c 36
       1.1158342e-05 -7.663662e-05 -5.0079656e-05 4.6496643e-06
000280 c9 a7 a6 b8 7a a1 5b b8 68 ae 25 38 1e 9d 1b b8
       -7.946749e-05 -5.2364056e-05 3.9501494e-05 -3.7101207e-05
000290 a3 72 2d b7 1a fd de b6 57 e5 44 38 4b 18 2c b8
       -1.03382945e-05 -6.6455805e-06 4.694363e-05 -4.103062e-05
0002a0 0f e0 02 38 7b 72 f3 b7 6f 1d 36 36 e5 3b 88 b7
       3.1203086e-05 -2.9021166e-05 2.7137246e-06 -1.6240354e-05
0002b0 32 7a 84 37 13 2a e2 37 75 17 d0 35 ad 6c 7d 35
       1.5792528e-05 2.6960892e-05 1.5504035e-06 9.440799e-07
0002c0 4e 20 94 37 d6 26 3a 37 55 41 60 36 14 07 cb 37
       1.7658018e-05 1.1095506e-05 3.341663e-06 2.4202782e-05
0002d0 e5 85 88 37 03 09 86 37 8d 1e 44 37 00 4f 93 37
       1.6274813e-05 1.5978241e-05 1.16896235e-05 1.7560553e-05
0002e0 dc 7b ba 37 d4 e7 94 37 0e ed 1c 37 e7 a3 70 37
       2.2230604e-05 1.7750928e-05 9.353518e-06 1.4343276e-05
0002f0 b0 31 37 37 ad 90 82 37 1a 9c 9c 37 e9 cd 92 37
       1.0919219e-05 1.5564578e-05 1.866934e-05 1.750044e-05
000300 e4 80 93 37 0e 29 99 37 5b 83 87 37 b8 37 8e 37
       1.7583785e-05 1.8258139e-05 1.6154421e-05 1.6953665e-05
000310 00 0d 8d 37 f7 97 87 37 73 4f 8e 37 ef 01 44 37
       1.6814563e-05 1.6164018e-05 1.6964716e-05 1.1682961e-05
000320 42 7a 8b 37 22 6b 8b 37 8d ef 8a 37 87 23 82 37
       1.6627022e-05 1.6619979e-05 1.6562431e-05 1.5513751e-05
000330 06 65 b2 37 68 ff 8c 37 04 1e 8b 37 e4 52 8d 37
       2.1266296e-05 1.6808233e-05 1.6584068e-05 1.6847109e-05
000340 54 84 8e 37 08 f0 94 37 25 dd 8d 37 34 9f 8e 37
       1.698934e-05 1.7754748e-05 1.6911488e-05 1.7001854e-05
000350 c2 43 8d 37 ad 25 9d 37 d3 a6 84 37 b5 92 8e 37
       1.6840062e-05 1.8733403e-05 1.581331e-05 1.6996035e-05
000360 81 da 95 37 be 87 75 37 fe 4b 80 37 8c 72 9a 37
       1.7863933e-05 1.4634743e-05 1.5294176e-05 1.841157e-05
000370 ad c1 9d 37 d4 b6 7c 37 28 ea a1 37 be 71 60 37
       1.8806046e-05 1.50629385e-05 1.9301733e-05 1.3377923e-05
000380 ac 80 16 37 0b 22 b1 37 99 d2 63 37 ce 61 8b 37
       8.9706555e-06 2.1115897e-05 1.3579288e-05 1.6615635e-05
000390 7c 6e 76 37 70 72 74 37 1d 60 58 37 6f 17 96 37
       1.4688467e-05 1.4570178e-05 1.2896981e-05 1.7892306e-05
0003a0 6d ab 8d 37 c0 44 86 37 cd 7b 7f 37 ad 46 b7 37
       1.6888336e-05 1.6006059e-05 1.5228009e-05 2.1848211e-05
0003b0 4a 0c f7 37 d9 f1 03 37 d4 7a 65 36 c4 17 6b 37
       2.9450417e-05 7.864518e-06 3.4195155e-06 1.4012625e-05
0003c0 fa 29 d3 36 20 fa 74 b6 93 c2 8b 36 00 a2 f3 b6
       6.2931767e-06 -3.6504425e-06 4.1651742e-06 -7.2608236e-06
0003d0 51 6e c6 b5 ff b9 a5 36 7a d3 90 b5 ac c0 f6 b7
       -1.4784256e-06 4.939036e-06 -1.0790384e-06 -2.9415205e-05
0003e0 f8 12 36 b8 10 86 a9 37 32 0e 76 b7 5b 38 cb 37
       -4.3409847e-05 2.0208798e-05 -1.4666048e-05 2.4225728e-05
0003f0 94 43 80 37 7a 92 17 b8 b3 d6 ec 35 ec f6 da 36
       1.5290258e-05 -3.6137622e-05 1.7645856e-06 6.5256518e-06

exp_avg_sq f4 [256, 120]
000000 ff 20 aa 31 aa 9c 35 31 b2 59 13 31 4c 42 0d 31
       4.9514024e-09 2.642802e-09 2.1442301e-09 2.0555886e-09
000010 b4 e0 9c 31 ad 70 0b 32 a0 a6 09 31 67 31 05 32
       4.5657433e-09 8.116484e-09 2.003084e-09 7.752852e-09
000020 03 99 92 32 e1 93 39 32 0d 0b 0e 31 78 ae 68 31
       1.7066219e-08 1.0802041e-08 2.0670001e-09 3.3859617e-09
000030 9d 05 89 32 ea 25 69 32 c1 de 8a 32 74 99 e6 32
       1.5951452e-08 1.3571006e-08 1.6166611e-08 2.6845306e-08
000040 d2 d5 30 33 d0 f1 df 32 2a 48 f2 32 31 74 b8 32
       4.117266e-08 2.607058e-08 2.8205324e-08 2.1473257e-08
000050 c4 48 ce 32 21 45 02 33 08 fc 0e 33 64 fc 0e 33
       2.4014646e-08 3.0330856e-08 3.3291172e-08 3.32915e-08
000060 ac b1 e1 32 a0 da 1c 33 0a 39 36 33 d0 1d 26 33
       2.6274243e-08 3.652042e-08 4.2427054e-08 3.8677e-08
000070 7c 2d 34 33 85 08 33 33 eb e8 28 33 85 e3 a4 32
       4.1950884e-08 4.1684434e-08 3.9327386e-08 1.9195577e-08
000080 0b a0 0a 33 ee c1 f1 32 a7 d8 08 33 f7 2d b5 32
       3.2276187e-08 2.8144282e-08 3.186201e-08 2.1092076e-08
000090 a3 c8 a3 32 13 aa f9 32 db a3 17 33 bf 65 2d 33
       1.9066936e-08 2.9064756e-08 3.5306453e-08 4.037224e-08
0000a0 4c 61 91 32 d5 73 ba 32 82 eb b8 32 2c 4a 76 32
       1.6924467e-08 2.1705924e-08 2.1527516e-08 1.4335949e-08
0000b0 14 91 aa 31 47 4c ff 31 a9 3f 52 32 c0 80 4a 32
       4.9641447e-09 7.4301485e-09 1.2238083e-08 1.1787222e-08
0000c0 95 d7 e6 31 19 02 9c 31 21 fa a3 31 aa d6 9b 31
       6.71839e-09 4.540436e-09 4.7723607e-09 4.535498e-09
0000d0 2a ef 39 31 e0 c2 3e 31 e6 99 43 31 61 e4 8f 31
       2.7056992e-09 2.7759413e-09 2.8463716e-09 4.1878114e-09
0000e0 93 a8 55 31 f7 06 8a 31 02 77 1c 31 95 41 18 31
       3.1091403e-09 4.0171204e-09 2.2768636e-09 2.215619e-09
0000f0 44 ca 25 31 1d 08 63 31 86 ae 31 31 7e 52 20 31
       2.4125635e-09 3.303746e-09 2.5856095e-09 2.3329956e-09
000100 bb 56 33 31 21 09 33 31 80 ed 21 31 66 99 f9 30
       2.6097229e-09 2.6053117e-09 2.3563587e-09 1.8160733e-09
000110 02 26 08 31 56 b1 34 31 9a 08 1e 31 3f 41 0e 31
       1.981221e-09 2.6294251e-09 2.2996915e-09 2.0700808e-09
000120 4c db 0a 31 92 83 21 31 a8 cd 16 31 49 81 04 31
       2.0206299e-09 2.3503373e-09 2.1944775e-09 1.9282018e-09
000130 b4 b8 f6 30 5f 65 0e 31 78 9e 0e 31 d8 ff 05 31
       1.7951352e-09 2.0721342e-09 2.0753799e-09 1.9499478e-09
000140 a6 f6 f8 30 e3 2d 03 31 b1 16 06 31 51 f9 fb 30
       1.8114477e-09 1.9089093e-09 1.9512465e-09 1.8333514e-09
000150 4c cc f2 30 d7 33 f9 30 99 d6 fd 30 d3 f6 fb 30
       1.7665882e-09 1.8131868e-09 1.8469165e-09 1.8332805e-09
000160 9d c7 fb 30 b3 25 01 31 f4 50 fd 30 ed dc f3 30
       1.8319387e-09 1.87934e-09 1.8431181e-09 1.7743368e-09
000170 ea 80 f9 30 b6 2b 01 31 bc 9e 06 31 34 90 fa 30
       1.8153774e-09 1.8796817e-09 1.9589796e-09 1.8230879e-09
000180 23 73 07 31 85 21 2b 31 9e 9b 27 31 e0 f6 f7 30
       1.9710533e-09 2.4902829e-09 2.4390157e-09 1.8041781e-09
000190 f3 ac 0a 31 fa b5 1e 31 6e cf 41 31 a4 71 0b 31
       2.0179953e-09 2.3095468e-09 2.8203107e-09 2.029176e-09
0001a0 55 f0 14 31 27 a5 49 31 37 7c 26 31 1e 90 02 31
       2.1673447e-09 2.9343228e-09 2.4226787e-09 1.899941e-09
0001b0 87 9c 0a 31 a3 f4 57 31 12 bf 4d 31 7d a2 19 31
       2.0170619e-09 3.1425678e-09 2.9940037e-09 2.2356794e-09
0001c0 da ad 4c 31 9b bd 41 31 a1 d2 2f 31 fa 7d 17 31
       2.978473e-09 2.8192975e-09 2.558558e-09 2.2045001e-09
0001d0 da ee 34 31 b1 f2 5f 31 90 5c 4e 31 1f 8b 31 31
       2.6329219e-09 3.2588725e-09 3.002956e-09 2.5835971e-09
0001e0 7c d7 45 32 77 51 ad 31 41 ab 92 31 6f fc d3 31
       1.1515905e-08 5.044224e-09 4.2686286e-09 6.1696066e-09
0001f0 00 c4 66 32 32 88 2a 32 6d 29 72 32 a7 9a bc 32
       1.3432327e-08 9.92627e-09 1.4095673e-08 2.1956408e-08
000200 32 d8 59 33 0b 72 10 33 5a ca a9 32 37 3d 80 32
       5.0720878e-08 3.3631334e-08 1.9766208e-08 1.4928998e-08
000210 46 f8 4f 33 88 f8 62 33 fa 70 77 33 af db 6d 33
       4.8421747e-08 5.2845763e-08 5.761192e-08 5.5380664e-08
000220 26 92 df 33 53 7f a2 33 f8 88 b4 33 6c 81 51 33
       1.0410831e-07 7.566873e-08 8.4068176e-08 4.8779313e-08
000230 cd 81 8e 33 a5 49 ab 33 f0 69 bf 33 50 fd ae 33
       6.636001e-08 7.976204e-08 8.9134005e-08 8.148584e-08
000240 11 81 6d 33 a7 c1 be 33 5a 83 e6 33 82 60 c8 33
       5.5298248e-08 8.8827896e-08 1.0734102e-07 9.3307804e-08
000250 30 94 bf 33 10 d8 d5 33 53 78 b2 33 ab ba 55 33
       8.921086e-08 9.957887e-08 8.310658e-08 4.97627e-08
000260 53 ad ab 33 ab b7 9f 33 92 49 90 33 1f 25 82 33
       7.9943355e-08 7.4374235e-08 6.718905e-08 6.060349e-08
000270 03 51 7d 33 15 59 ac 33 c1 84 a3 33 ab 24 d9 33
       5.8979833e-08 8.025578e-08 7.614427e-08 1.011152e-07
000280 5b 62 90 33 05 49 85 33 15 a5 5c 33 a5 99 7c 33
       6.723413e-08 6.206577e-08 5.1372883e-08 5.881306e-08
000290 30 e1 c3 32 d5 94 fb 32 9d b3 56 33 4a cb 86 33
       2.2803391e-08 2.9287927e-08 4.9989115e-08 6.276839e-08
0002a0 4c 73 c0 32 b4 e6 96 32 21 5b 8b 32 75 8f 99 32
       2.2404173e-08 1.756721e-08 1.622317e-08 1.7876781e-08
0002b0 1f 0d c0 31 4b fc cf 31 2d b8 ec 31 9b 94 6c 32
       5.589427e-09 6.0531753e-09 6.8894423e-09 1.3770797e-08
0002c0 97 ab b2 31 9c fc 9b 31 ed 8c bc 31 43 a6 b8 31
       5.1999893e-09 4.539812e-09 5.4875415e-09 5.3740066e-09
0002d0 58 02 90 31 cf 9c 93 31 76 77 8f 31 a7 4c a7 31
       4.191218e-09 4.29609e-09 4.175429e-09 4.869054e-09
0002e0 d8 8c 8a 31 11 9c 87 31 04 d6 89 31 8e db 83 31
       4.0323407e-09 3.94676e-09 4.0115555e-09 3.8375623e-09
0002f0 5f b0 81 31 13 5a 89 31 f0 24 87 31 8b 98 85 31
       3.774445e-09 3.997465e-09 3.9332164e-09 3.8881516e-09
000300 02 c4 86 31 2c e8 84 31 c6 77 81 31 46 8b 81 31
       3.922197e-09 3.8681005e-09 3.768011e-09 3.7702277e-09
000310 3b 85 7e 31 9d 29 83 31 41 62 80 31 95 90 81 31
       3.7037597e-09 3.8173327e-09 3.7364605e-09 3.770831e-09
000320 c2 b9 7e 31 7a 15 80 31 2c 5d 80 31 86 12 80 31
       3.7067456e-09 3.727732e-09 3.7358827e-09 3.727396e-09
000330 f8 68 82 31 16 f8 80 31 fa c0 7f 31 3e e3 7f 31
       3.7954315e-09 3.7534944e-09 3.7217078e-09 3.7236556e-09
000340 68 27 81 31 c5 62 80 31 f6 a2 80 31 37 23 81 31
       3.758874e-09 3.736519e-09 3.743817e-09 3.7583976e-09
000350 00 08 80 31 a7 83 84 31 be 18 85 31 f1 3e 81 31
       3.7262e-09 3.8566728e-09 3.8736223e-09 3.7615497e-09
000360 d6 f4 82 31 2c fb 87 31 25 e3 85 31 ca 76 82 31
       3.8113326e-09 3.957572e-09 3.896633e-09 3.7970027e-09
000370 cf cb 88 31 da 8e 80 31 f7 ab 85 31 86 a0 99 31
       3.9812913e-09 3.7415306e-09 3.8903596e-09 4.4711355e-09
000380 81 29 8b 31 46 6b 9a 31 8e 50 8b 31 c8 94 85 31
       4.050151e-09 4.4941855e-09 4.0545904e-09 3.887724e-09
000390 c8 13 87 31 42 6c 83 31 a5 18 8d 31 45 10 89 31
       3.931266e-09 3.8249093e-09 4.106442e-09 3.9890744e-09
0003a0 3e b2 8d 31 02 ab 8b 31 46 67 9e 31 d6 79 93 31
       4.123904e-09 4.0648738e-09 4.610146e-09 4.292114e-09
0003b0 12 a6 d9 31 b4 2c ce 31 37 5e cf 31 66 7c c7 31
       6.334411e-09 6.0004712e-09 6.035204e-09 5.8058047e-09
0003c0 b4 12 11 32 b3 18 ad 31 02 b1 cc 31 c7 41 9a 31
       8.444363e-09 5.0377706e-09 5.957305e-09 4.489468e-09
0003d0 55 c3 27 32 14 70 86 32 22 37 48 32 0c ef 5a 32
       9.765093e-09 1.565062e-08 1.1654068e-08 1.2743623e-08
0003e0 5e cb 15 33 55 74 11 33 14 38 92 32 88 04 e5 31
       3.4876727e-08 3.3866247e-08 1.7022138e-08 6.6652923e-09
0003f0 ac 7e d6 32 7e 5f 12 33 d1 9a c7 32 cd 36 10 33
       2.4970483e-08 3.4080124e-08 2.3237051e-08 3.3577454e-08
