Training/PyTrainer/epoch=19-v2.ckpt (torch, 706245 bytes, 32 tensors)

net.0.weight f4 [256, 120]
00000000: 58a9 463d 3619 b13d c50b fa3d df69 8fbd
00000010: d674 67be 63dc ea3d 70b3 ed38 9a34 94bd
00000020: 530f c63b b188 a1bc 754a 1e3e 242d 223d
00000030: 3cb6 803d 7c65 5ebd 0d19 94b9 3f9f 863d
00000040: 6622 f83c e26f b33c 8011 c73d 0fd1 38be
00000050: eedd 423d e14c e63a 1fb6 7abd 34e4 253e
00000060: 2593 283d 7d62 353c 8af4 3b3c fdde db3b
00000070: fde6 4d3d 644d 82bc 4c4d 2abd a14e fd3c
00000080: 0297 8f3d e276 dbbc fc13 c03c d2c5 55bc
00000090: d33a bfbc 3d70 d83a edf9 62bd 3f1d 8ebc
000000a0: 7063 22bd c800 febd f3b8 da3d 2818 00bc
000000b0: 9e0c 41bc 3d52 d7bd a0ad 7b3d 171d 05bc
000000c0: bf76 fe3c b33f e83c 37c3 87bc 5667 9b3c
000000d0: e178 1fbd 4fed 13bd ba19 b0bb 8676 9f3c
000000e0: 0f74 b2be d9e1 3c3d 9419 52bd 792b a43d
000000f0: e7d4 663e 913b 393d 09c6 8a3d e5c8 4d3d
00000100: 8b79 5abe b93f 923d 2fd2 d6be 117a 223d
00000110: 609a d8bd f317 673c 661f 363c e739 fe3c
00000120: 37dc 873d 4b52 88bd fd8b ef3d 451d 4a3e
00000130: 6ff8 e43d 61d4 38bd 2b54 20bd a06e c8bc
00000140: dc3b f33d f89c 81bc 1012 c83c be0f 5f3d
00000150: 8337 0d3e 3992 f93d 0ebc b63d 4783 f73c
00000160: 092d f7bb 6c52 d13d b44b 543d 9f35 003e
00000170: b21e ff3d cf01 343b 471b 573d a429 c13a
00000180: 5908 b9bc 2c32 dcbd bd4f 3d3d 9990 ab3d
00000190: e3b4 caba bc1f 7c3c 76ef 943d 5c90 3cbc
000001a0: 13c4 e93c d767 0ebe 98f7 f3bb 140d 18bd
000001b0: 215e 0bbd f7ac 2cbc 388e 2abb f4b4 58bc
000001c0: f7d2 2fbc b5c2 223c 85da 22bd 57e1 71bd
000001d0: 2b89 b5bc 9819 133c 0d80 643c 19e8 f6bc
000001e0: 1777 c23b 033d bc3c ece3 0d3e a79d ac3d
000001f0: 23e2 8dbd 264e 933e 6805 783b e8e8 c1bc
00000200: 199b 1d3d cd2a b1bd eb54 39be 555d 7abc
00000210: c4ad 2dbe 9731 0a3e 1113 3c3d e5e0 afbd
00000220: 51e2 f8bb 5ca6 4f3d bcf6 453d 3d2b 82bd
00000230: 2958 2b3d c4ed e9bd ab1b efbd e4b5 433b
00000240: 343e 423d ee0a 563b 2898 92bd c46d 44bd
00000250: 2be1 393d fb8a 963d f397 813d 0170 8f3c
00000260: 8fcd a53b 9aa3 863a 62e6 693d 0afa 85bd
00000270: 026a 48bd 7778 9fbd 4d65 38be e1e5 5bbb
00000280: 6504 623d 26e2 583d 96aa 9ebc 79ea 773c
00000290: ef6a b53d c504 be3d d3f5 a5bc e71d d63c
000002a0: d362 283d 2f72 d63b 7c57 b2bb 08bf aa3c
000002b0: 59e0 bc3b a955 b6bc 27f6 75bd 9ef0 f43c
000002c0: 987e 9a3d 7d49 bf3d d2bf f03d 463d 9abd
000002d0: 5e73 afba 19e5 853d 8bd2 cc3d 653c 41bc
000002e0: 74cf d1bd d59a a3be 7e1c 79be 49bc 38be
000002f0: 1acd c5bd bb77 a2bc 710a acbd 8a5d bdba
00000300: 2b21 05bd 9e41 843e 9f91 bb3c 5e9d 88bd
00000310: 0c28 fbbd c037 bb3d 4646 723d 7a90 6fbb
00000320: 1890 f2bd c398 56be c498 26be 7477 26bd
00000330: 77ee a1bd 6025 0ebc d0e3 1bbe a603 08be
00000340: ced9 f73d bd21 47bd 09a0 953d e4ed 243e
00000350: e88c 87b9 6920 3b3d ccbf 0dbd 73aa edbc
00000360: 707b 95bd 4b94 9ebd 375a 1cbe f39b 553c
00000370: bd41 4d3c 7c4c 5d3e 14fd fd3d 7371 7a3d
00000380: eefc 30bd 0bea a1bd db04 efbd 9c28 2a3c
00000390: 6d12 2b3d 2e86 c83c e39b 00be 9878 39bc
000003a0: c3e8 e8bd f4cb 953b a09e 8dbd 7037 b03b
000003b0: 17da 04bd 1da5 abbc 1080 1ebd f4be 13bd
000003c0: 9fd6 13bd c6ad 7bbd 9b55 6abe efde 5ebe
000003d0: 7ec8 413e ac13 d0bd 7b8a 4c3e fbe3 2e3d
000003e0: 9022 c2ba c447 e4bb f744 1c3d 35dd 9ebc
000003f0: ca2a 72bc e4ef 5a3d c988 17bd 5dc6 ca3c
0.048501343 0.08647387 0.12209276 -0.07002615 -0.22603163 0.11467817 0.000113344635 -0.072365955
0.0060443073 -0.0197185 0.1545809 0.03959383 0.062847584 -0.054296 -0.00028247424 0.065733425
0.03028984 0.021903936 0.09720135 -0.180485 0.04757493 0.0017570519 -0.06120884 0.16200334
0.041155953 0.011070845 0.011471877 0.006709932 0.050269116 -0.015906043 -0.041577622 0.030921282
0.07011224 -0.026790086 0.02344703 -0.013047652 -0.02334348 0.0016512942 -0.05541413 -0.01734793
-0.039645612 -0.12402493 0.106798075 -0.007818259 -0.011782793 -0.105137326 0.06144488 -0.008124611
0.031062482 0.028350687 -0.016572578 0.018970173 -0.03893364 -0.036114987 -0.0053741606 0.019465696
-0.3485417 0.046113823 -0.051293924 0.08016104 0.22542153 0.045222823 0.067760535 0.050240416
-0.21335427 0.071410604 -0.41957232 0.039667193 -0.1057632 0.014104831 0.011115884 0.03103347
0.066337995 -0.06656321 0.116966225 0.19737728 0.111801974 -0.045124415 -0.03914277 -0.024466813
0.11876652 -0.015821919 0.024422675 0.054458372 0.13790707 0.12186093 0.08922587 0.030213965
-0.0075432104 0.10220799 0.05183001 0.12520455 0.124570265 0.0027466898 0.052516248 0.0014737141
-0.022586988 -0.10751757 0.046218622 0.08377189 -0.0015465285 0.015388425 0.07272236 -0.011509027
0.028535878 -0.139068 -0.007445287 -0.037121847 -0.034025315 -0.010539285 -0.002602471 -0.013226736
-0.01073145 0.009934117 -0.039759178 -0.05905279 -0.022160133 0.00897827 0.013946545 -0.03013997
0.005934607 0.022978311 0.13856477 0.08428507 -0.06927898 0.2877056 0.003784502 -0.023670629
0.03847799 -0.08650742 -0.180988 -0.015281041 -0.16960818 0.1349548 0.04591662 -0.08587817
-0.0075953384 0.050695762 0.048331007 -0.06355903 0.041832123 -0.11422303 -0.11675199 0.0029863054
0.047422603 0.0032660323 -0.07157928 -0.047956243 0.045380753 0.07350727 0.0632781 0.017509462
0.005059905 0.0010272146 0.057104476 -0.06541832 -0.048929222 -0.07786649 -0.18007393 -0.0033553767
0.055179972 0.052950047 -0.019368451 0.015131586 0.088582866 0.092782535 -0.02025882 0.026137305
0.04110987 0.0065443735 -0.005442558 0.020843044 0.005764049 -0.022257643 -0.060049202 0.029899891
0.07543677 0.09340189 0.11755337 -0.07531218 -0.0013385823 0.065378375 0.100010954 -0.011794184
-0.10244647 -0.31954065 -0.24327275 -0.18040575 -0.09658261 -0.019832483 -0.08400429 -0.0014447432
-0.032502335 0.25831312 0.022896586 -0.066706404 -0.12263498 0.09141493 0.05914905 -0.003655462
-0.1184389 -0.20956711 -0.16269213 -0.040641263 -0.07906812 -0.008675903 -0.15223622 -0.13282642
0.1210209 -0.04861616 0.07305915 0.16106373 -0.0002585419 0.045685206 -0.03460674 -0.02901194
-0.072989345 -0.077431284 -0.15268789 0.0130376695 0.01252788 0.21611208 0.124017864 0.06114335
-0.043209963 -0.07905968 -0.11670848 0.010385659 0.04176562 0.024478044 -0.12559466 -0.011320256
-0.11372521 0.0045714322 -0.06915021 0.0053777024 -0.03243455 -0.020952756 -0.03869635 -0.03607078
-0.03609335 -0.06144502 -0.22884218 -0.2176473 0.18924138 -0.10160002 0.19974701 0.042697888
-0.0014811326 -0.006966563 0.038151708 -0.01939259 -0.0147807095 0.053451434 -0.036995683 0.02475279

net.0.bias f4 [256]
00000000: 5929 84bc d0ef cd3c b6fc 283e 4e93 b83d
00000010: 78e8 f93d ff46 4c3d 896c 1f3e b1f4 f53d
00000020: c7d1 ae3d 65dc 063e 0205 0abd 6b64 963d
00000030: 4602 c3bc c588 543e a693 fabd 01b7 cd3d
00000040: b9a7 bbbd cf7f 3f3e 3f0e 6d3e 3168 383e
00000050: 6902 ecbd 71c9 6a3d bc80 3ebe 44ef 96bd
00000060: 7d2e 13bc a453 2cbd 9a99 2e3e 910a 4ebe
00000070: b1d0 803c fc75 0dbe d6c2 043e c297 203e
00000080: dc0b 443d aa5a de3c bdb3 9e3b f351 8dbd
00000090: 8815 593d b476 fdbd f7c7 8ebd 4c1b 523d
000000a0: 2638 7c3d 7cc6 99bd ed44 83bc d3e0 343e
000000b0: e533 dbba 6499 0bbe 7036 243d cc5c 173e
000000c0: 96fa 21be bf09 7b3c c270 15bd 7089 1b3e
000000d0: 2212 ae3d 0446 5cbe 5610 88bb 1c7d f7bd
000000e0: 3c5a ffbd a286 8bbe 5b90 303b 9e3e 143e
000000f0: e9d2 50be 4ae2 fbbd dfd8 1a3d ac1c 58be
00000100: ccc3 233e 099c 303c b843 e23d 5849 13bd
00000110: 4b53 9bbd 1409 383c fded 113e 60c6 02be
00000120: 765f 033d 610b bd3d 03c8 863e 5d69 bb3d
00000130: c8b9 18bd 5652 42bd 3fe8 58be 66ea 593e
00000140: e70e c4bc 4fad ccbd 81dd 693d 8677 113e
00000150: 0213 763e 70b3 20bd 8caf 463e d670 f33d
00000160: e31e 883d bb0e 423e b515 2fbe 0601 bb3d
00000170: 219e 82be 786a f1bd 1830 eb3d 9383 113d
00000180: f626 30be a432 243d 17c0 af3d 131a c03c
00000190: 9e55 fcbd ceb5 32be 0ffe 653d 850b 5a3d
000001a0: f8cf 8b3d 67a0 103d cce6 bdbd 9a6f a83d
000001b0: 83f5 19be 3bc2 393e bf0a f73b e29d 603e
000001c0: 50d3 a63d 6a1b 13be 824d e03d 6f80 0cbd
000001d0: e9d4 663e 73ae 833d 073e 183e d9a9 51bd
000001e0: 0a32 723e 66f9 433e 504b eebb f198 1fbc
000001f0: 0d3d c53d c322 d6bc 301d 233e 7dfc 14bc
00000200: c4d1 25bd b1c3 c33d 6472 97bd 2b55 fe3c
00000210: 99af e63d 7ba0 6d3d f559 17bd 1ee8 ccbd
00000220: 75bb 35bd 237d c43c 0bee 20be 6f86 f4bc
00000230: 10fe c53d e7dd 943e 6dcd 90bd bd28 283e
00000240: c20d ecbd 7284 363d 85e2 5ebd 3252 983d
00000250: 664f 713e ead2 42be 74a5 e4bd c0bc 80be
00000260: 7955 e23d 79b3 193e aba0 29be 3c92 413e
00000270: 9b5d 87bd a691 f0bc ca89 6cbd cbab 5f3c
00000280: 4ec6 ef3d 35fa a43d 6ac8 d03d a462 01bd
00000290: 0c42 a33d 5982 0a3e d2e1 363c 5833 fd3d
000002a0: 17d7 0fbe 6862 0fbd 9380 0a3e 0134 933d
000002b0: 5fa0 7c3e 66f8 e33d f581 883e 298e 09be
000002c0: 5966 e23c 5e02 9d3d 4ef1 243d 7825 5fbc
000002d0: 8eea 813e 5512 f93d 1f4a 0a3d 6bb6 b1bd
000002e0: ce90 853e c13d 3fbc ff19 c63d 711e 4fbd
000002f0: 6586 1e3e 0b90 bcbd 7777 ce3d 784f 253e
00000300: 01ee 47bc ca37 73bd aeae 29be e176 833c
00000310: b87e 2bbd 6836 203d cd76 ba3d 101b aebc
00000320: 9700 9d3d 615a febc 602e c0bd 134f 68bd
00000330: 7077 22bd 4717 05bd dcb1 eebc 3ebd 7e3e
00000340: 5678 763d 572e 793d 96a6 043d 31c4 013e
00000350: 9fb2 2cbe f205 4a3d 5f09 f63d 3bba 983c
00000360: a0d0 1bbe f354 adbd 6f7d 0a3e 2464 c93d
00000370: 0d90 82bd 54b3 b53d 49c2 cdbb 6481 cfbd
00000380: 4e2b 983c 5412 bb3d aea0 1b3e b99c 983c
00000390: 3e95 64bc bcdf b03d 911b 4c3d 0045 81bd
000003a0: 6773 10bd cdfe 4d3e aa00 a83d d12c 143e
000003b0: 8333 b4bd 0ca7 9abc d9af 36bc ff01 8c3d
000003c0: 1d8c 8e3d 0bbf a83d f4a6 e9bd 3b1d ce3b
000003d0: a39a 8e3c a232 33be 38c6 8dbb 4e30 3cbc
000003e0: 216d 4abd 64f8 963d 7b7a db3d 47e1 49bd
000003f0: c0a2 903d 82b6 803c 08e6 10be ac6c 2dbc
-0.016132997 0.025138766 0.16502652 0.09012471 0.12202543 0.049872395 0.15568747 0.12009562
0.085361056 0.13170011 -0.033696182 0.07343372 -0.023804795 0.20755298 -0.12235193 0.10044671
-0.0916285 0.18701099 0.23149966 0.18008496 -0.11523897 0.057321016 -0.18603796 -0.07369855
-0.008983252 -0.042071953 0.17050782 -0.20121218 0.015724512 -0.13814539 0.12964949 0.15682891
0.047862872 0.027142841 0.004843204 -0.06900396 0.05299905 -0.123761564 -0.06971734 0.051295564
0.061576985 -0.07508561 -0.016024077 0.17663889 -0.001672384 -0.13632733 0.04009098 0.14781493
-0.15818247 0.015322148 -0.036484487 0.15189147 0.08499552 -0.21511084 -0.004152338 -0.120844096
-0.12468383 -0.27251154 0.0026941511 0.14477012 -0.20392956 -0.122990206 0.03780448 -0.21104687
0.1599266 0.010779389 0.110480726 -0.035958618 -0.07584246 0.011232633 0.14250942 -0.12770987
0.03207346 0.09230686 0.26324472 0.09150956 -0.03728655 -0.047441803 -0.21182345 0.21280822
-0.023932887 -0.099939935 0.05709601 0.14205751 0.24030688 -0.039233625 0.19402903 0.11886756
0.06646516 0.18950932 -0.17098124 0.091310546 -0.25511268 -0.117878854 0.114837825 0.03552587
-0.17202362 0.040087357 0.0858156 0.023449933 -0.12321018 -0.17452165 0.056150492 0.053233642
0.06826776 0.03530922 -0.09272537 0.08224411 -0.15035062 0.181405 0.007539123 0.21935228
0.081457734 -0.14365926 0.109522834 -0.03430217 0.22542156 0.06429758 0.14867412 -0.05118737
0.23651901 0.19138107 -0.0072721615 -0.009741054 0.09630785 -0.026139623 0.15929103 -0.009093401
-0.04048325 0.095588095 -0.07394865 0.03104647 0.11263961 0.058014374 -0.036951024 -0.1000521
-0.044368226 0.023985451 -0.15715806 -0.02984926 0.09667599 0.29075548 -0.07070432 0.1642179
-0.115260616 0.044559903 -0.054415245 0.074375525 0.23565444 -0.1902577 -0.1116437 -0.25144005
0.11051459 0.1500987 -0.16565196 0.1890344 -0.06609651 -0.029366326 -0.057748593 0.0136517985
0.117077455 0.08055536 0.10194476 -0.03158821 0.07971582 0.13526286 0.011162238 0.12363309
-0.14046894 -0.035005957 0.1352561 0.07187653 0.24670552 0.111313626 0.2666165 -0.13433136
0.027636694 0.07666467 0.04026919 -0.013619773 0.25374264 0.121617 0.033762094 -0.086773716
0.2608704 -0.011672438 0.09672927 -0.05056614 0.15480955 -0.092071615 0.1008138 0.16143596
-0.012202741 -0.059379376 -0.16570541 0.016047897 -0.041868895 0.039114386 0.09104691 -0.021253139
0.07666128 -0.031048955 -0.09383845 -0.056716036 -0.039664686 -0.032492902 -0.029137544 0.24876878
0.060173355 0.06083521 0.03238543 0.12672497 -0.16865014 0.049322076 0.12013506 0.01864349
-0.15216303 -0.084634684 0.13524412 0.098335534 -0.06375132 0.08872095 -0.006279264 -0.10132101
0.018575337 0.09134355 0.15198013 0.018629419 -0.013951598 0.08636424 0.049830977 -0.06311989
-0.035266306 0.2011673 0.08203252 0.14470221 -0.087988876 -0.018878482 -0.011150324 0.06836318
0.06960318 0.082395636 -0.11408797 0.0062901056 0.01740772 -0.17499784 -0.004326608 -0.011486126
-0.04942048 0.073715955 0.10716721 -0.049287107 0.07062292 0.015712027 -0.1415025 -0.010584991

net.2.weight f4 [32, 256]
00000000: 977a 6bbc 4e34 9bbd 96a6 1bbd 0b36 9a3c
00000010: 8196 cfbd 0f2d a93d 5dc0 a33d a36f 143e
00000020: d9c1 efbd 9292 3abd f4d7 163d 4bd8 9c3d
00000030: fc77 253d 50ad c23d bf09 ce3d b757 85bc
00000040: 4072 36bd a5a0 093e 90b5 b8bd 6f77 7e3d
00000050: 7ffe e03d 9216 b43d 92ab 44be 4693 96be
00000060: dd47 5cbd 7950 e2bc 71d8 c43d b8bd e6bd
00000070: c1e2 3fbd e630 a6bd 2b2d 81bd 31d3 cfbc
00000080: 1e5a 3d3d b737 1f3d a0d8 8d3d 2a0c c9bb
00000090: e84b 9e3d b59a a23d 651c c6bc c670 d5bc
000000a0: 891d 29bd 4ac8 06be 1665 ba3c 8106 053d
000000b0: da59 afbe b900 943d 31fc c23d e03b 8d3b
000000c0: c6fc bd3c 7d5c 89bd c8da 8bbd cc3f 773c
000000d0: f09c 683d ab2e 4dbd aac9 95bd 716d c23d
000000e0: ffde 05bd c139 d4bc fa3a 33bd 9bdc 353d
000000f0: a382 8abe d3fe 31bd 714a 7d3c abeb e3bd
00000100: 734d ba3c 1f21 b13d a5ad 243e 7862 263e
00000110: d2ed f43c 8c70 933d c29d 3ebd 2905 f1bd
00000120: 45fa 50bd a926 bfbd 9dba 003e 337d c63d
00000130: 1e1b 03be d893 573d 4de8 37bd a125 553d
00000140: 5687 003d d0d9 b9bd 8a77 9ebd 8b50 093e
00000150: 4eb8 e43d df6d 93bc ca51 e73d db4b 293d
00000160: cd9e 843d 4fe1 523e d0f4 b83d 28d8 39bc
00000170: d580 643d d67b 6a3d 440f e5bd d5be bc3d
00000180: 2ef9 3abe a60e 76bd 5ee5 86bc fc19 8f3d
00000190: 6fe4 2bbd e528 213c 34e1 b63d a828 43bd
000001a0: 63b6 de3d f8f3 6cbc 0602 3fbe b908 883d
000001b0: 89ae 87bc b559 3ebc 65da d8bb d022 eb3c
000001c0: d9d0 e23d 08ea 5dbd 30e5 0abd eae8 7b3d
000001d0: e50f 42bd d18d 843d 9627 2f3c ade3 f63d
000001e0: e938 0ebd 3044 fbbc e852 25bc 6da6 f9bb
000001f0: c386 533c 9847 83bd f83d fc3d c195 f13c
00000200: 87a8 09bd 4185 fabc c59b 8dbd ab0f 39bd
00000210: e737 e5bc be6b 9cbc 32dd 8ebc 1b32 e4bd
00000220: c0ca c13d 9c2f 3d3d 2f2c 51be 85c3 3ebd
00000230: a6bf af3d 7222 313c 0316 593d 1826 01bd
00000240: e181 b8bb 6d39 98bc d568 113d d7c5 693a
00000250: 1e46 883c fef2 503e 9dea 9dbd 8765 3a3d
00000260: 167b a43c 459d 963c 5991 c4ba 15e5 f7bd
00000270: 40da 0cbc 9414 42bd 9739 e3bb 614b 2abe
00000280: a10e eebb fab7 1bbd c9d8 c9bd f619 a8bd
00000290: 04ab 6dbd af19 ddbc 9b51 c23d 6fc1 6c3c
000002a0: 2e89 06bd 1110 f83c 4dc5 aa3d 2dcd ad3d
000002b0: 978a 013e dc32 81bd b9a7 7b3d 8c6b c53d
000002c0: 891d 78bd ef2b 8dbd 8044 35bc 9873 3cbd
000002d0: 4e5a 453d e5e8 12bc 75a0 f83c 8493 8dbd
000002e0: 752f 23be d3a1 8fbc 4e02 a93d e64a 613c
000002f0: 772b 253d ca4e 9638 48ff d93c 0d69 183e
00000300: 9799 05bd d82c 8dbd 6b9a 60bd a8d4 78bd
00000310: cb4a 0d3d 28fa 70bc 5efc 3b3d 1490 5ebd
00000320: 12e4 16bd f1f7 a43c e20b e7bd 0b76 b43d
00000330: 3ed9 4e3c 5b91 ce3d 7c37 5f3d 3d1e 79bc
00000340: a0a6 d1bc 97b7 3b3c 3840 5f3d 0e00 a7bb
00000350: 426d 0fbe c61b 293e 6939 75bd 0df5 893e
00000360: be47 bdbd 14d0 463d 1b97 d7bc 1f79 173d
00000370: bd4b 95bd 0a1a 2dbd a437 21bb f6f8 b9bd
00000380: 2c8f 103d 8d3b 4dbd bd1c e23d c0f0 1ebd
00000390: d431 5c3d 8f1f 373d 27b1 e93c 4707 d03d
000003a0: d112 04bc bcf9 f23d 2424 fdbd 620d f8bd
000003b0: b4a1 2e3e a2d7 d8bd 5b9d 2bbd ca7e a7bc
000003c0: 52ff 21be fd31 fa3c c892 b6bc 1925 e03c
000003d0: 24f2 0d3e 95c4 6e3c 1f42 b33d 2116 883d
000003e0: e5d9 7abd 118c 4c3d d578 dcbd 2aa4 a83d
000003f0: 6100 8cbd 1f71 143e 466b afbd 1ffe ca3c
-0.014372489 -0.07578336 -0.038000666 0.018824598 -0.10136128 0.08260547 0.07995675 0.14495711
-0.117068954 -0.045549937 0.036827043 0.07658442 0.04039763 0.09505713 0.10060453 -0.016277177
-0.04454255 0.13440187 -0.09019005 0.06212562 0.10986041 0.087933674 -0.19206074 -0.29409236
-0.05377947 -0.027626263 0.096115954 -0.11266655 -0.04684711 -0.081147954 -0.06307443 -0.025369259
0.04622852 0.038871493 0.069260836 -0.0061354833 0.07729322 0.07939664 -0.024183461 -0.026054751
-0.041287933 -0.13162342 0.02275328 0.032476906 -0.3424824 0.072267 0.09520758 0.004310116
0.02319182 -0.06707094 -0.068288386 0.015090894 0.056790292 -0.050093334 -0.07313855 0.094935305
-0.03268337 -0.025906445 -0.043757416 0.04439984 -0.27052793 -0.04345591 0.015459643 -0.111289345
0.022742009 0.086488955 0.16081865 0.162485 0.029898558 0.07199201 -0.04653717 -0.11768562
-0.051019926 -0.09333546 0.12571187 0.096918486 -0.12803313 0.05263123 -0.044899274 0.05203784
0.031379066 -0.090747476 -0.07737644 0.13409631 0.11167966 -0.017996727 0.11294897 0.041332107
0.06475601 0.20593761 0.09031069 -0.01134304 0.055786926 0.057247005 -0.11184552 0.09216086
-0.18259117 -0.060072564 -0.016466793 0.06987378 -0.041965898 0.00983641 0.08929673 -0.047646195
0.10874631 -0.014462464 -0.18653116 0.06642289 -0.016562717 -0.0116180675 -0.0066178315 0.028703123
0.11074991 -0.054178268 -0.033909976 0.06150142 -0.04737844 0.06472362 0.01069059 0.120551445
-0.034722243 -0.030672163 -0.010090567 -0.0076187165 0.012910548 -0.0641014 0.12316507 0.029490354
-0.033607986 -0.030581119 -0.06914476 -0.045180958 -0.027980758 -0.019094344 -0.017439459 -0.11142369
0.094624996 0.046187982 -0.20427011 -0.04657318 0.08581476 0.010811435 0.052999508 -0.03153047
-0.005630717 -0.01858207 0.035500366 0.0008917725 0.016634997 0.20405194 -0.077107646 0.04550698
0.020078223 0.018385539 -0.001499693 -0.12104241 -0.008596957 -0.047382906 -0.0069343555 -0.16630317
-0.0072649275 -0.03801725 -0.098558016 -0.08208077 -0.05802442 -0.026989786 0.09488221 0.014450415
-0.03284567 0.030281099 0.083384134 0.084864 0.12650524 -0.06308529 0.06143925 0.096396536
-0.060575042 -0.06893145 -0.011063695 -0.046008676 0.048181824 -0.008966659 0.03034995 -0.06912902
-0.15936072 -0.017533218 0.08252393 0.013750767 0.040324654 7.167233e-05 0.026610985 0.14883824
-0.032617178 -0.06893319 -0.054834764 -0.06074968 0.034495156 -0.014708079 0.045894973 -0.054336622
-0.0368386 0.020137759 -0.11281563 0.088115774 0.012625037 0.10086318 0.054496273 -0.015204963
-0.025592148 0.011457345 0.054504603 -0.005096442 -0.14006522 0.16514501 -0.059869204 0.2694477
-0.09242199 0.048538283 -0.02631717 0.036980744 -0.072898366 -0.04226116 -0.0024599815 -0.09080689
0.03529279 -0.05010562 0.11040638 -0.038803816 0.053758457 0.04470783 0.028526856 0.10157638
-0.008061127 0.11864039 -0.12360409 -0.121119276 0.17053872 -0.10588004 -0.041898113 -0.0204462
-0.15820053 0.030541414 -0.022286788 0.02736144 0.138619 0.014573236 0.08752846 0.06644846
-0.061242957 0.049938265 -0.107652344 0.08234437 -0.0683601 0.14496277 -0.08565383 0.024779378

net.2.bias f4 [32]
00000000: 8b47 df3d cc04 133e fa78 163e 9f74 d33d
00000010: 4fb1 b83d f01d db3d a16d e13d d880 133e
00000020: 25d6 f23d 3a44 b63d 993a 0a3e 6cd3 7a3e
00000030: cb24 693d b6f5 fa3d e3da 463e 17b2 2d3e
00000040: a978 b63d 9bf7 313e e0d0 463e 1874 ed3d
00000050: 2fb8 1a3e 356e 1b3e 3584 a83d aad7 163e
00000060: 170f 0a3e 3c93 ff3d 2833 073e 0047 1c3c
00000070: a0cf d63d eb78 023b 8c2b 6b3d ffbd 9a3d
0.109023176 0.14357299 0.14694586 0.10324978 0.09018194 0.106990695 0.11007238 0.14404619
0.11857251 0.08899732 0.13498916 0.24494714 0.056919854 0.12253897 0.19419436 0.16962467
0.08909733 0.1737961 0.19415617 0.11594409 0.15109323 0.1517876 0.082283415 0.14730707
0.13482319 0.124792546 0.13203108 0.009538412 0.1048882 0.0019908499 0.057414576 0.0755577

net.4.weight f4 [32, 32]
00000000: 9ea8 35bf 564c f7bc fe23 623e c369 493e
00000010: f221 6b3e 0d7a f43e e192 393e 5cdc 90be
00000020: b95c 773c 0773 b63e 9a15 c0be a7f6 733e
00000030: f118 5abe ad6c 5fbd 494f 44bf 2730 013e
00000040: b1f3 813d 1022 05bd 784f d83e 6512 7a3e
00000050: 847b 2a3d 0d06 75be a5d4 853d 3482 29be
00000060: 7bfd 323e 9ef0 273e 6991 c1bc 9c17 77be
00000070: 85b5 f0be dd88 a3be cd78 b53e 7e65 7b3e
00000080: 3f28 303e c000 12bf 5675 e93d e04f a93e
00000090: d513 f5be c7c7 e13e bba2 33bd 49ce a2bd
000000a0: aee9 20be c018 dcbd 02e4 69be 0567 a13e
000000b0: b6f4 e63e 8b6b 653e 6bfa 363d 0066 d0bd
000000c0: 172d 96bd 0b33 203e 615c a1be 73a4 5fbf
000000d0: 84c9 063f ce0c 6c3d 274e 9b3d 18f3 a4be
000000e0: 57f1 e53e 1da9 1ebd 551c 98bc 3fe1 d4bc
000000f0: 724c e7be e3ff 4a3e a79a eabc bf0a f33e
00000100: 7f19 ef3e 67d9 ab3e 0354 34bd 27d4 ce3e
00000110: 0f93 f3be 69f6 503e e9bf babd 3dfe b4be
00000120: 378e 63bb 966c 10bf 11de febd ce74 b6be
00000130: d4fd b6bd e5f2 9bbd 704e 44bf ae5e 8cbe
00000140: e774 02be f2e3 24be 074c 373f e415 26be
00000150: 0681 b2bd 2cdd dabe 6b92 903e 1bfc cb3e
00000160: 6ae3 4cbe a195 33ba 9f75 873e 9e9a 1bbf
00000170: 83f1 59be 13c4 623e c115 0c3f 7b6c 663e
00000180: 4a62 0ebf 2a6d 2b3e da92 a0bd 7950 fbbd
00000190: 5d4a a6be bb9f bd3e 70fc 85be f4e6 5b3e
000001a0: f3e0 6d3c b483 18bd 5819 2ebe 4482 8e3e
000001b0: 9490 d53d 24aa 843d cba7 2a3b 93ef 0fbe
000001c0: 661f 0d3f 2911 10bf dd6c bc3d 9b2d d73c
000001d0: 85c9 8fbe b4fc 8e39 51db 163e 1f71 323f
000001e0: 9a93 acbd 6c06 b5be 3fc1 32bf 324f 49be
000001f0: 0ea2 133e 0382 f93e 7bb8 eebd b8ab dd3e
00000200: 9e59 2c3e 5178 d43e bdc2 eb3e c6fc a93e
00000210: c06d 15bf 8bc2 d9bd f1ae c7bd c464 f43e
00000220: 357b c0be 6019 e73d 5232 723e d99b 313e
00000230: fc6a c63d 00ae 34be ad81 82bd 856e 493e
00000240: cb5d 513d 9651 183f 195a 43be 7931 083e
00000250: f954 133e c963 56be 31d7 4dbd 7d98 2fbe
00000260: c92f 0ebf 90b2 11bf c497 18be a3c4 79be
00000270: 4942 1dbe 87ac 33bd e975 85be d9c2 2a3f
00000280: 30fa 3dbe 6c15 a93d 5630 59bc 401b f8bd
00000290: b26e 0dbe 116b 86be 1524 03be 8fdd 62be
000002a0: 58f6 803e cf22 17bd f24d 2dbe 3894 3ebe
000002b0: 7a3b 14be 395d b7bc 2072 c73a 90d1 68bd
000002c0: 58de 86be 00ff 273e 670f 0ebe 5a2d eabc
000002d0: 7290 52bd 7cd0 0d3c 9cd2 ccbd a5f2 313e
000002e0: 80c5 efbd 208b b3bc 647d d9bd d84c d13d
000002f0: fb8c 29be 9221 e03d 90e6 323e 7663 efbc
00000300: fec5 cabe 4f8e dc3c e7ef e23d 9f00 da3d
00000310: b6e1 81bd 775a b63e 7b3f a53e d015 bbbe
00000320: 3e2e 3b3e 8eab e1be f24b 413d 3bda 18be
00000330: a3a7 aebe 936a 433f 296f 053e 29fb 6cbe
00000340: bddd 6dbe e9fc 893e 1288 85be a947 d43e
00000350: c1c7 7b3e b3b2 fcbd 158b 713d 00a7 d4bd
00000360: 807b ffbe 62e2 173e 2e01 25be 9d93 21be
00000370: 1bbc f63e e85b 843e 986f 383e 96a9 223e
00000380: a5d0 e3bd db11 393e e650 023e fa9d 3a3e
00000390: d7f2 283f d20c 3dbe d628 31be 3a85 6c3e
000003a0: 4b84 9e3e 349f 8fbe bd43 653d fc36 a7bd
000003b0: 1628 043f 94b5 8e3c 2744 cbbe ef5c e13d
000003c0: 7b45 0dbf f2d7 5c3e ce08 2abe 7180 c93d
000003d0: cbd3 793e 8352 3e3d 5425 063f a83c ed3d
000003e0: 5d78 d4bb bd10 9abe ede8 73be de46 1b3e
000003f0: 14ac 1abe 17fc 203f 5fbd 6fbe 1059 abbe
-0.70960414 -0.030187767 0.22084042 0.19669251 0.22962168 0.47749367 0.18122436 -0.2829312
0.01509779 0.35634634 -0.3751648 0.23824559 -0.21298577 -0.054547 -0.7668348 0.12616025
0.063453086 -0.032503188 0.4224813 0.2442108 0.0416217 -0.2392809 0.06534699 -0.16553575
0.17479508 0.16400382 -0.023628907 -0.241301 -0.47013488 -0.31940356 0.35443726 0.24550435
0.17202853 -0.57032394 0.11399333 0.33068752 -0.47866693 0.4409773 -0.043856364 -0.07949502
-0.15714142 -0.10746908 -0.22840884 0.3152391 0.45108575 0.22404306 0.04467241 -0.10175705
-0.07332819 0.15644471 -0.31515792 -0.87360305 0.5265124 0.0576294 0.07583266 -0.32216716
0.4491069 -0.038735498 -0.018568197 -0.025986312 -0.4517551 0.19824176 -0.028638197 0.47469136
0.4669914 0.33564302 -0.044025432 0.40396234 -0.47573134 0.20406498 -0.09118635 -0.35350218
-0.0034722218 -0.5641569 -0.124446996 -0.3563599 -0.089351326 -0.07614688 -0.76682186 -0.27415985
-0.12739907 -0.16102579 0.71600384 -0.16219288 -0.087160155 -0.42746866 0.28236708 0.3984078
-0.20008627 -0.00068506045 0.26456925 -0.607828 -0.21283536 0.22145109 0.54720694 0.2250232
-0.5561873 0.16740862 -0.0784051 -0.12271208 -0.3247861 0.37035927 -0.26169157 0.2147482
0.014518964 -0.037234977 -0.17001855 0.2783376 0.10427967 0.06477764 0.0026039954 -0.14056234
0.55126035 -0.56276184 0.092004515 0.026266864 -0.28083435 0.0002727263 0.147321 0.6970386
-0.0842659 -0.35356462 -0.6982612 -0.19659117 0.14417288 0.48732004 -0.116562806 0.43295074
0.16831061 0.41498044 0.4604701 0.33200663 -0.5837059 -0.10632809 -0.09750164 0.47733128
-0.37594 0.11284137 0.23652008 0.17344607 0.096883744 -0.176445 -0.0637239 0.19671066
0.05111484 0.5949949 -0.19077338 0.13300122 0.14387883 -0.20936503 -0.05025405 -0.17148013
-0.55541664 -0.5691309 -0.14901644 -0.24391417 -0.15357317 -0.043865707 -0.2606652 0.66703564
-0.1855247 0.08256039 -0.013256153 -0.121145725 -0.13811758 -0.2625356 -0.12806733 -0.2215483
0.25187945 -0.03689843 -0.16924265 -0.18611228 -0.14475814 -0.02238332 0.0015216507 -0.05684048
-0.2634151 0.16405869 -0.13873063 -0.028586078 -0.051407285 0.008655664 -0.10001108 0.17377718
-0.11707592 -0.021916926 -0.106196195 0.10219735 -0.16557686 0.10943903 0.17470765 -0.029222231
-0.3960418 0.026923327 0.11080914 0.1064465 -0.06341879 0.35615894 0.32274994 -0.3654008
0.18279359 -0.44076198 0.047191568 -0.14926998 -0.34112272 0.76334494 0.13030685 -0.23142685
-0.23229118 0.26950768 -0.26080376 0.41460922 0.24587919 -0.12338772 0.05897053 -0.10383415
-0.4989891 0.14832452 -0.16113731 -0.15778966 0.48190388 0.2585137 0.1801132 0.15885004
-0.1112378 0.18073218 0.12726173 0.18224326 0.65995544 -0.18461922 -0.17300734 0.23097697
0.30960307 -0.2805115 0.055972803 -0.08164784 0.51623666 0.017420568 -0.39700434 0.11004054
-0.55184144 0.21566752 -0.16604921 0.098389514 0.24397199 0.046465408 0.5240071 0.11583835
-0.006484075 -0.30090895 -0.23819323 0.15163752 -0.15104705 0.6288466 -0.23412083 -0.33466387

net.4.bias f4 [32]
00000000: bf59 b03e 53d3 323e cbd6 133f 6d2f ad3e
00000010: 0e5f a23e 040e 96bc 8594 0f3e 628b 343d
00000020: b0ad ae3e 2a5f 0a3f 85db 053b 4857 313e
00000030: 3d16 953c a817 2d3e afab 223e 5a51 813e
00000040: b36e cb3e e92f 293f f897 153f 5745 a43e
00000050: cd30 e83e 2ea2 3a3e 5e2d 2e3f 5370 e83e
00000060: de7a a73c c398 ee3d 9b2d 1f3f 84ba 833e
00000070: b945 f7bd b228 a93e 7ac5 9cbc bbda b23e
0.3444347 0.17463426 0.57749623 0.33825245 0.31713146 -0.01831723 0.140215 0.04407824
0.34116888 0.5405146 0.0020425033 0.17318451 0.01819908 0.16903555 0.15885805 0.2525738
0.39732894 0.6608873 0.5843501 0.32084152 0.45349732 0.18225929 0.68037975 0.45398197
0.02044433 0.11650231 0.62178963 0.25728238 -0.120738454 0.3303886 -0.019137133 0.34932503

net.6.weight f4 [100, 32]
00000000: f002 0640 427c 3fc0 dac3 253e 27a0 8f3f
00000010: c6b8 b2be 3a09 243e 738a d33f c665 683f
00000020: e936 e73f 0a98 8abf f635 2a40 a911 a1bf
00000030: 0958 3e3f 68d5 283f 2c82 53bf 0e0d 5bbf
00000040: 63e9 49bf b3d9 febf 40ae 423f 2de7 413e
00000050: 11c7 8f3f 7bce 1abf 4e29 c13f 9ee4 dd3f
00000060: addb 8dbf a344 663f abcb d9bf 7f2e bdbf
00000070: a325 9b3f 2106 1d3f 2732 6bc0 fba7 26c0
00000080: 806a b63f 6a8a c53d 42b5 9cbf e7a2 c63f
00000090: 285c f5bf d5e0 283f ac18 043f 289b 1cc0
000000a0: c248 93bf 9a72 85bf d084 0740 abd9 6dbf
000000b0: 55fd 323f e6b2 863f 8358 68bf 9a7f 32c0
000000c0: d1d3 7a3f 568d 4fbf ea8a a7bf 73d7 babe
000000d0: a7e3 de3e c7eb 1a3f cdd2 573f 61bc 0840
000000e0: aa7a a9bf c9f3 9e3f 2d41 f4be 2b9b 40c0
000000f0: 6f1a 3840 5b11 f03f 0cee 05c0 8961 f8be
00000100: 8d68 89be 16cb 0ac0 d945 0dc0 6adb 0fbf
00000110: 55ab ec3f ac41 303d 507e b23f 9eb3 dabf
00000120: eeed c8bf 9797 9b3f c37f 0640 8611 bd3f
00000130: 83ab a1bf 0749 e13f 8a42 e93f a1cf 5b3f
00000140: 1eb1 e23f 18d8 adbd 6b5d 28bf 6b18 38be
00000150: c6d7 543e ce46 59bf 4a01 08c0 2f1c eebf
00000160: 77a0 4f3f 83ad 3a3e 549c e53f 7995 873f
00000170: 2250 d53f 6c96 0e3f 0b41 a9bf b2cc 31c0
00000180: 9890 483f f9ff 0ec0 ccea e6be 8b88 78bf
00000190: 0b6f c9bf 7246 a53f 28f2 303f 219c 16c0
000001a0: ae5e c5bf 05d3 c43f 3467 4d3f 72e4 2540
000001b0: 21c6 b4bf e4cb 9ebe af06 813f df50 1c40
000001c0: cd41 413f cfa9 15be b8b9 e1bf 37f7 4ac0
000001d0: fbe6 3440 a994 eebf 31e6 60bf ad27 ea3f
000001e0: 45a3 1f3f 77d0 92be d325 9b3d 0ed5 343f
000001f0: cbba bd3f d762 763f 7492 d83b 2a3d b2bf
00000200: 79f8 b8be f8fd d23f 5258 29c0 44ed b13f
00000210: ce32 33bf c0b5 51bf 4bd5 d13f 4665 9e3f
00000220: 1ba5 20c0 509e 87bf 5085 9b3f 1478 f83f
00000230: 0dd0 3e3e a409 4bc0 bbf2 c1bf 1323 9e3f
00000240: 042f 3a3f 5c27 debf e78f 2f40 aa84 87bd
00000250: 3557 b5bf 8577 633f b461 23bf 7753 98be
00000260: 5079 febf 7d6a 3fbe 5b86 32bf 69f5 debf
00000270: 928d ce3f 0aaf 3940 018d 343f 3df5 f1be
00000280: 1d2e 53bf cdbe aebf 49af 7e3f 9053 0cbf
00000290: d815 a2bd 9694 9b3f 1d02 553f 06fb ac3f
000002a0: 2420 65c0 d468 f8be 1a28 4f3f d69d 633f
000002b0: 7725 1740 3700 30c0 67dc bebf e4e7 0640
000002c0: 57e7 873f d326 81bf 4d50 2e40 7664 40c0
000002d0: 92a7 e6be e4e3 903f 056d 1d3c b847 a4be
000002e0: d864 1ebf 854e b13f 05a9 f03f a29c 8abf
000002f0: 11e7 8abf b4f5 ef3f 58cd c8be 64d1 97bf
00000300: e807 e73f b573 ba3f fdfd f93e 2e85 b33f
00000310: 52af 01c0 6622 773e 8596 bcbf 0479 3dc0
00000320: 4638 463f e156 e83f 8ca6 81bf a4f2 f63f
00000330: 1079 c33d 7a91 363f bb66 0440 6a08 0140
00000340: f81d b3be 8edd 72c0 c036 393f 6dcc 353f
00000350: 48a0 613e f52e a73f e248 3bbf 72db 653e
00000360: 483d 23c0 b4ab 5c3f 4f7a 03c0 00d3 913f
00000370: 6e03 943f 22fb 5fc0 8887 a03f 923d 84be
00000380: 0924 933f 6f17 c8be b498 3c3f 7a99 193e
00000390: 518e b4be 156d 8c3f 0637 53c0 87cd 42c0
000003a0: 6fc0 27c0 6403 633f d23e abbf b37c bb3f
000003b0: 340f b7be ff88 38bf c9f9 0d40 17f1 42bf
000003c0: 77db 1740 2def 81bf 5c63 fd3f f6de cc3e
000003d0: 23ea 4e3f 693b 3040 777b 4e40 f52f 69bd
000003e0: 1d6b 6abf 7bd6 6b3f 0745 d2bf 297e 9fbf
000003f0: 3def 093f c832 2ac0 935e 45bf 14e6 82bf
2.0939293 -2.991959 0.16187993 1.122075 -0.34906596 0.16019145 1.6526626 0.90780294
1.8063632 -1.0827649 2.6595435 -1.2583514 0.7435308 0.6595063 -0.826205 -0.85566795
-0.78871745 -1.9910187 0.76047134 0.18935843 1.1232625 -0.60471314 1.509073 1.7335393
-1.1082665 0.8994848 -1.701528 -1.4779814 1.2120861 0.61337477 -3.674936 -2.6040027
1.4251251 0.09645541 -1.2242815 1.5518464 -1.9168749 0.65968066 0.51600146 -2.44697
-1.1506579 -1.0425599 2.1174812 -0.9291026 0.69917804 1.0523345 -0.9076006 -2.7890382
0.97979456 -0.81075037 -1.3089268 -0.364925 0.4353306 0.6051602 0.8430603 2.1364977
-1.3240559 1.2418147 -0.47705975 -3.0094707 2.8766134 1.8755296 -2.0926542 -0.48511913
-0.26837578 -2.1686454 -2.2073882 -0.56194174 1.8489786 0.04303138 1.3944798 -1.7086065
-1.569761 1.2155637 2.101548 1.4770973 -1.2630466 1.7600411 1.8223431 0.8586369
1.7710302 -0.08488482 -0.65767545 -0.17978065 0.20785436 -0.84873664 -2.1250787 -1.8602351
0.81104225 0.18230252 1.7938333 1.059249 1.666508 0.55698276 -1.3222975 -2.7781186
0.7834563 -2.2343733 -0.4510101 -0.9708335 -1.5737013 1.2912123 0.691195 -2.3532794
-1.5419519 1.5376898 0.802356 2.5920682 -1.4122964 -0.3101493 1.0080165 2.442436
0.7549103 -0.14615558 -1.7634802 -3.1713388 2.826598 -1.8639117 -0.87851244 1.8293358
0.62358505 -0.2867467 0.07575574 0.70637596 1.482263 0.9624457 0.0066092554 -1.3924916
-0.3612707 1.6483755 -2.6460156 1.3900533 -0.69999397 -0.81917953 1.6393217 1.2374656
-2.5100772 -1.0595188 1.2150059 1.9411645 0.18634053 -3.1724634 -1.51522 1.2354454
0.7272799 -1.7355762 2.743158 -0.066171005 -1.4167238 0.8885425 -0.6382096 -0.2975118
-1.9880772 -0.18692966 -0.6973626 -1.7418643 1.6136954 2.9013085 0.70527655 -0.47257414
-0.8249224 -1.3651978 0.99486214 -0.54815006 -0.079143226 1.215472 0.8320635 1.3514106
-3.5800867 -0.48517478 0.80920565 0.88912714 2.3616617 -2.750013 -1.4911011 2.1079035
1.0617474 -1.0089973 2.7236512 -3.0061316 -0.4504972 1.1319547 0.009608512 -0.32085967
-0.61872625 1.3852087 1.8801581 -1.082905 -1.0851766 1.8746858 -0.39219165 -1.1860776
1.8049288 1.4566561 0.4882659 1.4025018 -2.0263257 0.24134216 -1.4733435 -2.9605112
0.77429616 1.8151513 -1.0128951 1.9292798 0.09544575 0.7131573 2.0687702 2.0161386
-0.34983802 -3.7947726 0.72349167 0.71015054 0.22033799 1.3061205 -0.73158085 0.22446993
-2.5506153 0.861995 -2.0543401 1.1392517 1.1563547 -3.499703 1.2541361 -0.25828224
1.1495372 -0.39080378 0.73670506 0.14999953 -0.3526483 1.0970789 -3.3002334 -3.0437944
-2.6211202 0.8867705 -1.3378546 1.464743 -0.35753787 -0.7208404 2.2183707 -0.76149124
2.37277 -1.0151116 1.9795947 0.40013856 0.80826014 2.753626 3.2262857 -0.0569305
-0.9156969 0.92124146 -1.6427315 -1.2460376 0.53880674 -2.6593494 -0.77097434 -1.0226464

net.6.bias f4 [100]
00000000: 794d 09be c74c b4ba db18 edbe 01a7 9dbf
00000010: 2f25 d43e c969 9bbf 0359 15bf 22c1 7fbf
00000020: 128e f33e d442 6ebf 081a 7a3e a000 38be
00000030: b344 923e 2813 873b 4fdd 2ebe d3bb aebe
00000040: 611d 8d3f eba5 5cbd 0a33 e23f 1971 39c0
00000050: e326 41c0 58bb 963f 0892 d93e 504c 473f
00000060: ed96 49bd efde d4be dd73 c83e 57bc 1e3f
00000070: dc3f ff3d db2d 093f 095e 9abf 24e1 8ebe
00000080: b67b 663d f6fb 92be 4453 213f ceee 9d3e
00000090: 2d64 833f 9cda cbbe 08fd 533d 528d c63e
000000a0: f5e6 5d3f a08d 013f f80e 1ebf f41f a8bf
000000b0: 3bcc 23bf 8f4f 153f 4fe8 6f3f 3e1a 7d3f
000000c0: cc1a 513f bc04 883f ea69 d2be 5ad8 40be
000000d0: 21a2 933f 34ed cd3e c0d9 72bf 0aa1 40bf
000000e0: bdb1 26bf fa1b 4abe e180 17bf 187c 22bf
000000f0: 6c3d 3f3f ab9f 6d3f 5d8f 29bf fc98 0ebf
00000100: 047a ac3e dd5f 3b3f fc46 97bf 67f9 8abf
00000110: 0181 09bd 4d29 26bf 31cc 60bf 85b4 8ebf
00000120: 49d3 3d3e be83 843e 91a4 69bf 990f 79bf
00000130: da6b 24be 083e c3be 4570 93bf 506b 2fbf
00000140: 5595 8a3f c989 183f e616 7fbe 0180 fcbe
00000150: eeff 043d 1f0a 8d3f 00f5 d3bf 94e0 f4bf
00000160: a1be 813f 2ba7 38bf 7e6b a2bf 8ff5 59bf
00000170: a9af e93e d278 0bbe 3f39 acbf c6fb b9bf
00000180: ba67 293f 8bf6 903f 668a 2fbf b08c 71bf
-0.1340846 -0.0013755792 -0.46308026 -1.231659 0.4143462 -1.2141658 -0.58338946 -0.9990407
0.4756933 -0.9307072 0.24423993 -0.17968988 0.28568038 0.0041221566 -0.1707661 -0.34127674
1.1024591 -0.05386917 1.7671826 -2.897528 -3.0179985 1.1775923 0.42494226 0.7785082
-0.0492162 -0.41576335 0.39150897 0.62006134 0.12463352 0.53585595 -1.2059947 -0.27906144
0.056270324 -0.28707856 0.6301768 0.30846256 1.0264946 -0.39815223 0.05175498 0.38779694
0.8668054 0.5060673 -0.6174159 -1.3134751 -0.63983506 0.5832452 0.9371385 0.9886817
0.81681514 1.0626445 -0.4109643 -0.18832532 1.1533853 0.40220034 -0.9486351 -0.75245726
-0.6511496 -0.19737235 -0.5918103 -0.634706 0.747031 0.9282176 -0.6623438 -0.55702186
0.3368684 0.7319315 -1.1818538 -1.0857362 -0.033570293 -0.6490677 -0.8781157 -1.114884
0.1853763 0.2588176 -0.91266733 -0.97289425 -0.16056767 -0.38133264 -1.1518637 -0.6852312
1.0826823 0.59585243 -0.24911079 -0.4931641 0.032470636 1.1018714 -1.6559143 -1.9131036
1.01363 -0.7213008 -1.2689054 -0.8514032 0.4564183 -0.13620308 -1.345497 -1.452996
0.661739 1.1325239 -0.68570554 -0.943553

exp_avg f4 [256, 120]
00000000: 4b51 c8b8 a031 dab8 e790 46b9 02f7 1eb9
00000010: 298f 8db9 d0f0 f037 9160 27b9 afba a138
00000020: 7195 1c3a 7372 c9b9 eb07 3d39 3294 b6b8
00000030: c041 7f3a 3f07 7738 d8b2 573a 79b5 9f39
00000040: 1e88 043a 6695 8739 c115 fa39 6d48 c6b8
00000050: 3e28 223a e883 f9b9 4a10 e7b9 0038 5fba
00000060: 0cef 08b9 9437 8a38 8606 ef3a 9aa5 913a
00000070: 5bef 9fb9 ce5b 7fb9 b27c 30ba 7295 7939
00000080: ef1c 28b7 0e87 c03a 62b8 883a 1282 333a
00000090: 2acc ef38 2ba8 273a 6f76 1a3a e1fc f838
000000a0: 2ee0 0bba e6bd 3a3a 8d2c ef39 189c 74ba
000000b0: cccb f6b9 94d1 8339 4705 d0b8 8b78 363a
000000c0: 916c 2fba e3ee fdb9 e958 4239 f379 0339
000000d0: 83f0 cab8 5b2c 90b9 0e9a 25b9 f184 e739
000000e0: 7b62 33b8 ff24 f039 62fa a0b9 6700 b4b9
000000f0: 867c a4b9 e1c0 8bb9 3f5c 4fb9 6077 6939
00000100: 211b c7b8 56f0 3eba 1ba3 11b8 0e70 fbb9
00000110: e017 8e39 1f9e 62b9 21ed 25ba 9124 f9b9
00000120: 4823 5739 cec9 e235 c897 80ba 9d41 fe38
00000130: 9faf afb8 6ebf 9eb9 54c7 a4b9 3cc7 7839
00000140: e464 deb6 318a c935 bbba deb7 591b f2b8
00000150: d77d 0f38 daa2 46b9 4364 8137 9710 03b7
00000160: 326c 7db8 a33e 0339 a999 ac38 d095 1bb6
00000170: 41db 2ab9 0c81 1cb9 7e5b 3738 a2b2 e836
00000180: a0ec 2538 8656 7f39 6d6c 8434 41f1 eb37
00000190: 73c8 8fb9 68d3 5639 3ed8 3f39 c9bd 4db7
000001a0: 75b3 aeb9 9620 f4b9 2248 2cba 3707 f2b8
000001b0: 1b79 c739 219a d739 a838 7fb9 d0f8 9eb8
000001c0: 6ab1 5db9 9cf5 a9b9 f99c 92ba 46ad 7bb8
000001d0: 322f b7b8 157f b637 f26a a9b9 588c 6239
000001e0: 0181 cf39 5391 d139 1465 053a 4d78 4fb9
000001f0: 3056 fc38 fd35 ecb9 d893 7a39 f9c8 fcb8
00000200: 12cc dab9 dac1 0e3a dcc5 eab8 eefd f738
00000210: cb35 aab9 793f 233a 1c2a 59b9 dbfd 7ab9
00000220: 36aa cab9 38a9 0eba 3a38 e9b8 830b 04ba
00000230: 6bba 0aba 9fbc fb36 ba95 f639 1959 3f3a
00000240: 4b46 9f39 bb34 2939 4f2c 9339 3ab5 3ab9
00000250: 8d1b 1d39 22bc 033a da7d 8039 baa0 cbb9
00000260: c74f f2b9 c937 cab9 fe7a 9a38 0e40 7f39
00000270: 392a 92b9 beda 99b9 64d4 d338 2bbc 1b39
00000280: 8dfd 723a 4906 60b8 3c9c c6b9 2273 ce39
00000290: 8aa4 4439 6333 183a c359 3f37 f01c 0f3a
000002a0: 91f3 04ba c3e1 183a 3a82 edb9 a79a 37b9
000002b0: 9944 7eb8 c098 a9b8 74ae 0f3a 6980 6c39
000002c0: e3e5 c8b8 d7db b2b9 bdf9 fab9 7692 04b9
000002d0: 0531 1039 7b22 98b8 9156 2839 1a64 7039
000002e0: 6faf f237 a1d1 82b8 d1c6 09b7 bbae 15b9
000002f0: 0b64 c238 d63f 3339 979b b938 5fb3 6d39
00000300: d469 8cb9 8150 a2b8 d138 8c39 5d2e 62b9
00000310: a045 0ab6 5eb1 53b9 9e5d 05ba 055b b3b9
00000320: de55 0fb5 d98b 51b8 c443 1438 93e9 d7b7
00000330: 43f1 00b8 65d4 12b9 7ce6 5839 34e2 b737
00000340: 53b2 8e37 6632 7b38 ea0c 75b9 3c9e c3b8
00000350: ad03 0ab9 750f 2bb9 66c2 0cb9 8921 3cb5
00000360: f020 4cb9 de1d 3238 0885 3fb9 4035 f7b8
00000370: e749 1639 6044 d438 425d 7f39 6933 2e39
00000380: 4dd6 3b39 6e1d 0539 ce53 74b9 32b5 5ab9
00000390: 2bbc f538 4367 0f39 09fc 8839 436d a1b9
000003a0: 0e34 5e39 7a57 c139 3f73 61b9 269f c5b9
000003b0: ef42 0bb9 6e0e e1b7 c58e 9db8 1767 b9b9
000003c0: adb4 26b9 a520 d436 8f2e a1b9 d739 b6b9
000003d0: 9fd8 9d38 4846 ae37 6eab a8b9 f5d6 4c3a
000003e0: c50e 533a c1b0 9eba 85e4 463a 9fa0 08b9
000003f0: 3b53 8339 9a31 913a 0759 67ba b0bf a8b8
-9.551885e-05 -0.000104042934 -0.00018936732 -0.00015160072 -0.00027000278 2.8722367e-05 -0.00015962335 7.711851e-05
0.0005973196 -0.0003842298 0.00018027394 -8.70604e-05 0.00097372755 5.8896137e-05 0.0008228249 0.0003046205
0.00050556834 0.00025860517 0.00047699924 -9.454866e-05 0.0006185806 -0.0004759126 -0.0004407189 -0.00085151196
-0.00013059023 6.590705e-05 0.0018236197 0.0011111975 -0.00030505177 -0.00024352895 -0.0006732448 0.00023802163
-1.0020317e-05 0.0014688687 0.0010430927 0.000684769 0.000114344366 0.00063956034 0.0005892282 0.00011872664
-0.00053358346 0.0007123634 0.00045618825 -0.0009331121 -0.00047072617 0.00025142415 -9.919196e-05 0.00069607113
-0.0006691898 -0.00048433905 0.00018534403 0.00012538563 -9.6769094e-05 -0.00027498868 -0.00015793016 0.00044158802
-4.2768643e-05 0.0004580393 -0.00030704128 -0.00034332575 -0.00031373295 -0.00026655852 -0.00019775423 0.00022265082
-9.4941126e-05 -0.00072837377 -3.4722598e-05 -0.00047957938 0.0002710214 -0.00021611944 -0.00063295854 -0.00047520225
0.00020517141 1.6897045e-06 -0.0009810859 0.00012123885 -8.377362e-05 -0.00030278735 -0.0003142903 0.00023725344
-6.627861e-06 1.5015886e-06 -2.6551415e-05 -0.00011544553 3.4211054e-05 -0.00018943418 1.5424686e-05 -7.812071e-06
-6.0420665e-05 0.00012516468 8.2302206e-05 -2.3184002e-06 -0.00016294142 -0.00014925393 4.371581e-05 6.9349344e-06
3.955944e-05 0.00024350928 2.4665806e-07 2.8126526e-05 -0.00027424432 0.00020487385 0.00018295736 -1.226314e-05
-0.00033321572 -0.00046563585 -0.0006572028 -0.00011540803 0.00038046468 0.0004112283 -0.00024339801 -7.580372e-05
-0.00021142294 -0.00032417185 -0.0011185698 -6.0004437e-05 -8.734911e-05 2.1755268e-05 -0.00032313872 0.00021605322
0.00039578232 0.0003997186 0.0005088609 -0.00019785874 0.0001203235 -0.00045053652 0.00023896934 -0.000120537305
-0.00041732244 0.0005445756 -0.00011194844 0.00011825176 -0.00032465006 0.00062274147 -0.0002071042 -0.00023936426
-0.0003865526 -0.00054420857 -0.00011120779 -0.0005037116 -0.00052920607 7.5023413e-06 0.0004703233 0.00072993484
0.00030379216 0.0001613674 0.00028071037 -0.00017805854 0.0001498295 0.00050252874 0.0002450783 -0.00038838928
-0.00046217276 -0.00038570006 7.366201e-05 0.00024342557 -0.00027878748 -0.0002934541 0.00010100825 0.0001485205
0.00092693494 -5.3411615e-05 -0.00037881907 0.00039377162 0.00018753312 0.0005805997 1.1405386e-05 0.0005459329
-0.00050716946 0.0005831981 -0.0004530119 -0.00017509852 -6.0622206e-05 -8.087e-05 0.00054810126 0.0002255455
-9.579563e-05 -0.000341146 -0.00047869785 -0.00012643062 0.00013751171 -7.254347e-05 0.00016053977 0.00022925474
2.893034e-05 -6.2379295e-05 -8.212127e-06 -0.0001427484 9.269275e-05 0.00017094551 8.850468e-05 0.00022668902
-0.0002678173 -7.739757e-05 0.00026745212 -0.00021570311 -2.060413e-06 -0.00020188603 -0.00050874974 -0.00034209355
-5.3396604e-07 -4.9959726e-05 3.534906e-05 -2.5738764e-05 -3.074227e-05 -0.00014002768 0.00020685227 2.1920634e-05
1.7010758e-05 5.989e-05 -0.00023369832 -9.327798e-05 -0.00013162075 -0.00016313589 -0.0001342386 -7.008426e-07
-0.00019467226 4.2466323e-05 -0.00018264737 -0.000117877964 0.00014332646 0.000101216836 0.00024353436 0.00016613085
0.00017913543 0.00012694832 -0.00023300873 -0.000208576 0.000117175594 0.0001367601 0.00026127722 -0.0003078972
0.00021190962 0.00036877004 -0.00021500605 -0.00037693343 -0.00013281008 -2.682881e-05 -7.512936e-05 -0.00035362758
-0.000158983 6.3218927e-06 -0.00030743002 -0.0003475684 7.526692e-05 2.0775144e-05 -0.00032171182 0.00078140135
0.0008051212 -0.001210712 0.00075871526 -0.00013029807 0.0002504828 0.0011077404 -0.0008825217 -8.046569e-05

exp_avg_sq f4 [256, 120]
00000000: 950a e136 3802 8a36 157d b736 fa73 7b36
00000010: d422 2136 759d e636 5e83 0037 ee7a fd36
00000020: 7a0c 8437 434a 1137 b454 0d37 898c e436
00000030: 7d4d 6d37 a9eb 9037 4840 9337 2725 a737
00000040: ebe2 0e38 a13c d737 4efa d437 2d0a 4d37
00000050: 7721 b737 8d40 bd37 5df1 b437 16ce 2a38
00000060: 7ad6 c437 5974 0e38 7bae 0e38 bd19 0338
00000070: d8fb 0d38 f487 1038 1011 ee37 5062 ae37
00000080: 7f88 0d38 1be4 cf37 dd73 c237 4c1c 9737
00000090: 1c5e 9b37 e359 c137 778f a037 3466 1f38
000000a0: b853 aa37 f256 6037 f693 8437 6279 6737
000000b0: 17d4 cf36 5125 a936 49d7 3237 44fc 8437
000000c0: f40c 4537 535f ec36 ede4 ea36 9f67 c936
000000d0: c034 7636 4636 9436 66ec 9636 c5b1 aa36
000000e0: 5f76 e035 380d f736 7da6 0837 9c68 a136
000000f0: 5e76 e536 10a4 f936 f82d f236 4315 bf36
00000100: 6dde 3536 29c0 4237 b6c9 d735 b92b 6b36
00000110: 737a 3536 d7cc c136 6703 e236 c18f 8636
00000120: cf47 3636 6fc5 8136 5d75 e336 ee1b 4836
00000130: c618 0336 4cb0 8136 d2de 8236 345a 2136
00000140: f583 f735 cee4 0436 6580 1636 1515 f935
00000150: d08a dd35 224a ed35 8d66 0136 86eb 0236
00000160: 4610 fa35 80c2 fc35 13da f635 a75b d835
00000170: 0f6d 0736 789d 1336 dbaa 0d36 8c9c ea35
00000180: 2cf0 2936 3297 2a36 173d 6936 3dca f735
00000190: a8bc 2636 addb 8c36 eb6f 8f36 d4f5 3536
000001a0: a389 8536 448c 8b36 2927 bb36 6b8c 3a36
000001b0: 7d6c 4236 b714 0337 f1c3 0d37 27a3 a336
000001c0: 873c b836 19cf 0e37 9b2b ef36 cfa0 7036
000001d0: 5912 6536 3faf ef36 fd87 0b37 7326 d236
000001e0: 01d3 9a36 2dc3 1d36 f570 7536 f28e 6636
000001f0: 0406 8336 bc3f 8537 27a0 d736 3ffa 0c37
00000200: 130b 3537 5ff1 c936 23f2 be36 c8c3 7036
00000210: b2ad 9636 2598 9337 0adc 6a37 4de1 0a37
00000220: d87e d337 18a2 9f37 0c52 8e37 10b9 0237
00000230: 1997 5637 5069 2c37 ef84 3c37 d5af 9f37
00000240: 7538 6437 6d01 c637 59b3 9737 aa7f 9537
00000250: 4fb4 bd37 b77c d137 24a2 c037 a1bc 5537
00000260: 61d1 a737 d61c 5737 956d 4437 0bd0 2437
00000270: 6239 2337 0952 1937 ec0e c936 0f20 de37
00000280: 13d8 b237 3fc7 2337 60dc cf36 007b 4637
00000290: 5fc1 cd36 712c 8c36 a440 e636 0650 7337
000002a0: b955 3b37 3711 aa36 18a4 b736 1720 cc36
000002b0: 68db 5436 df7f 6136 b1a7 7036 1383 9936
000002c0: 60d6 9a36 3c17 fd36 763f cb36 6ddd 1f36
000002d0: 015e 1836 7db5 ec36 f020 f336 2cdc 7f36
000002e0: 1713 2e36 07f5 2f36 1e60 6836 813d a435
000002f0: 3137 f735 edf8 8d36 f294 e036 8e5a 1e36
00000300: c471 0d36 5068 1637 f3a4 ae36 8bd1 c535
00000310: b4cf 9135 ff33 b936 7707 a336 25fc d335
00000320: 062f 8535 6944 a635 fb72 9d35 a21d 8b35
00000330: cf6d 7c35 63e8 a435 4976 9035 0f78 8635
00000340: d205 cf35 dc89 9035 cd2c 9735 0c09 8335
00000350: 4460 bd35 cdec c235 e8ec 9c35 b3d4 8e35
00000360: 9663 d135 d249 c135 964a d135 27b4 9735
00000370: 3c1a f535 9744 7436 7557 3f36 e67a 3236
00000380: 537f 1736 b642 3336 c7ac 4e36 ecb2 2736
00000390: 752e 2b36 146a b436 1f6b 8e36 eb03 9736
000003a0: e5da 4b36 8a3a c736 1085 c836 667d 8a36
000003b0: f912 4836 2747 cd36 cf3c ef36 1551 d136
000003c0: 6ca2 fa36 f388 9536 e46d 5536 dc1a 4d36
000003d0: 21ac 2a37 c086 2537 3966 9a37 75c1 9e37
000003e0: d908 c737 387f 5c37 243d 2f37 dcab 0f37
000003f0: 5254 6337 48fb 8a37 2825 a337 743e e337
6.7067544e-06 4.112979e-06 5.4683865e-06 3.7469422e-06 2.4011142e-06 6.8728646e-06 7.659981e-06 7.5542985e-06
1.5741436e-05 8.659964e-06 8.423976e-06 6.81129e-06 1.41443425e-05 1.7275876e-05 1.7553699e-05 1.9925252e-05
3.4066772e-05 2.565823e-05 2.5388927e-05 1.2221321e-05 2.1830883e-05 2.2560615e-05 2.1570066e-05 4.072309e-05
2.3464894e-05 3.3963795e-05 3.4017936e-05 3.1256805e-05 3.3851567e-05 3.445889e-05 2.8379756e-05 2.0788197e-05
3.374414e-05 2.4782543e-05 2.3180555e-05 1.801378e-05 1.8521263e-05 2.304925e-05 1.9140292e-05 3.8003738e-05
2.0304564e-05 1.3371684e-05 1.5804526e-05 1.3796935e-05 6.1937712e-06 5.0409367e-06 1.0659752e-05 1.5853097e-05
1.1745131e-05 7.0444453e-06 7.000394e-06 6.00233e-06 3.668756e-06 4.417062e-06 4.4978688e-06 5.08709e-06
1.6723751e-06 7.3627125e-06 8.144995e-06 4.810352e-06 6.8385116e-06 7.4398777e-06 7.2175135e-06 5.6947188e-06
2.710057e-06 1.1608042e-05 1.6077454e-06 3.5043179e-06 2.7042377e-06 5.7756947e-06 6.735721e-06 4.0102464e-06
2.7161911e-06 3.867484e-06 6.77879e-06 2.981858e-06 1.9534941e-06 3.8650232e-06 3.9002416e-06 2.4043375e-06
1.8441339e-06 1.9802715e-06 2.2426477e-06 1.8558081e-06 1.6506183e-06 1.7679452e-06 1.928219e-06 1.9508602e-06
1.8631188e-06 1.883207e-06 1.8391896e-06 1.6119928e-06 2.0180048e-06 2.1996366e-06 2.1110088e-06 1.747992e-06
2.532276e-06 2.5419981e-06 3.4755265e-06 1.8461793e-06 2.484574e-06 4.1978988e-06 4.274761e-06 2.7114193e-06
3.979732e-06 4.158852e-06 5.577593e-06 2.7797894e-06 2.8971401e-06 7.8130315e-06 8.449876e-06 4.876772e-06
5.4906736e-06 8.512078e-06 7.1278314e-06 3.585639e-06 3.413434e-06 7.1431564e-06 8.316708e-06 6.262964e-06
4.6141217e-06 2.350843e-06 3.6573595e-06 3.4355876e-06 3.9048045e-06 1.5884514e-05 6.4261435e-06 8.402915e-06
1.0791019e-05 6.018366e-06 5.6906297e-06 3.5876747e-06 4.490569e-06 1.7594613e-05 1.3998719e-05 8.277898e-06
2.5212226e-05 1.9029758e-05 1.6965925e-05 7.791692e-06 1.2790574e-05 1.0276519e-05 1.1236624e-05 1.9036155e-05
1.3603004e-05 2.3604103e-05 1.8084118e-05 1.7821632e-05 2.2614518e-05 2.4972816e-05 2.2963686e-05 1.2739708e-05
2.0005451e-05 1.28217125e-05 1.1708024e-05 9.8236005e-06 9.728918e-06 9.138611e-06 5.992004e-06 2.647939e-05
2.1319871e-05 9.761948e-06 6.1947358e-06 1.1830358e-05 6.1319874e-06 4.177499e-06 6.8620593e-06 1.4502561e-05
1.1166027e-05 5.068399e-06 5.472928e-06 6.0834095e-06 3.1718173e-06 3.3602043e-06 3.5860396e-06 4.5750144e-06
4.614514e-06 7.5426924e-06 6.0572593e-06 2.3821733e-06 2.2704482e-06 7.054476e-06 7.2457988e-06 3.8126118e-06
2.5939132e-06 2.6219657e-06 3.4626642e-06 1.2236852e-06 1.8418997e-06 4.2311062e-06 6.6930597e-06 2.3596544e-06
2.1076858e-06 8.964984e-06 5.2048067e-06 1.4738629e-06 1.0863791e-06 5.519483e-06 4.8586476e-06 1.5794109e-06
9.922958e-07 1.2387874e-06 1.1730875e-06 1.0364931e-06 9.403711e-07 1.2286586e-06 1.0763262e-06 1.001872e-06
1.5424396e-06 1.0768958e-06 1.1263415e-06 9.762894e-07 1.4109614e-06 1.4523044e-06 1.1691855e-06 1.0641728e-06
1.5600697e-06 1.4401105e-06 1.5593421e-06 1.1302808e-06 1.8261558e-06 3.6398758e-06 2.8512125e-06 2.6595603e-06
2.2574866e-06 2.671191e-06 3.0796962e-06 2.4989085e-06 2.5508027e-06 5.376767e-06 4.2444003e-06 4.500607e-06
3.037677e-06 5.937477e-06 5.975955e-06 4.127319e-06 2.9813366e-06 6.1177593e-06 7.129834e-06 6.2381246e-06
7.469489e-06 4.456489e-06 3.1803438e-06 3.0563015e-06 1.01728665e-05 9.86614e-06 1.8405832e-05 1.8925153e-05
2.3726769e-05 1.3142642e-05 1.0445048e-05 8.563478e-06 1.3549887e-05 1.6567894e-05 1.9448416e-05 2.708959e-05
