Training/PyTrainer/epoch=0.ckpt (torch, 653957 bytes, 28 tensors)

net.0.weight f4 [256, 120]
0	0x3c382b66	0.011240816
1	0x3ccc5ef4	0.02494762
2	0x3c64ba16	0.013960382
3	0x3d997048	0.07492119
4	0xbccc8159	-0.024964022
5	0xbd0728dc	-0.03299795
6	0xbda13e50	-0.07873213
7	0x3ccbd166	0.024880122
8	0x3d988b84	0.074484855
9	0x3d100b32	0.035166927
10	0x3d8575c0	0.065166
11	0x3dea96ef	0.114545695
12	0x3c51ffaa	0.012817303
13	0xbde10da2	-0.109889284
14	0x3d5241c2	0.051332243
15	0x3d9ddaf5	0.07707778
16	0x3d08a914	0.03336437
17	0xbd89a5c0	-0.067210674
18	0xbd20a5d0	-0.03922063
19	0xbcd64b4a	-0.026158947
20	0xbc864b50	-0.016393334
21	0xbdc59f4d	-0.09649525
22	0x3d04bad9	0.032404754
23	0x3bc76712	0.006085285
24	0xbd1b74a2	-0.037953027
25	0x3d8e4dfc	0.06948468
26	0x3dd3b57e	0.10337351
27	0x3e732473	0.23744373
28	0x39f2a8e6	0.00046283676
29	0xbd20e3fc	-0.039279923
30	0xbe19fc3c	-0.15037626
31	0xbcb00726	-0.021487784
32	0xbcc8450e	-0.02444699
33	0x3cc7dbfb	0.024396887
34	0x3dab0ec2	0.08352424
35	0xbd416d52	-0.047223397
36	0x3cac78e6	0.021053743
37	0x3d183aa4	0.0371653
38	0x3da53048	0.080658495
39	0xbdcedc28	-0.10100585
40	0xbd56babc	-0.052424178
41	0xbc28108a	-0.0102578495
42	0x3cd0533d	0.025430316
43	0x3c54678c	0.012964141
44	0xbcc19318	-0.02362971
45	0x3d4a6e54	0.049421623
46	0xbd79f58a	-0.06102518
47	0xbd4891bc	-0.048967108
48	0xbd4d0724	-0.050055638
49	0xbc7e10c8	-0.015506931
50	0x3d2fe29c	0.04294072
51	0x3b98bfaa	0.00466152
52	0xbd0bce2c	-0.034132168
53	0xbb587bdb	-0.0033032808
54	0x3d171144	0.0368817
55	0x3e133df2	0.14379099
56	0x3cf96375	0.030442933
57	0x3d8718f1	0.06596554
58	0x3d5f9da3	0.054593693
59	0x3cfd8d5a	0.03095119
60	0xbc91157c	-0.01771044
61	0x3cd4c01e	0.025970515
62	0x3d8195dc	0.063274115
63	0x3dc62fc8	0.09677082
64	0x3b9916e6	0.004671919
65	0xbcd6207f	-0.026138542
66	0x3c9c69bc	0.019093387
67	0x3d6efc4a	0.05834607
68	0x3d60bd5e	0.054868095
69	0x3c5bb076	0.013408771
70	0xbb5f51b7	-0.0034075805
71	0xbc85396c	-0.016262732
72	0x3d4b54d0	0.04964143
73	0x3d656dd1	0.056012932
74	0x3d506e0f	0.05088621
75	0x3dd77bb6	0.10521643
76	0xbd9fd3da	-0.07804079
77	0x3d82e937	0.063921385
78	0xbb3e8d8a	-0.0029076063
79	0x3e04378c	0.12911814
80	0x3c93d440	0.018045545
81	0xbc084850	-0.008318022
82	0xbcedb786	-0.029018175
83	0x3daf399b	0.08555909
84	0x3d077efc	0.033080086
85	0x3bff17a7	0.007784802
86	0x3c9d9d9c	0.019240193
87	0x3da66a57	0.081257515
88	0xbd145f3c	-0.036223635
89	0xbe1e7502	-0.15474322
90	0xbe29fbaa	-0.16599908
91	0xbdd2810c	-0.1027852
92	0xbd6dd16b	-0.058061045
93	0x3c02ab53	0.007975417
94	0xbe2bb638	-0.1676873
95	0xbdf2e953	-0.11860909
96	0xbbae95cc	-0.005327916
97	0xbd94ecbb	-0.07271715
98	0xbbaeec9a	-0.0053382637
99	0xbe3f4744	-0.1867953
100	0xbd5f0c48	-0.05445507
101	0x3b14eb4e	0.002272326
102	0xbce01cd8	-0.027357504
103	0xbd3bc13a	-0.045838572
104	0x3cda2006	0.026626598
105	0x3c712d10	0.014720216
106	0xbccf5075	-0.02530692
107	0xbdc746d8	-0.09730309
108	0xbdab6c0e	-0.08370219
109	0x3cb7ccef	0.022436587
110	0xbd77e810	-0.060524046
111	0xbd92a1d0	-0.071597695
112	0xbd6086d2	-0.054816075
113	0x3980404e	0.00024461973
114	0xbc34b6e8	-0.011029936
115	0x3c99a818	0.018756911
116	0xbd2e8e4e	-0.04261618
117	0xbbbe01b0	-0.005798541
118	0xbc76c52b	-0.015061657
119	0x3dcd9b1e	0.10039352
120	0xbcc1ec7e	-0.023672339
121	0x3db3769c	0.08762857
122	0x3d538f9e	0.051650636
123	0x3e217012	0.15765408
124	0xbe8bbe16	-0.27293462
125	0x3d4e6e2c	0.050398037
126	0x3d683528	0.05669132
127	0x3d886f41	0.06661845
128	0xbd3ca210	-0.046052992
129	0x3d52fccc	0.051510617
130	0x3d6d821c	0.05798541
131	0x3dbe3ceb	0.09288963
132	0xbd66e2fc	-0.056368813
133	0x3c86c918	0.01645331
134	0x3c00440e	0.0078287255
135	0x3dbe5caa	0.09295018
136	0x3beb5913	0.0071822493
137	0x3ddb381c	0.107040614
138	0x3bda88fc	0.006669162
139	0x3df4ecaa	0.119592026
140	0x3db132e4	0.08652285
141	0xbb8fe220	-0.00439097
142	0x3bd54084	0.006507935
143	0x3d025b03	0.031825077
144	0x3d120648	0.03565052
145	0x3cb4072a	0.021976072
146	0x3cf278e2	0.029598657
147	0x3dacbc9d	0.08434413
148	0x3d67a024	0.056549206
149	0x3d30dcd6	0.043179356
150	0xbeb3849e	-0.35062116
151	0x3d60b04c	0.05485563
152	0x3d98f53e	0.07468651
153	0xbd45a948	-0.048257142
154	0x3d3f7208	0.046739608
155	0xbd69aaf2	-0.05704779
156	0xbda9a410	-0.082832456
157	0x3cbd47bd	0.023105497
158	0x3daed71a	0.08537121
159	0xbd054bb6	-0.032542907
160	0xbda689de	-0.08131765
161	0xbe0074d6	-0.1254457
162	0x3b30960e	0.0026944908
163	0x3d1aa02a	0.0377504
164	0xbdf6aba6	-0.12044458
165	0xbe35624c	-0.17713279
166	0x3d98aa30	0.07454336
167	0x3bb44575	0.005501444
168	0xbcd5f644	-0.026118405
169	0xbe2832e8	-0.16425669
170	0xbcb560d8	-0.022140905
171	0x3d14680c	0.03623204
172	0xbd8236c0	-0.06358099
173	0xbc8011b4	-0.015633442
174	0xbcf62032	-0.030044649
175	0x3d836300	0.06415367
176	0x3d479388	0.04872468
177	0x3e0d4bf8	0.13798511
178	0x3e12c664	0.14333493
179	0x3e210919	0.15726127
180	0x3c79b6b6	0.015241316
181	0x3d281686	0.041037105
182	0x3dcfa146	0.10138182
183	0x3df0c73c	0.11756751
184	0xbdcfd452	-0.10147919
185	0xbd5040a8	-0.05084291
186	0x3dfee79e	0.12446521
187	0x3e15e656	0.14638647
188	0xbd9d9ee6	-0.07696323
189	0xbcf164e3	-0.029467052
190	0x3da27ca1	0.07933927
191	0x3e0e450e	0.1389353
192	0xbd9f96e7	-0.07792454
193	0x3d359ec6	0.04434087
194	0x3ccd2926	0.025044035
195	0x3d62ba1b	0.055353265
196	0xbe1a45e4	-0.15065724
197	0xbd5c2877	-0.053749528
198	0xbd0239a0	-0.031793237
199	0x3da371b5	0.07980672
200	0x3dad964a	0.08475931
201	0xbc9e91ff	-0.019356726
202	0xbcb48d55	-0.022040049
203	0xbcd3bf70	-0.02584812
204	0x3d8a3867	0.06749039
205	0x3d2edeac	0.042692825
206	0x3ac420fe	0.0014963446
207	0x3dcf55dc	0.10123798
208	0x3c83916e	0.016060557
209	0x3cc3f4a4	0.023920365
210	0xbe58bb5f	-0.21165226
211	0xbe0e4217	-0.13892399
212	0x3d917587	0.07102495
213	0x3d0a370e	0.03374391
214	0x3d81311c	0.06308195
215	0xbe4f45ca	-0.20241466
216	0x3c2eafbd	0.010662016
217	0xbd80c97a	-0.062884286
218	0xbe2e89ec	-0.170448
219	0xbe9a7b98	-0.3017242
220	0x3d44c7fc	0.048042282
221	0x3d29b83c	0.041435465
222	0xbd5cb4ac	-0.05388324
223	0xbd0bb6e0	-0.03410995
224	0xbba457b5	-0.0050153383
225	0xbbea9b96	-0.0071596606
226	0xbd380860	-0.044929862
227	0xbdd2ed62	-0.102991834
228	0xbbe5afa2	-0.0070094625
229	0xbdb87b86	-0.09007935
230	0xbd83872a	-0.06422265
231	0xbd818038	-0.06323284
232	0xbdf0ce86	-0.11758141
233	0xbd8eba13	-0.069690846
234	0xbc026dc6	-0.007960742
235	0xbde82a42	-0.11336185
236	0xbdf9a7ee	-0.12190233
237	0xbd98eacc	-0.07466659
238	0xbc3ea3c2	-0.011635723
239	0xbbea8be2	-0.0071577886
240	0x3c1283d0	0.008942559
241	0xbd2cfc37	-0.04223272
242	0xbdb226d9	-0.08698816
243	0xbe3dbb9b	-0.18528597
244	0xbc560c63	-0.013064477
245	0xbd2a518d	-0.04158168
246	0xbe5f8854	-0.21829349
247	0xbdb22f80	-0.08700466
248	0xbb097487	-0.0020973997
249	0xbd1e7395	-0.038684446
250	0xbe39530a	-0.18098083
251	0xbe01a8d5	-0.1266206
252	0xbd5b4ac6	-0.053538106
253	0xbdf888bf	-0.12135457
254	0xbe077d82	-0.13231471
255	0xbd947181	-0.07248212

net.0.bias f4 [256]
0	0xbe030f76	-0.12798867
1	0xbb98f45e	-0.0046678027
2	0x3dd788a0	0.10524106
3	0x3e13f9c6	0.1445075
4	0x3d35e23e	0.044405214
5	0x3dc02614	0.09382263
6	0x3d860bae	0.065451965
7	0xbe2ab4d0	-0.16670537
8	0x3d80d2df	0.062902205
9	0xbe11ff90	-0.14257646
10	0x3dc07486	0.09397225
11	0xbb0720bf	-0.0020618883
12	0xbdb0013d	-0.08593986
13	0xbd085280	-0.033281803
14	0xbdfd7eab	-0.123776756
15	0xbddaa00f	-0.1067506
16	0x3d95f1f6	0.07321541
17	0xbe0954f2	-0.1341131
18	0x3dfb94de	0.122842535
19	0x3df63ca6	0.120232865
20	0x3dcdfebc	0.10058352
21	0x3dda5fbc	0.10662791
22	0xbde85bfa	-0.11345668
23	0xbcdcc92a	-0.026951391
24	0x3cc9bbcc	0.024625681
25	0xbd90856a	-0.07056697
26	0xbdd8a8be	-0.1057906
27	0x3dbea045	0.09307913
28	0x3dd263ff	0.10272979
29	0x3dce703a	0.10079999
30	0x3db80091	0.08984483
31	0xbd602ab2	-0.054728217
32	0x3da543a2	0.080695406
33	0xbdc418b4	-0.09575024
34	0x3de54410	0.111946225
35	0x3da73ccc	0.08165893
36	0xbdf03653	-0.117291115
37	0x3bc0f42d	0.005888483
38	0xbdc64b30	-0.0968231
39	0xbcfb3c96	-0.030668538
40	0x3dce70a0	0.10080075
41	0xbdb302be	-0.087407574
42	0xbd14d232	-0.03633327
43	0x3de85e96	0.11346166
44	0x3e15a654	0.1461423
45	0x3de97a98	0.11400336
46	0xbb814562	-0.0039450387
47	0x3d9562f8	0.072942674
48	0x3d94eeae	0.07272087
49	0x3e07905e	0.13238665
50	0x3d9ce28c	0.07660398
51	0x3d31cac6	0.04340627
52	0x3a7974f5	0.0009516024
53	0x3e01a578	0.12660778
54	0x3ded5782	0.115889564
55	0x3db5ac62	0.0887077
56	0xbcabd00a	-0.020973224
57	0xbe544f9e	-0.20733497
58	0x3ddcb643	0.10776951
59	0x3debd15d	0.11514542
60	0xbd3ed4ca	-0.04658965
61	0xbbef7d19	-0.007308614
62	0xbdc589d6	-0.09645431
63	0x3d566182	0.052339084
64	0x3ca8b7ba	0.02059542
65	0x3de8293d	0.113359906
66	0x3e17158a	0.1475431
67	0x3ddc49b8	0.10756248
68	0x3db76378	0.08954519
69	0x3cf2d046	0.029640328
70	0x3cbde8a9	0.02318223
71	0xbc999c43	-0.01875127
72	0x3dd43bf5	0.103629984
73	0x3d2c6179	0.042085145
74	0xbd2e5f3c	-0.04257129
75	0xbca8e048	-0.020614758
76	0xbe12ebe4	-0.14347798
77	0x3c911f76	0.017715197
78	0xbda366dc	-0.07978603
79	0x3e058a3e	0.13041016
80	0xbe0479e7	-0.12937127
81	0xbd2ccabe	-0.042185538
82	0x3decd6f4	0.115644366
83	0x3d9e54db	0.07731029
84	0x3ddc60bc	0.10760638
85	0x3df20940	0.118181705
86	0x3e02adf8	0.12761676
87	0x3ce3308e	0.027733114
88	0xbddc3798	-0.10752791
89	0xbde35a50	-0.1110121
90	0x3d922914	0.07136741
91	0x3d849d5e	0.06475328
92	0x3e2104cc	0.15724486
93	0x3e0f2af9	0.13981237
94	0x3d8a49a9	0.06752331
95	0x3da848e6	0.08217029
96	0x3dfa9a24	0.12236431
97	0xbd50d9f8	-0.05098912
98	0x3de4ac63	0.11165693
99	0x3de182d0	0.11011279
100	0x3db99088	0.0906077
101	0x3d94458c	0.072398275
102	0x3d5535c8	0.052053243
103	0x3d581752	0.052756615
104	0xbdee6524	-0.11640385
105	0xbdfbe53e	-0.12299584
106	0x3e2a9657	0.16658913
107	0xbdf5c25a	-0.1199996
108	0xbdaba1c6	-0.08380465
109	0x3cd9d852	0.026592407
110	0x3c103795	0.008802314
111	0x3d7fc838	0.062446803
112	0xbdabe30e	-0.083929166
113	0x3dda2538	0.1065163
114	0x3e10dac4	0.14145952
115	0x3c3a93b4	0.011387754
116	0xbcc3da76	-0.023907881
117	0xbd7b0555	-0.061284382
118	0x3dde7c58	0.108635604
119	0x3e313070	0.17303634
120	0xbd045666	-0.03230896
121	0x3d1434a8	0.03618303
122	0x3d0d125a	0.03444133
123	0xbdee8b06	-0.1164761
124	0xbe0243e6	-0.12721214
125	0x3ac60688	0.0015108148
126	0xbdae8d87	-0.08523088
127	0x3db5313a	0.0884728
128	0x3d5cb912	0.053887434
129	0x3dd1138b	0.10208806
130	0x3c141804	0.009038929
131	0x3c930fa8	0.017951801
132	0xbd80ab4e	-0.06282674
133	0x3df02ca2	0.11727263
134	0x3c836bb4	0.016042568
135	0xbe081b58	-0.13291681
136	0xbbab76a0	-0.005232647
137	0x3e1392e9	0.1441151
138	0xbe426b6d	-0.18986292
139	0x3dc3c3d8	0.095588386
140	0x3e0869dd	0.13321634
141	0x3c91c14e	0.01779237
142	0x3dfa99c9	0.122363634
143	0x3d97e093	0.07415881
144	0xbd88e6ff	-0.06684684
145	0x3d647b10	0.055781424
146	0x3dcfa626	0.10139112
147	0xbde7b6ac	-0.11314139
148	0x3de8f582	0.11374952
149	0xbdd9a65e	-0.10627435
150	0x3d1abf98	0.037780374
151	0x3d37c274	0.04486318
152	0x3d1b8472	0.037968107
153	0x3d8d04ff	0.068857186
154	0x3dc0ccd8	0.09414071
155	0xbc33b322	-0.010968002
156	0x3c710dc8	0.014712758
157	0x3de6edf2	0.11275853
158	0x3d707a28	0.058710247
159	0x3d94897a	0.07252784
160	0x3cc058ec	0.023479901
161	0x3dc41ace	0.09575425
162	0x3e019ed4	0.12658244
163	0x3e12040a	0.14259353
164	0x3d64e3d0	0.05588132
165	0x3e14736a	0.14497152
166	0x3d371a30	0.04470271
167	0x3decdc5a	0.11565466
168	0xbc9d538a	-0.019204874
169	0x3e0ba0ae	0.13635513
170	0x3d89bbda	0.06725283
171	0xbe1b794d	-0.15182991
172	0x3d4dca94	0.05024202
173	0xba39d186	-0.00070884114
174	0x3e367e66	0.17821655
175	0xbd8f2b34	-0.06990662
176	0xbd21389e	-0.039360635
177	0x3db9dfee	0.09075914
178	0x3dd57ffa	0.104248
179	0x3dc38d6a	0.09548457
180	0xbdfccfac	-0.12344298
181	0xbda60b94	-0.08107677
182	0x3da897b8	0.08232063
183	0xbde72dd4	-0.11288038
184	0x3df45b55	0.11931483
185	0x3da91c4f	0.082573526
186	0xbe13a244	-0.14417368
187	0x3d9fc7b6	0.07801764
188	0x3e02103e	0.12701508
189	0xbc4692d0	-0.012119964
190	0xbe62bd84	-0.22142607
191	0xbd0ac699	-0.033880804
192	0x3dd3e5fc	0.103466004
193	0x3dacbeb6	0.08434813
194	0x3d5b4d52	0.053540535
195	0xbd742102	-0.05960179
196	0x3dbf7b66	0.09349708
197	0xbcff74dc	-0.031183653
198	0xbd4227fe	-0.04740142
199	0x3d6cb5bb	0.0577905
200	0x3d843347	0.06455093
201	0x3d01612e	0.03158682
202	0x3dd99385	0.1062384
203	0x3dd04c39	0.10170788
204	0x3d94014a	0.07226808
205	0x3e149706	0.14510736
206	0xbd9cf68c	-0.076642126
207	0x3c9bae9c	0.019004159
208	0x3dd5c1f2	0.10437383
209	0x3d92a7c0	0.07160902
210	0xbe18df12	-0.14928845
211	0x3e130cdc	0.14360374
212	0x3e37f1e2	0.17963365
213	0x3da9c256	0.0828902
214	0x3d960de2	0.07326867
215	0x3ddc3a37	0.10753291
216	0x3e006ef7	0.1254233
217	0x3d6b4c37	0.05744573
218	0xbd5d2752	-0.053992577
219	0xbc9a160a	-0.018809337
220	0x3da55dc8	0.08074528
221	0xbd92103a	-0.07132001
222	0x3e1b6c88	0.1517812
223	0x3dac28c0	0.0840621
224	0xbbb45084	-0.0055027623
225	0x3dd2b566	0.10288505
226	0x3e138843	0.14407448
227	0x3de07f80	0.10961819
228	0x3d31f965	0.04345073
229	0xbd13b557	-0.03606161
230	0x3c95ed28	0.018301561
231	0x3e098088	0.13427937
232	0x3c29f0e3	0.010372373
233	0xbd1fd114	-0.03901775
234	0x3e170e78	0.14751613
235	0x3dec5744	0.11540082
236	0xbd90e862	-0.070755735
237	0x3d38a588	0.045079738
238	0xbe2f03be	-0.17091271
239	0x3e0788d8	0.13235795
240	0x3d8674a5	0.06565217
241	0xbcb1f03f	-0.021721004
242	0x3dda6442	0.10663654
243	0xbd5b9989	-0.05361322
244	0x3db2f3fc	0.087379426
245	0x3de7bf33	0.11315765
246	0x3dec656f	0.115427844
247	0x3e28327e	0.16425511
248	0x3d9ec7a0	0.07752919
249	0x3dac4638	0.08411831
250	0x3e04af74	0.12957555
251	0x3e083382	0.13300899
252	0x3daa2172	0.083071604
253	0x3ba5f800	0.0050649643
254	0x3e17c4ba	0.14821139
255	0xbd7861a6	-0.06064

net.2.weight f4 [32, 256]
0	0xbc067f3f	-0.008209049
1	0x3d8dbffa	0.06921382
2	0xbd151dd4	-0.0364054
3	0xbdb8a168	-0.09015161
4	0xbd477dd2	-0.048703976
5	0xbd416afe	-0.047221176
6	0x3c240384	0.010010604
7	0xbdcd1504	-0.10013774
8	0xbcb8809e	-0.022522267
9	0xbe44f8c4	-0.19235522
10	0x3dba97ea	0.091110066
11	0xbe66b947	-0.22531615
12	0xbdba8935	-0.091082014
13	0xbb630a8e	-0.0034643742
14	0xbe8cd8f8	-0.27509284
15	0xbd9f0cea	-0.07766135
16	0x3d51415e	0.05108773
17	0x3d9ae8dc	0.07563946
18	0xbd2755c4	-0.040853277
19	0x3e131925	0.1436506
20	0xba872fea	-0.0010313962
21	0x3cd65486	0.02616335
22	0x3b5cecc2	0.0033710455
23	0xbe0eaf12	-0.13933972
24	0x3dd25af5	0.10271255
25	0x3dccebc8	0.10005909
26	0xbdfc724b	-0.12326487
27	0x3e140620	0.14455462
28	0x3d7ac8b2	0.061226554
29	0x3dff47b9	0.12464852
30	0xbd3451d0	-0.044023335
31	0xbe06b8c6	-0.13156423
32	0xbbf86263	-0.007580088
33	0xbd6ff5d2	-0.058584042
34	0xbdb5d522	-0.088785425
35	0xbdb89f24	-0.09014729
36	0xbbf9537b	-0.0076088286
37	0xbdd36941	-0.1032281
38	0xbcececd8	-0.02892153
39	0xbc97c582	-0.018526796
40	0xbc873f42	-0.016509656
41	0xbde848e4	-0.11342028
42	0x3c8c8398	0.017152593
43	0x3e126644	0.14296824
44	0x3ca8e870	0.020618647
45	0xbbaf4468	-0.005348731
46	0xbe16d908	-0.14731228
47	0xbd274de7	-0.040845778
48	0x3d838ace	0.06422959
49	0x3e137cea	0.1440312
50	0x3e342842	0.17593482
51	0xbd92651c	-0.07148191
52	0x3e0d9708	0.13827145
53	0x3e1b7cd2	0.15184334
54	0x3d1282c0	0.035769224
55	0x3da289d4	0.07936445
56	0x3dc8625a	0.09784384
57	0xbe56681e	-0.20938155
58	0x3dbc3c82	0.091912284
59	0x3d47492a	0.04865376
60	0xbe2edd74	-0.17076665
61	0x3df11348	0.11771256
62	0x3d03404e	0.032043748
63	0x3d450771	0.0481028
64	0xbdd6ba8e	-0.10484801
65	0xbd002696	-0.0312868
66	0x3dd31217	0.10306185
67	0x3d4e8a46	0.050424837
68	0xbdccc2c6	-0.099980876
69	0xbdcf181a	-0.10112019
70	0x3cf64e26	0.030066561
71	0xbb804e8c	-0.0039156135
72	0x3deb88c3	0.115006946
73	0x3c6e7a66	0.014555549
74	0xbdc50f5e	-0.09622072
75	0xbdec11f1	-0.115268596
76	0xbdbc3101	-0.09189034
77	0xbd83aa36	-0.064289495
78	0xbddd3b04	-0.10802272
79	0xbca1bb5a	-0.019742656
80	0x3e19f0a8	0.1503321
81	0x3d111f14	0.03543003
82	0xbd75b562	-0.059987433
83	0x3d76f92a	0.060296215
84	0x3e116c71	0.14201523
85	0xbd048eaa	-0.032362618
86	0xbe3b8c8e	-0.18315336
87	0x3b3a8713	0.0028461858
88	0x3db40864	0.08790663
89	0xbe0184d6	-0.12648329
90	0x3cfaec92	0.030630384
91	0x3cdb4b7c	0.026769392
92	0xbdcd67a2	-0.10029532
93	0xbc8ab62a	-0.016932566
94	0x3dd0c460	0.101937056
95	0x3dbfcd2f	0.093653075
96	0x3cff9725	0.031200001
97	0x3ba994cc	0.0051752087
98	0xbe0eabce	-0.13932726
99	0x3cfd0c86	0.03088976
100	0x3e1ee0e9	0.15515484
101	0x3d295ffe	0.04135131
102	0xbca041cb	-0.019562623
103	0x3db01e72	0.08599557
104	0xbcd27576	-0.025690775
105	0x3e41f3f6	0.1894072
106	0x3e20788a	0.15670982
107	0xbe424a00	-0.18973541
108	0x3df85345	0.121252574
109	0xbd45b53d	-0.048268545
110	0xbd3ee0ae	-0.04660099
111	0x3d6d4a14	0.057931975
112	0xbe3d8c02	-0.1851044
113	0xbd38d382	-0.045123585
114	0xbd3bf46c	-0.045887396
115	0xbe377620	-0.17916155
116	0x3db1edf1	0.08687962
117	0xbe09fc20	-0.13475084
118	0xbd55d226	-0.052202366
119	0x3c8c86da	0.017154146
120	0x3c59be2c	0.013289969
121	0xbce5c67c	-0.028048746
122	0x3dc9f614	0.09861389
123	0x3daa003f	0.08300828
124	0xbcd370f9	-0.025810705
125	0x3da6a336	0.08136599
126	0xbe191803	-0.14950566
127	0x3e03f216	0.12885317
128	0x3d4af4c3	0.04954983
129	0x3d0b2975	0.033975083
130	0xbb230252	-0.002487321
131	0x3d2fc8a4	0.042915955
132	0x3c8ab837	0.016933544
133	0x3e1ef236	0.15522084
134	0x3dc7c9ca	0.09755285
135	0xbddba0b5	-0.10724012
136	0xbe2e8408	-0.17042553
137	0xbd165e56	-0.03671106
138	0xbe31d828	-0.17367613
139	0x3dcf3856	0.10118167
140	0x3d0b8516	0.034062468
141	0x3e364f40	0.17803669
142	0x3d9e6549	0.07734162
143	0x3d81aa74	0.063313395
144	0xbe6a4241	-0.22876836
145	0x3d5d01ce	0.0539568
146	0xbe058522	-0.13039067
147	0xbb969836	-0.0045957817
148	0x3dfc9aa6	0.12334184
149	0xb8ea7ad8	-0.00011180871
150	0xbe357a56	-0.17722449
151	0xbdc30a4a	-0.09523447
152	0x3d98fda1	0.07470251
153	0x3b3dc2de	0.0028955261
154	0x3e17df3c	0.14831251
155	0xbe00c0d8	-0.12573564
156	0xbd9275dc	-0.07151386
157	0xbd563cca	-0.052304067
158	0x3da8c480	0.082406044
159	0xbc91731a	-0.01775508
160	0xbdd5517f	-0.10415935
161	0xbce8e1ce	-0.028427985
162	0x3dacd645	0.08439306
163	0x3e1b7b38	0.15183723
164	0x3dad3dba	0.08459039
165	0x3e004317	0.12525593
166	0xbe0e9a86	-0.13926134
167	0x3e365385	0.17805298
168	0xbc541d20	-0.012946397
169	0x3e214bb0	0.15751529
170	0xbd5d45f8	-0.054021806
171	0xbe5a50fa	-0.21319953
172	0x3e0937ea	0.13400236
173	0xbe0d2dfe	-0.13787076
174	0xbc859805	-0.01630784
175	0xbe6e22ca	-0.23255458
176	0x3cc233e6	0.023706388
177	0xbb9c3a64	-0.004767703
178	0xbd51b469	-0.051197443
179	0xbd88a9d8	-0.0667302
180	0xbe06be82	-0.1315861
181	0xbc2f6f2e	-0.01070766
182	0xbdb57e92	-0.08862032
183	0xbcb265c0	-0.021777034
184	0xbd10f590	-0.035390437
185	0xbd8e78fc	-0.0695667
186	0x3c116bf0	0.008875832
187	0xbdf879c5	-0.12132601
188	0xbd7120ea	-0.05886928
189	0x3d0a63f2	0.03378672
190	0xbe64110a	-0.22272125
191	0xbd66922e	-0.05629175
192	0x3e0f4016	0.1398929
193	0x3d8dcc17	0.06923693
194	0xbd1102f4	-0.035403207
195	0xbdd7a9b0	-0.10530412
196	0xbe179756	-0.14803824
197	0xbcc9915a	-0.024605442
198	0xbe2af2a4	-0.16694123
199	0x3dc48840	0.095963
200	0x3d92cde8	0.0716818
201	0xbc60c5a8	-0.013719
202	0x3dc958b6	0.098313734
203	0xbacebfc5	-0.0015773705
204	0x3d0eb520	0.034840703
205	0xbc8cb3e8	-0.01717563
206	0x3cc3fe44	0.023924954
207	0x3d0112a8	0.031511933
208	0xbd854cbf	-0.06508779
209	0x3daa7d7a	0.08324714
210	0xbe222c9f	-0.15837334
211	0xbdd39e2a	-0.10332902
212	0x3e27bf4a	0.16381565
213	0xbd2b3006	-0.041793846
214	0x3dc3cea0	0.09560895
215	0x3e1397be	0.14413354
216	0xbe0fcfb5	-0.14044078
217	0xbe298718	-0.1655544
218	0xbdb19d59	-0.0867259
219	0xbd3f4af0	-0.046702325
220	0x3d93030d	0.07178316
221	0xbe267019	-0.162537
222	0x3d0f34a8	0.034962326
223	0x3d143f59	0.036193226
224	0x3a9d74ac	0.001201292
225	0xbbe4f7b4	-0.0069875363
226	0x3cb498c7	0.022045506
227	0x3e42f0ad	0.19037123
228	0x3d5da271	0.054109994
229	0xbe316bf3	-0.17326336
230	0xbcd305fc	-0.02575969
231	0x3dda32f4	0.1065425
232	0xbd055f75	-0.032561738
233	0x3db64832	0.08900489
234	0x3dde8a51	0.108662255
235	0x3cca8046	0.024719369
236	0xbcbe3a9a	-0.023221303
237	0x3d8b9d8f	0.06817161
238	0xbd81b501	-0.06333352
239	0x3d77e8f4	0.060524896
240	0xbe021ca8	-0.12706244
241	0x3ccb280a	0.024799366
242	0x3d061a59	0.03273997
243	0x3db80090	0.08984482
244	0xbd58f610	-0.05296904
245	0xbdc2d148	-0.095125735
246	0xbd14e8f4	-0.036354974
247	0xbcf730c8	-0.030174628
248	0x3dacd27c	0.08438584
249	0xbd8a3e92	-0.067502156
250	0x3e4bc89c	0.19900745
251	0x3d14c035	0.036316115
252	0xbcc9c814	-0.024631537
253	0xbe7b0a5f	-0.24515675
254	0xbdd7f635	-0.10545007
255	0x3ddf7c58	0.109123886

net.2.bias f4 [32]
0	0x3d93f1c7	0.0722385
1	0x3dde0a46	0.10841803
2	0xbd6bcf94	-0.05757101
3	0xbbbd9486	-0.0057855276
4	0x3dc0376c	0.09385571
5	0x3dd46af2	0.10371961
6	0x3d20e07f	0.039276596
7	0xbd0be15c	-0.034150466
8	0x3d322dec	0.043500826
9	0x3da454de	0.08024
10	0x3da80d19	0.08205623
11	0xbc1cb317	-0.009564183
12	0x3db7891e	0.089617
13	0xbd37a673	-0.044836473
14	0x3de4406c	0.111451
15	0xbc300e8e	-0.010745658
16	0x3d8859e6	0.06657772
17	0xbd18bbac	-0.037288353
18	0x3db3d7da	0.08781405
19	0xbd62838c	-0.055301234
20	0x3d7edf8a	0.062224902
21	0x3d1bef94	0.038070276
22	0x3d79770c	0.060904548
23	0x3db13e04	0.08654407
24	0xbd0354b6	-0.03206321
25	0x3d7559d1	0.05990011
26	0xbcbb3cba	-0.022856105
27	0xbb49c65c	-0.0030788397
28	0x3dc53cf2	0.09630765
29	0xbd36bea5	-0.044615407
30	0xbcb8b55a	-0.022547413
31	0xbc86b5c1	-0.016444089

net.4.weight f4 [32, 32]
0	0x3e001c7a	0.12510863
1	0x3d02c5e0	0.03192699
2	0x3e1b9d90	0.15196824
3	0xbd95251d	-0.072824694
4	0x3dade53d	0.08490989
5	0x3d68de12	0.056852408
6	0x3e685c96	0.22691569
7	0x3eac9ce6	0.33713454
8	0x3ce52e27	0.027976109
9	0x3e553da5	0.20824297
10	0xbe80f9ec	-0.25190675
11	0x3ea83cfe	0.32859033
12	0x3e5000b1	0.20312764
13	0xbd122841	-0.03568292
14	0x3e96e7a0	0.2947359
15	0xbe242984	-0.16031462
16	0xbe58c15b	-0.2116751
17	0x3de7594d	0.1129633
18	0x3a9bfdb0	0.0011901166
19	0x3d04f67a	0.03246162
20	0xbe281a7c	-0.16416353
21	0x3e15e748	0.14639008
22	0xbe6d61e5	-0.23181875
23	0x3e5d52d2	0.21613625
24	0x3e772d1e	0.24138305
25	0x3e3f3976	0.18674263
26	0x3e1d0224	0.15332848
27	0x3d9c52c6	0.07632975
28	0xbdc226b8	-0.09480041
29	0x3e5cf914	0.21579391
30	0x3d11dfb2	0.035613723
31	0xbee3a694	-0.44463027
32	0xbe53394d	-0.20627327
33	0x3e355aaa	0.17710367
34	0x3de362b2	0.11102809
35	0xbe53277c	-0.20620531
36	0x3e76e42b	0.24110477
37	0x3dd0ffce	0.10205041
38	0xbd93b360	-0.072119474
39	0xbed108de	-0.40827078
40	0x3dd638d2	0.10460056
41	0x3e9162ba	0.28395635
42	0x3c85ca24	0.01633174
43	0xbe162450	-0.1466229
44	0x3e09bd06	0.13451013
45	0xbe6640ec	-0.22485703
46	0x3de52193	0.111880444
47	0x3e2eac96	0.17058024
48	0xbe105179	-0.1409358
49	0xbecdf6a1	-0.40227225
50	0x3e4f6795	0.20254357
51	0xbdf079d0	-0.11741984
52	0x3e5cdc96	0.21568522
53	0x3ded892c	0.11598429
54	0xbd9113e6	-0.070838735
55	0x3ea09ec2	0.31371123
56	0xbed067b8	-0.4070413
57	0xbe813789	-0.25237682
58	0x3e277994	0.16354972
59	0xbe28bf8f	-0.16479324
60	0xbe92a744	-0.2864324
61	0xbdcc57e4	-0.09977701
62	0xbea1112e	-0.3145842
63	0x3da00850	0.078140855
64	0x3e416dfe	0.18889615
65	0x3e500a82	0.20316508
66	0x3e462798	0.19351041
67	0x3e726c8a	0.23674217
68	0x3de8b072	0.11361779
69	0x3d511f14	0.05105503
70	0x3e19fb60	0.15037298
71	0x3ea221f0	0.31666517
72	0xbd841cea	-0.064508274
73	0xbd8f2253	-0.06988969
74	0x3e39b9c4	0.1813727
75	0x3eb4c204	0.35304272
76	0xbe6de52a	-0.2323195
77	0xbe201328	-0.15632308
78	0x3e98a2ad	0.29811612
79	0xbe225448	-0.15852463
80	0x3c8e7706	0.01739074
81	0xbe0c6bbe	-0.13712975
82	0x3dfd0416	0.12354295
83	0xbe6e069c	-0.23244709
84	0x3e007471	0.12544419
85	0xbe6499f8	-0.2232436
86	0xbd672d0a	-0.056439437
87	0x3d951f57	0.07281368
88	0xbcd73e76	-0.0262749
89	0x3e1450c6	0.14483938
90	0xbe2a3c2e	-0.16624519
91	0xbe17117a	-0.1475276
92	0x3c67cdf4	0.014148224
93	0xbe52f82e	-0.20602486
94	0x3d2f6bc0	0.042827368
95	0xbec36214	-0.38160765
96	0x3f3b31f2	0.73123085
97	0x3e17ae14	0.148125
98	0xbe4ecbbe	-0.20194909
99	0xbec54804	-0.38531506
100	0xbf07cacb	-0.5304381
101	0xbf9065e7	-1.1281098
102	0x3f012d96	0.50460184
103	0x3e267cc2	0.16258529
104	0x3ea5766a	0.32316905
105	0xbf4865fa	-0.78280604
106	0x3ebaaea0	0.36461353
107	0xbde2fec6	-0.110837504
108	0xbf57b442	-0.84259427
109	0xbec1378f	-0.377377
110	0xbe637602	-0.22212985
111	0xbec0903a	-0.37610036
112	0x3eeab015	0.45837465
113	0x3df769ca	0.120807245
114	0x3e9bc506	0.30423754
115	0xbdebd522	-0.11515261
116	0xbe4d78a8	-0.20065558
117	0x3e58a28a	0.21155754
118	0xbe392f20	-0.18084383
119	0x3e8683b1	0.26272348
120	0x3d281a9c	0.041041
121	0x3f06c0ea	0.52638113
122	0x3d0669c4	0.03281571
123	0x3b8d9d06	0.004321697
124	0xbf2f8f6c	-0.6857822
125	0x3e10a609	0.14125837
126	0x3ee510b8	0.44739318
127	0xbdeffb17	-0.117178135
128	0xbd4c09c2	-0.049813993
129	0x3e436332	0.19080809
130	0x3c8698bf	0.016430257
131	0x3e54ef27	0.20794354
132	0xbe4f906c	-0.20269936
133	0x3e515930	0.20444179
134	0x3da0a897	0.07844656
135	0xbdb83d51	-0.0899607
136	0xbc38fa26	-0.011290109
137	0xbcdc9812	-0.026927982
138	0x3e181dba	0.1485509
139	0x3e6fb4d4	0.23408824
140	0xbe5f0765	-0.21780165
141	0x3d2b3473	0.041798066
142	0x3e2745e7	0.1633526
143	0x3d8444f6	0.06458466
144	0x3d9b1fbd	0.07574413
145	0x3e80e222	0.25172526
146	0x3d65ee9a	0.05613575
147	0xbdd41a58	-0.10356587
148	0x3e0a8f3b	0.135312
149	0x3e6486cc	0.22317046
150	0x3da14ac4	0.078755885
151	0x3d31e5fa	0.043432213
152	0x3e5b322c	0.21405858
153	0x3d43b788	0.04778245
154	0x3e26bea8	0.16283667
155	0x3e89cd70	0.2691455
156	0x3ec13758	0.37737536
157	0xbe1c97db	-0.15292303
158	0x3eed5e57	0.46361038
159	0xbf40fd8b	-0.75386876
160	0x3e74d205	0.23908241
161	0xbddf647e	-0.10907839
162	0x3da84d28	0.082178414
163	0xbec600ab	-0.38672385
164	0x3e2815b6	0.16414532
165	0x3e8f67a0	0.28008747
166	0xbdf91913	-0.12162986
167	0x3d0071af	0.031358417
168	0x3e1ebe8b	0.15502374
169	0x3e7fc622	0.24977925
170	0x3e1e9996	0.15488276
171	0xbe7f4380	-0.24928093
172	0x3e5afea8	0.21386206
173	0xbea0fc0e	-0.31442302
174	0x3e431147	0.1904956
175	0x3de4b1a3	0.11166694
176	0xbe232a28	-0.1593405
177	0x3de77ffe	0.113037094
178	0xbdab51a0	-0.08365178
179	0x3d81629c	0.06317636
180	0x3da399a9	0.07988293
181	0xbe0df6bb	-0.13863651
182	0xbe51636c	-0.20448083
183	0x3e61dc79	0.2205676
184	0xbe422d44	-0.1896258
185	0x3e131dd2	0.14366844
186	0xbe4a69a4	-0.19766861
187	0x3d764480	0.06012392
188	0xbe6397fb	-0.22225945
189	0xbe66c3c2	-0.22535613
190	0xbe9b1c1e	-0.3029489
191	0x3e6c29f8	0.23062885
192	0x3f02a76b	0.5103671
193	0xbb83000d	-0.003997809
194	0x3da0391f	0.07823395
195	0xbe114454	-0.14186221
196	0xbe2fdfac	-0.17175168
197	0xbf09edeb	-0.5387866
198	0x3e822bf0	0.25424147
199	0x3d469028	0.048477322
200	0x3e968230	0.293962
201	0xbf046173	-0.51711196
202	0x3ddccbdf	0.10781073
203	0x3e9cc378	0.3061788
204	0xbf2bab56	-0.6705831
205	0xbe438e62	-0.19097283
206	0x3d4767a0	0.04868281
207	0xbe7cda9c	-0.24692768
208	0x3e73efa9	0.23821892
209	0xbe9a52a0	-0.30141163
210	0xbe1fc278	-0.15601528
211	0x3d95fa1c	0.07323095
212	0xbe731ac0	-0.23740673
213	0x3e427adf	0.18992184
214	0x3dd108ef	0.10206782
215	0x3e68a316	0.22718462
216	0x3e888206	0.266617
217	0x3ea4a7a6	0.32159156
218	0x3e2fe46a	0.17176977
219	0xbdaefa52	-0.085438386
220	0xbf050a08	-0.5196843
221	0xbe42aa0c	-0.1901018
222	0xbd0026ae	-0.031286888
223	0x3e0c5b9d	0.13706823
224	0xbd7c1b45	-0.061549444
225	0xbd3ef8ca	-0.046623982
226	0xbde13716	-0.10996835
227	0x3e83b0f8	0.25720954
228	0x3dc9a8e8	0.098466694
229	0xbdef0003	-0.11669924
230	0x3e33d1dc	0.17560524
231	0x3ecb640a	0.3972476
232	0x3e0b1b76	0.13584694
233	0xbe2349d4	-0.15946132
234	0x3d844dd8	0.0646016
235	0xbe4eeeb2	-0.20208243
236	0x3e64adf4	0.22331983
237	0x3d9be748	0.07612473
238	0x3e7d2d34	0.24724275
239	0x3e64b7e2	0.2233577
240	0x3df5c66e	0.12000738
241	0xbdbb3a55	-0.09141985
242	0xbb38333e	-0.0028106715
243	0x3de368c8	0.1110397
244	0xbd494678	-0.04913947
245	0x3e114772	0.1418741
246	0x3e81d780	0.25359726
247	0xbe771f06	-0.24132928
248	0xbdf32f9e	-0.11874317
249	0x3df80fba	0.121123746
250	0x3e9ee4ea	0.31034023
251	0x3da084d2	0.078378335
252	0x3c90e166	0.017685603
253	0xbd9ea4f0	-0.07746303
254	0x3ee89c61	0.45431808
255	0xbf178732	-0.59190667

net.4.bias f4 [32]
0	0xbab89ff2	-0.0014085753
1	0x3d91d296	0.07120244
2	0xbb75b730	-0.0037493221
3	0x3c62b54c	0.01383717
4	0x3caa14a2	0.020761792
5	0x3d897d80	0.0671339
6	0x3d11a9cc	0.03556232
7	0x3a9fcbda	0.001219149
8	0x3d89f40a	0.06736
9	0xbce22bca	-0.02760877
10	0x3d823ca3	0.06359222
11	0x3d0505c4	0.0324762
12	0xbab3e45a	-0.001372467
13	0xbd98fe16	-0.07470338
14	0x3d855ca6	0.06511812
15	0x3ba5e767	0.0050629857
16	0x3cdd2c5c	0.026998691
17	0xbb413b3a	-0.0029484765
18	0x3d104b21	0.0352279
19	0x3dc2cfc8	0.095122874
20	0x3cf4c6b8	0.029879913
21	0x3da04f34	0.07827607
22	0xbc8bb935	-0.017056087
23	0x3d8df20b	0.06930932
24	0x3d979e5e	0.07403253
25	0x3d80f43a	0.062965825
26	0x3d4d0167	0.050050166
27	0x3dd449d8	0.10365647
28	0x3d3a5973	0.04549546
29	0x3c052a2b	0.008127729
30	0x3d7eb27c	0.062181935
31	0x3c90bc6a	0.017667968

net.6.weight f4 [1, 32]
0	0x3ee6edca	0.45103294
1	0xbee62454	-0.4494959
2	0x3eeb7b0a	0.4599231
3	0x3f4614d0	0.7737551
4	0x3f093238	0.5359225
5	0xbee6272a	-0.44951755
6	0x3e947c60	0.2900114
7	0x3ed46a40	0.41487312
8	0x3f2778b0	0.6541853
9	0x3f1c8e2f	0.61154455
10	0x3ed9e1a2	0.42554957
11	0x3f34f88a	0.7069174
12	0x3ec3bf68	0.3823197
13	0x3f14cca8	0.5812478
14	0x3d0caeac	0.034346268
15	0x3ed9f72d	0.42571393
16	0x3e7ffa52	0.24997833
17	0x3ec4bed2	0.38426834
18	0x3f3361c4	0.70071054
19	0xbef9ab6a	-0.4876359
20	0xbee55646	-0.44792384
21	0xbf3ac2e8	-0.72953653
22	0x3ed77895	0.42084184
23	0xbf46241c	-0.7739885
24	0xbead48f8	-0.33844733
25	0xbf01edba	-0.50753367
26	0xbf326f1a	-0.6970078
27	0xbf5c03a0	-0.8594303
28	0x3f1701e2	0.5898725
29	0x3e801734	0.25017703
30	0xbea0bff6	-0.31396455
31	0x3f069e84	0.52585626

exp_avg f4 [256, 120]
0	0xb5b0df6a	-1.3178044e-06
1	0xb69e04e1	-4.709335e-06
2	0xb68d8a6a	-4.218241e-06
3	0xb6cc92d9	-6.096769e-06
4	0xb595fd62	-1.1175109e-06
5	0xb5087bfb	-5.0844363e-07
6	0x36db3237	6.5325544e-06
7	0x361a3aae	2.2981944e-06
8	0x3455656b	1.9874066e-07
9	0xb65d6540	-3.2990501e-06
10	0xb62d547b	-2.5828183e-06
11	0x3628ac66	2.51343e-06
12	0xb672d2b3	-3.6183453e-06
13	0x361feb26	2.382972e-06
14	0xb7458cf5	-1.1774934e-05
15	0xb63a2495	-2.7737453e-06
16	0x359cfbb2	1.1696159e-06
17	0x360d8662	2.1088858e-06
18	0x35c3aee3	1.4579531e-06
19	0xb5778f5e	-9.2223297e-07
20	0xb69fbdd5	-4.7606686e-06
21	0x35927a1e	1.0913388e-06
22	0x3751c2a2	1.2502687e-05
23	0xb5b41ba0	-1.3419085e-06
24	0xb602d840	-1.9497384e-06
25	0xb6004911	-1.9116017e-06
26	0xb5d91095	-1.6172586e-06
27	0x3740c252	1.14893355e-05
28	0xb534480b	-6.716006e-07
29	0x360f0a55	2.1314675e-06
30	0x36cdd832	6.1346445e-06
31	0x36dc2fb5	6.5620648e-06
32	0xb793b3fd	-1.760758e-05
33	0xb60d332e	-2.1040428e-06
34	0x36b4617b	5.3757662e-06
35	0xb72ba724	-1.023131e-05
36	0xb6d406fd	-6.318906e-06
37	0xb6a5efaa	-4.9452838e-06
38	0xb61d38c3	-2.3427863e-06
39	0x370874bb	8.13341e-06
40	0xb59c3ad0	-1.1640022e-06
41	0xb71d9a57	-9.393864e-06
42	0xb585e8dd	-9.977044e-07
43	0xb5df7978	-1.6650147e-06
44	0x351ce3e1	5.8446136e-07
45	0xb6bcfae7	-5.6320455e-06
46	0x370cd7d5	8.394903e-06
47	0x35cabb44	1.5104674e-06
48	0xb700ef17	-7.685062e-06
49	0x37459488	1.1776698e-05
50	0xb690af8c	-4.3119708e-06
51	0x37055473	7.94708e-06
52	0xb687cc61	-4.0471064e-06
53	0x35a9d562	1.2653584e-06
54	0x34aa103b	3.1676777e-07
55	0xb6118cd7	-2.1688663e-06
56	0x36cbdfc9	6.0759235e-06
57	0xb735e2af	-1.084122e-05
58	0x369cd5e4	4.6740624e-06
59	0xb59f76e7	-1.1881028e-06
60	0xb46e6bd2	-2.2204702e-07
61	0xb44040e1	-1.7904996e-07
62	0xb6a30cff	-4.8592915e-06
63	0x360bce78	2.0832795e-06
64	0x3605c8a4	1.9935333e-06
65	0x36896fe4	4.095944e-06
66	0x36c1b4ef	5.7729117e-06
67	0x365da0c2	3.302514e-06
68	0xb572c6f3	-9.0441534e-07
69	0x3427e008	1.5634589e-07
70	0x368e7e70	4.246649e-06
71	0xb4ccabb5	-3.8122894e-07
72	0x35b9deb0	1.3848385e-06
73	0xb6a7a5c9	-4.9962878e-06
74	0xb5889f9e	-1.0179244e-06
75	0x36b4e81e	5.39144e-06
76	0x35622af5	8.425407e-07
77	0x3680c080	3.837107e-06
78	0xb680974c	-3.8323105e-06
79	0xb387e032	-6.327208e-08
80	0xb5ad4906	-1.2910757e-06
81	0x35d78ad8	1.6059157e-06
82	0x36ac334a	5.1319703e-06
83	0x348411ae	2.459978e-07
84	0xb5be75c0	-1.4190373e-06
85	0x33f11234	1.1225748e-07
86	0xb66cad35	-3.526756e-06
87	0x34389339	1.7189895e-07
88	0x35916974	1.0834033e-06
89	0xb5c9437e	-1.499531e-06
90	0x353d2ea8	7.047588e-07
91	0x35114079	5.411053e-07
92	0xb4038ceb	-1.2251591e-07
93	0x353f7b56	7.133252e-07
94	0x34b53f62	3.3759994e-07
95	0x3544e03d	7.3342e-07
96	0x35e90e42	1.7364002e-06
97	0xb612cef2	-2.1876153e-06
98	0x36ba2187	5.547135e-06
99	0x35125ae0	5.452148e-07
100	0x34e8e91b	4.3382974e-07
101	0xb69e09e9	-4.7099206e-06
102	0x361cb784	2.3352632e-06
103	0x3615421a	2.2241206e-06
104	0x3399ed09	7.167734e-08
105	0x371d8baf	9.390452e-06
106	0xb5db373a	-1.6332845e-06
107	0xb61e420a	-2.3582274e-06
108	0xb59c2154	-1.1632605e-06
109	0x35632587	8.46187e-07
110	0x3519e849	5.733496e-07
111	0x3668a6db	3.4667817e-06
112	0x36177ff9	2.2575243e-06
113	0x36788d54	3.7037144e-06
114	0xb670d817	-3.5888568e-06
115	0xb610112b	-2.1467665e-06
116	0xb517b4b2	-5.651483e-07
117	0x370ab88b	8.268408e-06
118	0xb554c2d5	-7.925967e-07
119	0xb71ab0d3	-9.220285e-06
120	0xb6c9a19b	-6.00908e-06
121	0xb6867df0	-4.0081723e-06
122	0x3713f93b	8.819911e-06
123	0xb6026093	-1.9427723e-06
124	0x35bc5c2d	1.4033918e-06
125	0xb6914133	-4.328927e-06
126	0x358f1f60	1.0663462e-06
127	0x371a1cc2	9.185811e-06
128	0xb641fa96	-2.8905101e-06
129	0x35acc9d0	1.2873734e-06
130	0xb6db320c	-6.532535e-06
131	0x36a6d344	4.97178e-06
132	0xb62f629d	-2.6134433e-06
133	0xb5f2b6af	-1.8083573e-06
134	0x34c4bef2	3.6646776e-07
135	0xb6e906fb	-6.9447537e-06
136	0xb5c2d924	-1.4517323e-06
137	0x36bd7ed0	5.647402e-06
138	0x3628151a	2.5046234e-06
139	0x36015e83	1.927751e-06
140	0x35953742	1.1117447e-06
141	0xb60ae24b	-2.0695322e-06
142	0x3731d5b0	1.0599775e-05
143	0x343e59e9	1.7727838e-07
144	0xb737cda0	-1.0955526e-05
145	0x3605ea76	1.9955019e-06
146	0xb59b289e	-1.1560221e-06
147	0x370e952c	8.498591e-06
148	0xb72e3f7d	-1.038599e-05
149	0xb70b09b1	-8.287302e-06
150	0x371b8197	9.268892e-06
151	0x363100ac	2.6375446e-06
152	0xb752c24b	-1.2562213e-05
153	0x36cca458	6.098806e-06
154	0xb5f4f1ef	-1.8249829e-06
155	0x37544909	1.26531895e-05
156	0xb61dee5c	-2.3533566e-06
157	0x36893134	4.088646e-06
158	0xb6e5c3d8	-6.847531e-06
159	0xb749ff47	-1.203997e-05
160	0x35f9d012	1.8612502e-06
161	0xb59f3468	-1.1861675e-06
162	0xb68b139b	-4.144805e-06
163	0x371f49db	9.494334e-06
164	0xb6b6096d	-5.42512e-06
165	0xb5ff7c15	-1.9035093e-06
166	0x3702f546	7.805711e-06
167	0x373b0702	1.11477e-05
168	0x35c277cc	1.4488992e-06
169	0x3633be51	2.6783857e-06
170	0x34bb126a	3.4844862e-07
171	0xb6a4f5d3	-4.9161986e-06
172	0x3641acd4	2.885984e-06
173	0x36422b0d	2.8933312e-06
174	0x36986fec	4.5429824e-06
175	0xb4ffec7c	-4.7669516e-07
176	0x3651f578	3.1286309e-06
177	0xb6a8bf3c	-5.0290528e-06
178	0x369c7fe7	4.664052e-06
179	0x3636f66e	2.7263554e-06
180	0x3681b3a1	3.865411e-06
181	0x3626d88f	2.4861981e-06
182	0xb6e1e834	-6.7325545e-06
183	0xb4957ba5	-2.7843376e-07
184	0xb460a01f	-2.0919877e-07
185	0xb59c1822	-1.1629929e-06
186	0x3424f97b	1.536445e-07
187	0x352afe28	6.369978e-07
188	0xb611a0b7	-2.1700232e-06
189	0xb5de7245	-1.6573546e-06
190	0xb5f4df31	-1.8244374e-06
191	0xb695fe25	-4.4701324e-06
192	0x360b8ba7	2.0793902e-06
193	0xb6e11caa	-6.7088595e-06
194	0x35a9b862	1.2645144e-06
195	0x3599954a	1.1442837e-06
196	0x35dbe1e2	1.6382512e-06
197	0xb569d151	-8.710386e-07
198	0xb57cb9d5	-9.4147737e-07
199	0x32e39bf5	2.6497199e-08
200	0x357caade	9.412596e-07
201	0x35c7a757	1.4875358e-06
202	0x3644e352	2.9338594e-06
203	0x35049466	4.938978e-07
204	0xb496601c	-2.8009606e-07
205	0x334bc058	4.7439556e-08
206	0xb620718f	-2.3907958e-06
207	0xb4f950b0	-4.6438572e-07
208	0xb5fa0792	-1.8628655e-06
209	0xb50a41a8	-5.150455e-07
210	0x34e1f9d6	4.2091295e-07
211	0x33c8e647	9.355113e-08
212	0x35e5e960	1.7129751e-06
213	0xb68db1a7	-4.222809e-06
214	0x36cf94cb	6.1864025e-06
215	0xb53b5fad	-6.9802155e-07
216	0x361ab690	2.3054054e-06
217	0x36464f2b	2.955038e-06
218	0x36f129ab	7.1872105e-06
219	0xb47bfd20	-2.3468283e-07
220	0x3673ff8e	3.6358574e-06
221	0xb63d3beb	-2.8198072e-06
222	0x3636a36f	2.7215244e-06
223	0x35e1914c	1.6806093e-06
224	0x3643d7de	2.9182916e-06
225	0x34dd7f6a	4.1257164e-07
226	0xb6b340c0	-5.3421536e-06
227	0xb5a249e2	-1.2091443e-06
228	0x364a7dce	3.0173574e-06
229	0x369f34c3	4.7447115e-06
230	0xb69aff87	-4.619305e-06
231	0xb66a3be1	-3.4903571e-06
232	0xb659d988	-3.246214e-06
233	0xb6bd7041	-5.645707e-06
234	0xb6a58bcf	-4.933659e-06
235	0xb6436560	-2.9116272e-06
236	0xb5db0ee2	-1.6321103e-06
237	0x3620e08e	2.3972566e-06
238	0x36d09837	6.216603e-06
239	0xb76c9b1d	-1.4102811e-05
240	0x36bed9dc	5.6878034e-06
241	0x370ab90a	8.268524e-06
242	0xb62b9a90	-2.5570953e-06
243	0xb693c98d	-4.404405e-06
244	0x36bb4a64	5.5816945e-06
245	0x3732b138	1.0650889e-05
246	0x36fa94bc	7.4678956e-06
247	0x37856956	1.5903886e-05
248	0xb4a869e2	-3.1369478e-07
249	0x35cf3ef7	1.5441027e-06
250	0x33d4e0f6	9.9129394e-08
251	0xb6a8df61	-5.032795e-06
252	0x36b0443a	5.2531514e-06
253	0xb6e13a68	-6.712322e-06
254	0x3693bfe0	4.4032786e-06
255	0xb581894a	-9.651205e-07

exp_avg_sq f4 [256, 120]
0	0x30726527	8.8182833e-10
1	0x304d2742	7.4634354e-10
2	0x302f8e61	6.386696e-10
3	0x306df537	8.656857e-10
4	0x3063485e	8.268496e-10
5	0x304ddb72	7.4890416e-10
6	0x2ff5df77	4.4724022e-10
7	0x30a736b5	1.2166398e-09
8	0x317be51f	3.6655547e-09
9	0x30d4fd5a	1.5497037e-09
10	0x307a4beb	9.1057356e-10
11	0x30a9d9a7	1.2358229e-09
12	0x30ddf81d	1.6150384e-09
13	0x302023c7	5.8258504e-10
14	0x30a7c801	1.2207694e-09
15	0x316e1820	3.4647272e-09
16	0x3190d2ce	4.2149173e-09
17	0x3056fa12	7.820812e-10
18	0x304c0f2d	7.4236334e-10
19	0x306f3f20	8.70374e-10
20	0x3060f070	8.183241e-10
21	0x300359fc	4.77854e-10
22	0x30ac2705	1.2525737e-09
23	0x3104a544	1.930247e-09
24	0x303f5800	6.961045e-10
25	0x31bcd08a	5.4952283e-09
26	0x3187895d	3.9446335e-09
27	0x3222c482	9.474322e-09
28	0x310fd89d	2.093237e-09
29	0x30ba84d7	1.3571037e-09
30	0x3097c07e	1.1041406e-09
31	0x30ac1326	1.2520089e-09
32	0x315a16d4	3.1736151e-09
33	0x310d4bff	2.05614e-09
34	0x30e3a4d4	1.6563271e-09
35	0x3083c6bb	9.587987e-10
36	0x30cf51f4	1.5084525e-09
37	0x30d2e6be	1.5345092e-09
38	0x313d9c64	2.7592018e-09
39	0x3170ea33	3.5057723e-09
40	0x3127ceaa	2.4419173e-09
41	0x30c335ca	1.4203405e-09
42	0x30e2f18b	1.6512315e-09
43	0x31121e76	2.1263111e-09
44	0x30807ad1	9.348132e-10
45	0x30dc103b	1.601172e-09
46	0x30cabad9	1.475054e-09
47	0x314be55f	2.967077e-09
48	0x31142a41	2.1560853e-09
49	0x30d916c0	1.5795294e-09
50	0x31819daf	3.7723207e-09
51	0x30d3988b	1.5395626e-09
52	0x303671b6	6.637281e-10
53	0x304f7b4c	7.5481377e-10
54	0x304d1f66	7.4623185e-10
55	0x315ce039	3.214167e-09
56	0x30860f71	9.754172e-10
57	0x3108bdda	1.9898523e-09
58	0x30cc7b95	1.4878078e-09
59	0x2ff353d3	4.4261003e-10
60	0x2fbc1827	3.4214162e-10
61	0x308d4ae5	1.0280387e-09
62	0x30cf07bd	1.5063432e-09
63	0x309f070b	1.1570774e-09
64	0x301a4725	5.6125976e-10
65	0x306cb404	8.611212e-10
66	0x308dad3f	1.030834e-09
67	0x2fce50c3	3.7528566e-10
68	0x2fb78c33	3.3387124e-10
69	0x3046511e	7.2147255e-10
70	0x30710786	8.768598e-10
71	0x2fc4debd	3.5810457e-10
72	0x2fcd98be	3.7397813e-10
73	0x305ffac5	8.148329e-10
74	0x306f8e75	8.7150137e-10
75	0x2fe0cfb9	4.0892958e-10
76	0x2f39bc89	1.6892633e-10
77	0x302e8650	6.34917e-10
78	0x3015aa2a	5.44477e-10
79	0x30072329	4.916268e-10
80	0x2f5ceb46	2.009247e-10
81	0x2f974b6c	2.752033e-10
82	0x2f84ea5e	2.4177188e-10
83	0x2f766549	2.2409553e-10
84	0x2f2ffc5c	1.6005813e-10
85	0x2f721e51	2.2020542e-10
86	0x2f90fa4e	2.63713e-10
87	0x2f8d646e	2.571911e-10
88	0x2f4754db	1.8129091e-10
89	0x2f26217b	1.5109507e-10
90	0x2f29c3a0	1.543996e-10
91	0x2f1d450e	1.43036e-10
92	0x2f3b3366	1.7025811e-10
93	0x2f9c25b9	2.8403038e-10
94	0x2f379f5f	1.6700373e-10
95	0x2f31d8ca	1.6175075e-10
96	0x2f98fe73	2.7829436e-10
97	0x2fc08f76	3.5026532e-10
98	0x300096d5	4.6780474e-10
99	0x2f2af71c	1.5549201e-10
100	0x2f7153ac	2.1948549e-10
101	0x3040c290	7.0125683e-10
102	0x301ac16a	5.629973e-10
103	0x2fa08de8	2.920466e-10
104	0x301a728b	5.618765e-10
105	0x308b6dfb	1.0144839e-09
106	0x303a3368	6.773946e-10
107	0x2f7606a4	2.2375929e-10
108	0x2f90272e	2.6221286e-10
109	0x30b69c95	1.3286746e-09
110	0x3037d7ce	6.688169e-10
111	0x2ff50d22	4.4574572e-10
112	0x30531cf0	7.6802475e-10
113	0x309249fc	1.0643926e-09
114	0x3039fc0a	6.7660777e-10
115	0x3008edc6	4.981441e-10
116	0x304ef0ea	7.5284723e-10
117	0x30a3cac1	1.1917437e-09
118	0x30c73653	1.4494596e-09
119	0x30cbfb7e	1.4841672e-09
120	0x30c12741	1.4053755e-09
121	0x30646512	8.3089546e-10
122	0x305408ba	7.713755e-10
123	0x309ba3a2	1.1324242e-09
124	0x2fb4a810	3.2861225e-10
125	0x30c9d01e	1.4683825e-09
126	0x30f87603	1.8077916e-09
127	0x30d5988a	1.5541144e-09
128	0x315d86c7	3.2236345e-09
129	0x30fc8257	1.8372458e-09
130	0x30a43e43	1.1950266e-09
131	0x308d1b45	1.0266851e-09
132	0x30d9d092	1.5848107e-09
133	0x30a49e40	1.1977548e-09
134	0x30c09503	1.401219e-09
135	0x31939f5f	4.2963815e-09
136	0x31c270c5	5.6589635e-09
137	0x3128ab89	2.4544724e-09
138	0x30835a37	9.557145e-10
139	0x3102aff7	1.9017514e-09
140	0x30fe0ace	1.8484003e-09
141	0x30815c12	9.412153e-10
142	0x30d691e9	1.561202e-09
143	0x31780a6b	3.6094672e-09
144	0x30f9fa9a	1.818836e-09
145	0x31716aa4	3.5130734e-09
146	0x3116c4d2	2.1939752e-09
147	0x31744fc5	3.5552017e-09
148	0x317540a9	3.5688947e-09
149	0x3168b31f	3.3862262e-09
150	0x308e3673	1.0347335e-09
151	0x30f8bf3e	1.8098729e-09
152	0x31ab186b	4.979531e-09
153	0x30d8f3b3	1.5785332e-09
154	0x308bb693	1.0165472e-09
155	0x30815204	9.409296e-10
156	0x309d39cc	1.143968e-09
157	0x30b51839	1.3176368e-09
158	0x310bc96a	2.0341653e-09
159	0x31b23206	5.186169e-09
160	0x316dbf3d	3.4596745e-09
161	0x30a12bcf	1.1726743e-09
162	0x30b5f53e	1.3239185e-09
163	0x31006339	1.8682853e-09
164	0x30491c13	7.316327e-10
165	0x302976cd	6.165067e-10
166	0x310d8427	2.059332e-09
167	0x315a0cb3	3.1730394e-09
168	0x311cdb60	2.2825688e-09
169	0x305ba895	7.9911305e-10
170	0x310929a3	1.9959792e-09
171	0x30d79b94	1.5687527e-09
172	0x306089ae	8.168638e-10
173	0x3081151e	9.391987e-10
174	0x3055cf41	7.7783474e-10
175	0x30d15cd6	1.5233137e-09
176	0x30ad03a4	1.2588441e-09
177	0x310ca4e7	2.0466417e-09
178	0x310999ed	2.002362e-09
179	0x3088808f	9.931841e-10
180	0x300cea12	5.1264337e-10
181	0x308c46d0	1.0206467e-09
182	0x30dd5812	1.6104897e-09
183	0x30aab5f2	1.242084e-09
184	0x2fcdf5d4	3.7463954e-10
185	0x304be3c2	7.4174633e-10
186	0x30cee9b9	1.5054901e-09
187	0x30169ce1	5.479262e-10
188	0x2f8c762d	2.554982e-10
189	0x30274181	6.084733e-10
190	0x309a96b7	1.124781e-09
191	0x304c5933	7.434153e-10
192	0x2f9b7209	2.8275363e-10
193	0x3043d720	7.12463e-10
194	0x3034f0ce	6.582582e-10
195	0x2fada3b2	3.158483e-10
196	0x2f43181b	1.774371e-10
197	0x2fed617c	4.3179316e-10
198	0x2fe503c9	4.1657547e-10
199	0x2fd2f972	3.837602e-10
200	0x2f876f12	2.4635277e-10
201	0x2f9b6eff	2.8273203e-10
202	0x2f8c240e	2.549147e-10
203	0x2f58b8f5	1.9710795e-10
204	0x2f4df56f	1.8731837e-10
205	0x2f85b3c5	2.4320293e-10
206	0x2f9d0e62	2.8568353e-10
207	0x2f9a8d57	2.8112865e-10
208	0x2f916470	2.6446711e-10
209	0x2fb84dc5	3.3524664e-10
210	0x2f8908d9	2.4926441e-10
211	0x2f32e920	1.6271828e-10
212	0x2f95732d	2.718478e-10
213	0x300006e5	4.6575926e-10
214	0x2fed7e2e	4.3199705e-10
215	0x2f4325b8	1.7748547e-10
216	0x300846e0	4.957723e-10
217	0x305ba097	7.989995e-10
218	0x2ff61983	4.4765266e-10
219	0x2f48adfb	1.8251704e-10
220	0x2fe7e941	4.2184392e-10
221	0x30b63572	1.3257433e-09
222	0x308d73aa	1.0291974e-09
223	0x2fe8d078	4.234868e-10
224	0x3040837f	7.003606e-10
225	0x30fc1085	1.8340108e-09
226	0x309d096f	1.1425935e-09
227	0x2f9c3c27	2.8418976e-10
228	0x2ff8022d	4.5112483e-10
229	0x30b0bf62	1.286008e-09
230	0x30c945c5	1.4644504e-09
231	0x303eb1b7	6.9374145e-10
232	0x3052b340	7.6652285e-10
233	0x30b9b39e	1.3511572e-09
234	0x30ce65b8	1.5017383e-09
235	0x2fe17663	4.101138e-10
236	0x3000fdcf	4.692681e-10
237	0x30b52169	1.3178979e-09
238	0x310f3ee0	2.084498e-09
239	0x309aa20a	1.1251029e-09
240	0x319eebd5	4.625216e-09
241	0x316922d5	3.3925762e-09
242	0x31308b9b	2.5690727e-09
243	0x30ebadcb	1.7147895e-09
244	0x319c8cba	4.5561963e-09
245	0x31dbf9ae	6.402124e-09
246	0x3160ccd5	3.2712724e-09
247	0x32302f4b	1.02553015e-08
248	0x3240d03c	1.1223218e-08
249	0x31c1093c	5.618089e-09
250	0x31318306	2.5831368e-09
251	0x314c3147	2.9713918e-09
252	0x31abb717	4.99757e-09
253	0x31531dd9	3.0721508e-09
254	0x31a4e544	4.7990927e-09
255	0x32739443	1.4178172e-08
