Training/PyTrainer/epoch=19-v1.ckpt (torch, 654085 bytes, 28 tensors)

net.0.weight f4 [256, 120]
00000000: 54e6 f33d e2ee 1a3e 82b5 0f3e 1a61 b93d
00000010: 30ed 1a3e 40b6 153e bd48 383d e6d9 7d3b
00000020: 42b3 d63d b27e ec3d 6ae7 e0bb 544b 78bd
00000030: 1c75 503e 164d 78be 1107 acbd 060d 75bc
00000040: f9ba e53d 5ab1 fa3d 16fd 8cbe c43c e3bc
00000050: 8977 ab3d ce0c 5fbe f863 05be 3e71 013d
00000060: a47f ad3d cf64 f03c d43d c9bd 82e9 43bd
00000070: 0a59 18be f182 033e 7c00 d73c 3cdd 153e
00000080: e8c3 463d 481e 5cbc 0861 db3d a81c ed3d
00000090: 1644 273e b6fb c53d f219 fe3c 9c8d 4d3d
000000a0: 1ee0 283c 4ba6 263e 269a 63be 9798 85bd
000000b0: 23b4 7c3d a59d 893e 1824 853e 9c56 203d
000000c0: 8f19 1ebd 5171 cf3d bc43 1e3e 2859 f53d
000000d0: 4e02 37bd 8eb7 633d 16aa e4bd 69e0 013c
000000e0: 5667 ce3c 57fe 80bc fc2e e23d 5efe 003d
000000f0: 50be 933d 16dd 98bd 94ec 73bc 061d 46be
00000100: 9631 2bbe 8449 80be ba2b cfbd db3a 8dbe
00000110: dae5 f53b b87f 7ebe b31d e0be 000f ccbe
00000120: c4b2 29bd 581d b1be cd9f b2be 8c54 37be
00000130: dee3 f03c 0483 56be 3a65 58be da79 bdbd
00000140: b00a 86bc 3aa0 22be bc0d 27be e874 123d
00000150: f448 c23c b9dd e6bc 5872 39be 619c 2dbd
00000160: 28ff 503e 84ba 233e 5156 8c3c f2e2 063d
00000170: c4ff 813e ad73 f03d 4679 af3d 42a5 6b3c
00000180: e9f5 febd 6c4d 9cbd a0e5 3ebd d04f 2d3e
00000190: 9a52 313d 4e00 cbbd 41d4 00be 4e86 35be
000001a0: a4fc 58bb 31cb 853d 5ee4 8dbd 4c7f 35bd
000001b0: 95d1 f33d f960 3b3e 2a60 45be 092e 483d
000001c0: 268f f53d ce1d 01be 8276 c3bc 9644 ae3d
000001d0: 51e8 f83d 109b 683d d93c 4ebe 4271 d4bd
000001e0: 1f7d 703d f528 aa3d 6cf8 493e b2d3 48be
000001f0: b878 ca3d 265d acbb 94ef 9e3e b0a9 7b3e
00000200: dca4 63bd 702c 943d b283 543e 70b6 77bd
00000210: e973 2cba c4f8 143e fca2 8c3e fc92 4a3e
00000220: 3a04 4f3a cf46 ae3b 1a89 013e b0a8 883e
00000230: e45b debd 6644 aebd 46d6 d23c b048 123e
00000240: 546e 8dbd a87f 34bb 1440 71bc 58d4 123e
00000250: ed46 12be 2e7f 84be 16ac 333e 7cdc 03be
00000260: f612 65bd d827 c2bd d03a 173e 92a4 143e
00000270: 27f0 5dbc fd46 613d b6fb 853c d0c6 243e
00000280: 7a90 0cbd 0347 eebb 8858 c8bc 6026 08be
00000290: 9c4d 813d d63e 15bc 761d 183c b079 d9be
000002a0: d018 24bd b4c1 e2bc c65f 0fbe 6e3f 863d
000002b0: dc06 423c 1357 39bd 8bc7 26bd f227 06bd
000002c0: 1f25 3b3d 322e 203e 0c4f b83c 8c67 9e3e
000002d0: 9cd3 d33d f60d 213e 86ce bb3d c6df 53be
000002e0: b430 9c3d 7667 093e 3e2e 433e 2476 6f3d
000002f0: b8eb 823d d6e7 103e 2ad4 693e 5add f5be
00000300: 2c2e 973d a096 1cbc 4da3 3c3e 042e 0b3e
00000310: 24f4 edbd 32df 043e 3317 5d3c b385 c23e
00000320: e2f6 1ebe 81c6 7bbb 3e4d 07be a8cb bcbd
00000330: 58cc 483c 32e3 bcbd 9848 363c 8a38 f2bd
00000340: b082 dabc de28 66be 3f5f b53d 460e 21be
00000350: 62f9 16bd 0a2d 28be e1fa 2dbe e079 0bbd
00000360: 6a6a f2bd 8ddc ecbd b494 e1be 6673 82bd
00000370: eccb 9fbd 6e65 bbbd c428 37be f679 e83d
00000380: 52cf 6abd 39a1 dabd 63fa cdbd 901e bebd
00000390: ac24 9b3d 7838 5bbd 5755 c8bd bc3f fbbd
000003a0: 2bfa 7d3d ac48 abbd ce5f c0bd 707a e5bd
000003b0: 0f5d 85bd 50c5 2cbd 8e85 79bc 5057 00be
000003c0: 18ca be3a bea8 4e3d 3660 f9bd 5c41 c9bd
000003d0: b165 803e 0216 33bd e09c f5bd 279c 2abe
000003e0: aefe 95bd ef8a c33c e7f6 a1bd a8f0 55be
000003f0: 5978 1abe 3e6d 8bbc 8296 92bd 6b4d c1bd
0.11909166 0.15130189 0.14034083 0.09051724 0.15129542 0.14620304 0.044991244 0.0038734614
0.104834095 0.11547603 -0.006863524 -0.060618713 0.20357174 -0.24248156 -0.08399785 -0.014956718
0.11217303 0.122408584 -0.2753684 -0.027738936 0.08372409 -0.21782228 -0.13026416 0.031602137
0.08471611 0.029344944 -0.09826246 -0.047830112 -0.14877716 0.12842919 0.026245348 0.14635175
0.048526675 -0.013434954 0.107118666 0.11577731 0.16334566 0.09667151 0.031018231 0.050183877
0.01030734 0.16274373 -0.22226772 -0.06523245 0.06169523 0.26878086 0.260041 0.039145097
-0.038598593 0.10129035 0.15455526 0.11979896 -0.044679932 0.055594973 -0.11165254 0.007927039
0.025195759 -0.015746279 0.11044118 0.031492583 0.072140336 -0.07464044 -0.014887948 -0.19347009
-0.16718134 -0.25056088 -0.10115762 -0.27583966 0.007504207 -0.24853408 -0.4377266 -0.39855194
-0.04143025 -0.345927 -0.34887543 -0.17903346 0.02940553 -0.20948416 -0.21132365 -0.09251757
-0.016362518 -0.15881434 -0.16313833 0.03575602 0.023716427 -0.028181897 -0.18110025 -0.042385463
0.20409834 0.15989119 0.017131003 0.032931276 0.25390446 0.117408134 0.08568053 0.014382662
-0.124492474 -0.076319546 -0.046605706 0.16924977 0.043291666 -0.099121675 -0.12580968 -0.17727014
-0.003310957 0.06532896 -0.06928323 -0.044310853 0.11905209 0.18298711 -0.19274965 0.048872028
0.11990194 -0.12609026 -0.02386022 0.085091755 0.12153686 0.056788504 -0.20140399 -0.10373165
0.058713075 0.08308593 0.19723672 -0.19612005 0.098863065 -0.0052601276 0.3104216 0.2457645
-0.055577144 0.07235038 0.20753363 -0.06047672 -0.0006578551 0.14548022 0.27468097 0.19782633
0.0007897053 0.0053184996 0.12649956 0.26691198 -0.108573705 -0.0850914 0.02573694 0.1428554
-0.06905809 -0.002754191 -0.01472475 0.14338815 -0.14284869 -0.2587828 0.17546114 -0.12877077
-0.055926286 -0.09480256 0.14768529 0.14515904 -0.013546026 0.05499934 0.016355377 0.16091466
-0.03431747 -0.007271649 -0.024456277 -0.13295889 0.06313631 -0.00910922 0.009284368 -0.42475653
-0.040062726 -0.027680255 -0.14001378 0.06555067 0.011842456 -0.045249056 -0.040717643 -0.03275294
0.0456897 0.15642622 0.02249863 0.30938375 0.10343096 0.15727982 0.091702506 -0.20690832
0.07626477 0.13418373 0.19060609 0.058462277 0.06392616 0.14150938 0.2283484 -0.4802044
0.073818535 -0.009557396 0.1842167 0.13591772 -0.11618832 0.12975767 0.013494301 0.3799263
-0.15523866 -0.0038417878 -0.1321306 -0.09218532 0.012255751 -0.092230216 0.011125706 -0.1182719
-0.026673645 -0.22476527 0.088560574 -0.15728101 -0.036858924 -0.16423431 -0.16990234 -0.034051776
-0.11836703 -0.11565504 -0.44058764 -0.06369667 -0.07802567 -0.091502056 -0.17886645 0.11351387
-0.057326622 -0.10675282 -0.10057523 -0.09283173 0.07575354 -0.05352065 -0.09781902 -0.12268016
0.062006157 -0.083634704 -0.09393273 -0.11204994 -0.0651189 -0.04218036 -0.015229596 -0.12533307
0.0014556078 0.050453894 -0.12176554 -0.098269194 0.25077584 -0.04372216 -0.11992812 -0.1666113
-0.07323967 0.02386996 -0.07908421 -0.20892584 -0.15084971 -0.017019864 -0.07157613 -0.094385944

net.0.bias f4 [256]
00000000: ab98 d6bd d074 fcbe 5232 2f3c e67b ebbc
00000010: 5ef2 ee3c 68c8 8d3e ba9f bdbd 9abd 56be
00000020: 1588 393e 102e 433c bd49 e7bc ac85 77be
00000030: 6849 32be 5bf2 413e 986f dc3d f077 b33c
00000040: 42e9 bb3d 3611 f53d a8ef 593e 1ea3 903d
00000050: a7f6 5c3e 82a2 333e c4d2 13be 06dd 5bbe
00000060: ae8d 81be a457 d33d b314 a63e a971 843e
00000070: bfc7 4f3c f3e9 c3bc eaa8 793e bef5 863c
00000080: ee6e 00be 123a bdbe a1fa 43be 1b75 3b3d
00000090: bc0b bfbd ae8d debc e60f b33c 0d59 c63e
000000a0: e040 92be cec0 263e 7778 d63b 06fc 6bbd
000000b0: bbf4 113d 0d5b 77be 8996 10be 2b1f 463e
000000c0: 6adc c03e 1641 1dbe a944 de3d 6a42 223e
000000d0: a5b3 7a3c 4431 8a3d a274 da3e ae42 1cbe
000000e0: 51e5 8dbd 0ec9 053e bdbd f9bd 1e9e 2cbe
000000f0: b8a8 673e 7abf 173e 249e a13c de0c 07be
00000100: ac2f aabe 81f5 b43d cf14 8ebe 8c31 893d
00000110: 9286 47be 962d e1bc 76fa e63e fa71 703e
00000120: 7452 373e c9e4 493e 71f5 b63d ec55 013e
00000130: ea34 5e3d 5a0c 44bc 18b3 303d fe5c 55be
00000140: d2e2 1bbe dd8f 23bd beec 2abf 6c48 d9bc
00000150: 945c 2e3e 9e45 e93d 0571 cf3d 81f5 313b
00000160: 33d5 18bb 3eea ae3d 1cb8 8dbd 9bdd 4dbe
00000170: c6b8 013d 3afa 473d 2ca1 3cbe 7ec6 65be
00000180: ea82 db3d 7629 613e 4126 83be 762f 513d
00000190: c84d c3bd 3fdb d53c 1b98 86be 9875 57be
000001a0: 84bb 833e 4495 113e 84b6 9b3e a6f0 9fbd
000001b0: e4a4 7bbd 8872 a7be 9aec 95be 0f65 88bd
000001c0: fc76 3cbd 08c9 04be 8e49 923e dad7 373e
000001d0: 6bcc 96be dcc9 cbbd bca7 2dbe 7860 93b8
000001e0: de3e d1bd 1034 433d 7e18 6d3e 28b7 273b
000001f0: fe16 3f3e 56ea 21bd 2630 573e d42a c1bc
00000200: 02b6 173e 6aba 873d 0066 8dbe bb61 c93e
00000210: c257 373d 999b 2f3d 95a2 1e39 a0ab fd3d
00000220: ca31 1c3e e341 e5bd 4c0d 6a3e 9a25 3b3e
00000230: 368f 9c3c 29cf b1be 5452 543e fe45 d1bc
00000240: f257 15be 9cc1 863d 863e 0abe 13d0 a6bd
00000250: a8ac 70be 5ca6 223c bc55 ccbe 0e47 e83d
00000260: dae4 4f3e 6e0f 45be b3c3 913e 678c c2be
00000270: 0858 6e3e 0885 36be 0c6c 833d 2126 62bc
00000280: 54e4 303e 8c1b 33be b2c3 3d3d 1831 bd3c
00000290: 8642 1e3e cc9a 55bd 66d7 ec3d 6b5f 34be
000002a0: ebef 0fbc e447 a93d c5fa 81bc 9614 5f3e
000002b0: d84e f43d 090f 0f3e f717 12bc 92ce e63b
000002c0: 98df ef3d 4ed3 2b3e fac1 c6bd 8ab6 c63d
000002d0: 9aa5 4a3d 12f6 1ebf 743a 183e b6b9 69bd
000002e0: 9667 b2bd 6f09 6dbd 880a 2a3e b623 3d3e
000002f0: 6cab 4ebd d9d1 36be 7310 6c3d e8d5 b6bd
00000300: 5491 c2bd 3bdb d5be f4fb b43d ab9b d9bd
00000310: 668a 5fbe 9499 24bd 0ae5 3e3e d458 b23b
00000320: c489 833d 6c7c 773b a03d 5ebe 9cb2 0bbe
00000330: 1763 73be bb4c 56bd 5ec4 13be f71f 863e
00000340: 5eea 1b3d 3ae9 213d f44e 943c 3c70 1fbe
00000350: 963f 513d 89f8 523d 12b7 cf3d 1cbb 44be
00000360: 9820 433e aef7 31be c846 a5bd 8cc1 273e
00000370: a0f5 6b3d 62bc c53e 221e 46be 78f1 353e
00000380: 4eeb 503e 593b 253e cc71 763e 5c09 03be
00000390: 5090 3d3e 5045 33bc a08b b83d 0ce3 f7bd
000003a0: 3647 3f3e 5c11 ef3c 73f2 fdbd 7096 f93d
000003b0: d395 a7bd f6d3 0ebd 283d 903e eafb 243e
000003c0: 66f1 643c 0a15 a7bc 998a b9bd b665 2abd
000003d0: 5ab3 913b 7547 11be bc6b 9d3d b085 a9bd
000003e0: 3c2a bb3e 9863 c33e e37d b33d c042 03be
000003f0: baf9 133e 72a5 74bd 7ddf 003d fafc cdbd
-0.10478338 -0.4930787 0.01069315 -0.028745603 0.029168304 0.2769196 -0.09258981 -0.20970765
0.18118317 0.011912838 -0.028233403 -0.24172086 -0.17410815 0.18940108 0.10763472 0.021907777
0.0917535 0.11966173 0.21282828 0.07062362 0.21578465 0.1754246 -0.1443587 -0.21471033
-0.25303406 0.103194505 0.32437667 0.25867966 0.0126819005 -0.023915267 0.24380842 0.0164746
-0.12542316 -0.36958367 -0.19138576 0.045765977 -0.0932841 -0.027167168 0.021858167 0.38739815
-0.2856512 0.16284487 0.0065451222 -0.057613395 0.035633784 -0.24155827 -0.14119925 0.19347827
0.37668163 -0.1535686 0.1085294 0.15845647 0.01530162 0.06747678 0.4266711 -0.15259811
-0.06928504 0.13064978 -0.12194393 -0.16857192 0.22622955 0.14819136 0.019728728 -0.13188502
-0.33239496 0.08835889 -0.2775025 0.066989034 -0.19484928 -0.027487557 0.45112962 0.23480979
0.17902547 0.19716181 0.08933533 0.12630433 0.05424968 -0.0119658355 0.043139547 -0.20836255
-0.15223244 -0.03993212 -0.6676749 -0.026523791 0.17027503 0.113902315 0.10128979 0.0027154388
-0.0023320436 0.08540772 -0.06919882 -0.20104067 0.031670354 0.04882262 -0.18420857 -0.22439
0.10718329 0.21988472 -0.25615123 0.051070653 -0.0953632 0.026105521 -0.26287922 -0.21040952
0.25729 0.14217097 0.30412686 -0.07809572 -0.06143655 -0.32704568 -0.29282075 -0.066599004
-0.04601191 -0.12967312 0.28571743 0.17953435 -0.29452834 -0.09950611 -0.16958517 -7.027475e-05
-0.10217069 0.047657073 0.23153874 0.0025591347 0.18661115 -0.03953012 0.21014461 -0.023579992
0.14815524 0.066273525 -0.27616882 0.39332375 0.044761427 0.042873 0.0001512862 0.123862505
0.15253368 -0.111942075 0.22856635 0.18276063 0.019111257 -0.34728363 0.2073453 -0.02554607
-0.1458433 0.06579897 -0.13500413 -0.08145156 -0.23503363 0.0099273585 -0.3990916 0.113416776
0.20302144 -0.19244167 0.2846962 -0.37997743 0.23275769 -0.17824185 0.06417093 -0.013803036
0.172746 -0.17490977 0.046329208 0.023094699 0.15455064 -0.05214958 0.115645215 -0.17614524
-0.008785228 0.08265665 -0.015866647 0.21785197 0.11929101 0.13970579 -0.0089168465 0.007043668
0.11712569 0.16779825 -0.09704967 0.09702785 0.049474336 -0.62094223 0.14866048 -0.057061873
-0.08711164 -0.057870325 0.1660558 0.18470654 -0.05045645 -0.17853488 0.057632875 -0.08927518
-0.095003754 -0.41768822 0.08837119 -0.106253944 -0.21830139 -0.040185526 0.18642059 0.005442718
0.06422761 0.003776337 -0.21703196 -0.13642353 -0.23768269 -0.05231927 -0.14430377 0.26196262
0.038065307 0.039529063 0.018104054 -0.15570158 0.05108603 0.051506553 0.1014234 -0.19212002
0.19055402 -0.17379639 -0.08070141 0.16382426 0.057607293 0.38620287 -0.19347432 0.17767894
0.20402262 0.1613592 0.24066848 -0.12796539 0.18512082 -0.010941818 0.09011006 -0.12103853
0.18679509 0.029183082 -0.12399759 0.12186897 -0.081828736 -0.03487011 0.2817166 0.16111723
0.0139735695 -0.020395774 -0.090596385 -0.041600905 0.004446429 -0.14187415 0.07686564 -0.08277452
0.3655566 0.38161922 0.08764245 -0.12818432 0.14450732 -0.059728093 0.031463135 -0.10058017

net.2.weight f4 [32, 256]
00000000: eaf9 063e 16cd 40be 5c37 7e3e d7ba c0bd
00000010: 5615 7ebd 9e0b 54be f28f 643d dc15 18be
00000020: d4e1 4c3e 5446 443d 336e e4bd 7427 f3bd
00000030: d2fb 1cbe 98aa 2fbe 1ea0 96bd c4a6 5ebe
00000040: 6463 3a3e 3a8c 013e 4e2a f9bd d41f 2a3e
00000050: 382d 56be 42d4 11be ef54 063e 5474 423e
00000060: f4f8 473e 2833 123e 5713 82be e60f c43d
00000070: c4f4 b9be f39e b23e e8d0 183e 305e cf3d
00000080: 58bc 8e3e 6c47 2d3e e770 b13d 34be 13be
00000090: 226a 2a3e 90b8 8c3d 2e3b 7ebe fb2a 6b3e
000000a0: 176b 783d eac9 773e 1604 1d3e 4284 153e
000000b0: cc55 10bd c66f 393e 6e81 02be a244 853e
000000c0: c4a7 42be f4eb 453e 281a c8bd 3e08 4ebe
000000d0: 3c46 1bbe 838e d5bd 906a 5bbe 4a7a 42bc
000000e0: fa67 943d b8ce 34be 177e a9bd 3c44 1d3e
000000f0: ee0e da3d e399 563e 3614 66bb 9614 573e
00000100: e463 323e 25f0 47bd f8d8 d93d 8e37 363e
00000110: 2d39 903e 1811 b3bd a001 e0bc e65f 343e
00000120: 6a2b 84be 5b26 233e 6ee1 5d3e 7e55 54be
00000130: 64fc 323e 2201 12be fa73 9d3e 3648 973e
00000140: 58c1 10be 8c61 bcbc 7c84 05be 100a 0abe
00000150: 0a75 a4be fd3f 2bbe b2e2 37be 52c6 35be
00000160: 76c6 903e a418 69be d438 2c3e a38a b33e
00000170: d49e 933e 5c6c 273e 4817 453e a475 2c3e
00000180: dcc7 dd3d 10a9 07bf b8b0 7e3e 4d39 813d
00000190: 82d8 9bbe 9a93 083e 6230 42be 1e99 07be
000001a0: f3bf 3f3e 1734 503e 7aac b73d 9b5c 23be
000001b0: 7624 473e e8cc 943e 5c45 a13e 1a1e 913d
000001c0: 6693 1f3c eac4 63bd e52a e5bd 7a9b 793d
000001d0: 2b6b 933e 2013 f23d 4083 753e 7c6c e53d
000001e0: 3097 ccbd 47b8 75bd 5e10 2fbe a7a3 90bd
000001f0: 7811 71bd 08f6 5d3d 6edb 11bc fcc0 82be
00000200: da56 a4be 2ef5 10be 12ff 743e 42f9 123d
00000210: 0ee4 82be 66da 38be b25d 043e dfb7 ab3d
00000220: 0879 35be 6ecd 87bd e1e7 7abe 75a1 3bbe
00000230: 9ccc 753d 525f 93bd f6e1 3abe 2ab5 e3bd
00000240: c392 693e 4f18 733e 5e92 4cbd 29ad 41be
00000250: fcb3 823c 2dff 9fbe 3bb0 fa3d 368b f33d
00000260: f3fb 70be b283 813e 380d 5fbe 5d18 9f3d
00000270: 5ac3 303d 7ef7 bbbd 2dd2 113d a4ac e6bd
00000280: 9215 65be 8879 a3bd 07bb 463e 78e4 d53e
00000290: 7224 74be f4d3 5bbe de89 a7bd 264f 08bd
000002a0: 84d0 1d3e 64c2 bcbd 5f01 793e 965b e7bb
000002b0: b0e4 adbd 309d 0b3e 264c 4fbe dacc 653e
000002c0: fa40 b4be 1af9 743e 8f65 db3d 7eae 84bd
000002d0: 42f5 4ebe 30d8 943c 10ce 8d3d 62ee 823e
000002e0: 6f3f f0bd 58d5 8ebd 9249 633e be2d bd3d
000002f0: 0ca1 183e 96ba 89bd b013 813d 0e59 98be
00000300: 78fe e5bd 5e37 933e 0d2d 10be 1eb5 8bbe
00000310: 54fe b73d 5a1e dcbe cd96 76be 2adb 203e
00000320: 2236 69be 70c9 8a3e 8b6e 413e a287 8f3d
00000330: 4668 c1be 81b1 16be f0e7 4a3d 6ea0 c13d
00000340: bc70 a83d c053 623d 3239 0e3e b2a9 ad3e
00000350: c89e 3a3e 1c9b 8bbe 2035 66be 8d2e fabd
00000360: 4675 213e 4066 2a3e 045c 03be 7795 1cbe
00000370: d05d 1b3e ee6a 713e d037 d43c 0173 9bbe
00000380: a5cb 313e 5835 093e 501c 003e 205f dbbd
00000390: c8d8 8e3e 8a83 b23e 0c56 373e bb58 c7bd
000003a0: 3296 74be 183f 2bbd ead3 72bd 88b8 503e
000003b0: a0eb 7b3e d228 443e 2ceb 8c3d 714d 44be
000003c0: a1ef 153e 914f 003e 142a af3d 5806 a8be
000003d0: 6648 f43c 2120 ddbc 8cec 43be 7119 c0bc
000003e0: 6211 943d eeda dfbd 2218 85bd 23af 57bd
000003f0: 6f37 19be c04c 6cbd 5e11 8cbe 45ae 2ebe
0.13181272 -0.18828234 0.24825805 -0.09410637 -0.062032066 -0.20707557 0.05580134 -0.14852089
0.20008022 0.047918633 -0.11153831 -0.118727595 -0.15330437 -0.1715492 -0.07354759 -0.21743304
0.18201977 0.12651148 -0.12166272 0.16613704 -0.20915687 -0.14241126 0.13118337 0.18989688
0.19528562 0.14277327 -0.2540538 0.09573345 -0.36319554 0.34886894 0.14923441 0.10125387
0.2787807 0.16921777 0.086641125 -0.14428025 0.16642049 0.0687114 -0.24827263 0.22965614
0.060649004 0.24198118 0.1533359 0.14601234 -0.035238072 0.18109044 -0.12744686 0.26028925
-0.1900931 0.1932829 -0.09770614 -0.20120332 -0.15163511 -0.104275726 -0.21427369 -0.011869976
0.072463945 -0.17656982 -0.08276003 0.1535806 0.10647379 0.2095714 -0.0035107262 0.21003947
0.17420918 -0.048813004 0.10637087 0.1779463 0.28168622 -0.08743495 -0.027344525 0.17614707
-0.25814372 0.159326 0.21668026 -0.20735738 0.17479092 -0.14258245 0.30752546 0.2954728
-0.14136255 -0.022995733 -0.1303882 -0.13480401 -0.32120544 -0.16723628 -0.17957571 -0.17751434
0.28276414 -0.22763306 0.16818553 0.3506671 0.28832114 0.1634993 0.19247162 0.16841751
0.10829136 -0.52992344 0.248721 0.063097574 -0.3043862 0.13337556 -0.18963769 -0.13242003
0.18725567 0.2033237 0.08968444 -0.15953295 0.19447502 0.2906258 0.3149823 0.070858195
0.009739732 -0.055607714 -0.11189822 0.06093929 0.287927 0.11820054 0.23975849 0.112023324
-0.09989774 -0.059990194 -0.17096087 -0.07062464 -0.05885455 0.05418971 -0.008902414 -0.2553786
-0.32097512 -0.14156029 0.23925427 0.035882242 -0.25564617 -0.18052062 0.12926367 0.0838468
-0.17721951 -0.066309795 -0.24502517 -0.1832331 0.060009584 -0.07195915 -0.1825026 -0.11118539
0.22809891 0.23739742 -0.049944274 -0.18913712 0.015954964 -0.3124937 0.122406445 0.11891787
-0.23533611 0.25295788 -0.21782386 0.07768319 0.04315505 -0.09178065 0.03560083 -0.11263397
-0.2237151 -0.079821646 0.19407283 0.4177587 -0.23842028 -0.21467572 -0.08180593 -0.033278607
0.15411574 -0.092167646 0.2431693 -0.0070604784 -0.08490884 0.13634181 -0.20243892 0.22441426
-0.35205823 0.2392315 0.1071273 -0.06478594 -0.20210746 0.018169492 0.06924069 0.25572497
-0.11730849 -0.06974286 0.22196034 0.0923724 0.14905185 -0.067250416 0.06302583 -0.29755443
-0.11230177 0.2875318 -0.14079686 -0.2728662 0.08984056 -0.42991906 -0.24080963 0.15708604
-0.22774556 0.2710681 0.18889825 0.07008292 -0.37774867 -0.1471615 0.0495376 0.09454428
0.082246274 0.05525565 0.13889006 0.3391853 0.18224633 -0.27266777 -0.22481203 -0.1221591
0.15767393 0.16640568 -0.1282807 -0.15291391 0.15172505 0.23575947 0.02590552 -0.3036118
0.1736284 0.13399255 0.125108 -0.10711503 0.27899766 0.3486598 0.17903918 -0.09733721
-0.2388542 -0.041808218 -0.05928413 0.20382893 0.24601603 0.19156197 0.06880793 -0.19170167
0.14642192 0.12530352 0.08552948 -0.3281734 0.029819679 -0.02699286 -0.19133204 -0.023449631
0.07229878 -0.109304294 -0.064987436 -0.052657258 -0.14962552 -0.057690382 -0.27357 -0.17058666

net.2.bias f4 [32]
00000000: ee9f 82be 92e4 063e 5e94 49be 6c5c a9bb
00000010: 2d40 b4be 2702 bdbd 87e8 123e 87e9 013c
00000020: f3d7 11be 7ded 9c3d 1621 883e be99 d03c
00000030: 3369 a1be 6c64 8a3d 6854 00bb afcd 883d
00000040: 3fd6 efbd ded8 27bd ac06 813c c4aa 523e
00000050: 1d93 95bb fbe6 39be 4a54 4b3e a6c7 3f3e
00000060: e4ba 8a3e a8df 793d 064b cdbe 02c9 313e
00000070: 609a 383e fa91 4a3e 6cc5 3fbe 2507 0abe
-0.25512642 0.1317313 -0.19685504 -0.0051684882 -0.35205212 -0.09228926 0.14346515 0.007929212
-0.14242534 0.07662485 0.26587743 0.025463935 -0.31525573 0.06757435 -0.001958156 0.06679856
-0.11710786 -0.040978305 0.015750252 0.20572954 -0.0045646564 -0.18154518 0.19856372 0.18728504
0.2709571 0.06100431 -0.400963 0.17361835 0.1802764 0.19782248 -0.18727654 -0.13479288

net.4.weight f4 [32, 32]
00000000: 20ed 2cbe 0a59 6e3e 0cc4 2abe 9772 f53d
00000010: 1f43 9ebe aea1 eb3d 3c5d 163d c016 9a3d
00000020: 0207 b93e 8436 e8bd 7f81 1dbe d3bc 273e
00000030: e0d5 d6bb d0da b73c 5f60 0c3d 0838 08be
00000040: 4784 c7be 3cf3 52bd 5fdf 5b3e ba18 a9bd
00000050: aef5 e53d 2cce 873c abd8 293e 2af7 e53b
00000060: aa0e 983e a431 3e3e ba5d 623d aa79 cf3c
00000070: 6da2 50bd 0021 903e b41b 6fbe 7689 85bd
00000080: 0888 143f 1370 60bd c347 7c3e 0281 be3e
00000090: ea97 f23d 1669 a13d 2dea 6d3d 37d1 28bc
000000a0: 90e4 e83d 844a 283c acfd a2bc f0b3 953b
000000b0: ae82 4ebe 3ce6 82bb 538e 343e 13ca d03c
000000c0: bf71 a3bb ff91 613e b4e4 d63d 2405 0bbe
000000d0: b218 e73d b403 2c3e 5001 e8bd e8f4 9bbe
000000e0: 99b1 3e3c 64d5 253e cf84 fb3d 8565 23bd
000000f0: 5f2a 6bbe daff ccbe 64ac b73d d9f9 023e
00000100: 7052 10bf a202 273c 3157 333e f8b5 a23c
00000110: 8d5f 063f a813 7cbe dbcf de3e accb 47bd
00000120: 2417 8ebe 64bc 503e efb4 bb3e 24ad c9be
00000130: 0e68 263f b08f 85bd 60a5 923c a657 e13e
00000140: 8af9 db3e 3a55 88be 66fe dfbd 10db c6bd
00000150: 629a d9be 1b4e 103e bac0 a13e 0026 2e3d
00000160: fe1f 4fbe 6a50 b3be 0888 9e3e 3c75 d2bc
00000170: 832f f2bd f446 0dbe 9895 04bc 924a 6dbd
00000180: c175 853c 0e40 bd3d 1a15 8fbe a656 963e
00000190: 4061 7c3f 4781 023f 483e d6be 7a78 063e
000001a0: a3a7 c13e 9be6 00bf d2a4 81bf 1cc4 b43e
000001b0: 8cb1 0c3d 35fd 3bbf 10c6 443e eade 693e
000001c0: dbfa 223e b25f 1ebe 722a cd3d 7831 f5be
000001d0: bde3 33be a73e 10bd f190 c9bc 415f a3be
000001e0: 9c51 a33e 38e5 a33e 0c8c ef3d a29b 90be
000001f0: 1254 c73e 3617 ddbe 08e5 293e 6614 183e
00000200: 4cee e33d 5531 c23d a4dd 843e 038d 083e
00000210: cb9a 803e 1a41 74be 06fd 4cbd 3634 043e
00000220: 12bc 523d be8f 273e 4f0c cb3e b63e 8d3d
00000230: 22a0 82bd d23d a3be 9040 cbbd 6429 313e
00000240: 2684 2b3d c0be 3ebe 90d1 a5be 6d6f babd
00000250: 88ba ff3c 761e 153d e61f 75be ef80 b2bd
00000260: 6672 6a3e ac91 d7bd ac9a fd3b 5d33 413e
00000270: 629d 033e 04a4 01be e66c 4e3d d893 e6bd
00000280: ae11 36bd 6c1f c43d d600 55be 5e7c b63d
00000290: ff16 c4be 70ff f5bd 2018 de3d e523 96bd
000002a0: a60b 283e 928e 293e b86e edbd 5d68 2b3e
000002b0: 8a6c 63be e13a 5b3e 3295 b63c ccce 6ebe
000002c0: c001 3bbe b7e8 1d3e f215 2f3e 8675 583e
000002d0: 2955 4f3d 5fc8 9fbe e7a5 363e 56c5 32bd
000002e0: a501 553e c49e 073e fc06 60be 4291 793c
000002f0: f2c9 b0be 8ce5 3f3e bbe0 00be 0c5a f3bd
00000300: 52dd adbc b036 213e 8c7f 43be d870 633e
00000310: 2dbd 99be 9ece 3f3d 80c1 7dbe 4ccf e93c
00000320: f7e3 90be 6e91 0abe b059 6bbe f567 d0bd
00000330: 32ae 49be 5a98 15be 2c91 ecbd 474a 9bbe
00000340: f623 923c b4fd 623e f6bc cebc a409 94be
00000350: f6cd c83b c425 bc3c 1d47 743d 0098 07be
00000360: 4f59 38be 06a2 aabc 2949 0abb 74ee 0f3e
00000370: e147 19be aaf3 21be 9a3c 883e faba f53d
00000380: 3fc8 efbd 0c89 fa3d 1a93 2abd cd45 313e
00000390: 6e47 cabe 3d55 32ba 5a78 e33d 0995 cfbd
000003a0: 10b5 913e e19d 58be 34d8 4ebe 9478 1b3e
000003b0: 2eba 613c 28a7 1a3e b5d3 663e 2691 c43d
000003c0: afed edbd 87ff 6abe 2ab1 2d3e 1c7e 0fbc
000003d0: 4e3f 9e3d 46fc aebd 2dfc 263e 0536 71bc
000003e0: 487e 973e 3d22 8e3e 786c ad3d 82b2 8c3d
000003f0: f4cf 82be 59e9 8e3e 0c85 98be a3f0 9a3e
-0.16887331 0.23276153 -0.16676348 0.11984747 -0.30910584 0.11505447 0.03671001 0.075238705
0.3613816 -0.11338523 -0.1538143 0.16380624 -0.0065562576 0.022443205 0.034271594 -0.13302624
-0.38968107 -0.051501498 0.21471928 -0.08256669 0.112285 0.016577803 0.16586559 0.0070179896
0.29698688 0.18573624 0.055265166 0.025326569 -0.05093615 0.28150177 -0.23350412 -0.06520359
0.5802007 -0.054794382 0.2463675 0.372078 0.118453816 0.07881372 0.058084656 -0.010303787
0.1137172 0.010271672 -0.01989635 0.0045685694 -0.20167038 -0.003994731 0.17632417 0.025486981
-0.004987925 0.2202835 0.104928404 -0.1357618 0.11284007 0.16798288 -0.11328375 -0.30460286
0.011639022 0.16194683 0.122811906 -0.03989174 -0.22965382 -0.4003895 0.08968428 0.12790622
-0.5637579 0.010193499 0.1751373 0.01986216 0.5248955 -0.24616873 0.43517956 -0.04877822
-0.2775203 0.20384365 0.3666148 -0.39389908 0.65002525 -0.06521547 0.017901123 0.44012183
0.4296382 -0.26627523 -0.109371945 -0.097097516 -0.42500597 0.14092295 0.3159235 0.04251671
-0.20227048 -0.3502229 0.3096316 -0.025690667 -0.118254684 -0.13796598 -0.008092307 -0.057932444
0.016291501 0.09240733 -0.27945787 0.29362983 0.9858589 0.5097851 -0.41844392 0.13131896
0.3782321 -0.50351876 -1.0128424 0.3530587 0.03434901 -0.7343324 0.1921618 0.22838941
0.15916006 -0.15466192 0.100178614 -0.47889304 -0.17567344 -0.035216 -0.024605246 -0.3190861
0.318982 0.32010818 0.11696634 -0.28243738 0.38931328 -0.4318177 0.16591275 0.14851531
0.11129436 0.094820656 0.25950348 0.13335042 0.25118098 -0.2385296 -0.05004599 0.12910542
0.05144889 0.16363427 0.39657828 0.06896727 -0.06378199 -0.31883103 -0.09924424 0.17300946
0.041874073 -0.18627453 -0.32386446 -0.09103284 0.031216875 0.036406003 -0.2393795 -0.087159984
0.22895202 -0.105258316 0.0077393856 0.1886725 0.12853006 -0.12660223 0.050396822 -0.11258668
-0.044450454 0.09576306 -0.208011 0.0891044 -0.38298795 -0.120116115 0.10844445 -0.07331065
0.16410694 0.16558293 -0.115933836 0.1673903 -0.22209373 0.2140918 0.022287939 -0.23321074
-0.18262386 0.15420805 0.17098215 0.21138582 0.050618324 -0.3120756 0.17836724 -0.043645225
0.20801409 0.13244158 -0.21877664 0.015232386 -0.34529072 0.18739909 -0.12585728 -0.118824095
-0.021223698 0.15743518 -0.19091624 0.22211015 -0.30027142 0.046827905 -0.24780846 0.02854123
-0.28298923 -0.1353204 -0.22983432 -0.10176078 -0.19695356 -0.14608899 -0.11551127 -0.30330107
0.017839413 0.22167093 -0.025236588 -0.28913605 0.006128068 0.022967227 0.05963813 -0.13241577
-0.18002819 -0.020829212 -0.0021100736 0.14055806 -0.14968826 -0.15815607 0.26608735 0.119985536
-0.11708116 0.12233171 -0.041644193 0.17311783 -0.39507622 -0.00068028626 0.111069396 -0.10135848
0.28458452 -0.21153976 -0.20199662 0.15182716 0.013777299 0.15102828 0.22541697 0.09597997
-0.116176 -0.22949038 0.16962114 -0.008758094 0.07726918 -0.08544211 0.16307135 -0.014722352
0.29588532 0.27760497 0.084679544 0.06869985 -0.2554928 0.27912405 -0.29789007 0.30261716

net.4.bias f4 [32]
00000000: 1fe0 d4b8 ba21 44bd 9086 a5bc 2b86 6d3d
00000010: bca5 b33d 2491 d33d aec5 dd3b 265e 19bd
00000020: f1b2 793d 50aa 0bbe 9429 da3d 1668 febd
00000030: 6779 3e3e 0ac7 773d 687d 3dbd 9478 d33d
00000040: 0e95 853d 46e8 9cbe ceb0 96bb 54c5 073d
00000050: b513 8c3d 00e0 eabb eb31 133e b414 0c3d
00000060: 8754 4dbc 3c74 c13b 92cb 843d f6a0 423d
00000070: 83f7 723e 7bf1 a63d ca50 a93c 9507 ff3d
-0.000101506936 -0.047883727 -0.020205766 0.05798928 0.08771846 0.10330418 0.00676795 -0.037443303
0.060961667 -0.13639188 0.10652462 -0.124221966 0.18600999 0.060492553 -0.046262175 0.10325733
0.065225706 -0.3064596 -0.0045987135 0.03314717 0.06839696 -0.007167816 0.14374511 0.03419943
-0.01253236 0.005903749 0.064841405 0.047516786 0.2372723 0.081515275 0.020668406 0.12452618

net.6.weight f4 [1, 32]
00000000: 6b3c 183f f0b2 433f ae2d c53e 30dd 3e3f
00000010: 5e3c b03e 7e7c 57bf 73ed eb3d 99fe 3b3f
00000020: 4ec3 0e3f 6c9a 883e 0ad4 db3e e8f0 423f
00000030: d2ba 90bf 3e1c ed3e 80f7 363f 0c96 5e3f
00000040: 0aa9 1cbf d377 343f da3f 3ebf 4ab9 933d
00000050: d5d0 743f 1a8d a93e 95a9 163f 8652 f63e
00000060: 1229 013f c67c e33e 01ae 80bf 9402 2c3f
00000070: 4a95 91bf 8083 743e b930 fdbe aa8c 2bbf
0.5946719 0.7644491 0.38511413 0.74556255 0.34421057 -0.84174335 0.11519899 0.7343536
0.5576676 0.26680315 0.4293521 0.76148844 -1.1307013 0.4631061 0.71471405 0.86947703
-0.61195433 0.7049534 -0.7431618 0.072130755 0.9563115 0.33115464 0.5885251 0.48109835
0.50453293 0.44431132 -1.0053102 0.67191434 -1.1373684 0.23878288 -0.49451235 -0.6701151

exp_avg f4 [256, 120]
00000000: a30a 5037 edf9 29b7 deeb 0b37 6a88 c6b7
00000010: e02e e7b6 d445 15b6 2eef 18b4 9664 5937
00000020: dea3 7e36 637b 1a38 de8d 4937 f8b0 f9b7
00000030: 57c9 6738 06fe bd37 78b0 1db8 800a d035
00000040: ac41 1eb8 418a dc36 c4c9 04b8 51cb 9a34
00000050: cc3c a6b7 768e 16b7 ac64 0838 a61e 6538
00000060: 7179 d8b6 955e 3a37 f41a 4938 3d96 f3b6
00000070: 6279 81b7 773a 1737 af00 a837 8ffe 8438
00000080: f71f beb2 7053 f336 e714 c937 3fcc c0b7
00000090: d222 1338 3b8c 0db8 6edc 6b37 17c7 cfb7
000000a0: a2ac a537 12b2 88b8 837f b837 c0a9 89b6
000000b0: 63c3 e7b7 07b4 e934 0756 3b38 1e6c 9c36
000000c0: fe46 9237 927a b435 6249 fbb5 e0fd 9db7
000000d0: aeac 4cb7 17bb 7ab6 af15 c1b6 7acc 9737
000000e0: 6708 3ab7 ec0e 0036 fa37 a7b7 6469 3337
000000f0: a2ec 7136 ed51 5137 9123 c7b6 d7c9 84b7
00000100: 4ad5 25b7 78ba 6ab6 e0e0 34b6 a487 b3b5
00000110: 0944 c3b5 dcd5 0c36 6615 f3b6 96cd 1eb6
00000120: f152 d2b3 5866 28b5 6ca9 afb5 a0ca 71b6
00000130: d97d eab5 70a2 f9b6 8c81 96b5 b454 72b6
00000140: 3dbd f8b5 bd43 18b6 a0aa c834 2501 bab5
00000150: c999 07b6 e9fc 03b3 531b 64b5 89ec 2db6
00000160: 9f74 0ab6 2a5b 31b4 d973 4bb6 ea9c f8b5
00000170: 15be 07b6 dcc7 a0b6 02ee 20b6 51bc cbb5
00000180: 117a 15b5 7c4f 15b7 b68f 86b6 0064 3eb6
00000190: 334b 9f36 1455 9db6 e54c a136 2a09 d3b5
000001a0: 9c3f df35 38b9 15b7 c817 90b7 a6dd 4035
000001b0: abca 4c36 5fef 18b7 2a30 b635 34b2 80b5
000001c0: 8bdd fe35 44f3 2036 5110 1cb6 d50b 27b7
000001d0: 73fb c936 22c4 8c33 fc4f 37b7 dd1a 02b7
000001e0: 3ca8 92b7 449b a836 2d9a adb7 9ed3 9ab6
000001f0: a9b2 2fb7 cc8e 0cb7 30ff 2db7 0a56 7536
00000200: 1b42 07b8 0c91 b037 bb71 3437 6f2e bfb6
00000210: 4830 e5b6 9ef2 6d37 d939 c1b7 769b e738
00000220: a8d9 f237 bda5 3138 4c2c a436 87d0 eeb6
00000230: 3a3b 4fb7 2a30 a338 1420 d437 9539 1838
00000240: 53ac 4935 3dad e737 d999 a0b7 820c 6938
00000250: 3e71 c437 6904 1337 1ae9 c938 a00e 2a36
00000260: d680 8d38 0d09 d937 4bc4 f637 8d00 cd37
00000270: 21bb cb37 e7e2 79b8 6280 0a38 98ea b838
00000280: 35ed 5438 da55 47b8 b23d d137 eab7 98b7
00000290: 1fa7 f7b6 64f4 d6b7 97b5 6837 26df d036
000002a0: 4f26 d137 24cd 88b7 cbe3 9fb7 9c20 0db8
000002b0: 6da2 0ab7 2af2 28b7 4fc6 bb30 2241 02b7
000002c0: 4bad 9836 1aa8 d736 59ad e4b5 2051 6db7
000002d0: e38d e9b5 ce96 b9b7 e9bd d8b6 b50b 9fb6
000002e0: 0b2f 92b6 4c20 a2b7 ddbd 16b7 19a5 27b7
000002f0: e0ba fbb6 5967 27b7 c9d4 c5b3 280c 2fb7
00000300: 2770 42b7 cfd7 1db7 03f0 29b7 b82c 21b7
00000310: 81e2 2db7 7923 88b7 5380 a9b6 b14c ceb6
00000320: 1808 2eb7 4613 29b7 87e5 3ab7 ec89 2ab7
00000330: 1520 33b7 97d7 45b7 bef8 1cb7 cbf5 5ab7
00000340: 6e23 25b7 4103 1eb7 c550 21b7 ac6d 2ab7
00000350: d1d2 26b7 2d7b 25b7 03c7 a7b6 5702 2db7
00000360: 663b e4b6 862c 66b5 4f4a b8b6 0933 26b7
00000370: d025 8eb7 7d19 8f36 aa73 8bb6 a380 2fb7
00000380: e3d0 c5b6 f8d0 1c35 13f8 37b7 8726 2ab7
00000390: b4f1 8db7 9c68 52b7 356d 40b7 e8a5 9cb7
000003a0: ee07 94b7 f1e6 90b6 2839 f1b6 ad27 82b7
000003b0: c843 bab5 5916 c6b7 cef2 83b7 c124 b8b6
000003c0: a6b5 e336 38bb 8ab5 d803 fb36 40d9 7237
000003d0: 4fa2 43b7 2b75 3938 75e3 89b6 ff54 bab6
000003e0: ed8e c8b2 4f8f ccb6 6614 46b5 1f14 9bb7
000003f0: 0134 3037 078f d137 d52c 5bb7 bc31 05b7
1.2400243e-05 -1.0131375e-05 8.339963e-06 -2.3666962e-05 -6.8897934e-06 -2.2243375e-06 -1.4243116e-07 1.2957627e-05
3.7944333e-06 3.6831374e-05 1.2013565e-05 -2.976552e-05 5.5262204e-05 2.2648845e-05 -3.7596066e-05 1.5500264e-06
-3.7731297e-05 6.572606e-06 -3.165916e-05 2.8832667e-07 -1.9817053e-05 -8.973866e-06 3.2518685e-05 5.46264e-05
-6.4514393e-06 1.11084855e-05 4.7947236e-05 -7.2594544e-06 -1.5434522e-05 9.013914e-06 2.0027479e-05 6.341666e-05
-2.2133447e-08 7.2516777e-06 2.39708e-05 -2.2983293e-05 3.507996e-05 -3.374762e-05 1.4058414e-05 -2.4769031e-05
1.9749921e-05 -6.5181535e-05 2.1993887e-05 -4.1026797e-06 -2.762833e-05 4.353062e-07 4.4664393e-05 4.661749e-06
1.7437615e-05 1.3446718e-06 -1.8722315e-06 -1.8834078e-05 -1.2199553e-05 -3.7361804e-06 -5.7543725e-06 1.809582e-05
-1.108842e-05 1.9082172e-06 -1.9934017e-05 1.069377e-05 3.6049537e-06 1.2476446e-05 -5.9348026e-06 -1.5829615e-05
-9.884427e-06 -3.4977256e-06 -2.6952985e-06 -1.3376016e-06 -1.4548433e-06 2.0986108e-06 -7.2444554e-06 -2.3663501e-06
-9.793974e-08 -6.2733807e-07 -1.3087824e-06 -3.6029742e-06 -1.7470985e-06 -7.4396885e-06 -1.1213574e-06 -3.6110114e-06
-1.8532515e-06 -2.2689194e-06 3.737705e-07 -1.3858413e-06 -2.0206082e-06 -3.0730835e-08 -8.497638e-07 -2.591669e-06
-2.0631485e-06 -1.6517575e-07 -3.031679e-06 -1.8523108e-06 -2.022721e-06 -4.7916383e-06 -2.3980397e-06 -1.5179486e-06
-5.5684455e-07 -8.8995985e-06 -4.0102414e-06 -2.8370414e-06 4.7473236e-06 -4.688869e-06 4.8071256e-06 -1.5723392e-06
1.6633307e-06 -8.924217e-06 -1.7177212e-05 7.1848115e-07 3.0516337e-06 -9.115639e-06 1.3574074e-06 -9.588607e-07
1.8988952e-06 2.3983457e-06 -2.3255309e-06 -9.9567305e-06 6.0195393e-06 6.5549344e-08 -1.0926273e-05 -7.754858e-06
-1.7482897e-05 5.0248655e-06 -2.0695e-05 -4.614193e-06 -1.047241e-05 -8.377898e-06 -1.0371019e-05 3.6557926e-06
-3.2248074e-05 2.1048378e-05 1.0755316e-05 -5.697649e-06 -6.8303525e-06 1.41827895e-05 -2.303433e-05 0.00011043895
2.8950002e-05 4.2354444e-05 4.8927377e-06 -7.1172285e-06 -1.2351951e-05 7.781417e-05 2.5287307e-05 3.629325e-05
7.51291e-07 2.7618016e-05 -1.9145127e-05 5.5563178e-05 2.3417753e-05 8.76291e-06 9.6278454e-05 2.5340487e-06
6.7474015e-05 2.587263e-05 2.9416891e-05 2.443816e-05 2.4286624e-05 -5.9577545e-05 3.302133e-05 8.8175e-05
5.0765655e-05 -4.7525253e-05 2.494347e-05 -1.8205454e-05 -7.380629e-06 -2.5624591e-05 1.3870557e-05 6.224861e-06
2.493258e-05 -1.630799e-05 -1.9060351e-05 -3.364739e-05 -8.263259e-06 -1.00699635e-05 1.3662403e-09 -7.763769e-06
4.550127e-06 6.427069e-06 -1.7037775e-06 -1.4145189e-05 -1.7401147e-06 -2.2123942e-05 -6.45941e-06 -4.739932e-06
-4.3566156e-06 -1.9326944e-05 -8.984903e-06 -9.9924155e-06 -7.502138e-06 -9.978038e-06 -9.212233e-08 -1.0433643e-05
-1.1589414e-05 -9.408176e-06 -1.0129067e-05 -9.60676e-06 -1.0364341e-05 -1.6228982e-05 -5.0515314e-06 -6.1482065e-06
-1.0373093e-05 -1.0077672e-05 -1.1139905e-05 -1.0164902e-05 -1.0676701e-05 -1.1792311e-05 -9.356239e-06 -1.3051041e-05
-9.8430155e-06 -9.4182915e-06 -9.615153e-06 -1.0158325e-05 -9.943456e-06 -9.8634455e-06 -5.000156e-06 -1.0312148e-05
-6.8018444e-06 -8.5746467e-07 -5.492278e-06 -9.906254e-06 -1.6945327e-05 4.2646993e-06 -4.155988e-06 -1.0460763e-05
-5.895375e-06 5.841862e-07 -1.0965409e-05 -1.014176e-05 -1.6921062e-05 -1.2541332e-05 -1.14695185e-05 -1.8673905e-05
-1.7646667e-05 -4.3184195e-06 -7.1890136e-06 -1.5515683e-05 -1.3877807e-06 -2.3613846e-05 -1.5729482e-05 -5.487906e-06
6.786274e-06 -1.0336289e-06 7.4808304e-06 1.44749065e-05 -1.1660696e-05 4.421656e-05 -4.1093977e-06 -5.553127e-06
-2.334806e-08 -6.096357e-06 -7.379043e-07 -1.848681e-05 1.0502526e-05 2.4981344e-05 -1.30638555e-05 -7.938997e-06

exp_avg_sq f4 [256, 120]
00000000: aa4f 5a32 0c7e 1932 0a1c 1b32 4673 2932
00000010: eb78 7732 597f 7f32 d789 9a32 7034 9432
00000020: 9b0f 4d33 0146 fd32 d4f6 b332 0871 7732
00000030: 669a 7a33 0fb0 0533 0b4c 0033 8a4b 8833
00000040: 585d 0f34 2026 b633 6a70 1333 7e81 5433
00000050: 05bf 9733 a16b b533 a047 c733 26fa 0334
00000060: e3ef b133 47ad 0a34 2ab9 0b34 8d2e 0734
00000070: 8788 ed33 8bc1 1034 1c9c e133 ad65 9a33
00000080: 2521 d533 d6a0 ce33 55f3 b333 5627 8933
00000090: 1202 9233 c2cc a633 a889 9933 1f0d be33
000000a0: 0fd3 6b33 4219 7333 646c 4233 2cb1 0c33
000000b0: cd0e 6332 9631 ed32 fa47 9233 4ca9 2333
000000c0: 1981 8832 623d 9232 e4dd a932 3f04 8432
000000d0: 3ec9 fc31 2217 1032 cc37 0932 2b63 3f32
000000e0: 2e73 1332 8af8 2632 e49c 4332 b906 1132
000000f0: 0487 f431 9311 0932 c9e4 1532 1235 0e32
00000100: fb48 e131 ccef f631 f2f9 1732 671c d831
00000110: 5086 dc31 df4d df31 1a59 db31 d6fd d731
00000120: b5d2 db31 8aad da31 d83a d831 5d00 d431
00000130: 1b02 d231 06f5 dc31 69b0 d731 04f9 d731
00000140: 70f3 d031 bf0f d231 2772 d231 f902 d131
00000150: 35ee ce31 6af8 d031 77e2 d331 c145 d031
00000160: 2ce5 d031 7b37 d031 389e d031 117b cf31
00000170: 90fe d131 713e d431 63ff d131 229e d031
00000180: f26d d131 c52d d931 963f d831 d9de ce31
00000190: f2f7 d431 c801 d931 aa53 dc31 2c44 d431
000001a0: 5dc2 d631 b8b3 0432 a42f f431 dc43 d631
000001b0: 7e08 d831 5739 0f32 71d3 ec31 525f fa31
000001c0: 9d7c 1132 968d f831 5ab4 0832 6087 ea31
000001d0: 7f56 1732 ff68 1632 017b 0532 2e84 0432
000001e0: 2b9b 1532 5dc6 0032 9435 fa31 9533 9931
000001f0: 90a0 2932 070d 1732 a60a 3932 67af cb32
00000200: b413 b832 1a6c 9d32 59a2 8c32 f021 2232
00000210: f6f8 d632 860b 3233 8113 8b33 6c62 b933
00000220: b643 b033 a118 6d33 ac77 9233 7faa a533
00000230: 11d8 1f33 6957 3833 e789 6533 8713 a233
00000240: c2be 4933 4dd5 9e33 778d 9d33 ddd1 a733
00000250: b494 8133 6783 7033 22e8 d533 d949 3233
00000260: 6062 7e33 fb41 5c33 86a3 a633 86c3 a033
00000270: 98e0 4533 6ab8 9433 2d01 b333 e2e6 f833
00000280: 9f36 6033 b550 3733 f249 2933 4249 ae32
00000290: 25af 7132 38e4 8732 d50f 6e32 ba83 2232
000002a0: c30f a932 3ced 7d32 3204 2932 4a74 4432
000002b0: 7c73 0f32 1d58 0132 ea41 ef31 993d 1632
000002c0: ab8a 0832 63ed 4932 f33b d931 4237 1532
000002d0: 84a6 bf31 356d 2f32 e74b d431 146e 9c31
000002e0: d437 db31 9fdb 2332 5c33 f931 5add 8f31
000002f0: c13c a831 87c0 f531 cc70 1632 5f03 8f31
00000300: 3eb2 a031 7e07 b031 ae7b c231 f64f 9d31
00000310: 3629 9031 9eaf ab31 6e90 ab31 bb9f b931
00000320: a1d5 8f31 d809 9631 4873 9131 0c22 8f31
00000330: 5d4a 9031 e1ab 8f31 41a8 9231 afa8 9031
00000340: df21 9731 f2cd 9631 f0de 9731 17d1 8e31
00000350: 64ef 9431 858c 9c31 3b09 9e31 d002 9231
00000360: 2b12 a231 164e a631 a057 9d31 438f 9031
00000370: dd86 a031 e05f c531 8716 b531 8f72 b531
00000380: 53c9 bf31 4332 ef31 860b d331 06a9 9931
00000390: c9a0 bf31 0910 0f32 56a9 0932 11f6 af31
000003a0: 51cb 1a32 11d9 0932 95de e931 b4f9 af31
000003b0: 0708 e531 43e5 2a32 4412 2d32 c498 cf31
000003c0: b8e1 6132 8e1e 1132 891d fc31 38cb 0532
000003d0: 7397 6932 7ebe 9532 8fd9 4a32 197f b132
000003e0: 853b 1233 4a58 d632 8aa5 7c32 6a55 3632
000003f0: 5aea 0233 9b44 2433 320d 1e33 40a5 4e33
1.2707384e-08 8.934432e-09 9.028563e-09 9.863305e-09 1.4404786e-08 1.4871909e-08 1.7990642e-08 1.7253313e-08
4.7744475e-08 2.948491e-08 2.0950587e-08 1.4402993e-08 5.8348085e-08 3.11266e-08 2.9871483e-08 6.346734e-08
1.3351871e-07 8.48197e-08 3.4328345e-08 4.947787e-08 7.066232e-08 8.448047e-08 9.279688e-08 1.2291329e-07
8.28584e-08 1.291529e-07 1.3012746e-07 1.258979e-07 1.1061007e-07 1.3481456e-07 1.0505775e-07 7.1896785e-08
9.9246144e-08 9.6218784e-08 8.379599e-08 6.386715e-08 6.7990314e-08 7.7672226e-08 7.149657e-08 8.849951e-08
5.4907158e-08 5.660082e-08 4.5267726e-08 3.2757427e-08 1.3216504e-08 2.761298e-08 6.811747e-08 3.810537e-08
1.589119e-08 1.702455e-08 1.9775094e-08 1.5368753e-08 7.357044e-09 8.387163e-09 7.987136e-09 1.1140211e-08
8.582715e-09 9.718983e-09 1.1386167e-08 8.441639e-09 7.116684e-09 7.9784455e-09 8.724961e-09 8.277555e-09
6.5566588e-09 7.186804e-09 8.846188e-09 6.2896564e-09 6.4181123e-09 6.499007e-09 6.3838685e-09 6.2861814e-09
6.3976935e-09 6.364364e-09 6.293117e-09 6.1700534e-09 6.1120438e-09 6.4306986e-09 6.277379e-09 6.2856333e-09
6.0812724e-09 6.1135945e-09 6.124782e-09 6.0830385e-09 6.02247e-09 6.081838e-09 6.1666543e-09 6.061527e-09
6.0796506e-09 6.059904e-09 6.071584e-09 6.038484e-09 6.111641e-09 6.177111e-09 6.1117347e-09 6.0715744e-09
6.0952e-09 6.3207346e-09 6.2936563e-09 6.020724e-09 6.1982e-09 6.3157337e-09 6.412354e-09 6.1777623e-09
6.2503163e-09 7.7242746e-09 7.1067507e-09 6.2359344e-09 6.287393e-09 8.336733e-09 6.892542e-09 7.2867943e-09
8.468445e-09 7.2338464e-09 7.957249e-09 6.8256867e-09 8.809024e-09 8.7550225e-09 7.769587e-09 7.713465e-09
8.708223e-09 7.495683e-09 7.2820487e-09 4.4587503e-09 9.873602e-09 8.792319e-09 1.0770838e-08 2.3712074e-08
2.142938e-08 1.8326364e-08 1.6371972e-08 9.437358e-09 2.5026093e-08 4.1454335e-08 6.4762396e-08 8.632637e-08
8.207955e-08 5.5203262e-08 6.820423e-08 7.714424e-08 3.7216584e-08 4.2920338e-08 5.344364e-08 7.547265e-08
4.6972453e-08 7.3962475e-08 7.3366145e-08 7.8147174e-08 6.0340795e-08 5.5998864e-08 9.96081e-08 4.151102e-08
5.9228455e-08 5.128275e-08 7.759722e-08 7.486146e-08 4.6071904e-08 6.925332e-08 8.335551e-08 1.1590397e-07
5.220374e-08 4.268141e-08 3.941563e-08 2.028958e-08 1.40678695e-08 1.581985e-08 1.3857023e-08 9.459592e-09
1.9681357e-08 1.4780479e-08 9.838049e-09 1.1435143e-08 8.349954e-09 7.528823e-09 6.963309e-09 8.745155e-09
7.947771e-09 1.1753715e-08 6.3223466e-09 8.685506e-09 5.5777623e-09 1.02111715e-08 6.178641e-09 4.552712e-09
6.380086e-09 9.537785e-09 7.2526927e-09 4.1870125e-09 4.8963504e-09 7.1523263e-09 8.756796e-09 4.162231e-09
4.6768767e-09 5.123126e-09 5.660204e-09 4.578392e-09 4.1956367e-09 4.9967204e-09 4.9931748e-09 5.402368e-09
4.1861346e-09 4.3666937e-09 4.2331614e-09 4.1657184e-09 4.1994057e-09 4.181388e-09 4.2682875e-09 4.2101287e-09
4.398529e-09 4.388988e-09 4.4200235e-09 4.1565147e-09 4.3345825e-09 4.5561728e-09 4.5994546e-09 4.249479e-09
4.716886e-09 4.840113e-09 4.579263e-09 4.2072386e-09 4.671945e-09 5.7443543e-09 5.2703544e-09 5.280817e-09
5.5817195e-09 6.9615296e-09 6.1422183e-09 4.472102e-09 5.5771108e-09 8.3273415e-09 8.012952e-09 5.121145e-09
9.010209e-09 8.023805e-09 6.806497e-09 5.1215583e-09 6.6656898e-09 9.94743e-09 1.00740785e-08 6.0418603e-09
1.3148046e-08 8.447058e-09 7.337523e-09 7.7878255e-09 1.3596821e-08 1.7432509e-08 1.1807415e-08 2.066331e-08
3.4047407e-08 2.4953028e-08 1.470597e-08 1.0613215e-08 3.0481125e-08 3.8246622e-08 3.6799243e-08 4.8113407e-08

slow_buffer f4 [256, 120]
00000000: 54e6 f33d e2ee 1a3e 82b5 0f3e 1a61 b93d
00000010: 30ed 1a3e 40b6 153e bd48 383d e6d9 7d3b
00000020: 42b3 d63d b27e ec3d 6ae7 e0bb 544b 78bd
00000030: 1c75 503e 164d 78be 1107 acbd 060d 75bc
00000040: f9ba e53d 5ab1 fa3d 16fd 8cbe c43c e3bc
00000050: 8977 ab3d ce0c 5fbe f863 05be 3e71 013d
00000060: a47f ad3d cf64 f03c d43d c9bd 82e9 43bd
00000070: 0a59 18be f182 033e 7c00 d73c 3cdd 153e
00000080: e8c3 463d 481e 5cbc 0861 db3d a81c ed3d
00000090: 1644 273e b6fb c53d f219 fe3c 9c8d 4d3d
000000a0: 1ee0 283c 4ba6 263e 269a 63be 9798 85bd
000000b0: 23b4 7c3d a59d 893e 1824 853e 9c56 203d
000000c0: 8f19 1ebd 5171 cf3d bc43 1e3e 2859 f53d
000000d0: 4e02 37bd 8eb7 633d 16aa e4bd 69e0 013c
000000e0: 5667 ce3c 57fe 80bc fc2e e23d 5efe 003d
000000f0: 50be 933d 16dd 98bd 94ec 73bc 061d 46be
00000100: 9631 2bbe 8449 80be ba2b cfbd db3a 8dbe
00000110: dae5 f53b b87f 7ebe b31d e0be 000f ccbe
00000120: c4b2 29bd 581d b1be cd9f b2be 8c54 37be
00000130: dee3 f03c 0483 56be 3a65 58be da79 bdbd
00000140: b00a 86bc 3aa0 22be bc0d 27be e874 123d
00000150: f448 c23c b9dd e6bc 5872 39be 619c 2dbd
00000160: 28ff 503e 84ba 233e 5156 8c3c f2e2 063d
00000170: c4ff 813e ad73 f03d 4679 af3d 42a5 6b3c
00000180: e9f5 febd 6c4d 9cbd a0e5 3ebd d04f 2d3e
00000190: 9a52 313d 4e00 cbbd 41d4 00be 4e86 35be
000001a0: a4fc 58bb 31cb 853d 5ee4 8dbd 4c7f 35bd
000001b0: 95d1 f33d f960 3b3e 2a60 45be 092e 483d
000001c0: 268f f53d ce1d 01be 8276 c3bc 9644 ae3d
000001d0: 51e8 f83d 109b 683d d93c 4ebe 4271 d4bd
000001e0: 1f7d 703d f528 aa3d 6cf8 493e b2d3 48be
000001f0: b878 ca3d 265d acbb 94ef 9e3e b0a9 7b3e
00000200: dca4 63bd 702c 943d b283 543e 70b6 77bd
00000210: e973 2cba c4f8 143e fca2 8c3e fc92 4a3e
00000220: 3a04 4f3a cf46 ae3b 1a89 013e b0a8 883e
00000230: e45b debd 6644 aebd 46d6 d23c b048 123e
00000240: 546e 8dbd a87f 34bb 1440 71bc 58d4 123e
00000250: ed46 12be 2e7f 84be 16ac 333e 7cdc 03be
00000260: f612 65bd d827 c2bd d03a 173e 92a4 143e
00000270: 27f0 5dbc fd46 613d b6fb 853c d0c6 243e
00000280: 7a90 0cbd 0347 eebb 8858 c8bc 6026 08be
00000290: 9c4d 813d d63e 15bc 761d 183c b079 d9be
000002a0: d018 24bd b4c1 e2bc c65f 0fbe 6e3f 863d
000002b0: dc06 423c 1357 39bd 8bc7 26bd f227 06bd
000002c0: 1f25 3b3d 322e 203e 0c4f b83c 8c67 9e3e
000002d0: 9cd3 d33d f60d 213e 86ce bb3d c6df 53be
000002e0: b430 9c3d 7667 093e 3e2e 433e 2476 6f3d
000002f0: b8eb 823d d6e7 103e 2ad4 693e 5add f5be
00000300: 2c2e 973d a096 1cbc 4da3 3c3e 042e 0b3e
00000310: 24f4 edbd 32df 043e 3317 5d3c b385 c23e
00000320: e2f6 1ebe 81c6 7bbb 3e4d 07be a8cb bcbd
00000330: 58cc 483c 32e3 bcbd 9848 363c 8a38 f2bd
00000340: b082 dabc de28 66be 3f5f b53d 460e 21be
00000350: 62f9 16bd 0a2d 28be e1fa 2dbe e079 0bbd
00000360: 6a6a f2bd 8ddc ecbd b494 e1be 6673 82bd
00000370: eccb 9fbd 6e65 bbbd c428 37be f679 e83d
00000380: 52cf 6abd 39a1 dabd 63fa cdbd 901e bebd
00000390: ac24 9b3d 7838 5bbd 5755 c8bd bc3f fbbd
000003a0: 2bfa 7d3d ac48 abbd ce5f c0bd 707a e5bd
000003b0: 0f5d 85bd 50c5 2cbd 8e85 79bc 5057 00be
000003c0: 18ca be3a bea8 4e3d 3660 f9bd 5c41 c9bd
000003d0: b165 803e 0216 33bd e09c f5bd 279c 2abe
000003e0: aefe 95bd ef8a c33c e7f6 a1bd a8f0 55be
000003f0: 5978 1abe 3e6d 8bbc 8296 92bd 6b4d c1bd
0.11909166 0.15130189 0.14034083 0.09051724 0.15129542 0.14620304 0.044991244 0.0038734614
0.104834095 0.11547603 -0.006863524 -0.060618713 0.20357174 -0.24248156 -0.08399785 -0.014956718
0.11217303 0.122408584 -0.2753684 -0.027738936 0.08372409 -0.21782228 -0.13026416 0.031602137
0.08471611 0.029344944 -0.09826246 -0.047830112 -0.14877716 0.12842919 0.026245348 0.14635175
0.048526675 -0.013434954 0.107118666 0.11577731 0.16334566 0.09667151 0.031018231 0.050183877
0.01030734 0.16274373 -0.22226772 -0.06523245 0.06169523 0.26878086 0.260041 0.039145097
-0.038598593 0.10129035 0.15455526 0.11979896 -0.044679932 0.055594973 -0.11165254 0.007927039
0.025195759 -0.015746279 0.11044118 0.031492583 0.072140336 -0.07464044 -0.014887948 -0.19347009
-0.16718134 -0.25056088 -0.10115762 -0.27583966 0.007504207 -0.24853408 -0.4377266 -0.39855194
-0.04143025 -0.345927 -0.34887543 -0.17903346 0.02940553 -0.20948416 -0.21132365 -0.09251757
-0.016362518 -0.15881434 -0.16313833 0.03575602 0.023716427 -0.028181897 -0.18110025 -0.042385463
0.20409834 0.15989119 0.017131003 0.032931276 0.25390446 0.117408134 0.08568053 0.014382662
-0.124492474 -0.076319546 -0.046605706 0.16924977 0.043291666 -0.099121675 -0.12580968 -0.17727014
-0.003310957 0.06532896 -0.06928323 -0.044310853 0.11905209 0.18298711 -0.19274965 0.048872028
0.11990194 -0.12609026 -0.02386022 0.085091755 0.12153686 0.056788504 -0.20140399 -0.10373165
0.058713075 0.08308593 0.19723672 -0.19612005 0.098863065 -0.0052601276 0.3104216 0.2457645
-0.055577144 0.07235038 0.20753363 -0.06047672 -0.0006578551 0.14548022 0.27468097 0.19782633
0.0007897053 0.0053184996 0.12649956 0.26691198 -0.108573705 -0.0850914 0.02573694 0.1428554
-0.06905809 -0.002754191 -0.01472475 0.14338815 -0.14284869 -0.2587828 0.17546114 -0.12877077
-0.055926286 -0.09480256 0.14768529 0.14515904 -0.013546026 0.05499934 0.016355377 0.16091466
-0.03431747 -0.007271649 -0.024456277 -0.13295889 0.06313631 -0.00910922 0.009284368 -0.42475653
-0.040062726 -0.027680255 -0.14001378 0.06555067 0.011842456 -0.045249056 -0.040717643 -0.03275294
0.0456897 0.15642622 0.02249863 0.30938375 0.10343096 0.15727982 0.091702506 -0.20690832
0.07626477 0.13418373 0.19060609 0.058462277 0.06392616 0.14150938 0.2283484 -0.4802044
0.073818535 -0.009557396 0.1842167 0.13591772 -0.11618832 0.12975767 0.013494301 0.3799263
-0.15523866 -0.0038417878 -0.1321306 -0.09218532 0.012255751 -0.092230216 0.011125706 -0.1182719
-0.026673645 -0.22476527 0.088560574 -0.15728101 -0.036858924 -0.16423431 -0.16990234 -0.034051776
-0.11836703 -0.11565504 -0.44058764 -0.06369667 -0.07802567 -0.091502056 -0.17886645 0.11351387
-0.057326622 -0.10675282 -0.10057523 -0.09283173 0.07575354 -0.05352065 -0.09781902 -0.12268016
0.062006157 -0.083634704 -0.09393273 -0.11204994 -0.0651189 -0.04218036 -0.015229596 -0.12533307
0.0014556078 0.050453894 -0.12176554 -0.098269194 0.25077584 -0.04372216 -0.11992812 -0.1666113
-0.07323967 0.02386996 -0.07908421 -0.20892584 -0.15084971 -0.017019864 -0.07157613 -0.094385944
