Training/PyTrainer/epoch=8.ckpt (torch, 706245 bytes, 32 tensors)

net.0.weight f4 [256, 120]
0.017127607 0.14578448 0.21461491 -0.008090676 0.07935207 0.06350712 0.056657236 -0.01456898
0.18024997 0.087436035 -0.062253013 0.00040823495 0.030318422 0.0049717263 -0.03292094 -0.029865345
0.0022247136 -0.01449312 0.0025118538 -0.024519235 -0.0063457866 -0.03448555 -0.031602494 -0.030388976
-0.017091593 -0.027919378 -0.02044884 -0.035900287 -0.01012815 -0.08901521 0.046261124 0.0142985
-0.04078799 -0.24299034 0.00097329484 0.0031483592 0.049623165 -0.02221993 0.014078078 0.013801276
0.054057643 -0.011115396 -0.009743476 0.018315436 0.0389831 0.024280544 0.015392915 0.012387708
0.020813202 0.0009545618 0.0026240584 -0.0050382908 0.0009840389 0.00043224837 -0.004948096 0.009911862
0.06014555 0.11020101 0.020017762 -0.038627625 0.12550688 0.159858 0.15074761 -0.03216727
0.22350788 0.13125105 0.013545953 0.11596616 0.22285138 0.17171392 0.14055891 0.07366103
0.15011318 0.16617586 0.12905212 0.048072252 -0.05539866 0.13264896 0.08712674 0.06251607
-0.068221055 0.037967842 0.06665626 0.0051587136 -0.17041421 -0.10929514 -0.08091509 -0.2459847
-0.10028205 -0.13701715 -0.12573506 -0.2553078 -0.013618146 -0.14403771 -0.03089854 -0.050585423
0.015507047 -0.030504666 0.0072131227 -0.11105809 0.004755844 0.035903417 -0.035234205 -0.01881744
0.047331605 0.011994593 -0.017063724 -0.03385618 0.02184981 0.0028097003 -0.008845864 -0.0007905824
-0.006249487 0.003825191 0.012158278 0.015113341 0.005228038 0.008650144 -0.0027152281 0.025566839
0.011707255 -0.013035745 -0.008416111 -0.009833652 -0.008857061 -0.0026321397 -0.0071063074 -0.018491438
-0.004923378 -0.04561611 0.08823045 -0.002373698 -0.0075751673 -0.009798409 -0.3472909 0.01422382
0.0047537507 0.010203039 0.0064844307 -0.39777112 0.0023092998 0.009465306 0.022722503 0.33394402
0.0033313797 -0.006127459 0.035253834 0.0009866623 0.005155928 0.0024459155 0.0021661397 0.0057912674
-0.00068075926 0.008948198 0.0154285375 0.009675998 -0.004539955 0.025135452 -0.017854715 0.008911504
-0.018027967 -0.0048359716 0.24438962 -0.008385166 -0.016214993 -0.05924676 0.21056722 -0.087349094
-0.0022721488 -0.0038419678 -0.0056595323 -0.08476853 -0.004123815 -0.015380993 -0.030354716 0.044741463
-0.023111297 0.03687855 0.023719031 0.027146121 0.026371673 -0.02255738 0.017455328 0.010555607
-0.008231573 0.08171463 -0.010355092 0.033098582 0.005070367 -0.0061036544 0.02346978 -0.084704705
0.033005077 0.006520891 -0.18730032 0.015269515 0.004905851 0.030201519 -0.010431841 -0.029181339
0.17397954 0.10431763 -0.019880902 0.3209154 0.16420989 0.09193868 0.15390223 0.08280663
-0.0071604843 -0.026752355 0.14570318 0.01089665 0.018218957 -0.009069906 0.05733909 0.001391194
-0.018547213 0.016546236 -0.06711779 0.06836117 -0.029542655 -0.020664796 0.13496155 0.0076010167
0.0006868376 0.0014745278 -0.022212433 -0.040560592 -0.00024708235 -0.03669196 0.005195761 0.06370687
-0.018106492 -0.023637792 -0.1025022 0.04576726 0.0050159744 0.00021725969 -0.065270156 -0.09236039
0.029948499 0.05158733 -0.056336913 0.40643713 -0.01584984 0.010505034 -0.030211972 0.09373821
-0.010412667 -0.00033075476 -0.03748853 0.01200373 0.0031953235 0.051287428 -0.06668124 0.012666017
00000000: 324f 8c3c 8748 153e 03c4 5b3e c18e 04bc
00000010: 5783 a23d 0510 823d 6b11 683d bbb2 6ebc
00000020: 7393 383e aa11 b33d 04fd 7ebd 5e08 d639
00000030: 575e f83c dde9 a23b 1cd8 06bd 2ba8 f4bc
00000040: 80cc 113b 8d74 6dbc ea9d 243b 90dc c8bc
00000050: 51f0 cfbb b840 0dbd 9e71 01bd 4df2 f8bc
00000060: ab03 8cbc 2eb7 e4bc 5384 a7bc 2e0c 13bd
00000070: 8af0 25bc 9b4d b6bd 4e7c 3d3d 4144 6a3c
00000080: 4f11 27bd 76d2 78be b624 7f3a b454 4e3b
00000090: a941 4b3d 9206 b6bc bda7 663c bf1e 623c
000000a0: 8c6b 5d3d 5a1d 36bc 1aa3 1fbc 410a 963c
000000b0: beac 1f3d fee7 c63c 9132 7c3c d0f5 4a3c
000000c0: 7380 aa3c 8f3b 7a3a 65f8 2b3b 3f18 a5bb
000000d0: defa 803a 659f e239 a323 a2bb 5d65 223c
000000e0: 2e5b 763d 11b1 e13d 4afc a33c 0038 1ebd
000000f0: e084 003e d1b1 233e 955d 1a3e d4c1 03bd
00000100: 40df 643e ad66 063e d8ef 5d3c ab7f ed3d
00000110: 2733 643e c6d5 2f3e adee 0f3e 98db 963d
00000120: 45b7 193e 012a 2a3e 3d26 043e 69e7 443d
00000130: b5e9 62bd 21d5 073e 816f b23d 6d08 803d
00000140: 7bb7 8bbd 2b84 1b3d 1483 883d 6d0a a93b
00000150: 1081 2ebe 21d6 dfbd d0b6 a5bd 6ae3 7bbe
00000160: ad60 cdbd 394e 0cbe b1c0 00be b4b7 82be
00000170: a51e 5fbc 9f7e 13be ef1e fdbc a932 4fbd
00000180: 4511 7e3c ece4 f9bc 0f5c ec3b 6d72 e3bd
00000190: e9d6 9b3b 760f 133d be51 10bd 0827 9abc
000001a0: c9de 413d f884 443c 39c9 8bbc c7ac 0abd
000001b0: 5ffe b23c f322 383b 3eee 10bc 163f 4fba
000001c0: 7fc8 ccbb 0eb0 7a3b 8433 473c f29d 773c
000001d0: f64f ab3b 55b9 0d3c f8f1 31bb 8c71 d13c
000001e0: c9cf 3f3c e193 55bc bae3 09bc 531d 21bc
000001f0: 351d 11bc fa7f 2cbb 07dc e8bb 5b7b 97bc
00000200: 4a54 a1bb f5d7 3abd 2bb2 b43d 0b90 1bbb
00000210: 1c39 f8bb 8289 20bc 1dd0 b1be 060b 693c
00000220: 5ac5 9b3b a62a 273c 597b d43b a8a8 cbbe
00000230: 9f57 173b 5f14 1b3c 8b24 ba3c b6fa aa3e
00000240: 4753 5a3b dac8 c8bb 5366 103d e552 813a
00000250: 0ff3 a83b a74b 203b cbf5 0d3b acc4 bd3b
00000260: fb74 32ba 769b 123c fac7 7c3c 1488 1e3c
00000270: e7c3 94bb dde8 cd3c 0d44 92bc 8f01 123c
00000280: 63af 93bc 1277 9ebb 4641 7a3e ef61 09bc
00000290: 4ed5 84bc bbac 72bd ef9e 573e 15e4 b2bd
000002a0: 55e8 14bb 86c9 7bbb 9973 b9bb 209b adbd
000002b0: 1121 87bb 8f00 7cbc 74aa f8bc d342 373d
000002c0: e753 bdbc f60d 173d 6a4e c23c 8b61 de3c
000002d0: 6809 d83c 41ca b8bc 7afe 8e3c 6df1 2c3c
000002e0: b8dd 06bc 005a a73d 67a8 29bc 6192 073d
000002f0: 5225 a63b 2a01 c8bb b243 c03c a979 adbd
00000300: 5530 073d 33ad d53b a8cb 3fbe fd2c 7a3c
00000310: 43c1 a03b 2d69 f73c 50ea 2abc b40d efbc
00000320: b127 323e 7ba4 d53d 46dd a2bc 064f a43e
00000330: a326 283e 594a bc3d 8c98 1d3e 8696 a93d
00000340: 7fa2 eabb c127 dbbc 3733 153e dd87 323c
00000350: ec3f 953c f199 14bc 65dc 6a3d b958 b63a
00000360: 53f0 97bc f98b 873c 0d75 89bd f100 8c3d
00000370: 7003 f2bc 3849 a9bc 5c33 0a3e f311 f93b
00000380: e40c 343a f144 c13a d9f6 b5bc dd22 26bd
00000390: d58a 81b9 4f4a 16bd 3441 aa3b bf78 823d
000003a0: 1154 94bc 0ba4 c1bc acec d1bd 7376 3b3d
000003b0: 0b5d a43b 34d0 6339 5cac 85bd 7227 bdbd
000003c0: 8e56 f53c 3c4d 533d 89c1 66bd 8718 d03e
000003d0: 86d7 81bc 4e1d 2c3c 197f f7bc d2f9 bf3d
000003e0: e499 2abc 2769 adb9 938d 19bd 4bab 443c
000003f0: a268 513b c412 523d 2d90 88bd 2085 4f3c

net.0.bias f4 [256]
-0.017514804 0.014119875 0.13630289 -0.08161602 -0.09078238 -0.17061777 0.18121047 0.19582504
-0.05984092 -0.149752 0.19730261 -0.024135262 0.081347264 0.19429109 0.14281462 0.09958209
0.18605247 0.20743 -0.034242004 0.043362625 -0.121738374 0.20319284 -0.10420071 0.16995634
-0.16651776 0.2295187 0.2701646 0.28814238 0.06241782 0.05053877 0.16757241 0.15244633
0.044921048 -0.10514895 0.30776528 0.11221539 0.25483164 0.13881199 0.21812701 -0.13033646
0.15876828 0.05949794 0.29899538 0.29433426 0.20038404 0.099953935 0.028622083 0.19007337
-0.2123953 0.23311667 0.18259269 -0.31399223 -0.13893773 0.039385457 -0.11274276 0.21279314
0.39800608 0.13947058 -0.039294492 0.18056749 0.41522044 0.04461663 0.13615699 0.21059738
0.1935419 0.33197236 -0.102472015 0.16550377 0.22013164 0.16965474 -0.043311212 0.085238084
0.07379111 0.1711956 0.25859663 -0.28500992 0.17509873 0.16842453 -0.03389314 0.0012914969
0.1534461 0.07445553 0.15785396 0.12059733 0.16486238 -0.007701716 -0.25557023 0.03087086
-0.37897047 0.06825616 0.26959354 0.15902926 -0.07837935 0.18024527 -0.23329054 0.20212682
-0.3880168 -0.28674087 -0.15734619 -0.19946636 -0.36956635 -0.37240988 0.14652337 0.27578983
-0.07601239 0.2642162 0.0961058 -0.013309923 0.0899198 0.077063225 -0.31256646 0.12682137
-0.018363532 0.10475983 -0.22086671 0.33293477 0.07427507 -0.18893261 0.28021902 -0.097870536
-0.42049736 -0.079543345 -0.0149775 -0.09753424 0.15503144 0.42659384 0.13285668 -0.11230239
0.0006710528 0.08052434 -0.050367784 0.04665896 0.067049116 0.2106674 0.07291467 -0.32688624
0.030250033 0.21262453 -0.16536064 -0.38831463 -0.13632798 -0.030830393 -0.22372864 0.07804456
0.12090119 0.42154974 0.22109917 0.241488 -0.085815445 -0.44361892 0.59852153 0.14331059
0.18515034 0.1510324 0.2537686 0.0416015 -0.400973 0.21150376 -0.063900664 -0.23867497
0.25591767 -0.07396502 0.13018224 0.12271789 0.26463315 0.0480071 0.23551068 -0.23154263
-0.45668155 -0.08787277 -0.10661213 0.08396828 0.08323666 0.2288581 0.08114327 0.12957738
-0.0030690574 0.008716413 0.11982703 -0.12927076 0.35934404 -0.7493192 -0.094539665 -0.18175404
0.13563189 -0.10256238 0.08221005 0.16092664 -0.05699672 -0.17580424 0.23606016 0.22649597
-0.14846025 -0.11456707 0.123027295 -0.08944751 0.29054043 -0.25652343 0.26054433 -0.21459217
-0.1680939 -0.064598255 0.30745146 0.063961096 -0.04111577 0.017373953 0.40060094 0.14727072
-0.27405578 -0.17679356 0.11437607 -0.35149688 0.010900102 0.034934893 -0.10467245 0.14449194
-0.077423945 0.13525653 0.13105087 0.117175266 0.3322185 -0.28619543 -0.032786887 -0.046394937
0.35344964 0.016877586 -0.055748902 -0.0071556885 -0.3158921 -0.4152477 0.19334081 -0.2422591
0.037209865 -0.35713658 0.20678744 -0.36630103 0.012674083 0.16798852 0.27421927 0.050281625
0.045055244 -0.056823242 -0.09997925 -0.21145503 -0.2526028 0.25731993 -0.08877644 0.14803529
-0.22550312 -0.56787163 0.20781839 -0.36928296 -0.26024568 0.25574818 -0.08019279 0.19432774
00000000: 357b 8fbc 0c57 673c fc92 0b3e 4d26 a7bd
00000010: 1dec b9bd 6db6 2ebe 3d8f 393e 5c86 483e
00000020: c11b 75bd 9758 19be b209 4a3e 50b7 c5bc
00000030: 6599 a63d 3ef4 463e ff3d 123e b2f1 cb3d
00000040: 8a84 3e3e 8868 543e 5841 0cbd 029d 313d
00000050: f851 f9bd c911 503e 2f67 d5bd 0909 2e3e
00000060: a283 2abe f306 6b3e 0453 8a3e 6687 933e
00000070: d4a9 7f3d be01 4f3d 1a98 2b3e e41a 1c3e
00000080: 22ff 373d 5558 d7bd 6993 9d3e 2fd1 e53d
00000090: 4b79 823e bb24 0e3e b05c 5f3e ec76 05be
000000a0: 2794 223e 1db4 733d ec15 993e fbb2 963e
000000b0: 7931 4d3e a6b4 cc3d dc78 ea3c 98a2 423e
000000c0: 277e 59be 23b6 6e3e 94f9 3a3e 97c3 a0be
000000d0: b145 0ebe a552 213d ade5 e6bd 72e6 593e
000000e0: 74c7 cb3e 60d1 0e3e 43f3 20bd afe6 383e
000000f0: c697 d43e edbf 363d bd6c 0b3e d7a6 573e
00000100: d92f 463e 48f8 a93e d9dc d1bd d279 293e
00000110: 306a 613e f9b9 2d3e 1967 31bd 4e91 ae3d
00000120: cb1f 973d e64d 2f3e c766 843e d2ec 91be
00000130: 154d 333e 7b77 2c3e 88d3 0abd 7247 a93a
00000140: f920 1d3e 247c 983d 78a4 213e bcfb f63d
00000150: afd1 283e ad5e fcbb 1ada 82be e3e4 fc3c
00000160: 6b08 c2be e3c9 8b3d 2a08 8a3e 91d8 223e
00000170: 5a85 a0bd 3792 383e b7e3 6ebe 55fa 4e3e
00000180: 23aa c6be b3cf 92be 5c1f 21be e940 4cbe
00000190: cd37 bdbe 82ac bebe 390a 163e 5334 8d3e
000001a0: 62ac 9bbd 5947 873e 1ed3 c43d dd11 5abc
000001b0: df27 b83d 53d3 9d3d b608 a0be 76dd 013e
000001c0: 1e6f 96bc 528c d63d e22a 62be 6d76 aa3e
000001d0: 871d 983d 8d77 41be de78 8f3e 5970 c8bd
000001e0: 6e4b d7be 9fe7 a2bd 3064 75bc 08c0 c7bd
000001f0: 90c0 1e3e 826a da3e 950b 083e ccfe e5bd
00000200: 97e9 2f3a f2e9 a43d 734e 4ebd 771d 3f3d
00000210: 0c51 893d 32b9 573e 4954 953d a25d a7be
00000220: ebce f73c 3fba 593e 4d54 29be 2dd1 c6be
00000230: 9099 0bbe 0590 fcbc 1f19 65be d4d5 9f3d
00000240: 0b9b f73d 5ed5 d73e d267 623e a148 773e
00000250: 02c0 afbd 0522 e3be b538 193f 03c0 123e
00000260: 0d98 3d3e 3da8 1a3e f5ed 813e 5666 2a3d
00000270: 554c cdbe 7194 583e 5ade 82bd 3667 74be
00000280: a407 833e f97a 97bd 7e4e 053e 8453 fb3d
00000290: ff7d 873e 18a3 443d b629 713e 8319 6dbe
000002a0: 2ad2 e9be a4f6 b3bd 7657 dabd 90f7 ab3d
000002b0: fb77 aa3d c759 6a3e 712e a63d efaf 043e
000002c0: 3d22 49bb 49cf 0e3c e067 f53d 8e5f 04be
000002d0: f1fb b73e 62d3 3fbf 039e c1bd bb1d 3abe
000002e0: 16e3 0a3e 3a0c d2bd be5d a83d f4c9 243e
000002f0: 6575 69bd 0706 34be c1b9 713e 8fee 673e
00000300: f705 18be 24a2 eabd bcf5 fb3d 4230 b7bd
00000310: b7c1 943e 0a57 83be 1166 853e 0dbe 5bbe
00000320: cf20 2cbe 174c 84bd 476a 9d3e 09fe 823d
00000330: 0269 28bd d253 8e3c 911b cd3e 23ce 163e
00000340: 0a51 8cbe 5f09 35be 003e ea3d 66f7 b3be
00000350: 5796 323c e417 0f3d 825e d6bd b2f5 133e
00000360: 7290 9ebd b080 0a3e 3332 063e 96f9 ef3d
00000370: 8b18 aa3e 3588 92be 8b4b 06bd 9e08 3ebd
00000380: 5af7 b43e dd42 8a3c f658 64bd 447a eabb
00000390: 9cbc a1be 599b d4be 22fb 453e c512 78be
000003a0: 5f69 183d 9bda b6be 16c0 533e cf8b bbbe
000003b0: f5a6 4f3c 2f05 2c3e 7866 8c3e 1bf4 4d3d
000003c0: d98b 383d 7dbf 68bd ecc1 ccbd ab87 58be
000003d0: 2755 81be 70bf 833e 6cd0 b5bd 9096 173e
000003e0: 4aea 66be 0960 11bf 58ce 543e a812 bdbe
000003f0: ec3e 85be 6df1 823e 1e3c a4bd dafd 463e

net.2.weight f4 [32, 256]
-0.026659533 -0.07189718 -0.06416667 -0.028448585 0.0020281733 -0.09135767 -0.0046495874 -0.033128295
-0.14797625 0.0059468965 0.11469028 0.011824706 0.03165576 -0.056253906 -0.17167066 -0.16796789
0.052385893 0.11153907 -0.13733649 -0.018605622 -0.03203041 -0.07143917 0.26977825 -0.2444468
0.17726585 0.09539356 -0.019646995 -0.03650517 0.10516996 0.063337035 -0.03463952 0.1313831
0.065699674 -0.080076285 0.09191006 -0.15550545 0.062154982 0.10934669 0.06307871 0.02757095
-0.15652595 0.0020193653 -0.020061677 0.029356409 0.03605057 0.13337025 -0.048179086 0.058771953
0.15460013 -0.08429737 -0.027114617 0.076317474 -0.09449167 0.07520757 -0.10314012 0.117618226
-0.11019353 0.086895406 0.061570536 0.0024617526 0.050384298 -0.07948754 0.04244474 0.004702146
0.070641704 -0.0378791 -0.13513178 0.046253912 -0.09614278 -0.002179662 0.06154507 -0.054323614
0.0038068607 -0.019666 -0.001939117 0.10531896 0.029301977 0.09778381 0.084332466 0.06356742
-0.15212725 -0.021747176 -0.08889319 0.09213511 0.09919071 0.24846786 -0.20885117 -0.026688611
-0.015524467 0.23412064 0.19508609 -0.03255895 -0.12418375 0.21186817 -0.041539036 -0.023689084
0.10735706 0.09268052 -0.070025645 -0.02947687 -0.14080192 0.07755046 0.10036868 0.09283262
-0.19226131 0.02715574 -0.06360469 -0.10194907 0.10633463 -0.094771795 -0.007310478 0.03631452
0.05547465 0.023728175 -0.05489493 0.14684923 0.048543517 -0.028316548 0.17291082 0.07790245
0.04078383 -0.09169484 -0.029157603 0.07347633 0.17548715 0.056185313 0.0033142047 -0.01927337
0.028868653 0.069784015 0.026251923 -0.060663726 -0.049535926 0.16580252 0.13192852 -0.16611394
-0.038094994 -0.046550244 0.043688692 -0.11981738 0.069578595 -0.03054061 -0.1390841 0.07231366
-0.1126119 0.06239561 0.017873274 -0.011973387 0.12402447 0.41060877 0.030805478 0.06006414
0.13081348 0.0031127774 0.06002949 0.041771684 -0.010256477 0.14888182 -0.01876759 0.020427385
-0.040676974 0.09905346 -0.026392708 -0.0084284665 -0.045095373 -0.0032805651 0.0965069 0.01111981
0.17434333 -0.033519328 0.19403952 -0.08169486 -0.112682365 0.033025976 0.0053907065 0.085708335
0.15208776 -0.029313374 0.10472143 -0.07105425 0.004973248 0.15566027 -0.109058216 0.1191776
-0.042387128 -0.04478069 -0.14946295 -0.048376627 -0.12830016 0.14123294 -0.012250689 -0.07556284
-0.23274526 0.036445297 0.0015617289 -0.010707174 -0.01586303 0.035299007 0.040849958 0.014062407
-0.015361882 0.0058970177 0.015665656 0.054417185 -0.084017254 0.044811565 0.091626674 -0.049624823
0.14226341 0.01176644 0.13547234 -0.091900334 0.12602098 0.095513664 -0.04014311 -0.0013426467
0.026766762 -0.19581006 0.019748531 -0.019538563 -0.039183535 0.03257156 0.072724685 -0.034609735
-0.10287283 0.061738048 0.069899164 -0.024871474 -0.0883317 0.15168214 -0.021431856 -0.004029111
-0.04500415 -0.12956513 -0.061288413 0.17727605 0.07287021 -0.016298963 0.0020355026 0.094006926
-0.1475879 0.0699339 0.032624014 -0.08017454 -0.16193905 -0.01769775 -0.024784172 -0.2612628
-0.029532151 -0.05190894 0.18134542 0.021737613 0.1304794 -0.21771967 0.031834815 0.014264529
00000000: 1865 dabc d43e 93bd d169 83bd 020d e9bc
00000010: 1aeb 043b bb19 bbbd 915b 98bb 89b1 07bd
00000020: 1687 17be 2fde c23b bde2 ea3d 69bc 413c
00000030: 78a9 013d 7f6a 66bd 6fca 2fbe c6ff 2bbe
00000040: 9792 563d 996e e43d f0a1 0cbe d16a 98bc
00000050: 5232 03bd b34e 92bd 6020 8a3e 4350 7abe
00000060: 2e85 353e b35d c33d bcf2 a0bc 7286 15bd
00000070: 5963 d73d d9b6 813d 2be2 0dbd 4b89 063e
00000080: 8d8d 863d 09ff a3bd 573b bc3d d23c 1fbe
00000090: 3996 7e3d 28f1 df3d 692f 813d 79dc e13c
000000a0: 5748 20be 5457 043b 6358 a4bc da7c f03c
000000b0: c3a9 133d 3692 083e 6f57 45bd dcba 703d
000000c0: 7f4f 1e3e 19a4 acbd 791f debc 564c 9c3d
000000d0: d984 c1bd 6d06 9a3d 213b d3bd d3e1 f03d
000000e0: 25ad e1bd 38f6 b13d 6331 7c3d 5b55 213b
000000f0: c45f 4e3d 5dca a2bd 89da 2d3d 7614 9a3b
00000100: 99ac 903d 1d27 1bbd fc5f 0abe be74 3d3d
00000110: 81e6 c4bd a9d8 0ebb af16 7c3d 7082 5ebd
00000120: 867c 793b 971a a1bc f829 feba 78b1 d73d
00000130: b30a f03c e142 c83d 80b6 ac3d a32f 823d
00000140: 3fc7 1bbe 2227 b2bc a20d b6bd 55b1 bc3d
00000150: 8024 cb3d 5c6e 7e3e 15dd 55be 13a2 dabc
00000160: 565a 7ebc 52bd 6f3e a6c4 473e 895c 05bd
00000170: 0d54 febd f8f3 583e d624 2abd 9c0f c2bc
00000180: 05de db3d 49cf bd3d 9b69 8fbd 7a79 f1bc
00000190: 612e 10be c7d2 9e3d 188e cd3d 071f be3d
000001a0: 26e0 44be b775 de3c 2d43 82bd adca d0bd
000001b0: f8c5 d93d b717 c2bd bc8c efbb 89be 143d
000001c0: 6339 633d 9761 c23c 82d9 60bd a55f 163e
000001d0: 91d5 463d 1bf8 e7bc 890f 313e 528b 9f3d
000001e0: f20c 273d 81ca bbbd eddb eebc c27a 963d
000001f0: e7b2 333e 9222 663d 2133 593b 30e3 9dbc
00000200: f47d ec3c ecea 8e3d 460e d73c 877a 78bd
00000210: 2fe6 4abd 23c8 293e 4518 073e c619 2abe
00000220: 7f09 1cbd 78ab 3ebd eaf2 323d d162 f5bd
00000230: 397f 8e3d 4d30 fabc 106c 0ebe 2f19 943d
00000240: 11a1 e6bd 8a92 7f3d f96a 923c 062c 44bc
00000250: 8b00 fe3d 503b d23e c55b fc3c d105 763d
00000260: f8f3 053e bdff 4b3b 7ce1 753d c918 2b3d
00000270: c80a 28bc 7a74 183e 7dbe 99bc 5557 a73c
00000280: e69c 26bd 8adc ca3d 8535 d8bc 8d17 0abc
00000290: edb5 38bd c0fe 56bb 69a5 c53d dd2f 363c
000002a0: 0f87 323e 904b 09bd 4cb2 463e a24f a7bd
000002b0: 03c6 e6bd 3f46 073d 86a4 b03b da87 af3d
000002c0: e5bc 1b3e 9a22 f0bc 3078 d63d e484 91bd
000002d0: a1f6 a23b 6865 1f3e ea59 dfbd 6313 f43d
000002e0: 209e 2dbd f56b 37bd d10c 19be 9226 46bd
000002f0: 1e61 03be 5e9f 103e 1db7 48bc b1c0 9abd
00000300: c654 6ebe aa47 153d edb2 cc3a 256d 2fbc
00000310: 2ff3 81bc b195 103d 4952 273d 0366 663c
00000320: 67b0 7bbc c53b c13b 4355 803c 8ee4 5e3d
00000330: 3d11 acbd 558c 373d c4a6 bb3d 6643 4bbd
00000340: 80ad 113e 07c8 403c 43b9 0a3e 3e36 bcbd
00000350: a50b 013e ab9c c33d 1a6d 24bd bffb afba
00000360: f845 db3c 6f82 48be acc7 a13c 560f a0bc
00000370: ea7e 20bd c269 053d aef0 943d f0c2 0dbd
00000380: feae d2bd 09e1 7c3d 4b27 8f3d 43bf cbbc
00000390: 40e7 b4bd 9052 1b3e dc91 afbc a206 84bb
000003a0: 4656 38bd b9ac 04be 8f09 7bbd da87 353e
000003b0: fa3c 953d 6785 85bc 1166 053b b486 c03d
000003c0: 4821 17be 8139 8f3d c2a0 053d 8d32 a4bd
000003d0: 5ad3 25be dffa 90bc 2d08 cbbc 3dc4 85be
000003e0: 69ed f1bc 789e 54bd 9db2 393e 1413 b23c
000003f0: 649c 053e e8f1 5ebe 3965 023d c5b5 693c

net.2.bias f4 [32]
-0.00691311 0.14055245 0.008543322 0.0633264 0.1998034 0.010568386 0.08772434 0.07271381
0.11242171 0.037697606 0.092552505 0.06479717 0.14171222 0.04623244 0.03661436 0.17444023
0.14143774 0.12281197 0.1867583 0.24467795 0.02055663 -0.02919766 0.05835916 0.09761038
0.037489165 0.024271216 0.10029467 0.206752 0.1277278 0.19811809 0.11515442 0.26397076
00000000: 5f87 e2bb fbec 0f3e 4af9 0b3c 46b1 813d
00000010: 4399 4c3e 0627 2d3c d2a8 b33d faea 943d
00000020: 5a3d e63d ce68 1a3d 2b8c bd3d 61b4 843d
00000030: 021d 113e 3a5e 3d3d f0f8 153d 76a0 323e
00000040: 0ed5 103e d884 fb3d 913d 3f3e db8c 7a3e
00000050: 6166 a83c ee2f efbc 040a 6f3d f3e7 c73d
00000060: 3d8e 193d 6ed4 c63c 4b67 cd3d ccb6 533e
00000070: 14cb 023e 78df 4a3e 15d6 eb3d 2d27 873e

net.4.weight f4 [32, 32]
-0.09958463 0.0058890157 0.13412379 -0.15858229 0.098606504 -0.03385349 0.06941665 0.06390419
-0.5493108 -0.23094061 -0.16325803 0.113300785 0.35117042 -0.27607152 -0.048235912 -0.1196369
0.09941186 0.21303694 0.23472036 -0.2696779 -0.034473334 -0.06539162 0.25828016 -0.042123687
-0.07637316 0.17617446 -0.30827248 -0.16075782 0.20461778 -0.095715925 -0.115577176 0.16064093
-0.43165848 -0.073507875 -0.11095676 0.30819196 0.08682876 0.34586757 -0.07052396 0.081906945
0.097663164 -0.020041505 -1.1742318 0.27109084 -0.32990286 0.13424855 0.04884784 -0.62024647
-0.009222515 -0.25433353 -0.020724583 0.10655411 1.0413228 -0.7685263 -0.60936826 0.8551384
-0.49585894 -0.7454305 0.019552639 0.35710147 -0.23081192 0.00870041 0.5820478 -0.42958266
-0.6278744 -0.13356254 -0.12269506 0.21580651 -0.559741 0.27811697 0.22630234 -0.28792852
-0.08019746 0.31352633 -0.12648074 -0.56095463 -0.32049367 -0.3497015 0.40426823 0.17243186
0.022839207 0.6441369 -0.20049481 0.49944708 0.27914953 -0.5951553 -0.47103325 0.47221512
-0.42633605 -0.346631 -0.12932843 0.17866912 0.12780042 -0.44129243 0.44411552 0.14620374
0.15307017 -0.021240057 0.15552738 0.16576938 0.20864916 -0.5257678 0.018629594 0.13089943
-0.12636583 0.09964286 -0.17584576 0.3016463 -0.29450542 0.34451234 0.21181451 0.0827429
-0.45335352 0.23733494 0.40701553 0.30115008 -0.42013052 0.6792885 0.05404755 0.37513274
-0.1751732 -0.42472348 -0.4971775 -0.39004403 -0.009864463 -0.04321601 0.012065018 0.44015735
-0.034774564 0.14659514 -0.15185165 0.014553525 0.8491623 -0.18279804 0.27580336 -0.31573582
-0.36824584 0.32482275 0.32381558 -0.3165499 -0.3963866 0.09264649 -0.2297535 0.00057398895
0.21347123 -0.31309482 -0.18508022 0.17782192 -0.036895722 0.1421046 0.21317817 0.305627
-0.2741377 0.25722262 -0.17138383 0.06151217 0.33406752 -0.7639902 0.06364119 0.27424288
0.048680123 0.029122729 0.50210404 -0.34077767 0.2370023 0.35237274 -0.002026026 0.024750834
0.31485885 0.4693369 0.03256661 0.30490825 0.058599405 -0.27443272 0.16561612 -0.0016393698
0.5509905 -0.03492878 0.32681483 -0.5419219 -0.1784503 0.033257015 -0.012767233 0.44512317
0.31617302 -0.23507799 0.52888507 0.2050993 0.11790071 -0.27577636 -0.4679441 0.40705547
-0.14733833 -0.65123683 -0.1121452 -0.34192565 0.21550944 -0.06703937 0.36526027 -0.16170296
-0.19240889 0.012348556 -0.13188004 0.29000956 -0.056080367 -0.27087733 0.26105008 -0.5289478
0.091459945 0.5245184 -0.42436522 -0.4162346 0.35670042 -0.21529943 0.078598 -0.6022995
-0.048408195 0.3439916 -0.016333768 -0.008095668 0.4220735 0.44298202 0.3483323 0.45291764
0.3716767 -0.05328836 0.04584673 0.23574616 0.11525634 -0.035479534 -0.05174711 -0.22588941
0.3109191 0.0022014708 -0.5355161 -0.06022348 -0.07140264 0.5065814 -0.19436394 0.57531536
0.31152982 0.0057381378 0.3496162 -0.3453192 -0.17497747 -0.43677878 0.069980815 -0.3714387
-0.13309589 0.19820186 0.14829147 -0.31110054 0.4619537 0.0075330273 0.28392407 0.031130644
00000000: 07f3 cbbd a5f8 c03b bf57 093e 6563 22be
00000010: 35f2 c93d f5a9 0abd 512a 8e3d 33e0 823d
00000020: a29f 0cbf b27b 6cbe 1d2d 27be 3e0a e83d
00000030: 9ccc b33e 3f59 8dbe 0593 45bd 3104 f5bd
00000040: 7298 cb3d 5b26 5a3e 895a 703e 3913 8abe
00000050: e933 0dbd 0bec 85bd 4c3d 843e e389 2cbd
00000060: 8869 9cbd 1467 343e e4d5 9dbe b39d 24be
00000070: 5387 513e b606 c4bd bab3 ecbd 0e7f 243e
00000080: 5702 ddbe 4c8b 96bd 4c3d e3bd 56cb 9d3e
00000090: 47d3 b13d 8e15 b13e de6e 90bd d4be a73d
000000a0: a003 c83d 152e a4bc 3a4d 96bf 6bcc 8a3e
000000b0: 07e9 a8be 7478 093e ac14 483d 79c8 1ebf
000000c0: 081a 17bc 0138 82be 9ac6 a9bc 0b39 da3d
000000d0: 114a 853f 24be 44bf 8fff 1bbf 5aea 5a3f
000000e0: 39e1 fdbe 89d4 3ebf db2c a03c 01d6 b63e
000000f0: f659 6cbe 2a8c 0e3c 1601 153f 42f2 dbbe
00000100: 60bc 20bf 9ec4 08be 8c47 fbbd 62fc 5c3e
00000110: 304b 0fbf 5965 8e3e cdbb 673e 5e6b 93be
00000120: 913e a4bd 8686 a03e 2b84 01be b99a 0fbf
00000130: bf17 a4be 130c b3be 3ffc ce3e fa91 303e
00000140: 4a19 bb3c 28e6 243f 834e 4dbe 87b7 ff3e
00000150: b0ec 8e3e 195c 18bf 452b f1be 2ec6 f13e
00000160: b848 dabe 9e79 b1be ac6e 04be 0af5 363e
00000170: 1dde 023e 15f1 e1be 1c63 e33e 6fb6 153e
00000180: 6dbe 1c3e a1ff adbc 9242 1f3e 73bf 293e
00000190: 20a8 553e b898 06bf 179d 983c 800a 063e
000001a0: 0b66 01be 8e11 cc3d e910 34be 6271 9a3e
000001b0: 6ac9 96be ec63 b03e e7e5 583e 1c75 a93d
000001c0: f41d e8be ee07 733e 5764 d03e 5830 9a3e
000001d0: 591b d7be dae5 2d3f f760 5d3d 6611 c03e
000001e0: 9a60 33be 5b75 d9be 0d8e febe dab3 c7be
000001f0: 8e9e 21bc 4503 31bd 5aac 453c 4e5c e13e
00000200: c66f 0ebd 091d 163e 007f 1bbe e871 6e3c
00000210: b362 593f 692f 3bbe 1936 8d3e 20a8 a1be
00000220: b88a bcbe 2b4f a63e 28cb a53e d412 a2be
00000230: 2ff3 cabe 71bd bd3d 8044 6bbe bf77 163a
00000240: 3498 5a3e f74d a0be ab85 3dbe f316 363e
00000250: f81f 17bd de83 113e 614b 5a3e 247b 9c3e
00000260: c75b 8cbe afb2 833e 3e7f 2fbe 2ff4 7b3d
00000270: e60a ab3e dd94 43bf 5056 823d 9069 8c3e
00000280: cf64 473d ca92 ee3c e489 003f 697a aebe
00000290: bbb0 723e 336a b43e 13c7 04bb 43c2 ca3c
000002a0: 2e35 a13e ed4c f03e 9164 053d ef1c 9c3e
000002b0: ee05 703d 7282 8cbe 4697 293e 1fe0 d6ba
000002c0: b70d 0d3f 7b11 0fbd 4654 a73e 65bb 0abf
000002d0: adbb 36be 8238 083d a82d 51bc 2fe7 e33e
000002e0: 6ee1 a13e 49b8 70be 0365 073f 8d05 523e
000002f0: ed75 f13d 8f32 8dbe 5e96 efbe 9369 d03e
00000300: dcdf 16be 75b7 26bf 62ac e5bd e110 afbe
00000310: 82ae 5c3e f04b 89bd 6503 bb3e 7695 25be
00000320: d606 45be 9951 4a3c 900b 07be 227c 943e
00000330: 87b4 65bd 6fb0 8abe 5ba8 853e 1f69 07bf
00000340: 5a4f bb3d d646 063f 6646 d9be b41c d5be
00000350: 70a1 b63e 7477 5cbe fdf7 a03d 4d30 1abf
00000360: ac47 46bd ab1f b03e 65ce 85bc b1a3 04bc
00000370: 051a d83e 8ace e23e 9c58 b23e d2e4 e73e
00000380: 694c be3e e544 5abd c8c9 3b3d 7167 713e
00000390: 840b ec3d fd52 11bd c7f4 53bd 8e4f 67be
000003a0: ca30 9f3e 8d46 103b 9517 09bf e5ac 76bd
000003b0: 8c3b 92bd 52af 013f 5707 47be de47 133f
000003c0: d680 9f3e fd06 bc3b e500 b33e aecd b0be
000003d0: 4b2d 33be 78a1 dfbe 1a52 8f3d 372d bebe
000003e0: 4a4a 08be 6ef5 4a3e b8d9 173e 9248 9fbe
000003f0: 3285 ec3e 9dd7 f63b 7f5e 913e b105 ff3c

net.4.bias f4 [32]
0.09520541 0.6050606 0.32367674 -0.020715374 0.076987326 -0.35855705 0.24444608 -0.004113385
0.017511968 0.16505891 -0.34607214 0.31238928 0.123953104 0.21654432 0.1499782 0.17499335
0.21823525 -0.27597204 0.09229268 -0.00033688662 -0.039201375 0.21258587 0.19559465 0.26384822
0.35905123 0.030244024 0.056850158 0.85597867 0.59220505 0.20250183 0.8345723 0.3657603
00000000: 0efb c23d 40e5 1a3f f5b8 a53e 4ab3 a9bc
00000010: 88ab 9d3d ca94 b7be 1350 7a3e 93c9 86bb
00000020: 4275 8f3c 3405 293e 5e30 b1be 7df1 9f3e
00000030: 20db fd3d cbbd 5d3e e393 193e 7531 333e
00000040: 1079 5f3e 354c 8dbe f203 bd3d 28a0 b0b9
00000050: 9f91 20bd 1cb0 593e f749 483e 1d17 873e
00000060: 90d5 b73e 51c2 f73c b6db 683d 6b21 5b3f
00000070: c09a 173f a45c 4f3e 88a6 553f ef44 bb3e

net.6.weight f4 [100, 32]
1.2496562 -2.3259618 1.5185767 0.6207469 -1.3938509 -2.2382805 0.26598632 2.466375
-1.6115978 -2.4424298 -0.45621142 0.9384329 -2.4863632 3.73962 -2.1917534 -0.8025063
0.02393328 0.49465778 -2.8915823 1.469778 0.6794719 -0.007955906 -3.2670636 2.9471016
-0.24533279 -1.3938364 0.47602135 2.7745707 0.08864701 -1.8068936 2.621238 3.0931783
1.3769302 0.90427065 -1.5097256 1.6257267 -0.99575144 -2.5556276 -0.58665335 1.4279612
-0.6236476 -1.8829631 -1.825861 0.14824593 -1.8565108 0.06566548 -2.1451395 -0.5084489
-0.10780605 -1.7685709 0.38708746 1.5215837 1.2820896 2.059609 -1.6324409 2.1575835
0.46590194 -3.252841 1.1002861 2.556314 -2.6823504 -0.09246944 6.258173 -0.10476528
0.82091266 -2.1115034 1.9397396 -0.612014 2.206961 -1.2005789 -0.27690375 1.5111008
-0.22852619 -1.0554988 0.5790418 -0.08915938 -3.1567624 0.9695594 2.5487437 -1.6289676
4.2967796 -0.8467477 -1.9566654 0.71733254 1.478591 3.165037 0.85567325 -2.3579235
-2.4273667 -0.6171153 -1.6101246 -0.80630505 -1.2209408 -0.51961845 -0.43563688 2.6170855
2.5863326 -1.3452537 0.69579554 -2.083331 3.0658388 -1.6733023 -1.7174804 4.11841
-0.12726237 -0.41324964 0.9007196 -1.989831 -0.759253 2.009479 0.520678 -2.6539388
3.206017 -1.6599125 -2.8746703 2.2921133 -3.0360672 2.9106297 -0.31853265 -1.3545276
-2.697258 -0.32342994 -0.89549875 1.7878162 -1.2141525 1.8699806 0.5774396 2.0845022
0.44533104 0.91469586 -2.1123762 3.3117073 2.956717 -0.57858574 -1.5306771 1.1165855
1.0095227 0.12372187 -3.3651495 3.8366764 -2.701525 0.96235543 -0.19525202 1.5512121
-0.7727654 -0.52060515 -0.21906668 0.29968646 -0.19837496 0.24243718 2.2737474 1.4794132
-5.1831393 -2.3556578 3.2716908 -3.4489067 -2.8071775 -0.2549634 2.715252 -2.5443244
2.6029475 1.6948024 -1.5366124 2.1479104 0.1529583 1.4476775 1.0989416 0.076966465
-1.4262898 1.6114503 -0.8333023 -0.33502513 -2.830937 2.3438585 -0.09762353 -1.7428366
3.4630146 -0.5031947 -2.3687828 2.7735593 -0.023113448 -3.709375 1.6869175 -0.8870723
-4.5967007 -1.4103615 0.5244541 -0.87234855 -0.8595902 2.7035465 2.6058433 -0.3245185
0.41027585 2.6137571 -3.5785463 3.6363666 2.578628 -2.5632746 -1.7218755 -0.08442438
-0.7255753 1.520954 3.1749294 -0.098271236 0.53102404 1.0042969 -1.0425189 -4.65397
1.8901379 0.43867454 -4.4011564 0.47852144 -1.9061455 1.4178158 0.38110888 -0.23977037
2.5832381 -0.13164721 1.7674311 -3.404478 -1.7807312 0.7221376 -1.9785106 3.1951842
2.6214914 3.8761919 -3.4553094 2.0171819 2.4771624 -1.4966844 -3.2154715 0.7686049
-2.2873063 -2.2752693 1.1127688 0.29241732 0.77427757 -0.576621 -1.644468 -1.5658478
2.320552 -1.8316324 -2.2804294 2.3882895 -3.342741 0.14011855 -0.9231117 0.3054696
0.12551808 2.2050788 -0.50418824 0.27453116 -0.23605679 2.454248 2.658682 1.0458245
00000000: bcf4 9f3f 8fdc 14c0 b960 c23f 45e9 1e3f
00000010: b569 b2bf fd3f 0fc0 5c2f 883e 17d9 1d40
00000020: d648 cebf c550 1cc0 8b94 e9be 233d 703f
00000030: 9320 1fc0 ef55 6f40 b045 0cc0 0e71 4dbf
00000040: ba0f c43c c943 fd3e af0f 39c0 af21 bc3f
00000050: dff1 2d3f 7d59 02bc 9217 51c0 509d 3c40
00000060: 8538 7bbe 3b69 b2bf 12b9 f33e 9192 3140
00000070: 908c b53d 4a48 e7bf 5dc2 2740 a2f6 4540
00000080: 403f b03f 487e 673f b03e c1bf d017 d03f
00000090: 91e9 7ebf 678f 23c0 ea2e 16bf 6fc7 b63f
000000a0: 5ea7 1fbf ef04 f1bf d0b5 e9bf c8cd 173e
000000b0: 25a2 edbf a07b 863d f749 09c0 b529 02bf
000000c0: 6bc9 dcbd 8860 e2bf 5430 c63e 41c3 c23f
000000d0: 831b a43f a2d0 0340 d3f3 d0bf d915 0a40
000000e0: b38a ee3e 8c2e 50c0 2dd6 8c3f a69a 2340
000000f0: a1ab 2bc0 9e60 bdbd f442 c840 2e8f d6bd
00000100: 5527 523f df22 07c0 6349 f83f f3ac 1cbf
00000110: d93e 0d40 92ac 99bf 54c6 8dbe c06b c13f
00000120: c502 6abe 961a 87bf 153c 143f 3199 b6bd
00000130: 6508 4ac0 0b35 783f 9e1e 2340 0382 d0bf
00000140: 387f 8940 75c4 58bf 0374 fabf 1ba3 373f
00000150: 7842 bd3f f78f 4a40 670d 5b3f 38e8 16c0
00000160: fa59 1bc0 45fb 1dbf 9018 cebf 026a 4ebf
00000170: ca47 9cbf b705 05bf cc0b dfbe 547e 2740
00000180: 7986 2540 4631 acbf a81f 323f 4c55 05c0
00000190: b436 4440 c52e d6bf 66d6 dbbf 04ca 8340
000001a0: 1151 02be 7595 d3be 8f95 663f c8b2 febf
000001b0: 685e 42bf 4e9b 0040 274b 053f 22da 29c0
000001c0: 622f 4d40 0378 d4bf 99fa 37c0 fcb1 1240
000001d0: ed4e 42c0 c247 3a40 b616 a3be 2961 adbf
000001e0: e09f 2cc0 9c98 a5be 683f 65bf 29d7 e43f
000001f0: 5969 9bbf 865b ef3f 15d3 133f 7c68 0540
00000200: 6e02 e43e 8229 6a3f 2c31 07c0 03f3 5340
00000210: da3a 3d40 321e 14bf 3aed c3bf 46ec 8e3f
00000220: 0a38 813f e461 fd3d 9c5e 57c0 1b8c 7540
00000230: c9e5 2cc0 ed5c 763f 25f0 47be 1e8e c63f
00000240: f4d3 45bf 6146 05bf 0453 60be 8170 993e
00000250: ce22 4bbe 7441 783e 1485 1140 695d bd3f
00000260: 47dc a5c0 19c3 16c0 6263 5140 e3ba 5cc0
00000270: cca8 33c0 908a 82be b0c6 2d40 36d6 22c0
00000280: b196 2640 49ef d83f b7af c4bf 5d77 0940
00000290: 1aa1 1c3e 7f4d b93f 1eaa 8c3f 98a0 9d3d
000002a0: aa90 b6bf 0144 ce3f 4d53 55bf 6a88 abbe
000002b0: 122e 35c0 c701 1640 d8ee c7bd 4515 dfbf
000002c0: 08a2 5d40 5ed1 00bf 239a 17c0 ff81 3140
000002d0: 6a58 bdbc 6666 6dc0 eaec d73f 2c17 63bf
000002e0: 2c18 93c0 ba86 b4bf a042 063f 3c52 5fbf
000002f0: 1a0e 5cbf e806 2d40 23c6 2640 4a27 a6be
00000300: ad0f d23e cc47 2740 e706 65c0 3bba 6840
00000310: 3e08 2540 b10c 24c0 6b66 dcbf b0e6 acbd
00000320: 4ebf 39bf 9fae c23f 0b32 4b40 6e42 c9bd
00000330: 31f1 073f cd8c 803f 4271 85bf 52ed 94c0
00000340: 0af0 f13f f399 e03e 46d6 8cc0 c300 f53e
00000350: 93fc f3bf fd7a b53f b420 c33e 5d86 75be
00000360: c653 2540 87ce 06be 2f3b e23f f8e2 59c0
00000370: 00ef e3bf 02de 383f d63f fdbf e67d 4c40
00000380: 84c6 2740 8713 7840 ca23 5dc0 8219 0140
00000390: d489 1e40 5b93 bfbf 49ca 4dc0 4ac3 443f
000003a0: 3a63 12c0 039e 11c0 356f 8e3f b9b7 953e
000003b0: 0e37 463f 6f9d 13bf ed7d d2bf b36d c8bf
000003c0: ed83 1440 ee72 eabf 8ef2 11c0 bcd9 1840
000003d0: 78ef 55c0 3d7b 0f3e 0c51 6cbf 8366 9c3e
000003e0: d087 003e 0320 0d40 7b12 01bf 598f 8c3e
000003f0: dfb8 71be 6612 1d40 d927 2a40 94dd 853f

net.6.bias f4 [100]
-1.450851 -0.96529746 -0.66753626 -1.7213972 -0.06488083 -2.019133 -0.81737804 -2.5491242
1.3248469 -1.998115 1.0266984 -2.3659346 0.36730033 0.256014 -1.3060392 -0.24314383
-1.4119724 -1.638729 -0.7328458 -3.4911962 -3.3759053 1.6531444 -0.1465026 1.0769842
1.1332175 0.8405802 0.55324274 1.1186181 -0.49133772 -1.0985619 -1.6956521 -1.7621026
-1.5440415 -1.6354467 -1.4195096 -1.3143001 -0.4533402 -2.5816815 -1.8466185 -2.2033
1.174197 0.28392047 -1.9453764 -1.9982506 -1.8561281 -0.84359366 -1.4132183 -1.3790772
-1.9021397 -0.50775933 -0.4605615 -1.006534 -0.48602825 0.95777905 -2.2121377 -2.165446
-0.9183476 0.77136475 -1.9722285 -1.9867203 -2.0969045 -0.17428437 -1.816779 -1.9481664
0.944442 0.6424338 -2.2530065 -1.8837776 -0.08486472 -0.6475371 -2.4910452 -2.054754
0.09119047 0.29456726 -2.0905247 -2.0071566 0.31647435 1.0922765 -1.9587401 -2.0632367
0.6417919 0.4564828 -2.3268461 -2.248593 0.84725946 0.86753327 -1.9492673 -1.7077215
2.126065 0.08790209 -1.8535388 -1.9992385 1.4046367 1.0548083 -2.0547512 -2.1198425
0.809408 1.4773328 -2.1006737 -2.0197692
00000000: 7cb5 b9bf bc1d 77bf a8e3 2abf be56 dcbf
00000010: 3ee0 84bd 7a39 01c0 b03f 51bf da24 23c0
00000020: 9594 a93f 3bc2 ffbf da6a 833f 796b 17c0
00000030: ca0e bc3e 4414 833e 4b2c a7bf b2fa 78be
00000040: 83bb b4bf dfc1 d1bf c89b 3bbf c26f 5fc0
00000050: d50e 58c0 3c9a d33f c704 16be 9eda 893f
00000060: 450d 913f 4430 573f 51a1 0d3f e12e 8f3f
00000070: 9e90 fbbe ad9d 8cbf 210b d9bf 948c e1bf
00000080: 27a3 c5bf 5156 d1bf 7eb2 b5bf fc3a a8bf
00000090: 351c e8be 453a 25c0 ff5d ecbf de02 0dc0
000000a0: 164c 963f 065e 913e 1802 f9bf adc6 ffbf
000000b0: 9b95 edbf c1f5 57bf 56e4 b4bf 9a85 b0bf
000000c0: 5079 f3bf 84fc 01bf b8ce ebbe 1bd6 80bf
000000d0: b2d8 f8be 0231 753f aa93 0dc0 ab96 0ac0
000000e0: d418 6bbf 2978 453f fc71 fcbf da4c febf
000000f0: af33 06c0 9a77 32be 378c e8bf 845d f9bf
00000100: f3c6 713f 8b76 243f 4231 10c0 a01f f1bf
00000110: 8ecd adbd fec4 25bf 496d 1fc0 1781 03c0
00000120: 12c2 ba3d 85d1 963e 28cb 05c0 4175 00c0
00000130: ed08 a23e b7cf 8b3f ffb7 fabf 120c 04c0
00000140: 794c 243f 1db8 e93e 0ceb 14c0 f3e8 0fc0
00000150: ffe5 583f a916 5e3f 9781 f9bf 9e96 dabf
00000160: 7311 0840 0306 b43d c240 edbf 0ce7 ffbf
00000170: 23cb b33f f503 873f 0b81 03c0 80ab 07c0
00000180: 5d35 4f3f 3e19 bd3f 7071 06c0 e643 01c0

exp_avg f4 [256, 120]
-7.9043304e-05 -0.00016858538 -0.00031461052 -0.00025894295 -0.00059180614 -0.00031680404 -0.0003260073 -8.6169166e-05
-0.00091951404 0.0003646205 -0.00010162482 -0.000110465255 -6.5469217e-06 0.0003112928 0.00075788936 0.0006094454
0.00090988283 6.686171e-05 0.0006401901 -0.00016971614 0.00035521633 6.71923e-05 -0.0004023537 0.00039290034
9.763094e-05 0.00020318429 6.144522e-07 -0.00038762207 1.1924558e-06 9.725275e-05 -7.0822774e-05 0.000486657
0.00050092593 7.5512624e-05 0.00017961713 0.0005264578 0.00041137353 0.0001886838 -6.7603432e-06 0.00060273433
0.00082651427 -0.00023396192 -0.00016791325 0.00020514551 0.00061732304 -0.00017608961 9.6017e-05 -0.00023144358
-0.00019059188 -0.00017569166 -0.00055895036 -0.00016407705 -0.00012153628 -0.00023024163 -0.00017651106 -0.00034527393
0.00016511335 0.00018951733 -0.00027390043 0.00016278125 -0.00015959686 -3.1672727e-05 5.4113294e-05 -2.2568476e-05
0.00022026656 4.552191e-05 -0.00011230445 -5.9763446e-05 3.916873e-05 0.00037395122 -4.4468845e-05 -3.5167635e-05
2.4522713e-05 -7.7890196e-05 -0.00024338061 -0.00010686713 -9.724319e-05 -0.000112639806 -0.00017872603 -3.4129735e-05
-0.00014499344 -5.5953326e-05 -0.00014500464 -0.00015674578 -0.00011163468 -0.0001203029 -0.000117791045 -0.00015572953
-7.5802e-05 -0.00013359512 -0.00011411776 -9.821363e-05 -0.00010861347 -0.000118040414 -8.9886715e-05 -0.00010855875
-0.0001562906 -1.7639883e-05 -0.00015528478 -0.00014999828 -0.0001545043 -6.709299e-05 -9.711508e-05 -0.00012622571
-0.00020849839 -0.000107549975 0.00011348501 2.3025232e-05 0.00018981312 6.665e-05 0.0004288667 0.00021400336
-0.00016777785 -0.000150648 0.00034939032 0.0001744237 0.00030220268 6.795511e-05 -0.00039818595 -0.0003053077
0.00015562084 0.00010967281 -3.7538073e-05 -0.00023938774 8.237722e-05 -0.0001261795 -0.00023218058 0.0007039345
0.00029988727 -8.330526e-05 -5.135455e-05 0.0007103176 -0.00063715805 -0.00029245618 -4.5307675e-05 0.001060454
0.00042659589 -0.00057066145 -0.00024828108 -0.00017027708 -0.0005446161 -6.8030524e-05 0.0010280007 -0.00031943503
-0.00028072164 -0.0006442466 -8.9058485e-05 -0.00044062713 -0.00018409168 -0.00046171973 -0.0011048884 -0.00016536527
2.673104e-05 0.0007492656 -0.0012287009 -0.00076864014 -0.0009930085 0.00074536307 0.001215412 -0.0007623896
-0.0009912736 0.0019378981 -0.00019580752 -0.00040226802 -0.00024561203 0.00012386011 0.00045891973 0.0004972434
-0.0005892219 0.00016130046 0.00038352373 6.8523106e-05 0.00029989955 0.00021574096 2.2389144e-05 0.00013821234
0.0002264181 -7.518921e-05 -0.00028165648 5.4484666e-05 4.5265835e-05 -0.00015051576 1.1298424e-05 -4.6853776e-05
-1.1896019e-05 0.00031896261 -7.423335e-05 -8.804907e-06 0.00014822902 0.000112012436 0.00010267096 5.7690897e-05
-1.5534832e-05 2.0963229e-05 3.8083304e-05 2.124131e-05 1.4984759e-05 0.00010005237 2.6848713e-06 9.424262e-06
-2.0424328e-05 9.724508e-06 1.0721954e-05 8.7180103e-07 5.2539385e-06 2.092265e-05 3.3861244e-05 5.6394132e-05
3.1642452e-05 2.4448424e-05 2.4144114e-05 6.123925e-06 -7.1110917e-06 3.8416227e-05 7.541621e-07 1.3888821e-05
2.0693304e-05 3.8285245e-05 -7.4056034e-06 -2.3120945e-05 -4.7062218e-05 -4.4018383e-05 9.415461e-05 4.147631e-05
0.00010139514 -7.310959e-05 4.213536e-06 8.1994986e-05 6.0750364e-05 -2.063988e-05 0.00014873355 3.889818e-05
0.00021384023 0.000105793326 4.3657234e-05 3.7301957e-05 0.00037799575 -0.00032657772 -0.000100872196 -4.312381e-05
-2.1405622e-05 0.00012767017 0.00013197574 -9.422407e-05 0.00035290673 -0.00016493315 7.3488365e-05 0.00029371024
-0.00013355237 0.00059462624 -3.8755596e-05 -0.00016406893 -0.00069838593 -0.000729731 7.456252e-05 0.001677273
00000000: 0dc4 a5b8 4bc6 30b9 4ff2 a4b9 bcc2 87b9
00000010: 7023 1bba b818 a6b9 f6eb aab9 b8b5 b4b8
00000020: 8b0b 71ba 892a bf39 691f d5b8 95a9 e7b8
00000030: a1ad dbb6 0335 a339 18ad 463a 30c3 1f3a
00000040: 3485 6e3a 1b38 8c38 6ed2 273a d4f5 31b9
00000050: 543c ba39 97e9 8c38 00f3 d2b9 31fe cd39
00000060: 36bf cc38 de0d 5539 d5f0 2435 c139 cbb9
00000070: 780c a035 2cf4 cb38 b086 94b8 ff25 ff39
00000080: 9250 033a 885c 9e38 9b57 3c39 fc01 0a3a
00000090: 9fad d739 6cd9 4539 e8d6 e2b6 d100 1e3a
000000a0: 6faa 583a ad53 75b9 df11 30b9 541c 5739
000000b0: d9d3 213a b2a4 38b9 bc5c c938 aaaf 72b9
000000c0: 9ed9 47b9 df39 38b9 8686 12ba 190c 2cb9
000000d0: 4be1 feb8 046d 71b9 d415 39b9 e205 b5b9
000000e0: 4722 2d39 2cb9 4639 4b9a 8fb9 42b0 2a39
000000f0: 7559 27b9 55d8 04b8 b5f7 6238 6f51 bdb7
00000100: 5bf7 6639 c7ee 3e38 fe84 ebb8 83aa 7ab8
00000110: 1b49 2438 e20e c439 0f84 3ab8 f680 13b8
00000120: 20b6 cd37 fb58 a3b8 fc33 7fb9 db1d e0b8
00000130: 0aef cbb8 0939 ecb8 6768 3bb9 8626 0fb8
00000140: 6109 18b9 6daf 6ab8 630c 18b9 205c 24b9
00000150: 6a1d eab8 214b fcb8 9606 f7b8 544b 23b9
00000160: e4f7 9eb8 ab15 0cb9 8252 efb8 0bf8 cdb8
00000170: 6ac7 e3b8 778c f7b8 9081 bcb8 09aa e3b8
00000180: f0e1 23b9 5cf9 93b7 f1d3 22b9 db48 1db9
00000190: 6f02 22b9 46b4 8cb8 43aa cbb8 755b 04b9
000001a0: 5ca0 5ab9 748c e1b8 cdfe ed38 4f26 c137
000001b0: 9208 4739 72c6 8b38 84d9 e039 1766 6039
000001c0: 86ed 2fb9 44f7 1db9 602e b739 81e5 3639
000001d0: f570 9e39 1f83 8e38 9dc3 d0b9 b511 a0b9
000001e0: 272e 2339 2400 e638 3372 1db8 2804 7bb9
000001f0: efc1 ac38 0d4f 04b9 8075 73b9 3f88 383a
00000200: 303a 9d39 2cb4 aeb8 8765 57b8 9b34 3a3a
00000210: f406 27ba ce54 99b9 bf08 3eb8 eefe 8a3a
00000220: bba8 df39 7198 15ba b92b 82b9 688c 32b9
00000230: 91c4 0eba 9cab 8eb8 fbbd 863a d879 a7b9
00000240: d22d 93b9 a8e2 28ba e9c4 bab8 f903 e7b9
00000250: bc08 41b9 f912 f2b9 e7d1 90ba e765 2db9
00000260: 793c e037 5d6a 443a 5c0c a1ba 917e 49ba
00000270: d627 82ba 7864 433a 764e 9f3a 1adb 47ba
00000280: 9fed 81ba 1201 fe3a ae51 4db9 80e7 d2b9
00000290: 7dc5 80b9 72e0 0139 2a9b f039 7159 023a
000002a0: 0376 1aba c322 2939 af13 c939 10b4 8f38
000002b0: d63b 9d39 8638 6239 52d0 bb37 18ed 1039
000002c0: a56a 6d39 e6ae 9db8 4bab 93b9 7786 6438
000002d0: d2db 3d38 c4d3 1db9 5d8e 3d37 dc84 44b8
000002e0: 0395 47b7 703a a739 baad 9bb8 cab8 13b7
000002f0: ed6d 1b39 38e8 ea38 0d51 d738 21f9 7138
00000300: cc50 82b7 31da af37 a3bb 1f38 5e2f b237
00000310: 0d67 7b37 35d3 d138 bd2d 3436 e61c 1e37
00000320: e954 abb7 7226 2337 71e2 3337 b605 6a35
00000330: fd4a b036 0c83 af37 3c06 0e38 bd88 6c38
00000340: d3b7 0438 9716 cd37 1789 ca37 1d7c cd36
00000350: d09b eeb6 1c21 2138 a071 4a35 0804 6937
00000360: 8896 ad37 7894 2038 a67d f8b6 daf3 c1b7
00000370: ac64 45b8 61a0 38b8 df74 c538 d9f6 2d38
00000380: 1aa4 d438 6a52 99b8 0062 8d36 b9f4 ab38
00000390: 35ce 7e38 ce23 adb7 5cf5 1b39 9a26 2338
000003a0: 4d3a 6039 5cdd dd38 991c 3738 ac74 1c38
000003b0: bb2d c639 8538 abb9 598b d3b8 d7df 34b8
000003c0: 3990 b3b7 33df 0539 f862 0a39 2a9a c5b8
000003d0: 5706 b939 e8f1 2cb9 c41d 9a38 1ffd 9939
000003e0: 310a 0cb9 b1e0 1b3a 818d 22b8 eb09 2cb9
000003f0: e313 37ba 6b4b 3fba 735e 9c38 f1d7 db3a

exp_avg_sq f4 [256, 120]
3.365981e-06 2.0238247e-06 2.5206084e-06 1.582732e-06 3.551622e-06 1.033982e-05 3.955555e-06 7.5450457e-06
1.4557178e-05 1.4995664e-05 3.0183014e-06 3.0824651e-06 6.7470046e-06 7.256754e-06 7.661029e-06 1.323308e-05
1.7416189e-05 8.8116285e-06 1.1765682e-05 9.711145e-06 6.17232e-06 6.4691803e-06 1.239791e-05 1.594456e-05
6.439304e-06 1.3908182e-05 1.4724561e-05 1.3259162e-05 1.2879807e-05 9.209974e-06 1.8508907e-05 6.982503e-06
1.3649573e-05 2.1464723e-06 9.243452e-06 8.876968e-06 5.341604e-06 5.0969093e-06 1.442685e-05 2.5468253e-05
1.457731e-05 5.7231123e-06 7.896e-06 1.2748651e-05 4.850075e-06 4.7039066e-06 6.775378e-06 1.5887412e-05
8.884989e-06 5.1473457e-06 5.1780903e-06 3.7327839e-06 2.4312467e-06 2.53098e-06 2.3177024e-06 3.664044e-06
2.7853014e-06 7.048287e-06 3.3578376e-06 1.6392422e-06 2.687884e-06 4.4521157e-06 3.0096012e-06 2.007731e-06
1.9321194e-06 4.2235174e-06 2.871523e-06 1.214124e-06 1.3549678e-06 3.0841086e-06 2.6021419e-06 1.3013336e-06
1.1369737e-06 1.5756307e-06 1.462052e-06 9.753579e-07 9.051572e-07 1.1849371e-06 1.1855202e-06 9.922445e-07
8.690969e-07 9.2425586e-07 9.037689e-07 8.7970955e-07 8.5425785e-07 8.6300264e-07 8.7915964e-07 8.6639415e-07
8.782351e-07 8.7621873e-07 8.556591e-07 8.4665066e-07 8.682257e-07 8.74529e-07 8.801965e-07 8.655968e-07
9.5145987e-07 1.0658306e-06 1.1353316e-06 8.7526024e-07 1.0121682e-06 1.2743953e-06 1.331078e-06 1.1768283e-06
1.7786028e-06 2.2885667e-06 1.9641866e-06 1.1958554e-06 1.4776945e-06 3.675079e-06 3.3263143e-06 2.13261e-06
3.6298584e-06 3.542023e-06 3.2673745e-06 1.8459484e-06 2.522993e-06 4.1109606e-06 4.3620944e-06 3.3431038e-06
7.0843657e-06 6.4693045e-06 6.4520696e-06 6.3312896e-06 7.1163104e-06 7.2598514e-06 7.3333945e-06 1.0447907e-05
1.8733639e-05 1.0654663e-05 9.127515e-06 7.585782e-06 1.994873e-05 2.8417247e-05 1.4993396e-05 3.3549066e-05
9.8221906e-05 6.854926e-05 8.235199e-05 2.001456e-05 5.5921028e-05 7.73754e-05 8.3531006e-05 0.0001578872
6.39702e-05 8.568702e-05 0.00012645047 0.00011225934 9.81161e-05 0.000119393444 8.545258e-05 5.7182846e-05
7.431504e-05 7.742156e-05 7.219726e-05 4.7970916e-05 4.1279873e-05 7.3577314e-05 6.1954765e-05 8.347445e-05
3.106116e-05 3.739717e-05 3.7004625e-05 2.544637e-05 7.414188e-06 9.973752e-06 1.1422595e-05 1.2456314e-05
8.903202e-06 7.4276286e-06 7.71925e-06 7.124054e-06 6.6782745e-06 6.5111876e-06 6.5715217e-06 6.2964837e-06
6.775109e-06 6.569673e-06 6.8856543e-06 6.4900332e-06 6.2889076e-06 6.519759e-06 6.503683e-06 6.6350512e-06
6.2960207e-06 6.6662924e-06 6.3612215e-06 6.2949184e-06 6.248258e-06 6.514162e-06 6.510394e-06 6.437634e-06
6.2499553e-06 6.211129e-06 6.2700137e-06 6.2585304e-06 6.2065565e-06 6.223648e-06 6.2510135e-06 6.2906306e-06
6.1565433e-06 6.1950236e-06 6.170343e-06 6.2239515e-06 6.1762757e-06 6.1834166e-06 6.1894557e-06 6.2309678e-06
6.1668457e-06 6.178915e-06 6.1738483e-06 6.175176e-06 6.188138e-06 6.192619e-06 6.209098e-06 6.21421e-06
6.16767e-06 6.2692147e-06 6.2179483e-06 6.175282e-06 6.2080503e-06 6.270381e-06 6.3518028e-06 6.216246e-06
6.3394205e-06 6.5161116e-06 6.2871454e-06 6.2328895e-06 6.362965e-06 6.7801075e-06 6.7808974e-06 6.2739923e-06
6.742333e-06 6.763631e-06 6.3343764e-06 6.1776504e-06 6.39244e-06 6.91414e-06 6.936775e-06 6.4625824e-06
5.312647e-06 4.777845e-06 5.2967425e-06 6.056997e-06 5.336206e-06 5.5998335e-06 5.952081e-06 9.003553e-06
1.5147509e-05 9.374744e-06 6.890375e-06 6.4107044e-06 2.097782e-05 2.9435309e-05 3.1249114e-05 2.1533458e-05
00000000: 1de3 6136 0bd1 0736 b927 2936 426e d435
00000010: 6758 6e36 3079 2d37 f5b9 8436 732b fd36
00000020: 9a3a 7437 e395 7b37 068e 4a36 59dc 4e36
00000030: 5464 e236 0b7f f336 de87 0037 a503 5e37
00000040: fb18 9237 a8d5 1337 3865 4537 0ded 2237
00000050: d31b cf36 d611 d936 9e00 5037 afc0 8537
00000060: 3311 d836 3057 6937 8209 7737 ab73 5e37
00000070: 5a16 5837 8a84 1a37 9343 9b37 3e4b ea36
00000080: 7800 6537 1d0c 1036 5314 1b37 4aee 1437
00000090: 073c b336 1e06 ab36 d90a 7237 a8a4 d537
000000a0: 1291 7437 2909 c036 1079 0437 0ae3 5537
000000b0: d4bd a236 40d6 9d36 0e58 e336 f545 8537
000000c0: bd10 1537 5db7 ac36 75bf ad36 bd80 7a36
000000d0: 8028 2336 e8d9 2936 d389 1b36 cce3 7536
000000e0: 1deb 3a36 5380 ec36 3657 6136 ef03 dc35
000000f0: 7f61 3436 6263 9536 8ef8 4936 8ebc 0636
00000100: 8fa9 0136 bdb7 8d36 64b4 4036 fcf4 a235
00000110: 57dc b535 95f8 4e36 75a0 2e36 7ba9 ae35
00000120: 1e9a 9835 427a d335 b93b c435 0be9 8235
00000130: eef9 7235 210a 9f35 2a1e 9f35 432d 8535
00000140: e24b 6935 611a 7835 879a 7235 2e25 6c35
00000150: 2750 6535 17a9 6735 64ff 6b35 2792 6835
00000160: dbbf 6b35 4b35 6b35 72b0 6535 6445 6335
00000170: 0410 6935 2dc1 6a35 a546 6c35 5c5b 6835
00000180: d367 7f35 a90d 8f35 b261 9835 6df3 6a35
00000190: d6d9 8735 e40b ab35 7ea7 b235 83f3 9d35
000001a0: 54b8 ee35 4795 1936 78d0 0336 4781 a035
000001b0: 3255 c635 60a1 7636 a539 5f36 f61d 0f36
000001c0: 7e98 7336 7eb3 6d36 1145 5b36 4ec2 f735
000001d0: b150 2936 e2f0 8936 1b5e 9236 165a 6036
000001e0: 3db6 ed36 e712 d936 db7e d836 5d71 d436
000001f0: a4c8 ee36 a699 f336 6111 f636 6b49 2f37
00000200: 2f26 9d37 6ec1 3237 6122 1937 5f89 fe36
00000210: 9257 a737 9361 ee37 258c 7b37 09b7 0c38
00000220: 7cfc cd38 1bc2 8f38 63b4 ac38 f1e4 a737
00000230: bf8c 6a38 9a44 a238 5e2d af38 868e 2539
00000240: bd27 8638 deb2 b338 ca97 0439 c66c eb38
00000250: aec3 cd38 de62 fa38 0135 b338 9dd7 6f38
00000260: 95d9 9b38 625d a238 9c68 9738 6134 4938
00000270: ed23 2d38 854d 9a38 b6ed 8138 010f af38
00000280: ab47 0238 e8da 1c38 6a35 1b38 aa75 d537
00000290: 64c7 f836 f054 2737 aca3 3f37 76fb 5037
000002a0: f65e 1537 d83a f936 ed81 0137 280b ef36
000002b0: f115 e036 ad7a da36 f180 dc36 6246 d336
000002c0: be55 e336 1071 dc36 520b e736 f6c4 d936
000002d0: 4e05 d336 4ec4 da36 363a da36 a8a2 de36
000002e0: 6842 d336 04af df36 7a72 d536 f038 d336
000002f0: 21a8 d136 3a94 da36 dc73 da36 db02 d836
00000300: b5b6 d136 3169 d036 0263 d236 5e00 d236
00000310: ea41 d036 bbd4 d036 ccbf d136 1b14 d336
00000320: 4e94 ce36 d9de cf36 d80a cf36 56d7 d036
00000330: ce3d cf36 257b cf36 05af cf36 9b13 d136
00000340: cdec ce36 7a54 cf36 f428 cf36 5c34 cf36
00000350: b3a3 cf36 31ca cf36 bf57 d036 a883 d036
00000360: e2f3 ce36 255c d236 c5a3 d036 4535 cf36
00000370: bf4e d036 2a66 d236 9221 d536 2695 d036
00000380: 35b7 d436 f9a4 da36 2bf6 d236 1d24 d136
00000390: 7481 d536 ae80 e336 7787 e336 2f85 d236
000003a0: 333c e236 26f3 e236 e18b d436 9d49 cf36
000003b0: a47e d636 0300 e836 72c2 e836 29d9 d836
000003c0: 4a43 b236 6051 a036 acba b136 353d cb36
000003d0: a90d b336 34e6 bb36 fdb7 c736 f70d 1737
000003e0: 0e22 7e37 3848 1d37 df33 e736 881b d736
000003f0: 87f9 af37 d8eb f637 7b11 0338 c0a2 b437
