Training/PyTrainer/epoch=41.ckpt (torch, 654085 bytes, 28 tensors)

net.0.weight f4 [256, 120]
000000 e6 cb 99 be d8 0a 71 be ff d2 b1 be 22 99 01 3c
       -0.30038375 -0.23539293 -0.3473129 0.007910045
000010 55 68 55 be 8e fe 69 be d0 ed 8a bd 44 7c 18 be
       -0.20840581 -0.22851011 -0.067836404 -0.14891154
000020 a4 84 8d bd 63 ff 20 3e 2e 77 18 be a1 9b b3 be
       -0.06910065 0.15722422 -0.14889213 -0.35079673
000030 53 cc d8 3d 5e ea 21 3e 71 af b6 3d b6 26 36 bc
       0.10585847 0.1581206 0.089201815 -0.011117628
000040 8e 67 64 3d 2a 55 19 3e c0 30 2f 3e 56 fa 46 3e
       0.05576282 0.14973894 0.1710844 0.19431433
000050 80 91 ce 3d 5a c8 02 3d 00 5a 84 3d 32 5b f2 3d
       0.10086346 0.03192935 0.06462479 0.118338004
000060 de 46 1c 3d 60 51 56 3d 60 2e 2b 3d 8e aa a0 3d
       0.03815352 0.0523237 0.041792274 0.07845031
000070 2a 69 aa be ec 47 09 be d8 05 5a be 16 af fa 3c
       -0.3328336 -0.13406342 -0.21291292 0.030601066
000080 dc a2 1c bd c7 83 c9 be ca 2c e1 bd 1c 22 54 bd
       -0.038241252 -0.3935835 -0.10994871 -0.05179034
000090 74 09 c3 3a 6a c1 01 3e 32 f9 2a 3c 01 2a e8 bd
       0.0014880137 0.12671438 0.010435389 -0.113361366
0000a0 8a 3a dc 3d 2c c0 a2 3d 80 e8 c2 bd a0 25 53 bd
       0.10753353 0.0794681 -0.09517002 -0.051549554
0000b0 77 36 b4 bd 0a 6b a5 3d 40 ec 05 bf e6 0e 24 bd
       -0.08799451 0.08077057 -0.52313614 -0.04005327
0000c0 55 5c 2b 3e d3 6b 20 be 46 74 1c bd b8 10 2e bd
       0.1673444 -0.15666132 -0.038196824 -0.042496413
0000d0 58 3c 99 3e ce 6f 23 3e 5a c2 b3 3d 2a 98 27 3e
       0.2992885 0.15960619 0.08777304 0.1636664
0000e0 60 25 4f be f2 19 8d be d4 e0 d3 bd 9a 33 b3 bd
       -0.20229101 -0.27558857 -0.10345617 -0.087500766
0000f0 32 a4 2e be 8c b5 8a be 85 ab 1f 3d 93 c2 8d 3d
       -0.17054823 -0.27091634 0.038981933 0.06921878
000100 86 a6 77 be 43 80 f7 bd 8e e6 1a 3e 4e 21 f9 3d
       -0.24184617 -0.12085011 0.15127012 0.121645555
000110 fc 85 06 bf 36 a2 37 be ef fa 0d 3e 21 30 77 3e
       -0.52548194 -0.17932972 0.13865255 0.24139453
000120 9c ba 0d 3c 99 c6 b6 bd b6 6d 85 3e 5f 6f 7f 3d
       0.008650448 -0.08924598 0.26060265 0.06236207
000130 bf 5d 3c be 18 4e 04 3d 77 a7 b9 bd b6 7b 41 be
       -0.18395136 0.03230104 -0.090651445 -0.18894848
000140 6c 20 e2 bd 78 c7 4c be 52 0e 5b bc 14 05 b0 bd
       -0.1104134 -0.19997966 -0.013370113 -0.085947186
000150 ed 53 19 be f4 18 55 be 38 a2 15 be d0 b0 f6 bd
       -0.14973421 -0.208103 -0.14612663 -0.12045443
000160 a6 44 6f 3e 33 ec 3d be a4 83 39 be 77 94 e3 bd
       0.23366031 -0.18547134 -0.18116623 -0.11112302
000170 06 63 1d be 10 6f c6 3a f6 0a 91 be 91 26 8c bd
       -0.15369806 0.00151393 -0.28328675 -0.068432935
000180 97 ae 0b bd f3 d4 b1 be f0 a2 60 3d 6c bb bc bd
       -0.03410205 -0.3473278 0.05484289 -0.092154354
000190 14 93 59 3e 3c 08 14 3e 40 71 ab 3e 5c 1f 61 bd
       0.21247512 0.14456266 0.3348484 -0.054961547
0001a0 46 f6 a8 3e b8 79 e7 3e fa 72 ed 3d 15 23 50 bd
       0.33000392 0.45210052 0.11594196 -0.050814707
0001b0 4a ba cf 3e 9e 0b bd 3e b0 65 86 3e 76 e3 e5 3d
       0.40571815 0.36922926 0.26249456 0.11225025
0001c0 7c c2 95 3e 14 8c ac 3e d8 9a 0b 3e e3 f2 8f 3d
       0.29249942 0.3370062 0.13633287 0.07028749
0001d0 26 1a c7 3e 54 bd a6 3e 10 23 7f 3e c0 7f 1d 3d
       0.38887137 0.3256632 0.24915719 0.03845191
0001e0 6c 2a 6f be 00 20 f8 3c e4 ed db 3d d4 99 63 3e
       -0.23356026 0.030288696 0.107387334 0.2222665
0001f0 c4 c7 9a 3d 6a af f5 3d a8 f2 4b 3e 5e 3e 4c 3d
       0.075576335 0.11996348 0.19916785 0.049864165
000200 3a c2 88 bc ec 6f 6c bb f2 ae 67 bd 79 bc 13 3e
       -0.016694177 -0.0036077453 -0.056563325 0.14427365
000210 10 0c 2a 3e 4f f4 df 3c 48 e3 97 3e e8 1d b9 3d
       0.16606164 0.027338175 0.2966559 0.09038907
000220 d6 08 b0 3d ba 58 b9 3d 32 9a 5d 3e 7d 47 98 3e
       0.08595435 0.090501264 0.21640852 0.2974204
000230 5c 64 68 3d 1b d0 d2 3c 05 78 4e 3e 87 42 12 3e
       0.056736335 0.025733998 0.20162971 0.1428319
000240 54 31 ce 3d bc 53 20 3d 7a 9c 3c 3e 34 fa 44 3e
       0.10068002 0.039142355 0.18419066 0.1923607
000250 88 d2 38 3e 00 cf 39 be a0 99 6f be f8 97 ec bd
       0.18049061 -0.1814537 -0.23398447 -0.11552423
000260 14 d6 d5 bd 09 fa ef bd ac 97 64 be ec af 10 be
       -0.10441223 -0.11717612 -0.22323483 -0.14129609
000270 d2 59 82 bc 90 db 25 be e2 c1 33 be 0e 87 14 be
       -0.01591197 -0.16197038 -0.17554429 -0.14504644
000280 82 6d c4 bd b1 45 f2 bc ce 72 12 be 46 35 2b be
       -0.095911995 -0.029574247 -0.14301607 -0.16719541
000290 73 7a 0e be 11 5f 6e bd 4c 0e ce bd e5 d9 8e bd
       -0.13913898 -0.05819613 -0.10061321 -0.06975154
0002a0 b8 d8 11 bd b0 40 19 be f0 d9 e5 bd 35 c9 fb bd
       -0.03560707 -0.14966083 -0.11223209 -0.122942366
0002b0 43 94 13 be d7 9e c9 bd 59 c4 bd bd 92 d8 26 be
       -0.14412026 -0.098447494 -0.09265966 -0.16293553
0002c0 98 f2 1c 3e 55 47 4b 3d 6c 6a c5 3d 90 90 f9 3d
       0.15326917 0.049628574 0.09639439 0.12185776
0002d0 85 b5 b4 3d 3e 6e 96 3d 36 c2 a6 3c da b1 08 3e
       0.088236846 0.07345246 0.020356279 0.13349095
0002e0 18 90 43 3d 16 96 36 3e 48 87 d4 3d 77 19 08 3e
       0.04774484 0.1783069 0.10377365 0.13290964
0002f0 fd 25 d1 3d 0a 4b 10 3e a0 ea 12 3e aa 19 94 3e
       0.10212324 0.14091125 0.14347315 0.2892583
000300 fa 8a 14 3e 60 c4 66 3e 36 6b 42 3e 2f 82 6a 3e
       0.1450614 0.22535849 0.1898621 0.22901224
000310 79 68 0f 3e 36 2d 03 3e 98 0a 7e 3e de 79 bd 3d
       0.14004697 0.12810215 0.24808729 0.0925176
000320 ac 65 45 3e be cf 9c 3d 30 cb ae 3d 30 c6 8e 3d
       0.19277066 0.07656811 0.08534849 0.06971395
000330 59 6c 84 3e d9 05 07 3d 86 75 59 3e 43 06 35 3e
       0.25863913 0.03296456 0.21236238 0.1767817
000340 82 04 63 3e 9c 37 0b be e7 33 bb bd f4 f6 31 3d
       0.22169688 -0.13595432 -0.09140759 0.043448403
000350 dc 1f 04 bd 3a 6c db bd da 20 6a be 8d 18 06 be
       -0.032256946 -0.10714002 -0.22864094 -0.13095303
000360 d4 e2 87 be 31 c3 be bd ac 5a 86 be e0 82 45 be
       -0.26540244 -0.093145736 -0.26241052 -0.19288206
000370 30 bc c5 bd c0 96 1d bd 68 ae 6a be 82 bc 89 be
       -0.096550345 -0.038473845 -0.22918093 -0.26901633
000380 5e 02 3d bd 60 22 b3 bd c6 b5 02 be 4f 2a 97 be
       -0.046144836 -0.08746791 -0.12764654 -0.29524466
000390 4a 8f 03 be 6a 0f c5 bd f6 36 0b be 9c c5 25 be
       -0.12847629 -0.096220806 -0.13595185 -0.16188663
0003a0 0d 68 38 be 15 33 d7 bd ec 87 07 be 20 53 3c be
       -0.18008442 -0.1050779 -0.13235444 -0.18391085
0003b0 a3 e3 4e be 06 75 db bd 3c a4 61 bd fb 28 51 be
       -0.20204024 -0.1071568 -0.055088267 -0.20425789
0003c0 f3 cb 00 bd 80 81 ab bc 66 2c 0a 3c 03 98 c7 3c
       -0.0314445 -0.020935774 0.008433437 0.024364477
0003d0 2a f9 1d 3e 98 08 03 3d 60 45 a8 3d 14 ea 98 3d
       0.1542708 0.031990618 0.08216357 0.07466522
0003e0 82 3d bb 3d 81 e1 b9 3d a0 5f c3 3d 88 a7 8d 3d
       0.09142591 0.090762146 0.095397234 0.0691672
0003f0 22 6c 87 3d 7c 0b e7 bc f0 d2 2a 3d 80 49 9f 3d
       0.066124216 -0.028203718 0.041705072 0.07777691

net.0.bias f4 [256]
000000 f0 23 12 be 92 fb 58 3e ca af 9a 3e a9 83 2b be
       -0.14271522 0.21189716 0.3021224 -0.16749443
000010 9c d9 fc 3d f5 7a 18 bb 8a fe fb 3d fe c9 e2 bd
       0.12346193 -0.0023266647 0.12304409 -0.11073683
000020 70 77 35 3d 1c 67 33 bc 3b 99 fa 3d 03 81 f1 bb
       0.044303358 -0.010949876 0.12236258 -0.0073701157
000030 fa 11 22 3d 62 37 31 bd b3 ec 7b bc 76 13 83 3e
       0.039567925 -0.043265708 -0.015376258 0.25600785
000040 46 4c 1a 3e 78 5c 1e be 8c 88 7d bd 58 a2 18 3d
       0.15068159 -0.15464962 -0.0618978 0.037264198
000050 ec 72 af 3c a5 57 22 bd b7 d0 c9 3d 3c 7d 21 3e
       0.021417104 -0.039634366 0.09854262 0.1577043
000060 2d e1 13 be e2 8e 78 be f7 7f 06 be 46 dc 83 bd
       -0.14441366 -0.24273255 -0.13134752 -0.06438498
000070 59 48 13 3e 9c 7a f0 3d 87 2a 72 3e d2 97 bb be
       0.14383067 0.11742136 0.23649035 -0.36639267
000080 fa 98 14 be e6 b2 3c bc 47 b2 15 3e ac fd 21 be
       -0.14511481 -0.011517262 0.14618789 -0.15819424
000090 a6 ec 90 be a2 e2 b2 3d 78 f1 35 3e 3c 05 90 be
       -0.28305548 0.08734633 0.17767894 -0.28128994
0000a0 ae 87 15 3e 9e 1c 5d 3d 18 a5 98 3e 96 1c b3 3e
       0.14602539 0.05398237 0.29813457 0.34982747
0000b0 fe be 49 bd a8 60 4d 3d 1a a2 d1 3d 28 56 35 3d
       -0.04925441 0.050141007 0.102359965 0.044271618
0000c0 e8 25 00 3d 9d 8f 53 3e 85 9d 9a 3e d2 25 b4 be
       0.03128615 0.20660253 0.30198303 -0.35185105
0000d0 7e a5 79 3e c0 9b 74 be 09 88 2d 3e 05 e8 57 bd
       0.24379537 -0.23887539 0.16946425 -0.052711505
0000e0 09 47 49 be 9c 96 91 be 08 e8 ca be 6f 66 43 bc
       -0.19656004 -0.28435218 -0.3963015 -0.011926278
0000f0 e9 24 9d 3d 06 50 cf 3b fc 0f a1 be 44 c0 46 3d
       0.07673056 0.006326678 -0.31457508 0.048523203
000100 70 40 13 3e 34 7b 16 3e 8c f3 24 bd 98 33 35 3e
       0.1438005 0.14695436 -0.040271327 0.17695463
000110 7e e4 81 3c 7b ba 9e be 60 95 5d bd 12 c3 1f 3d
       0.015856024 -0.31001648 -0.054097533 0.039004393
000120 e8 9a 0b 3e 6e 03 a4 bd 94 35 c3 3e 34 9d 86 be
       0.13633311 -0.08008467 0.38126814 -0.2629181
000130 82 e2 5a be 26 a4 0a 3e 6a 20 94 be 2a f9 ae ba
       -0.21375468 0.1353918 -0.2893098 -0.0013349403
000140 08 d4 39 bd c9 92 3f be 31 65 61 3e 04 7c 90 be
       -0.045368224 -0.18708338 0.22011258 -0.28219616
000150 98 41 86 be 3a 39 ca 3d 2d 75 43 bd e1 aa b6 3d
       -0.2622192 0.09874196 -0.04771917 0.08919311
000160 88 31 aa 3c e4 06 23 3e 51 28 9f 3e 6a bb 60 3e
       0.020775571 0.15920597 0.31085446 0.21946493
000170 26 8a 23 be b0 63 aa be 82 1e 79 3e d1 59 34 3e
       -0.15970668 -0.3327918 0.24328044 0.17612387
000180 1a c7 15 be 32 99 95 3c 05 32 55 bd eb e5 c2 3d
       -0.14626732 0.018261526 -0.052049655 0.095165096
000190 cb c8 8d 3e 8f 4f e5 3e e5 f1 6b bd e8 d1 66 3e
       0.27692255 0.4478726 -0.057603735 0.2254101
0001a0 b8 1b a2 3d a8 9e de 3e a4 10 2f 3e 7e aa 4b bd
       0.07915443 0.4348042 0.17096192 -0.04972314
0001b0 1a 1a ec bd 0c 51 e0 be e8 34 a7 be 0d ba c0 3d
       -0.11528416 -0.43811834 -0.32657552 0.09410486
0001c0 65 e5 90 be c4 b9 fc 3d 8d f5 2b be aa b5 91 3e
       -0.28300014 0.123401195 -0.16792889 0.2845891
0001d0 a8 be 59 3e e3 79 6b 3d 2a a2 84 be 9b 0c 4f be
       0.21264136 0.057489287 -0.2590497 -0.20219652
0001e0 be 10 26 3e 06 4c f3 3b a0 1d 9e 3d ac 15 08 3c
       0.16217324 0.007424834 0.07720494 0.008305948
0001f0 4c 24 93 bd b6 72 4b be 0c 5d b2 bc 4c 3f 81 bd
       -0.071846575 -0.19867977 -0.021772884 -0.06310901
000200 e5 50 90 bd 2c d7 9c 3d ca ed d9 bd 3d 85 4c be
       -0.070466794 0.07658228 -0.10641058 -0.19972701
000210 d2 a1 1e 3d f2 8f 4e 3e 46 82 c9 3d 98 c0 5e 3e
       0.038728543 0.20172098 0.09839301 0.21753156
000220 ef 00 91 3e 68 bf 0d 3e 26 0f d5 3d 38 4f ac 3e
       0.28321025 0.13842547 0.1040328 0.3365419
000230 70 0e 8a 3d 14 2c 97 be 3a 6e 3c 3e 74 35 96 3e
       0.06741035 -0.29525816 0.18401423 0.29337656
000240 13 23 4e 3c d2 1f 29 3d 6d 0d 7f be 10 13 03 be
       0.0125816045 0.04129011 -0.24907465 -0.1280024
000250 fe 32 03 be 12 85 8d be 0e 82 eb 3c 7a da 35 be
       -0.1281242 -0.27640587 0.028748538 -0.17759123
000260 a2 ea 87 bd b0 57 36 3e dd e1 10 3e 9c 84 74 bd
       -0.066365495 0.17806888 0.1414866 -0.05969678
000270 a1 2a c5 bc 66 33 17 3d 14 c5 4a 3e f2 26 96 3d
       -0.024068179 0.03691425 0.19801742 0.07331647
000280 ad b8 a2 3d f2 25 e8 3c e9 23 b9 be 69 6a 62 bd
       0.0794538 0.028338406 -0.3616021 -0.055277262
000290 46 e7 f8 bd 5d e3 9d 3b 55 8b 9e be 6a 09 2f 3d
       -0.12153487 0.0048183636 -0.30965677 0.042733587
0002a0 5b 26 80 be 45 f1 20 3e 3d c8 91 3d 19 86 0c bd
       -0.25029263 0.15717037 0.071182705 -0.034307573
0002b0 ba df a5 3e cd 4c 35 3e 74 75 6c be f2 b4 4f 3c
       0.32397252 0.17705078 -0.2309168 0.012677418
0002c0 79 b1 6d 3e 7a 0c 38 3e 96 67 d5 3d b4 57 68 be
       0.23212232 0.1797351 0.10420148 -0.22689706
0002d0 d0 dc 9a be 5c ca d9 bd f9 60 bf bd 5e 0f a9 ba
       -0.30246592 -0.106343 -0.09344668 -0.0012898257
0002e0 be 9b 89 3e 5e 22 08 be 1e 18 8c 3b 80 a3 87 be
       0.26876634 -0.1329436 0.004275336 -0.26491928
0002f0 cd 4c af 3d 21 c4 fc bd 14 e4 f6 3d 4a 56 14 3e
       0.085595705 -0.12342096 0.12055221 0.14486042
000300 e3 1c 10 3e 52 5a 0d 3e 21 61 40 be a1 7a a8 3e
       0.1407352 0.13803986 -0.18787052 0.32906058
000310 cb 05 03 be 5c 1b 19 be 78 5b 57 bd 20 d8 a5 bd
       -0.12795179 -0.14951843 -0.052577466 -0.08097863
000320 73 43 8d be cc 01 9a be 2a 9c 35 bd 96 54 30 3e
       -0.27590522 -0.30079496 -0.044338383 0.17219767
000330 21 aa 88 3e 2d 52 1e 3e fc 4f 69 3d 8a fe 1b 3e
       0.26692298 0.15461035 0.056961045 0.15233818
000340 00 36 3e 3e a2 c5 b9 3e 05 70 ea 3c f2 51 fd 3c
       0.18575287 0.36283594 0.028617868 0.030922864
000350 99 67 00 3d 49 b3 78 be 3c 1a 82 3e 72 31 b0 3d
       0.0313488 -0.24287142 0.2541064 0.08603181
000360 f0 fa da be 85 27 96 3d 42 b7 79 3e 2e 89 79 bd
       -0.42769575 0.073317565 0.24386314 -0.06092184
000370 4f cc 8a bc 7a 1d 59 3e 68 0c 66 3e de a9 65 be
       -0.016943125 0.2120265 0.2246567 -0.2242808
000380 ee d8 20 3d 7c 77 55 3e 6e d9 55 3e 58 e4 87 bb
       0.03926938 0.20846361 0.20883724 -0.0041470937
000390 24 e8 e6 be 29 06 8c 3b 62 4d f3 3c 58 8b 3c bc
       -0.45098984 0.0042731953 0.029699985 -0.0115078315
0003a0 98 05 a6 bd fd e0 0c 3e f4 f2 8c 3e 26 bb f2 3d
       -0.08106536 0.13757701 0.2752911 0.11852102
0003b0 06 c9 8d 3e a5 c6 29 3e a7 f5 89 3e 8b 13 e2 3e
       0.2769243 0.16579683 0.2694523 0.44155535
0003c0 3c 68 ef 3c 6a 67 7b bd 23 6f 0a 3e b4 18 25 be
       0.029224508 -0.06137792 0.13518958 -0.16122705
0003d0 df 74 49 3e 13 73 1d 3e d4 c2 38 3d 14 7d 18 3e
       0.19673489 0.15375929 0.045107678 0.14891464
0003e0 b4 c2 0b 3e d8 f5 44 3e 0f 09 17 3c 4d bb ee bb
       0.13648492 0.19234407 0.009218468 -0.0072855116
0003f0 4e c3 0a 3e 71 f1 f3 3d 9b 6b 55 3e 4e 7b 36 3e
       0.13551065 0.11911286 0.2084183 0.17820475

net.2.weight f4 [32, 256]
000000 db 64 cd bd e3 f6 83 3d 36 6d 43 3e ce e8 2f 3e
       -0.10029002 0.06443574 0.1908463 0.17178652
000010 c8 83 08 bd 14 99 e3 3d b1 4e 99 bd af 68 65 3c
       -0.0333288 0.11113182 -0.07485712 0.014002009
000020 56 e8 c5 bd 90 e9 55 3d 9c 01 5e 3e 69 da 0c 3e
       -0.09663455 0.052224696 0.21680301 0.13755192
000030 e0 dd 8d bd 4e ce 96 3d 0f 06 16 3e 94 6c 6f bb
       -0.06927085 0.07363568 0.14650749 -0.0036533223
000040 e6 87 05 3d 58 50 8c bd 9c be 28 3d 4a 60 66 bd
       0.032600306 -0.06851262 0.041197404 -0.056244172
000050 59 24 de 3d 11 01 5f 3e 9c 4d a1 3d f2 99 fe 3b
       0.108467765 0.2177775 0.07876131 0.0077698166
000060 66 8a ef be 9a fe 21 be 6a 95 d3 3e b2 d7 f6 3d
       -0.46785277 -0.15819779 0.4132493 0.12052859
000070 36 d2 e3 3d fa 24 9c bd c7 eb 23 3e 18 b0 87 be
       0.11124079 -0.0762424 0.1600791 -0.26501536
000080 9e 80 a1 bd 0e 07 a3 be 05 1f cf 3d 67 e6 06 3e
       -0.0788586 -0.3184132 0.101133384 0.13173829
000090 3e 84 5a 3e d8 a2 03 3d d4 dd 7a be 08 03 fe 3d
       0.21339509 0.03213772 -0.24498683 0.12402922
0000a0 3e 1a f5 bc 55 08 85 bc 8e 40 83 be f8 0d 58 3c
       -0.02991974 -0.016239325 -0.2563519 0.013186924
0000b0 9c 3d dd 3d e2 f5 95 3d 44 fc 3b bc da e3 64 3d
       0.10802767 0.07322289 -0.011473719 0.05588136
0000c0 c0 1c 27 3d f6 a6 1d bd f7 2e 41 3e 9b a6 66 bc
       0.040798903 -0.038489304 0.18865572 -0.014077808
0000d0 47 30 f1 bc cf 95 06 3e 82 67 12 bd 24 3c 9c 3d
       -0.029441966 0.13143085 -0.035743244 0.076286584
0000e0 25 2e 90 3d 43 97 ba 3d f4 c1 7e bd 8b e2 7d bd
       0.07040051 0.09110882 -0.062196687 -0.061983626
0000f0 86 a9 16 3e 29 a3 50 be 28 bd 48 be 2b 74 08 3e
       0.14713106 -0.2037474 -0.19603407 0.13325565
000100 24 67 36 3e 7c 1b 0e 3c fb fc 1f be 1b 91 45 bd
       0.17812783 0.008673545 -0.15623848 -0.048234086
000110 37 5b 3e be 72 3a da bc 4c 61 d9 3d a6 81 58 3d
       -0.18589483 -0.026639197 0.10614261 0.052858017
000120 b8 63 59 3c aa a4 d4 3d 3c 52 34 be 5a 01 28 3e
       0.013268404 0.1038297 -0.17609495 0.16406766
000130 32 d9 89 be 4a bb 1d 3d 10 ac 7d bd 52 05 9e 3d
       -0.2692352 0.03850869 -0.06193167 0.077158585
000140 cd fb a6 3c c4 c3 fb bd 19 72 06 3d 97 f6 ad 3c
       0.02038374 -0.12293199 0.032823656 0.021235747
000150 b2 9a f3 3c 16 d6 76 3d 72 2d 7e 3d 33 5f 34 3e
       0.02973685 0.060262762 0.06205506 0.1761444
000160 0a e2 4c 3d 2e 8c e9 3d a0 e6 9d 3e 18 a0 96 be
       0.050020255 0.1140369 0.30840015 -0.29419017
000170 14 8e dc 3d c2 d7 7f bc 2e ef 2c be c4 cb c8 3e
       0.10769287 -0.0156154055 -0.16888115 0.3921796
000180 f0 ac 3e be e5 c8 df bd a7 11 92 3e 50 e2 0d 3e
       -0.18620658 -0.109269895 0.28529093 0.13855863
000190 fc 02 50 be 13 a1 ae 3c 9e 3c 04 bd 1c 70 04 be
       -0.20313638 0.02131704 -0.03228437 -0.12933391
0001a0 4c be 26 3e b6 88 11 bd 60 66 80 3b ca e2 20 be
       0.1628353 -0.03553077 0.003918454 -0.15711513
0001b0 7a 3f 3d 3d f0 2a 03 3d 5f 66 cd bb 0c 2c 15 be
       0.046203114 0.03202337 -0.006268307 -0.14567584
0001c0 8a b3 5a 3e 5a ca 19 3e 5c 1e 06 be 41 34 2e 3d
       0.21357551 0.15018597 -0.13097519 0.042530302
0001d0 8d 33 23 be 0c de 96 bd 5e 64 e4 bc a9 03 4d 3d
       -0.15937634 -0.07366571 -0.02787989 0.05005232
0001e0 86 d2 04 3e 8e 43 4e 3e 55 53 9e be d4 e0 6f bd
       0.12970933 0.20142958 -0.30922952 -0.058564022
0001f0 b4 bc c6 3d 96 fc 5e 3d f6 db 73 3d 12 47 45 be
       0.09703961 0.054440103 0.059535943 -0.19265392
000200 f3 83 24 3e 9e 55 50 3c 18 ee 8c 3e a0 11 d5 3e
       0.1606596 0.012715725 0.275254 0.4161501
000210 1a 50 83 bc 08 9e 31 3d 36 eb e7 bd 90 7c 5f 3d
       -0.016029406 0.0433636 -0.1132416 0.05456215
000220 fe e9 40 be 35 d1 21 bd 16 26 08 3e 50 13 bb bd
       -0.18839261 -0.039506156 0.13295779 -0.09134543
000230 bb fb 08 be aa db 35 be 6d 97 1b 3e e4 59 c7 bc
       -0.13377278 -0.17759576 0.15194483 -0.024334855
000240 1e ef 37 bd 88 29 8e 3d 1f 39 84 bd f2 64 cf be
       -0.044905774 0.06941515 -0.064562075 -0.40506703
000250 20 99 85 3e 12 35 de 3d 28 77 16 be 6e 21 02 3e
       0.26093388 0.10849966 -0.14693892 0.12708065
000260 ab 05 01 be b5 ee 88 be 10 d4 69 3e 0c 2c 20 3e
       -0.12599818 -0.2674462 0.22834802 0.15641803
000270 2f 20 c2 3d de d1 97 bb 94 83 4e be a0 b2 18 be
       0.09478795 -0.0046331724 -0.2016738 -0.1491189
000280 74 b6 ec 3c 46 96 82 be 92 db 0b 3e 5e 5b 98 3e
       0.028895594 -0.25505275 0.13657978 0.29757208
000290 83 f2 72 bd 92 c7 d2 bd 7d cd 8a 3d bc 49 d4 bd
       -0.05931331 -0.10291971 0.06777475 -0.10365626
0002a0 31 ce 3c be e9 1b 9d be 4e 11 08 3c 2c 54 08 bd
       -0.18438031 -0.30685356 0.008304907 -0.033283398
0002b0 e0 91 bc bd 5e c8 22 3d 1f c5 02 3c 74 1a ed bc
       -0.09207511 0.039741866 0.007981568 -0.028943278
0002c0 fc 62 64 be a8 af a2 bd f0 b2 43 3d e8 7a 93 bb
       -0.22303385 -0.0794366 0.04777807 -0.0045007356
0002d0 48 52 bb 3d 8a 03 91 3d ea 98 cf bd d4 c0 d9 3d
       0.09146553 0.07080753 -0.10136588 0.10632482
0002e0 8c bb 91 bb f4 8b 59 3e 1a 0e b2 3d ca 12 3a be
       -0.004447406 0.21244794 0.08694096 -0.1817123
0002f0 de ac 9b 3d 25 76 bc 3d ac a7 76 be 64 5a 43 3d
       0.07601331 0.09202222 -0.24087399 0.047693625
000300 95 21 86 3d 76 9b 38 3c 44 e7 35 3d e1 47 48 be
       0.06549374 0.0112675335 0.044410005 -0.1955867
000310 4a 31 22 3d 56 33 e4 3d bb 23 a3 3d f1 1f 15 3e
       0.039597787 0.11142604 0.079657994 0.14562966
000320 72 7c 17 be f8 ab 2d 3e 62 2c 41 3e 3a 37 23 be
       -0.14793566 0.16960132 0.18864587 -0.15939036
000330 22 2e 12 be 26 9f 5c 3d f2 0f 71 bc 42 7b 71 bd
       -0.14275411 0.053862713 -0.014713274 -0.05895544
000340 50 ed c6 3d f2 dd 15 bd 56 2a c5 bd 70 9e 95 be
       0.097132325 -0.036588617 -0.096272156 -0.2922244
000350 da ba 27 bc 96 53 18 3c aa 34 01 be 9a 94 74 bd
       -0.01023742 0.009297272 -0.12617746 -0.05971203
000360 72 bf ca 3c c6 78 76 3d ac a0 a4 be c4 6d 76 3e
       0.024749491 0.060173772 -0.32153833 0.2406531
000370 8e 75 fe bd f1 5a 0c 3d c1 c2 ca bc 52 bf 32 be
       -0.124247655 0.034266416 -0.024751069 -0.17455795
000380 20 cd 5e 3e f4 2c 5d 3e ac 94 1a be da f3 71 3e
       0.21757936 0.2159918 -0.15095776 0.23628178
000390 02 1e d9 3d 1d 9d e2 3d 0b 95 2e bd fa 66 ba be
       0.10601427 0.11065123 -0.042622607 -0.3640669
0003a0 ee 59 03 bd 96 02 9a bc 96 46 f9 3d 18 f8 0e bd
       -0.032068186 -0.018800061 0.12171666 -0.03490457
0003b0 2a 24 b7 3d f2 ec a7 bd 9b 29 a7 be a8 79 24 be
       0.089424446 -0.081994906 -0.3264893 -0.16062033
0003c0 77 85 8c 3c 05 f1 8c bd 56 93 8d 3c 46 32 b9 3c
       0.017153485 -0.06881908 0.01728217 0.02260698
0003d0 3f 9d 24 bd 84 da cd 3b aa 6b 83 3b e2 8c 1d 3e
       -0.040189024 0.0062821526 0.0040106373 0.15385774
0003e0 0e f8 b1 bd 86 bb 83 be 5c b8 cf bd af af b4 3c
       -0.08689891 -0.25729007 -0.10142586 0.022056429
0003f0 0f e0 7e bd 99 ce 0b 3d 1b 61 69 be 97 20 4f ba
       -0.062225398 0.034132574 -0.22790949 -0.00079012796

net.2.bias f4 [32]
000000 1e 6d b1 bd 58 0b 04 3e b8 4e 6f bd 24 19 78 3d
       -0.086633906 0.12894952 -0.05842468 0.06057085
000010 f4 6c 8f 3d 2a e3 63 be 36 c2 89 3d 40 01 06 be
       0.07003203 -0.22254625 0.06726496 -0.13086414
000020 39 4f 82 be 97 ef 7e be 4f 57 f5 3c 26 20 85 be
       -0.25451067 -0.24896084 0.029948859 -0.2600109
000030 7e cd 2e 3d a1 c4 df be 4a 3a 11 3f f0 ac 0a bf
       0.04267644 -0.43704703 0.5672957 -0.5417013
000040 9a d8 0a 3e 96 e0 26 3c 70 23 94 bc 7d 5c 19 be
       0.1355919 0.010185381 -0.018083304 -0.14976688
000050 6a 8d 0d bf 88 ff bc be ef 32 9d be ae 36 be be
       -0.55293906 -0.36913705 -0.30702922 -0.37151092
000060 5b ba f7 3d 55 64 ad 3d 92 e2 21 be 85 e6 77 be
       0.12096091 0.084664024 -0.15809086 -0.2420903
000070 9d 09 1c be 35 08 3e be c0 40 d4 3d da 27 00 3d
       -0.15238042 -0.18557818 0.103639126 0.031288005

net.4.weight f4 [32, 32]
000000 14 84 c0 3d ae 70 db bd f0 8c 4d be 0e aa 44 3e
       0.09400192 -0.10714851 -0.20073295 0.19205496
000010 38 05 6a 3e b8 c7 a7 be 10 5f 04 be dc 67 45 3c
       0.22853553 -0.3276956 -0.12926888 0.012048688
000020 98 0d 93 3d 32 07 7c 3e 2f c3 e1 bd be 37 9c 3e
       0.07180327 0.2461212 -0.110235564 0.30511278
000030 f0 60 29 3e 2e 94 3a 3d f4 d9 61 3e 15 ee bd 3d
       0.16540885 0.04555147 0.22055799 0.09273926
000040 44 9b a2 3e 30 13 29 be 11 68 4b 3e e8 37 01 3e
       0.31759083 -0.16511226 0.19863917 0.12618983
000050 2c cd 99 bc 6c d8 e8 be 98 10 41 be f7 0b 8b 3c
       -0.018774591 -0.45477617 -0.18853986 0.016973479
000060 be 5d 02 be d2 2e 5f bd d2 fc 44 be b8 f9 84 be
       -0.12731072 -0.05448801 -0.19237068 -0.2597177
000070 06 71 e6 bd bb a9 f7 bd 66 e0 1b 3e 82 28 89 bc
       -0.11252026 -0.120929204 0.1522232 -0.016742948
000080 3e 6d 38 be 19 ef 14 3f a8 29 16 3f c2 31 90 be
       -0.18010423 0.58177334 0.5865731 -0.28162962
000090 52 5d 21 3f 52 af 1c be 10 36 95 3e a0 db bc be
       0.6303302 -0.15301254 0.2914281 -0.3688631
0000a0 1b dc db 3d 4c 6f a0 3e 03 92 af be 3e 39 c9 be
       0.10735341 0.31334913 -0.34291086 -0.39301485
0000b0 ee 09 f5 be 94 0e 6b bd 82 5b 6e be 12 0e 70 be
       -0.47859138 -0.05738695 -0.23277095 -0.23442867
0000c0 7a e7 37 be 0c 31 e8 3d a0 7c 35 be dc 71 3e 3e
       -0.17959395 0.1133748 -0.17723322 0.18598121
0000d0 3d 70 af bd 5b da 45 bf 92 cf 56 be bd 37 fa be
       -0.0856633 -0.7728631 -0.2097762 -0.4887065
0000e0 d8 9e af be 18 c4 62 3e 0e ca 19 3f 24 84 b1 3e
       -0.34300876 0.22145116 0.60073936 0.34671128
0000f0 98 66 0c 3e 2e 39 ec 3e b7 ae 1a bf a0 16 bb be
       0.13711011 0.46137375 -0.60422844 -0.365407
000100 12 0f fc 3d 02 96 26 be d8 f9 96 be a4 c4 47 3e
       0.12307562 -0.16268161 -0.2948749 0.19508606
000110 de ba 28 be 08 b4 43 3e 59 b6 ae be 92 64 4e 3e
       -0.16477534 0.19111645 -0.34123495 0.20155552
000120 b8 d9 79 be 9c 22 66 bd 4e 14 ce 3e 82 aa c5 3e
       -0.2439946 -0.05618535 0.40249866 0.3860665
000130 25 31 a3 3e e4 2c ab 3e b8 a4 c0 3c 9e 86 db 3d
       0.31873432 0.33432686 0.023516044 0.107190356
000140 4a 69 a2 3e 3d 97 dd be 76 54 d9 3e 39 5c 62 3e
       0.31720954 -0.43279448 0.4244725 0.22105493
000150 ca 9d 90 3e ba dd b7 3c 97 c4 af 3e e0 25 bd 3e
       0.28245384 0.022444595 0.34329674 0.3694296
000160 01 c7 75 3e ca 0e 87 be 80 e4 7e be 92 80 13 bf
       0.24001695 -0.2637847 -0.24891853 -0.5761806
000170 81 2b 8a 3e c6 2a 1a be a8 f9 4c 3e 84 8e 7a 3e
       0.26986316 -0.1505538 0.20017111 0.24468428
000180 12 c1 da bd dc f7 42 3d f0 61 5d be 57 56 53 be
       -0.106813565 0.04759966 -0.21619391 -0.20638405
000190 64 af a6 be d5 8e ef bd c8 5f 32 3f 60 dd 2d 3e
       -0.32555687 -0.11697165 0.696774 0.16978979
0001a0 42 2e e2 3e ec 01 9c be 6e 81 1a be 01 48 a7 3e
       0.44175917 -0.30470216 -0.15088436 0.32672122
0001b0 cc 2e 85 3e 18 0a 1d be 06 da 03 bf 0d a9 19 3f
       0.26012266 -0.15335882 -0.5150455 0.60023576
0001c0 92 bc c5 3e aa 45 24 3e 58 b1 20 bf ae fa 96 be
       0.3862043 0.160422 -0.62770605 -0.29488128
0001d0 84 71 22 3e 7c 6d e7 3e 23 77 b6 bc 86 ff 21 be
       0.15863615 0.45200717 -0.022273606 -0.1582013
0001e0 b0 a2 3b bf 07 b6 18 be 56 10 18 be e2 c4 29 3f
       -0.73295116 -0.14913188 -0.14849982 0.66316044
0001f0 61 ce 3e 3f b2 54 04 bf 41 13 62 be a4 88 17 bd
       0.7453366 -0.51691735 -0.22077657 -0.036995545
000200 d5 4d c2 3d 8a 4c bd bd d9 71 c9 3c 1b 52 64 3d
       0.094875015 -0.09243114 0.02459042 0.055742364
000210 69 9e f0 3d c2 c2 a8 3e 0a 93 00 be 8c 1c 68 bd
       0.11748964 0.32961088 -0.12556091 -0.05666785
000220 12 7a 35 3d 85 3e 63 bd db bf 33 bb 9a 5c bc 3d
       0.04430587 -0.055479545 -0.0027427587 0.0919735
000230 38 2b 84 3e 8c f7 33 3e 70 49 37 3e 0a 5d 3b be
       0.25814223 0.175749 0.17899108 -0.1829721
000240 f6 57 fe 3d b3 bf 5b be 7e f6 b7 3d 28 2f 84 3d
       0.12419121 -0.21459846 0.089825615 0.06454307
000250 70 64 1e 3e 9c fb 2d bf 00 fc 33 be ce 90 db 3e
       0.15468001 -0.6796205 -0.17576599 0.42883915
000260 9d 47 9d 3e a0 a2 7c be 10 c5 d8 bd 61 92 d8 bd
       0.307187 -0.24671412 -0.10584462 -0.105747946
000270 9c b7 32 be 03 be e1 bd c4 65 42 3e c2 6b 4b 3d
       -0.17452854 -0.1102257 0.18984133 0.049663313
000280 f6 69 08 be 4c 7f 84 3d c1 fa c0 bd 02 9c 01 3d
       -0.13321671 0.064695925 -0.094228275 0.03164292
000290 77 b1 8f 3d 32 e5 83 be 6e 69 c4 be a6 c7 7a 3d
       0.070162706 -0.257608 -0.38361686 0.061225556
0002a0 21 e3 a9 be 0a 43 8f bc 30 3f 18 3e f0 48 06 be
       -0.33181098 -0.017488021 0.14867854 -0.13113761
0002b0 62 6f 08 3c 04 fe 48 be 67 c9 c0 3e 1f 32 48 3e
       0.008327337 -0.1962815 0.37653658 0.1955037
0002c0 46 32 56 3e 04 de 52 be 4c bd 8a 3d 5c 80 86 be
       0.20917615 -0.20592505 0.06774387 -0.26269805
0002d0 04 e6 5a be b4 5a 2c be 96 1d 08 be 95 1d 9a 3e
       -0.21376806 -0.16831475 -0.13292536 0.30100694
0002e0 7f 7d 88 3e 18 c4 45 3d c6 1b 0c be 26 68 2b bf
       0.26658246 0.048282713 -0.1368247 -0.6695579
0002f0 3e c7 55 bc 3e 28 5b be c6 70 ef 3d 6f f0 e1 bc
       -0.013047991 -0.2140207 0.11691432 -0.027580468
000300 d9 5e a3 3c f0 69 8d be 1e a3 fd be 12 21 bc 3d
       0.019942688 -0.27619886 -0.4953851 0.09185995
000310 ee 0e b5 bd c6 0e 00 3e 56 f1 d2 be 44 37 16 3e
       -0.08840738 0.12505636 -0.4119975 0.1466952
000320 36 f8 a7 3e ac de 99 3d a9 a5 5a bd 34 6b 08 3f
       0.32806557 0.075131744 -0.053380642 0.5328858
000330 04 cb fc 3e 29 ea 84 3e 6e 9b c1 be 11 86 89 3d
       0.4937364 0.259599 -0.37813896 0.06715024
000340 f6 f3 ba 3d 1d 0e 28 be ac 2e 12 3e d8 80 c1 3c
       0.09128563 -0.16411634 0.14275616 0.023621008
000350 9e f6 eb 3e 51 88 48 3e b4 a4 75 3e 41 70 1a bf
       0.4608659 0.1958325 0.2398861 -0.60327536
000360 5b e7 b0 3e 1c 8a a1 be 04 86 d9 be 60 55 03 bf
       0.3455151 -0.31550682 -0.42485058 -0.51302147
000370 d1 83 d6 3e c2 c9 c1 be 6c 6f 84 3e e2 8d 84 3e
       0.41897443 -0.37849241 0.25866258 0.25889498
000380 cb e4 b3 be 79 c4 1f 3e bc c9 8b 3e dc 4c 1f 3e
       -0.35135493 0.15602292 0.2730235 0.15556663
000390 92 e2 a8 3e 69 ba b5 be 4a 43 67 be df e3 04 be
       0.3298536 -0.35493782 -0.22584262 -0.12977551
0003a0 c4 f4 0b bf 7a 26 db be f1 a8 60 bc 0e 57 1f bb
       -0.5467036 -0.42802793 -0.013712154 -0.0024313363
0003b0 1f a9 78 be ae 62 91 3c 3a 78 a5 3e 20 a1 21 3f
       -0.24283265 0.01774725 0.32318288 0.6313648
0003c0 09 a4 1c bd 18 6c 5d be 6c a1 85 3d 38 3e 40 bd
       -0.038242374 -0.21623266 0.065249294 -0.046934336
0003d0 77 f9 80 be 88 88 3b 3e f0 f1 ff bd ce ed c8 3e
       -0.25190327 0.18313801 -0.12497318 0.3924393
0003e0 ec e4 3b bd a6 b3 2f bc bc 31 46 3e b2 dc 8b bf
       -0.045872614 -0.010723984 0.1935491 -1.0926726
0003f0 c6 c8 ed 3d ba 92 16 3f 5f 9e 83 be 16 73 96 be
       0.1161056 0.58817637 -0.25706765 -0.2938468

net.4.bias f4 [32]
000000 c2 b9 c9 3d c5 22 ec be 16 6e 54 3c 34 74 88 be
       0.098498836 -0.46120277 0.0129657 -0.26651156
000010 86 e3 b5 3d 5a 65 37 3e 12 37 e4 bd 7c 49 d9 3d
       0.08881287 0.17909756 -0.11143316 0.10609719
000020 9c 5c 4b be 28 9e 45 3e 39 c8 55 be 55 6f 4d be
       -0.19859546 0.19298613 -0.2087716 -0.20062001
000030 42 41 65 3e f4 69 f2 3d 0f 02 d3 3d 90 74 23 3e
       0.22388175 0.11836615 0.10303127 0.15962434
000040 07 fb b2 3d 52 61 6b be 78 30 c4 be b1 87 6d bc
       0.08739286 -0.22986344 -0.3831823 -0.014497683
000050 d0 da 02 be 3a 0c 54 3d b1 90 52 3e bd ca 01 3d
       -0.12778783 0.051769473 0.20563008 0.031687487
000060 e5 8e 12 3e 11 ff 00 3e 9d 13 80 3e 78 9b 72 be
       0.14312322 0.125973 0.25014964 -0.23692119
000070 1f ae cc 3d f7 61 b8 bd d6 7d be 3d 16 9c 44 3e
       0.099941485 -0.0900306 0.09301345 0.19200167

net.6.weight f4 [1, 32]
000000 0f c7 34 3f 10 17 66 bf 05 8e 06 c0 95 b9 22 3f
       0.7061624 -0.8987894 -2.1024182 0.63564426
000010 3e b2 e7 3e f6 91 24 3f 64 1c 1a 3f db 8f f9 3e
       0.45253175 0.6428522 0.6019957 0.48742566
000020 ad ef 5d 3f a4 e5 15 bf a7 6b 2e bf be 06 2a 3f
       0.8669384 -0.5855353 -0.68133014 0.6641654
000030 27 e5 68 3e 46 ae 5b bf 98 b7 e6 3e 64 39 ee 3e
       0.22743665 -0.85812795 0.45061946 0.4652816
000040 5e 98 2d 3f de ec 93 3e 4a 3e b2 3f 07 38 40 bf
       0.6781062 0.28891653 1.3925259 -0.7508549
000050 98 78 e9 3e 94 b3 13 3f 9c 7b e2 be ca 07 d2 3e
       0.45599818 0.5769589 -0.4423493 0.41021568
000060 4c 25 8c 3e 3d ed eb 3e 1a 20 96 bf 8e dc 1c 3f
       0.27372205 0.46079436 -1.1728547 0.6127404
000070 eb 14 02 3f 91 46 8d 3f 04 a6 2d bf ee 20 58 bf
       0.5081317 1.103716 -0.67831445 -0.84425247

exp_avg f4 [256, 120]
000000 79 90 0a b7 d5 7a 0c b6 f5 d7 11 b7 4e d8 7e b6
       -8.259079e-06 -2.0933123e-06 -8.692955e-06 -3.7974855e-06
000010 71 f4 8f b7 ba 4c 89 b7 67 0b ef b7 50 12 08 b7
       -1.7160755e-05 -1.6367401e-05 -2.849633e-05 -8.110495e-06
000020 66 a8 70 36 26 81 d5 37 0b 34 cc 35 e7 4d 2a b4
       3.5860808e-06 2.5451718e-05 1.5214331e-06 -1.5860824e-07
000030 4b 21 06 b8 e0 2f 78 37 37 eb 0c 37 1c 03 75 36
       -3.1979096e-05 1.4793099e-05 8.3994155e-06 3.6509655e-06
000040 96 9f 0f 38 18 91 ce 37 a9 a6 3a 38 45 7f e4 37
       3.4242483e-05 2.4624678e-05 4.450107e-05 2.7238983e-05
000050 ce 38 48 37 e8 96 94 b7 62 0d 32 38 e2 2a aa b6
       1.1934155e-05 -1.7713246e-05 4.245097e-05 -5.071387e-06
000060 48 2c 22 38 5e ba 8c 38 9f 19 5b 38 1f 10 8b 37
       3.866505e-05 6.710434e-05 5.223753e-05 1.6577598e-05
000070 4d 7e 57 38 a8 00 2e 36 3f ce b3 37 fa 8d 3e 38
       5.137762e-05 2.5928402e-06 2.1434504e-05 4.5431756e-05
000080 52 53 a0 b7 7b e7 75 b7 87 78 44 38 de b5 85 37
       -1.9112285e-05 -1.4657034e-05 4.684229e-05 1.5939524e-05
000090 f9 e8 7e 38 b2 b4 0c 38 87 62 e1 37 f5 d4 04 38
       6.077529e-05 3.3546887e-05 2.686797e-05 3.1669584e-05
0000a0 95 ad 99 b6 20 78 06 38 3d 59 f3 36 0f 84 97 37
       -4.579963e-06 3.2059965e-05 7.252353e-06 1.8062097e-05
0000b0 57 c2 5f 36 06 de f6 36 20 21 45 b6 a4 da b0 36
       3.334271e-06 7.3572182e-06 -2.9374569e-06 5.270662e-06
0000c0 ba e4 b9 34 40 ae 62 b7 00 48 03 b8 3f 78 c0 35
       3.4625356e-07 -1.35112205e-05 -3.129989e-05 1.4340111e-06
0000d0 dc 18 97 b7 59 d0 1a b7 37 98 51 b7 5a 48 0c b8
       -1.8012179e-05 -9.227625e-06 -1.2492811e-05 -3.3445984e-05
0000e0 7f 7e a6 b6 5f 11 96 b6 b1 e5 b2 b7 ce 4f be b6
       -4.9619116e-06 -4.4723706e-06 -2.1326212e-05 -5.6717317e-06
0000f0 bd d8 a7 b7 c3 de a1 b6 9f af 97 b5 a6 5d f1 b6
       -2.0008878e-05 -4.824107e-06 -1.1301489e-06 -7.193262e-06
000100 d2 4e 57 b7 5c 24 05 b7 0d 82 0c b7 6d a7 d1 b6
       -1.283335e-05 -7.935883e-06 -8.37493e-06 -6.2481763e-06
000110 0d 51 d6 b6 b0 ff 45 b7 0c 9b c7 36 fd 8a 5b b7
       -6.3871325e-06 -1.1801647e-05 5.948712e-06 -1.3085778e-05
000120 f4 e2 f6 b6 f1 56 36 b7 a6 a7 61 b7 56 e0 3a b7
       -7.357792e-06 -1.0868288e-05 -1.3450079e-05 -1.1138696e-05
000130 7d 2a 3f b7 74 6c 77 b7 85 d8 f6 b5 85 db 3d b7
       -1.139438e-05 -1.47475985e-05 -1.8391444e-06 -1.1316389e-05
000140 7f 23 02 b7 b3 f3 df b6 4b 5e 3a b7 2f 2f f3 b6
       -7.756868e-06 -6.674288e-06 -1.1108418e-05 -7.2474572e-06
000150 31 45 fe b6 22 1b e6 b6 8b 75 05 b7 a0 1d d2 b6
       -7.577845e-06 -6.857693e-06 -7.954785e-06 -6.2619365e-06
000160 4e 11 f6 b6 5a 04 09 b7 9f 50 f8 b6 ae 73 fb b6
       -7.333386e-06 -8.1668495e-06 -7.4003615e-06 -7.49385e-06
000170 4f 7d 25 b6 73 de 07 b7 0b 89 22 b7 f0 6b 0d b7
       -2.4659855e-06 -8.09842e-06 -9.68786e-06 -8.429386e-06
000180 cf a5 51 b7 8f 9e 36 b7 50 6a 10 b7 0f 5d 00 b7
       -1.2495976e-05 -1.0884963e-05 -8.607822e-06 -7.651061e-06
000190 b7 97 49 b7 d5 61 3a b7 46 ec 78 b7 f3 28 89 b6
       -1.20158575e-05 -1.1109242e-05 -1.4836964e-05 -4.0876853e-06
0001a0 1b 08 42 b7 f5 42 66 b6 8a c3 59 b7 bf 58 2b b6
       -1.1565188e-05 -3.4311645e-06 -1.2979735e-05 -2.5532643e-06
0001b0 ad e3 90 b6 c8 e4 33 b7 cc 0f db 36 9b e6 0f b7
       -4.3180394e-06 -1.0722499e-05 6.5285476e-06 -8.577156e-06
0001c0 f1 4d 7b 35 33 da c7 b5 73 91 96 b7 7d ca 1b b7
       9.3618206e-07 -1.489016e-06 -1.7949124e-05 -9.285865e-06
0001d0 ee 46 30 b7 39 6e ef b6 dc 99 81 b7 bc 79 e7 35
       -1.0506932e-05 -7.1355867e-06 -1.5449645e-05 1.724627e-06
0001e0 35 b3 82 b7 0a fa 0a b7 8e b5 1c 37 a2 ac a5 37
       -1.5580657e-05 -8.283658e-06 9.340596e-06 1.9749921e-05
0001f0 5b 44 01 37 ef 9b 0b b8 d1 8c 00 b7 19 10 90 b8
       7.704914e-06 -3.3285407e-05 -7.662181e-06 -6.8694535e-05
000200 28 64 9d 37 fd c2 b7 37 cf 19 e0 b6 16 bf a2 37
       1.8762497e-05 2.1906098e-05 -6.6787247e-06 1.9400886e-05
000210 e2 bc e1 37 0f eb 42 38 ab f1 d0 b7 96 c4 92 b7
       2.6910046e-05 4.647212e-05 -2.4908068e-05 -1.7496099e-05
000220 63 d2 44 b8 9b 27 53 36 af fc 56 b8 c7 91 18 b8
       -4.692598e-05 3.1464504e-06 -5.1256906e-05 -3.637539e-05
000230 5a 50 12 b8 7f d0 4d 38 0e 65 50 b6 55 b7 ac 37
       -3.4883946e-05 4.9069986e-05 -3.1053237e-06 2.0589368e-05
000240 ad 82 61 b8 9e ce 08 b8 fe e2 36 b7 c1 74 94 36
       -5.376588e-05 -3.2617354e-05 -1.0900896e-05 4.4243357e-06
000250 b4 f0 fb b7 07 86 0e b8 db d5 f5 b6 71 bb 3c b8
       -3.0033618e-05 -3.398026e-05 -7.326465e-06 -4.499726e-05
000260 34 80 9f 37 f5 3c 2a 38 a7 4d 4b 37 42 44 22 b8
       1.9013976e-05 4.058793e-05 1.2117823e-05 -3.868738e-05
000270 47 68 d1 37 a7 da 03 38 3a 83 44 b8 26 17 eb b7
       2.49633e-05 3.143647e-05 -4.6852256e-05 -2.8024962e-05
000280 c2 c2 6e b8 c4 21 29 36 4d 2f c2 b7 e8 6d 3b b8
       -5.6925004e-05 2.5202617e-06 -2.3148628e-05 -4.4686632e-05
000290 7c 43 4e b7 14 63 9b 37 bc c8 f5 b7 79 da ff 37
       -1.2294269e-05 1.8523577e-05 -2.929975e-05 3.0500103e-05
0002a0 b7 e2 cc 37 33 28 54 34 1f 9c 0f 38 64 a6 60 b5
       2.4424267e-05 1.9758663e-07 3.4239256e-05 -8.3688633e-07
0002b0 44 1d 8d b7 99 5e 01 38 c0 bd 97 37 eb 01 a0 37
       -1.6822138e-05 3.0844098e-05 1.8088962e-05 1.907438e-05
0002c0 15 a7 77 35 1c 03 26 36 d7 de 15 b8 54 ee 49 37
       9.2257807e-07 2.4737737e-06 -3.5731904e-05 1.2036024e-05
0002d0 50 fc 0b 36 79 c0 f2 b6 c0 eb 97 b6 50 ac 6b 36
       2.085948e-06 -7.234569e-06 -4.5275956e-06 3.5118028e-06
0002e0 51 df 12 37 43 63 c0 37 ea 24 b7 37 2d a6 84 35
       8.754273e-06 2.2934406e-05 2.183249e-05 9.88313e-07
0002f0 c9 5a 3f 37 c3 18 ea 37 33 e1 37 b7 62 55 9b 36
       1.1405625e-05 2.7906504e-05 -1.0960083e-05 4.6293e-06
000300 df 56 8a 34 2b 20 65 36 9f b9 82 b7 d8 73 af 37
       2.576771e-07 3.4142383e-06 -1.5583644e-05 2.091557e-05
000310 4a 05 4c 37 15 82 96 37 c3 e4 21 37 61 48 6b 35
       1.2160579e-05 1.7941968e-05 9.649611e-06 8.764965e-07
000320 38 47 59 37 79 0d 9c b4 7e f8 26 37 29 f5 34 37
       1.295079e-05 -2.9067067e-07 9.952228e-06 1.0785917e-05
000330 aa a8 0a 37 66 6d d1 36 04 e0 71 36 9e 23 89 37
       8.264711e-06 6.241421e-06 3.6042193e-06 1.6348258e-05
000340 ba 8f 4a 37 5b 9a a0 37 89 34 ee 36 28 c7 1a 37
       1.2073602e-05 1.9145364e-05 7.0990686e-06 9.225485e-06
000350 79 bd 1c 36 6c e0 de 36 0f 1b 4f 36 b4 d9 5b 37
       2.33561e-06 6.6422417e-06 3.0861154e-06 1.3104105e-05
000360 d3 07 a1 37 a2 16 82 37 1d 33 9e 37 80 00 23 37
       1.9196339e-05 1.5507747e-05 1.885887e-05 9.7156735e-06
000370 37 60 a5 37 9c 79 c3 b7 f0 81 12 37 d9 d4 f2 36
       1.9714336e-05 -2.330244e-05 8.732532e-06 7.2369407e-06
000380 7f 4c 04 b7 c1 8d 0b b8 0d ea 55 37 bb df 66 36
       -7.885624e-06 -3.32722e-05 1.27502835e-05 3.44029e-06
000390 22 ef 43 37 ab 8f 93 37 48 46 c0 b7 49 a8 cf 37
       1.1678583e-05 1.7590666e-05 -2.292091e-05 2.4754687e-05
0003a0 69 28 df b7 16 f5 85 36 dd 53 25 b5 44 15 2d b6
       -2.6602489e-05 3.9922406e-06 -6.1589327e-07 -2.5791387e-06
0003b0 e6 82 05 38 4c 57 0a b8 22 84 b7 37 f8 ff 82 b7
       3.183158e-05 -3.2983065e-05 2.187683e-05 -1.5616402e-05
0003c0 16 97 76 b6 d7 29 0a 37 86 76 83 36 5c 98 9a 37
       -3.67448e-06 8.235183e-06 3.917902e-06 1.8429178e-05
0003d0 71 1e 4b 37 5e db 39 b7 30 8e 6a b5 1b 78 48 b7
       1.2106831e-05 -1.1077935e-05 -8.7378703e-07 -1.1948893e-05
0003e0 1a 05 5f 37 96 92 0f b7 a2 1b d0 b7 3b 5e 3d 33
       1.3293024e-05 -8.557594e-06 -2.48084e-05 4.4090694e-08
0003f0 10 00 75 37 8a b1 1a 35 01 64 df 37 22 31 6d 36
       1.46031525e-05 5.7627824e-07 2.663024e-05 3.534435e-06

exp_avg_sq f4 [256, 120]
000000 41 a2 85 31 21 62 a1 31 6f 3c 82 31 bc ba 90 31
       3.8892556e-09 4.6968727e-09 3.7903685e-09 4.212181e-09
000010 c2 42 ad 31 5c 3b ae 31 58 6c c3 31 d1 8e dd 31
       5.042552e-09 5.070815e-09 5.687564e-09 6.448183e-09
000020 94 a6 3f 32 7a f2 80 32 cc 09 b1 31 fa cd 76 31
       1.1155539e-08 1.5011427e-08 5.1524918e-09 3.5914796e-09
000030 33 b8 fd 32 8e 48 12 33 ab 9f 2c 33 51 93 ef 32
       2.953684e-08 3.4059262e-08 4.0192088e-08 2.7890254e-08
000040 09 17 88 33 55 d8 68 33 ec bc 93 33 7c 96 48 33
       6.3371836e-08 5.4213462e-08 6.8795856e-08 4.6702993e-08
000050 8f 85 20 33 2e 09 34 33 dc 43 69 33 ae 8f 5b 33
       3.7374374e-08 4.1917865e-08 5.4311258e-08 5.1120587e-08
000060 b7 bb 0f 33 3f 19 71 33 7f 7d 7a 33 75 2b 8e 33
       3.3465508e-08 5.6135146e-08 5.83218e-08 6.620295e-08
000070 79 1c 11 33 82 7f 78 33 57 83 34 33 87 67 56 33
       3.378634e-08 5.7857967e-08 4.202897e-08 4.9919915e-08
000080 e6 2e 68 33 6c c6 98 32 00 51 3f 33 3c 75 33 33
       5.4059363e-08 1.778536e-08 4.4544322e-08 4.178331e-08
000090 24 11 30 33 e1 3b 87 33 b1 0e 71 33 6c 74 a1 33
       4.0993783e-08 6.297319e-08 5.6125547e-08 7.518324e-08
0000a0 f9 f0 63 33 76 7d 29 33 e0 36 eb 32 ac df 0b 33
       5.307172e-08 3.9462485e-08 2.7382555e-08 3.2566888e-08
0000b0 31 1b fc 31 00 61 16 32 bf 12 87 31 78 62 03 33
       7.3372566e-09 8.753204e-09 3.9311483e-09 3.059037e-08
0000c0 94 92 90 32 21 70 b7 31 b2 1a e6 31 7b 22 df 31
       1.6830462e-08 5.3387486e-09 6.696916e-09 6.494074e-09
0000d0 22 4e bb 31 30 0b aa 31 c7 54 ad 31 92 d4 15 32
       5.451299e-09 4.948923e-09 5.0446007e-09 8.721274e-09
0000e0 00 1d a8 31 94 30 b4 31 6e 24 b6 31 ad 16 81 31
       4.8927404e-09 5.244212e-09 5.3010387e-09 3.756972e-09
0000f0 c4 b0 86 31 d9 b6 aa 31 b0 0d be 31 46 65 a7 31
       3.920009e-09 4.9684385e-09 5.531284e-09 4.871853e-09
000100 5d b2 8b 31 85 17 d6 31 ba 00 e8 31 18 55 72 31
       4.06571e-09 6.2308936e-09 6.7521713e-09 3.5264005e-09
000110 06 16 5e 31 64 43 b1 31 49 2a e0 31 dd 32 89 31
       3.231777e-09 5.1590394e-09 6.5240653e-09 3.9930073e-09
000120 55 f0 88 31 4f 50 a0 31 18 85 b4 31 88 17 73 31
       3.9854435e-09 4.665743e-09 5.2538205e-09 3.537453e-09
000130 6f 64 5d 31 0a 45 a0 31 ab bd 9b 31 1c ef 75 31
       3.2216823e-09 4.6644617e-09 4.5326565e-09 3.578811e-09
000140 5f c3 57 31 a6 93 63 31 d4 ae 6b 31 e2 9a 59 31
       3.1397673e-09 3.3116776e-09 3.429638e-09 3.1665697e-09
000150 1e c5 54 31 f9 f4 5f 31 30 ff 61 31 98 ca 5c 31
       3.0962108e-09 3.2590022e-09 3.2886867e-09 3.2129375e-09
000160 d0 72 5e 31 6c d4 54 31 18 b4 57 31 0f 7f 52 31
       3.2370515e-09 3.0970808e-09 3.138899e-09 3.0631246e-09
000170 77 39 57 31 f6 8f 66 31 57 c8 54 31 5b 66 57 31
       3.1319283e-09 3.3551237e-09 3.096394e-09 3.13448e-09
000180 11 1f 5e 31 0a 58 5e 31 a0 c7 71 31 80 31 58 31
       3.232291e-09 3.2355296e-09 3.518359e-09 3.1460274e-09
000190 2e 2b 6c 31 9a 66 83 31 b2 14 8e 31 69 91 64 31
       3.4367065e-09 3.8242662e-09 4.1350967e-09 3.3261023e-09
0001a0 20 7f 8d 31 3e a8 ad 31 41 2a 9f 31 34 41 6d 31
       4.1180925e-09 5.0540896e-09 4.6323128e-09 3.4525103e-09
0001b0 4b a7 7f 31 96 13 d8 31 29 62 cb 31 b9 b0 99 31
       3.7202479e-09 6.288654e-09 5.919237e-09 4.472977e-09
0001c0 32 45 ca 31 08 fe db 31 3c b4 ba 31 95 fb 8b 31
       5.8868403e-09 6.402619e-09 5.4338027e-09 4.074034e-09
0001d0 ed 32 d2 31 aa 9a f3 31 d3 ee 01 32 2c 3d b6 31
       6.117594e-09 7.089814e-09 7.563091e-09 5.3038516e-09
0001e0 78 b6 01 33 af 0f 9f 32 8c 41 c7 32 91 86 e9 32
       3.0201107e-08 1.8517168e-08 2.3196456e-08 2.7185964e-08
0001f0 d1 18 07 33 01 8e 57 33 d9 64 6a 33 cc 62 83 33
       3.1454707e-08 5.018774e-08 5.457409e-08 6.118134e-08
000200 8e e5 e2 33 f0 a0 5f 33 b1 4f 13 33 5a bc 25 33
       1.0565701e-07 5.2067605e-08 3.4298584e-08 3.858836e-08
000210 4d 8b dd 33 5b 85 8f 33 5f e6 b9 33 cb ca e9 33
       1.0316453e-07 6.6832136e-08 8.656638e-08 1.0886796e-07
000220 5e ba 97 34 1d 9d 2a 34 6f 24 1f 34 3e 92 f3 33
       2.8261542e-07 1.5889641e-07 1.4821283e-07 1.13421706e-07
000230 31 1a 20 34 3f 07 0f 34 ab 24 3b 34 f1 f4 57 34
       1.491069e-07 1.3320549e-07 1.7429072e-07 2.0112545e-07
000240 44 11 2b 34 fb 77 67 34 b5 ea 74 34 18 e4 6f 34
       1.5931897e-07 2.15572e-07 2.2809657e-07 2.234159e-07
000250 c2 45 a8 34 11 52 93 34 bf e3 72 34 88 c4 03 34
       3.1343194e-07 2.7440595e-07 2.262086e-07 1.2271823e-07
000260 ae 8c 41 34 2a 1b 3e 34 13 49 00 34 ce 25 d4 33
       1.8025705e-07 1.7705011e-07 1.1947513e-07 9.878896e-08
000270 58 49 06 34 e7 62 10 34 b9 4a 04 34 bb 14 63 34
       1.2506405e-07 1.3447026e-07 1.2320642e-07 2.1148564e-07
000280 33 d8 16 34 fe 8a f0 33 44 89 de 33 91 65 aa 33
       1.4048491e-07 1.12011534e-07 1.0362649e-07 7.934717e-08
000290 16 f7 fe 32 f2 df 79 33 08 eb 85 33 95 59 e6 33
       2.9681853e-08 5.8178507e-08 6.236047e-08 1.07265045e-07
0002a0 b6 ab 8e 33 a2 e2 20 33 13 f5 34 33 94 08 19 33
       6.643624e-08 3.7459024e-08 4.213241e-08 3.563089e-08
0002b0 4b a2 b7 32 a8 dd cf 32 31 0a e3 32 fc 98 04 33
       2.1377806e-08 2.419877e-08 2.6430913e-08 3.0872783e-08
0002c0 23 16 c2 32 72 2d 03 33 35 ae 13 33 71 a5 c3 32
       2.2594639e-08 3.0542147e-08 3.4384545e-08 2.2776222e-08
0002d0 46 28 86 32 51 87 b8 32 23 88 d9 32 13 6e fc 32
       1.5617967e-08 2.1481954e-08 2.5324033e-08 2.9386717e-08
0002e0 c2 1c 91 32 8f 29 eb 32 c7 5b 01 33 e9 2b 88 32
       1.68933e-08 2.73765e-08 3.0118624e-08 1.5852452e-08
0002f0 11 77 77 32 a9 3d a9 32 b5 22 cd 32 b3 da a0 32
       1.4404365e-08 1.970223e-08 2.3880924e-08 1.8725904e-08
000300 ff b6 74 32 cb d9 a4 32 5e e5 a8 32 1f 8c 76 32
       1.4244278e-08 1.9191154e-08 1.9662078e-08 1.4350944e-08
000310 92 c6 4b 32 c3 d9 91 32 47 41 90 32 44 59 68 32
       1.1861305e-08 1.6979248e-08 1.6793491e-08 1.3524474e-08
000320 4c d5 49 32 00 ec 5b 32 78 9f 54 32 ec b3 4b 32
       1.1748238e-08 1.2801138e-08 1.2376283e-08 1.1857065e-08
000330 8f 15 44 32 56 bb 4d 32 8c f9 5e 32 38 e2 50 32
       1.1413603e-08 1.1975166e-08 1.2978841e-08 1.215863e-08
000340 f5 08 53 32 09 1f 5d 32 29 eb 4d 32 87 86 45 32
       1.2283853e-08 1.287095e-08 1.198604e-08 1.1497497e-08
000350 34 87 50 32 ad 1f 76 32 42 4c 5b 32 f5 61 4f 32
       1.2137935e-08 1.4326287e-08 1.2764817e-08 1.2071259e-08
000360 7f a9 80 32 4d 4c 99 32 1b 8d 7d 32 46 64 4e 32
       1.4978239e-08 1.7846242e-08 1.4758622e-08 1.2013578e-08
000370 b4 7f 76 32 41 2c b9 32 ac 7a 8d 32 d5 f6 69 32
       1.4348121e-08 2.1556959e-08 1.6470345e-08 1.3618508e-08
000380 66 29 96 32 81 58 02 33 1e 27 cd 32 0f 04 60 32
       1.7481124e-08 3.0348478e-08 2.388293e-08 1.3039439e-08
000390 db 5f 6c 32 5b fd 06 33 b8 d2 09 33 de aa a9 32
       1.3758803e-08 3.142973e-08 3.2089446e-08 1.975189e-08
0003a0 57 0d d3 32 ce fb f2 32 93 cb eb 32 cd 68 92 32
       2.45697e-08 2.8287015e-08 2.7450175e-08 1.7044295e-08
0003b0 fc d7 9e 32 66 33 0d 33 17 35 1d 33 62 56 d1 32
       1.849184e-08 3.2875867e-08 3.6602696e-08 2.4370085e-08
0003c0 23 65 b4 31 a7 be 46 31 b5 b1 4e 31 ca aa 7e 31
       5.2501874e-09 2.8921165e-09 3.007796e-09 3.7058947e-09
0003d0 40 e5 9e 31 34 c6 12 32 d1 13 18 32 69 e3 97 32
       4.624468e-09 8.543385e-09 8.85207e-09 1.7682128e-08
0003e0 f3 46 91 32 dd e7 31 32 e7 65 09 32 e0 45 1b 32
       1.6912486e-08 1.0355476e-08 7.9976195e-09 9.038075e-09
0003f0 e9 db 4a 32 85 a9 86 32 50 f9 e5 32 a2 e9 06 33
       1.1807949e-08 1.5676742e-08 2.6772483e-08 3.1411794e-08
