Training/PyTrainer/epoch=57.ckpt (torch, 654085 bytes, 28 tensors)

net.0.weight f4 [256, 120]
00000000: fe4c e3bc f487 89bd 48b8 bebc cc0c a6bc
00000010: 420b f1bc 35fc a5bd 1bfb 1bbd c24a 2abd
00000020: 6a0f cdbb 9ca2 85bd c834 06bd 30e8 0d3c
00000030: 98f6 15bc 12e9 c13b 1387 7dbc d8b3 d2bc
00000040: c0e9 36be dd19 61be f4ec a63c 3d67 0abc
00000050: 7a82 c8be 5487 dbbb d200 263c 26ea 39bc
00000060: f8c2 f7be 1622 9bbc f5ad fd3b 46a0 653c
00000070: 0e48 323d 927f a33c 7ecd 483d 8076 6c3c
00000080: 9b8a aa3c 8b8b a83b 0a09 e43c 17f1 c93c
00000090: 1eae 9a3c b19e 573c 7080 c03c c2c1 60bb
000000a0: 1285 17bc 3a83 59bc 0aaf 8bbd bcde 5e3b
000000b0: e2f3 c43c a337 9cbd 96b7 133c 531b 393b
000000c0: 7aef fabd c6fd 083f 0688 c63c 31c6 d63c
000000d0: 4634 de3d 1b68 593d 1867 d03b 04c5 be3c
000000e0: abbc 0fbd fe8a fbbc 7298 93bc 7a50 adbc
000000f0: ec4a 47bd 66fa 0abd 886d 8cbc 1f9a 453b
00000100: 7ee3 26bc 27a3 f5bc 1bd8 453c 0812 7d3c
00000110: b002 1ebd ff2c 9cbc 8c1e 253c 0259 083d
00000120: dcfb a5bd 20ca e6bb 690a 9c3c ed85 ae3b
00000130: 082a 7b3d 9e15 03bd e133 073b 884c a3bc
00000140: 57c6 dd3d 08ce 7c3d 5bc3 033d ac30 a73d
00000150: 18c7 353e 6a1b 403e 4c12 47bc b6d8 063d
00000160: 1637 963e b014 283e fc0b 223e c7df 4f3e
00000170: f6b0 853e d4e8 f53d 788a 033e 1036 083e
00000180: 6ab3 c43d 9559 193d b63d bc3d 19b8 1a3e
00000190: e0c4 8c3d e42e 303d 98bf c13c e04a 9a3d
000001a0: ea88 403e 3c0b 8ebd 56a3 2c3d c211 283d
000001b0: 3aab 0dbd 0b23 10bd 00f3 6f3c 52d2 5e3c
000001c0: e8bb 6fbd ba65 283d e0ab f33a 14d3 183c
000001d0: 67c8 e8be 62d9 173e 1aee bc3c 264d 83bc
000001e0: dc07 6e3c 5810 0e3b 2c8f e9bd dd42 3ebe
000001f0: a890 0f3d 3084 d73c 60e0 37be 1d5b 30be
00000200: c74c 4b3c 809b b23d 3476 02be ec6d 17be
00000210: c425 823d e401 683d e61b 493d 20eb cf3c
00000220: fe03 a53d 67f9 a43d 9c8b 6c3c acc7 d03c
00000230: 73c4 c73d 5cf9 023d a011 3fbd 74f5 0e3c
00000240: 1233 053e 4bae 713c 5770 f13d 803f c9bd
00000250: 4eee f53d c5d1 a4ba ea62 9e3c a024 123d
00000260: b4d8 673c b2e7 133c a800 463c bd6f b83d
00000270: d5c3 913d 367a 583d 264d 7a3d 3c3e e73d
00000280: ef4f bb3d 12c8 563d 9592 8d3d 3ada 0b3e
00000290: 7f70 5cbc 622e 87bb 327d 663e e038 1e3e
000002a0: fac3 c83b 7e76 ab3d f117 0e3e 3a9f c63d
000002b0: ffdc 8a3c 3433 283d c5ec 023e 7ea6 fb3d
000002c0: 2caa 90bc 2096 a0bd 3c8e 00be 2b3e 15be
000002d0: ed7c e9bd 2d85 03bd fe77 cebd 6472 26be
000002e0: e99f c5bd 26f6 0cbd 4194 edbd 0c19 36be
000002f0: b29e 22be dc25 bdba 4235 95bd 96a2 d0bd
00000300: 2272 a2bd 9a28 16be e80c cabd c1b0 f6bd
00000310: 58c9 97bd 519c 19be 9c45 27be 2ea1 1dbe
00000320: 9c1d 45be c4ca 39be c73e 22be fa78 3dbe
00000330: 3003 88be 253a 22bd 498e 8cbd 2055 7bbd
00000340: 005f a33d 78f5 693c 6d86 a83d e1fc a1bd
00000350: 94e1 063d 7cdf 5b3d f930 fc3c c412 5c3d
00000360: daed 3b3d 4665 3abb 9d4d 043e 7d51 223d
00000370: d7e1 283d c779 063d c094 f33d 4080 42bd
00000380: d056 80bb aa3b a03d 8051 123e 32ff a13d
00000390: 2011 b13d f595 af3d 80dd dd3d ec02 a03d
000003a0: e4c4 213d 74ef a63d 4a0f 553d 0c51 8d3d
000003b0: 43ca e93d 38d6 a63d c862 be3d b0c2 853d
000003c0: 52f7 d63c 7b7b aebc e349 473d 12c9 963b
000003d0: a000 753d 14a2 413c 4c75 943d 9fca 303d
000003e0: a4c8 523c 6f5a 8e3d 447f c4bc 9f40 a93d
000003f0: ca57 653d 90de babd 541b ff3d ecf0 41bd
-0.027746674 -0.06715384 -0.023281232 -0.020269774 -0.029424313 -0.08104745 -0.03808127 -0.0415752
-0.006257941 -0.06525156 -0.03276518 0.008661315 -0.009153031 0.0059176767 -0.015474099 -0.025720522
-0.17862606 -0.21982522 0.02037666 -0.0084474655 -0.39162046 -0.006699482 0.0101320315 -0.011347329
-0.48390937 -0.018937152 0.0077416846 0.014015263 0.043525748 0.019958291 0.049024098 0.0144325495
0.020818045 0.005143588 0.027836341 0.024651093 0.018881854 0.013160394 0.023498744 -0.0034295176
-0.009248035 -0.013275916 -0.068204954 0.0034007272 0.024042074 -0.07627799 0.009015938 0.0028245046
-0.12252708 0.5351223 0.024234783 0.026217552 0.10849814 0.0530778 0.006359946 0.023287304
-0.035092037 -0.030705925 -0.018017028 -0.021156538 -0.048655435 -0.033930205 -0.017142072 0.0030151678
-0.010186074 -0.029985024 0.012075449 0.0154461935 -0.03857678 -0.019064425 0.010078084 0.03328801
-0.08104679 -0.007043138 0.019047933 0.005326024 0.06131938 -0.032003038 0.0020630287 -0.019933954
0.10828846 0.061719924 0.032168727 0.0816358 0.1775173 0.18760458 -0.012150358 0.032921515
0.29338902 0.16414142 0.15824884 0.20300208 0.26111573 0.12007299 0.1284579 0.13301873
0.09604533 0.037438948 0.09191458 0.1510929 0.068734884 0.04301347 0.02365093 0.075338125
0.18802229 -0.069357365 0.042147957 0.04103256 -0.034587122 -0.03518967 0.014645338 0.013599949
-0.05852881 0.04111264 0.0018590651 0.009327669 -0.45465395 0.14829019 0.023062754 -0.016027998
0.014528241 0.0021677222 -0.11404261 -0.18580194 0.035050064 0.02630815 -0.17956686 -0.17222257
0.012408442 0.087210655 -0.12740403 -0.14788026 0.063548595 0.056642428 0.04909887 0.025380671
0.08057402 0.08055382 0.014437582 0.025485836 0.097542666 0.03197609 -0.046647668 0.008725513
0.13007763 0.014751027 0.11789005 -0.09826565 0.12008344 -0.0012574723 0.019334275 0.03567946
0.014150787 0.009027408 0.012085117 0.090056874 0.0711743 0.052850924 0.06110873 0.11291167
0.091461055 0.052436896 0.06912724 0.13657466 -0.0134545555 -0.0041254023 0.22508696 0.15451384
0.006126878 0.0837221 0.1387632 0.09698339 0.016951082 0.041064456 0.12785633 0.12287615
-0.01765927 -0.07841134 -0.12554258 -0.14574496 -0.11400781 -0.03210943 -0.100814804 -0.16254574
-0.09649641 -0.034414433 -0.11600543 -0.17782992 -0.1588085 -0.0014430839 -0.07285549 -0.10187261
-0.07931925 -0.14663926 -0.09865743 -0.12045432 -0.0741145 -0.15001036 -0.16335148 -0.15393516
-0.19249576 -0.18143755 -0.1584426 -0.1850318 -0.26564932 -0.039606232 -0.06863076 -0.06136048
0.07977104 0.014279716 0.08228765 -0.07909561 0.03292997 0.05367993 0.03078507 0.053728834
0.04588113 -0.0028441711 0.12920232 0.039628495 0.041231003 0.03283098 0.11893606 -0.04748559
-0.003916599 0.0782388 0.14288902 0.07910003 0.086458445 0.08573524 0.108332634 0.07813057
0.03949441 0.08151141 0.052016534 0.06900224 0.114155315 0.08146328 0.09296185 0.06531274
0.026240978 -0.021299114 0.04865445 0.004601606 0.05981505 0.011818428 0.07248935 0.043161985
0.012865219 0.069508426 -0.023986466 0.082642786 0.055991925 -0.09124482 0.12456384 -0.0473489

net.0.bias f4 [256]
00000000: 1653 c63e 525b f4bc 9e78 c73e 82f6 9b3e
00000010: 94ff a1b9 1e8c 0fbd 54fc d53d dcc2 a1bd
00000020: f455 e5bc cefd 843d aa7a a53d 9010 efbd
00000030: baa7 da3e eecc 08bc 8ba5 323c 6c56 683e
00000040: b0d4 373f f08b 9b3b b89a 783d a294 863c
00000050: c02a 0e3e 3a31 863e a0ae 643e 8b78 4f3e
00000060: 6223 87be ff76 1f3e f8ac 3d3e 02f9 0c3d
00000070: 2251 6d3d 43d0 1ebc f8fb 9f3d 82e7 f33e
00000080: 947f ff3e e616 4d3e 425c 9f3d b8c7 59bd
00000090: 5323 963d cee9 ca3a 56db 033e 9e6f 793d
000000a0: dc38 7f3d aec6 8e3d 1260 d8bc cf87 1bbc
000000b0: 06c6 463d 32a7 e23c 0c3f b03d 628c 79bd
000000c0: 3ef3 26bd 81e9 1c3d e41a d43d 2c0f 083e
000000d0: 247b 313d 0044 67be 4d2c 633d 52cf aa3d
000000e0: e902 203f ee70 17bd c2ad 0bbd ff51 99bd
000000f0: b6f3 c53d b865 54bc 3434 8c3c 90c9 013e
00000100: ac5c e03d 0a36 223e c73c 1b3d 8419 993d
00000110: 50f7 ccbd 3a83 693e 1891 f2bc 2a3d 943e
00000120: af11 a43d 27e6 063d 52b4 d93a 9671 6bbe
00000130: b1e3 6ebd 4888 703c e57c 3ebd 9e8b 9d3e
00000140: ceff 773d 9d72 3d3c a4cc c03d ee6f d73d
00000150: 2264 a63e 32a6 1b3e e694 483e 247f 32bc
00000160: 002e 85bc a50a e93d a87b 39be e011 ea3d
00000170: aa7d 8cbe 7d36 9f3d 82f2 3dbc 4627 283e
00000180: b27b ae3d 06f2 babc 49e4 8d3d 7456 593e
00000190: 5c56 1fbd 16c4 31be eff9 2cbe 0c1a abbd
000001a0: 0635 a33d bc26 9a3d bb5a 6bbd 553e 6e3e
000001b0: 6c6b 243e 8855 e13d 249c 1dbe 617f ebba
000001c0: eb38 993d 3143 563d 8620 53be 10cf e53e
000001d0: 8bfd 76bd 9ec3 483f 74be 2fbd 60ca 123e
000001e0: 5739 433e 5ece 4abc f670 b23e fad1 133e
000001f0: e0a0 5bbc e119 033b 6669 be3d a57a 3e3e
00000200: 722a 5d3d 9676 a23e 0155 d33d 4e8a 373e
00000210: 381a b2be 5939 8fba 3c2f 8b3d 5af7 42bd
00000220: 0848 983d 498f 52be 5699 f73d db28 f03d
00000230: a47d c43d ea03 5b3e 740d 073e 88d0 d33c
00000240: a41b ae3d f820 9abd e063 173e d251 ae3c
00000250: 2a77 14be 9de7 973d e2b7 143e 4ad5 da3e
00000260: acf5 2cbd 83c3 e73e 5ef3 b9bd d387 263d
00000270: ea81 92be 76c7 b43d 6a18 883e ce7a 8c3e
00000280: 6626 fcbd 0e41 41bf b26e 7cbd 7491 883d
00000290: 6d83 023d 8ce6 d8bb 2c71 453e d308 b23c
000002a0: 7ca6 51bc feda 89bd ef14 d1bd e6d4 e03d
000002b0: 0c8c 9e3d ca54 4bbe 6c89 78be 50bf a4bc
000002c0: 1406 d33e 6120 8e3d b07f 4dbd 94ee 0a3d
000002d0: 2f04 d93e 2ed7 f03d 00e2 a43d 48d5 143e
000002e0: 9617 243d 5267 053e da65 263e c25c 223d
000002f0: bda1 acbd 1a00 8f3c 7277 d23d 4cc6 053e
00000300: ec6d a1be a490 843e 686d c9be 17df c63e
00000310: aed3 14be 768c 87bd ee93 63bd b2f3 75be
00000320: e2d1 0c3e d694 403d 84fd 4abe 084c 29bd
00000330: f245 843c ece5 9e3d 2390 b93d 15b2 463d
00000340: 7122 243d 4e78 6bbd 9316 b33d 80fd 303c
00000350: f15b a03e be2c 2a3e 5a1e aabd 863e 73bd
00000360: d0e3 173e e110 a23e 8624 23bd 0c98 323e
00000370: 0a28 853e f339 253d 2033 3f3e fbef 703a
00000380: 6985 ba3d 8553 933d 7ce3 b93e 895e 79bb
00000390: 5398 203d c0ee 4fbe 42ac c8bd 0c7f ddbb
000003a0: 06ad 12be 1466 2fbe c470 9a3d eacd 82bd
000003b0: b8db e73d d8fd b43d 8235 3ebe 2b17 89bc
000003c0: d031 eabc fe79 153e a465 b3bd b621 c03d
000003d0: eafe 653d a287 fabc cc64 893d e84c a93d
000003e0: b0ab 1fbe 2ac2 963d 7f60 0bbe f1b7 91bd
000003f0: 55fb 5c3e 5ff0 86bd 876b 50be 1868 4dbe
0.38735265 -0.029828701 0.3895921 0.30461508 -0.00030898734 -0.035045736 0.104485184 -0.078984946
-0.027995087 0.06493722 0.08080037 -0.11673081 0.4270609 -0.00834964 0.010903726 0.22689217
0.7180891 0.0047469065 0.060694426 0.016428296 0.13883495 0.26209432 0.22332239 0.20260827
-0.26394182 0.15572737 0.18523014 0.03441716 0.057938702 -0.009693208 0.07811731 0.47637564
0.49902022 0.20028266 0.07781269 -0.053168982 0.07330956 0.0015481056 0.12876639 0.060897462
0.062310085 0.06971489 -0.026412997 -0.0094928285 0.048528694 0.027667616 0.08605775 -0.060924895
-0.040759318 0.038308624 0.103566915 0.13287038 0.043330327 -0.22584534 0.05546217 0.083403245
0.6250444 -0.036972933 -0.034101255 -0.07486343 0.09665625 -0.012963705 0.017114736 0.12674546
0.10955176 0.15840927 0.03789976 0.0747557 -0.100081086 0.22803965 -0.029610202 0.28952914
0.080111854 0.032934334 0.0016609526 -0.22992548 -0.058322612 0.0146809295 -0.046505827 0.30770582
0.06054669 0.0115629705 0.09414032 0.10519396 0.3249827 0.15200117 0.1958805 -0.0108945705
-0.016257286 0.113789834 -0.18113577 0.11429191 -0.27439624 0.07774065 -0.011593463 0.16421232
0.08519687 -0.022820484 0.069283076 0.21224385 -0.038900718 -0.17359957 -0.16892217 -0.083545774
0.07969098 0.07526919 -0.057459574 0.23265965 0.16056603 0.11002642 -0.15391594 -0.0017967039
0.07481559 0.052310172 -0.20617875 0.4488454 -0.06030039 0.7842349 -0.04290624 0.14335012
0.19064842 -0.012378303 0.34851807 0.14435568 -0.013405055 0.0020004439 0.09297447 0.18601473
0.053995557 0.317311 0.103189476 0.17923853 -0.34785628 -0.0010927125 0.067961186 -0.047599174
0.07435614 -0.20562471 0.120897934 0.117265426 0.095942765 0.21388212 0.13188726 0.025856271
0.08501366 -0.075258195 0.14784193 0.02127925 -0.14498582 0.074172236 0.1452327 0.42740852
-0.04222648 0.4526635 -0.09079622 0.040656876 -0.28614742 0.08827107 0.26581126 0.27437443
-0.123120114 -0.7548989 -0.061629005 0.06668368 0.03186362 -0.00661928 0.19281453 0.021732723
-0.012796041 -0.067312226 -0.10209071 0.10978107 0.077415556 -0.19856563 -0.24271172 -0.020110756
0.41215575 0.069397695 -0.0501706 0.033918932 0.42386004 0.11759792 0.080509186 0.14534485
0.040061556 0.13027695 0.16249791 0.039639242 -0.08429287 0.017456103 0.10276689 0.13063926
-0.31529176 0.25891602 -0.39341283 0.3884208 -0.14533874 -0.06618588 -0.055561 -0.24018744
0.13751939 0.04701694 -0.19823271 -0.041332275 0.016146634 0.07758698 0.09060695 0.048509676
0.04007191 -0.05748778 0.0874454 0.010802627 0.31320146 0.1661863 -0.0830657 -0.0593858
0.14832997 0.31653503 -0.039829753 0.17440814 0.2600711 0.040338468 0.18671846 0.00091910333
0.09107477 0.071936645 0.3630637 -0.0038050732 0.039207768 -0.2030592 -0.097984806 -0.00675953
-0.14323816 -0.17128783 0.075410396 -0.06386931 0.11321205 0.08837479 -0.18575099 -0.01673468
-0.028588206 0.14597318 -0.08759621 0.0938143 0.056151308 -0.030582253 0.067086786 0.08266622
-0.15592837 0.073612526 -0.13611029 -0.07115162 0.2158025 -0.06588816 -0.20353518 -0.2005924

net.2.weight f4 [32, 256]
00000000: b121 75be ea52 9dbd 7739 eabd 861a 3ebe
00000010: 540e 833d 9425 923d eaf7 33bc 690e aabe
00000020: 16ee fc3d 4444 0e3e 186b bd3d a8b1 40ba
00000030: 3ecf ea3d 0888 91bd be50 98bd 6b60 80bd
00000040: 7d6b c83d bc21 ae3d 5c50 72bd 2261 a73c
00000050: 3e0d c33b 4ad7 ab3d 26bd 593e 9b45 623e
00000060: e606 4d3c 16af ebbd c0f6 753d 570b 653e
00000070: 2e93 c8bc 4fef 893e 9475 2a3e 7356 9e3d
00000080: 800e 00be 5be9 0b3e 2ff4 01be 05d1 75be
00000090: 664a 633e a2fa 1bbc ebde 7ebd 88ac 753d
000000a0: 644d d33c a5db 02bd f960 703e ec03 b1bb
000000b0: c0d6 5c3e 7e0b 0dbe 7ce8 8ebc 489f bfbd
000000c0: 08ac ffbc 8714 fa3b 49ae 95bd 52ff 8e3d
000000d0: 64eb f6bc a0dc f0bd 68b0 22be d005 98bd
000000e0: 642a a13d 4148 283d 3601 553d 91a6 5dbe
000000f0: 7d65 7dbd cf49 203d fdfd c93d 12ef 1e3b
00000100: f0ed 2b3e b9d9 8a3b c140 94bd 1e47 21be
00000110: 7e46 6f3b 11c8 e83c 962e 37bd 3f6f 173e
00000120: b104 f2bd b799 89bc c4c6 0f3e e46c 95bc
00000130: a981 a63d 9ad0 e43c 424e 08be 2ab6 ec3d
00000140: db6a 46bd b030 97bd 9f5a bd3b 625f 22bd
00000150: ce33 d03d aadc 59bd d037 5fbd a68e 843c
00000160: 8496 e2bd 24cb c8bd ea20 dbbd 57be cd3d
00000170: 0b0a 143c 557b 3a3c 6d92 d53d 2215 77bd
00000180: 8a96 013e 54f3 cdbd c10e af3d d69b d43d
00000190: ceb1 1dbe 8758 5bbd de5b 323d e0a0 2fbc
000001a0: 0325 2ebd 17d2 273e 0cf1 56be f414 cf3d
000001b0: 3b46 0f3e 5616 6eba c3c9 073e d492 e6bd
000001c0: 3a4a 293e b443 89bd 2861 d43d e628 243e
000001d0: e40e f9bd 6eee f4bd 30ce d3bd 1b9b b23d
000001e0: f92b 83be 1128 863c 0e41 053d 3301 d5bb
000001f0: 84a7 ac3d e8e1 a9bd cead 17be 3a82 7e3c
00000200: c3b8 aa3d 4e5a 553e a524 36be bec5 dfbb
00000210: c6a0 b63e 74ac 2abe 4e52 1c3d fa05 af3d
00000220: 40a5 263b 1ac2 3b3e 54c3 d43d a0a6 eabd
00000230: 9809 a43d f0b9 61be 7797 43bd ec5b cc3c
00000240: d61b 05be 768f 55bb 8a63 2fbe b057 693e
00000250: 4c05 a5bd 48dd d83c a935 d5bd 86ae 213c
00000260: 38c1 833c 612e 373e 8775 d1bc 9ffd 8bbd
00000270: faa4 86bd ea0c 2abe 5e82 fdbd f619 62be
00000280: 27b4 dcbc f269 38bd b9ea fbbd 2a78 c33d
00000290: 1ac9 13be c40d ebbd 5898 263e 71c4 3dbd
000002a0: 3a8f 673c 75e2 d43c 3253 89bd c684 afbd
000002b0: dec5 b03d 0c0f 783d 264f 7e3b d840 bfbd
000002c0: 33b9 023c 4f76 bf3d 7002 913d 6e95 3c3d
000002d0: fa24 6cbd cb9f 013d 6856 35be 72aa cbbd
000002e0: b60b b8bc 9668 b53c 645f e0bd 0ea9 4e3e
000002f0: 9cea 1f3e 2b54 04bd e204 4abe f6cc ddba
00000300: f29e ca3d 91c7 ffbd b83e 8f3d d7ef 4ebe
00000310: 785f fd3d 63d1 393b 02b1 99be 345e 37bd
00000320: e6c8 f73c 5ee6 68bc ac52 11be 605d e83c
00000330: 94ef 933d bcd6 fbbd 12d2 22be 8bbb 3fbd
00000340: ed9b 013e b1fe 893d 56d0 86bd 36f3 e4bc
00000350: d50a bd3d 222d f2b9 a2d2 413e 7424 09be
00000360: 0618 53bb 9f8b 5dbd 565f 073e c47e fc3c
00000370: 735f bfbd 06a6 9cbd fde6 bbbc 2064 5ebe
00000380: 6302 463d 4cbb f43c 4cb7 99bc 1ceb 3a3d
00000390: 1cb0 dd3d fb9a ddbd 976c 9d3d 9276 54bd
000003a0: 2a0d b43d 40a1 a93d 3408 60be 5cd5 a43b
000003b0: 50f7 acbd 4d83 f3bd 1e1e e4bd 1cf8 69bd
000003c0: 17b2 313d 3c3c 88bd 7dee 3e3e f8d0 4b3c
000003d0: 2934 333e dccc 8a3e 84f3 003e 96ef f7bd
000003e0: 6e26 3d3c be30 183c b078 ebbc 000e b63d
000003f0: 880f babd 4640 ea3d 9935 443d 2e22 80be
-0.23938634 -0.0768183 -0.11436742 -0.18564805 0.06399217 0.07136074 -0.0109844 -0.3321412
0.12350099 0.13893229 0.09248942 -0.00073506916 0.114653096 -0.07106024 -0.07437275 -0.0626839
0.09786127 0.08502528 -0.059158668 0.020432059 0.0059525063 0.083906725 0.2126356 0.22096865
0.012513852 -0.11508004 0.060049772 0.22367607 -0.024484243 0.2694039 0.16646415 0.07731333
-0.12505531 0.13663237 -0.12690805 -0.24005516 0.2219635 -0.009520205 -0.06222431 0.05997899
0.025793739 -0.03194775 0.23474492 -0.005402079 0.21566296 -0.13773915 -0.017444842 -0.09356552
-0.03120996 0.0076318416 -0.07308633 0.06982292 -0.03014154 -0.11760831 -0.15887606 -0.07422984
0.078694135 0.04108453 0.052003108 -0.21645571 -0.061864365 0.03913289 0.098628975 0.0024251384
0.16789985 0.0042373803 -0.07238913 -0.15749785 0.0036510522 0.028415712 -0.044722162 0.14788531
-0.11817301 -0.01679693 0.14040667 -0.0182404 0.081301995 0.0279315 -0.13311103 0.115581825
-0.04844175 -0.07382333 0.005778625 -0.039641745 0.10166131 -0.053188957 -0.054496586 0.016181301
-0.11063865 -0.09804371 -0.10699637 0.1004607 0.009035598 0.011381944 0.10428319 -0.06032289
0.12655082 -0.10056177 0.08547736 0.10381286 -0.15399858 -0.053551223 0.043544643 -0.010719508
-0.042515766 0.16388737 -0.2099039 0.10111418 0.13991635 -0.0009082308 0.1326056 -0.11258474
0.16532221 -0.067023665 0.103700936 0.16031227 -0.12161043 -0.11959539 -0.103420615 0.0872099
-0.25619486 0.016376527 0.032532744 -0.006500387 0.084303886 -0.08295041 -0.14812395 0.015533978
0.08336022 0.2083523 -0.17787416 -0.0068289926 0.35669535 -0.16667348 0.03816443 0.08546062
0.0025428087 0.18335763 0.103888184 -0.114575624 0.08009642 -0.22043586 -0.04775187 0.024946176
-0.129989 -0.003258673 -0.17127815 0.22787356 -0.08057651 0.026472703 -0.104106255 0.00986827
0.016083345 0.17888786 -0.025568737 -0.06835484 -0.065744355 -0.16606489 -0.12378381 -0.22080216
-0.026941372 -0.045022912 -0.12300629 0.09544404 -0.14432183 -0.11477235 0.16269052 -0.04632992
0.014133269 0.02598689 -0.06705321 -0.085702464 0.0863149 0.060561225 0.00388045 -0.0933854
0.007978725 0.093487374 0.07080543 0.046040945 -0.05765245 0.03164653 -0.17708743 -0.09944619
-0.022466522 0.022144597 -0.10955694 0.20181677 0.1561684 -0.03230683 -0.19728425 -0.0016922045
0.09893598 -0.12489236 0.069943845 -0.20208679 0.12371725 0.0028353564 -0.3001786 -0.044767573
0.030247163 -0.01421508 -0.14191693 0.028364837 0.0722343 -0.12296817 -0.15900448 -0.046809714
0.12657137 0.06738032 -0.06582706 -0.027948003 0.09230582 -0.00046191463 0.18928006 -0.13392812
-0.0032210364 -0.05408823 0.13219962 0.030822165 -0.09344377 -0.07648854 -0.022937292 -0.21717882
0.04834212 0.029874466 -0.01876416 0.045634374 0.10824606 -0.10820576 0.076867275 -0.05187089
0.08791573 0.08282709 -0.21878129 0.005030317 -0.084456086 -0.11890278 -0.11138557 -0.05712138
0.04338273 -0.06652114 0.18645664 0.012439959 0.17500366 0.2710942 0.12592894 -0.12106244
0.011544807 0.009288965 -0.028744072 0.08889389 -0.090849936 0.114380404 0.047902677 -0.25026077

net.2.bias f4 [32]
00000000: 9cdd 6bbd 7127 57be 2f13 c2bd 3ce3 e9bd
00000010: 369c 7cbd 2e41 903d 1aaa e53d d272 003e
00000020: 4cea 513e 4ec1 aabc 9f4d c03e ea1a 7cbd
00000030: 6c25 8ebe 1a78 f33c 3381 41bd 5cbe 353d
00000040: a70b acbd 7612 95bd f0aa 52be 7e25 ddbd
00000050: bce0 b53d ead5 af3c 9e6f c13c 9224 b83e
00000060: 0762 533e 749f 503d 40d9 33bd e656 b63d
00000070: 7cbe 303d db18 5bbe 9eb8 35be 16a3 973e
-0.05758439 -0.2101114 -0.09476315 -0.11420295 -0.06167241 0.07043682 0.11214085 0.125438
0.20499533 -0.020844128 0.3755922 -0.061549105 -0.27762926 0.029720355 -0.047242355 0.044370994
-0.0840066 -0.07278912 -0.2057302 -0.10798167 0.08880755 0.021464307 0.023612794 0.359654
0.20642863 0.050933316 -0.043908358 0.08903293 0.04315041 -0.213962 -0.17746207 0.29616612

net.4.weight f4 [32, 32]
00000000: dc8c acbe b65e d13e f4f7 053f 8ea8 2c3e
00000010: a58a e73e ac21 453e f99d 10be 0682 713e
00000020: ac28 59be c4f0 313e d673 a4bc b16c 2b3e
00000030: 6236 e13d fc80 5b3e 6e2f 23bf 1cbc f1be
00000040: b308 043f 3578 9fbe 14cf 86be 6302 bcbe
00000050: a8ad a0be b070 aabe 96f0 f1be 6817 753e
00000060: 0332 673e 49ef 6f3e d962 9d3e e224 c2bc
00000070: 86b9 32be 4ef4 90bc 7caa 25bf 415c 463e
00000080: 100c 1b3f 781f 82be 38f7 8cbf 58dc 26bf
00000090: 278a 62bf 9899 57be e632 b43e f1ae 07bf
000000a0: 9a73 aa3e 2e35 91be 3804 66be 5013 bbbe
000000b0: f2f0 95be eefb 43be d3bc 223f 74ff ef3e
000000c0: aea0 72bc 9af5 023f d928 3f3f ea2c f23e
000000d0: 14e6 863e 0305 513d b007 613e d701 18be
000000e0: 6161 87be eada febe 8e1c dcbe 4e08 54be
000000f0: 0a99 2d3e 14c3 583e f92b 323f 7e12 09be
00000100: fe45 b03e 9778 6a3e 6e58 1f3e 2e68 3ebe
00000110: bf96 c5be 646a 29be 5dd8 103e 808f a0be
00000120: dffa 3e3e d078 78be acca 743e d8ba ebbd
00000130: c968 9abd da33 d3bd 9f81 403e 52ec c93e
00000140: be02 dabe 5b87 aa3e a734 a53e 733c db3e
00000150: aee2 423e c264 f0bd ae4f 27bd 925c 893d
00000160: badc eabd 0ccf 07be 6ad3 16be 9400 f8bc
00000170: ee66 8b3d f55f 81bc 25fd ec3e bc97 b03c
00000180: 0238 c7be dd2a e7bc 66c8 8abe c0d6 a73e
00000190: b3e8 bb3e 839c 933e 8a0b 46be d625 f6bd
000001a0: 884a c1be cc3e cb3e d9bc 033d 2a36 583e
000001b0: d0c8 86be 7af6 473e 5e58 973e 1ef9 febe
000001c0: 22b0 113f 68d1 95be daeb d4be 549f eebe
000001d0: c45f 8bbe b987 98be 30aa 23bf 902e 503e
000001e0: 90b4 a83e b94d 833e 6f2f 573e 2adc 923e
000001f0: 0cf4 86bd f0eb b1bd 38c2 36bf 0812 8c3e
00000200: a86b 87bd 4045 263f b690 1e3e 1ef4 73be
00000210: a608 ecbe a035 f5be ccbf f3bb e5eb 313e
00000220: 6c5d 233f d218 2dbf 6e0c 303e e459 69be
00000230: ce1f e4be f660 15bf e632 71bf a3bf 09bd
00000240: a82f 823f 74fb 98be 04d8 a9be 7a8d 893c
00000250: 40ef b43d 82b3 9abc 1a4f 723e 9580 3c3d
00000260: 60df 38be 8c1d 623e 9cd3 b03d 2058 37be
00000270: a0c7 05be 983e 22be 888e acbd a046 223f
00000280: a894 debc 705b 4b3e 7cfe fe3e c279 29be
00000290: b543 80be d43d 07be ed8f 1a3e 0c66 563d
000002a0: 7721 0a3e d26c c4be dcdb a03e 8c05 723d
000002b0: b425 26be 3278 86be ad57 e9be 967a 853d
000002c0: 5c9f 9a3e c035 7ebd f404 153c 7323 543e
000002d0: 6444 743d a970 a6be 3161 9cba 989f 483e
000002e0: c884 673e 2e65 93bd 36bb 383d 65e8 693d
000002f0: 1594 8abd 663d c03c c68d e4bc b232 80be
00000300: 8bcd b7be f67b d03d 8eee ad3d 7e36 b5bd
00000310: f31e 44bd 82ed 533e f294 08bd c16c 0c3e
00000320: 9ab4 fd3d e3ac 2a3e 4857 0b3e cb52 9abe
00000330: bcff 2d3d 78da 98bd d02f 343d 3ac0 febd
00000340: 6a96 dc3d bc4e bfbd 32d6 24be 8337 d53d
00000350: 204f 7ebd ce16 40bb 6670 d83d 508e 9a3e
00000360: 9ac8 4a3e 1a88 f03d eeac 523e d026 6ebe
00000370: c203 9a3d 21ae b83e d75d 8cbd 209c 3e3d
00000380: 4d4d 9cbe 0fff a0bd 5e44 90bd e0fc a83c
00000390: d598 6e3c 4c78 fc3d 3209 ed3e 2bb5 d5be
000003a0: a818 c7bd 9ed5 c5bd efb5 c43c f0d8 4fbe
000003b0: 3a59 c83e 2afe 7d3d 106e 8f3e 7be5 47bd
000003c0: 8ecb d5be 841f 183d 84e2 93bd e2a0 f8bc
000003d0: 49b6 883e 3589 51bf fc71 efbe 7aa1 ee3d
000003e0: c497 8c3e 4acf 7d3d 4a0e 1d3e d6dd 31bd
000003f0: b047 8ebe 42e0 3ebe 974f bdbe fcf5 e13d
-0.33701217 0.4089257 0.5233147 0.16861174 0.45222965 0.19251126 -0.14122762 0.23584756
-0.21206921 0.17377001 -0.020074766 0.16740681 0.10996701 0.21435922 -0.63744247 -0.4721383
0.51575774 -0.31146398 -0.26329863 -0.3672057 -0.3138249 -0.332891 -0.47253865 0.2393471
0.22577672 0.23431124 0.30739477 -0.023699228 -0.17453584 -0.017694619 -0.64713264 0.1937113
0.6056528 -0.25414634 -1.1012945 -0.6517997 -0.88492054 -0.21054685 0.35195082 -0.53001314
0.33291322 -0.28360885 -0.22462547 -0.36538172 -0.2928539 -0.19139072 0.6356937 0.46874583
-0.014808817 0.5115601 0.74671704 0.47299892 0.2634741 0.05103017 0.21975589 -0.14844452
-0.26441482 -0.49776393 -0.42990535 -0.20706293 0.16952911 0.21168166 0.69598347 -0.1338596
0.344284 0.22897564 0.15561077 -0.18594429 -0.38591573 -0.16544491 0.14145036 -0.31359482
0.18650387 -0.24264836 0.23905438 -0.11510247 -0.075395174 -0.10312624 0.18799447 0.3943811
-0.42580217 0.33306393 0.32266733 0.42819557 0.19031784 -0.11737968 -0.040847473 0.067071095
-0.114678815 -0.13262576 -0.14729086 -0.030273713 0.06806742 -0.015792826 0.46286884 0.021556728
-0.38909918 -0.028218681 -0.27106017 0.3278103 0.36700973 0.28830346 -0.1934034 -0.120189354
-0.37752175 0.39696348 0.03216252 0.21114412 -0.26325083 0.19527617 0.29559606 -0.49799436
0.5690938 -0.29261327 -0.4158619 -0.46605933 -0.272215 -0.29791048 -0.6393156 0.20330262
0.32950258 0.25645235 0.21014188 0.28683597 -0.06589517 -0.0868758 -0.71390104 0.27357507
-0.06612331 0.6494942 0.1548489 -0.23823592 -0.46100348 -0.47892475 -0.0074386355 0.17375143
0.63814425 -0.67616 0.17192242 -0.22788197 -0.44555515 -0.58351076 -0.9421829 -0.033630025
1.0170794 -0.29879344 -0.3317262 0.016791094 0.08834696 -0.018884424 0.23662987 0.046021063
-0.18053961 0.22081584 0.08634111 -0.17904711 -0.13064432 -0.1584419 -0.08425623 0.63389015
-0.027170494 0.198591 0.4980353 -0.16550353 -0.25051656 -0.1320718 0.15093966 0.052343413
0.13489328 -0.38364273 0.3141774 0.05908732 -0.1622532 -0.26263577 -0.45574704 0.06517522
0.30199707 -0.06206298 0.009095419 0.20716648 0.059635535 -0.32507828 -0.0011930821 0.1959213
0.22609246 -0.07197033 0.045100413 0.057106394 -0.06766526 0.023466777 -0.027899634 -0.25038677
-0.35899004 0.10179894 0.08492766 -0.08848284 -0.047881078 0.20696071 -0.03334517 0.13713361
0.12387963 0.16667514 0.13607514 -0.3014129 0.042480215 -0.074635446 0.04399091 -0.12439008
0.10770877 -0.09341189 -0.16097334 0.10410979 -0.06208718 -0.0029310468 0.10568313 0.301867
0.19803086 0.11744709 0.2057378 -0.23256993 0.07520248 0.3607035 -0.06853836 0.04653561
-0.30527726 -0.078611486 -0.0704429 0.020628393 0.014562805 0.12327632 0.46296078 -0.41739783
-0.097215 -0.09659885 0.024012534 -0.20297599 0.39130574 0.062009968 0.2801366 -0.048802834
-0.41756862 0.03713943 -0.07220939 -0.030350152 0.26701573 -0.81849986 -0.4676665 0.11651893
0.27459538 0.061965264 0.15337482 -0.04342445 -0.27789068 -0.18640235 -0.36974785 0.11033246

net.4.bias f4 [32]
00000000: 24c9 ddbc 94e9 18bf b2d4 423d 253d 113e
00000010: c92a be3b fefd b0bd cad2 bfbb 66a1 e53d
00000020: 588d 11bc d0e9 69bc ca10 8abd 4a94 82be
00000030: 0c70 a33d b4c4 86be 728b bc3c f60b 233d
00000040: 5062 83bd bec5 713c ced1 2abd bac9 79be
00000050: 51cc 063e 1be8 eabd 5ace e13d 5cf3 1a3c
00000060: 540f b23d 9e14 6abd 14db b1be efbe b1bd
00000070: c49c 0c3e aa7b b4bd d2cf 05bf 9181 253d
-0.02707345 -0.5973141 0.047566123 0.14183481 0.00580344 -0.08642195 -0.0058539854 0.11212425
-0.008883797 -0.014276937 -0.067414835 -0.2550376 0.079803556 -0.26321948 0.023015711 0.03980633
-0.06415236 0.014756618 -0.04170399 -0.24393359 0.13163878 -0.11470052 0.110256866 0.009457435
0.0869433 -0.05714857 -0.34737456 -0.08678996 0.13731676 -0.088126495 -0.52270234 0.040406767

net.6.weight f4 [1, 32]
00000000: 3c86 8ebf 7f14 9dbf 8256 7e3f 949d 4dbf
00000010: 829e 5ebf 69e7 28bf 0683 bf3d 2418 20bf
00000020: 889f 503f 860d 553f 70df 63be 5ce3 b8bf
00000030: 541b e5be 2809 0440 c098 393f a697 35bf
00000040: 6beb e3be 8b6b d23e 0f3a 77bf fc52 893f
00000050: e1e1 c5be 9cc5 643f a093 d13e e106 edbe
00000060: 3d53 ca3e 7697 88be ec80 7c3f df45 2e3e
00000070: 80a4 42bf d63b e0bd 2efc 45bf 5b76 3f3f
-1.1134715 -1.227188 0.9935075 -0.8031857 -0.86960614 -0.65978104 0.093511626 -0.62536836
0.81493425 0.8322376 -0.22253203 -1.4444385 -0.44747412 2.0630589 0.72498703 -0.7093452
-0.44515547 0.41097674 -0.96572965 1.072845 -0.38648894 0.8936403 0.4093294 -0.4629431
0.3951663 -0.26678056 0.9863422 0.17018841 -0.7603226 -0.10948913 -0.7733792 0.7478997

exp_avg f4 [256, 120]
00000000: 8a34 f436 d369 4337 825c a537 f680 4637
00000010: d553 7037 782b 8236 993c 3038 c513 a536
00000020: f180 a1b7 e956 37b8 769f d737 8c9e 87b6
00000030: 6005 ef37 9b65 ebb6 632c e3b7 3a36 4cb8
00000040: 78f7 4db8 ec38 9eb7 65e0 1bb8 54e0 adb8
00000050: 045b 8b37 be08 78b8 2e50 e1b7 dac4 21b8
00000060: c540 3437 0f68 43b8 65dc cc35 e3b0 ccb8
00000070: b88b 4eb8 9fdd 80b8 6ecb 8cb8 d7e8 bdb7
00000080: ff0c d6b7 274f 13b8 0fc1 93b8 ecbb fcb6
00000090: 6f1d 97b7 e854 05b8 3e62 26b8 e311 b8b8
000000a0: bbd1 f836 4968 5738 905c 68b7 6aa6 6cb7
000000b0: 94f4 9eb5 d197 99b7 c90a 93b7 6b5e 2cb7
000000c0: f3ad 9436 f68b 3e36 80d0 2836 fab6 1b38
000000d0: 7e83 b137 9a52 0737 7c19 a636 dbcc da35
000000e0: 4796 0437 9398 e436 f346 4436 9b8c 9337
000000f0: c545 2f37 fdc9 5a37 e78a b637 9c0a 5237
00000100: 8cc9 d437 d115 3037 3821 5d37 f991 7237
00000110: bcc4 5837 dede 6b37 85c4 7637 b489 4537
00000120: 0897 2537 4e04 3e37 d77f 3137 aa23 7737
00000130: c46a 5f37 d82b 3437 b186 4a37 9c4d 5537
00000140: d8df 5f37 183c 6737 c307 5d37 74be 6c37
00000150: cb5d 6837 124c 6f37 36a5 6e37 c1cb 5f37
00000160: 857e 5337 f2c9 6137 5ae2 5c37 93a3 6837
00000170: 1b72 7037 6b06 7937 4cd2 5437 d098 5d37
00000180: db6e 1937 e32a 5137 2f4e 7437 837e 6037
00000190: 9633 3c37 c0fe 3b37 345c 7037 6f86 4337
000001a0: 2dd5 9e37 382a 5437 16b3 5437 2c81 5c37
000001b0: 65a0 6837 1901 1b35 58fd 7a37 58ec 3737
000001c0: 4684 2637 8087 b037 22dd f637 b562 8d37
000001d0: 0e1f 3d37 f9c4 6937 51fb 5537 2016 c537
000001e0: 5b82 0d37 3d52 8f36 e917 5e37 6f3e cb36
000001f0: 5266 e535 6e4e cf36 eb64 bb36 8942 8e36
00000200: a38c c5b7 04f6 61b7 a435 ed37 8cea ebb6
00000210: 6ff5 0538 d140 a037 d26e 9237 d9d2 90b7
00000220: a328 dbb7 c232 40b8 9e01 83b8 5dfd 12b8
00000230: 76cd f3b6 e29a b0b7 4a2a 39b7 0255 ce36
00000240: 2f25 28b8 ea80 41b7 94fa 8a37 ff87 50b8
00000250: bc2a 7cb7 1923 3db7 981b 6ab6 e896 90b7
00000260: b50f 41b8 c0f8 01b7 d89d 36b8 f92a f3b6
00000270: ea04 30b6 9ed3 9ab7 81b9 b4b7 3824 3bb8
00000280: 65bb 35b8 7649 bc35 e5ae 7b36 69b7 54b7
00000290: 893d 3836 c829 52b7 39f1 04b7 4db6 36b5
000002a0: 4597 2936 5fce 8737 871e 8bb6 93a2 0537
000002b0: ffbf 2237 1059 d836 dcd2 0037 0df5 16b5
000002c0: 8f79 0837 df75 d835 05a2 e6b3 6cbb 0d37
000002d0: 937c 0237 d1e6 1c37 ae8c 1b37 f2be 2d37
000002e0: 02b8 da36 b0b4 6336 9037 2636 86e9 0837
000002f0: 70c0 e636 4963 0637 f2a9 0037 ce74 8e36
00000300: 451d 0537 b88c cc36 616e 0937 e11d ec36
00000310: ac2c f436 7c28 f836 fa0d ff36 2b85 f836
00000320: f4e9 f536 7d7d 0037 8ab7 0937 83c0 0b37
00000330: 3a80 0337 fc43 0237 b3df 0a37 601d 0537
00000340: 4b00 e036 951d 0237 b72c f636 84c8 0237
00000350: eff9 fd36 d651 1a37 2ccb 1137 a870 ee36
00000360: f840 c336 8b16 1637 1654 fc36 0c62 c936
00000370: b607 0837 3a39 0a37 7e90 3137 9c96 0e37
00000380: 06bd 0437 3c20 9e36 ab45 2f37 024e ce36
00000390: a94c 0437 7472 9834 d328 fb36 c942 0937
000003a0: 7c7a b736 2740 0237 712c 0a37 7a7a 5337
000003b0: 21e3 3837 b3e9 d536 7d08 bc36 f169 8936
000003c0: 64f6 a536 a3ab 5fb5 3d42 4236 c70c 94b6
000003d0: ec4c 9d36 5b16 8436 d92d 88b6 baa9 8fb7
000003e0: d13f 34b6 fa9a ec36 f09f 60b6 d60e 5fb6
000003f0: a005 9437 2875 b737 5fd5 a837 722e 0537
7.277883e-06 1.1647545e-05 1.971261e-05 1.1831746e-05 1.4324633e-05 3.8793623e-06 4.2018106e-05 4.9196847e-06
-1.9252739e-05 -4.371154e-05 2.5704252e-05 -4.041771e-06 2.8493523e-05 -7.015374e-06 -2.7081178e-05 -4.8687893e-05
-4.9106282e-05 -1.8861574e-05 -3.7163863e-05 -8.291067e-05 1.6612474e-05 -5.913595e-05 -2.6859427e-05 -3.8568724e-05
1.0743916e-05 -4.6588535e-05 1.5263328e-06 -9.760426e-05 -4.924435e-05 -6.144796e-05 -6.713612e-05 -2.263898e-05
-2.551684e-05 -3.5121247e-05 -7.045466e-05 -7.532062e-06 -1.8014309e-05 -3.1788746e-05 -3.966898e-05 -8.7771354e-05
7.415392e-06 5.1357118e-05 -1.3849829e-05 -1.41054425e-05 -1.1843099e-06 -1.8309716e-05 -1.7528788e-05 -1.0273982e-05
4.430994e-06 2.8393674e-06 2.5155314e-06 3.712529e-05 2.1161275e-05 8.065859e-06 4.9501523e-06 1.6301886e-06
7.902802e-06 6.8126915e-06 2.9247574e-06 1.758924e-05 1.0447057e-05 1.3040842e-05 2.1760772e-05 1.2519446e-05
2.5366222e-05 1.0495497e-05 1.3180361e-05 1.4458311e-05 1.2920409e-05 1.4058982e-05 1.4708498e-05 1.17741765e-05
9.869931e-06 1.1325885e-05 1.0579787e-05 1.4730651e-05 1.3316694e-05 1.0739044e-05 1.20714985e-05 1.2713859e-05
1.33439535e-05 1.3782665e-05 1.3174434e-05 1.41110395e-05 1.38501155e-05 1.4263222e-05 1.4224372e-05 1.3339276e-05
1.2606038e-05 1.3458064e-05 1.3165723e-05 1.3866363e-05 1.4331682e-05 1.4843051e-05 1.2685148e-05 1.3208206e-05
9.145321e-06 1.2467356e-05 1.4561737e-05 1.3380896e-05 1.1217684e-05 1.1205382e-05 1.43265825e-05 1.1654206e-05
1.8934335e-05 1.26460145e-05 1.2677881e-05 1.3143097e-05 1.3865622e-05 5.7743597e-07 1.4960147e-05 1.0962678e-05
9.925168e-06 2.1043932e-05 2.9428458e-05 1.6854474e-05 1.1272508e-05 1.39337435e-05 1.27543035e-05 2.3494533e-05
8.434606e-06 4.271306e-06 1.3237798e-05 6.0571397e-06 1.7091609e-06 6.178211e-06 5.5847827e-06 4.2396755e-06
-2.354972e-05 -1.3468325e-05 2.827758e-05 -7.0308506e-06 3.193825e-05 1.9103669e-05 1.7456161e-05 -1.7264321e-05
-2.6125757e-05 -4.582364e-05 -6.246868e-05 -3.5045075e-05 -7.265883e-06 -2.1052958e-05 -1.10367055e-05 6.1491746e-06
-4.008895e-05 -1.1533712e-05 1.6567566e-05 -4.971772e-05 -1.503032e-05 -1.127345e-05 -3.488478e-06 -1.7236409e-05
-4.6029414e-05 -7.746916e-06 -4.3539185e-05 -7.246967e-06 -2.6228904e-06 -1.8456773e-05 -2.1544054e-05 -4.4618006e-05
-4.3328288e-05 1.4028471e-06 3.7503717e-06 -1.2678888e-05 2.7453955e-06 -1.2526703e-05 -7.923977e-06 -6.8065566e-07
2.5271013e-06 1.6189353e-05 -4.1460767e-06 7.96527e-06 9.700655e-06 6.44767e-06 7.678489e-06 -5.623595e-07
8.134534e-06 1.6127559e-06 -1.0739681e-07 8.4478925e-06 7.7776085e-06 9.352066e-06 9.2714745e-06 1.03560615e-05
6.5183276e-06 3.393081e-06 2.476827e-06 8.160603e-06 6.876937e-06 8.010139e-06 7.668963e-06 4.2455276e-06
7.934233e-06 6.0960556e-06 8.191536e-06 7.0368264e-06 7.276967e-06 7.395689e-06 7.6012193e-06 7.4064787e-06
7.3288047e-06 7.658612e-06 8.20857e-06 8.329868e-06 7.8380635e-06 7.764433e-06 8.277525e-06 7.934257e-06
6.6757543e-06 7.755491e-06 7.336577e-06 7.79529e-06 7.5690837e-06 9.198169e-06 8.689978e-06 7.1060676e-06
5.819016e-06 8.945945e-06 7.519974e-06 6.001681e-06 8.108027e-06 8.238765e-06 1.0583664e-05 8.498926e-06
7.911824e-06 4.7125195e-06 1.0447034e-05 6.1483597e-06 7.885662e-06 2.8395482e-07 7.4851355e-06 8.181386e-06
5.468084e-06 7.76354e-06 8.235788e-06 1.2605096e-05 1.1020137e-05 6.375101e-06 5.603825e-06 4.0952514e-06
4.946067e-06 -8.332374e-07 2.8946808e-06 -4.412231e-06 4.6879195e-06 3.936509e-06 -4.058453e-06 -1.7125963e-05
-2.6859236e-06 7.0513897e-06 -3.3471697e-06 -3.3238225e-06 1.7645594e-05 2.1869855e-05 2.012652e-05 7.938232e-06

exp_avg_sq f4 [256, 120]
00000000: dde3 8932 3362 8632 5d44 8932 24c8 8632
00000010: f991 9932 f776 8c32 2a8b 9c32 8321 b332
00000020: 318c a533 140d 2d33 2a1e b032 a094 a432
00000030: f5f5 8c33 4107 f933 bb15 0634 2545 a333
00000040: 703f 7134 89fb 3734 4fa9 8834 50cc f833
00000050: abb4 dc32 4749 4f34 98f1 6734 7a72 4634
00000060: e97e a932 89bf 9534 1bd2 9f34 db10 9034
00000070: 51f2 4334 3fcb 8f34 b3c6 6834 443c 8833
00000080: f6d3 2734 cd8f 2d34 f2e0 5e34 ed42 dc33
00000090: cd91 b433 927b 6234 06af 4434 e761 a434
000000a0: b204 c733 122c bb33 02e1 8a33 77c8 9933
000000b0: fbcc c232 2c17 9132 4057 e532 57a3 b733
000000c0: 1114 b732 b7f4 a132 4c06 9a32 04d8 9e32
000000d0: 83c3 8732 1421 8632 dae3 8832 965e 9432
000000e0: 3be9 8432 030f 8a32 2e57 8732 2bd2 8832
000000f0: 3a03 8932 2ea3 8932 f2f9 8932 c1a0 8932
00000100: fc66 8732 7ff3 8b32 9230 8e32 b686 8732
00000110: 5e20 8732 c8bb 8832 3bd1 8832 c4ef 8632
00000120: b83c 8632 dc6e 8732 f924 8932 fefc 8632
00000130: d850 8632 f393 8632 1323 8632 e2ce 8532
00000140: 9b88 8632 5b66 8632 3e8e 8632 b3b1 8632
00000150: 5d3b 8632 da72 8632 e2f7 8532 9644 8632
00000160: 4423 8632 5a3f 8632 ccec 8532 d96d 8632
00000170: 1ad1 8632 e598 8632 3d3b 8632 17a1 8632
00000180: 01d9 8532 408b 8732 a07a 8732 9e71 8632
00000190: b47f 8632 3b13 8832 5090 8632 edfb 8632
000001a0: 6e26 8932 2ffd 8732 f310 8832 55dd 8632
000001b0: 3024 8732 700b 8732 85bc 8632 968e 8732
000001c0: 4342 8c32 5692 8c32 6408 8932 e5d5 8632
000001d0: 4fbe 8632 1c4e 8932 e23b 8d32 1f5d 8732
000001e0: fa6f 9c32 4a9a a732 c436 a632 90c8 a132
000001f0: 0faa 9b32 4856 a132 4ad0 9a32 7aca 9432
00000200: 6171 6d33 91f9 9832 ab62 8b32 69fe 8b32
00000210: edc9 5933 cc3d 2033 65a3 b833 aece 8a33
00000220: 274b a034 ffa0 0f34 7712 5734 70f4 f033
00000230: 93b0 0234 62db 4834 574d 6f34 8936 4034
00000240: e210 0134 70ec 9734 4baf af34 ffe8 9b34
00000250: 75dc 6334 f2c1 af34 90c7 7f34 f030 f733
00000260: eb61 4234 b31a 8134 1d2a 5a34 6c36 d733
00000270: 52a3 c433 da82 8034 7889 2234 fa53 9634
00000280: 58f4 7733 a19d 0034 c2e0 c733 efec 0933
00000290: e87a 8c32 794c 8a32 bb84 9732 107a 0633
000002a0: b19a 9932 9b54 9f32 f472 a032 418d 9d32
000002b0: ec23 a432 8a6c a632 82f5 a232 e373 9b32
000002c0: 5881 a432 6625 a632 f067 a232 4ca2 a432
000002d0: f054 a732 6c7d a732 a4f4 a732 ecd4 a632
000002e0: 403e a832 c682 a932 fbc4 a732 75e4 a732
000002f0: 163b a732 f16e a732 3339 a732 52ed a632
00000300: f717 a732 ae28 a732 b7f7 a732 1a7c a732
00000310: 2771 a732 c787 a732 0ebe a632 17e5 a632
00000320: 3470 a732 6b40 a732 2f05 a732 1f7e a732
00000330: 5141 a732 6018 a732 3046 a732 c577 a732
00000340: 452c a732 4832 a732 4836 a732 8724 a732
00000350: 1651 a732 fa6b a732 3ae6 a632 434f a732
00000360: 4892 a732 d5a8 a732 2e50 a732 bc88 a732
00000370: b3bf a732 4326 a832 a3f8 a732 3e70 a732
00000380: 2fa7 a732 2051 a932 bc59 a832 319e a732
00000390: e9ff a632 40e4 a532 8c35 a832 156d a632
000003a0: 77a2 a632 63e4 a932 8bf9 a632 64f0 a532
000003b0: 543c a532 d5a0 a432 6beb a732 e3bc a532
000003c0: 1475 9531 6c74 8f31 9af7 8a31 9d22 8e31
000003d0: 52c6 9e31 e223 9e31 f901 a131 7270 da31
000003e0: 23ef a132 2760 1b32 aa18 d131 7a48 bc31
000003f0: 9e45 8a32 44ac 3032 24fe 9332 10cd be32
1.605252e-08 1.5644309e-08 1.5979987e-08 1.5690667e-08 1.7877925e-08 1.6352244e-08 1.8224075e-08 2.0853582e-08
7.708912e-08 4.0291596e-08 2.0502814e-08 1.91597e-08 6.563997e-08 1.15962855e-07 1.2487628e-07 7.602856e-08
2.2467952e-07 1.7134711e-07 2.5455162e-07 1.1585564e-07 2.5693529e-08 1.9305035e-07 2.1601443e-07 1.8481833e-07
1.9731901e-08 2.7892773e-07 2.976893e-07 2.6834354e-07 1.8248944e-07 2.6783707e-07 2.167897e-07 6.343956e-08
1.5630198e-07 1.6164195e-07 2.0757196e-07 1.0256722e-07 8.408424e-08 2.1092845e-07 1.8317596e-07 3.0618614e-07
9.267514e-08 8.7158824e-08 6.4670544e-08 7.161082e-08 2.2677787e-08 1.6890759e-08 2.6698785e-08 8.551313e-08
2.1313129e-08 1.885415e-08 1.7930823e-08 1.8491853e-08 1.5804977e-08 1.5614695e-08 1.5936099e-08 1.727248e-08
1.5472883e-08 1.6072141e-08 1.5755713e-08 1.5928057e-08 1.5950366e-08 1.6023105e-08 1.6062561e-08 1.6022002e-08
1.57629e-08 1.6292459e-08 1.6553063e-08 1.5777328e-08 1.5730787e-08 1.5917877e-08 1.592763e-08 1.5708686e-08
1.5627265e-08 1.5766481e-08 1.5965712e-08 1.57147e-08 1.5636417e-08 1.5666933e-08 1.5615603e-08 1.5577317e-08
1.5661774e-08 1.5646199e-08 1.5664337e-08 1.5680461e-08 1.5626648e-08 1.5651882e-08 1.5595962e-08 1.5630842e-08
1.561569e-08 1.5628462e-08 1.559092e-08 1.5649606e-08 1.5694742e-08 1.5669182e-08 1.5626592e-08 1.5672908e-08
1.558192e-08 1.5779392e-08 1.5771832e-08 1.565132e-08 1.5657726e-08 1.5841229e-08 1.5665279e-08 1.5714216e-08
1.5966375e-08 1.5831203e-08 1.5840191e-08 1.5700303e-08 1.5732525e-08 1.572127e-08 1.5685382e-08 1.5780909e-08
1.6328277e-08 1.6364691e-08 1.5952715e-08 1.5696921e-08 1.5686195e-08 1.598442e-08 1.6441792e-08 1.5758415e-08
1.8211711e-08 1.9511521e-08 1.9349848e-08 1.8834072e-08 1.8121709e-08 1.8782103e-08 1.8022678e-08 1.7321543e-08
5.528398e-08 1.7808619e-08 1.6226599e-08 1.6297422e-08 5.07079e-08 3.7309107e-08 8.597889e-08 6.4637206e-08
2.9857003e-07 1.3376483e-07 2.0030153e-07 1.1220334e-07 1.2171431e-07 1.8706262e-07 2.2286746e-07 1.7901233e-07
1.2020203e-07 2.8297973e-07 3.2723833e-07 2.9040527e-07 2.1221224e-07 3.2737404e-07 2.3821326e-07 1.15107355e-07
1.810328e-07 2.404755e-07 2.0318153e-07 1.0021617e-07 9.156669e-08 2.3937065e-07 1.5137437e-07 2.8000778e-07
5.77314e-08 1.1978274e-07 9.307543e-08 3.2113288e-08 1.6354036e-08 1.610009e-08 1.7639072e-08 3.131032e-08
1.788189e-08 1.854851e-08 1.8678726e-08 1.834144e-08 1.9108448e-08 1.9374301e-08 1.8970926e-08 1.8097074e-08
1.9150932e-08 1.934195e-08 1.8906547e-08 1.9165917e-08 1.9479984e-08 1.9498394e-08 1.9552608e-08 1.9421769e-08
1.9586082e-08 1.9733658e-08 1.9530935e-08 1.9545249e-08 1.9468228e-08 1.9491809e-08 1.946737e-08 1.9432864e-08
1.9452257e-08 1.9459858e-08 1.9554006e-08 1.9497794e-08 1.9492814e-08 1.9503103e-08 1.941137e-08 1.9429121e-08
1.9492383e-08 1.9470653e-08 1.9443716e-08 1.9498712e-08 1.9471061e-08 1.9452443e-08 1.9473276e-08 1.9495824e-08
1.946149e-08 1.9464224e-08 1.9466043e-08 1.945797e-08 1.9478232e-08 1.949046e-08 1.9429638e-08 1.9477403e-08
1.950788e-08 1.9518135e-08 1.947782e-08 1.9503538e-08 1.9528533e-08 1.9575173e-08 1.9554426e-08 1.94924e-08
1.9517385e-08 1.971108e-08 1.959858e-08 1.9513296e-08 1.9441318e-08 1.9312324e-08 1.9582124e-08 1.9374548e-08
1.9398824e-08 1.9778048e-08 1.9438422e-08 1.9317845e-08 1.9235962e-08 1.916525e-08 1.9548414e-08 1.9294424e-08
4.349781e-09 4.1750834e-09 4.0444776e-09 4.136679e-09 4.6209516e-09 4.6024846e-09 4.685941e-09 6.3574186e-09
1.8851614e-08 9.04405e-09 6.0855045e-09 5.4797598e-09 1.6096973e-08 1.0283717e-08 1.7228622e-08 2.2212163e-08

slow_buffer f4 [256, 120]
00000000: fe4c e3bc f487 89bd 48b8 bebc cc0c a6bc
00000010: 420b f1bc 35fc a5bd 1bfb 1bbd c24a 2abd
00000020: 6a0f cdbb 9ca2 85bd c834 06bd 30e8 0d3c
00000030: 98f6 15bc 12e9 c13b 1387 7dbc d8b3 d2bc
00000040: c0e9 36be dd19 61be f4ec a63c 3d67 0abc
00000050: 7a82 c8be 5487 dbbb d200 263c 26ea 39bc
00000060: f8c2 f7be 1622 9bbc f5ad fd3b 46a0 653c
00000070: 0e48 323d 927f a33c 7ecd 483d 8076 6c3c
00000080: 9b8a aa3c 8b8b a83b 0a09 e43c 17f1 c93c
00000090: 1eae 9a3c b19e 573c 7080 c03c c2c1 60bb
000000a0: 1285 17bc 3a83 59bc 0aaf 8bbd bcde 5e3b
000000b0: e2f3 c43c a337 9cbd 96b7 133c 531b 393b
000000c0: 7aef fabd c6fd 083f 0688 c63c 31c6 d63c
000000d0: 4634 de3d 1b68 593d 1867 d03b 04c5 be3c
000000e0: abbc 0fbd fe8a fbbc 7298 93bc 7a50 adbc
000000f0: ec4a 47bd 66fa 0abd 886d 8cbc 1f9a 453b
00000100: 7ee3 26bc 27a3 f5bc 1bd8 453c 0812 7d3c
00000110: b002 1ebd ff2c 9cbc 8c1e 253c 0259 083d
00000120: dcfb a5bd 20ca e6bb 690a 9c3c ed85 ae3b
00000130: 082a 7b3d 9e15 03bd e133 073b 884c a3bc
00000140: 57c6 dd3d 08ce 7c3d 5bc3 033d ac30 a73d
00000150: 18c7 353e 6a1b 403e 4c12 47bc b6d8 063d
00000160: 1637 963e b014 283e fc0b 223e c7df 4f3e
00000170: f6b0 853e d4e8 f53d 788a 033e 1036 083e
00000180: 6ab3 c43d 9559 193d b63d bc3d 19b8 1a3e
00000190: e0c4 8c3d e42e 303d 98bf c13c e04a 9a3d
000001a0: ea88 403e 3c0b 8ebd 56a3 2c3d c211 283d
000001b0: 3aab 0dbd 0b23 10bd 00f3 6f3c 52d2 5e3c
000001c0: e8bb 6fbd ba65 283d e0ab f33a 14d3 183c
000001d0: 67c8 e8be 62d9 173e 1aee bc3c 264d 83bc
000001e0: dc07 6e3c 5810 0e3b 2c8f e9bd dd42 3ebe
000001f0: a890 0f3d 3084 d73c 60e0 37be 1d5b 30be
00000200: c74c 4b3c 809b b23d 3476 02be ec6d 17be
00000210: c425 823d e401 683d e61b 493d 20eb cf3c
00000220: fe03 a53d 67f9 a43d 9c8b 6c3c acc7 d03c
00000230: 73c4 c73d 5cf9 023d a011 3fbd 74f5 0e3c
00000240: 1233 053e 4bae 713c 5770 f13d 803f c9bd
00000250: 4eee f53d c5d1 a4ba ea62 9e3c a024 123d
00000260: b4d8 673c b2e7 133c a800 463c bd6f b83d
00000270: d5c3 913d 367a 583d 264d 7a3d 3c3e e73d
00000280: ef4f bb3d 12c8 563d 9592 8d3d 3ada 0b3e
00000290: 7f70 5cbc 622e 87bb 327d 663e e038 1e3e
000002a0: fac3 c83b 7e76 ab3d f117 0e3e 3a9f c63d
000002b0: ffdc 8a3c 3433 283d c5ec 023e 7ea6 fb3d
000002c0: 2caa 90bc 2096 a0bd 3c8e 00be 2b3e 15be
000002d0: ed7c e9bd 2d85 03bd fe77 cebd 6472 26be
000002e0: e99f c5bd 26f6 0cbd 4194 edbd 0c19 36be
000002f0: b29e 22be dc25 bdba 4235 95bd 96a2 d0bd
00000300: 2272 a2bd 9a28 16be e80c cabd c1b0 f6bd
00000310: 58c9 97bd 519c 19be 9c45 27be 2ea1 1dbe
00000320: 9c1d 45be c4ca 39be c73e 22be fa78 3dbe
00000330: 3003 88be 253a 22bd 498e 8cbd 2055 7bbd
00000340: 005f a33d 78f5 693c 6d86 a83d e1fc a1bd
00000350: 94e1 063d 7cdf 5b3d f930 fc3c c412 5c3d
00000360: daed 3b3d 4665 3abb 9d4d 043e 7d51 223d
00000370: d7e1 283d c779 063d c094 f33d 4080 42bd
00000380: d056 80bb aa3b a03d 8051 123e 32ff a13d
00000390: 2011 b13d f595 af3d 80dd dd3d ec02 a03d
000003a0: e4c4 213d 74ef a63d 4a0f 553d 0c51 8d3d
000003b0: 43ca e93d 38d6 a63d c862 be3d b0c2 853d
000003c0: 52f7 d63c 7b7b aebc e349 473d 12c9 963b
000003d0: a000 753d 14a2 413c 4c75 943d 9fca 303d
000003e0: a4c8 523c 6f5a 8e3d 447f c4bc 9f40 a93d
000003f0: ca57 653d 90de babd 541b ff3d ecf0 41bd
-0.027746674 -0.06715384 -0.023281232 -0.020269774 -0.029424313 -0.08104745 -0.03808127 -0.0415752
-0.006257941 -0.06525156 -0.03276518 0.008661315 -0.009153031 0.0059176767 -0.015474099 -0.025720522
-0.17862606 -0.21982522 0.02037666 -0.0084474655 -0.39162046 -0.006699482 0.0101320315 -0.011347329
-0.48390937 -0.018937152 0.0077416846 0.014015263 0.043525748 0.019958291 0.049024098 0.0144325495
0.020818045 0.005143588 0.027836341 0.024651093 0.018881854 0.013160394 0.023498744 -0.0034295176
-0.009248035 -0.013275916 -0.068204954 0.0034007272 0.024042074 -0.07627799 0.009015938 0.0028245046
-0.12252708 0.5351223 0.024234783 0.026217552 0.10849814 0.0530778 0.006359946 0.023287304
-0.035092037 -0.030705925 -0.018017028 -0.021156538 -0.048655435 -0.033930205 -0.017142072 0.0030151678
-0.010186074 -0.029985024 0.012075449 0.0154461935 -0.03857678 -0.019064425 0.010078084 0.03328801
-0.08104679 -0.007043138 0.019047933 0.005326024 0.06131938 -0.032003038 0.0020630287 -0.019933954
0.10828846 0.061719924 0.032168727 0.0816358 0.1775173 0.18760458 -0.012150358 0.032921515
0.29338902 0.16414142 0.15824884 0.20300208 0.26111573 0.12007299 0.1284579 0.13301873
0.09604533 0.037438948 0.09191458 0.1510929 0.068734884 0.04301347 0.02365093 0.075338125
0.18802229 -0.069357365 0.042147957 0.04103256 -0.034587122 -0.03518967 0.014645338 0.013599949
-0.05852881 0.04111264 0.0018590651 0.009327669 -0.45465395 0.14829019 0.023062754 -0.016027998
0.014528241 0.0021677222 -0.11404261 -0.18580194 0.035050064 0.02630815 -0.17956686 -0.17222257
0.012408442 0.087210655 -0.12740403 -0.14788026 0.063548595 0.056642428 0.04909887 0.025380671
0.08057402 0.08055382 0.014437582 0.025485836 0.097542666 0.03197609 -0.046647668 0.008725513
0.13007763 0.014751027 0.11789005 -0.09826565 0.12008344 -0.0012574723 0.019334275 0.03567946
0.014150787 0.009027408 0.012085117 0.090056874 0.0711743 0.052850924 0.06110873 0.11291167
0.091461055 0.052436896 0.06912724 0.13657466 -0.0134545555 -0.0041254023 0.22508696 0.15451384
0.006126878 0.0837221 0.1387632 0.09698339 0.016951082 0.041064456 0.12785633 0.12287615
-0.01765927 -0.07841134 -0.12554258 -0.14574496 -0.11400781 -0.03210943 -0.100814804 -0.16254574
-0.09649641 -0.034414433 -0.11600543 -0.17782992 -0.1588085 -0.0014430839 -0.07285549 -0.10187261
-0.07931925 -0.14663926 -0.09865743 -0.12045432 -0.0741145 -0.15001036 -0.16335148 -0.15393516
-0.19249576 -0.18143755 -0.1584426 -0.1850318 -0.26564932 -0.039606232 -0.06863076 -0.06136048
0.07977104 0.014279716 0.08228765 -0.07909561 0.03292997 0.05367993 0.03078507 0.053728834
0.04588113 -0.0028441711 0.12920232 0.039628495 0.041231003 0.03283098 0.11893606 -0.04748559
-0.003916599 0.0782388 0.14288902 0.07910003 0.086458445 0.08573524 0.108332634 0.07813057
0.03949441 0.08151141 0.052016534 0.06900224 0.114155315 0.08146328 0.09296185 0.06531274
0.026240978 -0.021299114 0.04865445 0.004601606 0.05981505 0.011818428 0.07248935 0.043161985
0.012865219 0.069508426 -0.023986466 0.082642786 0.055991925 -0.09124482 0.12456384 -0.0473489
