Training/PyTrainer/epoch=11.ckpt (torch, 654021 bytes, 28 tensors)

net.0.weight f4 [256, 120]
0.0074568307 -0.056128792 -0.07342584 0.020285126 0.08993313 -0.051428925 0.015017156 -0.006546701
0.117603734 -0.04662033 -0.046314698 0.085458115 -0.08119025 -0.11246218 -0.079445645 0.037265483
-0.010645917 -0.07356992 -0.0662008 0.048141345 0.007226123 -0.12511468 -0.058121905 0.011280662
0.008369995 0.055391572 0.063436516 -0.025028601 0.06409721 0.1541107 0.14611706 0.09947932
-0.056788377 0.11097896 0.103277385 0.086092755 -0.037679397 0.103306934 0.047612853 0.029499898
-0.05712254 -0.010339835 0.013385047 0.023085203 -0.06492406 0.017966734 0.0071410043 0.015669895
-0.07793182 -0.04308857 0.019615129 -0.020379746 0.011482937 0.024166126 0.005583391 -0.035773966
-0.066432804 -0.11813099 -0.08549476 0.038829897 -0.012410764 -0.11745772 -0.08364338 -0.048573107
-0.027353324 -0.07391834 -0.065055355 -0.039406586 0.021932717 -0.062189 -0.12960342 -0.10011874
0.036362123 -0.08172299 -0.12683108 0.046154916 0.070293725 -0.08951374 -0.0851117 -0.12687665
-0.06738028 -0.022017593 -0.06566052 -0.01995442 0.025129018 -0.017848952 -0.12418581 0.017321184
0.112785175 -0.008206456 0.022816151 0.015954696 -0.07654138 0.024727724 -0.07037013 0.03962978
-0.049972672 0.12215168 0.08924535 0.07282068 0.04912792 0.16488242 0.09383024 -0.04051391
0.11845542 0.13085155 0.12644407 -0.057087213 0.1627033 -0.001364304 0.043599166 0.07473845
0.033226795 0.034624167 0.024156826 0.014232211 -0.030633539 -0.014613654 0.022123177 0.01999428
0.09363105 -0.09699692 -0.08664361 -0.12264703 -0.23391305 0.045189068 -0.16777131 -0.051497646
-0.08788714 -0.076678336 -0.028288838 -0.001116079 -0.07906684 0.12728207 -0.065426625 -0.08935441
-0.038137116 0.07911384 0.007152636 -0.08308913 -0.00333522 -0.01874832 -0.09117718 -0.049812958
-0.0782496 -0.055074774 -0.04916186 -0.071052104 0.08975435 0.13424993 0.09444186 0.079920545
-0.1344867 0.103763506 0.0021250832 0.042254068 0.24741444 -0.0052222176 0.04549294 0.03791544
0.03100868 -0.30741823 0.013719611 0.06250357 0.2204228 0.042595863 0.041012295 0.048179593
0.06250462 0.035966292 0.11610854 0.13996813 0.14324147 0.09505586 0.15630847 0.16545661
-0.025296334 -0.08602295 -0.08203825 -0.009553187 0.00091907836 -0.054252207 -0.090290725 -0.15475483
0.093772955 -0.06838848 -0.038588256 -0.010801058 -0.026296709 0.0010638209 -0.00861964 -0.0065767383
-0.08721105 -0.012801329 -0.0017068826 -0.018523764 -0.037920117 -0.0061227214 -0.13264364 -0.15702093
-0.075289026 -0.08893989 -0.050673075 -0.11846218 0.06740421 -0.033470854 -0.014929172 0.08207232
-0.09259993 -0.005524329 -0.020958066 -0.102244645 -0.017512146 0.0542489 0.10459324 0.12826446
0.027446523 0.001049445 0.030007906 0.06738978 0.033234373 0.16867748 -0.0071456768 0.022495054
0.111253224 -0.032141365 0.13969597 0.1251015 -0.05462163 0.17257625 0.053079925 0.12711078
0.09799097 0.107717246 -0.0576963 0.056076083 0.039586358 0.09030543 0.021250408 0.008457797
0.026677165 0.0035270858 0.06421159 -0.093996406 0.10384372 -0.099714056 -0.021762516 0.07719341
0.060532223 -0.08413038 0.06769171 -0.0050255256 0.0071082166 -0.020649944 -0.033163458 -0.19585964
00000000: 6e58 f43b 4ee7 65bd 4960 96bd fe2c a63c
00000010: dc2e b83d 23a7 52bd 840a 763c b585 d6bb
00000020: 3ada f03d f6f4 3ebd 7bb4 3dbd aa04 af3d
00000030: 1347 a6bd 9252 e6bd 66b4 a2bd b1a3 183d
00000040: 366c 2ebc d4ab 96bd 4994 87bd dc2f 453d
00000050: 1dc9 ec3b 101e 00be 3c11 6ebd 87d2 383c
00000060: 4e22 093c 46e2 623d 01eb 813d c808 cdbc
00000070: 6645 833d 32cf 1d3e b69f 153e d0bb cb3d
00000080: ee9a 68bd f048 e33d 1883 d33d 6651 b03d
00000090: b655 1abd 9692 d33d b205 433d c5a9 f13c
000000a0: 53f9 69bd 6968 29bc f54c 5b3c 2e1d bd3c
000000b0: e8f6 84bd f92e 933c 16ff e93b 275e 803c
000000c0: b89a 9fbd a47d 30bd e8af a03c 6df3 a6bc
000000d0: ee22 3c3c 0af8 c53c e1f4 b63b b987 12bd
000000e0: ec0d 88bd a9ee f1bd e017 afbd 190c 1f3d
000000f0: 8456 4bbc ac8d f0bd 384d abbd 98f4 46bd
00000100: 1414 e0bc 8062 97bd be3b 85bd cd68 21bd
00000110: 3eac b33c e5b9 7ebd c2b6 04be 0e0b cdbd
00000120: 73f0 143d 625e a7bd 02e0 01be f00c 3d3d
00000130: 28f6 8f3d fb52 b7bd 0b4f aebd f4eb 01be
00000140: acfe 89bd 3d5e b4bc 0679 86bd 7477 a3bc
00000150: 5fdb cd3c f737 92bc 2155 febd 28e5 8d3c
00000160: eafb e63d 5f74 06bc f0e8 ba3c 6cb3 823c
00000170: bac1 9cbd cc91 ca3c 371e 90bd d652 223d
00000180: 25b0 4cbd a92a fa3d 44c6 b63d 0223 953d
00000190: 5c3a 493d f0d6 283e 122a c03d eaf1 25bd
000001a0: c198 f23d f3fd 053e 8e7a 013e 48d4 69bd
000001b0: b29b 263e 72d2 b2ba 0a95 323d 7910 993d
000001c0: d218 083d 12d2 0d3d 89e4 c53c 382e 693c
000001d0: 30f3 fabc 1c6e 6fbc aa3b b53c 0bcb a33c
000001e0: a3c1 bf3d 52a6 c6bd 3472 b1bd 5e2e fbbd
000001f0: e786 6fbe 2c18 393d 3ecc 2bbe 32ef 52bd
00000200: 2cfe b3bd 8809 9dbd febd e7bc 6649 92ba
00000210: cced a1bd 3b56 023e 65fe 85bd 72ff b6bd
00000220: aa35 1cbd 7006 a23d a960 ea3b a22a aabd
00000230: b593 5abb 1496 99bc 1abb babd ac08 4cbd
00000240: 5441 a0bd 1696 61bd f25d 49bd c483 91bd
00000250: 21d1 b73d d078 093e bc6a c13d 62ad a33d
00000260: e2b6 09be f681 d43d fb44 0b3b 9a12 2d3d
00000270: 365a 7d3e 231f abbb ce56 3a3d 384d 1b3d
00000280: ea05 fe3c ec65 9dbe 38c8 603c df01 803d
00000290: 84b6 613e 0079 2e3d 82fc 273d f757 453d
000002a0: 6c02 803d 6451 133d 50ca ed3d ce53 0f3e
000002b0: e4ad 123e a6ac c23d 540f 203e 756d 293e
000002c0: 423a cfbc cd2c b0bd ac03 a8bd f884 1cbc
000002d0: 4eee 703a 9037 5ebd 58ea b8bd 0d78 1ebe
000002e0: 090c c03d 420f 8cbd b80e 1ebd ecf6 30bc
000002f0: 326c d7bc e86f 8b3a 6439 0dbc ae81 d7bb
00000300: b59b b2bd aabc 51bc 7ab9 dfba 26bf 97bc
00000310: 2052 1bbd 1ca1 c8bb bcd3 07be 18ca 20be
00000320: 2231 9abd 1e26 b6bd 928e 4fbd 4d9c f2bd
00000330: 380b 8a3d bc18 09bd 7c99 74bc 8815 a83d
00000340: 08a5 bdbd 6e05 b5bb 40b0 abbc a465 d1bd
00000350: a275 8fbc 1834 5e3d fb34 d63d c257 033e
00000360: 88d7 e03c 888d 893a 24d3 f53c a703 8a3d
00000370: c420 083d cab9 2c3e 4826 eabb 8c47 b83c
00000380: bbd8 e33d aaa6 03bd 760c 0f3e 9c1a 003e
00000390: eeba 5fbd d4b7 303e 566a 593d 5429 023e
000003a0: 7daf c83d dc9a dc3d f552 6cbd 09b0 653d
000003b0: 4e25 223d 0ef2 b83d 5615 ae3c 9292 0a3c
000003c0: 128a da3c ae26 673b 5e81 833d 3081 c0bd
000003d0: 04ac d43d e236 ccbd 4e47 b2bc 9417 9e3d
000003e0: a3f0 773d 8c4c acbd f4a1 8a3d 2aad a4bb
000003f0: 0bec e83b 122a a9bc 68d6 07bd 6e8f 48be

net.0.bias f4 [256]
0.018353742 -0.0006212027 0.022465264 0.06814946 -0.001330509 -0.21639371 -0.009783366 0.019898487
-0.08564565 0.006416749 0.08489181 -0.08008391 0.22672187 -0.06834632 0.2094885 -0.22332694
0.09251678 -0.0018118657 0.30927372 0.09460054 0.08883093 -0.10898624 0.3217134 0.007812994
-0.018412068 0.050583854 0.13099617 0.49321264 0.025357824 0.088776514 0.14442956 0.06087996
0.24744076 0.11336318 -0.07853158 -0.12736124 0.070570335 0.049694516 0.3470977 0.047191583
0.14499344 0.11234245 -0.008206928 0.025201548 0.022517953 0.016734298 0.06700436 0.12409949
0.053128235 0.08895624 0.002298356 0.13566169 0.013714645 0.081072114 -0.11693008 0.0628566
-0.06353151 -0.014515522 0.06307102 0.027949082 -0.14858042 0.10660083 0.079737686 0.11871953
0.0033768099 -0.015406329 0.0869022 0.027345262 0.060058042 0.061270364 0.06529672 0.00642619
0.016028259 -0.042549834 0.06815143 0.008459516 0.121815145 -0.07913276 -0.041113637 0.06920083
0.08072943 0.066973984 0.116068006 0.023803309 0.03000559 0.0877029 -0.115591384 0.007518341
-0.113650575 0.096895844 0.029077915 0.06544616 0.06565535 0.053765103 0.072496906 0.08419854
0.08323191 0.07764076 0.38983473 -0.043504633 0.06434955 0.041349683 0.32062086 0.24118409
0.011507138 0.13861421 -0.017966516 0.033742093 0.007586456 -0.15192162 0.048359677 0.17287719
0.22982824 0.07298668 -0.07546842 -0.023334421 0.018361012 0.10757807 -0.09502576 0.17230824
-0.105090454 0.08303762 -0.1744487 0.09263508 0.07560833 0.07687807 -0.057674862 0.0686892
0.5297836 -0.038799234 0.07865403 -0.20511037 0.1110101 0.004704683 0.17537045 0.048555296
-0.0019169578 -0.030456964 0.08801134 0.032765843 0.012979932 0.061055668 0.09577939 0.14676577
0.08596048 0.023627643 0.02005459 0.22042719 -0.17062268 0.031905703 0.026428252 -0.1254122
0.12695879 0.09922163 0.098727755 -0.05134176 0.021974027 -0.0017333936 0.06334187 -0.03375449
0.05099704 0.0011224007 0.024961963 -0.024006158 -0.024209708 -0.010857096 0.30956364 -0.04641883
0.035806008 -0.0021260143 0.018944174 0.039025363 0.008557172 -0.03922973 0.1636319 0.12604016
0.023572642 0.09567522 -0.16340882 0.034478575 -0.26805952 0.0065175947 0.010791235 0.099840656
0.24633777 -0.01180746 0.080391735 -0.08387457 0.08046998 0.05947294 0.087232865 0.055821165
0.05707947 0.044424396 0.022669394 -0.07191454 0.09858698 -0.055842362 -0.044675894 -0.2970742
0.056956433 0.015471635 -0.004005338 -0.019911285 0.15636739 0.03772393 0.044850968 0.014142808
-0.06734672 0.06556375 0.08954447 -0.022685237 0.19872636 0.06379859 0.14622921 0.06787423
-0.042980894 -0.00032504363 0.0872768 0.017772317 0.007691358 0.07956111 -0.27613217 0.11776456
0.021882948 0.117174126 0.07098817 -0.050754044 0.07141778 -0.017639244 0.0022986238 -0.10095292
-0.09829272 0.14681229 0.047628216 -0.0534847 -0.037831653 0.046135448 0.03211438 0.018864017
-0.19379255 0.04990045 0.096278235 0.019957623 -0.10242109 0.0224642 0.05130387 -0.24232975
-0.050653636 0.085940816 0.25987178 0.054852538 0.07172854 -0.22796243 0.024816211 0.106014766
00000000: 965a 963c 35d8 22ba 1309 b83c f291 8b3d
00000010: 7964 aeba 5096 5dbe 694a 20bc 2702 a33c
00000020: fd66 afbd 9843 d23b c2db ad3d 0803 a4bd
00000030: c729 683e 28f9 8bbd 2784 563e d1af 64be
00000040: 7079 bd3d 207c edba 2059 9e3e eebd c13d
00000050: feec b53d 2e34 dfbd 9eb7 a43e 1202 003c
00000060: e8d4 96bc 0431 4f3d dc23 063e 5e86 fc3e
00000070: 36bb cf3c 76d0 b53d 58e5 133e 445d 793d
00000080: 1c61 7d3e f42a e83d 2ad5 a0bd fc6a 02be
00000090: 2e87 903d 7a8c 4b3d cab6 b13e f64b 413d
000000a0: 2979 143e cc13 e63d 5a76 06bc 7a73 ce3c
000000b0: 9277 b83c 5e16 893c 9539 893d e027 fe3d
000000c0: fe9c 593d b02e b63d 04a0 163b e6ea 0a3e
000000d0: 64b3 603c 2309 a63d 0a79 efbd f6ba 803d
000000e0: cf1c 82bd 83d2 6dbc 612b 813d 79f5 e43c
000000f0: 7725 18be 8951 da3d 834d a33d 3a23 f33d
00000100: 784d 5d3b d46a 7cbc c8f9 b13d 2c03 e03c
00000110: 6cff 753d a2f6 7a3d 49ba 853d ca92 d23b
00000120: b24d 833c bc48 2ebd fa92 8b3d c899 0a3c
00000130: 387a f93d 5b10 a2bd c666 28bd 2ab9 8d3d
00000140: 7955 a53d a829 893d 10b5 ed3d 28ff c23c
00000150: 48ce f53c 949d b33d 2dbb ecbd 6a5c f63b
00000160: a2c1 e8bd 5471 c63d cf34 ee3c a308 863d
00000170: 5076 863d cc38 5c3d 4279 943d 4970 ac3d
00000180: 7e75 aa3d 1e02 9f3d 6b98 c73e ea31 32bd
00000190: b2c9 833d 495e 293d 6b28 a43e f6f8 763e
000001a0: 6f88 3c3c e2f0 0d3e 842e 93bc 2635 0a3d
000001b0: ce97 f83b 5791 1bbe cc14 463d b806 313e
000001c0: 1858 6b3e 0a7a 953d 308f 9abd d427 bfbc
000001d0: d569 963c e451 dc3d de9c c2bd 9271 303e
000001e0: aa39 d7bd a10f aa3d aea2 32be 76b7 bd3d
000001f0: 8ad8 9a3d 4072 9d3d 7a3c 6cbd ecac 8c3d
00000200: e69f 073f f2eb 1ebd 5d15 a13d 7408 52be
00000210: 4359 e33d be29 9a3b 5094 333e ebe1 463d
00000220: 6e42 fbba e280 f9bc 4a3f b43d 7a35 063d
00000230: c8a9 543c 8215 7a3d fc27 c43d c449 163e
00000240: 0c0c b03d c28e c13c 8649 a43c aab7 613e
00000250: b6b7 2ebe 8eaf 023d 1080 d83c 0e6c 00be
00000260: 7c01 023e b634 cb3d c731 ca3d bd4b 52bd
00000270: e002 b43c 0a33 e3ba 62b9 813d 2642 0abd
00000280: 46e2 503d 851d 933a 087d cc3c 90a8 c4bc
00000290: 7053 c6bc f6e1 31bc 207f 9e3e ac21 3ebd
000002a0: 52a9 123d 9a54 0bbb d030 9b3c 0fd9 1f3d
000002b0: 6133 0c3c 5aaf 20bd 1f8f 273e ac10 013e
000002c0: 6a1b c13c 5ff1 c33d a454 27be 6839 0d3d
000002d0: 193f 89be 8c91 d53b b8cd 303c 4279 cc3d
000002e0: f83f 7c3e 1474 41bc 6ca4 a43d 6ec6 abbd
000002f0: 72cd a43d e699 733d 25a7 b23d bca4 643d
00000300: 2acc 693d 5bf6 353d 2ab5 b93c ee47 93bd
00000310: f8e7 c93d f6ba 64bd 12fe 36bd 1c1a 98be
00000320: 264b 693d be7c 7d3c 363f 83bb fe1c a3bc
00000330: c61e 203e 6884 1a3d a6b5 373d 3cb7 673c
00000340: 14ed 89bd 4a46 863d 1763 b73d 64d6 b9bc
00000350: ec7e 4b3e d6a8 823d 1cbd 153e a501 8b3d
00000360: bc0c 30bd 9e6a aab9 2ebe b23d 4097 913c
00000370: ca07 fc3b eff0 a23d 3261 8dbe 8c2e f13d
00000380: de43 b33c fdf8 ef3d 3f62 913d 79e3 4fbd
00000390: 7c43 923d 2d80 90bc 82a4 163b 68c0 cebd
000003a0: b24d c9bd f655 163e ce15 433d c612 5bbd
000003b0: 5df5 1abd 86f8 3c3d 5e8a 033d b688 9a3c
000003c0: 8e71 46be 6a64 4c3d 862d c53d 2b7e a33c
000003d0: 26c2 d1bd d806 b83c 0224 523d 4a25 78be
000003e0: 307a 4fbd bd01 b03d ea0d 853e 0ead 603d
000003f0: 6ae6 923d fc6e 69be 5e4b cb3c 451e d93d

net.2.weight f4 [32, 256]
-0.07552582 0.055552103 0.18494004 0.051057115 0.098603785 0.048067007 0.0015164192 0.14918156
-0.13208744 0.01657361 0.1131777 0.15041678 -0.14387499 -0.017174546 0.033815242 0.095092356
0.05424325 0.016236592 0.0028713965 0.27951193 -0.085268855 -0.26935762 0.28121978 0.18059207
-0.12406619 0.2824759 0.05230945 -0.30337816 -0.21106459 -0.0455034 0.07374281 0.081621274
-0.03998901 -0.04283621 0.20887059 0.040481023 -0.30008113 -0.11592683 0.07108393 -0.0010512951
0.05899571 -0.00094293006 -0.069396555 -0.09947787 -0.21241981 0.07756796 0.009520597 -0.11248018
0.20030081 -0.21347609 -0.008928787 0.2962214 0.14125422 -0.076608635 0.004838731 0.12385
-0.14741415 -0.07003915 0.28130913 -0.19595933 0.15606567 -0.15846008 0.08818318 -0.119140625
-0.15817839 -0.24242961 -0.06916121 -0.026246062 -0.35208568 -0.04570265 -0.070225485 0.15384778
-0.26241815 0.023275804 0.07189262 0.017223245 -0.067061156 0.08720692 0.28386903 0.0077986764
0.10979576 0.28029758 0.010168824 -0.098240815 -0.18495402 -0.2495178 -0.042673007 0.15771239
0.10533692 -0.16840224 -0.109398924 0.14555523 -0.2957449 0.16765489 -0.23021306 0.08468418
0.27014434 0.18257633 -0.17016524 0.044732686 -0.28082716 0.20555803 0.19985762 -0.13884315
0.05364062 -0.23777328 -0.009376541 -0.1011838 0.010973889 -0.13800026 0.08724165 -0.10340899
-0.26796556 -0.07018134 0.047234632 -0.09480774 0.19109744 -0.19241813 -0.014786484 -0.11622595
-0.004455601 0.027943177 0.12114094 0.11449322 0.16545403 0.0046893153 -0.081353255 0.13126794
0.09978384 -0.30577165 -0.17026167 0.1980825 0.014450531 -0.025468457 -0.06608124 -0.091987506
0.056375988 0.035888158 -0.1895698 0.17476949 0.15125751 -0.012261645 0.19869134 0.005012988
0.09537633 -0.098026365 -0.04232903 -0.07122538 0.049380276 -0.1943905 -0.21247733 0.03784246
0.119162545 -0.026508842 0.1259802 0.035447575 -0.16361341 0.002456029 0.0036515112 -0.08827208
-0.0067674452 0.16973779 -0.14053833 -0.021256845 -0.10091837 0.087580875 -0.08390157 -0.2219784
0.013032803 0.22093637 -0.09229465 0.0024810922 -0.29699522 0.23387171 -0.19831465 -0.037803084
-0.05893933 -0.18268609 0.08414094 -0.1713795 -0.041208826 0.062436376 -0.15016171 0.0006419674
-0.22204688 0.20253658 0.35833496 -0.038541928 -0.10165538 -0.056780156 -0.013466829 -0.021236882
0.02272401 0.15879872 -0.16020027 -0.2373916 0.18804619 -0.2637516 0.021143313 0.07233354
0.21547794 -0.17588599 0.08662073 -0.11231117 0.14064682 -0.03945449 -0.011563268 -0.022573087
-0.008391763 -0.24925302 -0.078273416 0.01071369 0.020704683 -0.114018604 -0.14945859 0.03924302
0.41295615 -0.0841513 0.056991316 -0.13755874 0.20635623 0.07823725 0.07387093 -0.0824234
0.043382995 0.20589903 -0.06904104 -0.18994212 0.26892805 -0.0006531323 -0.24649446 -0.109433845
-0.003906278 -0.24272208 0.055979606 -0.27786282 0.0032643848 -0.017034832 0.07478482 -0.18302217
-0.0046315324 -0.019633848 -0.012613859 0.08061093 0.19283038 0.22881854 -0.09804044 0.26369128
0.3320857 0.09937289 -0.11165094 -0.2885166 0.10514676 0.13655698 0.30808842 -0.3091637
00000000: 48ad 9abd 9a8a 633d ec60 3d3e 4421 513d
00000010: c8f0 c93d e9e1 443d 96c2 c63a 0dc3 183e
00000020: ee41 07be 61c5 873c b6c9 e73d db06 1a3e
00000030: f753 13be a2b1 8cbc da81 0a3d c8bf c23d
00000040: 2c2e 5e3d 9a02 853c 0a2e 3c3b 301c 8f3e
00000050: 70a1 aebd 3ee9 89be 0afc 8f3e 21ed 383e
00000060: 6a16 febd aea0 903e 6f42 563d 6254 9bbe
00000070: 5121 58be c661 3abd 7806 973d 0e29 a73d
00000080: 84cb 23bd 0675 2fbd 2ce2 553e 6ecf 253d
00000090: 3ca4 99be 0c6b edbd 7494 913d 9ccb 89ba
000000a0: 7ca5 713d f72e 77ba c81f 8ebd 0ebb cbbd
000000b0: 9484 59be f3db 9e3d 47fc 1b3c 025c e6bd
000000c0: a81b 4d3e 7a99 5abe 0c4a 12bc 55aa 973e
000000d0: f2a4 103e fde4 9cbd 388e 9e3b 12a5 fd3d
000000e0: bcf3 16be b070 8fbd c007 903e 90a9 48be
000000f0: aecf 1f3e 5c43 22be 6299 b43d 0000 f4bd
00000100: 84f9 21be 783f 78be 64a4 8dbd fb01 d7bc
00000110: 9344 b4be b432 3bbd 61d2 8fbd 468a 1d3e
00000120: ac5b 86be e6ac be3c 703c 933d c317 8d3c
00000130: 5c57 89bd 8b99 b23d 4857 913e 0a8c ff3b
00000140: 99dc e03d 2a83 8f3e 249b 263c 7b32 c9bd
00000150: 9664 3dbe 9881 7fbe e4c9 2ebd 5b7f 213e
00000160: e2ba d73d a371 2cbe 8b0c e0bd 6e0c 153e
00000170: e06b 97be b9ad 2b3e f9bc 6bbe e66e ad3d
00000180: 5c50 8a3e 4af5 3a3e cc3f 2ebe 9f39 373d
00000190: 94c8 8fbe ce7d 523e 7aa7 4c3e e62c 0ebe
000001a0: 44b6 5b3d d77a 73be 10a0 19bc 7439 cfbd
000001b0: d4cb 333c f14f 0dbe c0ab b23d 18c8 d3bd
000001c0: c832 89be 3cbb 8fbd 1a79 413d 8f2a c2bd
000001d0: 0caf 433e 4209 45be 0243 72bc df07 eebd
000001e0: 4a00 92bb 17e9 e43c be18 f83d 6c7b ea3d
000001f0: c86c 293e d4a8 993b 899c a6bd 1a6b 063e
00000200: 785b cc3d 1a8e 9cbe 1359 2ebe 24d6 4a3e
00000210: ecc1 6c3c 3aa3 d0bc 9a55 87bd f263 bcbd
00000220: 82ea 663d 76ff 123d 961e 42be c6f6 323e
00000230: 40e3 1a3e 11e5 48bc be75 4b3e fe43 a43b
00000240: aa54 c33d 0cc2 c8bd 3461 2dbd 9dde 91bd
00000250: f942 4a3d 4e0e 47be a893 59be b200 1b3d
00000260: 7e0b f43d 1229 d9bc f400 013e 7a31 113d
00000270: 468a 27be 54f5 203b 314e 6f3b fec7 b4bd
00000280: 72c1 ddbb becf 2d3e 48e9 0fbe d622 aebc
00000290: 4aae cebd 9a5d b33d 96d4 abbd 4e4e 63be
000002a0: 8a87 553c 253d 623e fa04 bdbd d299 223b
000002b0: c20f 98be 117c 6f3e ff12 4bbe 68d7 1abd
000002c0: 5e6a 71bd 1012 3bbe 1652 ac3d 1c7e 2fbe
000002d0: 96ca 28bd 49bd 7f3d fec3 19be b449 283a
000002e0: 4260 63be c065 4f3e ae77 b73e 24de 1dbd
000002f0: b230 d0bd 4f92 68bd faa3 5cbc f8f8 adbc
00000300: b427 ba3c 229c 223e 8a0b 24be c916 73be
00000310: 2e8f 403e 730a 87be be34 ad3c 9b23 943d
00000320: 40a6 5c3e 751b 34be 3666 b13d 6603 e6bd
00000330: b805 103e 089b 21bd dc73 3dbc 32eb b8bc
00000340: 9b7d 09bc 2f3c 7fbe d04d a0bd 7988 2f3c
00000350: de9c a93c 9682 e9bd ac0b 19be 4abd 203d
00000360: fd6e d33e 8457 acbd ba6f 693d 33dc 0cbe
00000370: 0c4f 533e da3a a03d a449 973d 99cd a8bd
00000380: 5eb2 313d 32d7 523e 6465 8dbd 3080 42be
00000390: f0b0 893e f736 2bba 0b69 7cbe da1e e0bd
000003a0: 3c00 80bb 238c 78be df4a 653d 0944 8ebe
000003b0: 4aef 553b a28c 8bbc c928 993d 2a6a 3bbe
000003c0: 1cc4 97bb 2ad7 a0bc 5caa 4ebc 5817 a53d
000003d0: 5475 453e 684f 6a3e 6dc9 c8bd 8b02 873e
000003e0: 2307 aa3e 0484 cb3d 3fa9 e4bd 73b8 93be
000003f0: 2f57 d73d 98d5 0b3e c4bd 9d3e b44a 9ebe

net.2.bias f4 [32]
-0.11063911 -0.18037318 -0.013716977 0.026475372 0.4212764 0.0031774237 -0.045568123 -0.05932077
0.01098256 -0.05927217 0.088374525 -0.09121156 0.14815198 -0.014727049 -0.084533095 0.056164958
0.04662901 0.041785847 -0.0624476 -0.053451058 0.048398577 -0.035827227 0.061293498 0.037160344
0.07335293 0.11457965 -0.035619713 -0.0068836007 0.022986062 0.04698491 0.35361433 0.07233442
00000000: c296 e2bd bfb3 38be 2cbd 60bc e1e2 d83c
00000010: 8ab1 d73e 533c 503b a4a5 3abd 56fa 72bd
00000020: 32f0 333c 60c7 72bd b4fd b43d 20cd babd
00000030: 27b5 173e b849 71bc b01f adbd 3a0d 663d
00000040: 10fe 3e3d a327 2b3d 0ec9 7fbd 7fef 5abd
00000050: 963d 463d 92bf 12bd e40e 7b3d 7235 183d
00000060: 103a 963d bca8 ea3d fae5 11bd d48f e1bb
00000070: 444d bc3c 4073 403d f00c b53e 1224 943d

net.4.weight f4 [32, 32]
-0.18214224 0.008387165 0.08687285 -0.06912194 0.047280956 0.32718736 0.006733494 0.034799036
-0.23590998 -0.054598145 -0.19633785 -0.23517609 0.13273677 0.2550725 0.24475291 0.18615186
0.3009526 -0.1340763 0.13635728 -0.009111615 0.26722544 -0.13292213 -0.096354514 -0.109810516
0.24576762 0.07727103 -0.1905854 -0.12023592 -0.1373178 -0.40978086 -0.14167403 0.22966938
-0.3208811 -0.019234128 -0.17157352 0.20286657 0.25352407 0.04163967 0.2856468 -0.0013012817
-0.28383574 -0.42090708 -0.09369889 -0.42052042 0.20894523 0.08303672 -0.056512482 0.2558812
-0.30254874 -0.54057854 0.077490926 0.12971137 0.23233828 0.2885778 0.07601072 -0.2380392
-0.14506781 0.26448917 -0.14012486 0.26307306 0.11188036 -0.15427741 0.09745868 0.04066149
-0.34667742 -0.22663283 0.13802677 0.06859297 0.2626898 -0.13301982 -0.0035103676 0.04969634
-0.041753463 0.1973675 -0.31934366 -0.19243908 0.28532475 0.2329365 -0.19559129 0.15425938
0.21429452 -0.05869092 0.09673437 0.050141428 0.16283444 -0.2417424 -0.26208773 -0.39250356
-0.26686412 0.2883277 0.21280721 -0.21046245 0.2257441 0.14060311 -0.20141384 -0.2049306
-0.17009395 0.048020832 0.025937255 0.0794807 0.26607797 0.22719863 -0.30505645 -0.21219285
0.037592657 0.27863756 0.18295059 -0.07335341 -0.06202112 -0.025235493 -0.25433668 -0.18038219
-0.20597023 -0.2693295 0.12100803 0.20976564 0.11315745 -0.14481929 0.16992804 0.049116414
-0.52384806 0.08486079 -0.10208982 -0.0953875 -0.12001142 0.3569794 -0.3400482 0.3771927
-0.046000283 -0.37992173 -0.30836987 0.19189519 -0.08482019 0.34142494 0.11701114 0.05709052
0.18164402 -0.22978923 0.112458214 0.18210152 -0.0036370908 0.025781076 0.05712772 0.26803088
0.13087012 0.23978257 -0.0119345095 0.2706905 0.05804649 -0.10195418 -0.081593975 -0.032423407
-0.10411413 0.008523749 -0.121357545 0.051398642 -0.32482523 0.014403712 0.298155 -0.09905025
-0.011915625 -0.1472728 -0.6689472 0.22238952 0.020770557 0.27719003 0.29954904 -0.4961288
0.17614806 -0.18155295 -0.30246451 0.09855464 -0.19801608 -0.0013271701 -0.37478006 0.13118778
-0.034259193 -0.6187528 -0.17588061 0.33312535 0.2745877 0.30168968 -0.063282244 -0.2643141
0.27837804 0.15586275 -0.4509339 0.45950612 0.2035568 0.31073874 -0.08494715 0.26504803
0.45996857 0.46123177 0.06877887 0.32187307 0.28313154 -0.21991643 0.09659158 0.18165267
0.04882109 0.103575125 0.30318186 0.3057384 -0.09683721 0.026491769 0.17139103 0.13456659
-0.09340573 0.3566623 0.33712056 0.3647201 0.16552603 -0.0062605804 0.05682759 -0.005434758
-0.10294776 0.06276488 0.24230199 -0.013077939 -0.44063503 -0.03826364 -0.5643879 0.1884488
-0.057318136 0.08893789 -0.020991111 -0.4047116 0.14618576 0.16551867 -0.332504 0.44040638
-0.40154326 0.24865943 0.2283816 -0.23713224 0.3618189 -0.23527382 0.006730335 -0.33282602
0.17946222 -0.07149032 0.2547381 -0.22458866 -0.2762986 0.06038609 -0.13554153 0.25620967
0.13463408 -0.08450461 0.22336599 -0.5722494 -0.1781222 -0.025152445 0.2760321 0.11269583
00000000: 7f83 3abe 526a 093c 65ea b13d ce8f 8dbd
00000010: ada9 413d 1a85 a73e a4a4 dc3b 6f89 0e3d
00000020: 6392 71be 4ea2 5fbd ca0c 49be 00d2 70be
00000030: 26ec 073e dd98 823e 82a0 7a3e 989e 3e3e
00000040: 7616 9a3e 4c4b 09be 3ea1 0b3e e248 15bc
00000050: c6d1 883e bd1c 08be 8455 c5bd 56e4 e0bd
00000060: 82aa 7b3e 4640 9e3d d228 43be 403e f6bd
00000070: 0a9d 0cbe ccce d1be ff12 11be 732e 6b3e
00000080: 874a a4be e490 9dbc f8b0 2fbe 41bc 4f3e
00000090: e8cd 813e 5c8e 2a3d 4c40 923e c58f aaba
000000a0: eb52 91be 2281 d7be 34e5 bfbd 744e d7be
000000b0: bdf5 553e 280f aa3d a279 67bd dc02 833e
000000c0: abe7 9abe 5b63 0abf 90b3 9e3d 0fd3 043e
000000d0: 16ea 6d3e 78c0 933e 82ab 9b3d 8cc0 73be
000000e0: a88c 14be 206b 873e e47c 0fbe 83b1 863e
000000f0: 8821 e53d e6fa 1dbe 6b98 c73d aa8c 263d
00000100: b47f b1be 7012 68be e456 0d3e 797a 8c3d
00000110: 477f 863e 5936 08be 320e 66bb 648e 4b3d
00000120: ae05 2bbd b51a 4a3e 0381 a3be c00e 45be
00000130: 1616 923e e886 6e3e 1549 48be 2cf6 1d3e
00000140: 0670 5b3e e465 70bd ab1c c63d 1961 4d3d
00000150: 12be 263e 528b 77be 5d30 86be 3af6 c8be
00000160: 6aa2 88be b09f 933e 22ea 593e 7883 57be
00000170: 7629 673e 43fa 0f3e 6e3f 4ebe 54d9 51be
00000180: 1c2d 2ebe 7eb1 443d 5e7a d43c c7c6 a23d
00000190: 5f3b 883e c2a6 683e 5c30 9cbe 1549 59be
000001a0: c2fa 193d 95a9 8e3e 6657 3b3e 503a 96bd
000001b0: dc09 7ebd aaba cebc 6b38 82be 1cb6 38be
000001c0: dce9 52be 8ee5 89be 0fd3 f73d cecc 563e
000001d0: 18bf e73d 824b 14be 9e01 2e3e 4b2e 493d
000001e0: e81a 06bf 7ecb ad3d 7814 d1bd 865a c3bd
000001f0: 8cc8 f5bd 01c6 b63e cc1a aebe 671f c13e
00000200: cb6a 3cbd 1a85 c2be a8e2 9dbe 2c80 443e
00000210: 35b6 adbd 40cf ae3e 89a3 ef3d c0d7 693d
00000220: e400 3a3e de4d 6bbe 7e50 e63d d278 3a3e
00000230: 425c 6ebb d632 d33c c2fe 693d 583b 893e
00000240: d102 063e 9089 753e f688 43bc f297 8a3e
00000250: 28c2 6d3d 5acd d0bd be1a a7bd 68ce 04bd
00000260: ca39 d5bd 32a7 0b3c 4e8a f8bd 6287 523d
00000270: 7e4f a6be 8cfd 6b3c c6a7 983e dcda cabd
00000280: c139 43bc aece 16be 2040 2bbf 14ba 633e
00000290: 0427 aa3c daeb 8d3e 7e5e 993e 9804 febe
000002a0: 2860 343e 04e9 39be a1dc 9abe 04d7 c93d
000002b0: bac4 4abe 70f4 adba 2ce3 bfbe 1756 063e
000002c0: 5e53 0cbd 9566 1ebf 0c1a 34be 688f aa3e
000002d0: c296 8c3e 1277 9a3e 1f9a 81bd 2d54 87be
000002e0: 9187 8e3e 7c9a 1f3e cfe0 e6be 6344 eb3e
000002f0: 3271 503e 2619 9f3e c5f8 adbd 60b4 873e
00000300: 0081 eb3e 9226 ec3e f0db 8c3d 8ccc a43e
00000310: 9ef6 903e c631 61be ced1 c53d 2803 3a3e
00000320: a0f8 473d 321f d43d a73a 9b3e be89 9c3e
00000330: 9652 c6bd 4405 d93c 2181 2f3e d3cb 093e
00000340: 814b bfbd 719c b63e 119b ac3e 98bc ba3e
00000350: a87f 293e 8e25 cdbb 0cc4 683d 0e16 b2bb
00000360: 46d6 d2bd e08a 803d 031e 783e da44 56bc
00000370: ea9a e1be 56ba 1cbd ba7b 10bf b9f8 403e
00000380: 6cc6 6abd 1225 b63d 8df5 abbc 5c36 cfbe
00000390: b8b1 153e ba7d 293e f73d aabe f27c e13e
000003a0: 1497 cdbe 94a0 7e3e dedc 693e cbd2 72be
000003b0: 5440 b93e 9feb 70be 248a dc3b 2c68 aabe
000003c0: f2c4 373e 8469 92bd 086d 823e 92fa 65be
000003d0: 0377 8dbe 6857 773d 66cb 0abe ea2d 833e
000003e0: 84dd 093e c110 adbd 0eba 643e f07e 12bf
000003f0: aa65 36be 800c cebc 1454 8d3e 12cd e63d

net.4.bias f4 [32]
0.033200905 0.047414005 0.0142736845 -0.0074817482 0.05977789 0.13210186 -0.016920619 0.07643281
-0.027496796 -0.011547356 0.024842918 0.08809708 0.007559972 0.04570324 -0.019790996 0.013534903
0.08058179 0.03721261 -0.09882903 -0.3322059 0.034042086 -0.17692387 -0.31381524 0.16342889
0.10624434 0.1564087 -0.033438295 0.0391985 0.014467685 0.039652776 -0.025963422 -0.22139764
00000000: acfd 073d 3035 423d 2cdc 693c 7429 f5bb
00000010: a9d9 743d b645 073e 1c9d 8abc ce88 9c3d
00000020: f640 e1bc 1f31 3dbc 6083 cb3c 3e6c b43d
00000030: a4b9 f73b 5233 3b3d ba20 a2bc 7fc1 5d3c
00000040: 1108 a53d 406c 183d e066 cabd e416 aabe
00000050: b76f 0b3d 882b 35be 64ac a0be e759 273e
00000060: a296 d93d 9a29 203e 98f6 08bd 9b8e 203d
00000070: de09 6d3c f36a 223d 3eb1 d4bc 10b6 62be

net.6.weight f4 [1, 32]
-0.17730018 0.3461853 0.20913969 -0.56906587 -0.64217186 -0.53709614 0.4654815 -0.6147059
-0.3366685 -0.42352724 0.39105928 0.073326185 -0.4824887 0.7229578 0.30580395 -0.55841255
0.584355 -0.5848622 -0.36615545 0.66177976 0.833646 0.6758766 0.3637998 0.614823
0.42538 0.33790904 -0.62217677 -0.73446375 -0.23288164 0.2861331 0.95239323 -0.8135972
00000000: 2e8e 35be 333f b13e b728 563e 4dae 11bf
00000010: 6065 24bf 227f 09bf 9753 ee3e 5e5d 1dbf
00000020: d05f acbe 90d8 d8be ec38 c83e 0a2c 963d
00000030: c208 f7be c313 393f 5692 9c3e 20f4 0ebf
00000040: 4a98 153f 87b9 15bf ba78 bbbe 666a 293f
00000050: d369 553f 4006 2d3f f843 ba3e 0a65 1d3f
00000060: 68cb d93e 6a02 ad3e fa46 1fbf d105 3cbf
00000070: 8678 6ebe 0a80 923e 0bd0 733f e847 50bf

exp_avg f4 [256, 120]
-4.881354e-07 7.6016527e-06 1.0454629e-06 -9.595149e-06 4.0535997e-06 -6.5673603e-06 -1.9232908e-05 -2.6612524e-06
1.1687086e-05 -1.1673127e-06 1.6030974e-05 1.8181361e-05 4.405078e-06 -1.3399076e-05 1.60935e-05 -4.6908845e-06
-1.2419873e-05 -2.351997e-05 2.3512788e-05 2.2632084e-06 1.1969951e-05 3.1592328e-06 -7.67798e-06 4.1078314e-05
-3.314068e-05 -3.5247387e-05 1.8659639e-05 1.0813435e-05 2.4417104e-05 1.7591577e-07 -1.7940696e-05 3.1227628e-05
-1.9676812e-05 1.426413e-05 2.4824523e-05 2.340799e-06 -6.335471e-06 -8.8876195e-06 9.458322e-06 1.1315573e-05
-3.219415e-05 9.264738e-06 -3.4203151e-06 -3.0450483e-05 1.8922481e-05 1.2894038e-05 -8.1685863e-07 1.5874662e-05
-2.1932274e-05 -7.666029e-06 -1.7047136e-05 -5.1272696e-06 6.8529307e-06 8.663579e-06 -4.4738135e-06 8.516449e-06
7.2480507e-06 5.310637e-06 -7.124505e-06 -7.896784e-06 -5.658898e-06 -1.4235087e-06 7.3909373e-06 -8.390234e-06
-3.1307459e-06 2.4789692e-06 -7.780193e-06 -8.4003545e-07 5.0421604e-06 3.8282215e-07 -1.2988933e-06 1.4348224e-06
-8.223842e-07 2.9097966e-06 1.1300381e-06 -2.1331757e-06 1.8410352e-06 -6.119284e-07 1.6307446e-06 4.2746217e-07
-2.604307e-07 1.0900388e-06 -2.3133596e-07 1.3142547e-07 1.6318447e-07 4.785352e-07 5.394008e-07 3.2619047e-07
6.4490143e-07 -3.6773451e-07 -5.24328e-07 7.9227743e-07 -1.6067531e-07 1.2777366e-07 3.187077e-09 1.4774122e-06
6.647186e-07 4.3599216e-06 -4.785299e-06 -7.482782e-07 -1.8884276e-06 1.757382e-06 -1.0365441e-06 1.5142049e-06
3.0845033e-06 -1.8638032e-06 -1.1167454e-05 1.4557296e-06 2.759536e-06 -1.8470312e-06 -4.98836e-06 1.3642677e-06
-3.7444565e-06 6.208335e-07 -2.3304399e-07 -2.2827976e-06 3.184974e-06 -5.876667e-06 -1.3776744e-05 -4.6646223e-06
3.415638e-06 6.1050255e-06 3.3709925e-06 4.1874839e-07 4.211585e-06 -1.8905565e-06 1.123307e-06 1.1928885e-05
-1.2501542e-05 2.0464886e-05 2.3651712e-05 6.3990933e-06 -1.8991585e-07 -5.6548553e-05 -2.8290357e-05 -1.0626315e-05
-4.722924e-06 -1.1461238e-05 1.2294885e-05 -1.6123655e-05 3.1984877e-05 -4.8866466e-05 1.4700916e-05 1.0770663e-05
-1.1179555e-05 -2.837297e-05 -1.3549116e-05 -1.3170577e-05 7.2208063e-06 2.394969e-06 -1.6036018e-05 2.0478064e-05
-1.6277743e-05 2.3382772e-05 9.17302e-07 -6.718105e-06 -2.0742726e-07 -4.5671273e-05 -2.6254713e-05 -1.2848869e-05
-2.079374e-05 4.456349e-06 2.7192384e-06 -2.383769e-05 3.7302004e-06 -1.3814034e-06 -2.5332325e-05 3.4738882e-06
-9.93111e-06 -5.664757e-07 -6.1428373e-06 2.5304557e-06 5.2655587e-06 5.7292173e-06 1.6290636e-06 6.43017e-06
5.1365614e-06 2.3976168e-06 1.3198105e-06 4.714723e-06 6.3451074e-07 3.8126152e-06 2.3915434e-06 3.5672483e-06
2.4614847e-06 3.591298e-06 1.1042595e-07 1.8260776e-06 6.1078176e-06 1.6540632e-06 3.0221056e-06 6.668956e-06
4.0042155e-06 6.154849e-06 5.6469607e-06 2.6423074e-06 4.558564e-06 3.7287114e-06 6.548943e-06 5.0729086e-06
3.37609e-06 4.606972e-06 4.6126734e-06 3.8385338e-06 4.195974e-06 3.9768256e-06 4.2718025e-06 3.8659887e-06
4.3021346e-06 4.1585413e-06 3.743911e-06 3.948565e-06 3.7051882e-06 3.9235983e-06 3.859438e-06 4.7221833e-06
4.5019765e-06 4.184159e-06 1.0659451e-06 2.9483886e-06 1.9606841e-06 4.024759e-06 3.060539e-06 3.0153421e-06
5.3279246e-06 4.911575e-06 -2.0175564e-08 3.8493217e-06 3.9851434e-06 4.0246205e-06 4.3724535e-07 3.875589e-06
5.387783e-06 8.602831e-06 5.5333926e-06 6.4280407e-06 6.808571e-07 5.424502e-06 -3.7405287e-06 -4.0584796e-06
8.6255017e-07 3.4916536e-07 -5.0722674e-06 -3.1253928e-06 4.3095147e-06 -5.5808814e-06 5.019042e-06 -1.89582e-06
9.1914935e-06 5.0623235e-06 3.6086424e-06 1.651655e-05 -1.8656082e-06 -1.540278e-05 3.145558e-06 -3.7252362e-06
00000000: 6908 03b5 b311 ff36 d551 8c35 dafa 20b7
00000010: 2804 8836 325d dcb6 5b56 a1b7 f897 32b6
00000020: a713 4437 8fac 9cb5 417a 8637 2d84 9837
00000030: 55cf 9336 98cc 60b7 8700 8737 6466 9db6
00000040: f35e 50b7 c04c c5b7 543d c537 a0e1 1736
00000050: 8cd2 4837 3503 5436 acd0 00b7 814b 2c38
00000060: 8900 0bb8 98d6 13b8 4587 9c37 5a6b 3537
00000070: 55d3 cc37 5ce3 3c34 5a7f 96b7 69fa 0238
00000080: a20f a5b7 f94f 6f37 423e d037 9f16 1d36
00000090: 4895 d4b6 091c 15b7 2faf 1e37 04d8 3d37
000000a0: 3508 07b8 bf6f 1b37 9188 65b6 ea6f ffb7
000000b0: b8bb 9e37 7953 5837 1946 5bb5 942a 8537
000000c0: 33fb b7b7 589d 00b7 7200 8fb7 e90a acb6
000000d0: 3af2 e536 ca59 1137 c41d 96b6 dfe1 0e37
000000e0: 4834 f336 0632 b236 080f efb6 6e7c 04b7
000000f0: 90e1 bdb6 630f bfb5 abff f736 c8c3 0cb7
00000100: ce19 52b6 5e5c 2636 ad87 02b7 cc7e 61b5
00000110: d42f a936 ad86 cd34 a255 aeb5 1f94 c035
00000120: d0c1 5cb5 ed45 4336 d0ab 9735 ae27 0fb6
00000130: 7d19 f735 6643 24b5 f5df da35 f47d e534
00000140: 53d1 8bb4 734d 9235 2565 78b4 f51d 0d34
00000150: ce37 2f34 b074 0035 57cb 1035 471f af34
00000160: 4a1d 2d35 0c6d c5b4 8cbf 0cb5 e4ac 5435
00000170: 1886 2cb4 2832 0934 a703 5b31 7f4b c635
00000180: 1d6f 3235 714b 9236 6891 a0b6 49dd 48b5
00000190: e175 fdb5 30df eb35 621f 8bb5 af3b cb35
000001a0: 5dff 4e36 ca27 fab5 da5b 3bb7 7d62 c335
000001b0: 7830 3936 82e7 f7b5 b061 a7b6 e21b b735
000001c0: 4649 7bb6 5aa7 2635 a53a 7ab4 2a32 19b6
000001d0: 70bd 5536 2f30 c5b6 aa22 67b7 cd84 9cb6
000001e0: 3738 6536 c5d9 cc36 3639 6236 57d0 e034
000001f0: 3d51 8d36 07bf fdb5 89c4 9635 2c22 4837
00000200: b7bd 51b7 02ac ab37 aa67 c637 cbb7 d636
00000210: aceb 4bb4 8c2e 6db8 1451 edb7 ad47 32b7
00000220: 9c79 9eb6 a449 40b7 2146 4e37 4941 87b7
00000230: 8027 0638 f8f5 4cb8 f4a3 7637 a5b3 3437
00000240: d38f 3bb7 7d02 eeb7 0351 63b7 33f7 5cb7
00000250: 414a f236 41b9 2036 1685 86b7 4fc8 ab37
00000260: 308c 88b7 1f26 c437 833c 7635 156c e1b6
00000270: 2cb9 5eb4 288f 3fb8 913d dcb7 7991 57b7
00000280: 376e aeb7 bf87 9536 297c 3636 0df7 c7b7
00000290: 5b54 7a36 a968 b9b5 c180 d4b7 f220 6936
000002a0: cb9d 26b7 ea0f 18b5 921e ceb6 e6d0 2936
000002b0: ceae b036 9a3d c036 33a6 da35 bdc2 d736
000002c0: ba5a ac36 bee6 2036 5824 b135 2a33 9e36
000002d0: 3f53 2a35 3bdc 7f36 677e 2036 dc64 6f36
000002e0: fc2f 2536 0802 7136 4f23 ed33 8c17 f535
000002f0: c1f1 cc36 2e01 de35 61cf 4a36 e5c5 df36
00000300: f35b 8636 c085 ce36 067b bd36 7f52 3136
00000310: c4f5 9836 c63a 7a36 febe db36 f437 aa36
00000320: c990 6236 9795 9a36 90c6 9a36 c1cc 8036
00000330: 24cb 8c36 ac70 8536 8156 8f36 97b8 8136
00000340: 0e5b 9036 9989 8b36 e73f 7b36 ea7d 8436
00000350: a6a6 7836 74a7 8336 5280 8136 3f73 9e36
00000360: af0f 9736 a765 8c36 9811 8f35 eedc 4536
00000370: 4c94 0336 6b0c 8736 a963 4d36 2f5b 4a36
00000380: 86c6 b236 1cce a436 894e adb2 6c29 8136
00000390: 1fb8 8536 3a0b 8736 8bbe ea34 0e0b 8236
000003a0: b4c8 b436 e154 1037 7bab b936 73b0 d736
000003b0: 25c4 3635 1e04 b636 cb05 7bb6 132e 88b6
000003c0: ff89 6735 ec74 bb34 7232 aab6 d7bd 51b6
000003d0: 739a 9036 6843 bbb6 3e69 a836 e173 feb5
000003e0: 2a35 1a37 07dd a936 012c 7236 058d 8a37
000003f0: cf65 fab5 3835 81b7 4618 5336 12ff 79b6

exp_avg_sq f4 [256, 120]
3.2629714e-08 3.256816e-08 3.3466847e-08 3.3584026e-08 3.3088664e-08 3.334325e-08 3.2644543e-08 3.191903e-08
3.8591754e-08 3.2076205e-08 2.6480958e-08 2.941946e-08 4.7463107e-08 8.242486e-08 1.3209298e-07 7.611791e-08
4.4311335e-07 2.1666838e-07 3.2897483e-07 1.7451858e-07 2.0501732e-07 3.1311586e-07 3.7105892e-07 3.6757314e-07
2.6186805e-07 4.2619632e-07 6.474093e-07 5.5457537e-07 4.6548558e-07 6.2249916e-07 4.3133707e-07 2.5214538e-07
3.0465242e-07 3.0337006e-07 3.5842316e-07 2.1216731e-07 1.3126804e-07 3.2056198e-07 2.6415626e-07 5.1421887e-07
7.328104e-08 1.2396653e-07 8.2559765e-08 6.2981e-08 2.5630301e-08 2.6194133e-08 3.009789e-08 5.116413e-08
2.8237256e-08 3.1624342e-08 3.377332e-08 3.1249012e-08 3.2831796e-08 3.3378022e-08 3.3442074e-08 3.240749e-08
3.3039683e-08 3.336028e-08 3.268697e-08 3.3087748e-08 3.298204e-08 3.3719132e-08 3.3819553e-08 3.3789355e-08
3.3186097e-08 3.3194645e-08 3.3719946e-08 3.322896e-08 3.3315338e-08 3.337788e-08 3.3188922e-08 3.3260545e-08
3.2977677e-08 3.3066495e-08 3.3120116e-08 3.3098747e-08 3.313325e-08 3.3066666e-08 3.317026e-08 3.3117754e-08
3.3130664e-08 3.315282e-08 3.31367e-08 3.3137933e-08 3.3102047e-08 3.3126884e-08 3.3140804e-08 3.310879e-08
3.3068638e-08 3.3097916e-08 3.308066e-08 3.3103387e-08 3.3090043e-08 3.3069952e-08 3.3086767e-08 3.3048963e-08
3.3156283e-08 3.3154038e-08 3.3120518e-08 3.306915e-08 3.3208675e-08 3.322695e-08 3.298102e-08 3.3094302e-08
3.3267685e-08 3.3660324e-08 3.360801e-08 3.3018686e-08 3.3199562e-08 3.343159e-08 3.3709963e-08 3.357929e-08
3.3473864e-08 3.3831444e-08 3.298852e-08 3.334777e-08 3.270219e-08 3.3096978e-08 3.338666e-08 3.3149018e-08
1.8515621e-08 1.867508e-08 1.8838355e-08 1.8815511e-08 1.861491e-08 1.8408153e-08 1.7989304e-08 1.7372505e-08
1.8586555e-08 1.950524e-08 1.5812978e-08 1.7158447e-08 3.2979347e-08 1.306133e-07 6.50808e-08 3.7185806e-08
2.3466858e-07 1.8896104e-07 1.9585175e-07 8.896917e-08 1.367005e-07 2.0565453e-07 1.8293453e-07 2.0199651e-07
1.7548713e-07 2.2389571e-07 3.6828305e-07 2.9418885e-07 3.022328e-07 3.8677527e-07 2.4895007e-07 1.508466e-07
1.6030259e-07 2.0916929e-07 2.0268371e-07 1.134058e-07 1.8842017e-07 1.571427e-07 1.5813086e-07 2.7369063e-07
7.269847e-08 1.37516585e-08 5.0536663e-08 6.3290344e-08 1.5372587e-08 1.6203115e-08 2.0339423e-08 3.5574143e-08
1.6609906e-08 1.832064e-08 1.8563124e-08 1.7390963e-08 1.8535259e-08 1.865005e-08 1.8871344e-08 1.8129123e-08
1.853311e-08 1.876469e-08 1.841817e-08 1.8769464e-08 1.8810049e-08 1.8964952e-08 1.8930221e-08 1.8834708e-08
1.886672e-08 1.8829434e-08 1.9080765e-08 1.876919e-08 1.8860101e-08 1.896422e-08 1.8875843e-08 1.8761437e-08
1.8744972e-08 1.8792095e-08 1.8889855e-08 1.8779474e-08 1.8819602e-08 1.8801869e-08 1.8775873e-08 1.8834722e-08
1.881241e-08 1.8818541e-08 1.8819676e-08 1.8804508e-08 1.8801053e-08 1.8802698e-08 1.8808525e-08 1.8815827e-08
1.8794724e-08 1.8803778e-08 1.8801893e-08 1.880337e-08 1.8782545e-08 1.8797097e-08 1.8774735e-08 1.8792447e-08
1.8763421e-08 1.8870805e-08 1.885938e-08 1.8797715e-08 1.886564e-08 1.8779502e-08 1.8761227e-08 1.8789075e-08
1.8813882e-08 1.8924268e-08 1.8934905e-08 1.8874058e-08 1.8809471e-08 1.8920362e-08 1.8934928e-08 1.8876076e-08
1.8656625e-08 1.8957074e-08 1.8625697e-08 1.8843693e-08 1.870133e-08 1.8591972e-08 1.8648016e-08 1.8634871e-08
2.1504158e-08 2.2234737e-08 2.2512756e-08 2.2483965e-08 2.1015332e-08 2.1746326e-08 2.1116048e-08 1.9365366e-08
3.1577727e-08 1.7264767e-08 1.7668116e-08 1.9602654e-08 4.0599424e-08 4.4867615e-08 9.274769e-08 3.2724053e-08
00000000: c024 0c33 12e1 0b33 30bd 0f33 073e 1033
00000010: 5f1d 0e33 4b35 0f33 0e35 0c33 5817 0933
00000020: 15c0 2533 29c4 0933 3e78 e332 14b6 fc32
00000030: 3dda 4b33 8c01 b133 71d5 0d34 4376 a333
00000040: 09e5 ed34 5aa5 6834 f59d b034 4d63 3b34
00000050: bb22 5c34 511a a834 f335 c734 de56 c534
00000060: df96 8c34 facf e434 a1c9 2d35 21de 1435
00000070: dae7 f934 d119 2735 8492 e734 995e 8734
00000080: 1c8f a334 ddde a234 4e6d c034 1bd0 6334
00000090: aff2 0c34 b419 ac34 5cd1 8d34 da08 0a35
000000a0: ae5e 9d33 a91b 0534 b64b b133 2c40 8733
000000b0: a129 dc32 8201 e132 fb44 0133 8ebf 5b33
000000c0: 628e f232 55d3 0733 280e 1133 a736 0633
000000d0: f102 0d33 865b 0f33 f3a1 0f33 6930 0b33
000000e0: 84e7 0d33 0448 0f33 b463 0c33 5d1c 0e33
000000f0: 23a8 0d33 94d2 1033 fe40 1133 ca1f 1133
00000100: 8088 0e33 e691 0e33 79d3 1033 a1b7 0e33
00000110: 9a16 0f33 5e5b 0f33 9b8b 0e33 5bda 0e33
00000120: 57a3 0d33 ff04 0e33 f43f 0e33 7528 0e33
00000130: 654e 0e33 2f05 0e33 1677 0e33 5b3d 0e33
00000140: 8d4b 0e33 e963 0e33 3052 0e33 8b53 0e33
00000150: 162c 0e33 6547 0e33 b356 0e33 8033 0e33
00000160: 5a07 0e33 8b27 0e33 9214 0e33 8f2d 0e33
00000170: e31e 0e33 cc08 0e33 491b 0e33 b8f1 0d33
00000180: b867 0e33 4065 0e33 6540 0e33 ea07 0e33
00000190: 53a1 0e33 6bb5 0e33 04a7 0d33 9223 0e33
000001a0: 35e2 0e33 eb91 1033 6658 1033 6ed0 0d33
000001b0: 4e97 0e33 6c96 0f33 7fc8 1033 d238 1033
000001c0: e7c4 0f33 114e 1133 43af 0d33 433a 0f33
000001d0: 7074 0c33 8326 0e33 0565 0f33 bb5f 0e33
000001e0: 480c 9f32 ef6a a032 fbd1 a132 bf9f a132
000001f0: 9fe6 9f32 f51f 9e32 e686 9a32 8b3a 9532
00000200: 44a8 9f32 7a8c a732 1bd5 8732 d363 9332
00000210: 2da5 0d33 b63e 0c34 8cc2 8b33 3ab6 1f33
00000220: 35f9 7b34 37e5 4a34 524b 5234 520f bf33
00000230: f3c7 1234 e3d1 5c34 a96c 4434 61e4 5834
00000240: 896d 3c34 fc67 7034 70b8 c534 02f1 9d34
00000250: 8f42 a234 fda5 cf34 70a7 8534 66f8 2134
00000260: a41f 2c34 0498 6034 46a1 5934 7f89 f333
00000270: 8b50 4a34 0ebb 2834 aeca 2934 c1ef 9234
00000280: 681e 9c33 6f40 6c32 a60d 5933 3cea 8733
00000290: ad0c 8432 072f 8b32 ddb6 ae32 2fca 1833
000002a0: 92ad 8e32 835f 9d32 be74 9f32 2263 9532
000002b0: 7737 9f32 e533 a032 861a a232 5dba 9b32
000002c0: bd32 9f32 fd2f a132 fc35 9e32 7d3a a132
000002d0: bc93 a132 5fe8 a232 ff9b a232 f6c9 a132
000002e0: 5b10 a232 5dbe a132 0ce7 a332 e339 a132
000002f0: cd01 a232 c3e6 a232 6b24 a232 d628 a132
00000300: a104 a132 416c a132 3b43 a232 8050 a132
00000310: bea8 a132 bf81 a132 9548 a132 fec9 a132
00000320: ed98 a132 69a6 a132 e8a8 a132 8d87 a132
00000330: f47f a132 9283 a132 6290 a132 71a0 a132
00000340: 0972 a132 f285 a132 cd81 a132 0c85 a132
00000350: 4157 a132 4177 a132 1446 a132 076d a132
00000360: 332d a132 5719 a232 3700 a232 9d78 a132
00000370: fb0d a232 9050 a132 6028 a132 9d65 a132
00000380: 2a9c a132 e88e a232 4ca6 a232 7e20 a232
00000390: 7792 a132 5186 a232 59a6 a232 ee24 a232
000003a0: 5a42 a032 0cd7 a232 57fe 9f32 b8dd a132
000003b0: a9a4 a032 2eb4 9f32 6c2f a032 8412 a032
000003c0: 25b8 b832 b4fe be32 1362 c132 c322 c132
000003d0: 3485 b432 adcc ba32 ae62 b532 e458 a632
000003e0: 14a0 0733 a04d 9432 99c4 9732 b162 a832
000003f0: 8a5f 2e33 77b4 4033 952c c733 7a8c 0c33

slow_buffer f4 [256, 120]
0.0074568307 -0.056128792 -0.07342584 0.020285126 0.08993313 -0.051428925 0.015017156 -0.006546701
0.117603734 -0.04662033 -0.046314698 0.085458115 -0.08119025 -0.11246218 -0.079445645 0.037265483
-0.010645917 -0.07356992 -0.0662008 0.048141345 0.007226123 -0.12511468 -0.058121905 0.011280662
0.008369995 0.055391572 0.063436516 -0.025028601 0.06409721 0.1541107 0.14611706 0.09947932
-0.056788377 0.11097896 0.103277385 0.086092755 -0.037679397 0.103306934 0.047612853 0.029499898
-0.05712254 -0.010339835 0.013385047 0.023085203 -0.06492406 0.017966734 0.0071410043 0.015669895
-0.07793182 -0.04308857 0.019615129 -0.020379746 0.011482937 0.024166126 0.005583391 -0.035773966
-0.066432804 -0.11813099 -0.08549476 0.038829897 -0.012410764 -0.11745772 -0.08364338 -0.048573107
-0.027353324 -0.07391834 -0.065055355 -0.039406586 0.021932717 -0.062189 -0.12960342 -0.10011874
0.036362123 -0.08172299 -0.12683108 0.046154916 0.070293725 -0.08951374 -0.0851117 -0.12687665
-0.06738028 -0.022017593 -0.06566052 -0.01995442 0.025129018 -0.017848952 -0.12418581 0.017321184
0.112785175 -0.008206456 0.022816151 0.015954696 -0.07654138 0.024727724 -0.07037013 0.03962978
-0.049972672 0.12215168 0.08924535 0.07282068 0.04912792 0.16488242 0.09383024 -0.04051391
0.11845542 0.13085155 0.12644407 -0.057087213 0.1627033 -0.001364304 0.043599166 0.07473845
0.033226795 0.034624167 0.024156826 0.014232211 -0.030633539 -0.014613654 0.022123177 0.01999428
0.09363105 -0.09699692 -0.08664361 -0.12264703 -0.23391305 0.045189068 -0.16777131 -0.051497646
-0.08788714 -0.076678336 -0.028288838 -0.001116079 -0.07906684 0.12728207 -0.065426625 -0.08935441
-0.038137116 0.07911384 0.007152636 -0.08308913 -0.00333522 -0.01874832 -0.09117718 -0.049812958
-0.0782496 -0.055074774 -0.04916186 -0.071052104 0.08975435 0.13424993 0.09444186 0.079920545
-0.1344867 0.103763506 0.0021250832 0.042254068 0.24741444 -0.0052222176 0.04549294 0.03791544
0.03100868 -0.30741823 0.013719611 0.06250357 0.2204228 0.042595863 0.041012295 0.048179593
0.06250462 0.035966292 0.11610854 0.13996813 0.14324147 0.09505586 0.15630847 0.16545661
-0.025296334 -0.08602295 -0.08203825 -0.009553187 0.00091907836 -0.054252207 -0.090290725 -0.15475483
0.093772955 -0.06838848 -0.038588256 -0.010801058 -0.026296709 0.0010638209 -0.00861964 -0.0065767383
-0.08721105 -0.012801329 -0.0017068826 -0.018523764 -0.037920117 -0.0061227214 -0.13264364 -0.15702093
-0.075289026 -0.08893989 -0.050673075 -0.11846218 0.06740421 -0.033470854 -0.014929172 0.08207232
-0.09259993 -0.005524329 -0.020958066 -0.102244645 -0.017512146 0.0542489 0.10459324 0.12826446
0.027446523 0.001049445 0.030007906 0.06738978 0.033234373 0.16867748 -0.0071456768 0.022495054
0.111253224 -0.032141365 0.13969597 0.1251015 -0.05462163 0.17257625 0.053079925 0.12711078
0.09799097 0.107717246 -0.0576963 0.056076083 0.039586358 0.09030543 0.021250408 0.008457797
0.026677165 0.0035270858 0.06421159 -0.093996406 0.10384372 -0.099714056 -0.021762516 0.07719341
0.060532223 -0.08413038 0.06769171 -0.0050255256 0.0071082166 -0.020649944 -0.033163458 -0.19585964
00000000: 6e58 f43b 4ee7 65bd 4960 96bd fe2c a63c
00000010: dc2e b83d 23a7 52bd 840a 763c b585 d6bb
00000020: 3ada f03d f6f4 3ebd 7bb4 3dbd aa04 af3d
00000030: 1347 a6bd 9252 e6bd 66b4 a2bd b1a3 183d
00000040: 366c 2ebc d4ab 96bd 4994 87bd dc2f 453d
00000050: 1dc9 ec3b 101e 00be 3c11 6ebd 87d2 383c
00000060: 4e22 093c 46e2 623d 01eb 813d c808 cdbc
00000070: 6645 833d 32cf 1d3e b69f 153e d0bb cb3d
00000080: ee9a 68bd f048 e33d 1883 d33d 6651 b03d
00000090: b655 1abd 9692 d33d b205 433d c5a9 f13c
000000a0: 53f9 69bd 6968 29bc f54c 5b3c 2e1d bd3c
000000b0: e8f6 84bd f92e 933c 16ff e93b 275e 803c
000000c0: b89a 9fbd a47d 30bd e8af a03c 6df3 a6bc
000000d0: ee22 3c3c 0af8 c53c e1f4 b63b b987 12bd
000000e0: ec0d 88bd a9ee f1bd e017 afbd 190c 1f3d
000000f0: 8456 4bbc ac8d f0bd 384d abbd 98f4 46bd
00000100: 1414 e0bc 8062 97bd be3b 85bd cd68 21bd
00000110: 3eac b33c e5b9 7ebd c2b6 04be 0e0b cdbd
00000120: 73f0 143d 625e a7bd 02e0 01be f00c 3d3d
00000130: 28f6 8f3d fb52 b7bd 0b4f aebd f4eb 01be
00000140: acfe 89bd 3d5e b4bc 0679 86bd 7477 a3bc
00000150: 5fdb cd3c f737 92bc 2155 febd 28e5 8d3c
00000160: eafb e63d 5f74 06bc f0e8 ba3c 6cb3 823c
00000170: bac1 9cbd cc91 ca3c 371e 90bd d652 223d
00000180: 25b0 4cbd a92a fa3d 44c6 b63d 0223 953d
00000190: 5c3a 493d f0d6 283e 122a c03d eaf1 25bd
000001a0: c198 f23d f3fd 053e 8e7a 013e 48d4 69bd
000001b0: b29b 263e 72d2 b2ba 0a95 323d 7910 993d
000001c0: d218 083d 12d2 0d3d 89e4 c53c 382e 693c
000001d0: 30f3 fabc 1c6e 6fbc aa3b b53c 0bcb a33c
000001e0: a3c1 bf3d 52a6 c6bd 3472 b1bd 5e2e fbbd
000001f0: e786 6fbe 2c18 393d 3ecc 2bbe 32ef 52bd
00000200: 2cfe b3bd 8809 9dbd febd e7bc 6649 92ba
00000210: cced a1bd 3b56 023e 65fe 85bd 72ff b6bd
00000220: aa35 1cbd 7006 a23d a960 ea3b a22a aabd
00000230: b593 5abb 1496 99bc 1abb babd ac08 4cbd
00000240: 5441 a0bd 1696 61bd f25d 49bd c483 91bd
00000250: 21d1 b73d d078 093e bc6a c13d 62ad a33d
00000260: e2b6 09be f681 d43d fb44 0b3b 9a12 2d3d
00000270: 365a 7d3e 231f abbb ce56 3a3d 384d 1b3d
00000280: ea05 fe3c ec65 9dbe 38c8 603c df01 803d
00000290: 84b6 613e 0079 2e3d 82fc 273d f757 453d
000002a0: 6c02 803d 6451 133d 50ca ed3d ce53 0f3e
000002b0: e4ad 123e a6ac c23d 540f 203e 756d 293e
000002c0: 423a cfbc cd2c b0bd ac03 a8bd f884 1cbc
000002d0: 4eee 703a 9037 5ebd 58ea b8bd 0d78 1ebe
000002e0: 090c c03d 420f 8cbd b80e 1ebd ecf6 30bc
000002f0: 326c d7bc e86f 8b3a 6439 0dbc ae81 d7bb
00000300: b59b b2bd aabc 51bc 7ab9 dfba 26bf 97bc
00000310: 2052 1bbd 1ca1 c8bb bcd3 07be 18ca 20be
00000320: 2231 9abd 1e26 b6bd 928e 4fbd 4d9c f2bd
00000330: 380b 8a3d bc18 09bd 7c99 74bc 8815 a83d
00000340: 08a5 bdbd 6e05 b5bb 40b0 abbc a465 d1bd
00000350: a275 8fbc 1834 5e3d fb34 d63d c257 033e
00000360: 88d7 e03c 888d 893a 24d3 f53c a703 8a3d
00000370: c420 083d cab9 2c3e 4826 eabb 8c47 b83c
00000380: bbd8 e33d aaa6 03bd 760c 0f3e 9c1a 003e
00000390: eeba 5fbd d4b7 303e 566a 593d 5429 023e
000003a0: 7daf c83d dc9a dc3d f552 6cbd 09b0 653d
000003b0: 4e25 223d 0ef2 b83d 5615 ae3c 9292 0a3c
000003c0: 128a da3c ae26 673b 5e81 833d 3081 c0bd
000003d0: 04ac d43d e236 ccbd 4e47 b2bc 9417 9e3d
000003e0: a3f0 773d 8c4c acbd f4a1 8a3d 2aad a4bb
000003f0: 0bec e83b 122a a9bc 68d6 07bd 6e8f 48be
