Training/PyTrainer/epoch=72.ckpt (torch, 654021 bytes, 28 tensors)

net.0.weight f4 [256, 120]
000000 43 86 3d 3d fe 08 db bb cc 65 a3 bd ec 65 ee bc
       0.04627062 -0.0066844216 -0.079784006 -0.029101335
000010 58 7e 54 bd d1 41 d2 bd 79 54 35 3d 19 cc 0a bc
       -0.051878303 -0.1026646 0.044270013 -0.008471512
000020 a9 f7 d3 bb 05 20 9e 3d 4c d6 ef 3c 30 8e 84 3b
       -0.0064687324 0.07720951 0.02927699 0.0040452704
000030 28 71 ce 3c 91 9d 98 bd 4e 81 14 bd c1 2a 37 3d
       0.025200441 -0.074519284 -0.036256127 0.044718508
000040 90 48 9a 3d b4 88 b1 bc fd 9e 17 be dc 84 a2 3d
       0.075333714 -0.02167163 -0.14806743 0.07935497
000050 24 53 33 3d 71 68 8c bd 8c 1e c0 bd 28 3e 18 bd
       0.04378046 -0.06855858 -0.09380826 -0.03716865
000060 fb 92 48 3d 22 90 14 bc 3a 95 da bc 53 83 15 3d
       0.048968296 -0.009067567 -0.026682485 0.036502194
000070 07 12 82 bc 7d 05 eb 3c 21 b9 bc 3d 5d 77 4e 3c
       -0.015877737 0.02868914 0.09214998 0.012601701
000080 df ff 22 bd 34 ad 63 bd d6 16 86 bd 10 21 71 3d
       -0.0397948 -0.0555851 -0.06547324 0.05886942
000090 4a 24 df bc c7 c0 9b 3d 52 ac fe bd 76 66 86 bd
       -0.027238984 0.07605129 -0.12435211 -0.065625116
0000a0 e3 d1 4b 3b 06 32 2b 3e df 02 c0 3c 80 fd d5 bd
       0.0031100444 0.16718301 0.023438869 -0.10448742
0000b0 ad 4f 89 3a f2 5e bd 3d a8 c8 f9 3d bc cb 7e bd
       0.0010476016 0.09246625 0.12196475 -0.062206015
0000c0 82 c3 2c bd 59 b1 11 bd a3 8d 90 bd 0c 75 2f bd
       -0.04217864 -0.035569523 -0.07058265 -0.042836234
0000d0 55 c7 6d bd 04 b1 82 bc 59 2f f5 3d 3c 8f 88 3d
       -0.058051426 -0.015953548 0.119719215 0.06667945
0000e0 8d ae 9c bc 34 8e f4 bd 93 6b dd 3b c9 14 32 bc
       -0.019126201 -0.119411856 0.0067572086 -0.010869213
0000f0 48 d5 b3 bc 3d 85 f3 bd 2a fc 52 bd 96 30 be 3c
       -0.021952286 -0.118906476 -0.051510014 0.023216527
000100 7d 94 d0 bd 14 01 27 be 77 f7 16 bc fd b1 bd bc
       -0.10184572 -0.16309005 -0.009214274 -0.02315616
000110 ba 7b da bd 5f c5 82 bd c1 0a db bd bb 57 4c 3d
       -0.1066813 -0.06385302 -0.106954105 0.049888354
000120 5e 42 db 3c 0e 69 aa bd e1 d1 a7 3c 43 94 cf bc
       0.026765045 -0.08320819 0.02048582 -0.025339251
000130 b7 c1 cf 3d 42 bc 02 bd 48 19 83 3d 1a 1c ac 3d
       0.1014437 -0.031917818 0.064013064 0.084037974
000140 b1 11 d8 bd cc af f8 bd ea 20 07 3d 5e 0a 84 3d
       -0.10550249 -0.121429056 0.032990374 0.0644729
000150 66 a1 cd 3a 75 a1 b7 bc 33 8c be 3c 91 0b b0 39
       0.0015688359 -0.022415856 0.023260212 0.00033577954
000160 4d 31 92 3d 90 de 60 3d 00 09 ce 3c f3 64 f1 bd
       0.0713831 0.054899752 0.025150776 -0.11786833
000170 74 38 73 bc 22 c2 16 3e 35 24 9f 3d 9b 3e f1 bd
       -0.014845002 0.14722493 0.07770578 -0.11779519
000180 75 10 ee bc 43 11 da 3d 5d 04 a8 3d 26 0e 0b 3e
       -0.029060582 0.10647824 0.08203957 0.13579616
000190 cc bb 35 bd 80 1b 3f 3e 3c e1 dd 3d ea 86 24 3d
       -0.04436855 0.18662834 0.10833976 0.040167727
0001a0 76 3e 7e bd 60 dc 8c 3d fe 79 90 bd e9 02 7f bd
       -0.062071286 0.06877971 -0.07054518 -0.062258635
0001b0 32 03 c8 bc ae c6 e0 3d de b7 10 3e d5 7a 83 3d
       -0.024415586 0.10975395 0.1413264 0.06419913
0001c0 57 8c cf 3d 32 5b 7e bd 6d 10 4c bd 6e 57 e7 3d
       0.101341896 -0.06209869 -0.049820352 0.11295973
0001d0 45 4e 03 3d 9a ef 02 bd d2 ef 48 3b f8 e2 f4 3d
       0.032057066 -0.031966783 0.0030660522 0.11957353
0001e0 0e b7 30 3e 09 fc b6 bd ae 20 99 bc e2 4b b0 3d
       0.1725733 -0.08934791 -0.01869234 0.086082235
0001f0 d8 42 fe 3d 45 23 95 bd f5 87 54 3d f3 c3 9c bd
       0.12415093 -0.07282118 0.05188747 -0.07654562
000200 11 6f fd ba bc cc 7c 3d 96 30 88 3d 6d 4b 58 3d
       -0.0019335469 0.061718687 0.06649892 0.052806307
000210 3a 8c 11 3e 2b 26 57 3c f7 5b bc 3d 7d ff 65 3d
       0.14213648 0.013131659 0.091972284 0.056151856
000220 b7 94 c9 3d 43 49 8b bc 8f 7f 07 be 78 a9 b0 bc
       0.09842818 -0.017002707 -0.13232253 -0.021565184
000230 c3 53 ea bd 0a de 0a be ef 58 02 3d e8 ef aa bc
       -0.114417575 -0.13561264 0.031823095 -0.02086635
000240 db e4 c0 bd 75 20 20 bd d1 19 24 be 54 eb 0b 3e
       -0.09418651 -0.039093453 -0.16025473 0.1366399
000250 8a 4c 5e 3d 3a cd 3a 3b 69 42 86 bd 80 c8 53 bd
       0.054272212 0.0028503672 -0.065556355 -0.051704884
000260 0c a5 cf bc a7 a9 a1 bd 1e cc cb bd 92 a7 cc bc
       -0.025347255 -0.07893687 -0.09951042 -0.024982248
000270 bc 48 a4 bc 8e 46 5f 3c 02 8e 2e bc 67 57 c0 bc
       -0.020054214 0.013627661 -0.0106539745 -0.023479177
000280 9a 6d aa bd bb 2f 85 3d 81 34 81 bc fc 43 1f 3e
       -0.08321686 0.065032445 -0.015772106 0.15553278
000290 d4 1e 21 3e 4c 8a d2 bd 34 f3 9d 3c e0 f1 25 be
       0.15734416 -0.10280284 0.019281007 -0.16205549
0002a0 27 ea 8f 3c 05 45 bb 3d 38 82 1c 3e 4a 03 5a bd
       0.017567707 0.09144024 0.1528405 -0.053225793
0002b0 d5 95 ce bc 8d ad 4d bc 14 98 59 bd 71 1e aa bd
       -0.02521793 -0.012553585 -0.05312355 -0.083065875
0002c0 5f ab 98 3d c1 37 b4 3c ee 00 74 bd ae 30 a5 3d
       0.074545614 0.021999242 -0.0595712 0.080659255
0002d0 ac fe 96 3d a8 61 d0 bd 8d 1c cb ba 79 24 a2 3b
       0.073727936 -0.101748765 -0.001549618 0.0049481955
0002e0 92 97 c8 bc 71 64 e9 bd 89 20 a1 bd c1 bd a6 3b
       -0.024486337 -0.11396111 -0.07867534 0.0050885384
0002f0 68 2f 85 3d 56 e3 48 3c af f3 99 bd 15 67 3b 3b
       0.06503183 0.012261232 -0.07517182 0.0028595377
000300 3f 4b c1 3d f1 67 ee 3d f8 27 cb bc 26 57 f2 3b
       0.0943818 0.11640919 -0.024799332 0.007395643
000310 cd 63 df 3d 6a 2b b4 bd 44 05 ac bd 63 88 6c 3d
       0.10907707 -0.08797343 -0.08399442 0.057747256
000320 8d d8 85 bd fc d6 0d 3e 8d c5 80 3d ec 85 9e 3d
       -0.065354444 0.13851541 0.0628768 0.07740387
000330 b7 e1 81 3d f2 b4 92 bb 0d b3 90 bc 7e 40 b1 3c
       0.0634188 -0.004477137 -0.017663503 0.021637198
000340 48 34 d8 bd 2f fe e3 3d 87 61 fc 3c 9c b2 0d 3e
       -0.10556847 0.11132466 0.030808223 0.13837665
000350 cd 72 d2 bd 00 16 57 bd f6 52 04 3e 89 e2 9e bd
       -0.10275803 -0.052511215 0.12922272 -0.07758052
000360 1c 3e d9 3b 71 70 8c 3d ec c9 84 3c 80 45 87 3d
       0.0066297185 0.06857384 0.016209565 0.06605053
000370 b4 c5 09 3e f1 1c fc 3b 72 49 ef bd b9 02 27 bc
       0.13454324 0.00769388 -0.116839305 -0.01019352
000380 9d 21 ac 3c a6 14 a3 3d 44 f0 bd 3d d5 af 66 bd
       0.021012122 0.07962923 0.09274343 -0.05632003
000390 52 d9 96 3d 9e ed bb 3d cf 03 d0 bc fa c5 b2 3d
       0.07365669 0.09176181 -0.025392441 0.08729167
0003a0 6f 9d f6 bc ef 5a ad 3d 27 3e bb bd 95 bf 00 be
       -0.030104367 0.0846461 -0.09142714 -0.12573083
0003b0 b9 cc 37 bd 4d ff b3 3d 2b b9 03 be fb c4 12 bc
       -0.044872973 0.08788929 -0.12863605 -0.008958097
0003c0 6e 2f cb 3b 89 7f fc bc 43 8a ad 3c 4c 15 e8 bc
       0.0062007224 -0.030822532 0.021184092 -0.028330468
0003d0 ec 58 d7 3c 56 2c 03 3e da 15 99 bc 05 6d 3b bd
       0.026287518 0.12809882 -0.018687177 -0.045758266
0003e0 ad f1 31 3e cc 42 94 bb 95 ff 6d 3d 51 c8 a5 bd
       0.17377348 -0.0045245644 0.05810507 -0.08094848
0003f0 a1 c8 98 bb 6b 93 da 3d 1c e2 8e 3d 01 21 c8 3d
       -0.0046625887 0.10672649 0.06976721 0.0977192

net.0.bias f4 [256]
000000 ec f2 e2 3c 93 6a ac bc 3e 8f 43 3d cb e2 94 3c
       0.027703725 -0.021046912 0.04774403 0.01817455
000010 99 3c 41 bd 57 b9 3a 3d 8c ab fe bc 38 14 7a bd
       -0.04717693 0.04558691 -0.03108766 -0.06105444
000020 9f 25 5a 3d a4 29 5a 3d 13 c5 18 3d 7b 54 1c 3d
       0.053258535 0.053262368 0.03729732 0.038166504
000030 a6 48 73 3d c9 10 39 bd d1 03 14 bd 89 7a 46 3d
       0.059395455 -0.045182023 -0.036136452 0.048456702
000040 5f e8 ed 3d c9 75 7f bd b5 c2 12 3d 0a dc 64 3d
       0.11616587 -0.062368188 0.03583022 0.055873908
000050 49 18 99 bc 58 46 8c 3d 28 f7 1f 3d 2c 5e 05 bd
       -0.018688338 0.068493545 0.039054066 -0.032560512
000060 06 d0 d2 3c 3a 83 05 bc af ff ee 3c d6 24 90 3d
       0.025733959 -0.008148963 0.029174654 0.07038276
000070 2b 94 62 3d 69 be 8c bb ef 33 0d 3d 30 dc 1b bd
       0.055317085 -0.0042951596 0.034473356 -0.038051784
000080 95 54 12 bd 53 7f 16 3b cf e3 26 3d 10 9a fb bc
       -0.035725195 0.0022964075 0.0407446 -0.030713111
000090 e6 3b 23 3d a5 57 9c 3d 06 15 ef 3c 23 69 4f bc
       0.039852045 0.07633904 0.02918483 -0.012659344
0000a0 80 0e f9 bb b0 9d 51 3d d2 6c 77 3d 71 27 d6 3c
       -0.0076006055 0.051175773 0.060406514 0.026141854
0000b0 41 09 2b 3c 1e 24 d4 3c d9 5a bc 3c 36 f0 d5 38
       0.010439218 0.025896128 0.022992538 0.00010201374
0000c0 93 e0 49 3d 0e b2 e6 3c 3c ce a3 bc 03 ec 7a 3d
       0.049286436 0.028161075 -0.019995801 0.061260235
0000d0 bd 19 c5 3c 41 cc 07 3d df a8 08 bc 1d 87 9a 3c
       0.024060125 0.033153776 -0.008341043 0.018863255
0000e0 a8 7b 9b 3d 96 82 48 bd ee f8 4b 3d c6 83 5c 3d
       0.07591945 -0.04895266 0.049797945 0.053836606
0000f0 e3 5c b4 3c a6 64 78 3d 76 1d 83 3d 40 68 0b 3c
       0.022016948 0.06064286 0.064021036 0.008508742
000100 15 8b 9e 3b bf 71 c4 3c cb 64 b1 bc 16 26 7d 3d
       0.004838357 0.02398002 -0.021654507 0.0618039
000110 42 35 11 3d d1 d8 09 3d 20 82 21 bd ee 88 36 bd
       0.03545118 0.033654038 -0.039430737 -0.04456418
000120 43 dc 58 3d e7 62 02 3d 86 23 6d 3c 9d fa 24 3d
       0.052944433 0.031832602 0.0144738015 0.040278066
000130 88 2c ae bc 51 f1 0e 3d 9d be 9b 3d 9a 71 3e bd
       -0.021261469 0.034898106 0.07604716 -0.046495058
000140 0e 74 3e 3d ca 8c 13 3c f9 94 32 3d 27 98 02 3d
       0.046497397 0.009005735 0.043599103 0.031883385
000150 54 f1 5b bc de a6 e1 3c 92 f7 17 bc ad 53 44 3d
       -0.013424236 0.027545389 -0.009275334 0.047931362
000160 6d c2 5b 3d cc 7f 78 3d 88 f9 2c 3d 21 2b 09 bd
       0.053652216 0.06066875 0.04223016 -0.033488397
000170 4e 7f 3e 3b ee f7 90 3c 3f a4 89 3d ea a6 a6 3b
       0.0029067579 0.017696347 0.067207806 0.0050858157
000180 06 06 84 3d 71 6b 19 3d 38 0b 39 3d 4c b6 f9 3c
       0.064464614 0.03745598 0.045176715 0.030482434
000190 01 a2 59 bd b2 bb 2b 3c b9 b8 6a 3d df a0 58 3d
       -0.053133015 0.010481762 0.05730507 0.052887794
0001a0 38 77 40 3c ed 36 b6 3d f5 2e 90 bd 37 13 55 3d
       0.011747174 0.08897195 -0.07040206 0.052020278
0001b0 45 fb 52 3d 6f 12 85 3a 81 ad b3 3b 77 64 88 3d
       0.05150916 0.0010152588 0.0054833298 0.06659787
0001c0 59 c1 88 3c 6f 07 bc bb f5 5d 80 3d ba 14 1a bd
       0.016693758 -0.005738191 0.06267921 -0.037617423
0001d0 0d ea e5 bb 48 73 f8 3c ef f1 0e 3b 16 60 41 bd
       -0.0070164264 0.030328408 0.0021811684 -0.047210775
0001e0 81 f3 89 3c 98 dc 22 3d 0c 31 3e 3d 1a ed 30 3d
       0.016839745 0.039761156 0.046433493 0.043194868
0001f0 fe 4d a8 3d 2c aa 23 3d 58 1f 8a 3d 83 49 2f 3d
       0.08218001 0.03995721 0.067442596 0.042794716
000200 fc 82 29 3d 64 72 fe 3c b1 e2 71 3d d4 1f 2f bd
       0.041384682 0.031060405 0.05905408 -0.042754963
000210 dc 31 84 3d db ff ed 3c b8 6b 33 3d d6 c3 09 bc
       0.064548224 0.029052665 0.0438039 -0.008408507
000220 d7 bd 02 3c 2e a6 6e 3c 73 ee c9 3c df 92 07 3d
       0.007979832 0.0145659875 0.024649834 0.03309905
000230 dc c0 ac bb 94 ae 11 3d 33 89 68 bb f6 73 ae bd
       -0.005272014 0.03556688 -0.0035482168 -0.085182115
000240 95 37 80 3d 89 8c ad bc 3a be 26 3d 55 ce 0f 3d
       0.062606014 -0.021185176 0.040708758 0.035108883
000250 b5 a3 7f 3d 3f 21 7f 3d be 56 90 bb 90 d7 33 bd
       0.062411983 0.062287565 -0.0044048717 -0.04390675
000260 ae df d8 bc 8d a4 38 3c 35 49 0a 3d 36 89 50 3d
       -0.026473846 0.011269701 0.033761222 0.050912105
000270 00 20 12 3c d8 64 2f 3d 0c ba 50 3d 35 9b c5 bb
       0.008918762 0.04282078 0.050958678 -0.006030465
000280 6f 53 91 3d 98 67 c9 3c 08 7a 32 3d b4 d6 63 3d
       0.07095992 0.02458553 0.04357341 0.05562468
000290 29 8b bf bb 7d 8d 23 3d c2 61 7e 3d 24 92 cb 3b
       -0.0058454466 0.039929856 0.062104948 0.0062124897
0002a0 91 6e 8e 3d cd e3 80 bc 68 00 34 3d 05 ee 5e 3d
       0.069546826 -0.015733624 0.0439457 0.054426212
0002b0 bc 1d 36 3d 6c dc 8a bd f9 e1 3f 3d 2f 6b 24 3d
       0.04446195 -0.067803234 0.046846364 0.04014128
0002c0 22 b3 4f 3c 0f 45 0f bc 52 d7 37 bc d1 52 50 bd
       0.012676986 -0.008744492 -0.01122077 -0.05086023
0002d0 49 72 1f bc 14 33 72 3c 36 e1 79 3d c6 05 9d 3d
       -0.009731838 0.014782686 0.061005794 0.07667117
0002e0 76 2a 38 3d 34 93 bb bb 49 45 d8 bc d9 ff e7 3c
       0.04496237 -0.005724335 -0.026400225 0.02832024
0002f0 5d 90 0a 3d 46 8f e9 3c 3e 04 d2 bc f3 94 22 3d
       0.03382908 0.0285107 -0.025636788 0.03969283
000300 c7 22 c7 bc 15 8a f2 bc dc d9 61 3a aa 12 37 3c
       -0.024308575 -0.029606858 0.00086155324 0.011173883
000310 96 a7 72 bd 3b 9d 22 3d b1 e4 4f 3d 20 bf 81 3d
       -0.059241854 0.039700728 0.050755206 0.06335282
000320 95 98 7a 3d c7 d7 05 3c 94 2f 1d bb 6d f5 13 3d
       0.06118067 0.008169121 -0.0023984658 0.03612273
000330 f8 86 f3 3b 57 4e 18 bd a2 bc b8 3c d9 d0 58 3b
       0.007431861 -0.037184086 0.022550885 0.0033083467
000340 8d b8 a1 3d 3b 62 76 3b f7 68 13 3a 65 06 5c 3b
       0.078965284 0.003759517 0.0005623246 0.0033573147
000350 67 ce 31 3c a8 dd 82 3d 99 59 bd 3d 82 a4 42 3d
       0.010852433 0.06389934 0.09245605 0.047520168
000360 a1 c7 fc 3c 86 97 04 bb 78 ca a7 bd 13 9a 80 bc
       0.03085691 -0.0020231917 -0.08192915 -0.015698468
000370 5c c5 a2 bc 83 2e 3d 3d 5a 6a 94 3d 57 59 2d bc
       -0.019869499 0.046186935 0.072468475 -0.010580382
000380 1c 98 19 3d 6d b7 3a 3c 19 f6 4a 3d eb 02 25 3d
       0.03749858 0.011396271 0.049551103 0.040285986
000390 86 6d 9a 3d 81 60 d5 bc 57 e4 3a 3d 19 58 97 3d
       0.07540421 -0.026046993 0.045627918 0.0738985
0003a0 8b 4e 89 3d 34 e4 a3 3d 49 28 1c 3d ec ef ad 3c
       0.06704434 0.08002511 0.038124356 0.021232568
0003b0 26 f6 2d 3d 24 1c e7 3b 2c c9 f9 3c 50 78 2b 3d
       0.042471074 0.007052915 0.030491434 0.041862786
0003c0 cf 32 0c 3d b3 fb a1 3c 4c 10 30 3c 37 8d 89 3d
       0.034228142 0.01977334 0.010746073 0.06716388
0003d0 ef 29 5e 3c 7a 72 2c 3d 04 9f 1c 3d 04 b7 0a bd
       0.013559802 0.04210136 0.038237587 -0.033865944
0003e0 bb 38 09 3d eb 8a 2f 3d a2 de b9 3c 0e ab a5 3c
       0.033501368 0.042857092 0.022689167 0.020223167
0003f0 a1 b4 fa 3c 5c 86 ec 3c 3c e7 13 3d 0d 10 79 3c
       0.030603709 0.028872661 0.036109194 0.015201581

net.2.weight f4 [32, 256]
000000 78 7c 8a 3d 2a 11 9f bd 87 cf 19 be e4 a4 a5 3c
       0.06762022 -0.07766946 -0.15020572 0.020220228
000010 02 0f 12 be f5 d0 46 bd 99 9b d0 3d 81 da 0e 3e
       -0.14263538 -0.04853912 0.10185928 0.1395054
000020 26 5e 99 3d 5a 69 7e 3d 3c d3 95 3d ed 39 ea 3d
       0.074886605 0.06211219 0.073156804 0.1143683
000030 71 9f 23 3d bd 70 96 3d b8 c3 d9 bd 66 1f 03 3e
       0.039946977 0.07345722 -0.106330335 0.12804946
000040 85 2c 6a 3d bc 12 13 be 8b fa 1e bd 35 ff df 3c
       0.057171363 -0.14362615 -0.038813155 0.027343372
000050 0b be 47 bd fc b3 e8 bd 3f a2 74 bd a9 e8 2e 3d
       -0.048765223 -0.11362454 -0.059725042 0.04270235
000060 81 42 00 3c 2f 45 d6 bd 08 01 18 be 36 b4 d9 bd
       0.007828356 -0.104624145 -0.14844143 -0.10630076
000070 21 2b 09 be a8 17 e8 3d 8d c2 fa bc 47 66 1e 3b
       -0.13395359 0.11332637 -0.030610347 0.0024169849
000080 7d 1d ca bd 6d 03 08 3e 29 73 b1 3d 99 fd 54 3d
       -0.09868906 0.13282557 0.08664543 0.051999662
000090 cc 5c ad 3d ad 95 af 3c b6 a7 c3 bd 84 d3 13 bd
       0.08464965 0.021433676 -0.09553473 -0.03609039
0000a0 36 19 7b 3d 5e e8 c2 bd 06 ce cd bd 1a 1e 38 bd
       0.06130334 -0.09516977 -0.100490615 -0.044950582
0000b0 c3 1b 64 3c 86 69 49 bd 61 08 06 bd fe e6 df bc
       0.013922635 -0.0491729 -0.032722834 -0.027331825
0000c0 92 33 01 3e 27 d9 78 3b dc 5c 09 be 6d 2a 4d bd
       0.12617329 0.003797123 -0.1341433 -0.05008929
0000d0 53 6d 5a bd 2f 65 ff 3d ed e6 69 bd 3f 3e 34 3d
       -0.053326916 0.12470471 -0.057104994 0.044004675
0000e0 af 8e a5 bd fb 3b 07 bd 22 6f 03 be b2 47 fb bc
       -0.08083855 -0.033016186 -0.12835363 -0.030673835
0000f0 f5 b6 a5 bd 2d a9 9d 3d bb 18 bd 3b 3c e9 9c 3d
       -0.08091537 0.07698283 0.0057707704 0.076616734
000100 d2 d5 9a 3c 38 c1 1a 3d b0 1a 40 bd 86 0a 5d 3d
       0.018900786 0.037781924 -0.04690045 0.053965114
000110 52 08 c9 bd 8e 4c 4e 3d 63 15 0a 3e 18 8c 0f be
       -0.0981604 0.050365977 0.13484721 -0.14018285
000120 73 f1 53 3c ea 8c a3 3c 0a 98 9d bd 36 dc 07 be
       0.012935984 0.019964654 -0.07695015 -0.13267598
000130 24 63 d9 bd 23 c6 95 3d 5e 6f e0 3d b0 6b 83 bd
       -0.10614613 0.07313182 0.109587416 -0.06417024
000140 c0 95 94 3a fe 78 8b bd 5a f8 e1 3d f6 7e f9 bd
       0.0011336133 -0.06810187 0.110336974 -0.12182419
000150 13 66 6c bd 94 96 fc 3d ce 27 d8 bd 9b 30 d7 3a
       -0.057714533 0.12333408 -0.10554467 0.0016417684
000160 db 33 36 bc 60 21 7a bd 4d a5 18 3e 82 01 95 3d
       -0.011120762 -0.061066985 0.14906807 0.07275678
000170 71 8c 88 3c 04 26 f8 3d 44 7b 7e bc cc c5 dc 3d
       0.01666853 0.12116626 -0.0155323185 0.10779914
000180 38 64 da bd cd 06 ca bd 9b 03 b9 3c 5a 6e 4a 3d
       -0.106636465 -0.098645784 0.022584727 0.049421646
000190 b3 96 e4 bd 4c df 08 be 10 d2 d3 bd b2 23 01 be
       -0.11161556 -0.13366431 -0.103428006 -0.12611273
0001a0 a3 30 15 bd b5 67 04 3e 6f 63 b7 3d 1e df fb bd
       -0.036423337 0.12930186 0.08954512 -0.122984156
0001b0 df 29 20 bd 32 37 02 be 01 61 31 3d de a8 05 be
       -0.03910243 -0.12716368 0.0433054 -0.13052699
0001c0 20 23 ca 3d 57 83 a4 bd 24 5e 96 bd 95 a9 ca 3d
       0.09869981 -0.080328636 -0.07342175 0.098956265
0001d0 b7 97 6c bd 9e 04 fa 3d 13 d1 45 3d 73 c8 e0 3d
       -0.057761874 0.12207912 0.04829509 0.10975733
0001e0 e4 bb 01 be 67 c0 18 3e ba 7d 7b 3d c1 c8 dd bc
       -0.12669331 0.14917146 0.0613992 -0.027073266
0001f0 0a 37 dc 3a 66 90 1a be f3 4b a1 bc 86 5c a1 bd
       0.0016801071 -0.15094146 -0.019689536 -0.078789756
000200 c9 5e 2e be 1e 2a 9f bd 6d d4 c0 3c a2 cd f1 bd
       -0.17028345 -0.07771705 0.023538793 -0.118067995
000210 b8 7c 1a be c6 f2 a3 bd e2 4a c4 3d 4f 44 ea 3d
       -0.15086639 -0.0800529 0.09584595 0.1143881
000220 d9 79 e0 bd 65 b0 a1 bd 78 8b c3 bd 0d 0f f8 3a
       -0.109607406 -0.07894973 -0.09548086 0.0018925384
000230 8e 98 83 3d b8 62 97 3c 1c 9d 88 3d 3a 9e 98 3c
       0.06425582 0.01847969 0.06670591 0.018630136
000240 42 5c b9 3c 8b 02 f0 3d 9c 09 b3 3c 69 12 64 3d
       0.022627 0.11719235 0.021855168 0.05568162
000250 7b 6d 1f bd 6d 13 cf bd 1b 7c 91 bd 6f d0 47 3d
       -0.038922768 -0.10111127 -0.07103749 0.048782762
000260 f0 51 aa bd 93 a7 95 3d e2 a2 f5 3d 5f 31 ca bd
       -0.083164096 0.07307353 0.11993958 -0.09872698
000270 79 42 80 bd 77 64 32 bc d5 fa 14 be 28 a6 c3 bd
       -0.06262679 -0.0108882105 -0.1454881 -0.09553176
000280 30 04 0d be f8 87 b0 3d 8f 85 c5 3d 3e f7 2e bd
       -0.13771129 0.08619684 0.09644615 -0.042716257
000290 f3 a6 c9 3d f3 44 a0 3a 72 91 09 be 11 47 5b bd
       0.09846296 0.001222758 -0.13434389 -0.05353457
0002a0 92 87 67 bc f6 6f 9f 3d d8 80 db 3d c9 42 90 3c
       -0.014131444 0.07785027 0.10717934 0.01760997
0002b0 5c 0d e5 bd 60 e2 be 3d 7f f2 8c 3c 73 0c 40 bc
       -0.11184189 0.09320521 0.017205475 -0.011721718
0002c0 26 ab df 3d f1 cc 5a bb 38 b6 4c bd 7f 02 81 bb
       0.10921316 -0.0033386315 -0.049978465 -0.003937065
0002d0 e0 58 90 bc 46 a0 68 bd 39 84 26 bd 22 ca 1e be
       -0.017620504 -0.056793474 -0.04065344 -0.15506795
0002e0 a4 2f b9 3d 9d 23 15 be 2d 02 0f bc 1e d7 b3 bc
       0.0904229 -0.14564367 -0.008728546 -0.021953162
0002f0 7e 19 b1 bd 16 f1 22 be 3a 90 50 bd ed 8c 9b bc
       -0.086474404 -0.1591228 -0.050918795 -0.018988097
000300 2d 30 89 bc 37 e1 03 be 9e 54 d9 3c ed 56 0d 3e
       -0.016746605 -0.12878881 0.026529606 0.13802691
000310 d0 18 f1 bd d9 8a 06 bd 9c 82 f9 3d 6e f8 ae bc
       -0.11772311 -0.03284726 0.12183115 -0.021358695
000320 fd 9b bc 3d 7d d7 f5 3d 8d 13 66 3d f7 92 4b bd
       0.0920944 0.12003992 0.05617099 -0.049700703
000330 f7 ad e9 bd e1 e2 df bd be a5 0b be b6 10 d8 bd
       -0.11410134 -0.109319456 -0.13637444 -0.10550062
000340 74 c3 33 3c 2e 96 a3 3d ff 60 ea 3d e8 49 de 3a
       0.010971893 0.07987629 0.11444282 0.0016959282
000350 6c 23 a8 3c fc 58 fc 3d d4 14 cf bd f0 0b 85 3d
       0.020524703 0.1232166 -0.101113945 0.064964175
000360 5d 6e 1c 3e 78 35 30 bc f7 74 d6 bc b1 3f ab bc
       0.15276475 -0.010754935 -0.02617882 -0.020904394
000370 17 c4 0a 3d e1 7b 13 3e 22 c9 35 bc 7d ad 5f ba
       0.033878412 0.14402725 -0.011095317 -0.00085326267
000380 a8 b5 d3 bd bf fd 03 3e 95 d6 30 bd 2a f0 ed bd
       -0.103373826 0.12889765 -0.04317339 -0.11618073
000390 79 77 a3 bd 11 3d 0b 3e 5e ad a2 3d 84 20 cb bd
       -0.07981772 0.13597514 0.079432234 -0.09918311
0003a0 87 e6 7b 3d 7a 0d 9b bd 9b 01 9a 3d 6e 4b 83 bd
       0.061499145 -0.0757093 0.075198375 -0.064108714
0003b0 0f 05 db 3a 44 94 4f bc db 0c 0e be d7 27 d1 bd
       0.0016709882 -0.012669627 -0.13872091 -0.10212677
0003c0 0c bc 0e 3c 0a 71 53 3d 73 45 8a bd d0 63 aa 3d
       0.008711826 0.051621474 -0.06751528 0.08319819
0003d0 60 7d 15 be 7e e1 39 3c 7d 80 68 3d 45 f8 bf 3d
       -0.14598608 0.011345265 0.05676316 0.093735255
0003e0 30 55 32 bc ad 8c 67 bd 72 f0 e0 3c bf aa 03 3e
       -0.010884568 -0.056530643 0.027458403 0.12858103
0003f0 ab 73 ee 3d 7d 2c 2a 3c 87 85 28 bd e9 95 69 bd
       0.11643156 0.010386583 -0.041142967 -0.05702773

net.2.bias f4 [32]
000000 11 af 88 3c 8d 45 61 bd 9c a3 c2 3c ba d4 3e 3d
       0.01668504 -0.05499797 0.023759656 0.04658959
000010 28 e5 95 3d 49 9f 60 3d 21 9d 84 3d 42 d3 df 3c
       0.07319099 0.054839406 0.064752825 0.027322415
000020 c5 6f d3 3c 37 ec e2 bb bf 72 13 3d 8d da 16 3e
       0.025810132 -0.0069251317 0.035998102 0.14731808
000030 1f 1e 42 3c cc 3d 13 3d 03 13 93 3d 87 ba 09 3d
       0.011848002 0.035947606 0.071813606 0.033625152
000040 73 4e 51 3d 50 87 8b 3d ca a6 33 bc f9 08 81 3d
       0.051100206 0.06812918 -0.010965059 0.063005395
000050 d3 70 b5 3b 32 1a 8e 3d d1 1c 8e 3c 83 2c 8b 3d
       0.0055371313 0.0693859 0.017347725 0.06795599
000060 c4 c2 f3 3c 4d b0 89 bc 4f 65 ed 3c d5 1e 84 3d
       0.029755957 -0.0168077 0.028978972 0.06451193
000070 f9 7d 24 3d 7b 66 7e 3d ff c1 02 3d e4 fb 40 3d
       0.0401592 0.06210945 0.03192329 0.04711522

net.4.weight f4 [32, 32]
000000 5d f6 32 3e ae f0 0c be 9c 30 60 3e 7f 13 b4 be
       0.17476793 -0.13763687 0.21893543 -0.35171124
000010 77 1b 30 3e 04 0f 9a 3e b3 9e a9 3d 1f 83 9c 3e
       0.17197977 0.3008958 0.082822226 0.30568787
000020 13 18 b5 be be cf 96 3d 6f 8b 7b 3e 98 9c 48 3e
       -0.3536993 0.073638424 0.24564908 0.19590986
000030 ac 3e bc 3d 66 5f 2c 3e f2 bd af 3d 62 ac 3b be
       0.09191641 0.16833267 0.08581151 -0.18327478
000040 30 20 e6 3d f4 e3 34 be f8 bc 1f 3e e4 bc e2 bd
       0.11236608 -0.17665082 0.1559943 -0.11071184
000050 e5 db 8c bd f1 68 85 3e dc ab 32 3e 0a a0 9e 39
       -0.06877879 0.26056626 0.17448372 0.00030255347
000060 45 c5 17 3e bb 52 1c 3c 82 6f 84 be 8e 59 3f be
       0.14821346 0.009541209 -0.25866324 -0.18686506
000070 9d a7 41 3e b8 c9 61 be fe 22 8e be e5 70 64 be
       0.18911596 -0.22049606 -0.27761072 -0.22308691
000080 7a 53 4f 3e f3 c0 66 be cf e2 5d bd a0 7c bc 3c
       0.20246688 -0.22534542 -0.05417138 0.023008645
000090 cd 08 5b 3c 10 d8 52 3e 57 1e 94 bd b3 eb 26 bd
       0.0133687975 0.20590234 -0.07232349 -0.040752124
0000a0 90 58 58 3d dd 22 03 be 3e d8 b9 3e b6 f8 5e be
       0.052818835 -0.12806268 0.36297792 -0.21774563
0000b0 c1 c9 9c 3d 89 72 8b 3e 1c c1 17 3e 86 5b 86 be
       0.07655669 0.2723582 0.14819759 -0.26241702
0000c0 52 54 c1 be 6e 8b c3 3e 2d 39 55 3e 29 40 af be
       -0.37759644 0.38192314 0.20822592 -0.34228638
0000d0 f9 ab b5 3d d1 d1 72 bd 38 ab 38 be 78 94 03 3c
       0.08870692 -0.059282128 -0.18034065 0.008031003
0000e0 c2 87 1b 3d 0e 44 c7 3e 46 00 87 3d 99 b2 9b bc
       0.037971266 0.3891911 0.06591849 -0.01900606
0000f0 ec a1 b0 be 51 66 b8 be c6 c5 11 3e a7 31 cd 3d
       -0.34498537 -0.3601556 0.14235601 0.10019236
000100 1b 4b 4c be 31 8b f4 bd 38 15 d3 be 28 b6 7b 3e
       -0.19950525 -0.11940611 -0.41227126 0.24581206
000110 32 d2 60 3e 17 4c 02 3e 92 5f 81 3e 38 e4 9f be
       0.21955183 0.12724338 0.25268227 -0.31228805
000120 1a 0b b0 be 23 bf b9 bb 3f 7a 9c be 8a 4c 55 3e
       -0.3438347 -0.005668537 -0.30562016 0.20829979
000130 a5 5a 28 bd 53 ba 8b be 88 72 90 3e 5a b2 3f be
       -0.04110207 -0.27290592 0.2821238 -0.1872038
000140 d7 95 33 3e de 31 f3 3c e7 4f 9b be 04 11 81 3e
       0.17537628 0.029686864 -0.30334398 0.25208294
000150 d2 3e 86 3d ae 52 96 be fb db 0a 3d a9 7c 25 be
       0.06554951 -0.29359955 0.033901196 -0.16160835
000160 45 41 86 3c 8a 06 f0 bd 20 d4 6a bc 54 db 8c 3d
       0.016388545 -0.11719997 -0.014332801 0.06877771
000170 b7 52 28 3e 0b 37 aa 3e bd 79 84 be b2 d8 ca 3d
       0.16437803 0.3324512 -0.2587413 0.099046126
000180 31 de 7d 3e ee 13 d9 3d 4d 2e de bd 1c 37 85 be
       0.2479179 0.105995044 -0.10848675 -0.26018608
000190 87 e5 a6 3c 4d 5f 8f 3e b0 e2 24 3e a3 16 36 3d
       0.020373119 0.28002396 0.161021 0.04445518
0001a0 d6 dd e4 bd 3c 7f 77 3e 25 a5 9e 3e fc 18 34 3e
       -0.11175124 0.2416963 0.3098537 0.17587656
0001b0 bc a9 74 3e 41 39 91 3e c4 db 07 3e 0a a6 68 be
       0.23892874 0.28363994 0.13267428 -0.22719589
0001c0 0e c5 b5 bd cf 6e 24 3e 3c 2e 99 3e ec 1d 15 be
       -0.08875476 0.16057895 0.29918087 -0.14562196
0001d0 c8 41 40 3d 74 46 a2 3e 65 f0 c6 bd e2 1a 9b bd
       0.046937734 0.31694376 -0.0971382 -0.07573487
0001e0 9e 25 34 be 12 a7 4d 3e 38 ff 4a 3e a4 12 c2 be
       -0.17592475 0.20083264 0.1982392 -0.37904847
0001f0 0e 90 8b 3e d6 a2 40 be d6 2c 59 bd 6f 6a 72 be
       0.27258343 -0.18812117 -0.053021275 -0.23673414
000200 31 25 0e be 7d 5e c4 3d 2c 05 b3 bc de 5a d6 3b
       -0.13881375 0.09588335 -0.021853052 0.006541594
000210 71 9a 41 3d a7 7d 0f 3e 9c 1f cb be 01 70 82 3e
       0.047266427 0.14012776 -0.39672554 0.25476077
000220 17 81 5c 3e da 81 69 be ae 42 a4 3d c0 b9 5e 3e
       0.21533619 -0.2280344 0.08020531 0.21750546
000230 aa b2 97 3e 3a a3 5d bd 8b 25 8f 3e c4 37 9c bd
       0.29628497 -0.054110743 0.2795833 -0.07627824
000240 d6 03 68 be 2f 71 a5 3e 30 df 39 3d e0 45 40 be
       -0.22657713 0.32312915 0.045378864 -0.18776655
000250 ed 60 d1 3d b9 77 a3 3e 87 7c bb be 09 5d 93 be
       0.10223565 0.3192728 -0.36618444 -0.28781918
000260 54 2c be be d5 f0 b7 3e ac a4 95 bc 48 b8 d9 bc
       -0.37143195 0.35925928 -0.018266998 -0.02657713
000270 be e3 88 be 43 1f 83 be bf 62 2b be dd 53 ba be
       -0.26736253 -0.25609788 -0.16736887 -0.36392108
000280 92 d3 20 be 12 b8 6f 3d 15 5c 95 3e e5 79 e1 bc
       -0.15705708 0.058525153 0.29171816 -0.027523944
000290 eb 6b 00 3e e3 04 2d bd 11 51 5f 3e 63 27 c1 3c
       0.12541167 -0.04224099 0.21808268 0.023578351
0002a0 a8 b5 0b be 8d 92 a1 3d 81 12 c6 bd d2 89 90 3e
       -0.13643515 0.078892805 -0.09671498 0.2823015
0002b0 47 cf 41 3d e7 1e 19 be 52 5b 14 be 08 5a 39 be
       0.047316816 -0.14953195 -0.14487961 -0.1810075
0002c0 9e cc 78 be 72 54 e7 3d 25 61 86 bd 18 ec 32 3d
       -0.24296805 0.112954035 -0.065614976 0.043682188
0002d0 52 ea 78 be 95 1a e8 bc 67 9a 0a 3e 6b 01 84 3d
       -0.24308136 -0.028332988 0.13535462 0.06445583
0002e0 53 c5 ce 3d 6b c1 93 be 4d 4e 91 3c 94 53 85 be
       0.1009623 -0.28858504 0.017737532 -0.26040328
0002f0 cc 01 c2 bd fa bf 91 be 94 e7 5a be fe ea 64 be
       -0.09472999 -0.2846678 -0.21377403 -0.22355267
000300 33 88 8d be 2c de fc 3d 11 2d 38 be 7f e5 6c 3d
       -0.27642974 0.123470634 -0.17985941 0.057836052
000310 5e 2a d1 bd f3 e5 3a bd ce 9b f4 bd 16 31 c5 be
       -0.10213159 -0.045629453 -0.1194378 -0.38514012
000320 54 a5 b9 be 0e 4a aa bd de 9a ae be dc a9 07 3e
       -0.36258948 -0.08314906 -0.3410253 0.1324839
000330 45 1e c1 be 1c ef ae bd 2e 61 9e 3e 7c 07 94 38
       -0.37718406 -0.085417 0.30933517 7.058584e-05
000340 ec 84 81 3e 3e a5 29 3e 38 ac bd 3d a1 07 3e bd
       0.25296724 0.16566941 0.09261364 -0.046393994
000350 55 50 21 3d 5c a6 1b be 88 48 58 be 1d e7 95 3e
       0.03938325 -0.1520018 -0.21121418 0.29277888
000360 4b f2 63 3d 2a 1d 5a bd 30 e1 41 3e dd 6a 80 3d
       0.05565099 -0.05325047 0.18933558 0.062703826
000370 d5 4f 30 3d 6c b9 12 3e f1 19 4d 3c 91 a2 2c be
       0.043044884 0.14328545 0.012518392 -0.16858889
000380 fc 0e a1 3e 40 6c ed 3d e7 05 08 3e b0 4c e5 3d
       0.31456745 0.11592913 0.13283502 0.111962676
000390 8a 4b 41 3d a7 4e e9 3d c7 fd 3a 3c 51 fe 9f bd
       0.04719118 0.11391955 0.011413044 -0.07812179
0003a0 5e fd 8c be 60 7a 1a 3e 35 07 42 bd 3d fd 7a 3e
       -0.27537054 0.15085745 -0.047370154 0.24510665
0003b0 f7 a2 74 be d7 31 8a be 4e c1 13 be e4 c1 7d be
       -0.23890291 -0.2699115 -0.14429209 -0.24780995
0003c0 84 3d 23 3e 96 24 7b bd 2b 20 51 bd 9f 6a a0 3c
       0.15941435 -0.061314188 -0.05105607 0.01958209
0003d0 8e d8 1d be fc ba 95 3e 28 6d 88 be 5a 40 e7 bc
       -0.1541464 0.2924422 -0.2664578 -0.028228927
0003e0 f4 69 f9 3d 97 cc 13 be 5e f7 85 3e da 93 82 be
       0.12178412 -0.14433514 0.2616529 -0.25503427
0003f0 9c 0e 42 be c2 16 2e bd 58 3d 40 be 84 6d 39 be
       -0.18950886 -0.042502172 -0.18773401 -0.18108183

net.4.bias f4 [32]
000000 81 4e c8 3d a5 eb ba 3d ce f3 a8 3d da e2 17 bd
       0.097805984 0.09126977 0.08249627 -0.037081577
000010 e7 81 d7 3d 20 1f c4 bc b1 6c c6 3d da d7 cb bc
       0.10522824 -0.023940623 0.096887 -0.0248832
000020 7d 96 25 3d f1 dd 55 3d f3 e4 3a 3e 58 50 44 3c
       0.04042672 0.052213613 0.182514 0.011982046
000030 d7 01 72 3d 17 95 e0 3d d2 ed 10 3d 08 59 e4 3d
       0.059083786 0.10965937 0.035383053 0.11149794
000040 9d 91 d0 3d da 53 cb 3c 2b 99 9d bc 33 18 d9 3d
       0.101840235 0.024820257 -0.019238075 0.10600319
000050 29 d5 3f 3d 4d ba 43 3d d1 3b 8a 3c b0 ba 02 3c
       0.046834145 0.047785092 0.016874226 0.00797908
000060 20 1b ae 3c a6 80 9e bd d5 42 ca 3d 49 e7 cf 3d
       0.021253169 -0.077393815 0.098760284 0.10151536
000070 6f b9 1d 3c cf 11 d9 3d 60 a4 73 3d b3 65 83 3d
       0.00962673 0.105991 0.059482932 0.06415882

net.6.weight f4 [1, 32]
000000 c6 eb c3 3e 51 1e 05 3f 01 e2 0e bf f1 ef e3 3e
       0.38265818 0.51999384 -0.55813605 0.44518998
000010 88 ad 6c 3e 9c 03 0a be 56 4f d4 be 9c 06 10 3d
       0.23113072 -0.1347794 -0.4146678 0.035162553
000020 a3 bf 96 3e ff c7 d5 3e 7c 96 2c be 2c 1c 8f bd
       0.29443082 0.41754147 -0.1685428 -0.06987795
000030 3f 38 06 bf e0 94 dc 3e 59 a5 19 be 72 07 8d be
       -0.52429575 0.43082333 -0.15004481 -0.27544743
000040 e5 dc 6e be 2e fd eb be 9f e0 7b 3d 25 3b 2f 3e
       -0.23326452 -0.46091598 0.061493512 0.17112406
000050 80 43 e3 be 65 ef d0 be d6 d7 66 be 46 be 54 3d
       -0.44387436 -0.40807644 -0.22543272 0.05193927
000060 47 5c a7 bd 7a ce b3 be 32 d4 8d 3e a7 39 0b 3f
       -0.081718974 -0.35118467 0.27700955 0.54384845
000070 ac fa bc 3e 1a 21 d5 3e cd f2 c8 be c4 4a 93 3e
       0.36909997 0.41626817 -0.39247742 0.2876798

exp_avg f4 [256, 120]
000000 27 45 bf 36 c3 4c 98 37 9e 2d 13 b7 38 96 64 b6
       5.700294e-06 1.8155557e-05 -8.772504e-06 -3.4062086e-06
000010 9b 7a a8 37 bd 1e 52 37 cb 01 34 37 72 31 5e 37
       2.0084253e-05 1.2524132e-05 1.07292535e-05 1.32437435e-05
000020 ce 63 24 b7 fb e0 f0 b7 04 59 62 37 59 3f 25 b7
       -9.798399e-06 -2.8714994e-05 1.3491375e-05 -9.849516e-06
000030 b5 22 06 b7 ac 2b 87 b7 ce e4 68 37 1d 88 1e b8
       -7.995103e-06 -1.611359e-05 1.388155e-05 -3.77969e-05
000040 e1 29 6f 37 d3 d9 0b b7 cb fb ce 37 d4 02 2e b8
       1.4255261e-05 -8.335762e-06 2.4674364e-05 -4.1487467e-05
000050 51 0d 88 b7 05 ef 7a 37 f6 14 7a b6 a3 cc c9 b8
       -1.6218664e-05 1.4956812e-05 -3.7265104e-06 -9.6225434e-05
000060 f4 00 16 b8 a7 b6 b5 b8 21 82 c8 b7 f6 22 89 b8
       -3.5763675e-05 -8.664774e-05 -2.3902454e-05 -6.539181e-05
000070 fd e2 b4 36 b3 c8 6f 36 7c 00 01 37 a7 88 83 b8
       5.390843e-06 3.5730598e-06 7.689112e-06 -6.27202e-05
000080 1b a3 3d b8 aa 7c 81 b8 2b 89 11 b8 dd 6b ab b6
       -4.5213015e-05 -6.17442e-05 -3.469844e-05 -5.108754e-06
000090 82 fe 99 b8 84 7a 45 b8 57 23 88 b7 13 9d 26 b8
       -7.343014e-05 -4.708256e-05 -1.622892e-05 -3.972377e-05
0000a0 60 3a 30 38 dd ed 01 37 ed d4 5a b8 89 91 21 38
       4.2016036e-05 7.744381e-06 -5.2173553e-05 3.852093e-05
0000b0 c2 9f 06 37 ab c1 b3 b7 52 d1 28 36 2e 13 a3 b6
       8.024219e-06 -2.1428647e-05 2.5155791e-06 -4.8600114e-06
0000c0 fc 33 82 b7 b1 48 59 36 16 5d 52 37 a1 c0 9f 37
       -1.5521415e-05 3.2377832e-06 1.2538649e-05 1.9043977e-05
0000d0 59 32 75 37 c7 9f aa 37 d8 1d 44 37 14 38 6e 37
       1.461486e-05 2.0339981e-05 1.1689459e-05 1.4198962e-05
0000e0 e9 46 83 37 81 6a ea 37 07 51 fa 36 0c f3 81 36
       1.5649437e-05 2.7944569e-05 7.4600134e-06 3.872794e-06
0000f0 d7 9a 64 37 18 41 21 37 05 89 04 37 8b 54 84 37
       1.36259105e-05 9.611504e-06 7.8997155e-06 1.5774995e-05
000100 d9 ea 91 37 27 67 06 37 a1 b7 13 b5 98 0f 14 37
       1.7394706e-05 8.011039e-06 -5.502898e-07 8.825118e-06
000110 27 a6 05 37 c5 e8 33 37 8f 17 30 37 95 0a 65 37
       7.966103e-06 1.0723427e-05 1.0495903e-05 1.36519275e-05
000120 22 c7 1b 37 d1 f7 23 37 a1 87 30 37 1c 7f 1a 37
       9.285084e-06 9.773256e-06 1.0521996e-05 9.20871e-06
000130 8a 11 3e 37 37 08 1c 37 37 e2 5a 37 1d 20 03 37
       1.1328966e-05 9.300237e-06 1.3046482e-05 7.815685e-06
000140 fc a9 39 37 71 74 23 37 72 45 1b 37 a8 b4 25 37
       1.1066437e-05 9.742668e-06 9.254889e-06 9.876829e-06
000150 50 a5 39 37 a8 4c 44 37 30 fa 33 37 c9 e8 2a 37
       1.1065349e-05 1.1700358e-05 1.0727483e-05 1.0186989e-05
000160 32 2e 12 37 09 e1 c7 36 49 7f 16 37 2a 93 17 37
       8.713034e-06 5.9568597e-06 8.970333e-06 9.034566e-06
000170 6d b3 0a 37 db bc 40 37 6a 3a 18 37 5f d0 15 37
       8.267217e-06 1.1488063e-05 9.073507e-06 8.929607e-06
000180 94 20 22 37 8f 9e 19 37 3e f7 23 37 d4 fb b4 36
       9.663538e-06 9.156428e-06 9.773123e-06 5.3937347e-06
000190 8e 96 05 37 e9 41 40 37 8a be d0 36 ed 34 30 37
       7.9624715e-06 1.1459438e-05 6.2210647e-06 1.050274e-05
0001a0 58 12 28 37 48 02 6a 37 8a 99 5c 37 d8 cd a2 36
       1.0017851e-05 1.3948018e-05 1.314877e-05 4.8519396e-06
0001b0 cc dc 2a 37 a3 30 61 37 c7 04 8d 36 6d ed cd 36
       1.0184198e-05 1.3422369e-05 4.2026836e-06 6.137116e-06
0001c0 1e d7 1f 37 c5 92 80 36 5b 4f 4e 37 c3 94 d1 35
       9.527224e-06 3.8317835e-06 1.2297033e-05 1.5615009e-06
0001d0 d0 17 a6 37 d5 80 2f 37 15 d6 4b b7 a0 70 55 36
       1.979983e-05 1.0460809e-05 -1.2149588e-05 3.180503e-06
0001e0 45 da 48 b5 d5 9f dd b4 ea cf 00 b6 92 02 d5 b5
       -7.482343e-07 -4.128075e-07 -1.9194508e-06 -1.5870485e-06
0001f0 bd 36 6c 36 87 02 fe b5 5e f7 cc 36 fc 4b d4 36
       3.5198602e-06 -1.892521e-06 6.108471e-06 6.326938e-06
000200 81 f7 52 b6 5b 46 98 b6 6d 20 dc b4 d0 b9 a0 b6
       -3.1436505e-06 -4.5381435e-06 -4.1001786e-07 -4.790003e-06
000210 1e 18 0d b6 95 1a b7 36 b9 e0 78 36 9a eb 8e b5
       -2.1024675e-06 5.4569196e-06 3.7085686e-06 -1.0648394e-06
000220 3c 0b e4 b6 93 35 1a b6 26 25 34 36 ba 43 d9 35
       -6.7962374e-06 -2.2978973e-06 2.6843713e-06 1.6187471e-06
000230 94 ab 06 37 21 8e 45 b6 2d c4 0d 36 ab cd ad b5
       8.026971e-06 -2.9438017e-06 2.1124827e-06 -1.2949362e-06
000240 0c 72 33 b6 ae 20 ac b5 a7 c1 59 36 a3 53 36 37
       -2.6739463e-06 -1.282451e-06 3.244824e-06 1.08675185e-05
000250 ff fe 68 b6 74 5a 3e b6 a9 82 3e 36 4b 80 1a b6
       -3.4719121e-06 -2.8364857e-06 2.838826e-06 -2.3022465e-06
000260 b7 f6 16 b4 6c c7 19 37 91 6c 04 36 69 90 7f b6
       -1.4059593e-07 9.165942e-06 1.9732727e-06 -3.8082019e-06
000270 91 15 e9 b5 30 2b 6d 36 3d 92 12 36 bd c5 08 37
       -1.736613e-06 3.534089e-06 2.1840817e-06 8.152271e-06
000280 57 4b 78 36 8e 8e e9 35 b5 ca 19 b6 ea 3e 04 37
       3.6998733e-06 1.7401342e-06 -2.2916768e-06 7.882461e-06
000290 72 40 33 36 2f c2 2d 35 66 a9 0c b6 74 49 f1 36
       2.671059e-06 6.4730096e-07 -2.0960229e-06 7.1909108e-06
0002a0 b5 82 9c b3 15 fe e5 b6 a8 0a 78 b6 90 03 91 b6
       -7.2880916e-08 -6.854311e-06 -3.6961083e-06 -4.3217515e-06
0002b0 3b 34 b6 b5 8b 62 90 36 fe 97 81 b4 4f 75 97 36
       -1.3575258e-06 4.3030063e-06 -2.413871e-07 4.513807e-06
0002c0 dd ed 23 b6 cd 39 7a b5 fd d1 0e 35 da fd ce b4
       -2.4427347e-06 -9.321637e-07 5.3204695e-07 -3.855519e-07
0002d0 ce 97 8a 35 f4 4d b3 b5 65 17 7d 35 88 e2 59 b6
       1.0325982e-06 -1.3359227e-06 9.428389e-07 -3.2467378e-06
0002e0 ea 87 62 b5 79 45 5e 34 1f 0f 98 b3 6a 93 89 b5
       -8.438934e-07 2.0700635e-07 -7.080802e-08 -1.0250199e-06
0002f0 fd 11 2b b5 5f a2 92 35 72 23 1c 35 82 c9 a7 33
       -6.372864e-07 1.0925104e-06 5.816611e-07 7.8131976e-08
000300 15 2c 51 34 da b3 22 b5 b3 0d 19 b4 a9 75 1d b4
       1.9480679e-07 -6.061142e-07 -1.4254219e-07 -1.4664569e-07
000310 a7 1a a0 b5 ee 02 63 b5 ba 50 96 b4 0a d1 5a b4
       -1.1928686e-06 -8.4568353e-07 -2.7998414e-07 -2.037888e-07
000320 4f 20 60 b5 51 d2 81 b5 0f ce c3 b4 f7 4f 03 b5
       -8.349352e-07 -9.672459e-07 -3.6471508e-07 -4.8917667e-07
000330 f0 10 a0 b5 3d 84 72 b5 de c2 1f b5 a5 10 7c b5
       -1.1925858e-06 -9.034446e-07 -5.9515685e-07 -9.3901537e-07
000340 4b 44 82 b5 83 fc 4a b5 82 26 76 b5 97 ee 76 b5
       -9.705631e-07 -7.5618317e-07 -9.169818e-07 -9.1989335e-07
000350 41 98 62 b5 c5 fd 67 b5 4b 1e 3e b5 f2 61 8e b5
       -8.441312e-07 -8.642349e-07 -7.08246e-07 -1.060833e-06
000360 68 fa c5 b5 d5 cb 46 b5 dc b2 d3 b3 03 a7 7c b5
       -1.4750522e-06 -7.405736e-07 -9.8579875e-08 -9.412035e-07
000370 71 36 19 b6 76 db 1c 35 d4 17 cb b5 6e d8 81 b4
       -2.2830466e-06 5.8433886e-07 -1.5131614e-06 -2.4185596e-07
000380 61 3b 6f b5 3e 33 e0 b5 24 7a 77 b5 0d ae 59 b5
       -8.9120846e-07 -1.6704214e-06 -9.219241e-07 -8.1092077e-07
000390 45 56 b1 b5 17 37 4b 35 5f 5e 05 b6 39 2b 03 b5
       -1.3212635e-06 7.570356e-07 -1.9873476e-06 -4.88642e-07
0003a0 44 90 e5 b5 55 23 20 36 4c 47 ca b5 29 0d 0e b5
       -1.7103816e-06 2.3862424e-06 -1.5070923e-06 -5.291827e-07
0003b0 a9 51 18 35 14 2d 12 b4 77 6b ea 35 e8 05 3d b6
       5.6743244e-07 -1.3613709e-07 1.7465635e-06 -2.8166633e-06
0003c0 5d 9e 28 b8 80 1f 7a b8 84 b0 2b b7 2d 63 d0 b7
       -4.020181e-05 -5.963398e-05 -1.02334925e-05 -2.4841715e-05
0003d0 f2 c5 51 b8 ca 17 0e b8 2f c5 c9 b7 10 a3 d5 b7
       -5.0013834e-05 -3.3877594e-05 -2.4052888e-05 -2.546751e-05
0003e0 1c ed 2a 38 01 74 15 b6 88 2b a9 b8 de 2e 4d b8
       4.0751984e-05 -2.2270253e-06 -8.066656e-05 -4.8919457e-05
0003f0 85 98 56 38 fc 62 3a b7 0c 67 c4 b7 2b 0b ab 38
       5.116362e-05 -1.11095105e-05 -2.3413006e-05 8.1559956e-05

exp_avg_sq f4 [256, 120]
000000 71 cf e1 32 12 59 fa 32 4f 56 fc 32 cf 02 f4 32
       2.628778e-08 2.9144335e-08 2.937591e-08 2.8406616e-08
000010 fe 53 e8 32 4c 6b e8 32 1a a9 d1 32 4b 6c bf 32
       2.704655e-08 2.7057148e-08 2.44077e-08 2.2284572e-08
000020 58 7d 55 33 0c 67 a4 32 8a 7f a9 32 f7 8c b4 32
       4.9706927e-08 1.9138973e-08 1.9732187e-08 2.1018861e-08
000030 db 61 84 33 95 c4 8b 32 0e a9 74 33 fc 87 12 34
       6.164529e-08 1.6271125e-08 5.696443e-08 1.364678e-07
000040 28 f3 30 35 0e 82 2c 34 29 02 cd 33 8c 3c 54 34
       6.591895e-07 1.6066062e-07 9.546449e-08 1.9766065e-07
000050 cd 44 8f 34 c2 9c 8f 34 dd a9 38 34 9e 73 9a 34
       2.6685885e-07 2.6749882e-07 1.7198131e-07 2.8768858e-07
000060 8e b4 a4 34 0e 0d f3 34 7d 78 1c 35 e9 72 ec 34
       3.067875e-07 4.5271776e-07 5.828986e-07 4.4042034e-07
000070 e7 3e ce 34 48 10 16 35 39 47 05 35 04 94 85 34
       3.8416258e-07 5.5903047e-07 4.9650004e-07 2.4880876e-07
000080 b8 f4 48 34 89 c0 88 34 f1 71 29 34 33 45 86 34
       1.871548e-07 2.5472062e-07 1.5780803e-07 2.5009794e-07
000090 b5 a6 bf 33 18 f5 ca 34 c7 44 b6 33 d6 95 a1 34
       8.9244544e-08 3.780376e-07 8.487546e-08 3.0097607e-07
0000a0 2d fa 9b 33 f7 c5 a4 34 a8 94 2f 34 66 4f 94 32
       7.263257e-08 3.069142e-07 1.6352226e-07 1.7265574e-08
0000b0 bc 91 e4 32 be 41 c1 32 7b 1d 54 33 cc e4 9a 32
       2.6608966e-08 2.2498053e-08 4.938691e-08 1.8032004e-08
0000c0 9a c4 de 32 88 7b ea 32 3e 62 de 32 4b 30 e6 32
       2.5933605e-08 2.729736e-08 2.5888877e-08 2.6797485e-08
0000d0 f1 f9 fc 32 fc b3 f2 32 b7 87 ee 32 d3 36 df 32
       2.9450321e-08 2.8254355e-08 2.7768563e-08 2.5985548e-08
0000e0 03 95 fb 32 88 d0 fa 32 b6 d5 ef 32 03 79 f6 32
       2.9288008e-08 2.919866e-08 2.7920446e-08 2.8693199e-08
0000f0 a2 d1 fe 32 5d d5 fd 32 24 91 fc 32 e3 90 f4 32
       2.9664822e-08 2.9550103e-08 2.9402663e-08 2.8471225e-08
000100 bd dd 00 33 ab 29 01 33 e8 01 fa 32 66 2e 00 33
       3.0003992e-08 3.007305e-08 2.9104697e-08 2.984452e-08
000110 f8 ff 00 33 d4 f7 00 33 f6 98 01 33 f2 cd ff 32
       3.0035125e-08 3.002772e-08 3.017427e-08 2.977956e-08
000120 ce f5 00 33 ce 8c 00 33 0e 60 01 33 68 8a 00 33
       3.002588e-08 2.9930384e-08 3.0122514e-08 2.9928202e-08
000130 39 cb 00 33 ef f2 00 33 ea 0e 01 33 90 27 01 33
       2.9987152e-08 3.002327e-08 3.0048717e-08 3.0071135e-08
000140 93 93 00 33 22 ad 00 33 eb f9 00 33 bb de 00 33
       2.993654e-08 2.9959786e-08 3.002962e-08 3.0004895e-08
000150 a2 d7 00 33 5d cb 00 33 6e f9 00 33 e5 cb 00 33
       2.999844e-08 2.998728e-08 3.0029177e-08 2.9987763e-08
000160 ce da 00 33 e5 c1 00 33 f5 cc 00 33 7f db 00 33
       3.0001324e-08 2.997867e-08 2.998873e-08 3.0001953e-08
000170 35 95 00 33 e6 c7 00 33 7c a0 00 33 6f df 00 33
       2.9938025e-08 2.998413e-08 2.9948282e-08 3.0005534e-08
000180 06 c0 00 33 da f4 00 33 d9 b6 00 33 95 31 01 33
       2.9976967e-08 3.0025014e-08 2.996862e-08 3.0080248e-08
000190 45 b0 00 33 88 db 01 33 fe 9f 01 33 9b be 00 33
       2.996264e-08 3.0234816e-08 3.0180665e-08 2.9975677e-08
0001a0 4e 85 00 33 bc 5e fd 32 df 12 00 33 00 1d 00 33
       2.9923562e-08 2.9496157e-08 2.9819486e-08 2.9828698e-08
0001b0 d4 ef 01 33 d8 29 fb 32 b0 8b fd 32 21 1d fd 32
       3.0253275e-08 2.9239274e-08 2.9516599e-08 2.9466323e-08
0001c0 96 19 f6 32 63 2e fe 32 c9 8d fa 32 58 8c f9 32
       2.8649804e-08 2.9590586e-08 2.9168307e-08 2.9051236e-08
0001d0 a3 53 f9 32 88 d3 f3 32 3f 26 f6 32 7f 21 ec 32
       2.9025449e-08 2.8385116e-08 2.8655561e-08 2.7489248e-08
0001e0 ad b2 b8 2e 54 fa 22 2e 7f c7 3c 2e 11 b0 67 2e
       8.3990905e-11 3.705687e-11 4.292344e-11 5.2679697e-11
0001f0 41 0c e8 2e 69 de 77 2e 3b 74 d4 2e 8b 37 cc 2e
       1.0552315e-10 5.6358838e-11 9.6612905e-11 9.2867124e-11
000200 e5 35 8f 2f dd 6c 0c 2f 44 be cb 2e 5c bd 97 2e
       2.6049843e-10 1.2771602e-10 9.265169e-11 6.900322e-11
000210 d3 4f dd 2f b5 21 74 2f f6 5f c8 2f c7 48 15 30
       4.0256384e-10 2.2203646e-10 3.6447972e-10 5.4309307e-10
000220 9f 02 84 30 02 62 a5 2f 8c c9 63 2f dc 6e 45 2f
       9.605009e-10 3.0082964e-10 2.0717134e-10 1.7956431e-10
000230 aa a7 0c 2f 2b 9e 2a 2f e5 51 90 2f a5 09 91 2f
       1.2792492e-10 1.5517602e-10 2.6251637e-10 2.63822e-10
000240 76 d8 46 2f 94 02 3c 30 3a 00 0e 30 68 49 8e 30
       1.8084897e-10 6.8397665e-10 5.165962e-10 1.0352723e-09
000250 a8 73 4d 30 5a 96 58 30 53 cb d4 2f fc 26 6f 2f
       7.4742923e-10 7.8794005e-10 3.8707046e-10 2.1750773e-10
000260 54 39 b1 2f 03 a2 af 2f 75 b6 50 2f 77 ab 77 2f
       3.2236847e-10 3.194743e-10 1.8982312e-10 2.2525436e-10
000270 f1 72 79 2f 08 51 17 30 4b e9 10 30 1b 56 5d 30
       2.2687253e-10 5.504863e-10 5.2718424e-10 8.0521695e-10
000280 d6 72 32 2f 81 05 d5 2f 4f 3c 3b 2f 57 32 d0 2f
       1.6229804e-10 3.8748385e-10 1.7028977e-10 3.7870748e-10
000290 d7 03 e8 2e a9 ea 8f 2e 54 35 22 2f 35 12 df 2e
       1.05508206e-10 6.544571e-11 1.475276e-10 1.01441e-10
0002a0 93 d9 9f 2e 6e 7c 1d 2f b8 55 4d 2f 09 59 82 2e
       7.269132e-11 1.4323273e-10 1.8675095e-10 5.9275314e-11
0002b0 8c 17 30 2e b0 1a 8c 2e 56 1d 3b 2e d3 b0 a5 2e
       4.003868e-11 6.3712036e-11 4.2544933e-11 7.5347416e-11
0002c0 ac 1a 5d 2e e4 d7 8f 2e 96 78 53 2e 80 ff 52 2e
       5.027327e-11 6.541237e-11 4.8082947e-11 4.79754e-11
0002d0 8a 45 20 2e 34 46 12 2e 93 1c 56 2e 5f 37 61 2e
       3.644155e-11 3.325891e-11 4.8683346e-11 5.1208256e-11
0002e0 40 73 13 2e 31 be 1c 2e 0b 80 2b 2e f9 2b 08 2e
       3.3526293e-11 3.5639217e-11 3.8994624e-11 3.0961875e-11
0002f0 4f 10 1c 2e 20 cf 28 2e 86 65 37 2e df 1f 1c 2e
       3.548478e-11 3.838274e-11 4.1699554e-11 3.54986e-11
000300 1a e2 0a 2e 18 ff 16 2e db 23 15 2e aa 70 03 2e
       3.1578386e-11 3.433262e-11 3.3910524e-11 2.9886017e-11
000310 c4 96 fc 2d dd b4 fb 2d f3 67 04 2e 5d 3e 01 2e
       2.8716036e-11 2.8615716e-11 3.010565e-11 2.9386594e-11
000320 f1 10 f9 2d 53 07 02 2e 8a 06 01 2e 7b 2f fb 2d
       2.8315546e-11 2.9565083e-11 2.9337012e-11 2.8556482e-11
000330 57 2a fb 2d c6 8f fa 2d 85 cc f9 2d 86 f5 f5 2d
       2.8554199e-11 2.8485558e-11 2.8398848e-11 2.796231e-11
000340 58 ce f7 2d ce 00 fa 2d fa 3d f8 2d 14 8e f7 2d
       2.8172284e-11 2.8422067e-11 2.8221859e-11 2.8143744e-11
000350 98 78 f9 2d 2d 01 f9 2d 65 19 02 2e 0f 99 f8 2d
       2.8361577e-11 2.8308545e-11 2.9581133e-11 2.8262307e-11
000360 83 b7 ff 2d e7 b9 00 2e 7f 65 ff 2d b4 35 fa 2d
       2.907164e-11 2.9268945e-11 2.9035217e-11 2.8445558e-11
000370 e4 29 02 2e 3c ab 03 2e a9 cf ed 2d 1f b0 fa 2d
       2.9595784e-11 2.9938038e-11 2.7036e-11 2.8499923e-11
000380 cb 4a 02 2e be f5 81 2e bd 15 32 2e b0 a2 fb 2d
       2.9625007e-11 5.9098934e-11 4.049182e-11 2.8607644e-11
000390 ff 32 0b 2e 72 8b 5c 2e e6 65 30 2e 69 99 27 2e
       3.1650235e-11 5.014606e-11 4.010827e-11 3.810766e-11
0003a0 6a ce 31 2e 59 ef 70 2e c4 b8 29 2e 0e f9 f9 2d
       4.0428473e-11 5.4782266e-11 3.8590256e-11 2.8418625e-11
0003b0 b8 c3 39 2e 00 5f 90 2e 73 33 36 2e ed 65 23 2e
       4.2237963e-11 6.565237e-11 4.1427705e-11 3.7152437e-11
0003c0 cb bd c6 34 9c 44 d7 34 22 ed d6 34 e8 c5 d3 34
       3.7018467e-07 4.009679e-07 4.0033143e-07 3.9445808e-07
0003d0 b3 f1 be 34 70 ac be 34 56 77 b4 34 51 29 7e 34
       3.5566117e-07 3.5515723e-07 3.361444e-07 2.3670624e-07
0003e0 55 1b e8 34 42 c2 44 34 f7 98 55 34 25 a2 9e 34
       4.3233254e-07 1.8324593e-07 1.9892819e-07 2.954777e-07
0003f0 e4 fc f6 34 18 60 59 35 18 d4 b0 35 7a df 40 35
       4.6005073e-07 8.0978634e-07 1.3174749e-06 7.1850775e-07
