Training/PyTrainer/epoch=22.ckpt (torch, 654277 bytes, 28 tensors)

net.0.weight f4 [256, 120]
0	0xbd47053e	-0.048588984
1	0x3dde7303	0.108617805
2	0xbd606e01	-0.054792408
3	0xbeb549fa	-0.35408002
4	0xbe2318bc	-0.15927404
5	0xbf446138	-0.76710844
6	0xbf02e173	-0.5112526
7	0xbd8d9317	-0.06912821
8	0xbe740cb2	-0.23832968
9	0xbd92880e	-0.071548566
10	0xbda2708d	-0.079316236
11	0x3d83351b	0.064066134
12	0xbe6c30df	-0.23065518
13	0x3e04679f	0.12930153
14	0xbe4d08dc	-0.20022911
15	0x3d4e2e4f	0.050337132
16	0xbe7cc077	-0.24682795
17	0xbe73d206	-0.23810586
18	0x3e190432	0.14943007
19	0x3dc10b7c	0.094260186
20	0xbbb43ea8	-0.0055006333
21	0xb7ef6377	-2.8537337e-05
22	0xbcca48a8	-0.024692848
23	0xbe302888	-0.17202961
24	0x3c6e9ea5	0.014564191
25	0xbea469c8	-0.32111955
26	0xbe923be8	-0.2856133
27	0x3d12ed99	0.035871122
28	0x3e17ca91	0.14823367
29	0x3da0d49c	0.07853052
30	0xbe39238a	-0.18079963
31	0x3d618442	0.05505777
32	0x3e8beeba	0.2733057
33	0x3e22ae93	0.15886907
34	0x3d7491e7	0.059709456
35	0x3dcf98ed	0.1013659
36	0x3dbec382	0.09314634
37	0x3e2f5f51	0.17126204
38	0x3e745982	0.2386227
39	0x3e829009	0.25500515
40	0xbd812893	-0.06306567
41	0x3e8869eb	0.2664331
42	0x3e74efc6	0.23919591
43	0x3e6f76ae	0.23385116
44	0x3df7b1b4	0.12094441
45	0x3e531690	0.20614076
46	0x3e195aef	0.14976095
47	0x3eda802e	0.42675918
48	0x3f013384	0.5046923
49	0x3f295717	0.66148514
50	0x3f52f41b	0.82403725
51	0x3f08ab4b	0.5338637
52	0x3dac4792	0.084120885
53	0x3e3df8d6	0.18551955
54	0xbea0f5cc	-0.31437528
55	0x3e7fe750	0.24990582
56	0x3d1523d1	0.03641111
57	0xbe5f6f3e	-0.2181978
58	0xbe47bbea	-0.19505277
59	0xbe462106	-0.19348535
60	0xbed7329f	-0.42030808
61	0xbe82695a	-0.25471002
62	0xbe7583eb	-0.23976104
63	0xbe96579a	-0.2936371
64	0xbe66ed2e	-0.22551414
65	0xbe219af9	-0.15781774
66	0xbd0f42e3	-0.034975898
67	0xbe531bb4	-0.20616037
68	0xbd6ab5d0	-0.057302296
69	0xbd4a6166	-0.049409293
70	0xbcef4cbf	-0.0292114
71	0xbb41fd0a	-0.0029600286
72	0xbd951c8a	-0.07280834
73	0xbcca064a	-0.024661202
74	0xbe4bf678	-0.19918239
75	0xbe31acb5	-0.17351039
76	0xbd7efcc3	-0.06225277
77	0xbd4d67f9	-0.050147984
78	0xbca4ca8c	-0.020116113
79	0xbd18bc91	-0.037289206
80	0x3d1c8d8b	0.038220923
81	0x3d4e0071	0.05029339
82	0xbe0a353c	-0.1349687
83	0x3db12e3f	0.08651399
84	0xbdeae7f5	-0.114700235
85	0xbe154d60	-0.14580297
86	0xbd8fe159	-0.070254035
87	0xbdc40523	-0.09571292
88	0xbdc9c03d	-0.0985112
89	0x3c780322	0.015137466
90	0x3cc61172	0.02417824
91	0x3d9232f9	0.071386285
92	0x3d7277cb	0.059196275
93	0xbde91ad5	-0.11382071
94	0xbe0875d6	-0.13326201
95	0x3daf2b95	0.085532345
96	0x3daa1849	0.08305413
97	0xbd2c1d8c	-0.042020366
98	0x3b447053	0.0029974177
99	0xbdc9c4e3	-0.09852006
100	0xbdb85d69	-0.090021916
101	0x3d515ea4	0.051115647
102	0x3caae747	0.020862235
103	0xbd2afac0	-0.04174304
104	0x3e182b14	0.14860183
105	0x3e521eeb	0.20519607
106	0x3e5db158	0.21649683
107	0xbcd22eae	-0.025657024
108	0x3e64c265	0.2233978
109	0x3e047c79	0.12938108
110	0x3a1b8ad2	0.00059334666
111	0xbd1ae2ed	-0.03781407
112	0x3e30e664	0.17275387
113	0xbd9a187e	-0.07524203
114	0xbca40fc5	-0.02002705
115	0x3d98ac8d	0.074547864
116	0xbe6cc90c	-0.23123568
117	0x3ef751d9	0.48304632
118	0x3ed10709	0.4082568
119	0xbe146683	-0.1449223
120	0xbe1c0ce8	-0.15239298
121	0xbde2a5b9	-0.11066765
122	0xbc9c90d4	-0.019112028
123	0xbe68c9ac	-0.22733182
124	0xbccb0c7c	-0.024786226
125	0xbf0727ec	-0.5279529
126	0xbedd9c00	-0.4328308
127	0xbe83f8f2	-0.25775868
128	0xbca0a95c	-0.019612007
129	0xbbdb6879	-0.0066958037
130	0xbe929e0b	-0.28636202
131	0x3c00209c	0.007820275
132	0x3e807885	0.2509195
133	0x3dc8f44e	0.098122224
134	0xbecd851d	-0.4014062
135	0xbe858c63	-0.2608367
136	0x3e9d819b	0.30762944
137	0x3ec036b7	0.37541744
138	0x3c4b34cf	0.012402727
139	0x3dc89517	0.09794062
140	0x3e630c02	0.2217255
141	0xbc27d171	-0.010242806
142	0x3d063f8c	0.032775447
143	0x3e23e5ac	0.16005582
144	0x3e86a57d	0.26298133
145	0x3d99270e	0.07478152
146	0x3edcd842	0.43133742
147	0x3e65f9d1	0.22458579
148	0xbe8c5842	-0.27411085
149	0x3ea79f66	0.327388
150	0xbdcf17e7	-0.10111981
151	0xbeb47752	-0.35247284
152	0xbe31a440	-0.17347813
153	0xbeb9568e	-0.36198848
154	0x3c20051a	0.009766841
155	0xbe3fde0f	-0.18737052
156	0xbd361741	-0.04445577
157	0xbe7b839b	-0.24561922
158	0x3e290f48	0.16509736
159	0xbe966d81	-0.2938042
160	0xbe1c9389	-0.15290655
161	0xbe4a4da4	-0.1975618
162	0x3e06737c	0.13129991
163	0x3d0cc6cc	0.034369275
164	0xbd8d994c	-0.06914005
165	0xbd950483	-0.07276251
166	0xbec1eaa1	-0.3787432
167	0xbcb39553	-0.02192179
168	0xbe34c95c	-0.17654938
169	0x3e00db57	0.12583672
170	0xbed08f97	-0.4073455
171	0xbe0090b5	-0.12555201
172	0x3e324ead	0.17412825
173	0xbd016c30	-0.031597316
174	0xbd5318a0	-0.051537156
175	0x3d3509c4	0.044198766
176	0xbe55e837	-0.20889364
177	0x3d31e8ce	0.04343491
178	0xbcc2a0be	-0.023758288
179	0xbe7fb74a	-0.24972263
180	0x3e0302ab	0.12793986
181	0x3d92ae2c	0.07162127
182	0xbd739522	-0.059468396
183	0xbd342ee8	-0.043990046
184	0x3d003ced	0.031308103
185	0x3c83f784	0.016109236
186	0x3e2477fd	0.16061397
187	0x3e88df20	0.2673273
188	0xbcaefbb8	-0.021360263
189	0x3e16a840	0.1471262
190	0x3dc40fbf	0.09573316
191	0x3d81d063	0.06338575
192	0x3e4cdb36	0.20005497
193	0x3e0171e9	0.1264111
194	0x3d6e6b3d	0.05820774
195	0x3c98f9cf	0.018673806
196	0xbd8935fe	-0.06699751
197	0x3e09042c	0.13380498
198	0x3c7e6291	0.01552643
199	0x3db0fe58	0.08642262
200	0xbc53a4fb	-0.012917752
201	0x3cfbee75	0.030753354
202	0xbcacb8d3	-0.021084225
203	0xbd68e67e	-0.05686044
204	0x3df54a6e	0.11977087
205	0x3dc17e8a	0.094479635
206	0xbd879f1a	-0.06622143
207	0x3d497b20	0.049189687
208	0x3d8ecbca	0.069724634
209	0x3e2479e8	0.16062129
210	0x3e192c40	0.14958286
211	0x3db694f8	0.08915132
212	0xbaefdd99	-0.0018300294
213	0xbc0f566f	-0.008748635
214	0x3d0b4aaa	0.034006752
215	0xbd3b47ac	-0.04572265
216	0x3ca8e7b4	0.020618297
217	0xbcbc2fd9	-0.022972034
218	0xbd30be9c	-0.04315053
219	0xbc623187	-0.013805754
220	0xbdfcf616	-0.12351625
221	0xbdaa48b8	-0.08314651
222	0xbd704500	-0.058659554
223	0x3d3c12c8	0.04591635
224	0x3e004ed6	0.12530074
225	0x3ddbffda	0.10742159
226	0x3b561f1f	0.0032672358
227	0xbba6188f	-0.0050688456
228	0x3cfa5e75	0.030562619
229	0x3da1b274	0.07895365
230	0xbd848fbf	-0.0647273
231	0xbbd096bc	-0.006365625
232	0x3cb5edf5	0.022208193
233	0xbd26f821	-0.040763978
234	0xbdb69342	-0.08914806
235	0x3db8f48f	0.09031021
236	0x3d3cc0f5	0.046082456
237	0xbe3d8e49	-0.18511309
238	0x3e8f48fd	0.27985373
239	0xbe4687f9	-0.19387807
240	0x3e98fd69	0.29880837
241	0x3d64550e	0.055745177
242	0xbd9ad382	-0.07559873
243	0x3e84c148	0.25928712
244	0x3e9d584b	0.30731425
245	0x3e539df9	0.2066573
246	0xbe212a3e	-0.1573877
247	0xbd06db48	-0.032923967
248	0x3db26042	0.08709766
249	0x3f656227	0.89602894
250	0x3dc16e41	0.094448574
251	0xbe3accaa	-0.18242136
252	0xbe3a99f6	-0.18222794
253	0xbc5ff37e	-0.013668893
254	0xbe306f4e	-0.1722996
255	0x3da7e371	0.08197678

net.0.bias f4 [256]
0	0xbe8e139e	-0.27749342
1	0xbdcc928f	-0.09988891
2	0xbdc9adc2	-0.09847595
3	0xbdc93176	-0.09823887
4	0x3e2b5b9b	0.16734163
5	0x3f22afaa	0.6354929
6	0xbf52b8a1	-0.8231297
7	0xbe9f8044	-0.31152546
8	0x3da3fe99	0.08007545
9	0x3e259736	0.16170964
10	0xbcc814fd	-0.02442407
11	0x3d4233cc	0.04741268
12	0x3e3ba7cc	0.18325728
13	0xbe43d9bb	-0.19126026
14	0x3d0fea73	0.035135698
15	0xbea28556	-0.31742352
16	0xbe0c6b38	-0.13712776
17	0xbe8b8fc7	-0.2725813
18	0xbd8ffbbd	-0.07030437
19	0x3e64a3a3	0.22328047
20	0x3f0fe4e8	0.5620866
21	0xbed7162b	-0.420091
22	0x3d9b1041	0.075714596
23	0xbf07a3b3	-0.5298416
24	0x3e32f888	0.1747762
25	0x3ec37777	0.38177082
26	0xbe20920c	-0.15680712
27	0xbdc479e3	-0.095935605
28	0xbf2d4dbd	-0.67696744
29	0xbe23e57a	-0.16005507
30	0x3e6f874f	0.2339146
31	0xbeeafd87	-0.4589655
32	0x3e51bfb8	0.20483291
33	0xbed98345	-0.42482963
34	0x3ed2d404	0.4117738
35	0xbec18386	-0.37795657
36	0x3def01b4	0.11670247
37	0x3cf9b1b8	0.03048025
38	0x3e63cad0	0.22245336
39	0xbf108e66	-0.5646728
40	0xbe963fb4	-0.29345477
41	0xbe3c6d27	-0.18401013
42	0xbe344793	-0.17605428
43	0xbd9e22c8	-0.07721478
44	0xbeccc1b7	-0.39991543
45	0x3ef191ed	0.47181645
46	0x3da7ea2c	0.081989616
47	0x3ed37b6c	0.413051
48	0xbe8a7370	-0.27041197
49	0xbef5ad20	-0.47983646
50	0xbd3dd633	-0.046346854
51	0x3e16041c	0.14650005
52	0xbdaae219	-0.08343906
53	0xbed0d225	-0.40785328
54	0xbe18f0e9	-0.1493565
55	0x3d647a58	0.05578074
56	0xbe667684	-0.22506148
57	0xbdd8236d	-0.10553632
58	0xbf19b6c5	-0.6004451
59	0xbea5f449	-0.32412937
60	0xbe064a23	-0.13114218
61	0xbe5881ea	-0.21143308
62	0xbf245466	-0.6419128
63	0xbdc36c40	-0.095421314
64	0xbd700219	-0.05859575
65	0xbebf4226	-0.37355155
66	0x3d050cd9	0.032482956
67	0xbe8971ef	-0.26844737
68	0xbee55b10	-0.44796038
69	0x3e959512	0.29215294
70	0x3ea0b006	0.31384295
71	0xbe2888d4	-0.16458446
72	0xbe86280b	-0.26202425
73	0x3ca587be	0.020206328
74	0xbf1c21e2	-0.609892
75	0x3e0b54d1	0.13606574
76	0xbe0e8801	-0.13919069
77	0xbe91d845	-0.28485313
78	0x3eb9a5e6	0.36259383
79	0xbe4177e1	-0.18893386
80	0xbf6a0c9f	-0.9142551
81	0x3e70b9af	0.23508333
82	0x3e55de01	0.20885469
83	0xbe95fc5f	-0.29294106
84	0x3efe5c5d	0.49679843
85	0xbe6fb422	-0.23408559
86	0xbf4325c7	-0.7622952
87	0xbf23c4d5	-0.63972217
88	0xbdca61ad	-0.098819114
89	0x3dce6146	0.10077147
90	0xbe2a1f61	-0.16613533
91	0xbeb7c64a	-0.3589347
92	0xbddc9dfd	-0.107723214
93	0xbf2cf4bd	-0.6756094
94	0x3e9e528a	0.30922347
95	0xbf549107	-0.83033794
96	0x3f149dea	0.5805346
97	0xbde82281	-0.11334706
98	0xbe2496ec	-0.16073197
99	0xbf22ac1e	-0.6354388
100	0xbe1869a3	-0.14884047
101	0xbc3ac0a7	-0.011398471
102	0xbe887e57	-0.2665889
103	0xbd7a9d2c	-0.061185047
104	0x3e80848c	0.25101125
105	0x3f1ba767	0.6080231
106	0xbe194e5a	-0.14971295
107	0xbc2a52c4	-0.010395709
108	0x3e9ae587	0.3025324
109	0xbf473c54	-0.7782643
110	0xbed1ecae	-0.41000885
111	0x3ecaaa1e	0.39582914
112	0xbf2e7047	-0.6814007
113	0xbe1d18a2	-0.15341428
114	0x3c98ba2a	0.018643457
115	0x3f09fd64	0.5390227
116	0xbedee38f	-0.43532988
117	0x3e9a34a3	0.30118284
118	0x3e4b4ac1	0.19852735
119	0x3d38385b	0.04497562
120	0xbf4013b2	-0.7503005
121	0xbe32d3c2	-0.17463592
122	0xbf237810	-0.63855076
123	0x3d896d50	0.06710303
124	0x3e76f7b4	0.24117929
125	0xbec1e478	-0.3786962
126	0x3e4a876b	0.1977822
127	0xbf3d60a7	-0.73975605
128	0xbe41ee58	-0.18938577
129	0xbd3f59c4	-0.046716467
130	0xbf7bde95	-0.9838651
131	0x3ddd28c1	0.10798789
132	0xbea0b336	-0.31386727
133	0xbe3cc7b1	-0.18435551
134	0xbc8cf515	-0.017206708
135	0xbd5f78f9	-0.054558728
136	0xbf0bc431	-0.5459624
137	0x3f2a2e3e	0.6647681
138	0xbe3cec8b	-0.18449609
139	0x3e8fce94	0.28087294
140	0x3b23fc14	0.0025022076
141	0xbc9a900b	-0.018867513
142	0x3d199082	0.03749133
143	0xbfb000af	-1.3750209
144	0xbea61d64	-0.32444298
145	0x3ebc209d	0.36743632
146	0xbd35eadc	-0.044413432
147	0xbea82d8c	-0.3284725
148	0xbe29bbc7	-0.16575538
149	0xbe3cfe4b	-0.1845638
150	0xbf1d8143	-0.6152536
151	0x3be8efae	0.00710865
152	0xbeefe79d	-0.46856394
153	0x3d7d6a01	0.06186867
154	0x3e201390	0.15632463
155	0xbe7f7751	-0.2494786
156	0x3dcfc092	0.10144152
157	0xbf6bb2e9	-0.9206987
158	0xbdfa99ed	-0.1223639
159	0x3d11bbda	0.03557954
160	0x3ea5ba3e	0.32368654
161	0x3d3de83d	0.046364058
162	0x3f1c2083	0.6098711
163	0xbe31e461	-0.17372276
164	0xbf0fc7ab	-0.56164044
165	0xbce422ea	-0.02784868
166	0x3e3e901e	0.18609664
167	0xbeba4132	-0.36377865
168	0xbd2d7f2f	-0.04235762
169	0x3e827ea0	0.25487232
170	0x3d95a8d7	0.07307594
171	0x3e081bc6	0.13291845
172	0xbe90186b	-0.2814363
173	0xbee3360f	-0.4437718
174	0x3e8e34c3	0.2777463
175	0xbd088cd1	-0.033337418
176	0xbe40eaf7	-0.18839632
177	0xbf3ad60a	-0.7298285
178	0xbe987b50	-0.2978158
179	0xbd925aaa	-0.07146199
180	0xbf1b36cf	-0.60630506
181	0x3d165963	0.03670634
182	0xbda825a8	-0.08210307
183	0xbddb669d	-0.10712931
184	0xbfa31123	-1.2739605
185	0xbfc35f1f	-1.5263404
186	0x3cc04e41	0.023474814
187	0x3d394b5a	0.045237876
188	0x3e8ddfef	0.2770991
189	0xbf258af5	-0.64665157
190	0x3cf6cb03	0.0301261
191	0xbc27fee2	-0.01025364
192	0xbf0926f0	-0.5357504
193	0xbe141b9d	-0.14463659
194	0xbeeca64a	-0.46220618
195	0xbe0e190b	-0.1387674
196	0x3e9fd96b	0.31220564
197	0x3ec13be9	0.3774102
198	0xbe794a49	-0.24344744
199	0xbdf8f9c1	-0.12157012
200	0xbe908f66	-0.28234404
201	0xbfd66b49	-1.6751491
202	0xbc9ba13c	-0.018997781
203	0xbe3db99b	-0.18527834
204	0x3e0cf7b2	0.13766363
205	0xbde17b52	-0.110098496
206	0xbe4ddb7f	-0.20103262
207	0x3e8edb19	0.27901533
208	0x3d0fdda3	0.03512348
209	0xbeb79281	-0.3585396
210	0xbc32dfd5	-0.0109176235
211	0x3de778a9	0.11302311
212	0xbe93ba47	-0.28853056
213	0x3c91c17b	0.017792454
214	0xbf64bb0b	-0.89347905
215	0x3df6508b	0.12027081
216	0xbea76fc2	-0.32702452
217	0xbed71c97	-0.42014
218	0x3e67758b	0.22603433
219	0xbec7eb9c	-0.39046943
220	0x3ea41799	0.32049254
221	0xbe2310d7	-0.15924393
222	0xbe89809b	-0.2685593
223	0x3e247165	0.16058882
224	0x3e07093c	0.13187116
225	0x3cdffbbb	0.027341714
226	0xbea9fc7b	-0.3320044
227	0xbe84d4b6	-0.25943536
228	0xbf02bc2b	-0.5106837
229	0xbe6aa1bd	-0.22913261
230	0xbe69fec9	-0.22851099
231	0xbc12c34d	-0.008957696
232	0x3d054602	0.032537468
233	0xbeb0088b	-0.34381518
234	0xbe7faf93	-0.2496932
235	0xbf451e70	-0.7699957
236	0xbea226cf	-0.31670234
237	0xbe7cba13	-0.24680357
238	0x3ea8fd2e	0.3300566
239	0xbe1cc38a	-0.15308967
240	0xbddb5f4c	-0.10711536
241	0x3e2d3623	0.16915183
242	0xbe43fca3	-0.19139342
243	0x3df3f017	0.11911028
244	0x3dfe1ef4	0.124082476
245	0xbe4d48ea	-0.20047346
246	0xbdf14854	-0.117813736
247	0x3e88c8e2	0.2671576
248	0x3d02bf43	0.031920683
249	0xbe40a506	-0.18812951
250	0x3cec3850	0.028835446
251	0x3ef63ffb	0.48095688
252	0x3d9686bb	0.073499165
253	0xbee8f0ca	-0.45496207
254	0xbe9bb5b4	-0.30412066
255	0xbe8ff3ef	-0.28115794

net.2.weight f4 [32, 256]
0	0x3e4f5ac0	0.20249462
1	0xbe9e56cc	-0.30925596
2	0xbd6942d5	-0.0569485
3	0xbe0142d1	-0.12623145
4	0x3e12a147	0.14319335
5	0xbd16c25d	-0.036806453
6	0xbe521c43	-0.20518593
7	0x3da07944	0.078356296
8	0x3e1ce3b9	0.15321244
9	0x3e07da9b	0.13266985
10	0x3c5f0d7c	0.013614055
11	0x3e027c0c	0.12742633
12	0xbd7394ec	-0.059468195
13	0xbe6a4a62	-0.22879937
14	0xbd295576	-0.041341268
15	0xbc90e391	-0.017686637
16	0xbda02329	-0.07819206
17	0x3ddd7d98	0.10814971
18	0x3d987d24	0.07445744
19	0xbd9be04c	-0.076111406
20	0x3dbaa34d	0.091131784
21	0x3b95d8cd	0.004572964
22	0x3eace0fa	0.33765393
23	0xbb8802d9	-0.00415073
24	0x3e127efe	0.14306256
25	0xbe931a21	-0.28730872
26	0x3da48469	0.08033068
27	0x3e11f789	0.14254583
28	0x3d547db5	0.051877696
29	0xbda9430c	-0.08264741
30	0x3d0eb3cf	0.034839448
31	0x3e220136	0.15820774
32	0x3b75daf1	0.0037514532
33	0x3e3e3db9	0.18578233
34	0x3cfd23b6	0.030900817
35	0xbde82630	-0.11335409
36	0xbc8f0c4f	-0.017461924
37	0x3d880119	0.06640834
38	0xbe38bd9b	-0.18041079
39	0x3da30a04	0.07960895
40	0xbce565eb	-0.0280027
41	0x3cd7de26	0.026351046
42	0x3bb6602b	0.0055656633
43	0x3d8b95a6	0.068156525
44	0x3db7015b	0.089358054
45	0xbda51797	-0.0806114
46	0x3e815412	0.25259453
47	0xbd9e97b7	-0.07743781
48	0x3e8db2f0	0.2767558
49	0x3ea32947	0.3186743
50	0x3d16deb0	0.036833465
51	0xbd9e2228	-0.077213585
52	0x3e49a7c9	0.19692911
53	0xbe4c1de4	-0.19933277
54	0x3e1fc56c	0.15602654
55	0xbcb0433e	-0.021516439
56	0x3d4187ee	0.047248773
57	0x3db8ec17	0.090294056
58	0xbd88d689	-0.06681544
59	0x3e323976	0.17404732
60	0xbdf96246	-0.12176947
61	0x3d7301f3	0.05932803
62	0x3db390ee	0.087678775
63	0xbe527fd1	-0.2055657
64	0x3d4b624a	0.049654283
65	0xbcf6b79f	-0.030116854
66	0xbdc99e86	-0.09844689
67	0xbc68da59	-0.014212214
68	0xbe18c24a	-0.14917865
69	0xbe1801c9	-0.14844431
70	0xbe09fc61	-0.13475181
71	0xbe66f926	-0.2255598
72	0x3c984287	0.01858641
73	0x3e202207	0.1563798
74	0xbe4246cf	-0.18972324
75	0xbd9c637d	-0.076361634
76	0x3dfb31d8	0.12265366
77	0xbe7df2f0	-0.24799705
78	0xbdd88740	-0.10572672
79	0x3e1548db	0.14578573
80	0xbd14fe4a	-0.03637532
81	0x3c9d3cf5	0.019194106
82	0x3c542b07	0.012949712
83	0x3e20c310	0.1569941
84	0xbe3ab9eb	-0.18234985
85	0x3ecab346	0.395899
86	0xbcdd0e50	-0.026984364
87	0x3d3deb7b	0.04636715
88	0x3db53698	0.088483036
89	0x3dc2ab47	0.09505325
90	0xbe9b2d0c	-0.30307806
91	0x3cab0b04	0.020879276
92	0x3ea54b62	0.32284075
93	0x3e556f60	0.20843267
94	0xbe01792f	-0.12643884
95	0xbeb43dbc	-0.3520335
96	0xbd1b1f01	-0.037871365
97	0xbca8def8	-0.020614132
98	0x3c323322	0.010876449
99	0xbe75bf96	-0.23998865
100	0x3e14a2ac	0.1451518
101	0x3c2f2d33	0.010691929
102	0x3d17fdf9	0.03710744
103	0x3e14e376	0.14539894
104	0x3d4e688b	0.05039267
105	0x3e0b8d8d	0.13628216
106	0x3d118ca4	0.035534516
107	0xbe757b51	-0.23972823
108	0xbea5605c	-0.3230008
109	0x3e08fee4	0.13378483
110	0x3e1ca82b	0.15298526
111	0xbd557fef	-0.05212396
112	0xbd27dbbb	-0.040981036
113	0x3d0acf74	0.03388925
114	0x3e5f33cb	0.21797101
115	0x3e4ab50f	0.19795631
116	0x3e74bda4	0.23900467
117	0xbb65a93d	-0.00350435
118	0x3dd2285d	0.10261605
119	0x3d70e488	0.058811694
120	0xbe7dec09	-0.24797072
121	0xbdf8336a	-0.121191815
122	0x3bf6a39a	0.007526827
123	0xbd8ecf25	-0.069731034
124	0xbd91ea0f	-0.07124721
125	0xbdaff8d8	-0.08592385
126	0x3e7854bf	0.24251078
127	0xbc466ab4	-0.012110401
128	0x3eb20498	0.3476913
129	0xbeabb201	-0.33534244
130	0x3d40ec7c	0.04710053
131	0x3e69306b	0.22772376
132	0xbe8a48fa	-0.27008802
133	0xbd7305c3	-0.059331667
134	0x3d7f52e5	0.062334914
135	0xbc91bc3f	-0.017789958
136	0xbde88e62	-0.11355282
137	0x3cdb9efc	0.026809208
138	0xbd95a8ba	-0.07307573
139	0x3e25ed4d	0.16203804
140	0x3dbaed78	0.09127325
141	0xbea727a6	-0.32647437
142	0x3e5d7194	0.21625358
143	0x3b9744b7	0.0046163457
144	0xbe8ee893	-0.27911815
145	0xbe53edc7	-0.20696174
146	0xbc276a9c	-0.010218289
147	0xbd99f0af	-0.0751661
148	0xbe8861c7	-0.26637098
149	0xbe972249	-0.29518345
150	0xbded6618	-0.115917385
151	0xbe4dbfc4	-0.20092684
152	0x3e68e317	0.22742878
153	0x3e8e9bd0	0.2785325
154	0x3c5d2148	0.013496704
155	0xbe22cc49	-0.15898241
156	0xbcb33550	-0.021876007
157	0x3e864de2	0.26231295
158	0xbdda0a80	-0.10646534
159	0x3e44fe00	0.19237518
160	0xbe658abf	-0.22416209
161	0x3dd315cc	0.10306892
162	0x3c5db0f0	0.013530955
163	0xbe1c42f1	-0.15259911
164	0x3e2886fe	0.16457745
165	0x3c6234f9	0.013806575
166	0x3d74dbc6	0.059779905
167	0xbe05dd90	-0.130728
168	0xbe31fed3	-0.17382364
169	0x3d34bb40	0.044123888
170	0xbe202879	-0.15640439
171	0xbe0f1ce9	-0.13975872
172	0x3e1948db	0.14969198
173	0xbe3feed9	-0.18743457
174	0xbd3798f0	-0.044823587
175	0xbd46b6a1	-0.048514012
176	0xbeb10614	-0.3457495
177	0xbdae0dfc	-0.08498761
178	0xbe4ea350	-0.20179486
179	0x3cdbbf82	0.026824716
180	0x3e20c9f0	0.15702033
181	0xbd06e178	-0.032929868
182	0x3e0dfdeb	0.13866393
183	0x3c07e44b	0.008294175
184	0xbda688e0	-0.081315756
185	0xbc98415f	-0.018585859
186	0x3c9c158a	0.01905324
187	0xbded58cd	-0.11589203
188	0xbebcc582	-0.36869437
189	0xbe559cd6	-0.2086061
190	0xbdf9d6d2	-0.12199177
191	0xbbd2334e	-0.0064148074
192	0x3c15aa13	0.009134787
193	0x3e84a9ca	0.2591079
194	0x3d8a9db2	0.06768359
195	0x3dafbea9	0.085812874
196	0x3e12622d	0.14295264
197	0x3d22063c	0.039556727
198	0xbcf0d279	-0.029397236
199	0x3cd13549	0.025538104
200	0xbc90b446	-0.017664086
201	0xbf247631	-0.64242846
202	0xbe26aa10	-0.16275811
203	0xbe40f3f2	-0.18843058
204	0xbcb2e2ce	-0.021836665
205	0x3e85e365	0.2615005
206	0x3d96536d	0.07340131
207	0x3ec64c60	0.38730145
208	0xbd41a70d	-0.047278453
209	0x3e251078	0.16119564
210	0xbdd18c27	-0.1023181
211	0x3e177732	0.14791563
212	0x3bf1a925	0.0073749
213	0xbd227964	-0.03966655
214	0x3eb3c504	0.35111248
215	0xbe1ad3bf	-0.15119837
216	0x3e65f9c6	0.22458562
217	0x3e28104a	0.16412464
218	0xbcf7af2c	-0.030234896
219	0xbe9a179e	-0.30096143
220	0xbe551412	-0.20808437
221	0x3e082b70	0.1329782
222	0xbe560886	-0.20901689
223	0x3e267c42	0.16258338
224	0xbd97cfd4	-0.07412687
225	0x3e237860	0.15963888
226	0xbe0681f4	-0.1313551
227	0xbdabc704	-0.083875686
228	0xbe28b40e	-0.16474935
229	0xbd0db614	-0.03459747
230	0x3dc2eb0f	0.0951749
231	0x3dc887de	0.097915396
232	0xbd3aef61	-0.045638446
233	0xbdd3ff09	-0.103513785
234	0xbe4530fe	-0.1925697
235	0x3d5b231d	0.053500284
236	0x3e4c364e	0.1994259
237	0x3da41ecc	0.080136865
238	0xbe4ac9cf	-0.19803546
239	0x3e8a989b	0.27069554
240	0xbd962de2	-0.0733297
241	0xbdd40a2d	-0.103535034
242	0xbd132205	-0.035921115
243	0x3e266c16	0.16252169
244	0xbe601e3e	-0.21886536
245	0xbe648a55	-0.22318394
246	0xbdb86ba1	-0.090049036
247	0x3e3c69dc	0.18399757
248	0x3ee85a62	0.45381457
249	0xbe2d8ccc	-0.16948241
250	0xbdc38405	-0.09546665
251	0x3e26bfe3	0.16284136
252	0xbe5a2a35	-0.21305163
253	0xbdfcac0d	-0.123375036
254	0x3e435101	0.1907387
255	0x3db5301f	0.08847069

net.2.bias f4 [32]
0	0x3d739dcc	0.05947666
1	0x3e564143	0.20923333
2	0x3e1cba1d	0.15305372
3	0x3dc5c090	0.09655869
4	0xbe1627d3	-0.14663629
5	0xbfc16322	-1.5108378
6	0xbf969d6e	-1.1766794
7	0x3d9e1bff	0.077201836
8	0xbe988da6	-0.2979557
9	0xbe4c21e7	-0.19934808
10	0xbe6a8860	-0.22903585
11	0xbf8e0d9b	-1.1097902
12	0x3e07e7ad	0.13271971
13	0x3eb3183a	0.3497942
14	0xbf02e998	-0.51137686
15	0x3e36bb02	0.17844775
16	0xbe603286	-0.21894273
17	0xbebc90a8	-0.36829114
18	0x3c8e8d7b	0.017401448
19	0x3f2a1c34	0.66449285
20	0x3cad69b9	0.021168577
21	0xbf0291fb	-0.51004
22	0x3e0a6e59	0.13518657
23	0xbf18ac2a	-0.596377
24	0xbeb92772	-0.36162907
25	0xbf5346b9	-0.8252979
26	0xbe95ee12	-0.29283196
27	0xbe496597	-0.1966766
28	0xbe55cd64	-0.20879132
29	0x3f01baaf	0.5067548
30	0x3d8a0593	0.067393444
31	0xbf03478a	-0.51281035

net.4.weight f4 [32, 32]
0	0xbdd83d2c	-0.105585426
1	0xbe7b5509	-0.24544157
2	0x3eb7ba3c	0.35884273
3	0x3d834e36	0.06411402
4	0x3f09f86b	0.5389468
5	0xbe6665cc	-0.2249977
6	0xbd087bdd	-0.03332125
7	0xbe43a4e6	-0.19105873
8	0xbdabaaf6	-0.083822176
9	0xbe400d5d	-0.18755098
10	0xbe1a3c93	-0.1506217
11	0x3dda9f25	0.10674886
12	0x3cb17c02	0.021665577
13	0xbe83cf26	-0.2574398
14	0xbdec3940	-0.11534357
15	0x3f06bba5	0.5263007
16	0xbdcdf391	-0.10056222
17	0x3dd20d84	0.10256484
18	0x3c978874	0.018497683
19	0xbde6f455	-0.112770714
20	0x3e162345	0.14661892
21	0xbdad03e4	-0.08448008
22	0xbd88b9ba	-0.066760495
23	0xbe772a9b	-0.24137346
24	0xbe244190	-0.16040635
25	0xbcc18534	-0.023623087
26	0xbe5b62b1	-0.21424367
27	0x3df4260b	0.119213186
28	0x3e33f4b1	0.17573811
29	0xbd85e2ff	-0.06537437
30	0x3c6e565a	0.014546955
31	0xbdfdc8ee	-0.1239184
32	0xbe83296a	-0.25617534
33	0xbe7b1c03	-0.24522404
34	0x3a99775d	0.0011708547
35	0x3deac2c6	0.11462931
36	0xbdc199e4	-0.094531804
37	0xbe1719c2	-0.1475592
38	0x3d9d7e78	0.076901376
39	0xbdbbb6a5	-0.09165696
40	0xbd9d6b06	-0.07686429
41	0xbe3feb90	-0.18742204
42	0xbea217bc	-0.31658733
43	0xbca09e78	-0.019606814
44	0x3e203ea9	0.15648903
45	0x3dff9abd	0.12480686
46	0x3e18311b	0.14862482
47	0x3d8130bb	0.06308123
48	0x3d700e20	0.05860722
49	0xbe3cc978	-0.18436229
50	0x3ed7f4e4	0.42179024
51	0x3e445fe7	0.19177209
52	0x3e304dbe	0.17217156
53	0x3c8f9f31	0.017531963
54	0x3e421586	0.18953523
55	0xbdd28af3	-0.10280409
56	0xbda32f73	-0.079680346
57	0xbe8737a2	-0.26409632
58	0xbcff46a4	-0.031161614
59	0x3e4690c5	0.19391163
60	0xbebeb267	-0.37245485
61	0x3eb74593	0.35795268
62	0x3cb308fe	0.021854874
63	0x3d7cba89	0.06170133
64	0xbdefc39e	-0.11707233
65	0xbc5a0c7d	-0.0133086415
66	0x3e923ace	0.2856049
67	0x3e4974b2	0.19673422
68	0x3de9352b	0.11387094
69	0x3efcc417	0.49368355
70	0x3dd283e8	0.10279065
71	0x3e655927	0.2239729
72	0x3ca96b7c	0.020681135
73	0x3ec3165f	0.38103005
74	0x3e4f238c	0.20228404
75	0xbe933e1b	-0.2875832
76	0x3dc78d6c	0.09743771
77	0xbc0e8f00	-0.008701086
78	0x3d8fb7bd	0.07017467
79	0xbc9028a1	-0.017597498
80	0x3ec7c73d	0.39019194
81	0xbeb90d65	-0.36143032
82	0xbe89dae4	-0.26924813
83	0xbd7b27da	-0.061317302
84	0x3ef74454	0.48294318
85	0xbecfdf66	-0.40600127
86	0xbe733b1f	-0.23753022
87	0xbe9f788f	-0.31146666
88	0x3dbbf757	0.09178036
89	0xbe7fa78d	-0.2496626
90	0xbee7bebe	-0.45262712
91	0x3e7a32ce	0.24433443
92	0x3d2eb701	0.042654995
93	0xbcaeb818	-0.021328017
94	0x3e371a12	0.17881039
95	0x3f0e8d71	0.5568457
96	0x3e3c0d72	0.18364504
97	0xbd355ff1	-0.04428095
98	0xbfd71012	-1.6801779
99	0x3f161a96	0.58634317
100	0x3e8dd969	0.27704933
101	0xbf8b337f	-1.087509
102	0xbe01a2b7	-0.12659727
103	0xbf3b3922	-0.7313405
104	0x3f9171f8	1.1362906
105	0x3ccc5238	0.024941549
106	0xbe0c6249	-0.13709368
107	0xbeac2cce	-0.33627933
108	0xbf06ceac	-0.52659106
109	0xbf8a8360	-1.0821342
110	0xbe74e518	-0.23915517
111	0xbf33695b	-0.70082635
112	0xbe8438fd	-0.2582473
113	0x3fc8cf77	1.5688313
114	0xbc56ccfe	-0.013110397
115	0xbebc236e	-0.3674578
116	0x3ecbb7dc	0.3978871
117	0xbf591754	-0.8480122
118	0x3ef5313d	0.47889128
119	0x400e2e30	2.221569
120	0x3ec52b3d	0.3850955
121	0x3f757ac6	0.9589046
122	0x3dabbb71	0.08385361
123	0xbec0ded6	-0.3767001
124	0x3ef2d7c9	0.47430256
125	0x3e1928b9	0.1495694
126	0x3db84216	0.0899698
127	0xbf464736	-0.7745241
128	0xbaebf1db	-0.0018001156
129	0x3d8ceb78	0.068808496
130	0x3db10b63	0.0864475
131	0xbe307eaa	-0.17235819
132	0x3c918c64	0.017767139
133	0xbd51970b	-0.051169436
134	0xbe728337	-0.23682867
135	0x3ea578df	0.3231878
136	0x3e71723a	0.2357873
137	0x3e58e41a	0.21180764
138	0xbeb5c5f6	-0.35502595
139	0xbebbc052	-0.36670166
140	0x3dfd847f	0.12378787
141	0xbdb05ca7	-0.08611422
142	0xbe805efc	-0.25072467
143	0x3d28a614	0.04117401
144	0xbde38a4d	-0.11110363
145	0x3d18481b	0.03717814
146	0x3e439d23	0.19102912
147	0x3c4cefd9	0.012508356
148	0xbe56bd7f	-0.20970725
149	0x3e43bc44	0.19114786
150	0x3e4f0055	0.2021497
151	0x3e44688b	0.19180505
152	0x3e28b349	0.16474642
153	0xbe2541ff	-0.16138457
154	0x3ec053f6	0.37564057
155	0xbeb9f6b0	-0.3632102
156	0x3e4b3ce7	0.19847451
157	0xbeda2e95	-0.42613664
158	0xbe94f60f	-0.29093978
159	0xbdfc9e1c	-0.123348445
160	0x3f0bea8e	0.5465478
161	0xbc91a074	-0.017776705
162	0x3dc6f975	0.09715549
163	0xbf5f7f6c	-0.87303805
164	0xbef0521d	-0.46937647
165	0x3e0b5969	0.13608326
166	0x3e0dbb11	0.13840891
167	0x3d654dc2	0.05598236
168	0xbe2275f7	-0.15865313
169	0x3e948c9a	0.2901352
170	0xbecb38ad	-0.39691678
171	0x3cc1d9a0	0.023663342
172	0xbe1f7fea	-0.15576139
173	0xbecd6661	-0.4011717
174	0xbdce83a2	-0.10083701
175	0xbf3d4846	-0.73938406
176	0xbf284811	-0.65734965
177	0x3f189a13	0.596101
178	0x3ebcfd96	0.3691222
179	0x3d4c51fe	0.04988288
180	0xbde04596	-0.109507725
181	0x3f631cf4	0.88716054
182	0xbe75d3c9	-0.24006571
183	0xbe267d90	-0.16258836
184	0x3ec0e407	0.3767397
185	0xbc7f9976	-0.015600553
186	0x3f3b39ca	0.73135054
187	0xbe077bf9	-0.13230886
188	0x3e3f9f2d	0.18713064
189	0x3ea80bf5	0.32821622
190	0x3f0571f0	0.5212698
191	0xbebab143	-0.36463365
192	0x3dd8ebcb	0.10591849
193	0x3e5ae682	0.21376994
194	0x3e4f7cfe	0.20262524
195	0x3ec48a1c	0.3838662
196	0xbdd5be0d	-0.1043664
197	0xbeaa1718	-0.33220744
198	0xbb1c5c9c	-0.002385891
199	0xbe2151ba	-0.15753832
200	0x3d613916	0.054986082
201	0x3c3117cd	0.010808897
202	0x3e66b4e0	0.22529936
203	0xbe436747	-0.19082366
204	0xbee38b66	-0.4444229
205	0x3cf53d71	0.029936524
206	0xb8aa0387	-8.106889e-05
207	0x3e3a7f81	0.18212701
208	0x3d8f440c	0.06995401
209	0x3e95f32f	0.29287097
210	0xbcebf40f	-0.0288029
211	0x3e30fc69	0.17283787
212	0xbc68a941	-0.0142005095
213	0xbe98cc38	-0.29843307
214	0xbd56ae6e	-0.052412443
215	0xbdfba40e	-0.1228715
216	0xbe0d9b4e	-0.13828775
217	0xbe55bb84	-0.20872313
218	0x3d180cdd	0.037121642
219	0xbde93694	-0.11387363
220	0x3df29332	0.118444815
221	0x3e8c31d4	0.27381766
222	0x3e818ef2	0.2530437
223	0xbeb45faf	-0.3522925
224	0x3e53f99f	0.20700692
225	0xbe4590da	-0.19293538
226	0x3e297830	0.16549754
227	0x3ec52c3c	0.3851031
228	0xbe6e25eb	-0.23256652
229	0xbeae8e34	-0.34092867
230	0x3e104561	0.14088966
231	0xbe92cea9	-0.28673294
232	0xbd881c9b	-0.06646081
233	0x3d63f158	0.055650085
234	0x3d4a9796	0.04946097
235	0xbf0b7154	-0.544698
236	0xbe81b0c8	-0.25330186
237	0x3e39b9f4	0.18137342
238	0x3cd75e7f	0.026290176
239	0x3e106d6b	0.1410424
240	0xbd990bc7	-0.074729495
241	0xbd3dd6a5	-0.04634728
242	0x3e29d8c9	0.16586603
243	0xbdff6636	-0.12470667
244	0x3e166b96	0.14689478
245	0x3dca9f30	0.09893644
246	0x3e9b438b	0.3032497
247	0xbbbf8c1d	-0.00584556
248	0x3d3b17f5	0.045677144
249	0x3e37fd08	0.17967618
250	0xbe12c11e	-0.14331481
251	0xbea2d32e	-0.31801742
252	0xbe17d7f9	-0.14828481
253	0x3e9ebe67	0.3100464
254	0xbe130d61	-0.14360572
255	0xbd028558	-0.031865448

net.4.bias f4 [32]
0	0x3e046f93	0.12933187
1	0x3d68ec99	0.056866262
2	0xbbf59aed	-0.0074952752
3	0xbf4e75e4	-0.80648637
4	0xbe7ade10	-0.24498773
5	0xbf15e1ee	-0.58547866
6	0x3e2a5ed2	0.16637734
7	0x3dd51b86	0.1040564
8	0xbf17794a	-0.5916945
9	0x3e14c4dc	0.14528221
10	0x3dcb6e48	0.09933144
11	0xbeb4e6f7	-0.35332462
12	0xbc9853c1	-0.018594624
13	0x3da07d65	0.07836417
14	0xbdbb1119	-0.091341205
15	0x3d1c1e03	0.03811456
16	0xbe16b171	-0.14716126
17	0xbdbcb638	-0.09214443
18	0x3d9742ff	0.07385825
19	0x3d844e67	0.064602666
20	0xbf45df38	-0.7729373
21	0xbc4427e5	-0.011972402
22	0x3eabd32f	0.33559558
23	0x3eaeec45	0.34164634
24	0x3dac7f72	0.08422746
25	0xbf446ec4	-0.76731515
26	0xbf99b573	-1.2008499
27	0x3e4f20b7	0.20227323
28	0x3c915e29	0.017745094
29	0xbe3ab2d1	-0.18232276
30	0x3e636d30	0.2220962
31	0xbf0be4ab	-0.54645795

net.6.weight f4 [1, 32]
0	0x3f1b40e6	0.606459
1	0xbee49fa7	-0.44653055
2	0xbebd0ae4	-0.3692237
3	0x3f2ae871	0.6676093
4	0x3f9a5924	1.2058454
5	0x3f37b516	0.7176069
6	0xbf1c6941	-0.61098105
7	0x3f1dcd63	0.6164152
8	0x3f95175b	1.1647753
9	0x3ebcc638	0.3686998
10	0xbea6a718	-0.32549357
11	0xbf0e4486	-0.5557331
12	0x3ec97bac	0.39352167
13	0x3ef0072c	0.46880472
14	0x3e9416f2	0.28923756
15	0xbeee55fd	-0.4654998
16	0xbea75a6f	-0.32686183
17	0x3f04a575	0.5181497
18	0xbf022569	-0.50838333
19	0x3eec9c85	0.46213165
20	0xbf643a55	-0.8915151
21	0xbec9e00a	-0.3942874
22	0x3f307fa7	0.6894478
23	0xbf4193a7	-0.75615925
24	0x3f078c23	0.52948207
25	0xbfb7afd2	-1.4350531
26	0xbf8bcba1	-1.0921518
27	0xbf0e18a9	-0.5550638
28	0xbec168f0	-0.37775373
29	0xbfc3acc5	-1.52871
30	0x3f0b0d7d	0.54317456
31	0x3fc574da	1.5426285

exp_avg f4 [256, 120]
0	0x38864fe8	6.4045016e-05
1	0x38532be3	5.0347193e-05
2	0x386479e5	5.447296e-05
3	0x385f06ee	5.3173797e-05
4	0x3807b5eb	3.2355932e-05
5	0x38654e39	5.4670705e-05
6	0x38854806	6.3553496e-05
7	0x3794b368	1.7726517e-05
8	0x36abba1e	5.117864e-06
9	0xb7b82c4a	-2.1955133e-05
10	0x37afdb53	2.0963756e-05
11	0x380c9466	3.3516808e-05
12	0x37d26c5b	2.5084408e-05
13	0xb91fe1b4	-0.00015247503
14	0xb8418d9a	-4.6146662e-05
15	0xb876702b	-5.8755435e-05
16	0xb9027867	-0.0001244262
17	0xb8d78a2a	-0.00010277734
18	0xb9039424	-0.0001254832
19	0xb8ecbd3b	-0.00011288604
20	0xb9031571	-0.00012501121
21	0xb95736af	-0.00020524369
22	0xb95bc1f6	-0.00020957724
23	0xb9519141	-0.00019985905
24	0xb863c026	-5.429997e-05
25	0xb99b2bfc	-0.00029596675
26	0xb945617b	-0.00018823698
27	0xb94361d7	-0.00018633097
28	0xb9156647	-0.00014247849
29	0xb94e1271	-0.00019652561
30	0xb8e1dfcc	-0.000107705215
31	0xb9104f16	-0.00013762372
32	0xb92d5584	-0.00016530423
33	0xb909957d	-0.00013121027
34	0xb9a48948	-0.000313828
35	0xb892d338	-7.001165e-05
36	0xb8c05897	-9.1717746e-05
37	0xb9026846	-0.00012436611
38	0xb94299de	-0.00018558602
39	0xb9531d21	-0.0002013338
40	0xb8bfe381	-9.1499656e-05
41	0xb8d84788	-0.00010313006
42	0xb83a79bc	-4.445923e-05
43	0xb80c8971	-3.3506603e-05
44	0x38821e4f	6.2045285e-05
45	0xb60a7624	-2.063237e-06
46	0xb8a428b0	-7.827708e-05
47	0xb7c5e7c7	-2.359216e-05
48	0x380d6c82	3.3718075e-05
49	0x38423c7e	4.6309542e-05
50	0x380d920f	3.3753047e-05
51	0x389c536e	7.4542e-05
52	0x38635538	5.4200384e-05
53	0x385a8592	5.2099647e-05
54	0x38663fcf	5.48957e-05
55	0x3882ad46	6.231158e-05
56	0x386c3964	5.6320234e-05
57	0x3866228a	5.486844e-05
58	0x385f4efe	5.324091e-05
59	0x386fc76a	5.716776e-05
60	0x3864a8d9	5.4516688e-05
61	0x3865e9e4	5.4815682e-05
62	0x3865471f	5.466409e-05
63	0x3865261b	5.4633343e-05
64	0x3865698d	5.4696156e-05
65	0x38653dbd	5.4655353e-05
66	0x38657d61	5.4714623e-05
67	0x38655a6a	5.468206e-05
68	0x38655b84	5.4683085e-05
69	0x38655b84	5.4683085e-05
70	0x38655cec	5.4684395e-05
71	0x38655b84	5.4683085e-05
72	0x38655b84	5.4683085e-05
73	0x3860ab1e	5.3565127e-05
74	0x38655b84	5.4683085e-05
75	0x38655b84	5.4683085e-05
76	0x38655b84	5.4683085e-05
77	0x38655b84	5.4683085e-05
78	0x38655b84	5.4683085e-05
79	0x38655b84	5.4683085e-05
80	0x38655b84	5.4683085e-05
81	0x38655b84	5.4683085e-05
82	0x38655b84	5.4683085e-05
83	0x38655b84	5.4683085e-05
84	0x38655b84	5.4683085e-05
85	0x38655b84	5.4683085e-05
86	0x38655b84	5.4683085e-05
87	0x38655b84	5.4683085e-05
88	0x38655b84	5.4683085e-05
89	0x38655b84	5.4683085e-05
90	0x38655b84	5.4683085e-05
91	0x38655b84	5.4683085e-05
92	0x38655b84	5.4683085e-05
93	0x38655b84	5.4683085e-05
94	0x38655b84	5.4683085e-05
95	0x38655b84	5.4683085e-05
96	0x38655b84	5.4683085e-05
97	0x38655b84	5.4683085e-05
98	0x38655b84	5.4683085e-05
99	0x38655b84	5.4683085e-05
100	0x38655b84	5.4683085e-05
101	0x3865a003	5.4746877e-05
102	0x38655b84	5.4683085e-05
103	0x38655b84	5.4683085e-05
104	0x3865b1c3	5.4763408e-05
105	0x386541ca	5.4659125e-05
106	0x38654cda	5.466943e-05
107	0x38655b84	5.4683085e-05
108	0x3869b87c	5.5723343e-05
109	0x386472a1	5.4466193e-05
110	0x38655b84	5.4683085e-05
111	0x38655b85	5.468309e-05
112	0x386df680	5.6734774e-05
113	0x3865e904	5.4814867e-05
114	0x386787f6	5.5201315e-05
115	0x3863b3a3	5.4288317e-05
116	0x385c9833	5.2593834e-05
117	0x386a5ec0	5.587819e-05
118	0x386cc859	5.6453373e-05
119	0x38623a28	5.393676e-05
120	0xb666d00f	-3.4393777e-06
121	0x358de3bf	1.0571601e-06
122	0x3501eb9a	4.839909e-07
123	0x3643baf6	2.916609e-06
124	0xb5a0958e	-1.1964455e-06
125	0x36812c7e	3.849679e-06
126	0xb71537be	-8.894071e-06
127	0xb40e29f4	-1.3240043e-07
128	0x365641c5	3.1926768e-06
129	0x36e08797	6.691505e-06
130	0xb5e341ce	-1.693197e-06
131	0xb6fb0ba2	-7.481737e-06
132	0x37b6d3b8	2.179468e-05
133	0x3822d8f3	3.882586e-05
134	0xb8254180	-3.9400067e-05
135	0x36fc8ac4	7.5263397e-06
136	0xb792a500	-1.748139e-05
137	0xb79fd40a	-1.9053015e-05
138	0x38c39b6f	9.327276e-05
139	0xb860a404	-5.3558513e-05
140	0x3846dd3a	4.7412912e-05
141	0xb8485b07	-4.776849e-05
142	0xb87f1282	-6.0813974e-05
143	0x389d6084	7.504321e-05
144	0x36d8a9b2	6.4570568e-06
145	0xb7a807ec	-2.003085e-05
146	0xb83c91d9	-4.4958524e-05
147	0xb78afd22	-1.6568756e-05
148	0xb851a628	-4.9984228e-05
149	0xb81a8943	-3.6844296e-05
150	0xb84ea38d	-4.9266546e-05
151	0xb6aad295	-5.09091e-06
152	0x383b965f	4.472432e-05
153	0x388d411c	6.7355315e-05
154	0x3839c322	4.428917e-05
155	0x389f4c45	7.595917e-05
156	0xb81a11e9	-3.673314e-05
157	0xb8351912	-4.317711e-05
158	0x3842b6f1	4.642358e-05
159	0xb7d66d95	-2.5561816e-05
160	0xb743b290	-1.1664481e-05
161	0xb7cead9a	-2.4637953e-05
162	0x381c887c	3.732041e-05
163	0xb7bb1ef2	-2.2306547e-05
164	0xb7fd3f4c	-3.0189425e-05
165	0xb879887f	-5.9493348e-05
166	0xb70fdd15	-8.574939e-06
167	0x3647c7e9	2.9769674e-06
168	0xb68aea52	-4.139999e-06
169	0x37cc745a	2.4372875e-05
170	0x37026bf7	7.773741e-06
171	0xb68e905c	-4.2487354e-06
172	0x36a4ffd3	4.9173627e-06
173	0x35cce1c9	1.5264897e-06
174	0x361910cb	2.2808551e-06
175	0x35a08aa4	1.1961279e-06
176	0x35ae311d	1.2978304e-06
177	0x35913961	1.0820041e-06
178	0x36269290	2.4821238e-06
179	0x35d5e573	1.5936515e-06
180	0x35a22815	1.2081606e-06
181	0x35a4a291	1.2266265e-06
182	0x35eba3b7	1.7556512e-06
183	0x35b45635	1.3436135e-06
184	0x35d0d469	1.5559027e-06
185	0x35a9b68d	1.264461e-06
186	0x35b1670b	1.3217517e-06
187	0x35ef824d	1.784481e-06
188	0x35ab773f	1.2775198e-06
189	0x35ab774f	1.2775216e-06
190	0x35ab774f	1.2775216e-06
191	0x35ab4f15	1.2763509e-06
192	0x35ab773f	1.2775198e-06
193	0x35c1bd4b	1.4434712e-06
194	0x35ab774f	1.2775216e-06
195	0x35ab774f	1.2775216e-06
196	0x35ab774f	1.2775216e-06
197	0x35ab774f	1.2775216e-06
198	0x35ab863d	1.2779561e-06
199	0x35ab774f	1.2775216e-06
200	0x35ab774f	1.2775216e-06
201	0x35ab774f	1.2775216e-06
202	0x35ab774f	1.2775216e-06
203	0x35ab774f	1.2775216e-06
204	0x35ab774f	1.2775216e-06
205	0x35ab774f	1.2775216e-06
206	0x35ab774f	1.2775216e-06
207	0x35ab774f	1.2775216e-06
208	0x35ab774f	1.2775216e-06
209	0x35ab774f	1.2775216e-06
210	0x35ab774f	1.2775216e-06
211	0x35ab774f	1.2775216e-06
212	0x35ab774f	1.2775216e-06
213	0x35ab774f	1.2775216e-06
214	0x35ab774f	1.2775216e-06
215	0x35ab774f	1.2775216e-06
216	0x35ab774f	1.2775216e-06
217	0x35ab774f	1.2775216e-06
218	0x35ab774f	1.2775216e-06
219	0x35ab774f	1.2775216e-06
220	0x35ab774f	1.2775216e-06
221	0x35ab774f	1.2775216e-06
222	0x35aab4b5	1.271858e-06
223	0x3592e535	1.0944556e-06
224	0x35ab774f	1.2775216e-06
225	0x35a3eb11	1.221286e-06
226	0x35aab273	1.2717923e-06
227	0x35cb769f	1.5159202e-06
228	0x35ab774f	1.2775216e-06
229	0x35aed31d	1.3025452e-06
230	0x35a17e91	1.203227e-06
231	0x35ab6b1b	1.2771665e-06
232	0x35add0e9	1.2950305e-06
233	0x35b17389	1.3221153e-06
234	0x332689d6	3.8775248e-08
235	0x357ebf32	9.49006e-07
236	0xb618bc41	-2.2759343e-06
237	0x361cb58f	2.3351492e-06
238	0x36237029	2.4354179e-06
239	0x3694182f	4.413559e-06
240	0xb749511f	-1.1999421e-05
241	0xb74238cc	-1.1576525e-05
242	0xb73fd10d	-1.1433161e-05
243	0xb7847d5f	-1.5794007e-05
244	0xb76bcdb7	-1.4054988e-05
245	0xb72fea51	-1.0485369e-05
246	0xb71d44e1	-9.373966e-06
247	0xb79820ef	-1.8135148e-05
248	0xb8a84457	-8.0235935e-05
249	0x37e02672	2.6720783e-05
250	0xb7ceaf35	-2.46387e-05
251	0x372f36fd	1.0443616e-05
252	0xb82a1b1f	-4.0556417e-05
253	0x381a1341	3.6734393e-05
254	0x3746da15	1.1852496e-05
255	0x36451aa6	2.93708e-06

exp_avg_sq f4 [256, 120]
0	0x32d3fc1b	2.4678277e-08
1	0x32b22a55	2.0741178e-08
2	0x32b2e370	2.0825354e-08
3	0x32b304a0	2.0840446e-08
4	0x32c81417	2.32922e-08
5	0x32b49b6d	2.1025437e-08
6	0x32be76a5	2.2172864e-08
7	0x3340783c	4.4812836e-08
8	0x33ee8013	1.1106035e-07
9	0x337f2012	5.9400982e-08
10	0x33111f70	3.3789036e-08
11	0x3310f586	3.3750915e-08
12	0x3410dad1	1.349065e-07
13	0x342e4758	1.6230968e-07
14	0x3428ac15	1.5708822e-07
15	0x34508a81	1.9421897e-07
16	0x34a54c60	3.0789215e-07
17	0x347de1c7	2.3644598e-07
18	0x34a3a990	3.048449e-07
19	0x3487db48	2.5305258e-07
20	0x348e61ec	2.652081e-07
21	0x34ae6a13	3.2487205e-07
22	0x34ac5f7c	3.210697e-07
23	0x3494fa4d	2.7749266e-07
24	0x349c7fb2	2.9150175e-07
25	0x34b2a59c	3.327558e-07
26	0x34d5893b	3.977419e-07
27	0x34c4867e	3.66057e-07
28	0x34ae4461	3.2459778e-07
29	0x34cd6b84	3.8262453e-07
30	0x34a22bbb	3.020667e-07
31	0x3490b842	2.6956155e-07
32	0x349d0337	2.9245868e-07
33	0x34af8643	3.2693978e-07
34	0x34a87772	3.1379346e-07
35	0x347fc424	2.3820081e-07
36	0x346b6f2a	2.1926522e-07
37	0x34a1ea1f	3.0158932e-07
38	0x34aaba80	3.1800664e-07
39	0x34ab4c54	3.1906768e-07
40	0x340b33df	1.2964254e-07
41	0x3457ac46	2.0086108e-07
42	0x344def25	1.9179113e-07
43	0x3423a8e7	1.5242004e-07
44	0x33242ec0	3.8226744e-08
45	0x336a537a	5.4558292e-08
46	0x3388b05a	6.365072e-08
47	0x33cfa39b	9.668948e-08
48	0x3330ea42	4.119125e-08
49	0x32fdb02f	2.9533195e-08
50	0x32f85c4a	2.8912968e-08
51	0x32df8d4a	2.6024868e-08
52	0x32b549fe	2.1104821e-08
53	0x32b2210e	2.0736959e-08
54	0x32b2f1c5	2.0831871e-08
55	0x32d03335	2.4237673e-08
56	0x32b2994d	2.079164e-08
57	0x32b281f6	2.0781027e-08
58	0x32b2ff91	2.0838145e-08
59	0x32b344e6	2.0869674e-08
60	0x32b2a18a	2.0795387e-08
61	0x32b2dee7	2.0823292e-08
62	0x32b29ae0	2.0792356e-08
63	0x32b25c06	2.0763775e-08
64	0x32b29f2e	2.0794314e-08
65	0x32b2741f	2.0774733e-08
66	0x32b2f8d1	2.0835076e-08
67	0x32b26fdf	2.07728e-08
68	0x32b2713a	2.0773417e-08
69	0x32b2789c	2.0776774e-08
70	0x32b2c10c	2.0809715e-08
71	0x32b27544	2.0775254e-08
72	0x32b27280	2.0773996e-08
73	0x32b26032	2.0765672e-08
74	0x32b278ac	2.0776803e-08
75	0x32b27085	2.0773095e-08
76	0x32b27e18	2.0779268e-08
77	0x32b2763a	2.077569e-08
78	0x32b273c2	2.0774568e-08
79	0x32b273d7	2.0774605e-08
80	0x32b273a7	2.077452e-08
81	0x32b273b4	2.0774543e-08
82	0x32b273b4	2.0774543e-08
83	0x32b273b4	2.0774543e-08
84	0x32b27be4	2.0778266e-08
85	0x32b273b4	2.0774543e-08
86	0x32b273b4	2.0774543e-08
87	0x32b273b4	2.0774543e-08
88	0x32b273b4	2.0774543e-08
89	0x32b273b4	2.0774543e-08
90	0x32b273b4	2.0774543e-08
91	0x32b273b5	2.0774545e-08
92	0x32b273b4	2.0774543e-08
93	0x32b273b4	2.0774543e-08
94	0x32b273b4	2.0774543e-08
95	0x32b27493	2.0774939e-08
96	0x32b2712a	2.0773388e-08
97	0x32b2775c	2.0776206e-08
98	0x32b273b1	2.0774538e-08
99	0x32b273e9	2.0774637e-08
100	0x32b27941	2.0777067e-08
101	0x32b27146	2.0773438e-08
102	0x32b27446	2.0774802e-08
103	0x32b27a1e	2.077746e-08
104	0x32b271f4	2.0773747e-08
105	0x32b2eab9	2.0828667e-08
106	0x32b283a4	2.078179e-08
107	0x32b2763d	2.0775696e-08
108	0x32b292a6	2.0788615e-08
109	0x32b281b5	2.0780911e-08
110	0x32b2750f	2.077516e-08
111	0x32b2711a	2.077336e-08
112	0x32b3e91e	2.0944352e-08
113	0x32b27dc6	2.0779122e-08
114	0x32b275e8	2.0775545e-08
115	0x32b2f7f2	2.083468e-08
116	0x32b28292	2.0781304e-08
117	0x32b59f0d	2.1143501e-08
118	0x32b58932	2.1133562e-08
119	0x32b3848d	2.089862e-08
120	0x3296d9b0	1.7561291e-08
121	0x328d06d2	1.6417662e-08
122	0x328cb418	1.6380042e-08
123	0x328d6cef	1.6464098e-08
124	0x329ef5a4	1.8505325e-08
125	0x329695f1	1.7530484e-08
126	0x3297c71a	1.7669255e-08
127	0x33169767	3.5062296e-08
128	0x337a7ac3	5.8319312e-08
129	0x3335a4e5	4.2292317e-08
130	0x32a8ebd9	1.9665025e-08
131	0x32d54649	2.4828426e-08
132	0x33e47cfc	1.0639812e-07
133	0x33dd94c0	1.0318172e-07
134	0x33e390df	1.0596863e-07
135	0x33fe52f5	1.18428865e-07
136	0x349c730b	2.914097e-07
137	0x348a9206	2.581075e-07
138	0x34622cd3	2.1064197e-07
139	0x344bf086	1.899335e-07
140	0x346987ac	2.1749173e-07
141	0x3475e46d	2.2900504e-07
142	0x34701b00	2.2361564e-07
143	0x3488bf17	2.547101e-07
144	0x348fcfc1	2.6786986e-07
145	0x348b1fed	2.5913997e-07
146	0x34b88c3f	3.4374713e-07
147	0x3499b179	2.86276e-07
148	0x34944129	2.7614558e-07
149	0x34ba69f4	3.472229e-07
150	0x34961754	2.795665e-07
151	0x346f60c7	2.2293817e-07
152	0x34725556	2.2569051e-07
153	0x347b1e22	2.3387159e-07
154	0x34860925	2.4966099e-07
155	0x34356ae7	1.689583e-07
156	0x3442a13a	1.8126312e-07
157	0x3487397c	2.5187535e-07
158	0x346e8f66	2.2217645e-07
159	0x347f75ee	2.3791628e-07
160	0x34038b3c	1.2250979e-07
161	0x3416dbfc	1.4049868e-07
162	0x34274c28	1.5580792e-07
163	0x33e47977	1.0639172e-07
164	0x32d07425	2.4267203e-08
165	0x32fdc479	2.9542422e-08
166	0x336d420c	5.5240932e-08
167	0x338de846	6.6080744e-08
168	0x32c330d9	2.2723201e-08
169	0x32c19e5b	2.2540169e-08
170	0x32a1937a	1.8809931e-08
171	0x32b38991	2.09009e-08
172	0x328f9143	1.6713448e-08
173	0x328d1924	1.6425993e-08
174	0x328c416e	1.6327899e-08
175	0x329be4f8	1.8148498e-08
176	0x328e169e	1.654126e-08
177	0x328ce6bb	1.640307e-08
178	0x328df436	1.6525615e-08
179	0x3290987e	1.6833152e-08
180	0x328cea1f	1.6404611e-08
181	0x328cc91f	1.6389604e-08
182	0x328cdaf8	1.639772e-08
183	0x328d1477	1.6423867e-08
184	0x328cd353	1.6394244e-08
185	0x328cfbe3	1.641269e-08
186	0x328cbe16	1.6384586e-08
187	0x328cd553	1.6395154e-08
188	0x328cc517	1.6387771e-08
189	0x328ccdf1	1.6391796e-08
190	0x328ce39c	1.640165e-08
191	0x328cc6b4	1.6388505e-08
192	0x328cce28	1.6391894e-08
193	0x328cd401	1.6394553e-08
194	0x328cce86	1.6392061e-08
195	0x328ccf79	1.6392493e-08
196	0x328ccb86	1.6390697e-08
197	0x328ccde6	1.6391777e-08
198	0x328ccbee	1.6390882e-08
199	0x328ccf7a	1.6392494e-08
200	0x328ccf7a	1.6392494e-08
201	0x328ccf77	1.639249e-08
202	0x328ccf79	1.6392493e-08
203	0x328ccf79	1.6392493e-08
204	0x328ccf78	1.6392491e-08
205	0x328ccf79	1.6392493e-08
206	0x328ccf79	1.6392493e-08
207	0x328ccf79	1.6392493e-08
208	0x328ccf79	1.6392493e-08
209	0x328ccf79	1.6392493e-08
210	0x328ccf79	1.6392493e-08
211	0x328ccf7c	1.6392498e-08
212	0x328ccf78	1.6392491e-08
213	0x328ccf79	1.6392493e-08
214	0x328ccf6b	1.6392468e-08
215	0x328ccf79	1.6392493e-08
216	0x328cd05d	1.6392898e-08
217	0x328ccfdf	1.6392674e-08
218	0x328ccdd0	1.6391738e-08
219	0x328ccf89	1.6392521e-08
220	0x328cc8b9	1.6389423e-08
221	0x328cccc2	1.6391258e-08
222	0x328ccfa0	1.6392562e-08
223	0x328cdc3e	1.63983e-08
224	0x328cca83	1.6390237e-08
225	0x328ccd6f	1.6391565e-08
226	0x328ccec6	1.6392175e-08
227	0x328cd21b	1.639369e-08
228	0x328ccfe7	1.6392688e-08
229	0x328cb46b	1.638019e-08
230	0x328cd663	1.6395637e-08
231	0x328d00ec	1.641498e-08
232	0x328cfad9	1.6412217e-08
233	0x328cd33c	1.6394203e-08
234	0x328d6977	1.646252e-08
235	0x328cf4b6	1.6409427e-08
236	0x328d1477	1.6423867e-08
237	0x328e97da	1.660003e-08
238	0x328dfd4b	1.6529745e-08
239	0x328ddc20	1.6514662e-08
240	0x32aa283d	1.9808903e-08
241	0x329b6b8a	1.8093278e-08
242	0x329abc17	1.8013493e-08
243	0x329b92bc	1.8111102e-08
244	0x32a7058f	1.9443887e-08
245	0x32aba948	1.9984e-08
246	0x32aa5eac	1.9833656e-08
247	0x3302fc70	3.0497574e-08
248	0x339a135e	7.174707e-08
249	0x3361dfd0	5.259045e-08
250	0x330c35eb	3.2645328e-08
251	0x32c1f679	2.258024e-08
252	0x33b5dea5	8.468968e-08
253	0x3405b9b1	1.2454144e-07
254	0x34211518	1.5001967e-07
255	0x33f167d6	1.1241325e-07
