Training/PyTrainer/epoch=5.ckpt (torch, 654277 bytes, 28 tensors)

net.0.weight f4 [256, 120]
00000000: d684 acbc 85e6 10be 36fa edbd 7615 57be
00000010: 94bb 36bd e215 3abe fe8c 3bbe f46a 0b3d
00000020: f206 24bd 083c 65bd ac07 8f3b 6874 54bd
00000030: 2e43 6abd 0f14 91bc 3b9d f83c 6ac7 1cbe
00000040: 50cb 0bbe 356c 5ebe 46b0 b3bd 2463 0abe
00000050: 40a9 11be f945 afbd 7a9a c53d 5655 94bb
00000060: 137a 7cbd 28c6 1bbe 9c84 c73c 12cc d0bc
00000070: 0a6c 633e 4828 793e 72ff 523e 6ae0 2b3e
00000080: 4e5b 1c3e e04a 833e d447 663e bae3 5a3e
00000090: 7abc 473e a6cb 8d3e 9879 943e 8602 573e
000000a0: 565d 0b3e 388d 673e 8591 683e 6ea2 353e
000000b0: f83c 123d 648b 0dbd 49a4 8b3c 5d7c a2bd
000000c0: 2e9f bcbd 114a 26bf 0577 dabe 4cd9 c5be
000000d0: d01e 38be 3fef 15bf 7f5b 1abf aa8e 90be
000000e0: 9889 5bbe 2e92 d2be aad0 c4be 7ddc b6bd
000000f0: 98ed 443c ac2d cfbd 2629 40be 7e30 cdbd
00000100: 5624 273c 9cf2 bbbd b161 5bbd f6d8 96bd
00000110: 4e9d 1b3e 0a89 b13d c1f7 e23d d72c 303e
00000120: 16b7 fd3d 2be8 7b3e 6634 5b3e 5387 c63d
00000130: f481 8e3e e508 903e 0c51 8c3e 0f76 9bbc
00000140: bec3 613e e421 833e 6889 143e e0e7 353e
00000150: 1cc3 d53e ab58 ed3d 2b24 693e 3066 333e
00000160: 565d 453e b011 973e 28c2 783e d0f5 b03e
00000170: 9c4d 253e 7b4b 1e3e 405e 3a3e ff47 9c3e
00000180: 2a9d a1bc 9039 2dbd 70d3 803e 6391 a03e
00000190: 26af 163d 84b3 eabc 9c76 c7bd 6abc 833e
000001a0: 26e7 55be 8e22 c0be 4c20 8abe 1c7c 303e
000001b0: 0075 1cbe 8f40 ccbe 7705 9cbe effb 153d
000001c0: 91e5 3cbe e02b 7cbe 778d cebd a4c4 ce3c
000001d0: 725b 07bf a99e 90bf 0477 6cbf 720c 8cbe
000001e0: 81b3 62be 1309 b9bd d1f0 bb3d 7e13 b6bc
000001f0: dbd0 91bd a0f8 6bbd 794f bf3c d244 70be
00000200: fa9a 1cbe e004 5cbe faf1 4abe 843c af3d
00000210: ad7a 13be 7ef7 8abe f623 34be e252 c3bd
00000220: 98dd 24be 72aa 2abe 8ed6 99be f0e7 4abd
00000230: 89b2 ffbd 2d18 4fbe a0e9 33be e0c6 58be
00000240: c138 39be 78a1 43be 0405 37be 10cc 7fbe
00000250: 00c3 203e 2a7f 493e 423f 9a3d 0602 f53d
00000260: 8408 4e3e ba17 423e 0e0f 1cbe 6281 86be
00000270: 1ec1 eb3d 22e7 463d 8022 15bf f648 d3bd
00000280: 3233 4b3e 8fde 0e3e e674 593d d858 c13b
00000290: e5b9 853e 63b0 293e 127e e93d 714b 093e
000002a0: 1fff 8f3e 25c6 5e3e a7fc 3a3e 32cd 7e3e
000002b0: c2d5 713e 1b2e 7b3e 3a4d 803e 8cbb 5b3e
000002c0: 7b2c 63bd 32e8 88bb ba4b 1f3e 4af5 92bd
000002d0: 730a 09be aea9 63bd e7f6 dabc 3d31 7dbd
000002e0: 7ad3 e1bd 0828 e2bd edac 12be 00ff afbd
000002f0: 25dd cdbd 9ff1 06be 2fc8 79be 70fa 4ebe
00000300: 76ac adbd 045c 05be ccba f6bd a7da cabd
00000310: 607b 0c3e cfdd 7abd 805f 5bbe 4d4a 5abd
00000320: 42a1 9d3d 5839 09be d415 2dbe 400b 43be
00000330: e4b2 123e 5c77 40bd 7948 49be ac15 75bd
00000340: c4d2 903e 45b3 c93e 4b36 d53e 4b39 823e
00000350: c788 8e3e 16eb 9a3e 0858 923e ebf5 d63e
00000360: 039d 533e 67c7 593e 98b5 003f 623e 59bb
00000370: 6652 873e 20f3 213e 4c44 9b3e 8c6a 6a3f
00000380: eb4a 663e d65f bc3e 1492 b73e 0e4c d63e
00000390: aa46 613e 9f68 723e a54f 8f3e 968d b93e
000003a0: e49b 843e 6b94 4d3e bc9c 6f3e daa6 b63e
000003b0: 2ee4 853e f225 793e 558f 883e e558 9f3e
000003c0: b0a4 2bbd 7ccf f1bd a3d4 30be c0b7 62be
000003d0: 0bb0 b4bd c887 1cbe 6a3e 83be f411 40be
000003e0: 8c0d 3dbe 14f9 03be b37b 19be ee89 87be
000003f0: 27d4 42be 64c0 4cbe bc92 a2be 128b 3fbe
-0.021059435 -0.14150436 -0.116199896 -0.2100428 -0.044612482 -0.1817241 -0.18315503 0.034037545
-0.040045686 -0.055965453 0.004364928 -0.051868826 -0.057192974 -0.01770976 0.03034841 -0.15310445
-0.13651776 -0.21720965 -0.08773856 -0.13514382 -0.1422472 -0.08558268 0.09648605 -0.0045267744
-0.061639857 -0.1521231 0.024355225 -0.025487933 0.22209182 0.24331772 0.20605257 0.16784826
0.15269205 0.25643063 0.22488338 0.21375933 0.19505492 0.27694434 0.2899902 0.20997056
0.13609824 0.22612464 0.22711761 0.17737743 0.035702676 -0.03455676 0.01704611 -0.07933877
-0.092100486 -0.64956766 -0.4266893 -0.38642347 -0.17980504 -0.58568186 -0.6029586 -0.28233844
-0.21439207 -0.4112715 -0.38440448 -0.089287736 0.012019537 -0.10116133 -0.18765697 -0.10019015
0.010201534 -0.091771334 -0.053559963 -0.07365601 0.15196726 0.08668716 0.110824116 0.17204605
0.123884365 0.24600284 0.21406707 0.0969378 0.2783352 0.28131786 0.27405584 -0.018977193
0.22047326 0.25611794 0.14505541 0.17764235 0.4175042 0.11589178 0.22767703 0.1751945
0.19273886 0.29505682 0.24292815 0.3456254 0.16142887 0.15458481 0.18200016 0.3052368
-0.019728262 -0.042291224 0.25161314 0.3136092 0.03678813 -0.028650053 -0.0973942 0.25729686
-0.20888957 -0.37526363 -0.26977766 0.17234844 -0.15279007 -0.39893004 -0.3047292 0.036617216
-0.18446948 -0.24626112 -0.10085576 0.02524025 -0.5287391 -1.1298419 -0.92369103 -0.27353245
-0.22138788 -0.09034934 0.091767915 -0.022226091 -0.07119914 -0.057610154 0.023353325 -0.23463753
-0.15293494 -0.21486235 -0.19818869 0.08556464 -0.14402266 -0.27141947 -0.17591843 -0.09537293
-0.16100156 -0.16666582 -0.30046505 -0.0495376 -0.12485225 -0.20224066 -0.1756959 -0.21169615
-0.18088056 -0.19104564 -0.17873007 -0.24980187 0.15699387 0.19677415 0.07531597 0.119632766
0.20120436 0.18954363 -0.15240118 -0.26270586 0.115114436 0.04856027 -0.5825577 -0.103166506
0.19843748 0.13952087 0.05309 0.0059004836 0.2611839 0.16571192 0.11400999 0.13407685
0.2812433 0.21755274 0.18260442 0.24882963 0.23616698 0.24529307 0.2505892 0.21458262
-0.05546234 -0.0041780705 0.15556231 -0.071756914 -0.13382892 -0.05558174 -0.02672906 -0.061814535
-0.11026664 -0.110427916 -0.14323778 -0.08593559 -0.100519456 -0.13178109 -0.2439277 -0.20212722
-0.0848016 -0.13023382 -0.120473474 -0.09904986 0.13718939 -0.06124669 -0.21423149 -0.053293515
0.07696773 -0.13400781 -0.16902858 -0.1904726 0.14326054 -0.04698883 -0.19656552 -0.05983512
0.282858 0.39394584 0.41642985 0.25434336 0.27838728 0.3025748 0.28582788 0.41984496
0.20665364 0.21267472 0.5027709 -0.0033148755 0.26430053 0.15815401 0.30325544 0.9156883
0.22489516 0.36791867 0.35853636 0.418549 0.21999612 0.23672722 0.2799045 0.36240834
0.25900185 0.20076148 0.23399633 0.35674173 0.2615065 0.24330881 0.26671854 0.3112251
-0.041905105 -0.11807153 -0.17268614 -0.22140408 -0.0882264 -0.15286171 -0.25633556 -0.18756849
-0.18462199 -0.12887985 -0.14988594 -0.2647242 -0.19026242 -0.19995266 -0.31752574 -0.18705395

net.0.bias f4 [256]
00000000: 8e83 e4be f6c3 313e 5cc9 5fbe 0442 c43e
00000010: e274 883d 2910 973e 7d65 e53e d0c4 80bd
00000020: 2c5d 38bf 023c 673e 2beb 263e 9afe 02bf
00000030: 36b9 f83b 7cf0 c9be b19f 91bf ed71 0ebf
00000040: f5c7 1c3e c0a4 093e dfb0 fd3e 5818 d3be
00000050: 8731 d63e c007 37be 67f7 fd3c 9c77 12bf
00000060: c1ae 993d 9e42 97bf 2a64 8e3e 4673 bebe
00000070: e078 24bf 4630 5bbe 1025 cfbe 6a06 053e
00000080: dabd 88be fc41 18be 7534 edbe 0369 72be
00000090: e85f d6be ab07 603d a15d 843e 12cb c9bf
000000a0: 590d b13e 44b4 70be 54fe 9c3d d521 313e
000000b0: 2647 d1bf 6120 b53e 3082 193f cc36 07bf
000000c0: 7025 00bf de3a 2c3e 1300 e83e c481 ad3d
000000d0: 0ffd 84be f4a9 a13d 50d6 0c3f d1ed cebe
000000e0: 9ca8 c33e e7e6 a73d 14f7 91be 3a39 b5be
000000f0: 04a7 1dbe 88b5 afbc 66ba 44bf 0671 713e
00000100: b6c5 1d3f d20d b43e 41fe f2bd 7d9c be3e
00000110: 9f7e d3bb 485d c2be 06bc 26bc 89b1 403f
00000120: 8826 9cbe 7c74 e63d cc53 2e3a 1643 8fbe
00000130: ffa2 2cbd c89f bdbf 3cdf 52be 26ab 563e
00000140: a6ef 1ebf eecc 03bf 6b50 82bc 4d59 dd3e
00000150: 5193 17bf e14d adbd 1202 2d3f dff9 383e
00000160: 674d 99bf 86eb b83d 895e 53be 3c2c b3be
00000170: 8f97 343f e0e8 dc3d 6a0b 94bf bd1b d5be
00000180: 6683 713d 6424 94bd e040 2a3e 8417 1bbf
00000190: 8f13 333e 1672 98be 9c21 93be 44a8 1cbe
000001a0: 5392 273c eaa7 e83d b855 f2be bf6d a13d
000001b0: 381c 873e 3096 58be e6fd cabe 5664 32be
000001c0: d534 8abd 5073 9abe 7662 273e 6aef 2c3f
000001d0: 0abe af3d ed3d b33e ff70 87bd 469c c6be
000001e0: 0d54 ca3d 888f 70bf 98f1 833e a277 753e
000001f0: ec5d bbbd c8e7 8abe e008 a93b e302 183f
00000200: 22ed 6dbe 61b3 ec3e f574 1cbd 012b 0dbe
00000210: 0697 5cbe b63c 10bf ae08 42bf e81c 3bbf
00000220: 506d 6abe 6c62 91bf 7d9a c3be 5eb0 03bf
00000230: 85ea c93e bb09 e43e 107d dc3c 17c4 013e
00000240: a8e1 0ebf 3022 aabd 8ac3 97be 2cd9 22bf
00000250: 3e1c 5f3e d27a 08be 588d 25bd 2c30 e23c
00000260: 9c3c 953e 62fa 9bbf 2a38 c0bd c3e1 e83e
00000270: 05b1 a0be ea3a bbbe 4652 05bf 9f5c 42be
00000280: 9edc 51bf 3a26 193e f0ac 0b3e 0ce8 31bf
00000290: e4c6 8e3c 94dc 3e3e 7bde 32bf 0817 e7be
000002a0: 585a a7bc fca1 fc3c 7e13 9abe 2c96 fd3d
000002b0: 164f 36bd 0140 a03e f8fa 03be ccd8 bdbe
000002c0: 08bf 6ebf 5adb c4be bc42 31be 9655 b9be
000002d0: 2cae 25bf 8a12 dc3e faf1 8cbd 507f de3d
000002e0: 3e54 aabe 21c3 58bf 12b3 ad3e b02b 733e
000002f0: c40c b03d 1287 afbf a3e6 a33e 1e80 84be
00000300: 0c32 22be ae79 d0bc da44 0cbf cb01 3cba
00000310: 3029 93be a0ce 5b3e 8629 593e 6222 a4be
00000320: ccde cebe ea5a debe 3c72 b1bc 1cdc 0d3f
00000330: b95c 0ebf 09d2 1ebf 3179 64be 4499 69be
00000340: c0d2 e33c 1a82 aebe 82d6 c3be 2638 4cbf
00000350: c8b0 9d3e c820 a7be 4a9d 32bf c1ce 27bf
00000360: 0c3f 7cbf c41c acbd 2828 febe f908 29bf
00000370: 3a4f aebe 44a0 32bf 9448 b1be 1830 8cbe
00000380: 3337 16bf 5881 f43e eca0 40be e892 69bf
00000390: a2b6 a5bd 0a81 9bbd 5a3a c53d 91a1 9c3e
000003a0: 82ec 5cbf 13fb 89be caf7 483f 089d e13d
000003b0: cf71 a4be 9c20 9ebe e2b5 65bf 1e52 30be
000003c0: 9286 903e 841d eebe cd72 7abc e8e1 dd3d
000003d0: 176b 10bf a7ee 2ebf 3075 953d a683 ca3d
000003e0: 74a4 73be 588f b23d 18c9 0abf ea2f babd
000003f0: 3079 6bbd 8884 8dbd 8641 e03e 178a 9a3d
-0.44631618 0.1735991 -0.21854156 0.38331616 0.066629186 0.29504517 0.44803992 -0.06287539
-0.7201717 0.22581485 0.16300647 -0.5116974 0.0075904382 -0.39441288 -1.1376859 -0.55642587
0.15310653 0.13441753 0.49549004 -0.4122951 0.4183466 -0.1787405 0.03100176 -0.5721376
0.07504035 -1.1817205 0.27810794 -0.37197322 -0.6424694 -0.21405134 -0.40457964 0.12990728
-0.26707345 -0.14868921 -0.46329084 -0.23672871 -0.41870046 0.054694813 0.25852683 -1.5765097
0.34580496 -0.23506266 0.07665697 0.17298062 -1.6349838 0.35376266 0.59964275 -0.5281799
-0.50057125 0.16819331 0.45312557 0.084720165 -0.25974318 0.07893744 0.55014515 -0.40415815
0.38214576 0.08198338 -0.28508818 -0.35395223 -0.15395743 -0.021448866 -0.7684692 0.23578271
0.6162981 0.35166794 -0.11864901 0.37228766 -0.0064543034 -0.37961793 -0.010176664 0.752709
-0.30498147 0.112526864 0.000665006 -0.2798087 -0.042147633 -1.4814386 -0.2059297 0.20963725
-0.62084424 -0.5148457 -0.015907487 0.43232194 -0.5920916 -0.0846212 0.67581284 0.18064068
-1.1976746 0.090292975 -0.20641531 -0.34994686 0.7054376 0.10786605 -1.1565983 -0.41622725
0.058963202 -0.072335035 0.1662631 -0.60582757 0.1748793 -0.2977454 -0.2873658 -0.15298563
0.0102277575 0.11360152 -0.47331023 0.078822605 0.26388717 -0.21151042 -0.39646834 -0.17421088
-0.06748358 -0.301661 0.16346154 0.67552817 0.08581169 0.35008183 -0.06613349 -0.38791102
0.09879313 -0.9396901 0.2577026 0.23971418 -0.091487736 -0.2712996 0.0051585287 0.59379405
-0.2323499 0.46230605 -0.038197476 -0.13785936 -0.21541986 -0.5634264 -0.75794494 -0.7309098
-0.22893262 -1.1358161 -0.38203803 -0.5144099 0.39436737 0.44538674 0.026915103 0.12672459
-0.55813074 -0.08307302 -0.29641372 -0.6361263 0.21788117 -0.13328102 -0.040418 0.02761086
0.29147804 -1.2185786 -0.093857124 0.45484743 -0.31385055 -0.36568385 -0.52078664 -0.18980645
-0.8197726 0.14955989 0.13640189 -0.694947 0.017428823 0.18638831 -0.6987073 -0.4513476
-0.020428821 0.030838959 -0.30092996 0.12382159 -0.044509016 0.3129883 -0.12888706 -0.37079465
-0.9326024 -0.38448602 -0.17310613 -0.3619811 -0.6471889 0.42982894 -0.06882091 0.10864127
-0.33267397 -0.84672743 0.33925682 0.23747134 0.08596185 -1.3713095 0.320119 -0.25878996
-0.15839404 -0.025448646 -0.5479256 -0.0007171898 -0.2874236 0.2146554 0.21207246 -0.32057482
-0.40404356 -0.43428737 -0.021660917 0.55413985 -0.55610234 -0.6203924 -0.22311856 -0.22812372
0.027810454 -0.34083635 -0.38249594 -0.79773176 0.30798936 -0.32642198 -0.69771254 -0.65549856
-0.985337 -0.08403924 -0.49640012 -0.66029316 -0.3404482 -0.69775796 -0.34625685 -0.27380443
-0.5867798 0.4775493 -0.18811387 -0.91239786 -0.08091475 -0.075929716 0.0963027 0.30592015
-0.8629838 -0.26949367 0.78503096 0.110162795 -0.3211808 -0.30884254 -0.89730656 -0.17218825
0.2822767 -0.46506894 -0.01528616 0.10834104 -0.56413406 -0.68332905 0.07297742 0.09888391
-0.23793203 0.08718747 -0.54213095 -0.0909117 -0.05748862 -0.06910044 0.4379999 0.0754587

net.2.weight f4 [32, 256]
00000000: 402b 163e f7af 973e d200 a4bd 78cb 263d
00000010: 08d9 7a3d cbb1 cf3d e03d 833d f418 853e
00000020: 6c5b b33c 01fb 6aba 06df 043e 66d2 e8be
00000030: a4a9 4bbe aaa2 95bd 07f7 7bbc e58f 68bc
00000040: 0a27 6dbe b430 adbd dc4d f4bb c1e3 283e
00000050: e4e3 113e 50f6 ec3a a0e0 e4bd 5ea8 363d
00000060: 5fa3 fe3b 7668 adbe 4473 8938 a22f d1bd
00000070: 5e6d c9be 8c69 bf3d facd fa3d fe62 cc3d
00000080: 29d5 5b3e 7aec ce3d 687c 463e 5f04 223e
00000090: a2a9 063c 9e47 d13d 6f4b 00be bff2 10bc
000000a0: 4d9e 71be 5e0f b5bd a2dd f4bc 76ec c8bd
000000b0: be3d 83bc f475 70be 8c7e 873d 881b 833d
000000c0: a458 b03d 9803 453e 209d 8a3b a8ba 663e
000000d0: fe29 b53d f4dc 5dbe dee1 11be 7a26 5bbd
000000e0: 7e60 2d3d 70f8 0ebe 1639 c1bc 50fb de3d
000000f0: 2ee0 51be 368c 163e 74b8 31bd 3f38 ff3c
00000100: c21b e9bd d645 413d 08a9 f93d 40d6 38bc
00000110: 584c c6bd 7eee fbbc 7c08 12be c00c 983d
00000120: 31bb bc3e 6866 1e3d 1b1e 143e 5e64 05be
00000130: 461e af3e e663 3f3e 0e23 3f3f 5d4b 2fbc
00000140: 30e2 0cbd e8c7 813d 5f96 4a3e 80ff 863e
00000150: b67f 313e 296a a03e d235 633e aebe 803e
00000160: 22c3 ed3e 71ef 0c3d 54b4 56be e811 6fbd
00000170: 5061 9a3e 322f 633e be52 f33e 8e3b 0e3e
00000180: 389f 66bd 9c8c 4a3d 5a22 aa3d b25b 7cbd
00000190: fae8 303e ce79 993e 8e69 8e3d f023 26be
000001a0: abc2 9cbd 35f9 a03e dd77 15be e231 3ebd
000001b0: ec33 4f3d 65da f6ba cb14 2fbe d992 f93d
000001c0: ff7e 90bd 6c1e 983c 6470 a33d 0021 9c3d
000001d0: 9a56 e03d ce68 7dbd c2bc b03d 544b 38be
000001e0: 3edb 863d 260c e03e 28ec acbe 4227 d6bc
000001f0: ba7a bf3d f22d 1ebe efa4 bcbd c2f7 41bd
00000200: cefb b4be a37b 973e 003d 0ebe 3c63 703d
00000210: 19aa 39bd 6c1b 87bc 96e3 2b3d c02c 4f3e
00000220: 1ae7 973d cca7 773f 7420 50bc 7058 803e
00000230: fdac 843d 460f 54be 0a2c 3ebd 6e83 44bd
00000240: cd8b c9bd 767a f3bd 9029 1c3e 48c2 a83b
00000250: cdf2 5f3e e977 6d3e 5af2 943d 0ea5 fdbd
00000260: 38bc 9bbd 06cd 763e 8dcf 3bbe beb6 c0bd
00000270: 3e0e 0d3e 3c86 a7bd 2058 2bbd e0dd 3d3e
00000280: 886d 97bd 73ba 283e d5ce 5a3d 0372 f2bd
00000290: 2258 963e 24e2 00bf 8724 51bc 2a30 9abd
000002a0: b24b cf3d 3e3a 3c3e 8c5e 753e 9d71 d83e
000002b0: 72c2 f6be 5487 f93d 7668 dfbd 487e 9f3d
000002c0: bc7e 11be e6d9 193e bde2 00bd b94a c2bc
000002d0: 7287 7d3e 11b7 46be 41fa 573e 7ef2 003e
000002e0: e223 293e 5f76 efbe f021 f83e 0845 dfbb
000002f0: 29b0 ba3d a800 2dbe 8575 2dbd 706f 49bd
00000300: 8c45 2abd 02e2 31be 0a48 ae3c 7011 e9bd
00000310: bcd9 a43e 9004 a0be cad9 47bd c807 1dbe
00000320: 32c3 3bbe b0f8 6e39 a7d8 cc3d d3ec e63c
00000330: bcb8 473d dc47 f53d dc11 1abe bf6b 1f3e
00000340: e80f 373d df07 88be a8ae c33d 84f3 e7bd
00000350: b847 28be 12ca 7dbe aa1a 2cbe 4efb d5bd
00000360: 7f08 ac3e 1812 443e b99c 253d a066 a03e
00000370: 3ad3 e7bd 6a5a af3d 51a5 f1bd 4ae2 b83d
00000380: d0d2 133d 7cee 8c3e f469 d73c d62e 883e
00000390: fd1b 34bd 50bc cfbd e528 3abd 72c3 8cbe
000003a0: 6eeb 88be d81b 85bd 464a fd3d e818 97bd
000003b0: a915 a63d 5657 043e 9e3b 223f fab8 a93d
000003c0: 9a19 a83d a094 9dbc 7ba0 96be c91a d1bd
000003d0: 68c7 383e 2417 0d3f 7808 503e 6023 473d
000003e0: 6648 19be dc25 ebbd 9589 84bd 9744 a03d
000003f0: 68a9 f6bd cef9 38bc a152 20be 76eb 373d
0.14664936 0.29626438 -0.08007969 0.040721387 0.061242133 0.10141333 0.06408286 0.259956
0.02189418 -0.0008963794 0.12975702 -0.4547302 -0.19888932 -0.07306416 -0.01537872 -0.014194463
-0.23159423 -0.08456555 -0.0074555706 0.16493131 0.1424709 0.0018078778 -0.11175656 0.04459416
0.00777094 -0.3386876 6.554139e-05 -0.10214163 -0.39341253 0.09346303 0.12246318 0.09979819
0.21468033 0.10103698 0.19383395 0.1582198 0.008219155 0.10218738 -0.12528776 -0.008846938
-0.23595543 -0.08840822 -0.029890839 -0.09810726 -0.016020652 -0.23482496 0.06615934 0.064017355
0.08610657 0.19239652 0.0042301565 0.22532141 0.088459 -0.21666318 -0.14246318 -0.05350349
0.04232835 -0.13961959 -0.023586791 0.10887778 -0.20495674 0.14701924 -0.0433888 0.03115475
-0.113822475 0.04718574 0.12190443 -0.01128155 -0.0968253 -0.03075337 -0.14261049 0.07424307
0.36861566 0.03867188 0.1446461 -0.13026568 0.34202784 0.18690452 0.74662864 -0.01069912
-0.034395397 0.06336957 0.19783925 0.26366806 0.17333874 0.31330994 0.221885 0.25145477
0.46437937 0.034408037 -0.20967227 -0.058366686 0.3015237 0.22185972 0.47524065 0.13889906
-0.056304187 0.0494505 0.08307333 -0.061610885 0.17276374 0.29975742 0.06953727 -0.16224647
-0.076543175 0.3144013 -0.14596505 -0.04643429 0.050586626 -0.0018833397 -0.17097776 0.12186212
-0.070554726 0.018569194 0.07980421 0.07623482 0.10954018 -0.061867528 0.08629753 -0.17997485
0.06584786 0.4375927 -0.33773923 -0.026141766 0.0934958 -0.15447214 -0.09211146 -0.04735542
-0.35348362 0.29586515 -0.13890457 0.058688387 -0.045328233 -0.016492568 0.04196509 0.20231915
0.07417126 0.9674041 -0.01270305 0.25067472 0.064783074 -0.20708951 -0.046428718 -0.047976904
-0.09841118 -0.11888592 0.1525023 0.0051501133 0.21869965 0.23190273 0.072727874 -0.12384997
-0.07604259 0.24101648 -0.18340893 -0.09409855 0.13774964 -0.081799 -0.04183209 0.1854167
-0.07393938 0.16477375 0.053419907 -0.11838152 0.29364115 -0.50345063 -0.012765056 -0.07528718
0.101218596 0.18381593 0.23961848 0.4227418 -0.48195225 0.12184015 -0.10908596 0.07787758
-0.14208502 0.15024528 -0.031466234 -0.023717271 0.247587 -0.19405772 0.21091558 0.12592503
0.16517594 -0.46769997 0.48463392 -0.006813649 0.09115631 -0.16894782 -0.042348403 -0.04917854
-0.04157023 -0.17371371 0.021274585 -0.11380279 0.32197368 -0.3125348 -0.048791684 -0.15335
-0.1833618 0.00022790092 0.10002261 0.028189098 0.04876016 0.11976597 -0.15045875 0.15568446
0.044692904 -0.26568505 0.095547974 -0.11325744 -0.16433609 -0.24784115 -0.16807047 -0.10448323
0.33600232 0.19147527 0.040432665 0.31328297 -0.11319585 0.08562167 -0.1179911 0.09027536
0.03608972 0.275257 0.02629564 0.26598233 -0.043972004 -0.1014334 -0.045449156 -0.27492863
-0.2674212 -0.064994514 0.12367682 -0.07377797 0.081096 0.12923941 0.6337222 0.082872346
0.08208008 -0.019235909 -0.29419312 -0.10210187 0.18044817 0.55113435 0.2031573 0.04861772
-0.14969024 -0.114818305 -0.06471554 0.078255825 -0.120440304 -0.011290027 -0.1565652 0.044902287

net.2.bias f4 [32]
00000000: a912 8ebf 9d3d 46bf 76f8 8c3d 9451 36bf
00000010: c740 b0be 9a98 9ebf 748f b7bf d463 6ebf
00000020: ce9c 283e 80d8 92bf 86ab e3bd 34b6 1cbe
00000030: 6b8c 81bf 6601 aabf c06c 87bd 0a7d af3e
00000040: ba99 1fbf e665 a63f 4eb3 583e 7699 46bd
00000050: 065b b33f ec6b 60bf 9ef8 14bf 06e3 91bd
00000060: 92f0 33be 2c6c 45be 0e32 83bf ac45 66be
00000070: 5aa7 c1be 2264 583f 655a b8bf 0875 1ebf
-1.1099445 -0.77437764 0.06883328 -0.7121823 -0.3442442 -1.239032 -1.4340653 -0.93121076
0.16466066 -1.147232 -0.111167 -0.1530388 -1.0120977 -1.3281677 -0.06612539 0.34275085
-0.62343943 1.2999847 0.2116215 -0.048486196 1.4012153 -0.87664676 -0.5819186 -0.071233794
-0.17572239 -0.19279546 -1.024965 -0.22487515 -0.37822992 0.8452779 -1.4402586 -0.61897326

net.4.weight f4 [32, 32]
00000000: 4e03 3cbe 1809 4d3e 7cde 1c3d 2176 79bc
00000010: 767e 8dbb 6002 a1be 0182 bfbe ea59 adbe
00000020: 6205 debd 27be 953e 4cc2 653d c1ab 5ebc
00000030: a218 c83d 3daa 28bf 182c a13d afe8 9a3c
00000040: cade 403e 4c2c 36be e15f 323f 7520 2bbe
00000050: 6460 ab3e 4c46 0abe 22ea 7dbe 7af7 c7bc
00000060: 8c33 cabd 125e 4bbd 8ad4 24bd 18b0 62bd
00000070: 5634 bb3e dac3 a23d 342c b2be 1a55 903d
00000080: 9d43 94be 3221 e9bd 320f bebd 24ff 523f
00000090: 24b5 bebe 2645 17bf 30d1 bcbe dae7 243d
000000a0: 52d4 48bd f80f 553e 5068 973e 3f62 5cba
000000b0: d20d b03e bf3f 533e fa81 3bbd 3498 a2be
000000c0: f438 74be 855e c7be 35e1 88be 20fd 8c3e
000000d0: 1efe 6c3e 99cc dabe 7c20 26be be6e 473f
000000e0: 1c9a 2bbf cf29 883e dc5a 7fbe ae5a a1bd
000000f0: 18e6 fe3e f82f d53e e0f4 6f3e b15d a43e
00000100: 8850 d13e f20c 9cbf 7cf1 553d be04 ebbe
00000110: d214 493e 0828 923e c48d aa3e f69c da3e
00000120: 8832 8f3d 34e4 d83b 1638 6ebe 5ec0 a4be
00000130: c091 88be 9ea1 46be 16f4 b83e 6883 693e
00000140: 6cd2 e23d 1b0d 2b3e ecb4 84be c897 08be
00000150: 747e 673e 8d2e 003f 0c27 763d 8e9e 42bf
00000160: 1670 5c3d 7f03 393e 5c55 2d3f 9a14 07bf
00000170: ebd0 983e 76ab 7bbe 24ae c13e 66cf df3d
00000180: 32f6 03be 1ed5 563f 36b6 5abe 20e1 373e
00000190: 72e8 19be 2a7c 47be 7801 a7be ac66 d9be
000001a0: a19f f1bc 16e1 87be a756 bd3d c3b8 043e
000001b0: c7f7 853e be29 5cbb 0bed 27be fa95 733c
000001c0: 9427 33bd aa80 8e3e 606a dcbd ea7a 883e
000001d0: c458 a63e 6a28 7fbe 8a60 8cbc 5db4 033d
000001e0: f6c1 f0bd f200 15be e6b2 4cbd dbba 88be
000001f0: e63c 88bb a625 d2bd d692 11be 02d3 b9be
00000200: 479f 1e3d 12e6 e7be 89c0 e7be 30cd 4c3f
00000210: 77ce 583d 4ea2 8ebd 72c7 f13d d17b e53d
00000220: 383b d2be faff 153e 4205 ee3c 2cc5 db3e
00000230: bce7 d63e 5192 32bd 13a7 ed3c 52c8 2a3e
00000240: 85bb 4c3d 7cfd ee3d 663f 613e a15f 31be
00000250: e0e9 2e3f 4275 5c3e 01af 713e 6c8d 00bf
00000260: 9f2e 3cbd ba84 1bbe 8160 3d3e 96ad edbe
00000270: 3a9f b93e 445d bfbd 99f2 12be 4550 8fbc
00000280: d858 60be 9612 a4bf 9e9b b33d 9480 883e
00000290: 183a 47be 6837 b43b a142 64be 26f2 dc3d
000002a0: ba44 82bc e09a 19be 82f3 023d b072 66bd
000002b0: 96b8 f2bc 786a 1c3e 4e04 a3be 045f f23d
000002c0: 10a3 2dbe 26cd 443e 4a2a 9abe 3008 943d
000002d0: 8819 a93d 7c72 a6be 9073 6bbe 86b8 953e
000002e0: 28fb dbbe d2e4 06be aa14 79be 145e 603e
000002f0: e475 fbbd e1d1 983e 8ec3 67be cd6a 523e
00000300: 51df bc3d ee74 d0be febe 53be d1c5 143e
00000310: debb aabe 62de 8cbd ceaf 72bd 2636 d63d
00000320: 2897 a2be 7906 323e b374 61be 1f39 83bd
00000330: 5e2c 543e 447e aebd c675 a6be 9080 163d
00000340: 7877 34bd 2a68 513e ea4a 08be b876 a53e
00000350: 9c65 093f d67a cabe 4c19 873e 9875 dd3b
00000360: aa9b 193e a04c a43e 045e 2fbe 5a10 abbe
00000370: 2632 87bd 6602 a3be 4317 a8be ca54 b53e
00000380: 3fcb 89be d13a 1cbf 722f cd3d e067 b8bc
00000390: acf5 f73d e082 c5be 684f 133f 0368 c03d
000003a0: d416 013e aab4 9e3e dc6d a5bd 621d fcbc
000003b0: 18ea bbbe 602a 8c3e b534 34be 54d7 073e
000003c0: f9ca fa3d fe30 cfbd 9727 3f3c fe74 893d
000003d0: ec28 66be 2ed0 6a3c 25c3 a03d 7e06 e83e
000003e0: 1d90 f43d 3f69 7f3e a6b4 a7be 03f4 a5be
000003f0: f0ae 09bf 6ad6 a83e aaa9 163d be3a ce3e
-0.18360636 0.20023 0.038298115 -0.015225918 -0.004318054 -0.31447124 -0.37403873 -0.3385766
-0.108408704 0.29246637 0.0560935 -0.013590754 0.09770323 -0.65884763 0.07869738 0.01890978
0.18834987 -0.17790335 0.6967755 -0.167116 0.33471978 -0.13503379 -0.24796346 -0.024409998
-0.09873113 -0.04965026 -0.040241756 -0.055343717 0.36563367 0.07947512 -0.3479935 0.07047482
-0.28957835 -0.11383285 -0.09280242 0.82420564 -0.37247574 -0.5908989 -0.36878347 0.040260173
-0.04903061 0.20806873 0.29571772 -0.0008406974 0.34385544 0.20629786 -0.045778252 -0.31756747
-0.23849851 -0.389393 -0.2673432 0.2753687 0.23143813 -0.4273422 -0.1622333 0.77903354
-0.6703203 0.26594397 -0.24937004 -0.07878624 0.49784923 0.4163816 0.23433256 0.3210273
0.40881753 -1.219145 0.05223225 -0.45902056 0.19636849 0.28546166 0.33311284 0.42697877
0.0699206 0.006619001 -0.23263583 -0.32178015 -0.26673698 -0.1939759 0.36123723 0.22804034
0.11075291 0.16704218 -0.25919282 -0.1333915 0.22606832 0.5007103 0.06009583 -0.76023185
0.05381783 0.1806774 0.67708373 -0.5276581 0.29846892 -0.24577126 0.3782817 0.1092823
-0.12886885 0.8391894 -0.2135857 0.17956972 -0.15030077 -0.19480959 -0.32618308 -0.42461145
-0.029495062 -0.26538914 0.09245043 0.12961106 0.26165602 -0.0033594216 -0.16399018 0.0148673
-0.043738917 0.27832538 -0.10762477 0.26656276 0.32489598 -0.2491776 -0.017135877 0.03215443
-0.11755745 -0.14551142 -0.0499753 -0.2670506 -0.0041576503 -0.10261087 -0.1421617 -0.362938
0.038726117 -0.45292717 -0.4526408 0.8000059 0.052931275 -0.06964551 0.11805619 0.11205257
-0.41060805 0.14648429 0.029055241 0.42923868 0.41973674 -0.04359657 0.029010331 0.16677979
0.04998352 0.11669442 0.21996841 -0.17321636 0.68325615 0.21529105 0.23601915 -0.5021579
-0.0459429 -0.1518735 0.18493845 -0.46421498 0.36254293 -0.09343961 -0.14350356 -0.01749433
-0.21908891 -1.2818172 0.08769916 0.26660597 -0.19455755 0.005499769 -0.22291042 0.10788374
-0.015901912 -0.15000486 0.03197051 -0.05626172 -0.029629033 0.1527499 -0.31839222 0.11834529
-0.16956735 0.19218883 -0.3011039 0.07228124 0.08256823 -0.3250922 -0.22993302 0.29242343
-0.42965055 -0.13173226 -0.24324289 0.21910888 -0.12278345 0.29847625 -0.22633192 0.20548554
0.09222282 -0.4071421 -0.20678326 0.14528586 -0.33346456 -0.06878354 -0.05924969 0.10459547
-0.31755948 0.17385282 -0.22017173 -0.06407379 0.2072005 -0.08520177 -0.3251173 0.0367437
-0.044059247 0.20449892 -0.13309827 0.32317138 0.5367067 -0.3954684 0.26386487 0.006758403
0.15000787 0.3208971 -0.17125708 -0.33410913 -0.06601362 -0.31837767 -0.32830247 0.3541625
-0.26912877 -0.61027247 0.10018815 -0.022510469 0.12107405 -0.38576412 0.5754304 0.09394839
0.12606364 0.3099721 -0.08077595 -0.03077573 -0.36702037 0.2737608 -0.17598231 0.13265735
0.12245745 -0.101167664 0.011667154 0.067117676 -0.22476548 0.0143318605 0.07849721 0.45317453
0.1194155 0.24942492 -0.3275501 -0.3241273 -0.5378256 0.32976085 0.036782898 0.40279192

net.4.bias f4 [32]
00000000: e4e8 7c3e 8678 cf3e 3a82 eabe 5aa1 483e
00000010: 836f 9f3d 36ba af3e 143d cb3d b672 dd3d
00000020: a0f5 aabd 690e 3dbe 4cf8 9ebd 8f69 c0bd
00000030: f228 513e a69d 063c 15e4 b13a d58f f43c
00000040: 285d 093e 3e78 26be 23fb 343d ccb9 2f3e
00000050: 2262 1ebf 546a 0a3f 1e06 21bf 79eb 2f3f
00000060: e490 973c f2f0 47bf a776 2e3f 30e7 a3bc
00000070: 4aa0 d13d 62c6 c8bb fedb e13d 6c93 cebe
0.24698216 0.4052164 -0.4580248 0.195928 0.07784941 0.34321755 0.09923759 0.10812895
-0.083476305 -0.18462528 -0.077622026 -0.09395134 0.20425776 0.008216297 0.0013572002 0.02985374
0.13414443 -0.16256806 0.044184815 0.1716072 -0.6186849 0.54068494 -0.6289996 0.6871868
0.018501706 -0.7810203 0.681498 -0.0200077 0.10235651 -0.0061271647 0.11028288 -0.4034685

net.6.weight f4 [1, 32]
00000000: d410 0e3f cc84 b9be 2941 53bf 9fed 253f
00000010: 06dc 8abe 22b4 c63e 688d b0be 1774 c93e
00000020: 644d 0f3f 727f 43bf d2fe 1dbf 70bc b8be
00000030: 18e5 963f 6c44 ebbe 7fb5 b13f 42be 433f
00000040: a2aa 26bf 3e28 debe 97ca 8dbe 54b2 953f
00000050: a455 2340 b692 5bbe 862d efbe 410e 59bf
00000060: cc68 ca3e f997 12c0 1c42 bf3e 7fc8 dcbe
00000070: fbf5 19bf 7e5a d1be f1a6 c3be 4609 613f
0.5549443 -0.36234128 -0.825213 0.64815706 -0.2712099 0.38809305 -0.34482884 0.39346382
0.55977464 -0.7636634 -0.6171695 -0.36081266 1.1788664 -0.4595064 1.3883513 0.76462185
-0.65104115 -0.43390077 -0.27693626 1.1695046 2.552102 -0.21442685 -0.4671442 -0.84787375
0.3953308 -2.2905257 0.37355125 -0.43121716 -0.6014096 -0.40889353 -0.38213304 0.87904775

exp_avg f4 [256, 120]
00000000: 528f cf37 8784 9237 51bb 8737 8c73 5937
00000010: 9ce9 2737 3e54 7337 8ea9 0d38 6f51 f035
00000020: c732 a736 a979 1037 94e2 5c37 774f 8d36
00000030: 8be8 4bb8 f02f 0cb8 c812 07b8 451f 0937
00000040: 6deb 83b8 e908 63b6 5c01 d2b8 4949 86b8
00000050: b8d0 b0b8 8e92 deb7 981e 92b8 1631 91b6
00000060: 8025 44b8 7b14 6ab8 4956 e6b8 b12e a9b8
00000070: d3d7 8eb8 a214 e1b8 a01d 8cb8 7107 30b7
00000080: 75ce dcb8 a6a5 89b7 ed87 8cb8 f79c f6b6
00000090: 7a2f 4bb8 5e71 5bb8 ef6c df37 7fba eab8
000000a0: 3fda 03b8 0506 cfb6 d670 6cb8 099d 5fb8
000000b0: 8e92 91b7 eadc 1737 0e12 2138 d500 47b7
000000c0: eca0 0637 014e 6037 3e72 f337 fbf1 ac37
000000d0: bb87 ae37 05a9 8c37 66eb 8937 f49f 4637
000000e0: c9a0 8037 7801 a337 6a38 a237 7dff c837
000000f0: 9fb9 9e37 a6d6 ad37 fe19 ad37 9421 3337
00000100: e9a4 8937 8841 9837 69d8 bd37 67ad a937
00000110: 4903 ab37 3b18 9437 e752 b837 41d2 a837
00000120: ef32 a937 ea99 7c37 c267 c637 7057 8f37
00000130: 308c ab37 00c6 e237 7a1e 9037 0c28 b037
00000140: 9ed9 ac37 182b d037 3d07 da37 fc36 ad37
00000150: 2d48 bb37 997f a237 5f18 9b37 1731 a337
00000160: 255d ae37 da9a 8337 daa3 9d37 c5b8 a937
00000170: 9041 a837 197d ce37 7da5 8b37 8d82 a537
00000180: 11bd a937 bd0d a837 01e5 8937 94e5 a937
00000190: 2ae5 ac37 a75a d337 fe07 8037 cb22 a137
000001a0: fe73 9a37 4193 a337 a3e9 b037 dc40 cd37
000001b0: e47c bf37 f939 a637 c674 a737 5c03 c937
000001c0: 5d15 9d37 b34d a137 7802 a337 ceb0 9e37
000001d0: 141a b937 9ea2 a937 f3c6 a937 e98c 8a37
000001e0: 54c8 0eb7 4972 fab6 8851 56b6 9107 5a36
000001f0: fbbe 1a38 400c eab7 00df 8cb6 c690 bfb7
00000200: fa7a 2cb7 8eea 4338 6020 df37 033a 00b7
00000210: 6ccb 87b7 d7a2 e0b6 65ea c2b7 dd01 9eb8
00000220: 7df4 fbb6 2062 ce37 24f5 0e38 f24d c437
00000230: dc41 9bb8 57bf 22b7 8ad9 0037 c452 22b8
00000240: f3bb 62b7 41f4 b4b7 bdd6 7037 c229 cb36
00000250: bd47 00b8 3bac cbb8 e205 1db8 b9bb 20b7
00000260: 494d c637 13bd 96b7 5dd5 a037 813e ebb6
00000270: fd53 80b6 881d 17b5 2de9 4c37 4ed2 64b7
00000280: 69a4 7637 77fe 52b8 9917 1337 2f9e b637
00000290: a02c 4c38 b9e4 a937 b7ed 65b8 9804 8fb5
000002a0: 285f 52b6 644b 48b7 038f 76b7 e714 9437
000002b0: c1f6 f537 fb6e 29b8 194a ccb5 31d0 dc37
000002c0: eb7a 0236 511a e436 5863 0338 25e1 c5b6
000002d0: b291 5437 a3e3 0a38 6ec5 3eb7 97d7 9737
000002e0: d90d a736 04f0 cbb6 f422 cdb7 0492 5db6
000002f0: 4a65 4336 a4db 8d37 db6f b035 3b9f a1b6
00000300: d0a1 0db6 9128 12b7 1d64 2b37 f19f 3237
00000310: 9efb c0b5 a8f9 ad37 5969 5937 1734 1637
00000320: e3fd 0637 99dc cf36 64a7 edb6 cbbe 9736
00000330: ab0e c136 856e 6437 1325 3837 fb06 60b5
00000340: 998a 2737 d0a9 a136 42f5 c936 a06b 5837
00000350: fd47 be36 0208 6137 6f80 e0b5 a631 1b35
00000360: 0d39 4837 e3bb ccb6 553e 7035 4e25 c836
00000370: 2624 9637 7e48 8eb5 4510 34b7 001f 2bb4
00000380: d19a 9837 26fd fbb7 7630 10b8 5367 7336
00000390: e1c1 2037 8350 a237 2636 9db7 5183 06b6
000003a0: 931f 9bb7 25b3 a6b6 071a 1db7 1a77 e337
000003b0: 1837 7537 c4d3 ff37 c7e2 9937 2d24 4838
000003c0: baff bbb4 a42a 0c35 5024 9336 e168 db36
000003d0: d49f b137 7244 b837 1480 15b3 5c5b b937
000003e0: 823d 4336 44ed 8837 22ee 5bb6 dcd0 a337
000003f0: 5f95 5637 a5de 8cb6 937d 1cb6 4e5e 05b8
2.4743062e-05 1.746627e-05 1.618048e-05 1.2961111e-05 1.0008367e-05 1.4503543e-05 3.377493e-05 1.7905094e-06
4.982899e-06 8.611395e-06 1.3165776e-05 4.2113784e-06 -4.8615544e-05 -3.3423246e-05 -3.2204e-05 8.173117e-06
-6.290418e-05 -3.3830822e-06 -0.000100138335 -6.403268e-05 -8.431211e-05 -2.6532707e-05 -6.967521e-05 -4.327051e-06
-4.6764966e-05 -5.580902e-05 -0.000109833265 -8.067245e-05 -6.811288e-05 -0.00010732679 -6.681238e-05 -1.049215e-05
-0.00010528873 -1.6408809e-05 -6.7010384e-05 -7.3496444e-06 -4.8443188e-05 -5.231925e-05 2.6634398e-05 -0.00011192727
-3.143609e-05 -6.1697815e-06 -5.637187e-05 -5.3313594e-05 -1.7353592e-05 9.051737e-06 3.8402206e-05 -1.1861518e-05
8.02449e-06 1.3369602e-05 2.9021056e-05 2.0616679e-05 2.080562e-05 1.6768006e-05 1.6441289e-05 1.1838962e-05
1.533366e-05 1.9431798e-05 1.9338175e-05 2.3960829e-05 1.8921504e-05 2.072316e-05 2.063531e-05 1.0677049e-05
1.6408465e-05 1.8150327e-05 2.263133e-05 2.0227117e-05 2.0386318e-05 1.7654258e-05 2.1973114e-05 2.0125068e-05
2.0170088e-05 1.5056206e-05 2.3651755e-05 1.7087645e-05 2.0450068e-05 2.70335e-05 1.718033e-05 2.0999483e-05
2.0605334e-05 2.48156e-05 2.5990996e-05 2.0648811e-05 2.2325747e-05 1.9371322e-05 1.8488789e-05 1.9453973e-05
2.078579e-05 1.5688525e-05 1.8792158e-05 2.023241e-05 2.005769e-05 2.4615367e-05 1.6647153e-05 1.9730325e-05
2.023441e-05 2.0033558e-05 1.6438311e-05 2.0253276e-05 2.061071e-05 2.5195373e-05 1.526251e-05 1.9208897e-05
1.8412244e-05 1.9499685e-05 2.108963e-05 2.4468107e-05 2.2827131e-05 1.9815738e-05 1.9962328e-05 2.3962632e-05
1.8725807e-05 1.9228877e-05 1.9432264e-05 1.8917399e-05 2.2065862e-05 2.0222094e-05 2.0239013e-05 1.6516498e-05
-8.510502e-06 -7.463885e-06 -3.1935942e-06 3.2488936e-06 3.6894326e-05 -2.7900678e-05 -4.1982858e-06 -2.283639e-05
-1.0280632e-05 4.671007e-05 2.6598747e-05 -7.642901e-06 -1.618798e-05 -6.6946773e-06 -2.323575e-05 -7.534374e-05
-7.508845e-06 2.4602807e-05 3.4083743e-05 2.3401317e-05 -7.403243e-05 -9.700502e-06 7.680044e-06 -3.870089e-05
-1.351441e-05 -2.1571412e-05 1.4355112e-05 6.0547327e-06 -3.058439e-05 -9.711875e-05 -3.7437196e-05 -9.580451e-06
2.3639428e-05 -1.7969438e-05 1.9172841e-05 -7.010822e-06 -3.824475e-06 -5.6294857e-07 1.2213638e-05 -1.3638824e-05
1.4701022e-05 -5.030489e-05 8.767377e-06 2.176975e-05 4.867895e-05 2.0252877e-05 -5.4819244e-05 -1.0655667e-06
-3.1347827e-06 -1.1938482e-05 -1.469604e-05 1.7652708e-05 2.932118e-05 -4.03961e-05 -1.522075e-06 2.632299e-05
1.9443057e-06 6.797993e-06 3.1325355e-05 -5.897268e-06 1.2670107e-05 3.3113767e-05 -1.137085e-05 1.8100995e-05
4.9786e-06 -6.077813e-06 -2.445418e-05 -3.3016559e-06 2.9116222e-06 1.6910788e-05 1.3145576e-06 -4.8167108e-06
-2.1104825e-06 -8.711723e-06 1.0215704e-05 1.0646866e-05 -1.4378345e-06 2.0739462e-05 1.2958736e-05 8.952825e-06
8.046135e-06 6.1947617e-06 -7.0826372e-06 4.522362e-06 5.753556e-06 1.3615591e-05 1.0975887e-05 -8.345666e-07
9.9862455e-06 4.8179427e-06 6.0188186e-06 1.2899662e-05 5.670822e-06 1.34129095e-05 -1.672668e-06 5.781425e-07
1.1934212e-05 -6.1015467e-06 8.949767e-07 5.9648073e-06 1.7898226e-05 -1.0600922e-06 -1.0732624e-05 -1.5936894e-07
1.8191904e-05 -3.0039413e-05 -3.4377408e-05 3.6269964e-06 9.581884e-06 1.9349396e-05 -1.8741073e-05 -2.0043992e-06
-1.8492143e-05 -4.9680407e-06 -9.363989e-06 2.711597e-05 1.46159655e-05 3.049698e-05 1.8344623e-05 4.7717407e-05
-3.501753e-07 5.2216114e-07 4.3851687e-06 6.538918e-06 2.117447e-05 2.1966382e-05 -3.4808252e-08 2.2096261e-05
2.9093067e-06 1.6322949e-05 -3.2772155e-06 1.9528372e-05 1.2790172e-05 -4.1982444e-06 -2.3318905e-06 -3.17975e-05

exp_avg_sq f4 [256, 120]
00000000: 19b1 3232 b27f d431 3384 d531 bd53 d231
00000010: 908d 5532 701f 1732 d0fd 0e32 a982 9b32
00000020: fce3 4733 8c11 f732 eeb6 cf32 2af7 6532
00000030: d09d 4033 67aa 7a33 5afb 8933 6209 5e33
00000040: b6b4 0134 09bb e533 baae c333 1e00 9633
00000050: eabd b633 bcab 0434 136c f633 adc9 f033
00000060: 50bf a533 bd6c 1b34 dc81 2434 39ee 0d34
00000070: 380a 0934 496f 1534 583c fa33 94a1 a733
00000080: 8f5b e633 8ebc f533 4ac1 e333 014b c633
00000090: d3f1 9d33 6546 cc33 12be bc33 e2d8 0834
000000a0: f042 9e33 8656 8c33 30be 8b33 b797 9433
000000b0: 9154 c032 50da b732 fa10 3c33 7038 9b33
000000c0: 4b40 bb32 d9f5 1d32 82e9 2532 6816 3b32
000000d0: 29d1 0032 38e8 c731 e962 c931 4720 3132
000000e0: df5d cf31 575a cf31 45ec ce31 20b3 e831
000000f0: c199 d731 d707 d531 f1c7 cb31 60ed da31
00000100: 764b cf31 78e4 cc31 b640 d331 0260 c931
00000110: 04c2 cb31 c290 d231 00c0 e231 4d63 d331
00000120: c423 ce31 0116 e131 1169 de31 c94d cc31
00000130: e39d c831 33d8 d831 1e8f de31 dad7 c831
00000140: c476 cb31 efc7 d931 f889 cd31 8a73 c831
00000150: 3e90 c731 6b7f c831 ea29 ca31 84a8 c831
00000160: 86c0 cd31 87cb d331 396a cb31 1458 c831
00000170: c7e3 c831 4070 dc31 c3e1 d531 d6d2 c931
00000180: 65cb d631 a36f d031 872f e531 44d9 c931
00000190: f146 cd31 b8a0 d631 42f2 cf31 910a d931
000001a0: 3171 cf31 43ec c831 5771 c831 2063 d431
000001b0: 75c3 ca31 fbbf cd31 1c85 c831 d49b e031
000001c0: d1e2 d931 242f d231 1e35 d531 2f82 d931
000001d0: 0583 e031 6770 c831 6690 c631 41bc da31
000001e0: 05cb 8b32 5c2b 1732 a553 7732 dc7d 8932
000001f0: ef6f 5a32 16f9 c932 ed63 4f33 946e 1b33
00000200: 2f49 8733 ddc7 ba32 ce95 a332 d387 0b33
00000210: 2602 3233 3329 6d32 8a32 dc32 9aa9 8433
00000220: a969 dc33 6e78 2733 a271 7232 afb1 1233
00000230: 3559 1733 8411 fa32 b0b1 0c33 f15f a933
00000240: c0b4 2833 29cb 9933 6e79 a333 6ebf 8733
00000250: eb59 9833 e87a 9d33 f35e 7233 fdb0 2e33
00000260: 34b5 a033 4409 8933 00f5 3332 62e1 1932
00000270: 39ef 3133 a112 3d33 1f2b a531 9f07 8533
00000280: 522e 8733 530e 4133 9ce4 3733 f2d3 d532
00000290: 4bc7 b732 8742 2d33 c648 5933 85c8 3933
000002a0: ee32 2533 ddb0 1433 661d 3133 9d48 ef32
000002b0: 00f5 8332 73fb 9432 a190 8a32 8f7b bf32
000002c0: 3dea 4832 aa1f b032 07f6 f132 539d 5932
000002d0: 9f28 c731 6d39 6532 4cff c932 ddc6 b532
000002e0: 7da8 1332 bba6 9a32 b978 dc32 29ad d031
000002f0: 2323 9731 d244 2e32 6540 8c32 8022 1632
00000300: d203 9c31 dedb fd31 0dc3 3832 e9d1 b131
00000310: 5c0f 4e31 8040 d531 8163 0332 8ea7 c231
00000320: 1f72 5131 abeb 8531 b3d4 9d31 3a22 5831
00000330: 52d2 3831 55d7 5831 fd17 7731 3255 6831
00000340: c198 6b31 c3ef 8631 e3fe 4a31 00a7 3531
00000350: e0a1 4d31 df8c a431 3e9f 8531 d10a 4631
00000360: 1170 db31 ff2b f531 9d0e da31 a427 4531
00000370: a868 aa31 4831 1532 472c 0c32 943f 9d31
00000380: 4a88 0a32 45ea 9c32 e08c 4032 3b0c a531
00000390: b8dc c531 98fe ab32 9ef7 9832 7666 2632
000003a0: 9390 9432 2f35 9e32 d2dc 8c32 c179 0032
000003b0: bee6 5032 5e33 ce32 ff85 e732 7b7a 9132
000003c0: 6439 1d32 56e3 a831 1074 ac31 d1f2 ae31
000003d0: c15e 0232 4b0f 2132 1d72 1c32 4ff7 8332
000003e0: fa68 eb32 ead0 8732 d981 2b32 fcff 1632
000003f0: cd4e cc32 31ca ac32 a839 9c32 63c4 0b33
1.0401231e-08 6.1845293e-09 6.214145e-09 6.1213243e-09 1.2430419e-08 8.796505e-09 8.323198e-09 1.8103792e-08
4.654065e-08 2.8762564e-08 2.4181158e-08 1.3385753e-08 4.4847013e-08 5.836264e-08 6.42528e-08 5.1696937e-08
1.2079803e-07 1.0697665e-07 9.112178e-08 6.9849406e-08 8.5095806e-08 1.2355935e-07 1.1474926e-07 1.12125555e-07
7.718211e-08 1.4475059e-07 1.5320933e-07 1.3218313e-07 1.2762837e-07 1.3917192e-07 1.1652509e-07 7.8059344e-08
1.0726864e-07 1.14429994e-07 1.060567e-07 9.2337366e-08 7.35487e-08 9.512295e-08 8.789006e-08 1.2744889e-07
7.369624e-08 6.5349965e-08 6.507287e-08 6.919384e-08 2.2390198e-08 2.1403281e-08 4.37876e-08 7.228016e-08
2.1798902e-08 9.194502e-09 9.657358e-09 1.0889927e-08 7.498138e-09 5.8180625e-09 5.8611147e-09 1.0310095e-08
6.035165e-09 6.0347634e-09 6.02225e-09 6.772453e-09 6.2748033e-09 6.200007e-09 5.9308083e-09 6.3716215e-09
6.033072e-09 5.9631553e-09 6.148265e-09 5.8607847e-09 5.9301346e-09 6.1282615e-09 6.5992936e-09 6.1521974e-09
5.999455e-09 6.5508634e-09 6.472995e-09 5.9460246e-09 5.8387157e-09 6.3110064e-09 6.477321e-09 5.8453056e-09
5.9215797e-09 6.338261e-09 5.9819705e-09 5.8339014e-09 5.8080607e-09 5.835252e-09 5.883739e-09 5.839924e-09
5.9881726e-09 6.1640466e-09 5.9201537e-09 5.8307794e-09 5.8466614e-09 6.415604e-09 6.224782e-09 5.873839e-09
6.251343e-09 6.0662884e-09 6.6701804e-09 5.87457e-09 5.9743503e-09 6.2464913e-09 6.0520344e-09 6.3167325e-09
6.0373613e-09 5.847626e-09 5.8336513e-09 6.1812813e-09 5.9011946e-09 5.988111e-09 5.835899e-09 6.5369736e-09
6.3413172e-09 6.1171637e-09 6.2051546e-09 6.3303314e-09 6.534153e-09 5.8335448e-09 5.7789746e-09 6.366037e-09
1.6274052e-08 8.799216e-09 1.4396311e-08 1.6006133e-08 1.2714721e-08 2.351275e-08 4.8286825e-08 3.618932e-08
6.2997394e-08 2.1744137e-08 1.904382e-08 3.248699e-08 4.144581e-08 1.3804583e-08 2.5634353e-08 6.177579e-08
1.0263768e-07 3.8992248e-08 1.4112091e-08 3.4154876e-08 3.523856e-08 2.9111796e-08 3.2757896e-08 7.8871274e-08
3.927994e-08 7.161572e-08 7.612367e-08 6.321248e-08 7.0944076e-08 7.333239e-08 5.643137e-08 4.0673502e-08
7.483541e-08 6.381245e-08 1.0474878e-08 8.957018e-09 4.1428596e-08 4.4021935e-08 4.8070343e-09 6.1946814e-08
6.294853e-08 4.4949342e-08 4.2815927e-08 2.4892845e-08 2.1394632e-08 4.0340208e-08 5.0590437e-08 4.325604e-08
3.8463376e-08 3.461979e-08 4.123776e-08 2.7856283e-08 1.536182e-08 1.7343813e-08 1.6131084e-08 2.2291514e-08
1.1694792e-08 2.0503496e-08 2.8167973e-08 1.2666834e-08 5.7962803e-09 1.33426115e-08 2.3515575e-08 2.1161606e-08
8.594836e-09 1.800378e-08 2.5666269e-08 6.0732828e-09 4.398673e-09 1.0143781e-08 1.6327428e-08 8.7389935e-09
4.540632e-09 7.388265e-09 1.0754559e-08 5.175242e-09 2.9985676e-09 6.2064487e-09 7.647828e-09 5.665192e-09
3.0478373e-09 3.897602e-09 4.5934825e-09 3.1451592e-09 2.6895077e-09 3.155454e-09 3.5956866e-09 3.3808871e-09
3.4283831e-09 3.927171e-09 2.9539755e-09 2.6433895e-09 2.9923442e-09 4.7890434e-09 3.888913e-09 2.881894e-09
6.3864793e-09 7.1354402e-09 6.3462964e-09 2.8689806e-09 4.959549e-09 8.684147e-09 8.15914e-09 4.5765294e-09
8.063646e-09 1.8267324e-08 1.1207902e-08 4.8035225e-09 5.7585474e-09 2.0022796e-08 1.7807732e-08 9.685769e-09
1.7295212e-08 1.8417806e-08 1.6398563e-08 7.478264e-09 1.2159658e-08 2.4004915e-08 2.6952874e-08 1.693592e-08
9.151652e-09 4.9152886e-09 5.0190536e-09 5.0916715e-09 7.5885405e-09 9.374911e-09 9.1063415e-09 1.536287e-08
2.7405338e-08 1.5811072e-08 9.983034e-09 8.789353e-09 2.378456e-08 2.0115381e-08 1.818701e-08 3.2542072e-08

slow_buffer f4 [256, 120]
00000000: d684 acbc 85e6 10be 36fa edbd 7615 57be
00000010: 94bb 36bd e215 3abe fe8c 3bbe f46a 0b3d
00000020: f206 24bd 083c 65bd ac07 8f3b 6874 54bd
00000030: 2e43 6abd 0f14 91bc 3b9d f83c 6ac7 1cbe
00000040: 50cb 0bbe 356c 5ebe 46b0 b3bd 2463 0abe
00000050: 40a9 11be f945 afbd 7a9a c53d 5655 94bb
00000060: 137a 7cbd 28c6 1bbe 9c84 c73c 12cc d0bc
00000070: 0a6c 633e 4828 793e 72ff 523e 6ae0 2b3e
00000080: 4e5b 1c3e e04a 833e d447 663e bae3 5a3e
00000090: 7abc 473e a6cb 8d3e 9879 943e 8602 573e
000000a0: 565d 0b3e 388d 673e 8591 683e 6ea2 353e
000000b0: f83c 123d 648b 0dbd 49a4 8b3c 5d7c a2bd
000000c0: 2e9f bcbd 114a 26bf 0577 dabe 4cd9 c5be
000000d0: d01e 38be 3fef 15bf 7f5b 1abf aa8e 90be
000000e0: 9889 5bbe 2e92 d2be aad0 c4be 7ddc b6bd
000000f0: 98ed 443c ac2d cfbd 2629 40be 7e30 cdbd
00000100: 5624 273c 9cf2 bbbd b161 5bbd f6d8 96bd
00000110: 4e9d 1b3e 0a89 b13d c1f7 e23d d72c 303e
00000120: 16b7 fd3d 2be8 7b3e 6634 5b3e 5387 c63d
00000130: f481 8e3e e508 903e 0c51 8c3e 0f76 9bbc
00000140: bec3 613e e421 833e 6889 143e e0e7 353e
00000150: 1cc3 d53e ab58 ed3d 2b24 693e 3066 333e
00000160: 565d 453e b011 973e 28c2 783e d0f5 b03e
00000170: 9c4d 253e 7b4b 1e3e 405e 3a3e ff47 9c3e
00000180: 2a9d a1bc 9039 2dbd 70d3 803e 6391 a03e
00000190: 26af 163d 84b3 eabc 9c76 c7bd 6abc 833e
000001a0: 26e7 55be 8e22 c0be 4c20 8abe 1c7c 303e
000001b0: 0075 1cbe 8f40 ccbe 7705 9cbe effb 153d
000001c0: 91e5 3cbe e02b 7cbe 778d cebd a4c4 ce3c
000001d0: 725b 07bf a99e 90bf 0477 6cbf 720c 8cbe
000001e0: 81b3 62be 1309 b9bd d1f0 bb3d 7e13 b6bc
000001f0: dbd0 91bd a0f8 6bbd 794f bf3c d244 70be
00000200: fa9a 1cbe e004 5cbe faf1 4abe 843c af3d
00000210: ad7a 13be 7ef7 8abe f623 34be e252 c3bd
00000220: 98dd 24be 72aa 2abe 8ed6 99be f0e7 4abd
00000230: 89b2 ffbd 2d18 4fbe a0e9 33be e0c6 58be
00000240: c138 39be 78a1 43be 0405 37be 10cc 7fbe
00000250: 00c3 203e 2a7f 493e 423f 9a3d 0602 f53d
00000260: 8408 4e3e ba17 423e 0e0f 1cbe 6281 86be
00000270: 1ec1 eb3d 22e7 463d 8022 15bf f648 d3bd
00000280: 3233 4b3e 8fde 0e3e e674 593d d858 c13b
00000290: e5b9 853e 63b0 293e 127e e93d 714b 093e
000002a0: 1fff 8f3e 25c6 5e3e a7fc 3a3e 32cd 7e3e
000002b0: c2d5 713e 1b2e 7b3e 3a4d 803e 8cbb 5b3e
000002c0: 7b2c 63bd 32e8 88bb ba4b 1f3e 4af5 92bd
000002d0: 730a 09be aea9 63bd e7f6 dabc 3d31 7dbd
000002e0: 7ad3 e1bd 0828 e2bd edac 12be 00ff afbd
000002f0: 25dd cdbd 9ff1 06be 2fc8 79be 70fa 4ebe
00000300: 76ac adbd 045c 05be ccba f6bd a7da cabd
00000310: 607b 0c3e cfdd 7abd 805f 5bbe 4d4a 5abd
00000320: 42a1 9d3d 5839 09be d415 2dbe 400b 43be
00000330: e4b2 123e 5c77 40bd 7948 49be ac15 75bd
00000340: c4d2 903e 45b3 c93e 4b36 d53e 4b39 823e
00000350: c788 8e3e 16eb 9a3e 0858 923e ebf5 d63e
00000360: 039d 533e 67c7 593e 98b5 003f 623e 59bb
00000370: 6652 873e 20f3 213e 4c44 9b3e 8c6a 6a3f
00000380: eb4a 663e d65f bc3e 1492 b73e 0e4c d63e
00000390: aa46 613e 9f68 723e a54f 8f3e 968d b93e
000003a0: e49b 843e 6b94 4d3e bc9c 6f3e daa6 b63e
000003b0: 2ee4 853e f225 793e 558f 883e e558 9f3e
000003c0: b0a4 2bbd 7ccf f1bd a3d4 30be c0b7 62be
000003d0: 0bb0 b4bd c887 1cbe 6a3e 83be f411 40be
000003e0: 8c0d 3dbe 14f9 03be b37b 19be ee89 87be
000003f0: 27d4 42be 64c0 4cbe bc92 a2be 128b 3fbe
-0.021059435 -0.14150436 -0.116199896 -0.2100428 -0.044612482 -0.1817241 -0.18315503 0.034037545
-0.040045686 -0.055965453 0.004364928 -0.051868826 -0.057192974 -0.01770976 0.03034841 -0.15310445
-0.13651776 -0.21720965 -0.08773856 -0.13514382 -0.1422472 -0.08558268 0.09648605 -0.0045267744
-0.061639857 -0.1521231 0.024355225 -0.025487933 0.22209182 0.24331772 0.20605257 0.16784826
0.15269205 0.25643063 0.22488338 0.21375933 0.19505492 0.27694434 0.2899902 0.20997056
0.13609824 0.22612464 0.22711761 0.17737743 0.035702676 -0.03455676 0.01704611 -0.07933877
-0.092100486 -0.64956766 -0.4266893 -0.38642347 -0.17980504 -0.58568186 -0.6029586 -0.28233844
-0.21439207 -0.4112715 -0.38440448 -0.089287736 0.012019537 -0.10116133 -0.18765697 -0.10019015
0.010201534 -0.091771334 -0.053559963 -0.07365601 0.15196726 0.08668716 0.110824116 0.17204605
0.123884365 0.24600284 0.21406707 0.0969378 0.2783352 0.28131786 0.27405584 -0.018977193
0.22047326 0.25611794 0.14505541 0.17764235 0.4175042 0.11589178 0.22767703 0.1751945
0.19273886 0.29505682 0.24292815 0.3456254 0.16142887 0.15458481 0.18200016 0.3052368
-0.019728262 -0.042291224 0.25161314 0.3136092 0.03678813 -0.028650053 -0.0973942 0.25729686
-0.20888957 -0.37526363 -0.26977766 0.17234844 -0.15279007 -0.39893004 -0.3047292 0.036617216
-0.18446948 -0.24626112 -0.10085576 0.02524025 -0.5287391 -1.1298419 -0.92369103 -0.27353245
-0.22138788 -0.09034934 0.091767915 -0.022226091 -0.07119914 -0.057610154 0.023353325 -0.23463753
-0.15293494 -0.21486235 -0.19818869 0.08556464 -0.14402266 -0.27141947 -0.17591843 -0.09537293
-0.16100156 -0.16666582 -0.30046505 -0.0495376 -0.12485225 -0.20224066 -0.1756959 -0.21169615
-0.18088056 -0.19104564 -0.17873007 -0.24980187 0.15699387 0.19677415 0.07531597 0.119632766
0.20120436 0.18954363 -0.15240118 -0.26270586 0.115114436 0.04856027 -0.5825577 -0.103166506
0.19843748 0.13952087 0.05309 0.0059004836 0.2611839 0.16571192 0.11400999 0.13407685
0.2812433 0.21755274 0.18260442 0.24882963 0.23616698 0.24529307 0.2505892 0.21458262
-0.05546234 -0.0041780705 0.15556231 -0.071756914 -0.13382892 -0.05558174 -0.02672906 -0.061814535
-0.11026664 -0.110427916 -0.14323778 -0.08593559 -0.100519456 -0.13178109 -0.2439277 -0.20212722
-0.0848016 -0.13023382 -0.120473474 -0.09904986 0.13718939 -0.06124669 -0.21423149 -0.053293515
0.07696773 -0.13400781 -0.16902858 -0.1904726 0.14326054 -0.04698883 -0.19656552 -0.05983512
0.282858 0.39394584 0.41642985 0.25434336 0.27838728 0.3025748 0.28582788 0.41984496
0.20665364 0.21267472 0.5027709 -0.0033148755 0.26430053 0.15815401 0.30325544 0.9156883
0.22489516 0.36791867 0.35853636 0.418549 0.21999612 0.23672722 0.2799045 0.36240834
0.25900185 0.20076148 0.23399633 0.35674173 0.2615065 0.24330881 0.26671854 0.3112251
-0.041905105 -0.11807153 -0.17268614 -0.22140408 -0.0882264 -0.15286171 -0.25633556 -0.18756849
-0.18462199 -0.12887985 -0.14988594 -0.2647242 -0.19026242 -0.19995266 -0.31752574 -0.18705395
