Training/PyTrainer/epoch=4.ckpt (torch, 654021 bytes, 28 tensors)

net.0.weight f4 [256, 120]
0.00628546 -0.041965935 0.0549281 -0.039166495 0.059980612 -0.06320411 -0.018592885 -0.040911973
0.02519826 -0.20551471 -0.079875536 -0.037896864 -0.087836236 -0.15457805 -0.12357705 -0.036558144
-0.10008738 -0.0144302575 -0.051648945 -0.055540018 -0.10771927 0.19908972 -0.061020475 -0.13392249
0.007327879 0.20658979 0.15259723 -0.046540137 0.004560251 -0.06592792 -0.026104234 0.09748021
0.054008413 -0.0852223 -0.107929856 0.11092799 -0.03673641 -0.11260117 0.03936087 0.061617184
-0.018388413 0.047740873 0.022720369 0.10512751 -0.0306592 0.0261348 0.009747387 -0.16404021
-0.09138382 0.12080455 0.08305369 0.040614 0.08799998 -0.032197732 -0.03134572 0.04552309
0.0761681 -0.022485238 0.07425004 -0.016680287 0.033663176 0.034514565 -0.051661678 0.012139121
0.029959638 0.09195554 0.02429568 0.033615936 -0.04625921 -0.0052034166 0.025285795 -0.005118307
0.113628596 0.059770335 0.1365282 0.066266984 0.07291944 0.060673077 -0.034338675 0.075783454
0.05271877 0.10273634 0.071705334 -0.07547946 -0.07093952 0.087515034 -0.09614757 0.12473152
-0.023396788 -0.06908516 0.018555688 0.05120501 -0.02795515 -0.13774966 0.039692115 0.0140643865
0.010207102 -0.06573011 -0.014986503 -0.010847238 0.1213746 -0.087951034 0.016028568 -0.05956143
-0.010176578 -0.09378172 0.06629587 -0.0042597507 0.13937618 -0.034667645 -0.06769142 0.1032547
0.10039984 0.06889397 0.012259192 0.008197947 0.2637694 -0.0010432146 -0.12217304 0.027519887
0.060024574 0.020620668 0.0299474 0.066794425 0.04127264 0.043734774 -0.07193591 0.07254631
0.03383882 -0.041112017 -0.045689136 0.072706036 0.04006816 -0.007684859 0.25856394 0.13328546
0.06502337 0.012392655 0.056345645 -0.52236706 0.026716769 0.03032765 -0.05297828 -0.3229425
0.033950895 0.050631285 0.06223869 -0.15506434 -0.05194227 -0.028170845 -0.022398327 -0.05471909
-0.040089685 -0.07145627 -0.058344085 -0.05581912 -0.06324041 -0.054287255 -0.05411448 0.05404156
-0.03307433 -0.026588868 -0.564422 0.05164992 -0.040130086 -0.017333498 -0.13413338 0.09089211
0.020810204 -0.063026235 0.020989737 -0.25874344 0.02486398 -0.017894711 0.008761925 -0.2982015
0.025701882 0.028330462 0.053786922 0.121871725 0.09085782 0.008436667 0.07916454 0.044182334
0.076724686 0.11514539 -0.044607498 0.08944392 0.0669026 0.05823374 -0.03659202 -0.06833965
0.13942488 0.0074504768 0.16684718 0.070376106 0.092794426 0.11947221 0.023066144 0.080590814
0.13399749 0.17706572 0.084820084 0.16937512 0.12290222 0.16359913 0.20242964 0.07166929
-0.069393925 0.05563562 -0.0013728538 0.0035477013 -0.07004079 -0.12350533 0.041088898 -0.12562507
-0.019408839 -0.048713148 0.007142316 0.06044404 -0.0047624907 -0.11257489 0.05170486 -0.044766873
-0.024465265 0.051691525 0.05356925 0.06163956 0.048935775 0.03404015 0.032345258 -0.19807199
-0.03247808 -0.025687115 -0.07403276 -0.046706125 0.00068478845 0.01903158 -0.08879948 -0.07946552
0.09128162 -0.06692591 -0.009039367 0.023594739 0.14484145 0.103701174 -0.03928465 -0.016492195
0.0040292167 0.108897984 0.065748364 0.19030291 0.05032403 0.071253 -0.062092517 0.1661164
00000000: 43f6 cd3b 79e4 2bbd 4afc 603d 0c6d 20bd
00000010: 3bae 753d 2871 81bd 1b50 98bc 5093 27bd
00000020: 956c ce3c 7372 52be c995 a3bd be39 1bbd
00000030: 7ce3 b3bd b549 1ebe f715 fdbd febd 15bd
00000040: 9dfa ccbd e36c 6cbc d88d 53bd ee7d 63bd
00000050: ec9b dcbd 2dde 4b3e 9bf0 79bd fa22 09be
00000060: b41e f03b 468c 533e 7342 1c3e dfa0 3ebd
00000070: 286e 953b 3805 87bd 8cd8 d5bc b4a3 c73d
00000080: ed37 5d3d 0789 aebd 540a ddbd 372e e33d
00000090: eb78 16bd 719b e6bd dd38 213d 4d62 7c3d
000000a0: 4ca3 96bc ef8b 433d 1120 ba3c 184d d73d
000000b0: 0129 fbbc a618 d63c 81b3 1f3c 28fa 27be
000000c0: 7127 bbbd 6068 f73d 0e18 aa3d de5a 263d
000000d0: 5539 b43d c5e1 03bd 5f64 00bd 6b76 3a3d
000000e0: 05fe 9b3d f632 b8bc 6810 983d 19a5 88bc
000000f0: 66e2 093d 255f 0d3d 329b 53bd 2ae3 463c
00000100: ea6d f53c 3053 bc3d bc07 c73c ddb0 093d
00000110: 4c7a 3dbd 6c81 aabb 2824 cf3c 79b7 a7bb
00000120: 1cb6 e83d bdd1 743d 0cce 0b3e fcb6 873d
00000130: ca56 953d 5584 783d b6a6 0cbd 5b34 9b3d
00000140: a3ef 573d 6e67 d23d 3fda 923d fa94 9abd
00000150: bd48 91bd 153b b33d 04e9 c4bd 3d73 ff3d
00000160: 9faa bfbc 857c 8dbd 1902 983c 58bc 513d
00000170: 3302 e5bc 3f0e 0dbe 3394 223d 506e 663c
00000180: b03b 273c 829d 86bd f389 75bc 9db8 31bc
00000190: 3f93 f83d ac1f b4bd 584e 833c b0f6 73bd
000001a0: a9bb 26bc a110 c0bd 21c6 873d 6195 8bbb
000001b0: a1b8 0e3e a9ff 0dbd cda1 8abd 3377 d33d
000001c0: 6e9e cd3d 4818 8d3d c7da 483c af50 063c
000001d0: c80c 873e 79bc 88ba dc35 fabd 6371 e13c
000001e0: 54dc 753d adec a83c 4054 f53c 84cb 883d
000001f0: 800d 293d 3c23 333d 2253 93bd 2993 943d
00000200: 939a 0a3d 1365 28bd 8824 3bbd e7e6 943d
00000210: 831e 243d 45d1 fbbb 7e62 843e fc7b 083e
00000220: f92a 853d 900a 4b3c b1ca 663d d9b9 05bf
00000230: 20dd da3c b171 f83c c1ff 58bd b858 a5be
00000240: 1810 0b3d c062 4f3d ffed 7e3d 30c9 1ebe
00000250: 6bc1 54bd 8bc6 e6bc b27c b7bc 2021 60bd
00000260: 1535 24bd aa57 92bd 35fa 6ebd 97a2 64bd
00000270: 3084 81bd 505c 5ebd 25a7 5dbd af5a 5d3d
00000280: f378 07bd e6d0 d9bc f67d 10bf de8e 533d
00000290: 725f 24bd fbfe 8dbc 435a 09be a425 ba3d
000002a0: 297a aa3c e613 81bd abf2 ab3c 057a 84be
000002b0: 8caf cb3c ee97 92bc 2d8e 0f3c dead 98be
000002c0: c18c d23c 4915 e83c ad4f 5c3d e297 f93d
000002d0: aa13 ba3d f239 0a3c 0521 a23d 89f8 343d
000002e0: d521 9d3d 59d1 eb3d 5ab6 36bd 602e b73d
000002f0: 3b04 893d 8186 6e3d 84e1 15bd a9f5 8bbd
00000300: 65c5 0e3e 2123 f43b fdd9 2a3e 5921 903d
00000310: 010b be3d d9ad f43d 36f5 bc3c cc0c a53d
00000320: a336 093e b750 353e 27b6 ad3d ac70 2d3e
00000330: 29b4 fb3d 8886 273e b749 4f3e 59c7 923d
00000340: 671e 8ebd 2de2 633d 54f1 b3ba 8d80 683b
00000350: 8c71 8fbd 5df0 fcbd d54c 283d dca3 00be
00000360: 49ff 9ebc 7087 47bd 170a ea3b 2b94 773d
00000370: ab0e 9cbb aa8d e6bd 7ac8 533d 785d 37bd
00000380: 616b c8bc 7eba 533d 6e6b 5b3d c379 7c3d
00000390: e170 483d af6d 0b3d 767c 043d 62d3 4abe
000003a0: bc07 05bd c96d d2bc 7d9e 97bd ec4e 3fbd
000003b0: 6083 333a 1ee8 9b3c 80dc b5bd d2be a2bd
000003c0: dcf1 ba3d 7410 89bd da19 14bc c149 c13c
000003d0: 5151 143e 4861 d43d f1e8 20bd a41a 87bc
000003e0: 8507 843b e805 df3d 14a7 863d c4de 423e
000003f0: 9220 4e3d 18ed 913d b954 7ebd 6b1a 2a3e

net.0.bias f4 [256]
-0.0528713 0.0129927285 0.04499941 0.036803056 0.041899737 0.0445453 0.030479046 -0.0050413087
0.056836255 0.054812744 0.030349294 -0.033632763 0.06600979 0.0040554814 0.11198833 0.06817467
0.08891171 0.08632262 0.05327785 0.042871933 0.090957746 0.032093864 -0.01874949 0.0059356773
0.030482957 0.03155719 -0.016544221 0.06125594 -0.02511779 0.0902094 0.042620957 -0.1066371
-0.03643447 0.09714366 0.08351951 0.040999647 -0.0015526646 0.13218646 0.07975407 0.03936883
0.0033305988 0.0373162 -0.04879158 0.06575309 -0.039572127 0.07308287 0.08506378 -0.063561894
-0.12734951 -0.070026636 0.10436774 -0.019514626 0.035969842 0.050343767 -0.06330477 0.05837302
-0.013362298 -0.024571517 -0.0076311575 -0.047457818 -0.08650304 0.047061764 -0.11355833 0.081311956
-0.012656888 0.07841251 -0.0599302 0.07244381 -0.049092915 0.037852887 0.005717638 0.024611244
-0.02652926 0.034146335 0.09415401 -0.095660135 0.22339043 0.0038503478 0.031865116 -0.018681461
-0.06507871 0.08194859 0.0645642 0.049751364 0.08016994 0.0044299024 0.16191009 0.06092445
0.05355334 -0.01838619 0.085958466 -0.07215221 -0.11410977 0.13088913 -0.04901241 0.00652726
-0.011823292 -0.013115635 -0.0813054 -0.067084596 -0.055559605 0.0071004275 -0.019440329 -0.014632698
-0.024833683 0.08360662 0.01984485 0.008806243 0.100533225 -0.06702724 0.06955639 0.04747448
0.0698341 0.26305166 0.07966716 -0.035563856 0.11746171 0.030439267 0.077213176 0.022743026
-0.00037938854 0.08501393 -0.11925001 0.0025987246 0.00590626 -0.224008 0.02670165 0.0851147
0.044329494 0.017480772 0.07824736 0.06340551 0.13555607 0.057239745 0.09222511 0.1006987
0.0519715 0.33422747 0.26417768 -0.018837707 0.042806532 -0.11053784 0.07722624 0.051329795
0.03599443 0.013987131 0.10658465 0.037337307 -0.056684885 0.20602344 0.10107788 0.009008409
-0.015388641 0.024795244 0.095718 -0.1050134 -0.038853593 0.027333327 0.096709006 0.067845546
0.070736445 0.0028254425 0.042221155 -0.14913239 0.0569305 -0.027153267 0.08909984 0.012715619
0.043729737 0.04388516 0.022021322 -0.12907721 -0.0188609 0.10733964 0.006485182 0.026134629
0.15788671 -0.03696194 0.15820959 0.011357147 0.018804248 0.032201447 0.15965378 -0.06774768
-0.13200709 0.05702774 -0.0029063066 0.14007506 0.11221418 0.0047175395 -0.0017154291 0.030714417
-0.022625444 0.009381863 -0.08875062 -0.019225033 0.06910708 0.055225678 0.082231194 0.006290384
0.025573907 0.018426241 0.092869036 0.10726373 0.06441775 0.089757316 -0.20487691 0.07115318
-0.036968138 0.09218263 -0.0069804047 0.093399286 -0.061876614 0.070403606 0.05816883 0.053394478
-0.050292835 -0.068418674 0.007605163 0.09359951 0.01943348 0.048652202 0.034251716 -0.054457247
0.02405638 0.05700454 0.04495263 -0.000749472 0.036268212 -0.010584715 0.032295085 0.07955748
0.09258293 -0.022666156 0.10936235 0.29295835 -0.010985748 0.06319621 0.05692296 -0.05202257
-0.06859605 0.008169581 0.0028110098 0.039327882 -0.021881852 0.11153992 0.033393607 0.06497021
0.05433935 0.017165396 0.034736715 0.13740914 -0.06201538 0.021284008 0.082650125 0.020576363
00000000: 948f 58bd 74df 543c 4d51 383d cdbe 163d
00000010: 0f9f 2b3d 2275 363d 31af f93c 9031 a5bb
00000020: 22cd 683d 5483 603d 159f f83c 82c2 09bd
00000030: 2430 873d d8e3 843b 235a e53d 299f 8b3d
00000040: 5817 b63d eac9 b03d e039 5a3d 7b9a 2f3d
00000050: 0e48 ba3d db74 033d 8898 99bc 1280 c23b
00000060: 65b7 f93c 1d42 013d bf87 87bc 82e7 7a3d
00000070: d3c3 cdbc b5bf b83d 5093 2e3d 8d64 dabd
00000080: 503c 15bd 41f3 c63d 470c ab3d 3fef 273d
00000090: c782 cbba e35b 073e 1a56 a33d 3641 213d
000000a0: 2d46 5a3b dfd8 183d aed9 47bd 8ea9 863d
000000b0: 6216 22bd 79ac 953d eb35 ae3d bd2c 82bd
000000c0: e967 02be 206a 8fbd c1be d53d 23dd 9fbc
000000d0: 1d55 133d 4435 4e3d eea5 81bd 8c18 6f3d
000000e0: 8aed 5abc 354a c9bc ca0e fabb 2163 42bd
000000f0: 8128 b1bd d6c3 403d 4591 e8bd e286 a63d
00000100: d65e 4fbc bd96 a03d 5f79 75bd 6c5d 943d
00000110: a715 49bd a10b 1b3d 065b bb3b 859d c93c
00000120: e453 d9bc 07dd 0b3d d1d3 c03d 76e9 c3bd
00000130: 76c0 643e 1e56 7c3b ff84 023d dd09 99bc
00000140: fd47 85bd aad4 a73d 3c3a 843d 16c8 4b3d
00000150: 2330 a43d b728 913b c2cb 253e eb8b 793d
00000160: bf5a 5b3d a39e 96bc fe0a b03d 8ac4 93bd
00000170: 62b2 e9bd cd07 063e 3dc1 48bd a0e2 d53b
00000180: 7bb6 41bc f6e2 56bc 7283 a6bd a663 89bd
00000190: 7892 63bd b4aa e83b 5341 9fbc fcbd 6fbc
000001a0: 0270 cbbc f339 ab3d ab91 a23c 0f48 103c
000001b0: 5de4 cd3d 9445 89bd 9573 8e3d 9a74 423d
000001c0: 2e05 8f3d b5ae 863e 8928 a33d 68ab 11bd
000001d0: c48f f03d c55b f93c f121 9e3d 954f ba3c
000001e0: abe8 c6b9 c91b ae3d 5939 f4bd 5d4f 2a3b
000001f0: 4d89 c13b 5a62 65be 6bbd da3c 9e50 ae3d
00000200: d892 353d d633 8f3c 2740 a03d bfda 813d
00000210: 36cf 0a3e 3974 6a3d 85e0 bc3d 1f3b ce3d
00000220: 11e0 543d dd1f ab3e 4c42 873e 8951 9abc
00000230: e755 2f3d aa61 e2bd ca28 9e3d 313f 523d
00000240: e56e 133d 482a 653c 0e49 da3d 01ef 183d
00000250: 692e 68bd cff7 523e eb01 cf3d 0298 133c
00000260: a320 7cbc 651f cb3c cc07 c43d 4411 d7bd
00000270: f224 1fbd 24ea df3c 5f0f c63d 9bf2 8a3d
00000280: 45de 903d 0f2b 393b 17f0 2c3d 29b6 18be
00000290: f52f 693d 8770 debc fa79 b63d 2c55 503c
000002a0: f41d 333d edc0 333d 0f66 b43c d12c 04be
000002b0: 2d82 9abc e3d4 db3d a681 d43b 4a18 d63c
000002c0: 0ead 213e 6765 17bd b201 223e 5413 3a3c
000002d0: 5e0b 9a3c aae5 033d 487c 233e 4cbf 8abd
000002e0: de2c 07be eb95 693d bc77 3ebb d66f 0f3e
000002f0: 8cd0 e53d 9795 9a3b 40d8 e0ba cd9c fb3c
00000300: ff58 b9bc 63b6 193c e3c2 b5bd d17d 9dbc
00000310: 0388 8d3d 5234 623d d468 a83d 911f ce3b
00000320: 5f80 d13c a1f2 963c 1f32 be3d 16ad db3d
00000330: 74ed 833d afd2 b73d 41cb 51be c2b8 913d
00000340: e76b 17bd 3fca bc3d e1bb e4bb 2048 bf3d
00000350: 5572 7dbd c42f 903d 7042 6e3d 2bb4 5a3d
00000360: dcff 4dbd 171f 8cbd bb34 f93b 1ab1 bf3d
00000370: f632 9f3c 8847 473d 874b 0c3d 900e 5fbd
00000380: e311 c53c 987d 693d 4020 383d 3778 44ba
00000390: fa8d 143d 836b 2dbc da47 043d 08ef a23d
000003a0: 1f9c bd3d 60ae b9bc 5ef9 df3d a3fe 953e
000003b0: 91fd 33bc 046d 813d 0d28 693d 9e15 55bd
000003c0: 167c 8cbd b5d9 053c eb38 383b 4616 213d
000003d0: 9241 b3bc 0b6f e43d bcc7 083d 1a0f 853d
000003e0: f092 5e3d 729e 8c3c 1648 0e3d fbb4 0c3e
000003f0: d703 7ebd cd5b ae3c 7844 a93d c38f a83c

net.2.weight f4 [32, 256]
0.08886049 0.016102104 0.075107105 -0.08921986 -0.029289274 -0.11371854 0.086150765 0.10523378
0.029839318 0.10651939 -0.03597659 -0.14320526 0.09149112 -0.04387027 -0.11258467 -0.095887
0.048912406 -0.14114717 -0.03405293 0.022253092 0.02505344 0.05347305 0.061184138 -0.06390471
0.069576114 -0.02805353 -0.045751773 -0.06130944 -0.089856565 -0.15114436 0.10545368 -0.08464003
-0.05981838 0.06146354 -0.029251188 -0.038900003 -0.014115671 0.06481595 0.05934227 -0.045616984
-0.103398085 -0.031002136 0.15775277 -0.028149102 0.14688314 0.17749652 0.0600379 -0.1261151
0.0072646616 -0.069585636 -0.050325766 0.09083138 0.068796985 -0.07741748 -0.09299883 0.052877303
0.15180716 0.08005759 0.1086693 -0.030295685 -0.18685049 0.0035046395 -0.00923045 -0.119994804
0.015173604 0.10494607 -0.040967792 0.030609729 -0.1494498 0.12491573 0.041748825 -0.061214756
-0.078696474 0.1337211 0.025012227 -0.09631017 0.13928443 -0.042274326 -0.009594373 -0.08985386
-0.073317595 0.011721757 -0.11192055 0.0026977733 0.087864265 0.09106911 0.059864018 0.078785844
-0.004928806 -0.049199104 0.09237316 -0.025765058 -0.031835422 -0.016465303 -0.0039972123 0.17355967
0.0035010919 -0.12619154 0.06694112 0.07512094 -0.12842152 0.073613554 0.2128051 -0.019882943
0.07366338 -0.025794473 -0.13899274 0.13550098 0.0029089083 -0.012060072 -0.008655946 0.028267672
-0.0135894 0.07787769 -0.08324429 0.05936013 0.03498039 0.11668033 0.070555404 0.03853693
0.1278055 0.065064885 -0.09372463 -0.07149099 0.027730206 -0.0125506 0.03919249 -0.085483454
-0.11334884 -0.12716894 -0.07043541 -0.11845042 0.12821954 -0.16720754 -0.052428633 0.09415818
0.08481726 0.018734807 -0.06074117 -0.010579564 -0.08332202 -0.15406415 -0.07301965 -0.10843597
0.14198205 -0.019354502 0.10146154 0.094615705 -0.04286302 -0.096916705 -0.13745183 0.12746873
-0.012237002 -0.025097968 -0.16109349 -0.01973939 0.06110406 -0.019770397 0.15732047 0.054866802
0.049498275 -0.02570663 0.03948322 -0.06570609 -0.13007094 -0.008816415 0.07412438 0.04317709
0.034509003 -0.017905366 0.044312358 -0.17232049 0.05645551 -0.008725954 -0.03225202 0.04649231
-0.026734995 0.0036295447 0.09830811 -0.044235565 0.111462384 -0.114077725 -0.058136124 0.06299114
0.026640298 0.062530175 -0.1502427 -0.042276286 0.07483274 0.010982704 0.12028509 -0.117257185
0.0618317 0.11964188 -0.009196016 0.14164223 -0.0039486946 0.12257273 0.1062583 0.047760077
-0.08436611 0.11936347 0.034336038 -0.12976457 -0.007974498 0.014371876 -0.019606568 -0.0074322606
0.09009971 0.15586625 0.07337299 0.06507088 0.022357577 -0.040509317 0.16020444 -0.0112372
0.14903265 0.16392109 0.037843026 0.17691924 -0.051948275 -0.09687032 -0.107252076 0.13853659
-0.115109965 0.09048995 -0.14036894 -0.08064241 0.07121804 -0.09890636 0.041170597 -0.039799687
-0.00902698 0.031795807 0.012722524 0.001237387 -0.025038818 -0.029647985 0.15919735 0.06465423
-0.088487715 0.07022116 -0.06347883 -0.09294379 -0.061855078 0.11792178 -0.074488014 -0.0015944833
0.10427131 0.09488747 0.09415922 0.079806626 -0.024302527 -0.09096254 0.1361374 -0.03408157
00000000: 7dfc b53d 8fe8 833c c1d1 993d e7b8 b6bd
00000010: 0ff0 efbc 44e5 e8bd d06f b03d cf84 d73d
00000020: 9671 f43c d726 da3d 305c 13bd 66a4 12be
00000030: b25f bb3d 50b1 33bd cb92 e6bd 6760 c4bd
00000040: 6058 483d e288 10be 167b 0bbd 1e4c b63c
00000050: df3c cd3c 8f06 5b3d 389c 7a3d 79e0 82bd
00000060: ec7d 8e3d 84d0 e5bc 3666 3bbd 9b1f 7bbd
00000070: b806 b8bd 96c5 1abe 19f8 d73d c157 adbd
00000080: 1e04 75bd 31c1 7b3d 30a0 efbc 9c55 1fbd
00000090: 6a45 67bc 3abe 843d e110 733d e0d8 3abd
000000a0: 60c2 d3bd 31f8 fdbc f189 213e f298 e6bc
000000b0: 8968 163e a6c1 353e 4dea 753d 5124 01be
000000c0: 660c ee3b ea82 8ebd 6422 4ebd cd05 ba3d
000000d0: 6fe5 8c3d 0e8d 9ebd 2c76 bebd df95 583d
000000e0: 5673 1b3e 3cf5 a33d 038e de3d a82e f8bc
000000f0: bc55 3fbe 18ae 653b 503b 17bc d6bf f5bd
00000100: b59a 783c f7ed d63d d8cd 27bd 41c1 fa3c
00000110: 5e09 19be d1d3 ff3d d100 2b3d 53bc 7abd
00000120: 9e2b a1bd 2fee 083e 71e6 cc3c 443e c5bd
00000130: 94a0 0e3e d827 2dbd b831 1dbc 4d05 b8bd
00000140: 8927 96bd 9d0c 403c 9a36 e5bd 20cd 303b
00000150: 2ef2 b33d 7182 ba3d f933 753d 795a a13d
00000160: d281 a1bb 0085 49bd 242e bd3d 3e11 d3bc
00000170: dc65 02bd 3ee2 86bc 0cfb 82bb a0b9 313e
00000180: 9372 653b 5b38 01be 6d18 893d 02d9 993d
00000190: ee80 03be b4c2 963d 95e9 593e 8ee1 a2bc
000001a0: d4dc 963d ee4e d3bc 1d54 0ebe c5c0 0a3e
000001b0: 62a3 3e3b 9c97 45bc abd1 0dbc 9b91 e73c
000001c0: 13a6 5ebc 577e 9f3d fb7b aabd 9c23 733d
000001d0: 9947 0f3d 19f6 ee3d 5a7f 903d e6d8 1d3d
000001e0: 72df 023e bd40 853d b3f2 bfbd de69 92bd
000001f0: 752a e33c 08a1 4dbc 4e88 203d f311 afbd
00000200: 7023 e8bd 9338 02be 7140 90bd 2296 f2bd
00000210: fc4b 033e 7438 2bbe 68bf 56bd 01d6 c03d
00000220: acb4 ad3d bd79 993c bccb 78bd e855 2dbc
00000230: bca4 aabd fec2 1dbe 548b 95bd ae13 debd
00000240: be63 113e 558d 9ebc 11cb cf3d e1c5 c13d
00000250: 2291 2fbd 447c c6bd 2cc0 0cbe 2a87 023e
00000260: b57d 48bc 419a cdbc b1f5 24be 80b4 a1bc
00000270: 4048 7a3d 87f5 a1bc 9e18 213e 03bc 603d
00000280: b4be 4a3d b696 d2bc 28b9 213d ea90 86bd
00000290: 5131 05be ba72 10bc 86ce 973d 76da 303d
000002a0: 5059 0d3d 46ae 92bc e080 353d c874 30be
000002b0: e53d 673d 4ef7 0ebc b21a 04bd b86e 3e3d
000002c0: 5903 dbbc a8dd 6d3b c355 c93d 5a30 35bd
000002d0: 6446 e43d 95a1 e9bd 2520 6ebd 8001 813d
000002e0: c13c da3c d20f 803d 39d9 19be e629 2dbd
000002f0: e841 993d cdf0 333c 0758 f63d 8924 f0bd
00000300: 3d43 7d3d cd06 f53d e3aa 16bc a90a 113e
00000310: 0d64 81bb 6907 fb3d f49d d93d 12a0 433d
00000320: 24c8 acbd d674 f43d f2a3 0c3d 01e1 04be
00000330: 78a7 02bc 0478 6b3c f49d a0bc 528a f3bb
00000340: 3286 b83d 679b 1f3e 9444 963d e243 853d
00000350: 3d27 b73c 19ed 25bd a20c 243e 3c1c 38bc
00000360: 049c 183e eeda 273e 4a01 1b3d 512a 353e
00000370: b7c7 54bd f263 c6bd faa6 dbbd 89dc 0d3e
00000380: c6be ebbd cb52 b93d e0bc 0fbe d927 a5bd
00000390: c4da 913d 6b8f cabd 80a2 283d ff04 23bd
000003a0: e6e5 13bc 523c 023d 2272 503c d12f a23a
000003b0: 351e cdbc 55e0 f2bc a104 233e 7069 843d
000003c0: 0c39 b5bd 1dd0 8f3d 3001 82bd 5059 bebd
000003d0: c05b 7dbd f980 f13d 2c8d 98bd fbfd d0ba
000003e0: 328c d53d 5d54 c23d 8dd6 c03d a871 a33d
000003f0: 1816 c7bc 914a babd 9a67 0b3e 1e99 0bbd

net.2.bias f4 [32]
0.057677057 -0.0064847353 0.34813434 -0.08134658 0.052753747 0.17811471 -0.042374868 -0.0062769293
-0.083444595 0.047669966 -0.05981472 0.027102055 0.07351362 0.41308618 -0.026037507 -0.035991754
0.00026559358 -0.06038197 -0.321638 -0.12594332 0.02581335 0.12112723 -0.19587514 0.05549773
-0.02437394 0.2109328 0.10300344 -0.03741338 0.16472313 0.031049091 -0.02133623 0.05384542
00000000: c73e 6c3d e77d d4bb aa3e b23e 0999 a6bd
00000010: 5014 583d b463 363e 4591 2dbd b3ae cdbb
00000020: 00e5 aabd 9541 433d 4800 75bd 2105 de3c
00000030: 4f8e 963d 0880 d33e 9c4c d5bc 176c 13bd
00000040: 5e3f 8b39 1653 77bd bcad a4be 49f7 00be
00000050: 8576 d33c 8e11 f83d 7e93 48be 9651 633d
00000060: dbab c7bc c5fe 573e 78f3 d23d c63e 19bd
00000070: 2ead 283e aa5a fe3c 51c9 aebc 048d 5c3d

net.4.weight f4 [32, 32]
0.27256882 -0.0819599 0.07796278 0.16719705 0.32966304 0.38967058 -0.12862128 -0.1409708
-0.34860405 0.254203 -0.29640028 -0.16107973 -0.37143093 -0.00662977 0.19233303 -0.22041664
-0.07185284 0.23079392 -0.2614369 -0.017081697 0.40391463 0.3238618 -0.03985123 0.05415173
0.34302765 -0.17303723 -0.16938543 -0.19710696 0.14176673 -0.19959539 -0.20354775 0.3569417
0.027889078 -0.026023826 0.2538902 -0.19913849 -0.31384316 0.29318535 0.17909431 -0.058213238
-0.08989041 0.10119053 0.22599016 -0.049097516 -0.056765348 0.23998909 -0.23306265 -0.14076184
0.030090272 0.17846325 -0.19759984 -0.2995261 -0.12307372 -0.09427532 -0.4774516 0.2035479
0.079785526 0.3300907 -0.31584397 -0.16702487 0.06318263 0.088341884 0.014295705 -0.35902354
-0.33825123 0.230496 -0.10541127 -0.3559618 -0.058564436 -0.08766255 -0.14813744 0.031158933
0.17064644 -0.74303424 0.044167306 0.62777203 0.55466616 -0.5288959 -0.31165782 0.26719043
-0.029902054 0.04195431 -0.10368991 0.6664429 -0.542805 -0.2774655 -0.051994607 0.39424
-0.25217932 0.075258546 0.045626044 0.23068732 -0.19531502 0.12477738 0.6300138 -0.48098302
0.20940445 -0.14441566 -0.2861697 -0.29325888 -0.08206551 0.20162906 -0.20525584 0.02044168
-0.16564916 0.031432968 0.21192731 -0.28876045 -0.26791584 0.29704055 0.13708171 -0.19961153
-0.11227482 -0.21930991 -0.43809333 -0.19618946 -0.2978938 0.036961183 -0.14278969 0.28036833
0.042001806 0.22776319 -0.20738597 -0.25775012 0.06501995 0.21589987 -0.10595122 0.03806654
0.08547127 0.13786371 0.069194265 -0.12972954 -0.28125522 -0.3151808 0.2123591 -0.0642303
0.031485107 0.10755974 0.14605595 -0.0042101545 0.1476179 0.21502273 0.007391735 0.30204487
0.004191566 0.24425416 0.07740451 0.21893172 0.14601414 -0.1413328 0.13319147 -0.23751582
-0.3966733 0.31482476 0.12425083 -0.11115487 0.14045945 0.11908234 0.41801187 -0.29471236
-0.018376293 0.041857015 0.100298055 -0.0581471 -0.27639383 -0.048086874 0.24513517 0.01573228
-0.0061296993 -0.13924249 0.12217491 0.2957754 0.23921916 0.06320016 -0.014683191 0.23102441
-0.27858803 -0.313996 -0.21407253 -0.29926348 -0.032905813 0.10441003 0.14222479 0.33505163
-0.25919744 0.40301982 0.02703461 0.10537337 -0.059955023 0.011135823 0.109685294 -0.36551797
-0.21646608 0.080278546 -0.15604104 0.16583131 -0.0024000574 -0.23045401 -0.059134014 -0.2803672
-0.11345372 0.0762375 0.19006592 0.0045868764 0.0338655 0.06963995 -0.26664883 -0.19591407
0.29216272 0.25839832 0.014267772 -0.047604807 -0.2393787 -0.1135416 -0.054817703 0.049351234
0.10918866 0.23813477 0.3171849 0.114301 0.11696621 -0.21304053 0.3111746 -0.1609698
-0.15506631 0.040717505 0.22545372 0.19983825 0.09036917 -0.12224513 -0.18257555 0.034097962
-0.21862966 0.22957367 -0.29048333 0.118216224 0.14141956 0.4730764 0.24741448 0.05239726
0.098618254 -0.24813306 -0.41516167 -0.14683723 0.034812484 0.23327082 0.09929654 -0.00061065826
-0.3510055 0.15901376 -0.20119686 0.0006806915 -0.24165057 0.23733476 0.11038494 0.09350642
00000000: 248e 8b3e 98da a7bd f3aa 9f3d b435 2b3e
00000010: 98c9 a83e e782 c73e 4cb5 03be a65a 10be
00000020: 3b7c b2be e526 823e c7c1 97be 16f2 24be
00000030: 322c bebe 8b3e d9bb f3f2 443e e6b4 61be
00000040: 9527 93bd 3e55 6c3e 0fdb 85be eaee 8bbc
00000050: e6cd ce3e 37d1 a53e 0b3b 23bd 34ce 5d3d
00000060: 52a1 af3e ac30 31be 6073 2dbe 68d6 49be
00000070: 4c2b 113e bc62 4cbe d26e 50be 10c1 b63e
00000080: a377 e43c eb2f d5bc e5fd 813e f6ea 4bbe
00000090: 0db0 a0be 641c 963e 8064 373e 0171 6ebd
000000a0: 7718 b8bd fb3c cf3d f769 673e 7a1a 49bd
000000b0: c882 68bd b3bf 753e faa7 6ebe df23 10be
000000c0: e07f f63c 12bf 363e 9d57 4abe 7c5b 99be
000000d0: 130e fcbd 6b13 c1bd 8974 f4be dc6e 503e
000000e0: 9866 a33d a601 a93e 4db6 a1be 9108 2bbe
000000f0: e565 813d 97ec b43d 8838 6a3c efd1 b7be
00000100: 442f adbe 2507 6c3e dde1 d7bd a040 b6be
00000110: 43e1 6fbd 6c88 b3bd 57b1 17be 0541 ff3c
00000120: f1bd 2e3e 7e37 3ebf c7e8 343d abb5 203f
00000130: 9afe 0d3f b965 07bf 9d91 9fbe 2fcd 883e
00000140: 27f5 f4bc 48d8 2b3d 605b d4bd 009c 2a3f
00000150: 45f5 0abf f50f 8ebe 4cf8 54bd d3d9 c93e
00000160: a61d 81be 2721 9a3d 60e2 3a3d 4c39 6c3e
00000170: a900 48be 488b ff3d 9648 213f 6843 f6be
00000180: 1f6e 563e b3e1 13be d684 92be 0726 96be
00000190: f611 a8bd d977 4e3e 962e 52be 4f75 a73c
000001a0: ef9f 29be dbbf 003d 7903 593e 69d8 93be
000001b0: 442c 89be b315 983e 265f 0c3e f766 4cbe
000001c0: 57f0 e5bd c792 60be c54d e0be e4e5 48be
000001d0: 8985 98be 9c64 173d 7637 12be 708c 8f3e
000001e0: 160a 2c3d c13a 693e fd5c 54be d3f7 83be
000001f0: 2e29 853d db14 5d3e f4fc d8bd a9eb 1b3d
00000200: 900b af3d 252c 0d3e b9b5 8d3d d2d7 04be
00000210: af00 90be 615f a1be aa74 593e 2d8b 83bd
00000220: 87f6 003d 4848 dc3d b18f 153e 56f5 89bb
00000230: 2629 173e eb2e 5c3e 5e36 f23b a0a5 9a3e
00000240: 6759 893b c31d 7a3e 4186 9e3d a32f 603e
00000250: bb84 153e 8cb9 10be 5863 083e 5937 73be
00000260: c318 cbbe b630 a13e 3877 fe3d 2aa5 e3bd
00000270: 9ad4 0f3e 71e1 f33d a705 d63e 8ae4 96be
00000280: e189 96bc 4372 2b3d 1169 cd3d a72b 6ebd
00000290: 7e83 8dbe bef6 44bd b704 7b3e fce0 803c
000002a0: a5db c8bb 9595 0ebe d736 fa3d e06f 973e
000002b0: def5 743e 166f 813d c491 70bc aa91 6c3e
000002c0: 17a3 8ebe 15c4 a0be d435 5bbe 1039 99be
000002d0: 3fc8 06bd edd4 d53d 60a3 113e e38b ab3e
000002e0: 87b5 84be 9d58 ce3e b077 dd3c fecd d73d
000002f0: 6693 75bd 0773 363c afa2 e03d 2c25 bbbe
00000300: 49a9 5dbe 1469 a43d 39c9 1fbe afcf 293e
00000310: 484a 1dbb 23fc 6bbe 8236 72bd 4a8c 8fbe
00000320: 6d5a e8bd 6822 9c3d a4a0 423e 824d 963b
00000330: 8db6 0a3d 649f 8e3d 3286 88be b39d 48be
00000340: 5a96 953e c94c 843e 60c3 693c 42fd 42bd
00000350: b11f 75be 8088 e8bd 8788 60bd 8524 4a3d
00000360: 4e9e df3d 9ad9 733e 0f66 a23e a516 ea3d
00000370: fb8b ef3d 4c27 5abe 4752 9f3e 44d5 24be
00000380: b4c9 1ebe 66c7 263d 57dd 663e 66a2 4c3e
00000390: 7913 b93d a85b fabd 16f5 3abe 4eaa 0b3d
000003a0: 74e0 5fbe 5c15 6b3e 3bba 94be 591b f23d
000003b0: 4ad0 103e 1237 f23e 395a 7d3e 829e 563d
000003c0: 5ef8 c93d 9816 7ebe 1290 d4be 805c 16be
000003d0: 8997 0e3d 8cde 6e3e fc5b cb3d 9514 20ba
000003e0: feb6 b3be 81d4 223e 8d06 4ebe 6f70 323a
000003f0: 3f73 77be e207 733e 8011 e23d 4b80 bf3d

net.4.bias f4 [32]
0.076857135 0.07091804 -0.29997995 0.07742468 0.030741092 0.10802716 0.008987498 0.07206137
-0.065082245 -0.1309969 -0.040756702 -0.010391492 -0.08009225 -0.27055147 0.019645711 0.01686122
-0.033608768 0.103466704 -0.051785734 0.017543668 0.010806356 -0.004242265 0.015643911 0.030420637
0.04280175 0.03882378 -0.17108914 0.08204008 0.08773654 0.038216952 0.06324926 0.104150616
00000000: 4667 9d3d 7a3d 913d f996 99be d590 9e3d
00000010: bed4 fb3c 583d dd3d 4c40 133c e994 933d
00000020: d749 85bd 0d24 06be 80f0 26bd 1441 2abc
00000030: 6807 a4bd b985 8abe 0bf0 a03c 8b20 8a3c
00000040: 59a9 09bd 5ae6 d33d 471d 54bd bdb7 8f3c
00000050: 240d 313c b302 8bbb a927 803c b334 f93c
00000060: e350 2f3d af05 1f3d fe31 2fbe a104 a83d
00000070: 37af b33d 6189 1c3d d488 813d eb4c d53d

net.6.weight f4 [1, 32]
-0.70742923 0.95655733 -0.35343865 -0.8485622 0.3577921 0.27019477 0.25417006 -0.13456036
0.21333437 0.5208668 0.30792403 -0.44243023 -0.39757246 0.582876 0.3627599 0.7035766
-0.018444726 0.39617354 -0.32376012 -0.19346331 0.09910127 0.23267338 0.12637912 -0.16612975
0.6515076 0.47749528 -0.5026535 0.70879114 -0.6149567 -0.7195274 0.46351936 0.5193743
00000000: 151a 35bf f1e0 743f e9f5 b4be 5f3b 59bf
00000010: 8730 b73e f856 8a3e 9422 823e 31ca 09be
00000020: 5374 5a3e 8757 053f 38a8 9d3e 3786 e2be
00000030: 9e8e cbbe 5d37 153f aabb b93e 991d 343f
00000040: 6519 97bc 42d7 ca3e e3c3 a5be 3f1b 46be
00000050: 9bf5 ca3d ee41 6e3e 8769 013e eb1d 2abe
00000060: 34c9 263f 437a f43e e6ad 00bf 5673 353f
00000070: cd6d 1dbf f332 38bf 6952 ed3e b7f5 043f

exp_avg f4 [256, 120]
-2.9189812e-06 -1.9746915e-06 -1.1326168e-06 1.5742043e-07 -9.76416e-06 -5.365741e-06 -6.467084e-06 -1.3281304e-05
2.8028671e-05 -4.9435944e-06 -1.1933797e-06 -5.389037e-06 4.504649e-06 -6.4577184e-06 -1.830327e-07 8.632452e-07
3.093359e-07 -1.3624547e-05 5.6685544e-06 -1.3647281e-05 3.6237223e-06 -6.2692743e-07 2.4089417e-05 1.5709486e-05
1.3037091e-05 7.4603213e-06 1.4879075e-05 3.4242734e-05 1.4583891e-05 7.084335e-06 -1.3612718e-05 1.4103281e-05
2.2229808e-06 2.8964552e-05 -1.42124745e-05 5.350218e-06 2.2431166e-06 9.626639e-06 1.0537834e-05 1.8443425e-05
-1.6368782e-05 1.0648458e-05 3.2459936e-06 1.2664501e-05 -9.83857e-07 1.745786e-05 -5.5187e-07 -7.867517e-06
-7.865027e-06 1.5358914e-06 -3.0592355e-06 -5.9970967e-06 -3.9318547e-07 -2.0282375e-06 -4.239834e-06 -5.110184e-06
6.2210506e-07 -1.4197133e-06 -4.511232e-06 2.7006163e-07 -2.757464e-06 -1.8360894e-06 -1.9585773e-06 -9.832098e-07
-3.867749e-06 -6.46967e-07 -4.529065e-06 -1.3126213e-06 -1.1190473e-06 -4.5051024e-06 -4.4421736e-06 -2.6334278e-06
-5.3533216e-07 -1.7639636e-06 -2.6817502e-06 -1.7487503e-06 -2.951031e-06 -1.1919753e-06 -3.5360981e-06 -2.9552136e-06
-1.8327892e-06 -2.4176247e-06 -2.6088667e-06 -2.8468103e-06 -2.4517456e-06 -1.8342555e-06 -2.454598e-06 -2.287147e-06
-2.2928818e-06 -2.1407657e-06 -2.2669753e-06 -2.4397132e-06 -2.42615e-06 -2.315538e-06 -2.2928587e-06 -2.4761882e-06
-2.5728987e-06 -1.5848276e-06 -1.9794852e-06 -2.3607276e-06 -1.8684534e-06 -2.738165e-06 -3.158596e-06 -2.7088026e-06
-1.5084095e-06 -2.847334e-07 -1.0576113e-06 -3.5101239e-06 -1.8069985e-06 -4.0959662e-06 -2.4910112e-06 -4.3961163e-06
-4.394034e-06 -1.857551e-06 -4.2596266e-06 -1.3832398e-06 3.044949e-06 -3.502712e-07 -3.3485717e-06 -9.759398e-07
-1.0956099e-05 1.280353e-07 -1.352105e-06 -8.575967e-06 1.1353845e-06 -2.5971497e-06 -7.3552123e-06 6.010497e-08
-5.48905e-06 6.347668e-06 -2.3990146e-06 1.1314594e-06 1.0068465e-05 1.6591954e-05 1.0942645e-05 -3.2751623e-06
-1.0802268e-05 -2.791991e-06 1.9730818e-05 -8.1256235e-07 1.103208e-05 1.360316e-05 2.5686651e-05 1.4240626e-07
2.9096302e-05 -1.5851447e-06 2.0172163e-05 1.0185383e-05 6.276391e-07 5.063241e-06 1.3202393e-05 2.9691819e-05
2.1233382e-05 -3.553792e-06 1.4419714e-05 1.6706073e-05 1.3876373e-06 2.2137561e-05 -2.6144555e-06 1.3148037e-05
-1.3545819e-05 2.9581239e-05 -3.6771805e-06 3.7245132e-05 1.2381203e-05 -9.505347e-06 -7.0771007e-06 4.133278e-06
-5.7135935e-06 -1.2205234e-05 -5.25503e-06 -4.202345e-06 2.417581e-06 -6.483412e-06 1.6201222e-06 -2.6244059e-06
-3.2810642e-06 -7.506381e-06 -5.0830563e-06 -5.1641327e-06 -4.397339e-06 -2.3737732e-06 -5.266878e-06 -2.6261544e-06
-4.003345e-06 -1.7005733e-06 -7.547222e-06 -3.8382764e-06 -1.0322287e-06 -1.309041e-06 -1.5611031e-06 -6.1515902e-06
-4.3321465e-06 -2.639495e-06 -4.0661566e-06 -4.2447327e-06 -4.7504886e-06 -3.956662e-06 -5.1532284e-06 -5.8973615e-06
-4.492205e-06 -4.6458554e-06 -4.491323e-06 -4.071578e-06 -4.7593358e-06 -4.6349514e-06 -4.70139e-06 -4.4798912e-06
-4.2392453e-06 -2.8888917e-06 -3.5620794e-06 -4.3324276e-06 -4.7539556e-06 -3.4348373e-06 -5.3633294e-06 -4.0805394e-06
-4.7987583e-06 -2.6900782e-06 -5.4993984e-06 -4.4610133e-06 -4.051588e-06 -3.011119e-06 -7.4650137e-07 -7.73151e-06
-4.267375e-06 -2.322184e-06 -2.088078e-06 -3.2256517e-06 -1.986344e-06 -8.132481e-06 -4.383459e-06 -7.722531e-06
-1.0297352e-06 -5.9459944e-06 -8.163532e-06 -3.7955838e-06 5.39277e-07 -3.251456e-06 -4.4459252e-06 -6.5758363e-06
5.812167e-06 2.1390122e-06 5.8058176e-06 4.9083333e-06 -5.2020446e-06 1.2949991e-05 8.337511e-06 9.07151e-06
-2.5009216e-05 2.2014694e-06 -1.1966749e-07 1.728346e-06 4.242465e-06 -1.0872282e-05 -1.2979044e-06 -1.0473025e-05
00000000: b7e3 43b6 f184 04b6 6b04 98b5 6607 2934
00000010: bfd0 23b7 5d0b b4b6 d4ff d8b6 c4d2 5eb7
00000020: 1d1f eb37 27e1 a5b6 372c a0b5 7ad3 b4b6
00000030: a426 9736 61af d8b6 a587 44b4 c2b9 6735
00000040: cd12 a634 fc94 64b7 8334 be36 a0f6 64b7
00000050: 132f 7336 204a 28b5 a113 ca37 ddc7 8337
00000060: e1b9 5a37 ac53 fa36 24a1 7937 db9f 0f38
00000070: 56ad 7437 f9b5 ed36 2e62 64b7 219d 6c37
00000080: 852e 1536 e7f8 f237 1d72 6eb7 0686 b336
00000090: 7388 1636 1a82 2137 a7cb 3037 f4b6 9a37
000000a0: b14f 89b7 c7a6 3237 bfd5 5936 9e79 5437
000000b0: 120d 84b5 7872 9237 3824 14b5 bafe 03b7
000000c0: 09f4 03b7 d424 ce35 444d 4db6 ab3a c9b6
000000d0: 0017 d3b4 db1c 08b6 e643 8eb6 2578 abb6
000000e0: bcfe 2635 fa8c beb5 305f 97b6 fdfc 9034
000000f0: df0c 39b6 8d6f f6b5 1a70 03b6 d5f6 83b5
00000100: b6c7 81b6 3cab 2db5 5ff8 97b6 532d b0b5
00000110: 2c32 96b5 892a 97b6 fb0d 95b6 f2b9 30b6
00000120: bfb3 0fb5 54c1 ecb5 1ef8 33b6 9ab6 eab5
00000130: 540a 46b6 f6fb 9fb5 b44d 6db6 2f52 46b6
00000140: 28fe f5b5 7a3e 22b6 fd13 2fb6 d40b 3fb6
00000150: ab88 24b6 8a30 f6b5 acb9 24b6 e37c 19b6
00000160: 69df 19b6 13aa 0fb6 5722 18b6 f4b9 23b6
00000170: f1d0 22b6 a464 1bb6 03df 19b6 972c 26b6
00000180: 10aa 2cb6 43b6 d4b5 4cd7 04b6 fe6c 1eb6
00000190: 92c7 fab5 51c1 37b6 44f8 53b6 e0c8 35b6
000001a0: 8e74 cab5 76dd 98b4 3ff3 8db5 788f 6bb6
000001b0: ff87 f2b5 1570 89b6 3f2b 27b6 5a82 93b6
000001c0: 7770 93b6 f750 f9b5 eaed 8eb6 c2a7 b9b5
000001d0: d357 4c36 e80c bcb4 06b8 60b6 09fd 82b5
000001e0: 16d0 37b7 137a 0934 f979 b5b5 7fe1 0fb7
000001f0: 8463 9835 b14a 2eb6 cbcc f6b6 0f13 8133
00000200: 952e b8b6 0efe d436 c2fe 20b6 a6dc 9735
00000210: baeb 2837 f32e 8b37 4d96 3737 dcca 5bb6
00000220: 633b 35b7 0a5e 3bb6 9c83 a537 dc1e 5ab5
00000230: 6c16 3937 2139 6437 aa79 d737 56e8 1834
00000240: d513 f437 28c1 d4b5 6437 a937 e3e1 2a37
00000250: 087b 2835 e9e4 a936 d97f 5d37 b212 f937
00000260: 571e b237 af7d 6eb6 33ec 7137 0524 8c37
00000270: db3e ba35 0db4 b937 0174 2fb6 6496 5c37
00000280: d942 63b7 3a25 f837 7bc5 76b6 a837 1c38
00000290: ddb8 4f37 2879 1fb7 d577 edb6 96b0 8a36
000002a0: 65b7 bfb6 15c5 4cb7 5d54 b0b6 de01 8db6
000002b0: ba3d 2236 168c d9b6 fa72 d935 f31e 30b6
000002c0: 4130 5cb6 52df fbb6 1f8f aab6 9047 adb6
000002d0: db8c 93b6 1d4d 1fb6 23ba b0b6 fd3c 30b6
000002e0: 7954 86b6 413f e4b5 253e fdb6 8bca 80b6
000002f0: 1c8b 8ab5 4eb2 afb5 1887 d1b5 c269 ceb6
00000300: db5c 91b6 2e22 31b6 0570 88b6 fa6d 8eb6
00000310: 6366 9fb6 78c3 84b6 e5e9 acb6 f3e1 c5b6
00000320: bfbb 96b6 98e3 9bb6 2cb4 96b6 979e 88b6
00000330: 62b2 9fb6 ee85 9bb6 a2c0 9db6 f951 96b6
00000340: d73e 8eb6 c8de 41b6 0f0c 6fb6 455f 91b6
00000350: 2b84 9fb6 0e82 66b6 a6f6 b3b6 91eb 88b6
00000360: 0505 a1b6 3187 34b6 7987 b8b6 d0af 95b6
00000370: e0f2 87b6 a112 4ab6 2f63 48b5 95b6 01b7
00000380: 7930 8fb6 d1d6 1bb6 e820 0cb6 4678 58b6
00000390: 214d 05b6 bd70 08b7 a015 93b6 0590 01b7
000003a0: 6f35 8ab5 b483 c7b6 1af6 08b7 a2b7 7eb6
000003b0: d5c2 1035 9733 5ab6 352e 95b6 01a6 dcb6
000003c0: 2206 c336 f38b 0f36 98cf c236 43b2 a436
000003d0: 398d aeb6 ca43 5937 56e1 0b37 d731 1837
000003e0: e2ca d1b7 f5bc 1336 f37d 00b4 84f9 e735
000003f0: 7f5a 8e36 1868 36b7 a833 aeb5 4db5 2fb7

exp_avg_sq f4 [256, 120]
1.859387e-09 1.8166123e-09 1.8351898e-09 1.7849167e-09 2.0736908e-09 1.8482736e-09 2.1726112e-09 2.1579676e-09
6.0430967e-09 1.7147724e-09 1.7307388e-09 1.9783166e-09 3.2028185e-09 2.1227118e-09 3.2292846e-09 9.872555e-09
2.3062508e-08 1.592175e-08 1.21602755e-08 9.243596e-09 9.80348e-09 3.8702733e-08 1.5734493e-08 1.5325314e-08
1.9861886e-08 4.4801425e-08 4.662285e-08 2.9358295e-08 2.7341795e-08 3.125383e-08 1.8605052e-08 2.2897582e-08
2.2067645e-08 1.2451879e-08 9.065337e-09 1.8794825e-08 7.4207396e-09 1.2821527e-08 1.4217264e-08 3.0419617e-08
5.745535e-09 1.5016413e-08 1.3242999e-08 6.77273e-09 2.4566182e-09 2.8797464e-09 5.112018e-09 2.1741813e-09
2.651621e-09 2.5211717e-09 2.227697e-09 2.0902424e-09 1.7956366e-09 1.7282974e-09 1.77672e-09 2.0052773e-09
1.7995966e-09 1.8564398e-09 1.9295534e-09 1.7450368e-09 1.7475702e-09 1.8158767e-09 1.7978471e-09 1.7831966e-09
1.7553216e-09 1.7694812e-09 1.7776945e-09 1.7224461e-09 1.700981e-09 1.7195221e-09 1.7419807e-09 1.7106013e-09
1.7165158e-09 1.7178756e-09 1.7226585e-09 1.699427e-09 1.6929441e-09 1.6887141e-09 1.686037e-09 1.6939687e-09
1.6925638e-09 1.6952343e-09 1.6952387e-09 1.6907356e-09 1.6915569e-09 1.694807e-09 1.6901541e-09 1.6892308e-09
1.6917209e-09 1.6947147e-09 1.692827e-09 1.6911149e-09 1.6917059e-09 1.6926349e-09 1.699013e-09 1.6912127e-09
1.6897173e-09 1.7005659e-09 1.6939945e-09 1.6947638e-09 1.7001472e-09 1.7028443e-09 1.7174092e-09 1.7030555e-09
1.7165791e-09 1.7146115e-09 1.737529e-09 1.7041408e-09 1.7227111e-09 1.71024e-09 1.7482669e-09 1.7686028e-09
1.8003898e-09 1.7284447e-09 1.7789132e-09 1.7669194e-09 1.8708866e-09 1.7854765e-09 1.7471188e-09 1.848521e-09
3.9585313e-09 3.5475018e-09 3.6541872e-09 3.7841335e-09 4.194454e-09 3.976028e-09 4.0504506e-09 4.9496904e-09
1.1528659e-08 6.2794214e-09 5.2315974e-09 4.2984256e-09 9.612083e-09 2.2895565e-08 1.1849704e-07 1.9295417e-08
7.3093815e-08 3.590166e-08 9.0234046e-08 3.4751706e-09 2.8481002e-08 4.0484053e-08 4.3479265e-08 4.826111e-09
2.7080976e-08 4.1950145e-08 8.593784e-08 4.6028312e-08 4.8999073e-08 7.4372956e-08 4.4686463e-08 1.2323423e-08
3.5278234e-08 3.7510908e-08 4.1340584e-08 1.951694e-08 2.1492108e-08 6.253127e-08 3.697479e-08 1.0725759e-07
2.3633037e-08 3.604475e-08 3.4792844e-09 2.1211248e-08 6.208401e-09 4.203296e-09 3.695534e-09 1.968751e-08
5.4681486e-09 4.564595e-09 3.9714703e-09 3.6957075e-09 3.711104e-09 3.6621999e-09 3.8863037e-09 3.5302998e-09
3.7051913e-09 3.8366497e-09 3.7727617e-09 3.7109593e-09 3.5803538e-09 3.5487149e-09 3.662142e-09 3.814768e-09
3.5513426e-09 3.6542218e-09 3.6620642e-09 3.524212e-09 3.510501e-09 3.5533207e-09 3.5210144e-09 3.4799128e-09
3.503172e-09 3.5176304e-09 3.5000016e-09 3.5015417e-09 3.4675105e-09 3.4582637e-09 3.4593153e-09 3.5037857e-09
3.4792378e-09 3.465594e-09 3.4813465e-09 3.453557e-09 3.4607397e-09 3.4725673e-09 3.471453e-09 3.4613108e-09
3.4596388e-09 3.4615628e-09 3.4732952e-09 3.4702212e-09 3.4609442e-09 3.4862662e-09 3.4873266e-09 3.4714298e-09
3.4754941e-09 3.4984937e-09 3.4842742e-09 3.4840335e-09 3.463027e-09 3.4759955e-09 3.6293435e-09 3.4614394e-09
3.5454937e-09 3.6920809e-09 3.7420715e-09 3.4779575e-09 3.5517902e-09 3.7061292e-09 3.589898e-09 3.578388e-09
3.6257397e-09 3.6520447e-09 3.6416823e-09 3.6964667e-09 3.6513517e-09 3.7423304e-09 3.6879293e-09 3.7325525e-09
2.2562885e-08 2.4105026e-08 2.3972245e-08 2.3625596e-08 2.1612006e-08 2.2107226e-08 2.1613396e-08 1.8918131e-08
1.8253912e-08 1.3729234e-08 1.6108148e-08 1.8953525e-08 3.383684e-08 4.0392422e-08 6.372045e-08 4.6314664e-08
00000000: 5d8d ff30 5dac f930 003a fc30 2c51 f530
00000010: c180 0e31 5906 fe30 fb4c 1531 5e4b 1431
00000020: a4a3 cf31 31ad eb30 f5de ed30 eaf2 0731
00000030: 9418 5c31 24df 1131 2dea 5d31 f59b 2932
00000040: fe1a c632 4cc4 8832 75e9 5032 c4cd 1e32
00000050: 296c 2832 1b3a 2633 8428 8732 b9a4 8332
00000060: c09c aa32 b06b 4033 5e3e 4833 932f fc32
00000070: 3edd ea32 f33b 0633 f1d0 9f32 51b0 c432
00000080: 448f bd32 f1eb 5532 c6bd 1b32 4272 a132
00000090: 84f9 fe31 ac45 5c32 3040 7432 b9a6 0233
000000a0: 436a c531 71fd 8032 5383 6332 90b5 e831
000000b0: 49d1 2831 09e5 4531 c9a5 af31 9a68 1531
000000c0: cf37 3631 ec40 2d31 0f16 1931 efa3 0f31
000000d0: 59ca f630 0f89 ed30 c730 f430 36cd 0931
000000e0: ad55 f730 ab25 ff30 1099 0431 06d6 ef30
000000f0: 292f f030 7b92 f930 1f18 f730 a714 f530
00000100: e33f f130 1632 f330 1153 f430 2fbb ec30
00000110: f3c7 e930 4e54 ec30 7f6a ef30 6f1a eb30
00000120: 88ea eb30 601a ec30 a8c2 ec30 4691 e930
00000130: 2dad e830 5818 e830 27ba e730 3ad1 e830
00000140: cb9f e830 c1fd e830 e9fd e830 785f e830
00000150: 5e7c e830 b8ee e830 034b e830 862a e830
00000160: 2382 e830 79eb e830 0ea9 e830 d16c e830
00000170: 9c81 e830 4ca2 e830 b582 e930 4270 e830
00000180: a43b e830 58b9 e930 22d2 e830 33ed e830
00000190: 9daa e930 8209 ea30 f709 ec30 f010 ea30
000001a0: c2ec eb30 87a7 eb30 decd ee30 2037 ea30
000001b0: 82c4 ec30 b80d eb30 ac47 f030 2e13 f330
000001c0: 9671 f730 3e8e ed30 f27d f430 f3d7 f230
000001d0: fc90 0031 df64 f530 471f f030 0d0f fe30
000001e0: 9c03 8831 50c8 7331 241d 7b31 9705 8231
000001f0: cf1e 9031 839d 8831 242c 8b31 f011 aa31
00000200: 940f 4632 60c2 d731 9ec1 b331 5ab1 9331
00000210: 6322 2532 e1ab c432 7078 fe33 12bf a532
00000220: c0f7 9c33 4b32 1a33 b1c6 c133 d9cf 6e31
00000230: 63a6 f432 b0e0 2d33 f5bd 3a33 ecd2 a531
00000240: b29f e832 ac2c 3433 d48c b833 aab0 4533
00000250: 0d73 5233 f7b6 9f33 49ed 3f33 fdb6 5332
00000260: d484 1733 ae1b 2133 748e 3133 34a6 a732
00000270: a59d b832 ee48 8633 36ce 1e33 7c55 e633
00000280: 9901 cb32 9fcf 1a33 3818 6f31 0734 b632
00000290: ac51 d531 956c 9031 86f4 7d31 4b1d a932
000002a0: 58e2 bb31 9ad6 9c31 6c75 8831 93f7 7d31
000002b0: 6f06 7f31 1aaa 7b31 4a88 8531 b199 7231
000002c0: 6a9e 7e31 87d3 8331 90a1 8131 e303 7f31
000002d0: 400a 7631 a7dd 7331 15a9 7b31 0e13 8331
000002e0: e10b 7431 c01d 7b31 b7a7 7b31 982e 7231
000002f0: 633d 7131 ae2e 7431 57f6 7131 4623 6f31
00000300: 74bc 7031 cfba 7131 ae84 7031 c69f 7031
00000310: 1749 6e31 6ba6 6d31 ebb8 6d31 40c7 7031
00000320: 6617 6f31 6027 6e31 7f3c 6f31 9e53 6d31
00000330: fad1 6d31 0da2 6e31 728e 6e31 06dc 6d31
00000340: 9cbe 6d31 75e0 6d31 dbae 6e31 c778 6e31
00000350: 93d5 6d31 0b93 6f31 b3a5 6f31 0a8e 6e31
00000360: 8ad5 6e31 276a 7031 0070 6f31 c46b 6f31
00000370: 37fa 6d31 5cde 6e31 1668 7931 49de 6d31
00000380: fca4 7331 c6b7 7d31 9c93 8031 e000 6f31
00000390: c113 7431 eaae 7e31 27b2 7631 abe7 7531
000003a0: b028 7931 73f7 7a31 2741 7a31 ee04 7e31
000003b0: 42eb 7a31 e395 8031 bd6e 7d31 e13f 8031
000003c0: 4fd0 c132 830f cf32 86eb cd32 3cf1 ca32
000003d0: 4ea5 b932 4ee6 bd32 5ca8 b932 6981 a232
000003e0: c7cc 9c32 cfdd 6b32 315e 8a32 3ecf a232
000003f0: 0054 1133 f07b 2d33 b0d6 8833 83eb 4633

slow_buffer f4 [256, 120]
0.0063040275 -0.04195947 0.05501931 -0.039005928 0.059551552 -0.06338014 -0.018757604 -0.041446216
0.0259843 -0.20569015 -0.07978867 -0.03803032 -0.08781488 -0.15487537 -0.12355011 -0.036714446
-0.10019952 -0.014802735 -0.051596362 -0.05608386 -0.10773671 0.19891235 -0.06068656 -0.1337991
0.0073508825 0.20654494 0.15262659 -0.046137974 0.004616972 -0.06594172 -0.026525892 0.09756546
0.05392058 -0.08474476 -0.1083948 0.11088809 -0.036912844 -0.112474315 0.039347567 0.06174602
-0.018912327 0.04790392 0.022618413 0.10544936 -0.03068673 0.02679128 0.009785879 -0.16425152
-0.09172011 0.120926395 0.08296017 0.040456787 0.08813921 -0.032178424 -0.031425223 0.04539777
0.07632512 -0.02242046 0.074168004 -0.016518433 0.033677608 0.03455072 -0.051602915 0.012208752
0.02990612 0.09203683 0.024124471 0.03370271 -0.04616647 -0.005315537 0.025188787 -0.005090827
0.113745786 0.059824765 0.13655195 0.06632823 0.07291469 0.060765475 -0.03437502 0.07577181
0.05278118 0.10276024 0.07171705 -0.07548396 -0.070920065 0.087569825 -0.09612559 0.12475918
-0.023367517 -0.06904651 0.018585518 0.05122647 -0.027935386 -0.13772178 0.039722495 0.014083899
0.01021968 -0.065669835 -0.014931737 -0.010823179 0.12142658 -0.08794358 0.01600952 -0.059564825
-0.010095335 -0.09364605 0.066395864 -0.0043117297 0.13941747 -0.034756437 -0.06767087 0.103105634
0.100249216 0.06894527 0.012155049 0.008297078 0.26410365 -0.0008899846 -0.12220772 0.027596213
0.059639454 0.020684727 0.03003123 0.06651078 0.041355655 0.04377099 -0.072245985 0.07266522
0.033731837 -0.040952645 -0.04559217 0.072964765 0.040459033 -0.0074863005 0.258511 0.13339972
0.06485546 0.012272394 0.056445397 -0.5223019 0.026846904 0.030423634 -0.052825734 -0.32292187
0.03425131 0.05049759 0.06232412 -0.15505081 -0.052035615 -0.028222349 -0.022278532 -0.054142088
-0.039872617 -0.07162726 -0.05817555 -0.055504367 -0.063387215 -0.054090753 -0.054158397 0.054035522
-0.033377394 -0.026195977 -0.5644868 0.05230435 -0.039927498 -0.017584436 -0.13425155 0.090848714
0.020579517 -0.06337923 0.02087699 -0.25887093 0.02508634 -0.018073205 0.008924066 -0.29823834
0.025661165 0.028056826 0.05364944 0.12179828 0.09076665 0.008445766 0.07905826 0.044096038
0.076656714 0.11512001 -0.044886034 0.08938323 0.066950664 0.058266222 -0.036574244 -0.06853034
0.13932958 0.0074208444 0.16679114 0.0702828 0.0926788 0.11940016 0.022939181 0.080434784
0.13389838 0.17696762 0.08473373 0.16928908 0.12278625 0.16349244 0.20231481 0.07156254
-0.06948958 0.05560773 -0.0014350642 0.0034519718 -0.070157096 -0.12356274 0.04096048 -0.12571496
-0.019504793 -0.048734553 0.006999502 0.060343154 -0.004847469 -0.11259327 0.051766407 -0.045008287
-0.024567764 0.05167874 0.053577855 0.061586488 0.048951223 0.033807196 0.032292537 -0.19833024
-0.032479644 -0.025858171 -0.07429561 -0.04675597 0.0008321041 0.0189703 -0.088865206 -0.07959513
0.09131037 -0.066976346 -0.00903338 0.023598699 0.14465737 0.10381396 -0.03921964 -0.016466076
0.0035772617 0.108917095 0.06561585 0.19020534 0.05028913 0.07117374 -0.06202369 0.16596879
00000000: 0492 ce3b b1dd 2bbd ee5b 613d aec4 1fbd
00000010: 54ec 733d 72cd 81bd 8ca9 99bc 82c3 29bd
00000020: 07dd d43c 70a0 52be 3e68 a3bd aec5 1bbd
00000030: 4ad8 b3bd a697 1ebe d707 fdbd e361 16bd
00000040: 6835 cdbd 2c87 72bc b556 53bd 31b8 65bd
00000050: 10a5 dcbd aeaf 4b3e 7892 78bd a202 09be
00000060: acdf f03b 8480 533e 254a 1c3e 2cfb 3cbd
00000070: f849 973b 740c 87bd d44c d9bc 66d0 c73d
00000080: d3db 5c3d a98e adbd 18fe ddbd 4c19 e33d
00000090: ec31 17bd ef58 e6bd ea2a 213d 65e9 7c3d
000000a0: 06ee 9abc e736 443d 404a b93c d6f5 d73d
000000b0: bd62 fbbc 6379 db3c f454 203c 8d31 28be
000000c0: c1d7 bbbd 42a8 f73d 06e7 a93d 04b6 253d
000000d0: 5582 b43d 86cd 03bd bcb7 00bd 03f3 393d
000000e0: 5850 9c3d 1dab b7bc 65e5 973d aa51 87bc
000000f0: 88f1 093d 0e85 0d3d 945d 53bd 3807 483c
00000100: aefd f43c ce7d bc3d afa0 c53c da0b 0a3d
00000110: 0d19 3dbd f52d aebb b758 ce3c f4d0 a6bb
00000120: 8df3 e83d d00a 753d 46d4 0b3e 18d7 873d
00000130: 4c54 953d 38e5 783d d2cc 0cbd 402e 9b3d
00000140: 1431 583d f673 d23d 64e0 923d 5697 9abd
00000150: 8a3e 91bd cf57 b33d 7edd c4bd be81 ff3d
00000160: 3c6d bfbc 4268 8dbd a840 983c d9d2 513d
00000170: c0d8 e4bc f006 0dbe 0eb4 223d 27c0 663c
00000180: 7270 273c e87d 86bd 3fa4 74bc b453 31bc
00000190: 80ae f83d c31b b4bd 6626 833c 3ffa 73bd
000001a0: e766 25bc 80c9 bfbd 8efa 873d 6949 8dbb
000001b0: 74c3 0e3e c45c 0ebd 0697 8abd 0c29 d33d
000001c0: 764f cd3d 2d33 8d3d f825 473c 78f0 073c
000001d0: 9838 873e db4d 69ba 0b48 fabd 7411 e23c
000001e0: 8048 743d 0473 a93c 0e04 f63c ce36 883d
000001f0: 8c64 293d 3649 333d b4f5 93bd 81d1 943d
00000200: 652a 0a3d f6bd 27bd dbbe 3abd 8d6e 953d
00000210: 5fb8 253d a44f f5bb 8e5b 843e f099 083e
00000220: f0d2 843d 2712 493c 4a33 673d 94b5 05bf
00000230: 0aee db3c fc3a f93c cc5f 58bd 0456 a5be
00000240: 1a4b 0c3d 90d6 4e3d 9447 7f3d a4c5 1ebe
00000250: 4c23 55bd 8e32 e7bc 7881 b6bc 18c4 5dbd
00000260: 7851 23bd 50b1 92bd 7c49 6ebd 8c58 63bd
00000270: 28d1 81bd 448e 5dbd 32d5 5dbd 5a54 5d3d
00000280: bcb6 08bd f298 d6bc 3582 10bf 163d 563d
00000290: 048b 23bd 3c0d 90bc 3d79 09be e40e ba3d
000002a0: 6096 a83c f8cc 81bd 3906 ab3c bb8a 84be
000002b0: de81 cd3c 420e 94bc 3f36 123c b2b2 98be
000002c0: 5d37 d23c 6ed7 e53c 84bf 5b3d 6071 f93d
000002d0: dee3 b93d 1c60 0a3c 4ce9 a13d 0c9e 343d
000002e0: 32fe 9c3d 0ac4 eb3d 6bda 37bd 8e0e b73d
000002f0: 6e1d 893d 90a8 6e3d e0ce 15bd a359 8cbd
00000300: 6aac 0e3e 8e2a f33b 4ccb 2a3e 6ef0 8f3d
00000310: 62ce bd3d 1288 f43d f3ea bb3c feba a43d
00000320: a81c 093e 0037 353e e188 ad3d 1e5a 2d3e
00000330: 5c77 fb3d 906a 273e 9d2b 4f3e 628f 923d
00000340: 8e50 8ebd eec4 633d c418 bcba 7a3a 623b
00000350: 86ae 8fbd 760e fdbd 2dc6 273d 6cbb 00be
00000360: 84c8 9fbc e29d 47bd 145c e53b 622a 773d
00000370: 84d7 9ebb 4d97 e6bd 0309 543d 9c5a 38bd
00000380: 5642 c9bc 16ad 533d 7474 5b3d 1d42 7c3d
00000390: 1481 483d 6a79 0a3d 2e45 043d 1517 4bbe
000003a0: 6009 05bd 84d4 d3bc 4c28 98bd 3083 3fbd
000003b0: 9021 5a3a 9a67 9b3c f6fe b5bd c602 a3bd
000003c0: ee00 bb3d e52a 89bd be00 14bc 0f52 c13c
000003d0: 1021 143e 6a9c d43d c6a4 20bd dde3 86bc
000003e0: 7e70 6a3b ed0f df3d 9a61 863d 30c5 423e
000003f0: fafb 4d3d 8ac3 913d 8e0c 7ebd b9f3 293e
