Training/PyTrainer/epoch=0-v1.ckpt (torch, 653957 bytes, 28 tensors)

net.0.weight f4 [256, 120]
0	0x3da2b4cf	0.07944643
1	0x3d03fff5	0.03222652
2	0x3d72b8e0	0.05925834
3	0x3d926ca2	0.07149626
4	0x3cee57da	0.029094625
5	0x3db70939	0.08937306
6	0x3e1e78c6	0.15475759
7	0x3d5b58aa	0.053551354
8	0x3e11e2ac	0.14246625
9	0x3e23496e	0.1594598
10	0x3dfb1a12	0.12260832
11	0x3d82be07	0.06383901
12	0x3d8f9910	0.07011616
13	0x3e99f38e	0.3006863
14	0x3dab349b	0.08359643
15	0x3d4c04e8	0.049809366
16	0xbdf00ad9	-0.11720819
17	0xbbf8a761	-0.0075883125
18	0xbd10e0f7	-0.035370793
19	0x3cd95042	0.026527528
20	0xbc6b5fe1	-0.014366121
21	0xbce1b68d	-0.027552867
22	0x3c9feba6	0.019521546
23	0x3d5eac71	0.05436367
24	0x3ca18919	0.019718694
25	0x3cb3ef34	0.021964647
26	0xbd29cbca	-0.041454114
27	0x3aaa47e3	0.0012991395
28	0x3ce891bb	0.028389802
29	0xbd306787	-0.04306748
30	0xbe0c5efa	-0.13708106
31	0xbcb67aac	-0.022275291
32	0xbd338930	-0.043832004
33	0x3d4fbdee	0.05071824
34	0xbe8f71e3	-0.28016576
35	0xbd056573	-0.032567453
36	0xbbfefcdb	-0.0077816076
37	0xbee8ed30	-0.4549346
38	0x3ccb73a4	0.024835415
39	0xbcafe31e	-0.021470603
40	0x3d74eef3	0.059798192
41	0xbf16b31b	-0.58867043
42	0x3c543ee6	0.012954449
43	0x3d04f8a7	0.032463696
44	0x3d418cf2	0.047253557
45	0xbd61b4e4	-0.05510415
46	0x3c7bffcd	0.015380812
47	0xbc3216f8	-0.010869734
48	0xbd9e01ca	-0.07715185
49	0x399ded76	0.00030122296
50	0xbc8c614f	-0.017136244
51	0x3d184f79	0.037185166
52	0x3d4bf56c	0.0497946
53	0x3d6278a1	0.055290822
54	0x3d7890ec	0.060685083
55	0x3d2ddeb0	0.0424487
56	0x3e0a482e	0.13504097
57	0xbd535b94	-0.051601008
58	0x3d94033c	0.072271794
59	0x3d031803	0.03200532
60	0x3dcf858d	0.10132895
61	0x3d17f836	0.037101947
62	0x3d5f4a98	0.054514498
63	0x3def7dcd	0.116939165
64	0xbd31603f	-0.043304678
65	0x3d42f375	0.04759546
66	0x3dc43ca8	0.09581882
67	0x3d340fd5	0.04396041
68	0xbd7aad77	-0.061200585
69	0x3dc23df8	0.09484476
70	0x3d1a369f	0.037649747
71	0x3da35e2c	0.07976946
72	0xbda0f960	-0.078600645
73	0x3d56c4ec	0.052433893
74	0x3dbf498f	0.09340202
75	0x3d8c3d47	0.06847625
76	0xbc9743cf	-0.01846495
77	0x3d2f8d0c	0.042859122
78	0x3d0f5db6	0.03500148
79	0x3d97fe02	0.07421495
80	0xbb53cc20	-0.0032317713
81	0x3ba357b6	0.004984821
82	0x3dee6879	0.1164102
83	0xbd6ad65b	-0.05733333
84	0x3e279e06	0.16368875
85	0x3cbccf2f	0.023048012
86	0x3e23343e	0.15937898
87	0xbc6b2102	-0.014351131
88	0xbcecb8d1	-0.028896721
89	0xbdbae7e4	-0.09126261
90	0xbe72aa07	-0.23697673
91	0x3bfe2c5d	0.0077567534
92	0xbe075e99	-0.1321968
93	0xbdb18f77	-0.08669942
94	0xbe60593b	-0.21909039
95	0xbd990c8e	-0.07473098
96	0x3c3110a0	0.010807186
97	0xbe8ac7cd	-0.2710556
98	0xbde162ca	-0.11005171
99	0xbdc5c86c	-0.09657368
100	0x3d513ccc	0.05108337
101	0xbe6918e6	-0.22763404
102	0xbdf491c5	-0.11941866
103	0xbdb1f181	-0.08688641
104	0xbe409910	-0.18808389
105	0xbdf59264	-0.119908124
106	0xbca6e660	-0.020373523
107	0x3cf3861e	0.029727038
108	0xbd53d566	-0.051717184
109	0xbd8d60a2	-0.06903197
110	0xbdbd7b4a	-0.09252031
111	0xbd118151	-0.035523716
112	0x3d40956a	0.047017492
113	0x3bb1d841	0.005427391
114	0xbc688215	-0.01419117
115	0xbc45d453	-0.012074548
116	0x3e045d03	0.12926106
117	0x3d1bceff	0.038039204
118	0x3d26eb1e	0.04075157
119	0xbcda22ee	-0.026627984
120	0xbc8d0d5e	-0.017218288
121	0xbddf99f9	-0.1091804
122	0xbdf8aa5d	-0.12141869
123	0x3ce32ef6	0.027732354
124	0xbd04309a	-0.032272913
125	0x3de1222b	0.10992845
126	0xbde0df92	-0.10980143
127	0x3df81c45	0.12114767
128	0x3e10e080	0.1414814
129	0xbd699a6a	-0.057032026
130	0xbea77cf3	-0.32712516
131	0x3d9d0c37	0.076683454
132	0x3e19b5ed	0.15010805
133	0xbe775b05	-0.24155815
134	0x3cd5bcde	0.026091035
135	0x3d90064e	0.070324525
136	0x3de9a53d	0.1140847
137	0x3b90a99e	0.004414751
138	0x3de76e33	0.11300316
139	0x3c4c4a52	0.012468891
140	0xbc34ad2c	-0.0110276155
141	0x3dc6d552	0.09708656
142	0x3da77681	0.081769
143	0x3d4f3575	0.05058809
144	0x3d4bf189	0.049790893
145	0x3db48292	0.08813967
146	0x3dd42f00	0.10360527
147	0xbc539c1c	-0.012915637
148	0xbdf4e886	-0.11958413
149	0xbd5391ff	-0.051652905
150	0xbdc30f17	-0.095243625
151	0xbdefd6ae	-0.11710869
152	0xbe15ec26	-0.14640865
153	0xbe202435	-0.15638812
154	0xbd67fe97	-0.05663928
155	0xbda81908	-0.08207899
156	0xbca92720	-0.020648539
157	0x3dfce318	0.12348002
158	0xbd9d52fb	-0.07681843
159	0xbd796b23	-0.06089319
160	0xbd27e2f6	-0.04098793
161	0xbcec7e1f	-0.028868733
162	0x3cfa0e5e	0.030524429
163	0xbe0ac1a5	-0.13550432
164	0x3dc61eed	0.096738674
165	0xbe88155e	-0.26578802
166	0x3c237a4f	0.009977891
167	0xbdb5bd94	-0.0887405
168	0xbbe5cdf8	-0.007013079
169	0xbdddf56a	-0.10837825
170	0xbdeea58f	-0.116526715
171	0xbcbe6678	-0.02324222
172	0xbddcc341	-0.10779429
173	0xbd525e14	-0.05135925
174	0xbd027547	-0.031850126
175	0xbdc8c34d	-0.09802876
176	0x3d810c74	0.06301203
177	0xbe32cf2b	-0.17461841
178	0xbc6d2f97	-0.014476678
179	0x3c019bef	0.007910713
180	0xbac334aa	-0.0014893014
181	0x3c37ccec	0.011218291
182	0xbc54d291	-0.012989656
183	0xbcea9647	-0.028636111
184	0x3dd35c72	0.10320367
185	0x3d629375	0.055316407
186	0xbd8c9fdb	-0.068664275
187	0x3d229a6b	0.039698046
188	0x3c9fa3f1	0.019487353
189	0x3e17f7ee	0.14840671
190	0x3dbcb19d	0.092135645
191	0x3df8f6e4	0.12156466
192	0x3d905c3e	0.07048844
193	0x3dd2e677	0.10297864
194	0x3e103a27	0.14084683
195	0x3d03fac1	0.03222156
196	0x3dd001e7	0.10156613
197	0x3deec059	0.11657781
198	0x3db42ab3	0.08797207
199	0x3e3ac615	0.18239625
200	0x3d2285a4	0.03967823
201	0x3e407f4c	0.1879856
202	0x3d46e802	0.048561104
203	0x3c9980c0	0.01873815
204	0x3e304deb	0.17217223
205	0x3d2e946e	0.042622022
206	0x3e30768f	0.17232727
207	0xbd49c163	-0.049256694
208	0xba1bd56b	-0.00059445825
209	0x3c8637fd	0.01638412
210	0x3d260210	0.04052931
211	0x3da8a77a	0.082350686
212	0x3d374071	0.04473919
213	0x3d18eaed	0.037333418
214	0xbdac4746	-0.08412032
215	0x3d7c3cef	0.06158155
216	0x3dc21990	0.09477532
217	0x3e0628f7	0.13101564
218	0xbc518ec2	-0.012790384
219	0x3c826fc6	0.015922438
220	0x3d87ec82	0.06636907
221	0xbdb52572	-0.08845033
222	0xbda0a914	-0.07844749
223	0x3c8a1a40	0.01685822
224	0xbccca6f3	-0.024981951
225	0xbe107500	-0.14107132
226	0x3c844590	0.016146451
227	0x3d64aad6	0.055826984
228	0x3dafcccd	0.085839845
229	0xbd9b64f0	-0.07587612
230	0x3ce21212	0.027596507
231	0xbcb3ca70	-0.021947116
232	0xbdeeac1d	-0.11653922
233	0xbd4bd657	-0.049764957
234	0x3e014793	0.1262496
235	0xbdb3c420	-0.08777642
236	0xbe24751c	-0.16060299
237	0xbc8ffb1c	-0.017575793
238	0xbcc5d128	-0.024147585
239	0x3ad6d556	0.0016390483
240	0xbdf9806a	-0.12182696
241	0xbd33be86	-0.04388287
242	0xbbfd1d7e	-0.007724463
243	0x3d28fb8b	0.041255515
244	0xbc62f94c	-0.013853382
245	0x3d21e891	0.039528433
246	0x3bae066f	0.0053108255
247	0xbcea375d	-0.028590852
248	0x3e4431f1	0.19159676
249	0x3e476b5a	0.19474545
250	0xbdb9b6c2	-0.090680614
251	0xbc4f8088	-0.012664922
252	0x3e6d0d06	0.231495
253	0x3e5580d7	0.2084993
254	0xbd362a3a	-0.044473864
255	0xbd48d015	-0.049026567

net.0.bias f4 [256]
0	0x3e1f282b	0.15542667
1	0x3cb7ab39	0.022420513
2	0xbdc8215a	-0.09771986
3	0xbea7a621	-0.32743934
4	0x3cf7a0ad	0.030227983
5	0xbcd303c6	-0.025758635
6	0xbeac23d9	-0.336211
7	0x3d733dc4	0.059385076
8	0x3b41a8e9	0.0029550141
9	0x3d1c1d5f	0.038113948
10	0x3cef952e	0.02924594
11	0x3dab948d	0.08377943
12	0x3cb3dcf2	0.02195594
13	0x3cac51b5	0.021035055
14	0x3da58ee2	0.08083893
15	0x3d5949f6	0.05304905
16	0x3db5a18a	0.08868702
17	0xbd251245	-0.040300626
18	0xbd43ea67	-0.047830965
19	0x3d1cb130	0.038254917
20	0x3c64d0ed	0.013965827
21	0x3d666d24	0.05625643
22	0x3e73e690	0.23818421
23	0xbdebb831	-0.11509741
24	0x3f15495b	0.58315057
25	0x3e2fcb67	0.17167436
26	0x3e61e516	0.22060046
27	0xbc8da318	-0.017289683
28	0x3dd1f670	0.10252082
29	0x3e15f901	0.14645769
30	0xbc8888d6	-0.016666811
31	0xbcaf9b53	-0.021436369
32	0x3d5f8d82	0.05457831
33	0xbcabf9fe	-0.020993229
34	0x3e2a3ca4	0.16624695
35	0xbeb2a637	-0.34892437
36	0xbdbe14f2	-0.09281339
37	0x3cdd31d8	0.027001306
38	0x3d3c9251	0.046037976
39	0xbe6ea877	-0.23306452
40	0xbe13e390	-0.14442277
41	0x3d89b2f7	0.06723588
42	0x3d115630	0.035482585
43	0x3e6976e3	0.22799258
44	0x3dbef661	0.09324337
45	0x3b95bcb4	0.0045696143
46	0x3e98710e	0.29773754
47	0xbe22301b	-0.15838663
48	0x3e36a11b	0.17834894
49	0xbd55d9d8	-0.052209705
50	0x3dde7f8b	0.10864171
51	0xbc7ee950	-0.015558556
52	0x3d877d0a	0.06615646
53	0x3e2669a6	0.16251239
54	0x3ca6ddec	0.020369492
55	0x3e125a33	0.14292221
56	0xbe56c52e	-0.20973656
57	0x3db025ad	0.08600936
58	0x3e5e7510	0.21724343
59	0xbe0acc12	-0.13554409
60	0xbe05d7d1	-0.13070609
61	0x3e286ed1	0.16448523
62	0x3e43a639	0.19106378
63	0xbe24804e	-0.1606457
64	0x3e0399ba	0.12851611
65	0x3d728a3a	0.059213854
66	0x3de88f8c	0.113555044
67	0x3d6c199d	0.057641614
68	0x3c926d5a	0.017874409
69	0x3e27a714	0.16372329
70	0x3d584ed0	0.052809536
71	0x3d2e146d	0.04249995
72	0x3d4f75a5	0.050649304
73	0x3c38b69b	0.011274005
74	0xbe0e73d2	-0.1391137
75	0x3d128bbf	0.035777804
76	0xbda087c2	-0.07838394
77	0x3d673063	0.05644263
78	0xbdef8d66	-0.116968915
79	0xbe94d990	-0.29072237
80	0x3dfe3fee	0.12414537
81	0x3bbc8404	0.005753042
82	0x3d6c4c71	0.057690088
83	0x3da6a7fe	0.08137511
84	0x3dc1ed7c	0.09469125
85	0x3e2681ae	0.16260406
86	0xbec27bf3	-0.3798519
87	0xbcd0c2a7	-0.025483442
88	0x3db643aa	0.08899625
89	0x3ccfe891	0.025379451
90	0x3da01b55	0.07817713
91	0x3ea0029c	0.3125199
92	0x3e3c5105	0.18390281
93	0x3e04dda0	0.12975168
94	0x3de7d27d	0.11319444
95	0x3e642af6	0.22282013
96	0x3d89dff7	0.06732171
97	0x3eedd212	0.46449333
98	0x3dae37cb	0.085067354
99	0x3caa0edd	0.02075904
100	0x3dd3c98c	0.103411764
101	0xbe332df9	-0.17498006
102	0x3d484d2c	0.04890172
103	0xbd01786d	-0.031608988
104	0x3cd7beed	0.026336158
105	0x3e1c947d	0.15291019
106	0x3d0d55a3	0.034505498
107	0x3d79524c	0.0608695
108	0x3e13e76f	0.14443754
109	0x3cd1d862	0.025615875
110	0xbb404354	-0.0029337006
111	0xbdee5f38	-0.11639255
112	0x3dc946bc	0.09827945
113	0x3e385acf	0.1800339
114	0x3e24a61c	0.1607899
115	0x3e078fef	0.132385
116	0x3c266a55	0.0101571875
117	0xbda0545d	-0.07828591
118	0xbd7365c0	-0.05942321
119	0xbe688f84	-0.22710997
120	0xbde84277	-0.11340802
121	0x3cb0cdde	0.02158254
122	0x3d5ce635	0.05393048
123	0x3c2ec953	0.010668117
124	0xbdcd5550	-0.10026038
125	0x3db28c1c	0.0871813
126	0x3db87ae4	0.090078145
127	0xbe08832c	-0.13331288
128	0x3ee0eea3	0.43932065
129	0x3ed3fe39	0.41404894
130	0x3dbd2174	0.09234896
131	0x3cfeb4d6	0.031092089
132	0xbcdef703	-0.027217394
133	0x3d156a94	0.036478594
134	0x3d8e1e02	0.06939317
135	0x3e9ed76c	0.3102373
136	0x3de22224	0.11041668
137	0x3dde7232	0.10861625
138	0xbd85abc7	-0.065269046
139	0x3cea27da	0.028583456
140	0x3d6f207e	0.058380596
141	0x3d05318d	0.03251796
142	0x3d2c6190	0.04208523
143	0x3d95bba7	0.073111825
144	0x3e561c85	0.20909317
145	0xbddb63a2	-0.10712363
146	0x3e69c86c	0.22830361
147	0x3afa87d2	0.0019113964
148	0xbc3f8914	-0.011690397
149	0xbc01c238	-0.0079198405
150	0x3d20f308	0.039294273
151	0x3ddddca7	0.10833102
152	0x3d4bb5bb	0.04973386
153	0x3b85e1b5	0.0040857443
154	0x3d97c313	0.07410254
155	0x3e8832b9	0.26601198
156	0xbd50ceac	-0.050978348
157	0xbe19d751	-0.15023543
158	0x3c4ef331	0.012631224
159	0x3e3653b5	0.17805369
160	0x3e65252f	0.22377466
161	0x3e5881e0	0.21143293
162	0x3dddda5c	0.10832664
163	0x3e805c76	0.25070542
164	0x3dfee1dd	0.12445424
165	0x3da1a282	0.07892324
166	0xbe9431c4	-0.28944218
167	0xbe0dd801	-0.1385193
168	0x3d9dc990	0.077044606
169	0xbdc8e009	-0.09808356
170	0xbc1220a1	-0.008918912
171	0x3dadbbb6	0.08483069
172	0x3e1f1ed7	0.15539108
173	0x3e1093fc	0.14118952
174	0x3d992e28	0.07479507
175	0x3d9f333e	0.077734455
176	0x3ef281f2	0.47364765
177	0x3ca736b4	0.020411827
178	0x3d3639bb	0.04448865
179	0x3d8171d2	0.063205376
180	0xbc8aee1b	-0.01695924
181	0x3d212212	0.039339133
182	0x3e20d6df	0.15706967
183	0xbc18255a	-0.009286249
184	0x3da935df	0.08262228
185	0xbc11ca56	-0.008898338
186	0xbf01a47b	-0.506416
187	0x3dc5e6ff	0.096632
188	0x3ee8fae1	0.45503905
189	0x3d0efbcf	0.034908112
190	0x3e8dd19d	0.27698985
191	0xb942a466	-0.00018562525
192	0xbe550d10	-0.20805764
193	0xbc90b26c	-0.017663203
194	0x3e1ac40c	0.15113848
195	0x3e50f48b	0.20405786
196	0xbe03bf73	-0.12866001
197	0xbdf5f2e0	-0.12009215
198	0x3db785c5	0.089610614
199	0xbd95914f	-0.07303106
200	0x3e778c57	0.24174629
201	0x3dab82a4	0.08374527
202	0xbe851831	-0.2599502
203	0x3e82010f	0.25391433
204	0x3f35b773	0.70983046
205	0x3ccf276f	0.025287358
206	0x3e60a8f9	0.21939458
207	0xbdda1ab4	-0.106496245
208	0x3db6fc64	0.089348584
209	0x3d86d705	0.065839805
210	0x3e04af4d	0.12957497
211	0x3e6625b9	0.22475328
212	0x3d07758f	0.033071097
213	0x3d8f1bbe	0.06987713
214	0x3d9d8fd5	0.076934494
215	0xbd04d357	-0.032428112
216	0x3ddd10c0	0.107942104
217	0xbc6e0b22	-0.014529021
218	0x3e230877	0.15921198
219	0x3df9ced9	0.12197656
220	0x3dba92f5	0.09110061
221	0xbc6bd38b	-0.0143936975
222	0x3e43663b	0.19081967
223	0x3dd4d169	0.10391504
224	0x3c804fdc	0.01566308
225	0xbd826f20	-0.06368852
226	0xbdd0ddd5	-0.10198561
227	0x3ed069e9	0.40705803
228	0x3dd97c54	0.10619417
229	0x3e27a8c9	0.1637298
230	0x3efeb051	0.49743894
231	0xbdd7389d	-0.10508845
232	0x3dc20b49	0.09474809
233	0xbda0c46e	-0.07849966
234	0xbd7c3e77	-0.06158301
235	0x3c5e03f7	0.01355075
236	0x3da04f9f	0.078276865
237	0xbe2d390e	-0.16916296
238	0xbca43cac	-0.020048462
239	0x3d311002	0.043228157
240	0xbd3c2a6d	-0.045938898
241	0x3d72b4bd	0.059254397
242	0xbe803f4f	-0.250483
243	0xbce5da59	-0.028058218
244	0x3e5e2613	0.21694212
245	0x3daea0c5	0.08526758
246	0x3e0d38d8	0.13791215
247	0x3e48bb9b	0.19602816
248	0x3d6f6ebc	0.058455214
249	0xbd04da4e	-0.032434754
250	0xbe950a3b	-0.29109368
251	0xbe8361a1	-0.25660422
252	0xbe2a0bc2	-0.16606048
253	0xbd2a05a1	-0.041509274
254	0x3b8eae0b	0.0043542436
255	0xbb3115cb	-0.0027021046

net.2.weight f4 [32, 256]
0	0xbd87be80	-0.06628132
1	0xbcfdde9e	-0.030989941
2	0xbdf5ed8c	-0.12008199
3	0x3d57adbc	0.05265592
4	0xbd683e76	-0.056700192
5	0x3e253fdb	0.1613764
6	0xbde92e44	-0.113857776
7	0xbce41bba	-0.027845252
8	0x3c6cd073	0.014453995
9	0xbd67c74c	-0.05658655
10	0xbe2411eb	-0.1602246
11	0xbd831624	-0.06400707
12	0x3df8f2af	0.12155663
13	0xbd7c62e2	-0.06161774
14	0x3c27ead2	0.010248857
15	0xbd0db5ed	-0.034597326
16	0xbe1ed3a4	-0.15510422
17	0x3d5620a6	0.05227723
18	0x3d833e2f	0.06408345
19	0x3d0f3ba5	0.03496899
20	0x3d6896a8	0.056784302
21	0x3de94ab3	0.11391201
22	0xbced577e	-0.028972384
23	0xbd9e5b27	-0.0773223
24	0xbe07bb20	-0.13254976
25	0x3d482458	0.048862785
26	0xbccd2743	-0.025043136
27	0xbdbc9cb6	-0.09209578
28	0xbdee39cb	-0.11632117
29	0xbe1f36ae	-0.15548202
30	0x3c78c041	0.015182556
31	0xbe4701f8	-0.19434345
32	0xbca41fd6	-0.020034712
33	0xbd4a96e9	-0.049460325
34	0xbd4d8a4b	-0.050180715
35	0x3bc630a5	0.0060482793
36	0xbe0ebefb	-0.13940041
37	0x3d7dd8dd	0.061974395
38	0xbde22dc6	-0.11043887
39	0xbdd8b4d0	-0.10581362
40	0x3cae410f	0.021271257
41	0xbc9765bb	-0.018481126
42	0x3d844df0	0.06460178
43	0xbd9695c2	-0.07352783
44	0xbcab148f	-0.020883827
45	0xbc2b9ac8	-0.010473914
46	0xbd601be4	-0.0547141
47	0x3d6f7d28	0.058468968
48	0x3e23fe46	0.16014966
49	0x3d10b3ca	0.03532771
50	0x3d1e074c	0.038581178
51	0xbd33e2bd	-0.043917406
52	0x3d82c98f	0.063861005
53	0xbd89f278	-0.067357
54	0x3c9696f2	0.018382523
55	0xbd321625	-0.04347815
56	0xbd26913f	-0.04066586
57	0x3e42cc44	0.19023234
58	0xbb9bd61c	-0.0047557484
59	0x3db4bc2d	0.08824954
60	0x3e3770dc	0.17914146
61	0x3d12d92b	0.03585164
62	0xbdf8382f	-0.12120091
63	0x3d81dbad	0.06340728
64	0xbd7e884c	-0.0621417
65	0x3dc28ad9	0.09499139
66	0xbe0c4f41	-0.13702108
67	0x3e14c223	0.14527182
68	0x3d940420	0.07227349
69	0xbe326ae1	-0.17423584
70	0xbe5edd7b	-0.21764176
71	0x3d5265bb	0.05136655
72	0x3db81e97	0.089902095
73	0x3e7618ae	0.24032852
74	0xbd9c7385	-0.07639221
75	0xbd660261	-0.056154612
76	0x3d8124df	0.06305861
77	0x3de6b221	0.11264444
78	0xbdcc5201	-0.099765785
79	0x3d61d1ec	0.055131838
80	0x3e3d2b23	0.18473487
81	0x3e1cc3c2	0.1530905
82	0xbd9d572c	-0.07682642
83	0x3ded42e0	0.11585021
84	0x3e0c3a73	0.13694172
85	0xbe1e6568	-0.15468371
86	0xbdaf0478	-0.08545774
87	0x3d341e5f	0.043974277
88	0xbd73d7d3	-0.059531998
89	0xbc559d92	-0.013038056
90	0xbdeb97ea	-0.11503585
91	0xbe048b47	-0.12943755
92	0x3dc3b9ba	0.09556909
93	0x3cabe64f	0.020983843
94	0xbe0ccdf5	-0.13750441
95	0x3d5dba17	0.054132547
96	0x3dd4b097	0.10385244
97	0x3e03329f	0.12812279
98	0x3e4c8fa3	0.19976668
99	0xbdb09497	-0.08622091
100	0xbe455d94	-0.19273978
101	0xbc978ad4	-0.018498816
102	0x3d4035ec	0.046926424
103	0x3e23db16	0.16001543
104	0xbdabf9c1	-0.08397246
105	0x3de62372	0.112372294
106	0xbd804be0	-0.06264472
107	0xbeab8498	-0.33499599
108	0x3d9285f9	0.071544595
109	0x3d8dfe3b	0.06933256
110	0x3e570369	0.20997395
111	0xbdac7f93	-0.0842277
112	0x3de03b7a	0.10948844
113	0xbe2669f3	-0.16251354
114	0x3c047382	0.00808418
115	0x3dd6011a	0.10449429
116	0x3df29113	0.11844077
117	0x3e4f1e53	0.20226412
118	0xbc79fcb2	-0.015258001
119	0x3e9247d9	0.2857044
120	0xbe229ee0	-0.15880919
121	0xbe358f1d	-0.17730375
122	0xbc31c0d5	-0.010849197
123	0xbdaf8ad1	-0.08571399
124	0x3c99e565	0.018786142
125	0xbe149abd	-0.14512153
126	0xbd2a24cb	-0.041538995
127	0xbda3e508	-0.080026686
128	0xbbf38836	-0.007432009
129	0xbdf3732c	-0.11887202
130	0x3cdb57d3	0.026775276
131	0x3e117f02	0.14208606
132	0xbce2d93a	-0.027691472
133	0xbd9ed85c	-0.07756111
134	0xbd36b2dc	-0.044604167
135	0xbd97fa42	-0.0742078
136	0x3da8b0d4	0.08236852
137	0xbbf3cbe8	-0.007440079
138	0xbdd85818	-0.105636775
139	0x3e8f745a	0.28018457
140	0x3e5290a4	0.20562989
141	0x3d69cbc6	0.0570791
142	0x3dc6babd	0.09703586
143	0xbd85eb68	-0.06539041
144	0x3d511f58	0.051055282
145	0xbca38549	-0.019961016
146	0xbe05293f	-0.13004015
147	0xbc8cb302	-0.017175201
148	0x3dee8245	0.11645941
149	0x3d362676	0.044470273
150	0xbca978fa	-0.020687569
151	0xbd694763	-0.056952845
152	0xbe02b063	-0.12762599
153	0x3e2d5e7f	0.16930579
154	0xbe5fac72	-0.21843126
155	0xbc2bdb5d	-0.010489312
156	0xbd8a91ec	-0.06766114
157	0xbd07ddb8	-0.03317043
158	0x3c6afb97	0.01434221
159	0xbd8785fc	-0.06617352
160	0x3d3423d7	0.043979492
161	0xbe327ad6	-0.1742967
162	0x3df40114	0.11914268
163	0xbde78dc6	-0.11306338
164	0xbcb828cf	-0.022480397
165	0x3c83ecdd	0.016104156
166	0xbced76e1	-0.02898735
167	0xbd9b3456	-0.07578342
168	0xbd0c8e3b	-0.03431533
169	0xbd43a081	-0.04776049
170	0xbdff1454	-0.12455049
171	0x3c2599d4	0.010107476
172	0xbdc3d081	-0.09561253
173	0xbe56f613	-0.20992307
174	0xbd02aad3	-0.031901192
175	0xbdda15fa	-0.10648723
176	0x3db4afc6	0.088225886
177	0x3e1e8ecb	0.15484159
178	0x3bedf393	0.0072617023
179	0x3d62a886	0.055336498
180	0xbdc5d977	-0.09660619
181	0x3d11b3f9	0.035572026
182	0xbe16d1c0	-0.14728451
183	0x3cb1d2d5	0.021706978
184	0x3de238a8	0.110459626
185	0x3db402b0	0.08789575
186	0x3d4dc6bb	0.050238352
187	0x3dbb2de2	0.09139611
188	0x3da4c0a9	0.080445595
189	0x3d922669	0.071362324
190	0x3c944e1b	0.01810365
191	0x3e208077	0.15674005
192	0xbe38c7e7	-0.18045007
193	0x3d0e08c1	0.034676317
194	0x3e16876c	0.14700097
195	0x3c316e78	0.01082956
196	0xbd9a0663	-0.075207494
197	0xbdf4b5c2	-0.1194873
198	0x3dd01905	0.10161022
199	0xbe8ce2fe	-0.2751693
200	0x3e2b081f	0.16702317
201	0xbd94baf9	-0.07262225
202	0xbbd0bdeb	-0.0063702962
203	0xbe0d5a24	-0.13803917
204	0xbd2d9fea	-0.042388834
205	0xbd8f6088	-0.07000834
206	0xbe9d2d15	-0.30698457
207	0xbe1f2899	-0.1554283
208	0x3dd0c72b	0.10194238
209	0xbda87956	-0.08226268
210	0x3cb7501c	0.022377066
211	0xbd5a2570	-0.05325836
212	0x3e473540	0.19453907
213	0xbd851fd1	-0.06500209
214	0xbe46ee0c	-0.19426745
215	0xbda631b1	-0.08114947
216	0x3b6930be	0.003558203
217	0x3d8a4026	0.067505166
218	0xbda03fb3	-0.0782465
219	0xbd9ea1c7	-0.077457
220	0xbccc0ac2	-0.024907473
221	0x3db93e84	0.09045127
222	0xbd09b83f	-0.033622976
223	0xbd37425b	-0.044741016
224	0x3d431241	0.04762483
225	0xbd8a7eb6	-0.067624494
226	0xbdc45c5a	-0.09587927
227	0xbe9ee1c8	-0.31031632
228	0x3d4fa8c2	0.05069805
229	0x3d150576	0.03638216
230	0xbbd03ed0	-0.006355144
231	0xbd84665d	-0.06464837
232	0xbdb4e57e	-0.08832835
233	0xbdf8bdda	-0.12145586
234	0xbd3036b0	-0.043020904
235	0xbd9fd779	-0.0780477
236	0xbc209308	-0.00980068
237	0xbc46f4e0	-0.012143344
238	0x3dc8dcd9	0.09807748
239	0x3d1b80e9	0.037964735
240	0xbd36e254	-0.044649437
241	0xbdb14a9f	-0.08656811
242	0x3bb1d3d1	0.005426862
243	0xbac59f4f	-0.0015077385
244	0x3e5bc402	0.2146149
245	0x3de6db49	0.11272294
246	0xbcf33a8a	-0.029691
247	0x3d3052c6	0.04304769
248	0xbe9824b9	-0.29715517
249	0xbc817c7d	-0.015806431
250	0xbdd34c31	-0.10317267
251	0x3df4823d	0.119389035
252	0x3d6cee8a	0.057844676
253	0x3e0cb146	0.137395
254	0xbda8d85d	-0.08244393
255	0x3e7de998	0.2479614

net.2.bias f4 [32]
0	0xbda9335d	-0.0826175
1	0x3e86d374	0.263332
2	0xbcdd5ff0	-0.027023286
3	0xbbc8f703	-0.0061329617
4	0x3de65a16	0.11247651
5	0xbda78d9d	-0.081813075
6	0xbd97c595	-0.07410733
7	0x3cff1db9	0.031142103
8	0xbe856fb8	-0.26061797
9	0x3ce67f92	0.028137002
10	0xbdd2f9f9	-0.10301585
11	0xbe35c2e6	-0.17750129
12	0xbce74ca4	-0.028234787
13	0x3d76fad5	0.060297806
14	0x3d367b5e	0.044551246
15	0x3cab1cae	0.020887699
16	0x3db3c618	0.08778018
17	0x3d0d868c	0.034552142
18	0xbd55480d	-0.052070666
19	0x3cce161d	0.025157029
20	0xbdcba248	-0.09943062
21	0xbe1af372	-0.1513193
22	0x3eb68a7a	0.35652524
23	0xbeb07375	-0.34463087
24	0x3c3f905b	0.011692132
25	0x3e467200	0.19379425
26	0xbd82dac9	-0.06389386
27	0xbda85c62	-0.082207456
28	0xbd528d73	-0.051404428
29	0x3c40ddb6	0.01177161
30	0x3d0693e4	0.032855883
31	0xbe7a458f	-0.24440597

net.4.weight f4 [32, 32]
0	0xbe528af3	-0.20560817
1	0x3e986290	0.29762697
2	0x3e818f9a	0.25304872
3	0xbe65b5c2	-0.22432616
4	0xbe4eda7d	-0.20200534
5	0xbd8ffad6	-0.07030265
6	0x3e1ceb81	0.15324213
7	0x3e6abdc4	0.22923952
8	0xbe6b4b00	-0.22977829
9	0xbca10e64	-0.019660182
10	0xbd86a2cd	-0.065740205
11	0x3dff7997	0.12474363
12	0xbea9eb18	-0.33187175
13	0xbdd3f74c	-0.103499025
14	0x3e637677	0.2221316
15	0xbe250848	-0.1611644
16	0x3ee81419	0.45327833
17	0xbe3ced6c	-0.18449944
18	0x3ecde059	0.40210226
19	0xbe0f1893	-0.13974218
20	0x3e35f79e	0.1777024
21	0x3df3af1a	0.11898632
22	0xbd10ffa0	-0.035400033
23	0x3d8d7a44	0.06908086
24	0x3e14fbca	0.14549175
25	0x3ea30700	0.31841278
26	0x3d323ad5	0.043513138
27	0xbea53b3e	-0.3227176
28	0xbdb77262	-0.08957364
29	0x3dc1f4ea	0.09470542
30	0x3e859ce4	0.2609626
31	0xbd8de998	-0.0692932
32	0x3d6a5624	0.057211056
33	0xbe7414ad	-0.23836012
34	0x3d3ba25a	0.045809127
35	0xbe28ced4	-0.16485149
36	0x3d79107f	0.060806748
37	0x3dfad86b	0.1224831
38	0x3e47d159	0.19513454
39	0xbd9bf7aa	-0.076155975
40	0xbd5004aa	-0.050785698
41	0x3d990d79	0.07473273
42	0x3e1cbf7e	0.15307423
43	0xbe35ad4b	-0.17741887
44	0xbc87765c	-0.01653593
45	0x3e482c2d	0.19548102
46	0xbcdd04dd	-0.026979858
47	0xbe09dd9e	-0.13463446
48	0x3e78eef8	0.2430991
49	0xbe8c103c	-0.27356136
50	0x3c2386e1	0.009980888
51	0x3e5617c7	0.20907508
52	0xbe1111dc	-0.14166969
53	0x3e6eeacb	0.23331754
54	0xbe267f3a	-0.1625947
55	0x3eb60599	0.35551146
56	0xbdcd4a38	-0.10023922
57	0x3df91bda	0.121635154
58	0x3de4d0c2	0.1117263
59	0x3e16884b	0.14700429
60	0x3dc853f1	0.097816356
61	0x3e0840fc	0.1330604
62	0x3e728bb3	0.23686104
63	0x3e147f63	0.14501719
64	0xbe381ca2	-0.17979673
65	0xbee89ab4	-0.4543053
66	0x3dd9ae0d	0.10628901
67	0x3e5768d9	0.2103609
68	0x3cd1ee49	0.025626319
69	0x3d8588c2	0.06520225
70	0x3de4ce3c	0.111721486
71	0xbe471421	-0.19441272
72	0x3f490cef	0.7853536
73	0xbf152da7	-0.58272785
74	0xbe294a3a	-0.16532221
75	0x3e55e16e	0.20886776
76	0xbe30439c	-0.17213291
77	0xbd1555d1	-0.036458794
78	0x3e0712a4	0.13190705
79	0x3e0c57cc	0.13705367
80	0xbe7cce46	-0.24688062
81	0x3e3ff3fb	0.18745415
82	0xbe45dacc	-0.19321746
83	0x3e9f88f7	0.31159183
84	0xbc6280dd	-0.013824669
85	0xbde78dba	-0.11306329
86	0xbe680747	-0.22659026
87	0x3cba4c16	0.022741359
88	0x3dabc159	0.083864875
89	0x3ea8f72b	0.33001074
90	0xbdd2bf0a	-0.10290344
91	0xbca46f7f	-0.020072697
92	0x3ee9d227	0.45668146
93	0xbe40d2a4	-0.18830353
94	0x3d91671f	0.07099747
95	0x3d7b7996	0.06139525
96	0xbd89984d	-0.06718502
97	0x3e2c6dcc	0.16838759
98	0xbe540054	-0.2070325
99	0xbd96b986	-0.073596045
100	0x3e3dc85d	0.18533464
101	0xbecf3bb7	-0.40475246
102	0xbd4299d6	-0.04750999
103	0x3dcfbe98	0.10143775
104	0x3e70e68f	0.23525451
105	0xbeed02d0	-0.46291208
106	0xbd93767c	-0.072003335
107	0xbe300610	-0.17189813
108	0xbe91ee2c	-0.28502023
109	0xbe1cfe0d	-0.15331288
110	0x3998700a	0.00029075175
111	0xbca14ac2	-0.019688968
112	0x3d8e3333	0.06943359
113	0xbe953be7	-0.29147264
114	0xbe71e543	-0.23622613
115	0xbd923c46	-0.071404025
116	0x3ee1d1f4	0.44105494
117	0x3f0664bc	0.5249746
118	0xbe20fdf6	-0.15721878
119	0x3f1b7842	0.60730374
120	0x3daf0164	0.08545187
121	0x3dc108d0	0.09425509
122	0xbe28a6a9	-0.16469826
123	0x3e3960f8	0.18103397
124	0xbdce989a	-0.100877
125	0x3e3d8690	0.18508363
126	0x3ee4f127	0.44715235
127	0xbecbe126	-0.39820212
128	0xbe2ded3b	-0.16985027
129	0x3e52b99c	0.20578617
130	0x3e681df3	0.22667675
131	0xbdad3365	-0.08457068
132	0xbe4c49ad	-0.1994998
133	0xbdc580d2	-0.09643711
134	0x3e774c0b	0.24150102
135	0xbd7a3614	-0.06108673
136	0xbebb24f9	-0.36551645
137	0x3ead990e	0.33905834
138	0x3dbb3732	0.09141387
139	0xbe8c50fd	-0.2740554
140	0xbe7e756f	-0.24849485
141	0x3e236314	0.15955764
142	0xbd88a620	-0.06672311
143	0xbd701276	-0.058611356
144	0x3e8e9abb	0.27852425
145	0x3e2e0374	0.16993505
146	0xbe023f80	-0.12719536
147	0xbed5c8f9	-0.41754892
148	0xbd57eb84	-0.05271484
149	0x3d0cd386	0.034381412
150	0x3ecd346a	0.4007905
151	0xbcccc27c	-0.024995081
152	0x3e61fb45	0.22068508
153	0x3eaa286b	0.3323396
154	0xbcf0927f	-0.02936673
155	0x3e8b12f0	0.27162886
156	0xbc508bdc	-0.012728658
157	0x3e2f940e	0.17146322
158	0xbf028ecc	-0.5099914
159	0x3e2a3b1f	0.16624115
160	0xbe5c45d0	-0.21511006
161	0xbe3caf90	-0.18426347
162	0xbdbe5a5a	-0.09294577
163	0x3d8459ee	0.06462465
164	0xbdeb4bf4	-0.11489096
165	0x3dd6fc54	0.104973465
166	0x3e9823c7	0.29714796
167	0xbe1b70c8	-0.15179741
168	0x3f4901e0	0.78518486
169	0x3e169ff2	0.14709452
170	0xbd97493b	-0.073870145
171	0x3e300e50	0.1719296
172	0x3dbe72d5	0.09299246
173	0xbc65ea31	-0.014032886
174	0xbbfd3a10	-0.007727869
175	0xbd8cdcb1	-0.06878031
176	0xbdc656ad	-0.09684501
177	0x3e2b88c5	0.16751392
178	0x3dedfb70	0.116202235
179	0x3ee7c60d	0.45268288
180	0xbe54fe87	-0.2080022
181	0xbec6f39d	-0.38857737
182	0x3ec4571f	0.38347718
183	0xbf0117b5	-0.504268
184	0xbb3a44df	-0.0028422398
185	0xbe4f0216	-0.2021564
186	0xbd2b58f5	-0.041832883
187	0xbe569aec	-0.20957536
188	0x3f046009	0.5170904
189	0x3d1b484d	0.03791075
190	0x3e083637	0.13301931
191	0x3dd80b01	0.10548974
192	0x3cb6dbf5	0.02232168
193	0x3e16dc68	0.14732516
194	0xbe0c98f4	-0.13730222
195	0x3dd38b8c	0.10329351
196	0x3d47c3ee	0.048770837
197	0x3e099335	0.13435061
198	0xbd482a0b	-0.04886822
199	0x3d274e2e	0.040846042
200	0xbea7f8cc	-0.32807004
201	0xbdafcced	-0.08584008
202	0x3e12e569	0.14345326
203	0xbe4b9598	-0.19881284
204	0x3d5cb7ed	0.053886343
205	0x3e40ebf5	0.1884001
206	0x3d6bc32c	0.057559177
207	0xbcac5782	-0.02103782
208	0x3d2449bb	0.040109377
209	0xbdc8dc9b	-0.09807702
210	0x3e0391dc	0.1284861
211	0x3e4064ca	0.18788448
212	0xbdb49b90	-0.08818734
213	0xbe7008a5	-0.23440798
214	0x3cfaa2e9	0.03059526
215	0xbe82a477	-0.25516102
216	0xbdb9e5d8	-0.09077042
217	0xbce4d1f5	-0.027932147
218	0xbc6174d4	-0.013760764
219	0x3db5a15b	0.08868667
220	0x3e3c4852	0.18386963
221	0xbe7b8bfa	-0.24565116
222	0xbd2b050f	-0.04175287
223	0xbd4aea05	-0.049539585
224	0xbe2b000e	-0.1669924
225	0x3dda7c07	0.106681876
226	0x3ebfed85	0.374859
227	0xbda38d9a	-0.07985993
228	0x3e9e3858	0.30902362
229	0x3b9d2996	0.004796217
230	0x3dd06ac7	0.10176616
231	0xbd985f22	-0.0744002
232	0xbf88dbe4	-1.0692105
233	0x3f09f372	0.53887093
234	0x3d5d22f2	0.053988405
235	0x3d9b0006	0.07568364
236	0xbda86652	-0.08222641
237	0x3d2fda68	0.042932898
238	0xbde38bc0	-0.111106396
239	0x3cf1025f	0.029420076
240	0xbde49aef	-0.11162364
241	0x3ef4c695	0.47807756
242	0x3c5da93f	0.013529121
243	0xbde924d2	-0.11383976
244	0x3db9d357	0.09073513
245	0xbe8d9ea9	-0.2766011
246	0xbdde00de	-0.10840009
247	0xbe4c2de7	-0.19939385
248	0x3eaba066	0.33520812
249	0x3c461063	0.012088868
250	0x3e04b8eb	0.12961166
251	0x3dc65cdf	0.096856825
252	0xbf04d8e4	-0.5189345
253	0xbd1daee1	-0.038496856
254	0xbe96a3cc	-0.29421842
255	0x3e8c21c2	0.27369505

net.4.bias f4 [32]
0	0x3d08031c	0.03320609
1	0x3bc95d06	0.0061451225
2	0x3d3376cf	0.043814477
3	0x3e18f927	0.14938794
4	0x3cce0e82	0.025153402
5	0xbc082ed1	-0.008311943
6	0x3e0b3f97	0.13598476
7	0xbda95980	-0.08269024
8	0xbdec1da6	-0.115290925
9	0x3b76e777	0.0037674585
10	0x3d0b26a4	0.033972397
11	0x3db26b42	0.08711864
12	0xbda57503	-0.08078959
13	0x3db4154f	0.08793127
14	0x3d60677a	0.054786183
15	0x3e80a5ba	0.2512644
16	0x3d0c1320	0.034197927
17	0xbc4feb9e	-0.012690453
18	0x3e04b96f	0.12961362
19	0x3da0bf73	0.07849016
20	0xbeb4b672	-0.35295445
21	0xbe4b7393	-0.19868307
22	0x3d360b1b	0.044444185
23	0xbe597761	-0.21236946
24	0x3ddf9578	0.10917181
25	0xbe1a04c8	-0.15040886
26	0x3c1f118f	0.009708776
27	0x3de7dbd3	0.11321225
28	0x3df1be20	0.118038416
29	0xba0124b9	-0.00049264316
30	0xbecfc67f	-0.40581128
31	0xbb81b47b	-0.0039582825

net.6.weight f4 [1, 32]
0	0xbef33dc3	-0.47508058
1	0xbea73975	-0.32661024
2	0x3e9c2792	0.3049894
3	0xbebffe44	-0.37498677
4	0x3ed993bb	0.42495522
5	0x3ecd6804	0.4011842
6	0xbf2b312b	-0.668719
7	0x3f837c7c	1.0272365
8	0x3ff5b866	1.9196899
9	0x3f53d54f	0.8274736
10	0xbf8c56ee	-1.0964029
11	0x3f39525c	0.72391295
12	0xbee015a5	-0.43766513
13	0xbf39f024	-0.7263205
14	0x3e88e1b4	0.26734698
15	0xbf5a0cb6	-0.85175645
16	0xbece3d2a	-0.4028104
17	0xbf0d7125	-0.5525077
18	0xbf9913df	-1.1959189
19	0xbf2ce80e	-0.6754159
20	0x3f000e0b	0.5002143
21	0x3f1ddf3e	0.61668766
22	0x3f42391a	0.7586838
23	0x3e935eff	0.28783414
24	0x3e632afd	0.22184367
25	0x3f21ad58	0.63155127
26	0x3e21c9d4	0.15799648
27	0x3f8c556e	1.0963571
28	0xbf70dbf4	-0.9408562
29	0xbf851acb	-1.0398802
30	0x3f4dace8	0.8034196
31	0xbe72bcd1	-0.2370484

exp_avg f4 [256, 120]
0	0xb5871be1	-1.0066398e-06
1	0xb6828f0d	-3.890955e-06
2	0x363a5bf4	2.7769684e-06
3	0xb65d1e38	-3.2949156e-06
4	0xb61dad90	-2.349585e-06
5	0xb747c9f0	-1.1908342e-05
6	0xb6d0b327	-6.219739e-06
7	0xb4d959b4	-4.0484667e-07
8	0x3731371a	1.05628515e-05
9	0xb807bc19	-3.2361688e-05
10	0xb6402945	-2.8634252e-06
11	0x374aad3c	1.20804725e-05
12	0x36fc9460	7.5274584e-06
13	0xb7ec11d5	-2.8141696e-05
14	0xb60846c3	-2.0306768e-06
15	0xb7623cfa	-1.3484847e-05
16	0xb7384ef8	-1.0985641e-05
17	0xb7b8158e	-2.1944546e-05
18	0x35cf7326	1.5456214e-06
19	0xb79a70d2	-1.8410767e-05
20	0xb750e305	-1.2450623e-05
21	0xb7eb831a	-2.8075232e-05
22	0x37a725e1	1.992559e-05
23	0xb6859341	-3.9808515e-06
24	0x3755d08b	1.27443445e-05
25	0x3843d008	4.6685367e-05
26	0x37d506e6	2.5394791e-05
27	0x378fe193	1.715197e-05
28	0x379a01a6	1.8358998e-05
29	0xb73b33c3	-1.115812e-05
30	0xb7239389	-9.749908e-06
31	0x3728a649	1.0052297e-05
32	0xb7ad1006	-2.0630669e-05
33	0x36bbbc21	5.5949354e-06
34	0xb71aec39	-9.234115e-06
35	0x363cbd2f	2.8124302e-06
36	0x360532d3	1.9848128e-06
37	0x3488da73	2.5490917e-07
38	0xb7b1e150	-2.1204964e-05
39	0x36e5cb85	6.8484246e-06
40	0xb780b192	-1.5341477e-05
41	0x36cea098	6.157974e-06
42	0x36c3f9f3	5.840551e-06
43	0x372a880d	1.0164466e-05
44	0xb697ba82	-4.521863e-06
45	0x354e1b97	7.678113e-07
46	0xb80794bc	-3.2325028e-05
47	0xb73a06ec	-1.1088076e-05
48	0x37f7005f	2.9444867e-05
49	0x375a032b	1.299455e-05
50	0xb6e01ef4	-6.6793236e-06
51	0xb6a9f3b6	-5.064964e-06
52	0xb5dac850	-1.6300564e-06
53	0xb51fd085	-5.953555e-07
54	0x37168a4d	8.972897e-06
55	0x3741ce5e	1.1551745e-05
56	0x3666b236	3.4376403e-06
57	0xb446608b	-1.8475309e-07
58	0xb536bce9	-6.8075184e-07
59	0xb265aa28	-1.3368243e-08
60	0x3654fcc3	3.1737588e-06
61	0x34d5ddf3	3.983583e-07
62	0x366c9b35	3.5257083e-06
63	0xb69e62b6	-4.7202584e-06
64	0x35eb9b58	1.7554075e-06
65	0x35e1de2e	1.6828469e-06
66	0x36bc8256	5.6180097e-06
67	0xb5dd1282	-1.647117e-06
68	0x35d8ffe3	1.6167727e-06
69	0xb5e7d8db	-1.7273954e-06
70	0x3577a3f0	9.225323e-07
71	0x3424c8b5	1.5346707e-07
72	0x36435b76	2.9110502e-06
73	0x35fb6539	1.8730417e-06
74	0x36033d78	1.95563e-06
75	0x36395ca5	2.7621074e-06
76	0x35e51814	1.7068837e-06
77	0x3613aebe	2.200642e-06
78	0x3601bd50	1.9332692e-06
79	0x35d49ad6	1.5840294e-06
80	0x35a58f33	1.2335134e-06
81	0x35fa6d83	1.8658324e-06
82	0x35ed2c03	1.7670685e-06
83	0x3560d86b	8.376143e-07
84	0x358b6ad8	1.0387403e-06
85	0x35b0a55b	1.3161147e-06
86	0x35dfde2e	1.6679458e-06
87	0x35a04239	1.1940202e-06
88	0x35d6e892	1.6011929e-06
89	0x35a097cf	1.1965111e-06
90	0x35911f67	1.0812481e-06
91	0x35fa7ae6	1.866222e-06
92	0x35edc9de	1.7716627e-06
93	0x35beacf9	1.4206445e-06
94	0x360e350b	2.1190524e-06
95	0x361460d7	2.2110087e-06
96	0x34dbf751	4.0971875e-07
97	0x35c6cc8e	1.4811683e-06
98	0x34eab2da	4.3716028e-07
99	0x361447a8	2.2095428e-06
100	0x356772aa	8.6221064e-07
101	0x351de658	5.882225e-07
102	0x3488a782	2.5453852e-07
103	0x354efa9a	7.7105653e-07
104	0x361ba810	2.3194625e-06
105	0x35dcd88a	1.6454298e-06
106	0xb5c7d0c6	-1.4887416e-06
107	0x35f3c6ce	1.8162771e-06
108	0x3521d703	6.0290057e-07
109	0xb55be953	-8.192339e-07
110	0xb5d5ae0c	-1.5920391e-06
111	0xb5ada643	-1.2937893e-06
112	0x35e5635a	1.7090745e-06
113	0x3600fad0	1.9219478e-06
114	0x367d6b16	3.776227e-06
115	0xb57fc8b7	-9.528698e-07
116	0x363ecfd6	2.8433183e-06
117	0xb674dc01	-3.6486892e-06
118	0xb6f36751	-7.253992e-06
119	0x367f7b1a	3.8069616e-06
120	0x36357a85	2.7042418e-06
121	0x3531c472	6.6223504e-07
122	0xb6242c31	-2.4463627e-06
123	0x35951f33	1.1110445e-06
124	0x370831fa	8.117868e-06
125	0xb6c102bc	-5.7521665e-06
126	0xb5f786bb	-1.8442146e-06
127	0xb70cb03c	-8.385683e-06
128	0x34aaf8e2	3.1846054e-07
129	0x33929f06	6.827581e-08
130	0xb5871aae	-1.0066049e-06
131	0xb6162db3	-2.2378342e-06
132	0x36b53875	5.400793e-06
133	0x3698e691	4.5567945e-06
134	0x37b78580	2.1877466e-05
135	0x36510b0c	3.1149857e-06
136	0x37074851	8.0634645e-06
137	0xb74f3ea6	-1.2352748e-05
138	0xb52a539d	-6.345161e-07
139	0xb768144f	-1.3833006e-05
140	0xb62043c0	-2.3881294e-06
141	0x36840d69	3.9354677e-06
142	0x3693874f	4.3966934e-06
143	0x35649183	8.5148366e-07
144	0xb781185f	-1.5389347e-05
145	0xb784d478	-1.5834565e-05
146	0x380af9fb	3.3134576e-05
147	0x34b47108	3.3609854e-07
148	0xb6e1ee2c	-6.7332494e-06
149	0xb726531f	-9.913724e-06
150	0x3726ba5d	9.937762e-06
151	0x37bf808c	2.2828834e-05
152	0x360066d4	1.913334e-06
153	0xb455de88	-1.9918127e-07
154	0x3690fb6a	4.320803e-06
155	0xb6f331a3	-7.247743e-06
156	0xb605d884	-1.9944573e-06
157	0x37904c97	1.7201803e-05
158	0xb7a5f96c	-1.9785679e-05
159	0x3637920e	2.735414e-06
160	0xb726d640	-9.944255e-06
161	0xb68e8a30	-4.248017e-06
162	0x37538d59	1.260949e-05
163	0x35e98b69	1.7400426e-06
164	0xb73e2971	-1.1334531e-05
165	0x35d0fc7e	1.5570693e-06
166	0x3692e468	4.377729e-06
167	0x3702e364	7.801547e-06
168	0xb7141ddd	-8.8284405e-06
169	0x35afba3d	1.3092719e-06
170	0xb6c431d3	-5.8470555e-06
171	0x356550f7	8.542697e-07
172	0xb64012d8	-2.8621198e-06
173	0xb55d1b07	-8.2368246e-07
174	0x35b056ec	1.313832e-06
175	0x3665174c	3.413722e-06
176	0xb527c3b2	-6.249712e-07
177	0x3495584e	2.7817663e-07
178	0xb5aea445	-1.3011819e-06
179	0x33cc2530	9.5062546e-08
180	0xb51e9e8c	-5.90903e-07
181	0x3356871a	4.9948632e-08
182	0xb3a78c44	-7.802058e-08
183	0xb6385532	-2.7467727e-06
184	0xb6246645	-2.4497433e-06
185	0x35a9cdb0	1.2651344e-06
186	0xb4b11f8f	-3.299178e-07
187	0xb45e4f6b	-2.0704253e-07
188	0xb51ebabb	-5.9131315e-07
189	0x348fe8c1	2.6805176e-07
190	0xb608702b	-2.033087e-06
191	0xb554ed75	-7.93217e-07
192	0xb50e736c	-5.3067083e-07
193	0x35809126	9.578987e-07
194	0xb562a931	-8.4437767e-07
195	0xb5d2bc2b	-1.5700983e-06
196	0x34c44e75	3.656493e-07
197	0x348e89d4	2.6549844e-07
198	0xb47399c7	-2.2687082e-07
199	0xb593ad58	-1.1002803e-06
200	0xb48a09d8	-2.5711665e-07
201	0xb57592ae	-9.148306e-07
202	0xb5159fa4	-5.5739133e-07
203	0xb506b604	-5.018376e-07
204	0xb45d871d	-2.0631383e-07
205	0xb48d2130	-2.6287444e-07
206	0xb528af66	-6.2840115e-07
207	0xb502a1d3	-4.866426e-07
208	0xb4860a99	-2.4967156e-07
209	0xb51702d7	-5.6256016e-07
210	0xb5166358	-5.602392e-07
211	0xb45d45d8	-2.0607638e-07
212	0x33b9457c	8.627373e-08
213	0xb549ce0a	-7.517816e-07
214	0xb5166404	-5.6024896e-07
215	0xb4927e39	-2.7286458e-07
216	0x35356235	6.7570664e-07
217	0xb3b84d0b	-8.582182e-08
218	0xb4c9614d	-3.7509963e-07
219	0xb50835e4	-5.074237e-07
220	0xb4c3a89b	-3.6444257e-07
221	0xb483d90d	-2.4558577e-07
222	0xb5b75a6c	-1.3660879e-06
223	0xb5525cc7	-7.8366105e-07
224	0xb3454111	-4.5926814e-08
225	0xb500bbd2	-4.795703e-07
226	0xb46bcdea	-2.1960992e-07
227	0xb513d3df	-5.507008e-07
228	0xb52087a7	-5.9802045e-07
229	0xb42b960b	-1.5980201e-07
230	0xb62a4037	-2.5369352e-06
231	0x30a41a66	1.1940073e-09
232	0x35f8c8ab	1.8535842e-06
233	0x36403fe3	2.8647416e-06
234	0xb5d794f1	-1.6062096e-06
235	0x361cb54c	2.335134e-06
236	0xb3c6d5da	-9.258993e-08
237	0x36649e28	3.4066707e-06
238	0x343a4f24	1.7351391e-07
239	0xb63028ab	-2.6249716e-06
240	0x36210b50	2.3997454e-06
241	0x353b8fa4	6.9871953e-07
242	0x363bb473	2.7970207e-06
243	0xb58d580e	-1.0530946e-06
244	0x35bdc414	1.4138664e-06
245	0xb69c06f5	-4.649972e-06
246	0xb58c3f63	-1.0449261e-06
247	0xb613b022	-2.200723e-06
248	0x3716fd4b	8.999671e-06
249	0xb7274d59	-9.971985e-06
250	0xb5e06626	-1.671903e-06
251	0xb4f19e31	-4.5004847e-07
252	0x361aadc8	2.3048942e-06
253	0xb79e1185	-1.8843226e-05
254	0xb5c9995e	-1.5020303e-06
255	0xb6f9c473	-7.443648e-06

exp_avg_sq f4 [256, 120]
0	0x31690568	3.3909036e-09
1	0x31408577	2.8015543e-09
2	0x314fadf9	3.0221357e-09
3	0x31479ddc	2.9048044e-09
4	0x3173e27d	3.5489898e-09
5	0x31b9b812	5.405135e-09
6	0x31a50920	4.8031694e-09
7	0x31956bc5	4.3487227e-09
8	0x326a0105	1.36208245e-08
9	0x32af26d7	2.0390344e-08
10	0x32085671	7.935896e-09
11	0x3176679f	3.5856613e-09
12	0x324c9e4e	1.1910357e-08
13	0x33330f4a	4.169059e-08
14	0x32642701	1.3280215e-08
15	0x3293bef1	1.7199882e-08
16	0x32c01d57	2.2365084e-08
17	0x32cdbdcc	2.395145e-08
18	0x32960483	1.746435e-08
19	0x328b1eda	1.619576e-08
20	0x32ab2fc0	1.9928734e-08
21	0x32e52ed3	2.6680402e-08
22	0x33168390	3.5044252e-08
23	0x33300ee0	4.0991722e-08
24	0x32a4054d	1.9094523e-08
25	0x331f1292	3.7036962e-08
26	0x3331de0d	4.1412978e-08
27	0x3326c15d	3.882575e-08
28	0x331c4627	3.6385384e-08
29	0x333da1c0	4.4152102e-08
30	0x3304df19	3.093655e-08
31	0x329bcc7a	1.813736e-08
32	0x3348deac	4.6768648e-08
33	0x331d6c36	3.665283e-08
34	0x32d727e8	2.5047441e-08
35	0x32c3b2a6	2.2782228e-08
36	0x32c357dd	2.2740943e-08
37	0x31a92f26	4.9239075e-09
38	0x33111739	3.3781564e-08
39	0x335c5818	5.1302862e-08
40	0x32e00922	2.6081185e-08
41	0x31372001	2.6648197e-09
42	0x325bc3af	1.2791971e-08
43	0x32b34bab	2.0872752e-08
44	0x31e17812	6.5620123e-09
45	0x31c52249	5.7373524e-09
46	0x3271e8f7	1.4081016e-08
47	0x32b20acc	2.0726837e-08
48	0x31b4bd2f	5.260197e-09
49	0x31b43416	5.244611e-09
50	0x31a30150	4.7440736e-09
51	0x318c4f92	4.0835824e-09
52	0x31546227	3.0905853e-09
53	0x31560b02	3.1147356e-09
54	0x31546e18	3.0912641e-09
55	0x317b4463	3.656418e-09
56	0x31472e78	2.8984726e-09
57	0x3156d78a	3.1263618e-09
58	0x3154d6f7	3.0972254e-09
59	0x313b33ac	2.7241454e-09
60	0x31323d2e	2.5937186e-09
61	0x314660cb	2.8867813e-09
62	0x3141554f	2.8133689e-09
63	0x314366a2	2.8434575e-09
64	0x31389471	2.6859903e-09
65	0x313ccbd8	2.7473472e-09
66	0x31492354	2.9269431e-09
67	0x31312a1c	2.5780826e-09
68	0x31300e8f	2.5619646e-09
69	0x31349766	2.6279507e-09
70	0x3139157b	2.6933253e-09
71	0x3134ef0d	2.6329332e-09
72	0x312f9f87	2.5556532e-09
73	0x31335405	2.6095688e-09
74	0x313155b1	2.58056e-09
75	0x312f3185	2.5494e-09
76	0x312e8a97	2.5399112e-09
77	0x31300291	2.561283e-09
78	0x3130da92	2.5735614e-09
79	0x312e4b03	2.5362972e-09
80	0x312d33ec	2.5204328e-09
81	0x312e5ffe	2.5374898e-09
82	0x312f73b0	2.5531612e-09
83	0x312e411d	2.5357345e-09
84	0x312d3c87	2.520922e-09
85	0x312d8d05	2.5254974e-09
86	0x312e058b	2.5323483e-09
87	0x312d8445	2.525e-09
88	0x312dc26d	2.5285332e-09
89	0x312e527b	2.5367217e-09
90	0x312e1426	2.5331786e-09
91	0x312d2b5b	2.5199458e-09
92	0x312db930	2.528008e-09
93	0x312e0cef	2.5327684e-09
94	0x312e6fc0	2.5383855e-09
95	0x312e0a41	2.5326161e-09
96	0x31305202	2.5657987e-09
97	0x312eaf4e	2.5419982e-09
98	0x312f617b	2.5521263e-09
99	0x312d5d3f	2.5227818e-09
100	0x312fe3a7	2.5595257e-09
101	0x31329fff	2.5993356e-09
102	0x3130b3db	2.5713607e-09
103	0x3130a9f1	2.5707971e-09
104	0x3133e279	2.6176663e-09
105	0x313cdf01	2.7484364e-09
106	0x313bf5df	2.7351843e-09
107	0x31320396	2.5904447e-09
108	0x3131647e	2.5814013e-09
109	0x3143a544	2.8470177e-09
110	0x313fcd06	2.79107e-09
111	0x3138ca0d	2.6890377e-09
112	0x314582b0	2.874156e-09
113	0x3142f09e	2.836749e-09
114	0x31450235	2.8668528e-09
115	0x313b0bf4	2.7218876e-09
116	0x315614a0	3.1152823e-09
117	0x315bc988	3.1983252e-09
118	0x31520d67	3.056664e-09
119	0x3151cefd	3.0531162e-09
120	0x30b3b4a0	1.3075301e-09
121	0x30944345	1.0787536e-09
122	0x30927510	1.0656169e-09
123	0x309ab37f	1.1255991e-09
124	0x30cf6657	1.5090319e-09
125	0x30c3af77	1.4237987e-09
126	0x30a4d3b9	1.1992746e-09
127	0x3133cda4	2.6164821e-09
128	0x32055c58	7.762615e-09
129	0x30b20835	1.2953537e-09
130	0x308ddffe	1.0322763e-09
131	0x3104dda1	1.933451e-09
132	0x32230d13	9.4908215e-09
133	0x30c0120d	1.3974969e-09
134	0x321b5bdc	9.043074e-09
135	0x32266c0d	9.68704e-09
136	0x32e87e13	2.7065687e-08
137	0x3295f45c	1.7457005e-08
138	0x3290eb48	1.68708e-08
139	0x32336cca	1.0443907e-08
140	0x32000df4	7.453753e-09
141	0x32920baf	1.700195e-08
142	0x328b01f7	1.6182623e-08
143	0x32655f77	1.33512605e-08
144	0x320a6f8b	8.058019e-09
145	0x3291a439	1.6954901e-08
146	0x32d4d5cb	2.477727e-08
147	0x326c0c35	1.37397835e-08
148	0x320f0431	8.3246485e-09
149	0x32933ed7	1.7141629e-08
150	0x32630d8d	1.321622e-08
151	0x321aac43	9.003148e-09
152	0x3217cabb	8.835452e-09
153	0x32267f2f	9.69139e-09
154	0x3237afb3	1.0691951e-08
155	0x320e7c9f	8.293823e-09
156	0x3216288b	8.7403675e-09
157	0x32fb3179	2.9242743e-08
158	0x325a7744	1.2716388e-08
159	0x32bcac5a	2.1964457e-08
160	0x324d0519	1.193373e-08
161	0x32b8c245	2.1508763e-08
162	0x328a3517	1.6089457e-08
163	0x31ce1098	5.9972756e-09
164	0x3149d19b	2.9368497e-09
165	0x311cca41	2.2815956e-09
166	0x31fd05d8	7.3639335e-09
167	0x31dca825	6.4219585e-09
168	0x31195da3	2.2317657e-09
169	0x313f4af9	2.7836775e-09
170	0x30dc8137	1.6043832e-09
171	0x31308113	2.568474e-09
172	0x30b5a069	1.3215075e-09
173	0x30aa48c2	1.2389807e-09
174	0x30c0618a	1.3997561e-09
175	0x30c93598	1.4639907e-09
176	0x30a571b0	1.2037642e-09
177	0x3096afa9	1.0963862e-09
178	0x30a18814	1.1752967e-09
179	0x3096b48d	1.0965252e-09
180	0x30974178	1.1005303e-09
181	0x3097523a	1.1010066e-09
182	0x309a2a01	1.1216913e-09
183	0x3095de8c	1.0904428e-09
184	0x309865a7	1.1088347e-09
185	0x30937f7e	1.0731893e-09
186	0x30948f7f	1.0809201e-09
187	0x308fd414	1.0464896e-09
188	0x308eb39c	1.0382908e-09
189	0x3096fd6f	1.0985967e-09
190	0x3099b529	1.1183704e-09
191	0x30922a18	1.0634862e-09
192	0x308da9cf	1.0307363e-09
193	0x309260ea	1.0650443e-09
194	0x30925d2e	1.0649381e-09
195	0x308ece0f	1.0390425e-09
196	0x308e881d	1.0370546e-09
197	0x308fb1e8	1.0455183e-09
198	0x308ebbc2	1.0385224e-09
199	0x308d5541	1.0283331e-09
200	0x308ddb2f	1.0321396e-09
201	0x308f159a	1.0410759e-09
202	0x308df179	1.0327731e-09
203	0x308d91ea	1.0300572e-09
204	0x308d7080	1.0291075e-09
205	0x308d13d1	1.0264732e-09
206	0x308c5a10	1.0211938e-09
207	0x308e437d	1.0351041e-09
208	0x308df97a	1.0330006e-09
209	0x308d995d	1.0302689e-09
210	0x308cefef	1.0254534e-09
211	0x308d35c0	1.0274377e-09
212	0x308e505c	1.0354699e-09
213	0x308d9fe1	1.030454e-09
214	0x308dcab8	1.0316716e-09
215	0x308c9646	1.0229051e-09
216	0x308dfb9b	1.0330611e-09
217	0x308fca99	1.0462201e-09
218	0x308dc85f	1.0316049e-09
219	0x308dcf6c	1.0318053e-09
220	0x308e605c	1.0359247e-09
221	0x308ec754	1.0388512e-09
222	0x30911aa9	1.0557716e-09
223	0x308d7257	1.0291598e-09
224	0x30939aa7	1.0739613e-09
225	0x3096546a	1.0937928e-09
226	0x3092892d	1.0661886e-09
227	0x308ee83a	1.0397863e-09
228	0x309230fd	1.0636821e-09
229	0x3099e8a0	1.1198331e-09
230	0x3095f977	1.0912079e-09
231	0x3095331c	1.0855703e-09
232	0x309b719e	1.1310026e-09
233	0x30975e3e	1.1013481e-09
234	0x3099624a	1.1160151e-09
235	0x3095a43c	1.0887855e-09
236	0x309b1f91	1.1286706e-09
237	0x30a4b84a	1.1984949e-09
238	0x30a70415	1.2152009e-09
239	0x30a7d3cc	1.2211046e-09
240	0x312ac606	2.485082e-09
241	0x3126bc37	2.4263167e-09
242	0x312c9ff0	2.5120208e-09
243	0x312c5bea	2.5081541e-09
244	0x31294461	2.4631606e-09
245	0x312f4c30	2.550916e-09
246	0x31366c0a	2.6545899e-09
247	0x313215cc	2.59148e-09
248	0x31afe6db	5.1194156e-09
249	0x31afdc0e	5.1181877e-09
250	0x31347d74	2.626476e-09
251	0x312c510b	2.5075362e-09
252	0x320b27a3	8.099877e-09
253	0x3297f9fc	1.7692393e-08
254	0x3211bbc4	8.482804e-09
255	0x31f9d6f2	7.2712902e-09
