Training/PyTrainer/epoch=41.ckpt (torch, 706309 bytes, 32 tensors)

net.0.weight f4 [256, 120]
0	0x3c4321bb	0.011909897
1	0x3c766a06	0.015039926
2	0xbbe6a32a	-0.0070384936
3	0x3c94497e	0.01810145
4	0x3dbf2446	0.093330905
5	0x3e7da470	0.24769759
6	0x3d2f9ade	0.042872302
7	0x3d84123a	0.06448789
8	0x3c253ffc	0.010086056
9	0xbcde8659	-0.027163671
10	0x3ea35ac0	0.31905174
11	0xbd1eef9f	-0.03880274
12	0xbe0ca764	-0.1373573
13	0x3df3d197	0.119052105
14	0xbc0dfe8c	-0.008666646
15	0xbb0ed234	-0.0021792771
16	0x3a5cd4da	0.00084240513
17	0x3dba701d	0.09103415
18	0x3dd73d0b	0.1050969
19	0x3cae103a	0.021247972
20	0x3d1459b6	0.036218368
21	0xbd83e06c	-0.064392895
22	0x3a658e3f	0.0008756853
23	0x39edf304	0.00045385223
24	0xbb94df67	-0.004543233
25	0x3d2a4400	0.041568756
26	0x3d5ca578	0.05386874
27	0x3cfa251a	0.03053527
28	0xbd9d4072	-0.076783076
29	0xbda5e56c	-0.081003994
30	0xbdaf2212	-0.0855142
31	0xbd1c48d2	-0.038155384
32	0xbac6536f	-0.0015131066
33	0xbe1d62d5	-0.15369733
34	0xbd60852c	-0.054814503
35	0xbd1712a7	-0.036883023
36	0xbcc17f10	-0.023620158
37	0x3eaa95e4	0.33317482
38	0xbd41e521	-0.047337655
39	0xbc4f19ea	-0.012640456
40	0xbb111344	-0.0022136727
41	0x3c3d9e3a	0.011573369
42	0xbef705de	-0.48246664
43	0x3c8f2345	0.017472873
44	0x3c0e5f20	0.008689672
45	0x3c924954	0.017857231
46	0xbd0c78e4	-0.034294978
47	0xbd68e02b	-0.05685441
48	0x3cea9492	0.028635297
49	0x3cbff1cc	0.023430727
50	0x3d21991e	0.039452665
51	0x3c98b96c	0.018643104
52	0x3b620775	0.0034489308
53	0x3d1c3d81	0.038144592
54	0x3cc627f7	0.024188979
55	0xbc7a75bf	-0.015286862
56	0x3ab3ca5c	0.0013716924
57	0x3c01f6c3	0.007932368
58	0xbd8ce86e	-0.0688027
59	0xbe55711a	-0.20843926
60	0x3cde7df6	0.027159672
61	0x3d516130	0.051118076
62	0xbd047e68	-0.032347113
63	0xbe21f5dc	-0.15816444
64	0x3d240dde	0.040052287
65	0x3eba9ff5	0.36450163
66	0x3dcc80bc	0.09985492
67	0xbde73676	-0.112896845
68	0x3c04e86b	0.008112053
69	0xbd1fd856	-0.039024673
70	0x3e1c0a93	0.15238409
71	0xbc7191d5	-0.014744242
72	0xbd486fc0	-0.048934698
73	0x3d6fc216	0.058534704
74	0x3d3ed1e3	0.046586882
75	0xbc92f22a	-0.017937738
76	0xbcbaa27b	-0.022782555
77	0x3c9ccf2a	0.019141752
78	0x3d15eae8	0.036600977
79	0x3c65c1cc	0.014023256
80	0xbdd4c798	-0.10389632
81	0xbe485d8b	-0.19566934
82	0xbcbea703	-0.023272997
83	0x3db0edfd	0.08639143
84	0xbe882d4c	-0.2659706
85	0xbe449560	-0.19197607
86	0xbcc6921c	-0.024239592
87	0xbcb623c3	-0.02223385
88	0xbe7ec258	-0.24878824
89	0xbe28703e	-0.16449067
90	0xbdfa2c1c	-0.122154444
91	0xbdbb7af0	-0.09154308
92	0xbd8b9a1a	-0.06816502
93	0xbde1cf6e	-0.11025892
94	0xbea14590	-0.31498384
95	0xbde5fdd9	-0.11230058
96	0xbce7f80b	-0.028316518
97	0xbf118d8f	-0.56856626
98	0xbf27a472	-0.654853
99	0xbc7c9db5	-0.01541846
100	0x3ae1410c	0.0017185523
101	0xbd8e5632	-0.06950034
102	0xbeceeac2	-0.4041348
103	0xbd0dd1a2	-0.03462375
104	0xbb3b620c	-0.0028592376
105	0xbda5a378	-0.0808782
106	0xbf280f94	-0.6564877
107	0xbd1bd647	-0.038046148
108	0x3cb2188e	0.021740224
109	0x3d028f08	0.031874686
110	0x3dc9f81c	0.09861776
111	0xbd05574a	-0.03255395
112	0x3d830b60	0.06398654
113	0x3db30630	0.087414145
114	0x3d726179	0.05917499
115	0xbc0db77e	-0.008649705
116	0x39299108	0.00016171124
117	0x3d53a767	0.05167332
118	0x3da882e2	0.08228089
119	0xbc5787f0	-0.013154969
120	0xbcda5aa6	-0.026654553
121	0xbc0ff9a8	-0.00878755
122	0xbd10be94	-0.035338
123	0x3abc9bf4	0.0014389739
124	0xbd46dc34	-0.048549846
125	0xbe412072	-0.18860033
126	0xbdb4ab13	-0.08821692
127	0xbcd1b196	-0.025597375
128	0x3ca0f83c	0.019649617
129	0x3e236c9a	0.15959397
130	0xbe00ebf8	-0.12590015
131	0xbbca2d6e	-0.0061699664
132	0x3e8e5f60	0.2780714
133	0x3e2cf996	0.16892084
134	0xbc4f39b2	-0.012648033
135	0xbc9943f4	-0.01870916
136	0x3d5a37ee	0.053275995
137	0x3d6fd69c	0.058554277
138	0x3d4fbf7e	0.05071973
139	0xbc90bdbe	-0.017668601
140	0x3d2af7c0	0.04174018
141	0x3d4b81f8	0.049684495
142	0x3cd458d7	0.025921268
143	0xbc84c076	-0.016205054
144	0x3c512663	0.0127655
145	0x3d4b6495	0.04965647
146	0x3b8aec4b	0.004239594
147	0x3c42ff17	0.0119016385
148	0xbd36277a	-0.04447124
149	0xbd377508	-0.044789344
150	0x3ae1d22b	0.0017228773
151	0x3c9d86c3	0.019229298
152	0xbd8a3340	-0.067480564
153	0xbda135c8	-0.07871586
154	0xbc6c3550	-0.014417008
155	0xbc73b4e1	-0.014874668
156	0xbe0f24a8	-0.13978827
157	0xbe0c7e52	-0.13720062
158	0xbaa605d6	-0.0012666534
159	0x3bd34588	0.0064474978
160	0xbcbee8b1	-0.023304315
161	0x3e943c5d	0.28952304
162	0xbc28f1b4	-0.010311533
163	0xbcc4b916	-0.024014037
164	0xbd053de6	-0.032529734
165	0x3c4dea1e	0.012568025
166	0xbc509bac	-0.012732428
167	0xbcc587a4	-0.02411253
168	0xbd57ca7c	-0.05268334
169	0xbc55a9c4	-0.013040964
170	0xbd0f16b8	-0.034933776
171	0xbc330370	-0.0109261125
172	0xbca13ff3	-0.019683814
173	0x3b9f11a1	0.0048543965
174	0xbc7afe81	-0.0153194675
175	0xbc07e4a7	-0.008294261
176	0x3c98ce6a	0.018653113
177	0x3b7e8190	0.003883455
178	0x3c8bda3d	0.017071838
179	0x3ccf9718	0.025340602
180	0x3ea88bba	0.32919103
181	0x3b502e6c	0.003176595
182	0xba9c4a7d	-0.0011924055
183	0x3b5d4bd8	0.003376713
184	0x3f13912e	0.576434
185	0x3e690884	0.22757155
186	0x3d02ca96	0.031931482
187	0x3bccfcf3	0.00625574
188	0x3da598ba	0.08085771
189	0x3e68b424	0.22724968
190	0x3dabf0bf	0.08395528
191	0xbb3739ee	-0.0027958113
192	0x3e815d3c	0.25266445
193	0x3e4c7b94	0.19969016
194	0x3af1b727	0.0018441424
195	0x3d1c4c39	0.03815863
196	0x3e624b69	0.22099079
197	0x3d9f1f2a	0.07769616
198	0xbcc73413	-0.024316823
199	0x3cecb18a	0.028893251
200	0x3dc8808f	0.097901456
201	0xbcb4300f	-0.021995572
202	0xbd48e532	-0.049046703
203	0x3ba45ac5	0.0050157034
204	0x3e3895dc	0.18025917
205	0x3e017490	0.12642121
206	0x3daf17b6	0.085494444
207	0xbcef0003	-0.02917481
208	0xbce0e7a8	-0.027454212
209	0xbdaa36d6	-0.083112404
210	0xbd205482	-0.039143093
211	0xbd383ac8	-0.044977933
212	0xbe60239e	-0.21888587
213	0xbdf7ab30	-0.12093198
214	0xbe17cbac	-0.14823788
215	0xbaabd5bc	-0.0013109962
216	0xbea37483	-0.3192483
217	0xbea08f9d	-0.31359568
218	0xbc6ee5a6	-0.01458112
219	0x3d008c1a	0.03138361
220	0xbd7614ff	-0.060078617
221	0xbddcb72e	-0.10777126
222	0xbd969d26	-0.073541924
223	0xbcc00b90	-0.023443013
224	0xbe2a880a	-0.16653457
225	0xbf51e6d2	-0.8199283
226	0x3c300d0b	0.010745297
227	0x3ca7989e	0.020458516
228	0xbd833cb4	-0.064080626
229	0xbd96198a	-0.0732909
230	0xbdcf0bfe	-0.10109709
231	0xbd131b58	-0.03591475
232	0xbd2f2680	-0.042761326
233	0xbceee9ce	-0.029164221
234	0xbd4e71dd	-0.050401557
235	0xbcec5875	-0.028850773
236	0xbd831ebe	-0.06402348
237	0xbd1a12cc	-0.037615582
238	0xbc5474a7	-0.012967265
239	0xbce17859	-0.027523207
240	0xbbd4a0dc	-0.0064889025
241	0x3d9c6ada	0.07637568
242	0xbd2b47ea	-0.04181663
243	0x3d411b6a	0.047145285
244	0xbd2642f0	-0.04059118
245	0x3d19f7bc	0.037589774
246	0xbc8354f0	-0.016031712
247	0x3c4debe0	0.012568444
248	0x3d267272	0.040636487
249	0xbe421d48	-0.18956482
250	0x3d330d08	0.0437136
251	0xbd8b7020	-0.068084955
252	0xbf264d2e	-0.64961517
253	0xbc9617de	-0.018321928
254	0x3c3fb194	0.011700053
255	0xbbfd65d4	-0.007733086

net.0.bias f4 [256]
0	0xbd151c88	-0.036404163
1	0xbe18f779	-0.14938153
2	0x3e430393	0.19044332
3	0xbd288a96	-0.04114779
4	0xbdc29859	-0.09501714
5	0xbde20702	-0.11036493
6	0xbdeee9e6	-0.11665706
7	0x3e0f9b7c	0.14024156
8	0x3cdf23c6	0.027238738
9	0x3c78b950	0.015180901
10	0x3e533df2	0.20629099
11	0xbb312743	-0.0027031458
12	0x3d25e722	0.04050363
13	0xbdcf370a	-0.1011792
14	0xbc53148c	-0.012883317
15	0x3e388792	0.18020466
16	0x3e6b548a	0.22981468
17	0xbe537750	-0.20650983
18	0xbe01c4f0	-0.12672782
19	0xbe0f359c	-0.13985294
20	0xbd983fae	-0.07434021
21	0xbdaffd4c	-0.085932344
22	0xbe392c86	-0.1808339
23	0x3d8ca207	0.06866842
24	0x3e8c41ce	0.27393955
25	0xbc70bd36	-0.014693549
26	0xbda6acb7	-0.081384115
27	0x3e7051b2	0.23468664
28	0xbe34eafd	-0.17667766
29	0xbce150fc	-0.027504437
30	0xbced5fdc	-0.028976373
31	0x3e4328b4	0.19058496
32	0x3d1f7df2	0.03893847
33	0x3dee27d5	0.11628691
34	0xbd67f882	-0.05663348
35	0x3dbda9e8	0.09260923
36	0xbe5ccaea	-0.2156178
37	0xbdb1eb28	-0.086874306
38	0xbd883c94	-0.06652179
39	0xbe40a266	-0.1881195
40	0xbdb58d80	-0.088648796
41	0xbdb955f3	-0.09049597
42	0xbb63284e	-0.0034661475
43	0x3e790ce7	0.24321328
44	0x3db953d8	0.09049195
45	0x3dfcd65f	0.123455755
46	0x3e8b1a72	0.27168614
47	0xbe69cfba	-0.22833148
48	0xbdd40cce	-0.10354005
49	0x3d612250	0.054964364
50	0xbd9e05a4	-0.077159196
51	0x3e418290	0.18897462
52	0xbdd268a6	-0.10273866
53	0xbdcbd6e7	-0.09953099
54	0xbdec9bb8	-0.115531385
55	0xbe1cc48e	-0.15309355
56	0x3e90f09c	0.2830857
57	0xbe52dc99	-0.20591964
58	0x3df20ab2	0.11818446
59	0x3dcb4c84	0.099267036
60	0x3dcadefc	0.09905812
61	0x3e433c36	0.19065937
62	0xbe45aa26	-0.19303188
63	0xbe4267af	-0.18984865
64	0xbd84430a	-0.06458099
65	0xbea34550	-0.3188882
66	0x3e881b0f	0.26583144
67	0x3df3377c	0.11875817
68	0xbe6d8796	-0.23196253
69	0xbda3b734	-0.079939276
70	0xbe873275	-0.26405683
71	0x3e2c0567	0.16798936
72	0x3dc0d044	0.094147235
73	0x3e92b792	0.28655678
74	0xbb99937b	-0.0046867705
75	0xbd892ad4	-0.06697622
76	0xbc95998b	-0.018261692
77	0x3e8a227a	0.2697943
78	0x3d85e94f	0.06538641
79	0xbdf20678	-0.1181764
80	0xbe37032f	-0.17872308
81	0x3e674e6c	0.2258851
82	0x3cab7f76	0.020934802
83	0x3dc53f91	0.09631265
84	0x3de9889e	0.11403011
85	0x3dca0d08	0.09865767
86	0xbd075afa	-0.033045746
87	0x3df44f80	0.11929226
88	0xbe25b639	-0.16182794
89	0xbe1af002	-0.15130618
90	0xbd870876	-0.06593411
91	0x3d21b00a	0.039474525
92	0xbce0ca3e	-0.027440187
93	0xbe094672	-0.13405779
94	0x3d32cf07	0.043654468
95	0x3e4e641b	0.20155375
96	0xbd81641e	-0.06317924
97	0x3df2bc9d	0.118523814
98	0xbe80c71a	-0.25151902
99	0xbdf6d5c8	-0.12052494
100	0xbcc5278a	-0.024066705
101	0xbe9e6f66	-0.30944365
102	0xbd9552d8	-0.07291192
103	0xbd8cb772	-0.06870927
104	0x3da9112e	0.0825523
105	0x3e572a09	0.21012129
106	0x3da8dfa0	0.08245778
107	0xbd714492	-0.058903284
108	0xba1322e1	-0.00056128023
109	0x3afef653	0.0019452072
110	0xbd7052ae	-0.0586726
111	0x3c2a542c	0.010396045
112	0x3e2cc661	0.1687255
113	0xbcf671ba	-0.030083526
114	0x3e0756a2	0.13216642
115	0x3e1023df	0.14076184
116	0x3e1b8f1c	0.1519131
117	0xbcdf23c2	-0.02723873
118	0xbd3c69d8	-0.045999378
119	0xbd9bdc36	-0.07610361
120	0x3c962f5e	0.018333133
121	0x3e99c28e	0.30031246
122	0xbe23cec2	-0.1599684
123	0x3e63f7f8	0.22262561
124	0xbed84563	-0.42240438
125	0x3e3da218	0.18518865
126	0xbe203420	-0.15644884
127	0x3e279082	0.16363719
128	0xbe9e1ad4	-0.30879843
129	0x3d7ae7c0	0.06125617
130	0xbe85abce	-0.2610764
131	0xbeea0510	-0.45706987
132	0xbdd9cbc2	-0.10634567
133	0xbde75dfe	-0.112972245
134	0xbe86424a	-0.2622245
135	0xbe62415f	-0.2209525
136	0x3e63b4e4	0.22236973
137	0xbe384f4c	-0.17999
138	0x3cde2df6	0.027121525
139	0x3e55eed4	0.20891887
140	0xbd019238	-0.031633586
141	0x3c80fa51	0.01574436
142	0xbd141920	-0.036156774
143	0x3a12db80	0.0005602166
144	0x3e98108e	0.2970013
145	0x3dfa63db	0.12226077
146	0x3d3bbdf6	0.045835458
147	0x3e2b7a86	0.16745958
148	0x3b167d3c	0.002296283
149	0x3db06a7e	0.08614062
150	0x3e5405d1	0.20705344
151	0x3c7746e5	0.015092586
152	0xbd99f674	-0.0751771
153	0x3d95c5ba	0.07313104
154	0x3e3628ba	0.17788973
155	0x3e50444a	0.2033855
156	0xbd953b72	-0.07286729
157	0x3ddc1559	0.10746259
158	0xbe65ff66	-0.22460708
159	0xbe129921	-0.14316227
160	0x3d4d8634	0.050176814
161	0x3c8baff2	0.01705167
162	0x3dcd0ed7	0.10012596
163	0x3e75bc5c	0.23997635
164	0x3e76a9b8	0.2408818
165	0x3e8b6fdf	0.27233788
166	0xbe625bcf	-0.22105335
167	0x3dd21d24	0.102594644
168	0x3e37b570	0.17940307
169	0x3d8eac05	0.06966404
170	0xbc0fd004	-0.008777622
171	0xbe8d8b95	-0.27645555
172	0xbdcae64f	-0.09907209
173	0x3cb3179a	0.02186184
174	0x3e19812b	0.1499068
175	0x3dcd3782	0.10020353
176	0xbc6f52fa	-0.0146071855
177	0xbeb63158	-0.3558452
178	0x3e969679	0.29411677
179	0x3e29ca90	0.16581178
180	0x3e221118	0.15826833
181	0xbd568912	-0.052376814
182	0xbe468a6c	-0.19388741
183	0x3e17ef4d	0.1483738
184	0xbdfcc42c	-0.12342104
185	0x3e83ae21	0.25718787
186	0xbc1b6d28	-0.009486474
187	0x3d67b350	0.05656749
188	0xbe80f7e6	-0.25189131
189	0xbdf85d4a	-0.121271685
190	0xbd44a7c0	-0.04801154
191	0x3d8770ee	0.066133365
192	0xbe03807e	-0.12841985
193	0x3e63fa8a	0.22263542
194	0xbe3f53f5	-0.18684371
195	0x3dd29b04	0.10283473
196	0x3dd970ee	0.10617243
197	0xbe049578	-0.12947643
198	0x3dce1964	0.100634366
199	0x3e086870	0.1332109
200	0x3d8e8a12	0.069599286
201	0x3e94317e	0.2894401
202	0xbe1a595c	-0.1507315
203	0xbc760d99	-0.01501789
204	0x3c98c982	0.018650774
205	0xbe2cc610	-0.1687243
206	0xbebfae3e	-0.37437624
207	0xbe53a528	-0.20668471
208	0x3e02c1de	0.12769267
209	0x3e1c597c	0.1526851
210	0xbdc813c2	-0.097693935
211	0xbe141306	-0.14460382
212	0x3da04c7e	0.0782709
213	0xbe4dd00a	-0.20098892
214	0x3e72ad9a	0.23699036
215	0x3e44e32a	0.19227281
216	0x3d1a2dcd	0.037641335
217	0xbebedd54	-0.37278235
218	0xbdf86e2e	-0.1213039
219	0x3df1801b	0.11792012
220	0x3b99378e	0.004675812
221	0xbd721721	-0.05910409
222	0x3d26775a	0.040641166
223	0x3db4f5bc	0.088359326
224	0xbc390b7a	-0.01129424
225	0xbd47b1e2	-0.048753627
226	0x3d493a96	0.049128138
227	0xbe337244	-0.17524058
228	0xbae2262f	-0.0017253811
229	0x3e3cfea6	0.18456516
230	0x3e6ec956	0.23318991
231	0xbd038b7a	-0.032115437
232	0x3e26d45c	0.16291946
233	0x3df173e0	0.117896795
234	0xbe28d818	-0.16488683
235	0xbe8fcf7a	-0.2808798
236	0xbd56fb3c	-0.05248569
237	0xbdc24c5b	-0.0948722
238	0x3d7398aa	0.059471764
239	0xbd3ff272	-0.046862073
240	0xbc9f0fa2	-0.019416634
241	0xbd96480a	-0.07337959
242	0x3cf62122	0.030045096
243	0xbe1911c6	-0.14948186
244	0xbe5b5cd7	-0.21422134
245	0x3e3c4cb8	0.18388641
246	0x3d35f349	0.044421468
247	0x3c3ea4ee	0.011636002
248	0x3dfd54b3	0.12369671
249	0x3dc11e3c	0.09429595
250	0xbe2dbeea	-0.16967359
251	0x3e1101b6	0.14160809
252	0xbbf0e3a0	-0.0073513538
253	0x3e24e0f3	0.16101436
254	0x3e02f1b0	0.12787509
255	0xbceb9936	-0.02875958

net.2.weight f4 [32, 256]
0	0xbd751776	-0.059836827
1	0xbde61fb0	-0.11236513
2	0xb9efd480	-0.00045743957
3	0xbd9c41d1	-0.07629741
4	0xbd05fff0	-0.032714784
5	0x3dbb6443	0.09149983
6	0xbd3a4f9e	-0.045486085
7	0xbd872d18	-0.06600398
8	0xbd18a020	-0.037262082
9	0xbe15be06	-0.1462327
10	0x3dd580a6	0.10424928
11	0x3d6790ae	0.05653446
12	0xbdf9a06a	-0.121888
13	0xbbb32e36	-0.0054681553
14	0xbda27216	-0.079319164
15	0x3d5f4d86	0.05451729
16	0x3ce8de1a	0.028426219
17	0x3e467c71	0.19383408
18	0x3cb0cd9e	0.02158242
19	0xbcc99f80	-0.024612188
20	0x3ccfd8e6	0.02537198
21	0x3cb01d5c	0.021498375
22	0xbcf467bc	-0.02983462
23	0xbb6378b8	-0.0034709405
24	0xbd34a856	-0.04410585
25	0x3d9f8cfe	0.07790564
26	0xbd045494	-0.032307222
27	0x3d51f29a	0.051256754
28	0xbd5ab471	-0.05339474
29	0x3d972170	0.073794246
30	0x3d7ba736	0.06143876
31	0xbbd55e8e	-0.006511516
32	0x3d1bc263	0.03802718
33	0xbda7caa0	-0.081929445
34	0xbd33f038	-0.043930262
35	0x3dbdad06	0.09261517
36	0x3d78e56b	0.060765665
37	0x3de81562	0.113322034
38	0xbdbc53ea	-0.09195693
39	0xbbbc88ea	-0.005753626
40	0xbdc19b0b	-0.094534
41	0xbd616be1	-0.055034522
42	0x3db4d686	0.088299796
43	0x3c071a32	0.008245992
44	0xbdd4fe68	-0.10400087
45	0x3d8bfc5b	0.06835242
46	0xbcef2686	-0.029193174
47	0x3d3f5907	0.046715762
48	0xbcfd12ad	-0.030892694
49	0xbdf13b0e	-0.11778842
50	0xbe1200a8	-0.14258063
51	0xbe109a7c	-0.14121431
52	0x3b07ca24	0.002071985
53	0x3c24a980	0.010050178
54	0x3cb9c5c2	0.022677306
55	0x3d9ebe76	0.07751171
56	0x3d112952	0.035439797
57	0x3d5be484	0.053684726
58	0xbd7e2c4b	-0.06205396
59	0xbdf4b022	-0.11947657
60	0x3d6c7bc0	0.057735205
61	0xbc550a9c	-0.013003018
62	0xbda672c5	-0.08127359
63	0xbdc0c620	-0.09412789
64	0xbd92d6fe	-0.07169913
65	0x3c7c90dd	0.0154153975
66	0xbcee7896	-0.029110234
67	0x3d023f4e	0.031798653
68	0x3c9a5fe1	0.018844547
69	0x3bacc813	0.005272874
70	0xbb9ec81d	-0.0048456327
71	0x3e35e3cc	0.17762679
72	0x3dcd81f0	0.10034549
73	0x3c2af272	0.01043378
74	0xbd96516a	-0.07339747
75	0xbdf9dc54	-0.122002274
76	0x3d52a0a2	0.051422723
77	0x3ce70fc2	0.028205756
78	0x3de4605f	0.11151194
79	0xbe20caee	-0.15702412
80	0xbd6cb9d6	-0.057794414
81	0xbd00ae25	-0.031416077
82	0x3dbef332	0.093237296
83	0x3da7b568	0.08188897
84	0xbd60b2f0	-0.054858148
85	0x3d9d66e0	0.076856375
86	0xbc379244	-0.011204306
87	0x3dcfeb30	0.1015228
88	0xbce17a26	-0.027524065
89	0xbd85c75d	-0.06532166
90	0xbd5dfcc8	-0.05419615
91	0xbd991755	-0.07475153
92	0x3bbc7513	0.005751261
93	0x3de66aab	0.11250814
94	0xbe159cdf	-0.14610623
95	0x3cef2644	0.029193051
96	0xbd6f784b	-0.05846433
97	0xbd6abcbe	-0.057308905
98	0x3d3e9936	0.046532832
99	0xbdae92a6	-0.08524065
100	0xbe4d4f3e	-0.2004976
101	0xbe01b6fb	-0.12667458
102	0xbda4db42	-0.080496326
103	0xbcae44f4	-0.021273114
104	0x3cf319b8	0.02967535
105	0x3c3ed09a	0.011646414
106	0xbd1902b9	-0.037356112
107	0xbd72b0d8	-0.059250683
108	0xbd354372	-0.044253774
109	0x3d98ab47	0.074545436
110	0x3d4c6478	0.049900502
111	0xbdc99ce0	-0.09844375
112	0xbd3d507f	-0.046219345
113	0xbd9304c1	-0.07178641
114	0x3d427458	0.047474235
115	0xbce6cc35	-0.028173545
116	0x3e200623	0.15627341
117	0x3cb5fd0e	0.022215392
118	0x3d2dfd94	0.04247816
119	0xbd5d4ec4	-0.054030195
120	0xbd8b3612	-0.067974225
121	0x3d9bf0b0	0.07614267
122	0xbaae4ea8	-0.0013298588
123	0x3e0abc26	0.13548335
124	0xbe3d7e68	-0.18505251
125	0x3c847bd4	0.016172327
126	0xbd1fa08a	-0.03897146
127	0xbdbe3032	-0.09286536
128	0xbd90f662	-0.07078244
129	0xbd53e02e	-0.051727466
130	0xbd889b2c	-0.06670222
131	0x3e47bad6	0.19504866
132	0xbcf28c82	-0.029608015
133	0x3d9c5616	0.07633607
134	0xbde883c7	-0.113532595
135	0xbd8a95d4	-0.06766859
136	0x3d4a70c6	0.049423955
137	0x3c9e4a32	0.019322488
138	0x3cac2aa9	0.021016436
139	0x3d8070a6	0.06271486
140	0x3de886ba	0.11353822
141	0x3deea7be	0.11653088
142	0x3c469ab8	0.012121849
143	0x3db50e0b	0.08840569
144	0x3e368c48	0.1782695
145	0x3dfe07ee	0.12403856
146	0x3dd74f44	0.105131656
147	0x3d3b131e	0.04567253
148	0xbce2c015	-0.027679482
149	0x3d9b48ce	0.07582246
150	0xbdda5e2e	-0.106624946
151	0x3dc24e0a	0.09487541
152	0xbd495afd	-0.04915904
153	0xbd64dca1	-0.05587447
154	0xbdb45bae	-0.08806549
155	0x3c8dca2c	0.017308317
156	0x3da59d7c	0.080866784
157	0xbc744ca8	-0.014910854
158	0xbe425e3a	-0.18981257
159	0x3d98088e	0.07423507
160	0xbd813055	-0.06308047
161	0xbc86070e	-0.016360786
162	0xbdd4bee1	-0.1038797
163	0x3de533aa	0.11191495
164	0xbc97fa78	-0.01855205
165	0xbd8c6c30	-0.06856573
166	0xbc75df4d	-0.015006852
167	0xbd895768	-0.067061245
168	0xbd693b48	-0.0569413
169	0x3ca875e2	0.020564023
170	0xbd34dcb8	-0.044155806
171	0xbcb9fa17	-0.02270226
172	0x3c55bf3f	0.013046085
173	0xbd9301dc	-0.07178089
174	0x3cf0be0e	0.0293875
175	0x3d414494	0.04718454
176	0x3d3f9c47	0.046779897
177	0x3c8070d6	0.015678804
178	0x3d87b5da	0.06626482
179	0x3e2cd344	0.16877466
180	0xbd497aee	-0.0491895
181	0x3cbffa04	0.023434646
182	0x3e1421f8	0.14466083
183	0x3c0f449c	0.008744385
184	0x3b690a9c	0.0035559302
185	0x3d08a46a	0.033359922
186	0xbd59f578	-0.053212613
187	0xbcb595bb	-0.022166124
188	0xbd9fa71e	-0.07795547
189	0xbe357097	-0.17718731
190	0x3d97597b	0.07390114
191	0x3dca5696	0.09879796
192	0x3d27220a	0.040803947
193	0xbcfadc50	-0.030622631
194	0x3db3c51c	0.0877783
195	0x3d6fe142	0.058564432
196	0x3d9add91	0.07561792
197	0x3e16026e	0.14649364
198	0x3e3f8056	0.187013
199	0x3d85bde7	0.065303616
200	0xbd0263f7	-0.031833615
201	0xbd217d29	-0.039426003
202	0x3c213608	0.009839542
203	0xbd176ea6	-0.036970757
204	0x3d77891b	0.06043349
205	0x3dcd26f8	0.10017198
206	0xbd9609a4	-0.073260576
207	0xbd1af846	-0.03783443
208	0x3db3e533	0.08783951
209	0x3bc12524	0.00589432
210	0x3b7251fb	0.0036975134
211	0xbdb51bd1	-0.08843196
212	0xbcfea6d8	-0.031085417
213	0xbdc609e8	-0.09669858
214	0xbcf5ef97	-0.030021472
215	0x3d8714f0	0.065957904
216	0xbda63018	-0.08114642
217	0x3db4d5e7	0.08829861
218	0xbe028994	-0.12747794
219	0x3d4e27f9	0.05033109
220	0x3c1a3c80	0.009413838
221	0xbd832232	-0.064030066
222	0x3dab5b12	0.0836698
223	0x3dbc6226	0.09198408
224	0xbd00d118	-0.031449407
225	0xbdc151d2	-0.09439434
226	0x3c596d6a	0.013270715
227	0xbda2c7d6	-0.07948272
228	0xbbb9b793	-0.0056676357
229	0x3d7f95da	0.06239877
230	0x3c50125c	0.01269969
231	0x3cc851dd	0.024453098
232	0x3cd8599a	0.026409913
233	0xbd05554a	-0.03255204
234	0xbd976a73	-0.073933505
235	0x3d40921d	0.047014344
236	0xbcf7ed17	-0.03026442
237	0xbd1f9446	-0.038959764
238	0x3d4edc2c	0.05050294
239	0x3dd77e44	0.1052213
240	0xbdb1f1ea	-0.086887196
241	0x3cd7fa30	0.026364416
242	0xbcff67bf	-0.0311774
243	0xbe3c0050	-0.18359494
244	0x3e0b48f6	0.13602051
245	0x3c6f7b92	0.014616864
246	0xbce0195a	-0.027355839
247	0xbc9fd320	-0.019509852
248	0xbd0b9dea	-0.034086145
249	0x3dbe7058	0.092987716
250	0x3d622e5e	0.05522
251	0x3e0066dc	0.12539238
252	0x3d1c4b30	0.038157642
253	0x3bbce3ba	0.005764452
254	0x3daa742d	0.0832294
255	0x3bff72bc	0.00779566

net.2.bias f4 [32]
0	0x3e3bd208	0.1834184
1	0x3e4cd9c0	0.2000494
2	0x3e36b833	0.17843704
3	0x3e544106	0.2072793
4	0x3e6fe12e	0.23425743
5	0x3e45a691	0.19301821
6	0x3d6dbc33	0.05804081
7	0x3d6921ba	0.05691693
8	0x3e730bfa	0.23735037
9	0x3e04014a	0.12891117
10	0xbdc27c8e	-0.09496413
11	0x3e3510ce	0.17682192
12	0x3d55a2b8	0.052157134
13	0x3e067056	0.1312879
14	0x3e1de21c	0.15418285
15	0x3dfbaa9f	0.12288403
16	0x3e22cc62	0.15898278
17	0x3dbc2c6e	0.09188162
18	0x3e06db1f	0.13169526
19	0x3d964f0c	0.07339296
20	0x3def816a	0.11694606
21	0xbd2de796	-0.042457186
22	0x3e6e31cc	0.23261184
23	0x3e33b6d6	0.17550215
24	0x3d1e329c	0.038622484
25	0x3e0e2d2e	0.13884422
26	0x3dd9fe7e	0.10644244
27	0x3dd9fa8c	0.10643491
28	0x3e04285a	0.12906018
29	0x3e287090	0.16449189
30	0x3e22a357	0.15882622
31	0x3daf803a	0.08569379

net.4.weight f4 [32, 32]
0	0xbe98fbcc	-0.29879606
1	0x3e291689	0.16512503
2	0xbea00fe4	-0.31262124
3	0x3c836bf6	0.01604269
4	0xbeaa50e4	-0.3326484
5	0x3e7fa44b	0.24965017
6	0x3e9f0058	0.3105495
7	0x3dd80f6c	0.105498165
8	0x3ee517e0	0.44744778
9	0x3eca9494	0.3956648
10	0xbda69410	-0.081337094
11	0x3ebd9076	0.37024277
12	0x3cdec034	0.027191259
13	0xbea74767	-0.32671663
14	0xbe38a7ce	-0.18032762
15	0x3e1e4895	0.15457375
16	0x3e37c4ea	0.1794621
17	0xbdb66d34	-0.089075476
18	0xbe10280b	-0.14077775
19	0x3e7b88a6	0.24563846
20	0xbc28ccbe	-0.010302721
21	0xbeeb33ba	-0.45937902
22	0x3d8307de	0.06397985
23	0xbef6d1fe	-0.48207086
24	0x3d63b334	0.055590823
25	0xbe1a1b00	-0.15049362
26	0x3c3bdaba	0.011465723
27	0x3e569952	0.20956925
28	0x3d7d6d9c	0.06187211
29	0xbf07de08	-0.5307317
30	0x3dd4e7d8	0.10395783
31	0xbf184ba6	-0.5949043
32	0x3d73b4cf	0.059498604
33	0x3d04fb06	0.032465957
34	0x3e68efdd	0.2274775
35	0xbe93320f	-0.2874913
36	0xbd6738c8	-0.056450635
37	0xbeec178b	-0.46111712
38	0xbe9850a3	-0.2974902
39	0x3d573718	0.052542776
40	0x3ee2ac46	0.4427206
41	0x3edbef90	0.4295621
42	0xbebfecbe	-0.37485307
43	0xbc89f7c5	-0.016841779
44	0xbe709cdc	-0.23497337
45	0x3d17a310	0.037020743
46	0x3effe70f	0.4998097
47	0xbecf53d2	-0.40493637
48	0xbdbedb23	-0.09319141
49	0x3e16c050	0.14721799
50	0x3f05719f	0.521265
51	0xbd8606a8	-0.06544238
52	0xbe8b74d6	-0.27237576
53	0x3e1f7678	0.15572536
54	0x3ee5fbed	0.44918767
55	0xbe58ad82	-0.21159938
56	0x3e2120e6	0.15735206
57	0x3ee7de62	0.45286852
58	0x3e721b9a	0.23643342
59	0xbdd49e68	-0.10381776
60	0xbdf8c29a	-0.12146492
61	0x3e96aaf5	0.29427305
62	0x3e8b543e	0.2721271
63	0x3d8214e8	0.06351644
64	0x3df834ca	0.12119444
65	0x3f1b647a	0.6070019
66	0x3eebb1cc	0.46034086
67	0x3e150184	0.1455136
68	0x3eaab594	0.33341658
69	0x3d8bdf6c	0.06829724
70	0xbeb14d23	-0.34629163
71	0xbe793a5a	-0.24338666
72	0xbed34aee	-0.41268104
73	0xbdd0c7c8	-0.10194355
74	0x3e4ba7ce	0.19888231
75	0x3e829280	0.25502396
76	0xbea1a370	-0.31570005
77	0xbe561928	-0.20908034
78	0xbea2438a	-0.31692153
79	0xbe85ea47	-0.26155302
80	0x3e9dd787	0.30828497
81	0xbe14f37c	-0.14546007
82	0x3d113a49	0.035455976
83	0x3df75e5c	0.120785445
84	0x3d0b50e7	0.0340127
85	0x3dbf4caa	0.093407944
86	0x3ebae343	0.36501512
87	0x3bbcd399	0.005762529
88	0xbea3a21d	-0.3195962
89	0x3e114393	0.14185934
90	0xbe7910ec	-0.24322861
91	0xbe3a90a7	-0.18219243
92	0x3dba8bc0	0.091086864
93	0xbe587972	-0.21140078
94	0x3e17c26f	0.14820264
95	0x3e88e229	0.26735047
96	0x3e8dc4c3	0.2768918
97	0xbe658c08	-0.22416699
98	0xbe16a720	-0.1471219
99	0xbe96a3e8	-0.29421926
100	0x3f10ac6c	0.56513095
101	0x3ca2af7a	0.019859064
102	0xbcc97381	-0.02459121
103	0x3e712952	0.23550919
104	0x3e61c1de	0.2204661
105	0xbec0c00a	-0.37646514
106	0xbf2ae8a2	-0.6676122
107	0x3e04f9fc	0.12985986
108	0xbd9aa21a	-0.0755045
109	0xbe3c85f0	-0.18410468
110	0xbebc6e96	-0.3680312
111	0xbdb36e7e	-0.08761309
112	0x3d3ffff0	0.04687494
113	0x3d252f64	0.0403284
114	0xbe2d4196	-0.1691955
115	0x3ef05586	0.4694025
116	0x3e036926	0.1283308
117	0xbf17b7b4	-0.59264684
118	0xbe2e0d98	-0.16997373
119	0xbe70c420	-0.23512316
120	0x3ee084a2	0.4385119
121	0xbe16a74e	-0.14712259
122	0xbd811019	-0.063018985
123	0xbef01cd4	-0.46896994
124	0x3e25f238	0.1620568
125	0x3e91abf4	0.28451502
126	0x3dcb6fd1	0.09933437
127	0xbd867843	-0.06565907
128	0x3e7f42d4	0.24927837
129	0x3daf972b	0.08573755
130	0xbe20ace8	-0.15690958
131	0x3dda24fd	0.10651586
132	0x3e46da2b	0.19419162
133	0xbd8b8080	-0.06811619
134	0xbe6e3894	-0.2326377
135	0xbe0dec7c	-0.13859743
136	0x3e929b8e	0.28634304
137	0xbefeb3a6	-0.49746436
138	0x3cce20c5	0.02516211
139	0x3e901d8c	0.28147542
140	0x3dfe5880	0.12419224
141	0x3e9181fa	0.28419477
142	0xbe0a5c2e	-0.13511726
143	0xbe5faade	-0.21842524
144	0x3e54f130	0.2079513
145	0x3ed44357	0.41457626
146	0x3dd8b1fe	0.10580824
147	0xbea9e844	-0.33185017
148	0x3da7bda6	0.081904694
149	0xbe0b39a7	-0.13596211
150	0x3cf4f65e	0.029902633
151	0xbd45715c	-0.04820381
152	0xbd5f856c	-0.0545706
153	0x3e700fe2	0.23443559
154	0x3eb84576	0.35990494
155	0x3f1200a8	0.5703225
156	0x3dcc7950	0.09984076
157	0xbd20fa32	-0.039301105
158	0xbe825a9c	-0.25459754
159	0xbe475d02	-0.19469073
160	0x3df24544	0.118296176
161	0xbed68602	-0.41899115
162	0x3d402812	0.046913214
163	0x3e5b38d0	0.21408391
164	0x3ef60485	0.48050323
165	0x3d0a6cd2	0.033795185
166	0xbe27d6fa	-0.16390601
167	0xbd9896ff	-0.07450675
168	0xbe50990e	-0.20370886
169	0x3de030bc	0.10946795
170	0xbe4ee67a	-0.20205107
171	0xbc89275d	-0.016742403
172	0xbd54d79c	-0.051963434
173	0xbdf869db	-0.12129565
174	0xbe7a1b16	-0.24424395
175	0x3e90099c	0.2813233
176	0xbe9479d3	-0.28999195
177	0xbe60c43a	-0.21949854
178	0x3e3fd74e	0.18734476
179	0xbdb725d3	-0.08942761
180	0x3eb68f04	0.35655987
181	0xbcb81028	-0.022468641
182	0x3f075e92	0.5287868
183	0x3dbfebe1	0.09371162
184	0x3e5a8040	0.21337986
185	0xbe1e2d02	-0.15446857
186	0x3dbcb2b9	0.09213776
187	0x3ef7bedc	0.48387802
188	0xbe5f94db	-0.21834128
189	0xbe23feb8	-0.16015136
190	0x3d2a3ca3	0.041561734
191	0x3e62d0db	0.22149985
192	0xbebd7538	-0.37003493
193	0x3e3fa0f0	0.18713737
194	0xbdef708d	-0.11691389
195	0x3e86eb07	0.26351187
196	0xbe7e2310	-0.24818063
197	0x3e79a9ce	0.24381182
198	0xbdf551d6	-0.119784996
199	0xbe94f29e	-0.29091352
200	0xbe4d9ad5	-0.20078595
201	0xbe8f2928	-0.27961087
202	0xbf203ebe	-0.62595737
203	0xbd68ad8a	-0.056806125
204	0x3ea12a2e	0.31477493
205	0xbe991c62	-0.29904467
206	0xbe2656da	-0.16244069
207	0x3d73d074	0.05952497
208	0xbebd001b	-0.36914143
209	0x3de26431	0.11054266
210	0x3f021db8	0.508266
211	0xbc807624	-0.015681334
212	0x3c9ffe1c	0.019530348
213	0xbeb8b9b4	-0.3607918
214	0x3db440b4	0.08801404
215	0x3e386540	0.18007374
216	0x3f0795b9	0.52962834
217	0x3d919058	0.071076095
218	0x3e2ff01a	0.17181435
219	0xbe976cd6	-0.29575223
220	0x3ea20ed6	0.31651944
221	0x3ea06155	0.31324258
222	0xbe81738a	-0.25283462
223	0xbe45bd0e	-0.193104
224	0xbdf1103c	-0.117706746
225	0x3bb4957a	0.005510983
226	0x3ee0727c	0.43837345
227	0x3e1456b8	0.14486206
228	0x3d108816	0.03528603
229	0x3f00f6e4	0.50376725
230	0x3e4b5389	0.19856085
231	0xbdd18c40	-0.10231829
232	0x3deeb02e	0.11654697
233	0xbe3e7683	-0.18599896
234	0xbddd9230	-0.10818899
235	0xbe1c675c	-0.15273803
236	0xbed41453	-0.41421756
237	0xbe0e98df	-0.13925503
238	0x3d611be6	0.054958247
239	0x3d613882	0.05498553
240	0x3eb9f4ed	0.36319676
241	0x3e96bf45	0.29442802
242	0x3d9e7b22	0.077383295
243	0xbe2737f6	-0.16329941
244	0xbe6a005b	-0.22851698
245	0xbd81eea7	-0.063443474
246	0xbe89c5be	-0.26908678
247	0x3ebfc23e	0.37452883
248	0xbc7e4b8a	-0.01552094
249	0xbe39af80	-0.18133354
250	0xbc9396ba	-0.018016208
251	0x3d453c5e	0.048153274
252	0xbe91debc	-0.28490245
253	0x3ed7c1c2	0.42140013
254	0xbc4235a5	-0.01185361
255	0xbef0ce32	-0.47032315

net.4.bias f4 [32]
0	0x3f021a96	0.50821817
1	0xbe14ca85	-0.1453038
2	0x3ea12c6e	0.3147921
3	0x3eaff872	0.34369236
4	0xbda181cf	-0.07886087
5	0x3c2f2872	0.010690795
6	0x3ec7c318	0.39016032
7	0x3e9a5009	0.30139187
8	0x3e96fa3c	0.2948779
9	0x3d855732	0.06510772
10	0x3db4880d	0.08815012
11	0x3dd74114	0.105104595
12	0xbb0c1232	-0.002137315
13	0x3f2fc6a0	0.6866245
14	0x3f0e8229	0.5566736
15	0x3e95d8c4	0.29266942
16	0xbe53deba	-0.20690432
17	0x3eb28c34	0.34872591
18	0x3f008942	0.5020944
19	0x3daf9457	0.085732155
20	0xbecea6db	-0.40361676
21	0x3e4eaf2a	0.20184007
22	0x3e64a03c	0.2232675
23	0x3f2f66d0	0.68516254
24	0x3db9de35	0.09075586
25	0x3e3a5fa3	0.18200545
26	0x3e26293a	0.16226664
27	0x3ea97996	0.33100575
28	0x3e88ddf8	0.2673185
29	0x3ebf94aa	0.3741811
30	0x3f93352c	1.1500602
31	0xbc08bf68	-0.008346416

net.6.weight f4 [100, 32]
0	0xbf74ae11	-0.95578104
1	0x40148288	2.320467
2	0xbfd453bb	-1.6588053
3	0xbf2ebb98	-0.68254995
4	0x3fb0f6a3	1.3825268
5	0xc02b33ae	-2.6750293
6	0xbf91179b	-1.1335329
7	0xbf4a1c1e	-0.78949153
8	0x4001adef	2.026241
9	0x3f70e3fc	0.94097877
10	0x405cc482	3.449494
11	0xc0204940	-2.5044708
12	0xbfd9ce42	-1.701607
13	0x401d22fd	2.4552605
14	0xbfd1e9af	-1.639944
15	0xbf22cfb4	-0.6359818
16	0xc025f2f7	-2.5929544
17	0xc02044d4	-2.504201
18	0xc023c2ab	-2.5587566
19	0xbea3bb41	-0.319788
20	0x4023ed4e	2.561359
21	0x40174414	2.3635302
22	0xbffbd0e8	-1.9673128
23	0x3e87fd40	0.26560402
24	0x4019bfbe	2.402328
25	0xc016043c	-2.3440084
26	0x40798572	3.8987699
27	0xc0343eea	-2.81634
28	0xbf901c14	-1.1258569
29	0xbfd7327e	-1.6812284
30	0xbff6fcce	-1.92959
31	0x3fbd1d94	1.4774652
32	0xc0101952	-2.2515454
33	0x3e326295	0.17420419
34	0xbfb8860a	-1.4415905
35	0xc0088a79	-2.1334517
36	0x3f8df568	1.1090517
37	0xc04256f5	-3.0365574
38	0xbf50a429	-0.8150049
39	0x4007a5e6	2.1195006
40	0x400ba034	2.181653
41	0x401b4742	2.4262242
42	0x3f92a7ec	1.1457496
43	0xc05c6bdb	-3.444083
44	0xbcbcaca0	-0.023031533
45	0x3fd71dc9	1.6805965
46	0xbf35133f	-0.7073249
47	0x3fbc7664	1.472363
48	0x3d831922	0.06401278
49	0xbf58d800	-0.8470459
50	0x4057b7bc	3.3705893
51	0xc01e33e6	-2.4719176
52	0x3e84c2ba	0.25929815
53	0x3fbe031a	1.4844697
54	0xc0233b96	-2.5505118
55	0xbf65560e	-0.89584434
56	0x403fcec6	2.9969954
57	0xbfd1a2f7	-1.6377858
58	0x3fca8d38	1.5824347
59	0xc036bf4e	-2.8554263
60	0x3f8830b6	1.0639865
61	0x3f3b4ca2	0.7316381
62	0xbe29d45a	-0.16584912
63	0x400d1d2c	2.2049055
64	0xc07240bc	-3.785201
65	0xc03c53e6	-2.9426208
66	0x3fe0415f	1.751995
67	0x4025736a	2.5851693
68	0xbdfc83b6	-0.12329809
69	0x3fc476da	1.5348771
70	0x407e7047	3.9756029
71	0x4010599c	2.2554693
72	0xc0485e78	-3.130766
73	0x3fb9bc74	1.4510636
74	0x3f944fb0	1.1586819
75	0x3fa8617b	1.3154749
76	0xc00a2a20	-2.158821
77	0x3dd08b50	0.10182822
78	0xbdbe23ee	-0.09284197
79	0x3fa2fadd	1.2732807
80	0xc03e58bc	-2.974166
81	0xbfb08b58	-1.3792524
82	0xbf410b91	-0.75408274
83	0x3fab25d8	1.3370924
84	0x3f848292	1.0352347
85	0xbffebf64	-1.9902158
86	0x3e907bfd	0.28219596
87	0xc02b1c56	-2.6736045
88	0xbfb13a16	-1.3845851
89	0xc0287462	-2.6321034
90	0x3ee29e5e	0.4426145
91	0x3ff8d776	1.9440753
92	0xbca93012	-0.020652805
93	0x403f433d	2.988479
94	0xbfa40c0c	-1.2816176
95	0x3fa5dd3d	1.2958142
96	0xc059dd20	-3.4041214
97	0xc0539dee	-3.3065143
98	0x3f556e5d	0.83371526
99	0x4064c0aa	3.5742593
100	0x3d5fda28	0.05465141
101	0xbecdb664	-0.40178216
102	0x4081a905	4.0518823
103	0x3f064585	0.5244983
104	0xbfad1015	-1.3520533
105	0xbf7bc1a8	-0.9834237
106	0x3faf6c5e	1.3704946
107	0xbff0f2d8	-1.882411
108	0xc04bb965	-3.1831906
109	0xbe8c2352	-0.27370697
110	0x3ff666c3	1.925011
111	0x3e2851a4	0.16437393
112	0xbfcfb46c	-1.6226935
113	0x3f1ec7a8	0.620234
114	0x404a1605	3.157594
115	0xbf411e14	-0.7543652
116	0xbf03a8fa	-0.5142971
117	0xbfb9572d	-1.4479729
118	0xbf20b5d6	-0.6277746
119	0xc0296ecb	-2.6473873
120	0x3f972f5c	1.1811328
121	0xbfb54235	-1.416083
122	0xbc8bab41	-0.017049434
123	0x3fd5794b	1.6677641
124	0xc00ae76b	-2.1703746
125	0x40861d80	4.191101
126	0x40160726	2.3441863
127	0x3f40c341	0.75297934
128	0xc01a0ec4	-2.4071512
129	0xbf1eef92	-0.62084305
130	0xc046b81e	-3.1049876
131	0xc04cb028	-3.1982517
132	0x401f183e	2.4858546
133	0xc0241115	-2.5635426
134	0xbf3fde4c	-0.74948573
135	0xbdd9d43c	-0.106361836
136	0xc02856e6	-2.6303039
137	0x40425d22	3.0369344
138	0x3dcc38c0	0.09971762
139	0x3fba4dbc	1.4554973
140	0x405d0d45	3.453935
141	0x405b2a7a	3.4244676
142	0xbf8b76a8	-1.0895586
143	0x4067e5b8	3.623396
144	0xbf2bd550	-0.67122364
145	0xbf33143f	-0.6995277
146	0x4042ca2e	3.04359
147	0xc017bd46	-2.3709273
148	0x3f52af0c	0.8229835
149	0xbfb79a53	-1.4343971
150	0xbfea1a58	-1.828929
151	0x4063ccf7	3.559385
152	0xc0512fd7	-3.268545
153	0x3e7c2ed3	0.24627237
154	0xbff05d9d	-1.8778569
155	0x3f693aa4	0.91105103
156	0xbfb47ed2	-1.4101202
157	0x3fa56b21	1.2923318
158	0xbf2174f0	-0.6306906
159	0x3fa6e8f0	1.3039837
160	0xc05df866	-3.468286
161	0x404ca3a8	3.1974888
162	0x404ee412	3.2326703
163	0xbfc3b8ae	-1.5290735
164	0x3ecc5449	0.39908054
165	0xbfcbad7c	-1.5912318
166	0x3faf979a	1.371814
167	0xc0340fe4	-2.81347
168	0x3da6b52a	0.08140023
169	0xc082b6bf	-4.084808
170	0x3e043bf4	0.12913495
171	0x403ffcda	2.9998078
172	0x403b42fc	2.9259634
173	0x400c8834	2.1958132
174	0xbe9c822f	-0.30568072
175	0xbf21842a	-0.6309229
176	0xc0406720	-3.0062943
177	0x3fea149b	1.8287538
178	0x408ee44e	4.465369
179	0xbf5a6a62	-0.8531858
180	0xbffc79aa	-1.9724629
181	0xbfd43d96	-1.6581295
182	0xbfb59d7e	-1.4188688
183	0x40733777	3.8002603
184	0xc022c1ec	-2.543086
185	0xbfd98912	-1.6994956
186	0xbf334804	-0.7003176
187	0xbef345ec	-0.47514284
188	0xc02c93c2	-2.6965184
189	0xbf62d37e	-0.8860396
190	0xbed2c66d	-0.41167012
191	0x4043d986	3.0601516
192	0xc04e5568	-3.2239628
193	0x3ff4aa5a	1.9114487
194	0xbfb1f7f3	-1.3903793
195	0x408f2ae6	4.4739866
196	0xbfea0c54	-1.8285012
197	0x3f62b5c8	0.88558626
198	0x40345e8a	2.8182702
199	0x3e88aacb	0.26692805
200	0x3fc4a3d6	1.5362499
201	0x3fedf21a	1.8589509
202	0x3fea860a	1.8322155
203	0xc0849050	-4.1426163
204	0xc034a680	-2.8226624
205	0x40245242	2.5675206
206	0xbf8786c6	-1.0588005
207	0xc04cb931	-3.1988032
208	0x402224e0	2.5335007
209	0xbfb99bf2	-1.4500716
210	0x3fc39a56	1.5281475
211	0xbf0a96b0	-0.5413618
212	0x3fdeb84e	1.7399995
213	0x3ef804ce	0.48441166
214	0xbeb886c2	-0.36040312
215	0x3ea3adc6	0.31968516
216	0xc0125eea	-2.287043
217	0x40306dff	2.7567136
218	0xc0038e7b	-2.0555713
219	0x40857ff6	4.17187
220	0xc0abc586	-5.3678617
221	0xbf63af80	-0.88939667
222	0xbf356200	-0.7085266
223	0xbfe180d8	-1.7617445
224	0xc01a098c	-2.4068327
225	0xc00fb4b6	-2.2454047
226	0x3fa3a92c	1.2786002
227	0x40202938	2.5025158
228	0xbf9b2816	-1.2121608
229	0x3dabbf7a	0.08386131
230	0x3fd11b05	1.6336371
231	0x406ce857	3.701681
232	0x402eb2d8	2.7296658
233	0xbf731c1a	-0.94964755
234	0x400a2728	2.15864
235	0xc0158616	-2.336309
236	0x3e25cf2c	0.16192311
237	0x40084f4e	2.1298404
238	0x40121a34	2.2828493
239	0xc02b8b80	-2.6803894
240	0x3f3020e0	0.68800163
241	0x3f7bd894	0.98377347
242	0x3f897efe	1.074188
243	0x3f98c309	1.193452
244	0xbf0ea416	-0.55719125
245	0xbeaaa54d	-0.3332924
246	0xc0941dba	-4.6286287
247	0x40270b44	2.6100626
248	0x3dcc2341	0.09967662
249	0xc0652947	-3.5806444
250	0x3f99aa84	1.2005162
251	0x3ff7471a	1.9318573
252	0xc05a647c	-3.412383
253	0xc0a26dca	-5.075902
254	0x3f6f63bf	0.93511575
255	0xbf8c93f4	-1.0982652

net.6.bias f4 [100]
0	0x403e4992	2.9732404
1	0xbfe77126	-1.8081405
2	0xbe1fc76c	-0.15603417
3	0xbfc93150	-1.5718174
4	0xbe839bff	-0.25704953
5	0xbf3d60a9	-0.73975617
6	0xbdf22982	-0.11824323
7	0xbf9dd5d8	-1.2330885
8	0x3f4b5b90	0.7943659
9	0xbf7b002e	-0.9804715
10	0x3f157fc2	0.5839807
11	0xc00ada08	-2.1695576
12	0x3fc895a6	1.5670669
13	0x3fdcccee	1.725004
14	0x3e9cb92e	0.3061003
15	0xbe960dba	-0.29307348
16	0xbdfed694	-0.12443271
17	0x3e26ed5b	0.16301481
18	0x3f37cf1a	0.71800387
19	0xc09f9360	-4.98674
20	0xc0a4afe2	-5.14647
21	0x3ff5fbe1	1.9217492
22	0xbe41f774	-0.18942052
23	0x3fe50ca0	1.7894478
24	0x3e03381a	0.1281437
25	0x3e11b324	0.14228493
26	0x3fce6b20	1.6126442
27	0x3fbac58a	1.4591534
28	0x3ea7bd78	0.3276174
29	0x3e9c291b	0.3050011
30	0x3f7fdb59	0.9994407
31	0xbee7e71d	-0.45293513
32	0x3ed81de6	0.4221031
33	0xbf1c91ee	-0.6116017
34	0xbf96cffe	-1.1782224
35	0xbf3d5adc	-0.73966765
36	0x3fef231e	1.8682592
37	0x40175140	2.364334
38	0xbf19623c	-0.5991552
39	0xbf02fc0d	-0.5116585
40	0xbf5136c0	-0.81724167
41	0xbebfadd2	-0.37437302
42	0xbf74e959	-0.9566856
43	0xbf96ba2e	-1.1775568
44	0xbf82f380	-1.023056
45	0x3f556974	0.83364034
46	0xbedd5ca3	-0.4323474
47	0x3e1be1a4	0.15222794
48	0x3d25eb7e	0.040507786
49	0xbe3806d8	-0.1797136
50	0xbe1dfe9a	-0.15429154
51	0xc01a4498	-2.4104366
52	0x3ee93a84	0.45552456
53	0x3fa7a54c	1.309732
54	0xbfb6f334	-1.429297
55	0xbff357e8	-1.9011202
56	0x3c9ed1e0	0.019387186
57	0xbdba09c3	-0.09083893
58	0xbfb5dc02	-1.4207766
59	0xbd51c997	-0.05121764
60	0xbfb02bb6	-1.376334
61	0xbdb3ef80	-0.087859154
62	0xc017980a	-2.3686547
63	0xc02e54b3	-2.7239196
64	0x3ec2d91a	0.3805626
65	0xbf9ddfde	-1.2333944
66	0xc0150f3a	-2.3290544
67	0xc0109f02	-2.259705
68	0xbfb6556a	-1.4244816
69	0xbf509fb2	-0.81493676
70	0xbff939ea	-1.9470799
71	0xbfa4effe	-1.288574
72	0xbf8fd97c	-1.1238246
73	0x3ee811ce	0.45326084
74	0xbfc24b6e	-1.5179269
75	0xbf6a7156	-0.91579187
76	0x3f45ac1a	0.7721573
77	0x3f34c468	0.7061219
78	0x3f24527e	0.64188373
79	0x3e9fc1d1	0.31202558
80	0x3f77189a	0.96521914
81	0x3f34a8a4	0.70569825
82	0xbeb79bda	-0.35861093
83	0xbf68d9dc	-0.9095743
84	0x3fdcdac0	1.7254257
85	0x3fc855d4	1.5651193
86	0xc00e249e	-2.220985
87	0xbf88abd4	-1.0677438
88	0x3fe11865	1.758557
89	0x3d166c92	0.036724634
90	0xbf052b2c	-0.52019
91	0xbebf14ca	-0.37320548
92	0x3f3cb81c	0.7371843
93	0x3d8a41e6	0.067508504
94	0xbf06b3ed	-0.52618295
95	0xbf0feec4	-0.562237
96	0x3ff6aada	1.927089
97	0x3e440081	0.19140817
98	0xbf07c6da	-0.530378
99	0xbfcf5158	-1.6196699

exp_avg f4 [256, 120]
0	0x39bb6bb1	0.00035747656
1	0x39c93573	0.0003837753
2	0x390bbc7b	0.00013326287
3	0x39a8eeb9	0.0003222132
4	0x3a0ed65e	0.00054488133
5	0x3aa065cc	0.0012237369
6	0xb927332a	-0.00015945421
7	0x39c388c8	0.00037295208
8	0x39265f1d	0.00015866426
9	0xb8a9beef	-8.094112e-05
10	0xb9a5ea60	-0.00031645875
11	0x3a10fa12	0.00055304274
12	0x39c7d2e4	0.00038113364
13	0x3a30d42b	0.00067454827
14	0xba41b42a	-0.0007389212
15	0xba5d17cc	-0.0008434027
16	0x39d2d2c6	0.0004021136
17	0x3a12961d	0.00055918266
18	0xb809bff1	-3.2842105e-05
19	0xb9a59bda	-0.0003158737
20	0x38c8b211	9.5699106e-05
21	0xb9bf097b	-0.00036437422
22	0xb9ad9092	-0.00033104845
23	0xb9837b16	-0.00025077973
24	0x3904336b	0.00012607656
25	0xba4d3cc2	-0.0007829183
26	0x3a00c119	0.00049115863
27	0xba11ed39	-0.000556666
28	0xba500ac9	-0.00079361774
29	0x3a849f48	0.001011827
30	0xb8fddf43	-0.00012105566
31	0x38482d07	4.772565e-05
32	0xbab145cb	-0.0013524828
33	0xb922b16a	-0.00015515616
34	0x38bd5117	9.0273265e-05
35	0x38588ba7	5.1628474e-05
36	0x3905a50c	0.00012745353
37	0xb93f01ab	-0.00018215801
38	0x3a047a6f	0.00050536444
39	0xb8e2e60d	-0.0001081937
40	0x39b7cae1	0.00035055637
41	0xb709305f	-8.177099e-06
42	0x39065e9d	0.00012814482
43	0x396b907e	0.00022465174
44	0x39a512f0	0.00031485362
45	0x391510e6	0.00014216042
46	0xb9d3dca9	-0.0004040946
47	0xb85fd77f	-5.336804e-05
48	0xba982be7	-0.0011609764
49	0xba0c1e90	-0.00053451303
50	0x38d8c201	0.00010335819
51	0xba0aea47	-0.0005299192
52	0xba0f2559	-0.00054605823
53	0x39ea299f	0.00044662968
54	0x390a79af	0.00013206036
55	0x3a6b6857	0.00089800864
56	0x3a29ca2c	0.00064769643
57	0xba0fcf41	-0.00054859003
58	0xb9b1d05c	-0.0003391531
59	0x37b16194	2.1145483e-05
60	0x3940d99c	0.00018391613
61	0x395bf72a	0.00020977543
62	0xba25267b	-0.00062999845
63	0x3a0913e0	0.0005229097
64	0x3a3f4085	0.0007295686
65	0xbaea0858	-0.001785527
66	0xb9dde866	-0.00042325555
67	0x393e4750	0.00018146378
68	0x39542354	0.00020231056
69	0xba9fa8d9	-0.0012181058
70	0xb81563c6	-3.561729e-05
71	0xb94b9f2d	-0.00019418886
72	0x397cf642	0.00024124331
73	0xb7cfc025	-2.4765797e-05
74	0xb8d341ef	-0.00010073545
75	0x38e5adb2	0.00010951924
76	0xb3961917	-6.989483e-08
77	0x38d76012	0.000102698934
78	0x3959fa2a	0.00020787926
79	0x3882b7bc	6.233106e-05
80	0x391a9c6c	0.00014744856
81	0x38d61b4d	0.000102094
82	0x3a07f530	0.0005186377
83	0x39035c4b	0.00012527515
84	0x39426eec	0.00018542603
85	0x357c4637	9.397949e-07
86	0xb8376eb4	-4.37337e-05
87	0x391f65ac	0.00015201297
88	0x399e5d18	0.0003020547
89	0x3910a774	0.00013795291
90	0x392d2b9d	0.00016514813
91	0x39094e32	0.00013094468
92	0xb8514288	-4.9891445e-05
93	0x399cc115	0.00029898496
94	0x39242264	0.0001565307
95	0x39244473	0.00015665758
96	0xb8130f72	-3.5061916e-05
97	0x392ae804	0.00016298896
98	0x391ce51a	0.00014962666
99	0x37694410	1.3903729e-05
100	0xb8f7274a	-0.00011785196
101	0xb9223ab5	-0.00015471394
102	0x39212abe	0.00015370079
103	0x390b6daf	0.00013296933
104	0x3866735e	5.4943717e-05
105	0x3a0edcbf	0.0005449764
106	0x39082136	0.00012982343
107	0xba1abdab	-0.00059028965
108	0xb787bf4d	-1.6182335e-05
109	0xbacc5267	-0.0015588523
110	0xba5d189b	-0.00084341475
111	0xb9298eb4	-0.00016170257
112	0x395c5758	0.00021013373
113	0xba32eacc	-0.00068251486
114	0x3995174a	0.00028436846
115	0x39e41662	0.00043504225
116	0x3a1dffec	0.000602721
117	0x3991dd2b	0.00027821338
118	0xb95b1546	-0.00020893393
119	0xb7c93d58	-2.3989633e-05
120	0x39ecd2dc	0.0004517053
121	0x38ee0c4b	0.00011351014
122	0x3924f75c	0.00015732407
123	0x38ed3019	0.000113099995
124	0x3a2b8f2d	0.0006544467
125	0x3802d186	3.118955e-05
126	0xb879f3ad	-5.9593167e-05
127	0x39e31ef7	0.00043319885
128	0xb9aeaef5	-0.0003331822
129	0xba1d8075	-0.00060082163
130	0x39e4f713	0.00043671633
131	0xb7b3d5dc	-2.1438049e-05
132	0x39128e6e	0.00013976704
133	0xb95610d3	-0.00020414898
134	0xb92efe91	-0.00016688766
135	0xba6b189b	-0.0008968205
136	0x395cd64d	0.00021060668
137	0xba1483e7	-0.0005665407
138	0xb804dbb1	-3.1675856e-05
139	0xba504219	-0.00079444196
140	0xbadbd681	-0.0016772301
141	0x3a812fc1	0.0009856151
142	0xba897df4	-0.0010489807
143	0x3a7b1f27	0.0009579532
144	0x39f0b840	0.00045913644
145	0x3a1cf72d	0.000598776
146	0xbabf8775	-0.0014612513
147	0xba0725c0	-0.00051554665
148	0x39dd2d0f	0.00042185976
149	0xba5f4eb7	-0.00085185043
150	0xba172705	-0.0005766007
151	0xba2a253c	-0.00064905337
152	0x3a2badd9	0.00065490376
153	0x39696f7a	0.0002226214
154	0xb9f6ba3f	-0.0004705954
155	0x39d099d0	0.0003978745
156	0x3a4f908c	0.00079179625
157	0x3806ee6f	3.217015e-05
158	0xbabe6730	-0.0014526602
159	0xba923b70	-0.001115663
160	0xba2b5a5f	-0.00065365987
161	0x39a79690	0.000319649
162	0xba3a0960	-0.0007096734
163	0xba84dfaf	-0.0010137464
164	0xba209cb4	-0.0006126866
165	0x39921c1d	0.00027868236
166	0x3a351b13	0.00069086364
167	0xb9f8cca3	-0.00047454712
168	0x3a244d5d	0.00062676315
169	0x39e0f780	0.0004290901
170	0xb9462930	-0.00018898095
171	0x3a2851b8	0.00064208684
172	0xb99a54b8	-0.0002943629
173	0xba012b59	-0.0004927419
174	0x38c000d8	9.1554306e-05
175	0x38e6633c	0.000109857385
176	0x3926a123	0.00015891022
177	0xb81b34b9	-3.700398e-05
178	0x37a3bf63	1.9520236e-05
179	0x389813fd	7.251648e-05
180	0x3a2180ab	0.00061608356
181	0x3a3ef9ef	0.0007285168
182	0xba09d262	-0.0005257485
183	0xba946940	-0.0011322871
184	0x3a81d947	0.0009906673
185	0xba24f74a	-0.00062929525
186	0x39d96d21	0.00041470773
187	0x39e8f33c	0.00044431712
188	0xb9367617	-0.00017400864
189	0xb92d39f3	-0.00016520153
190	0xba988bb1	-0.0011638311
191	0x39d51357	0.00040640935
192	0x39e998e0	0.00044555124
193	0x3a1b5cd8	0.00059266156
194	0x399f2f47	0.00030362068
195	0xb8e94336	-0.00011122825
196	0xb90893a5	-0.00013024973
197	0xba11f761	-0.00055681734
198	0xb933e7d0	-0.00017157127
199	0xb79e4e5a	-1.8871553e-05
200	0x39a14665	0.0003076076
201	0x398d77b2	0.00026982796
202	0x377a9488	1.4935744e-05
203	0xb7ea96e7	-2.7965243e-05
204	0x39926d8f	0.00027928918
205	0x38f5d6e6	0.00011722538
206	0x399b75cd	0.00029651672
207	0x3980f779	0.00024598444
208	0xb8cd8cee	-9.801412e-05
209	0x39efc651	0.0004573339
210	0x3916b023	0.00014370731
211	0x3979e54d	0.00023831912
212	0x39f23dcc	0.0004620388
213	0x38b0f43f	8.4378284e-05
214	0x39facb66	0.0004783526
215	0x3964aa3a	0.00021807189
216	0x397fc293	0.0002439118
217	0x39fe4bfd	0.0004850327
218	0x38dbeecf	0.00010487215
219	0x38908e01	6.8929054e-05
220	0x39c607fe	0.00037771458
221	0x39577b50	0.00020549935
222	0x3a17bf55	0.00057887036
223	0x394eca0a	0.00019720956
224	0x39962a5f	0.00028641798
225	0x39a16ca9	0.0003078927
226	0x3a7f8ce7	0.0009748474
227	0xba2989cb	-0.0006467371
228	0x39c78c10	0.00038060592
229	0xbab0ce5c	-0.0013489234
230	0x39f76830	0.00047189137
231	0x399d1e8b	0.0002996813
232	0x3a0b4ed2	0.00053141743
233	0x3a314c54	0.0006763388
234	0x39f2d1bd	0.00046314104
235	0xb9bb3a50	-0.00035710866
236	0xb99fe8a2	-0.00030500168
237	0xba57723a	-0.000821862
238	0x39efcf3f	0.00045740043
239	0xba84f75b	-0.0010144518
240	0x39df4acf	0.0004258961
241	0x3a57fca7	0.0008239247
242	0xba1f4d57	-0.0006076893
243	0xb8c7425c	-9.50142e-05
244	0xb986250c	-0.00025586074
245	0x39eb08a3	0.00044829128
246	0xba281cb6	-0.00064129697
247	0x3a0ea2f2	0.0005441151
248	0x3b279f4d	0.0025577128
249	0xb9eae2cf	-0.00044800944
250	0x3adc7462	0.0016819353
251	0x39dac65e	0.00041727995
252	0x3a107df9	0.00055119355
253	0x3ac739fc	0.0015199776
254	0x399919e4	0.00029201724
255	0x3a053e41	0.0005082824
