Training/PyTrainer/epoch=100.ckpt (torch, 654085 bytes, 28 tensors)

net.0.weight f4 [256, 120]
0	0xbc9e875d	-0.019351656
1	0x3e2b2bf9	0.16715993
2	0x3e0cf1c2	0.13764098
3	0x3dc5dd73	0.09661379
4	0x3dab0168	0.083498776
5	0x3dcb6251	0.09930862
6	0x3e7b2821	0.24527027
7	0x3e1cb07c	0.15301698
8	0x3dcd07aa	0.100112274
9	0x3d1b0cc2	0.037853964
10	0x3dce7ba6	0.10082178
11	0x3e610ea8	0.21978247
12	0x3db31136	0.08743517
13	0xbcad934c	-0.0211884
14	0x3ebeb164	0.37244713
15	0x3cb8cb3c	0.022557847
16	0x3e1c1534	0.15242463
17	0xbd171f90	-0.036895335
18	0x3ec0ae29	0.37632874
19	0x3e4a2fdf	0.19744824
20	0xbd3f0b33	-0.04664154
21	0xbe309d16	-0.17247424
22	0x3e452d3d	0.19255538
23	0x3e0618ab	0.13095348
24	0x3ab015bf	0.0013434215
25	0xbbef7711	-0.007307895
26	0xbdc0bc0f	-0.09410869
27	0xbd43e208	-0.047822982
28	0xbe2b7a9b	-0.16745989
29	0xbc834339	-0.016023265
30	0xbd067310	-0.032824576
31	0xbdbcec42	-0.0922475
32	0xbe42b0d5	-0.19012769
33	0xbd8cd7a6	-0.06877069
34	0x3d5c490e	0.053780608
35	0xbdb66507	-0.08905988
36	0xbdaf02ce	-0.08545457
37	0x3e30e9bb	0.17276661
38	0x3d841ae8	0.064504445
39	0x3d88368d	0.0665103
40	0xbc3fce77	-0.01170694
41	0x3e8772a9	0.26454666
42	0xbdbf61b5	-0.09344808
43	0x3cacd37c	0.021096937
44	0x3dde3bc8	0.10851246
45	0xbdf7277f	-0.1206808
46	0xbf6e838c	-0.93169475
47	0x3d5e2b1a	0.054240324
48	0x3e998ca4	0.29990113
49	0x3e3b9dfe	0.18321988
50	0x3e40938d	0.18806286
51	0x3cc0f09f	0.023552237
52	0x3e6538e5	0.22384985
53	0x3e04d255	0.1297086
54	0x3b7cc5de	0.0038570086
55	0x3cadd949	0.021221774
56	0x3d80dfc6	0.062926814
57	0x3e1d9742	0.15389732
58	0x3c8349a7	0.016026331
59	0x3a10863e	0.00055131677
60	0x3b442814	0.0029931115
61	0x3dea29d7	0.114337616
62	0x3d8948d4	0.06703344
63	0xbcc42942	-0.023945455
64	0x3e0051ff	0.12531279
65	0x3e0951cb	0.13410108
66	0xbda9b420	-0.08286309
67	0xbe3fd7f8	-0.1873473
68	0xbcaaa187	-0.020828975
69	0x3dd846aa	0.10560353
70	0xbc555e3e	-0.013022957
71	0xbe8d6988	-0.27619576
72	0x3cb65e20	0.02226168
73	0xbd747979	-0.059686158
74	0x3d5aa067	0.053375628
75	0xbcb76269	-0.022385793
76	0xbed1e92a	-0.40998203
77	0x3e49d043	0.19708352
78	0x3e2d3775	0.16915686
79	0xbc1775a6	-0.009244358
80	0xbd33745b	-0.043812137
81	0xbc283f9b	-0.010269071
82	0xbe0ba045	-0.13635357
83	0xbe926c43	-0.28598222
84	0xbcbcd375	-0.02305005
85	0x3dba711b	0.091036044
86	0xbe45acfd	-0.19304271
87	0xbe79f00d	-0.24407978
88	0xbea12560	-0.31473827
89	0xbe75e73f	-0.24013995
90	0xbeab6424	-0.3347484
91	0xbec19853	-0.37811527
92	0xbe4bde7c	-0.1990909
93	0xbd86183e	-0.065475926
94	0xbde09bb1	-0.10967196
95	0xbeb3e6b9	-0.35136965
96	0x3df5cf00	0.12002373
97	0xbdb7c9f2	-0.08974065
98	0x3dc33f3e	0.09533547
99	0xbe8e2f35	-0.2777039
100	0x3e2d53f4	0.16926557
101	0xbdbd71a3	-0.0925019
102	0x3d8ebe42	0.069698825
103	0xbe2e4af4	-0.1702078
104	0x3e11f694	0.14254218
105	0xbdf2f8f8	-0.11863893
106	0xbe2f05e9	-0.17092098
107	0xbe8aba3a	-0.27095205
108	0x3e6b4e0d	0.22978993
109	0x3e2943e5	0.16529806
110	0xbf50a206	-0.8149723
111	0xbf196cb4	-0.5993149
112	0x3e59a257	0.21253334
113	0xbd04f28e	-0.03245788
114	0xbf589bd4	-0.84612775
115	0xbea69ef4	-0.32543147
116	0x3e2aaade	0.16666743
117	0x3e14e4b3	0.14540367
118	0xbc836533	-0.016039466
119	0xbe776e17	-0.2416309
120	0x3e0b5d19	0.13609733
121	0x3ddf5329	0.109045334
122	0x3d314828	0.043281704
123	0xbde0e1ec	-0.10980591
124	0xbc35737b	-0.011074896
125	0xbd393bf0	-0.045223176
126	0x3ba4e33b	0.005031971
127	0x3d39ed11	0.0453921
128	0x3d6cd5a7	0.057820942
129	0xbec360a4	-0.38159668
130	0x3dc98793	0.09840312
131	0x3def3114	0.11679283
132	0xbeedd9e3	-0.46455297
133	0xbdae1998	-0.08500975
134	0xbd68dfcd	-0.056854058
135	0xbd5492e8	-0.051897913
136	0x3e345f60	0.17614508
137	0x3cace42d	0.021104896
138	0x3cb08101	0.021545889
139	0xbd930b31	-0.07179869
140	0x3e018b90	0.12650895
141	0x3c2eca89	0.010668405
142	0xbd7072fc	-0.058703408
143	0xbd74c2bc	-0.059756026
144	0x3d4cf8e7	0.05004206
145	0x3c689c7f	0.014197468
146	0xbdcf3724	-0.10117939
147	0xbdc74404	-0.0972977
148	0x3dbb117f	0.091341965
149	0x3d8d6538	0.069040716
150	0x3d9898d7	0.07451027
151	0x3d8167ba	0.063186124
152	0x3dd0cd36	0.10195391
153	0x3da0ec51	0.07857574
154	0x3d8fd4e6	0.07023029
155	0x3d4fac2f	0.050701316
156	0xbbf79225	-0.0075552636
157	0xbdd46854	-0.103714615
158	0x3d9196af	0.07108819
159	0x3d05bcf2	0.032650895
160	0xbe683858	-0.22677743
161	0xbc9596f2	-0.018260453
162	0x3dc73e5f	0.09728693
163	0x3d2c3cc8	0.042050153
164	0xbdb22c5a	-0.08699866
165	0xbc7b14d2	-0.015324788
166	0x3db5784d	0.08860836
167	0xbbe1c269	-0.0068896306
168	0x3dff6667	0.124707036
169	0x3e79040a	0.24317947
170	0x3e1563bd	0.14588828
171	0x3d12d760	0.03584993
172	0xb9a982fb	-0.0003233178
173	0x3e220261	0.1582122
174	0x3dbbbb86	0.09166627
175	0x3d5f10d8	0.054459423
176	0xbd3df8bd	-0.046379793
177	0xbc01418d	-0.007889164
178	0xbd7e6992	-0.0621124
179	0xbe0ab98f	-0.13547347
180	0xbdd7f750	-0.10545218
181	0x3cd89c50	0.026441723
182	0x3c96b459	0.018396543
183	0xbb2a73ca	-0.0026008957
184	0xbe4e6234	-0.20154649
185	0xbd9ae499	-0.07563133
186	0x3b2e0872	0.0026555327
187	0xbe25e5e7	-0.16200982
188	0xbdf45458	-0.1193015
189	0xbde580c2	-0.11206199
190	0xbd565871	-0.052330438
191	0xbdb15c83	-0.08660223
192	0xbd845146	-0.06460814
193	0x3da827ee	0.08210741
194	0xbb98221d	-0.0046427385
195	0xbe5bc04c	-0.21460074
196	0xbcb4ade5	-0.022055576
197	0xbcec1b09	-0.028821485
198	0xbaaa1895	-0.0012977297
199	0xbe383f08	-0.17992795
200	0xb8f4befd	-0.00011670401
201	0xbdb17d5e	-0.0866649
202	0x3ce65b3b	0.028119674
203	0xbe27f93a	-0.16403666
204	0x3d12c25b	0.035829883
205	0x3d9232bf	0.07138585
206	0x3c202f2b	0.009776871
207	0x3c863c60	0.01638621
208	0xbab4ad09	-0.0013784479
209	0x3dc3fd82	0.09569837
210	0x3d85262e	0.06501423
211	0x3d354ed6	0.044264637
212	0xbe14c921	-0.1452985
213	0x3d5a4b55	0.0532945
214	0x3d23f2b1	0.04002637
215	0xbb2096fa	-0.0024504052
216	0xbdfc4f74	-0.12319842
217	0xb8b3689b	-8.5548694e-05
218	0x3d82e3c6	0.063911006
219	0xbdc05479	-0.09391112
220	0xbcf511fe	-0.029915806
221	0xbc9498df	-0.0181393
222	0x3d8e6476	0.06952755
223	0x3d0cae98	0.034346193
224	0xbd867335	-0.06564943
225	0x3d9b6cf3	0.0758914
226	0xbdd8f210	-0.10593045
227	0xbd1efd9a	-0.038816072
228	0xbc4638ec	-0.012098532
229	0x3cb08230	0.021546453
230	0xbd3b825e	-0.045778625
231	0x3e5d0241	0.21582891
232	0xbbd2c4a8	-0.0064321347
233	0x3e05174c	0.12997168
234	0x3d87ae22	0.0662501
235	0x3da007e2	0.078140035
236	0x3eab6bde	0.33480734
237	0x3e3e2b23	0.18571143
238	0xba1673cf	-0.0005739303
239	0x3d5a2342	0.05325628
240	0x3e073256	0.13202795
241	0xbd45265f	-0.048132297
242	0x3c899284	0.016793497
243	0x3ca833c5	0.020532498
244	0xbe1c1e66	-0.15245971
245	0x3d8b8549	0.068125315
246	0xbbf30b9a	-0.0074171545
247	0xbdc87f95	-0.09789959
248	0xbd8d2ba2	-0.06893088
249	0x3e0e6e82	0.13909343
250	0xbd70dafb	-0.058802586
251	0x3de86fb0	0.11349428
252	0x3d3d8be5	0.046275992
253	0x3e0f4eb0	0.1399486
254	0x3ce95383	0.028482204
255	0x3de77ea0	0.11303449

net.0.bias f4 [256]
0	0xbf27ce89	-0.6554952
1	0x3e293151	0.16522719
2	0xbcde7c5e	-0.027158912
3	0xbce8fd55	-0.02844111
4	0x3c972b46	0.018453252
5	0xbce196bd	-0.027537698
6	0x3dc25aed	0.09489999
7	0xbe127074	-0.1430071
8	0xbe01baad	-0.12668867
9	0x3edd9b52	0.43282562
10	0x3da5683b	0.08076521
11	0x3d77004c	0.060303017
12	0x3e5427ab	0.20718257
13	0x3d52970a	0.051413573
14	0x3a539ca3	0.0008072352
15	0xbeb264a6	-0.34842414
16	0x3e9d8ef8	0.3077314
17	0xbd0f473a	-0.034980036
18	0xbe2f17aa	-0.17098871
19	0x3e0e92c5	0.13923176
20	0x3e287757	0.16451775
21	0xbe1a3356	-0.15058646
22	0x3c89a67a	0.016803015
23	0x3c88b08e	0.01668575
24	0xbdbe1763	-0.092818044
25	0xb733df22	-1.0721184e-05
26	0x3e1f5d88	0.15563023
27	0xbda75aac	-0.08171591
28	0x3c788ed2	0.01517077
29	0xbdd9e1f9	-0.10638804
30	0x3d767f7b	0.06018017
31	0xbcc0ce71	-0.023535939
32	0xbd977787	-0.07395845
33	0x3d2fc0ca	0.042908467
34	0xbe5a2ec0	-0.21306896
35	0x3dda146c	0.106484264
36	0xbe292009	-0.16516127
37	0x3e02324b	0.12714498
38	0x3dce5909	0.10075576
39	0x3e05cac9	0.13065638
40	0xbf438fd2	-0.7639133
41	0xbd0b7e52	-0.034056015
42	0x3efe0810	0.49615526
43	0xbcbe0ac9	-0.023198502
44	0xbe8c032f	-0.2734618
45	0xbbd71e23	-0.006564872
46	0xbd21a9d4	-0.0394686
47	0x3e12933b	0.14313976
48	0xbcfeb6a6	-0.031092953
49	0xbdeb82a2	-0.114995256
50	0x3e5443be	0.20728967
51	0x3d960b42	0.07326366
52	0x3d27643f	0.040867086
53	0x3e6e00db	0.23242514
54	0xbca874c2	-0.020563487
55	0xbc882e9b	-0.016623786
56	0x3eaadf32	0.3337341
57	0x3ed7f8e2	0.4218207
58	0xbde42ace	-0.11140977
59	0xbe6f9931	-0.23398282
60	0x3efaaa80	0.48958206
61	0xbd800e03	-0.062526725
62	0xbf42a224	-0.76028657
63	0x3e0ae667	0.13564454
64	0xbca6f696	-0.020381253
65	0xbf72d387	-0.94854015
66	0x3bfea574	0.0077711884
67	0x3e0b1f78	0.13586223
68	0x3e867666	0.26262206
69	0xbfab8748	-1.340066
70	0x3e6f8f94	0.23394614
71	0xbcc6628e	-0.024216916
72	0x3d62544f	0.055256184
73	0xbd94d986	-0.07268052
74	0x3dcce816	0.100052044
75	0xbde93af0	-0.113881946
76	0x3d609c86	0.054836772
77	0xbd839cf2	-0.06426419
78	0xbf1a332e	-0.60234344
79	0x3d5cd0a2	0.053909905
80	0x3e25a8cb	0.1617767
81	0x3bf357b5	0.007426227
82	0x3cf4f79b	0.029903224
83	0x3ca9b92e	0.020718183
84	0xbdb8e119	-0.09027309
85	0x3e02914c	0.12750739
86	0x3e94f6f9	0.29094675
87	0x3dd97f5b	0.10619994
88	0xbce33a93	-0.027737891
89	0x3e406e6e	0.18792126
90	0x3de7d052	0.11319031
91	0xbe6576c5	-0.22408588
92	0x3f6600b2	0.8984481
93	0xbb99638d	-0.004681057
94	0x3dc231f3	0.09482183
95	0x3ddc713a	0.10763784
96	0xbdca0d17	-0.09865778
97	0x3e4815c1	0.19539548
98	0x3e3b79a3	0.1830812
99	0xbd1fbef7	-0.039000478
100	0x3ede4238	0.43409896
101	0x3cf9b50b	0.030481836
102	0x3d8fcd69	0.07021601
103	0x3e9f77c8	0.31146073
104	0x3eda987f	0.4269447
105	0x3e491b29	0.19639267
106	0xbf09201e	-0.5356463
107	0xbe4f877f	-0.20266531
108	0x3e34f847	0.17672835
109	0x3de4b3fd	0.111671425
110	0x3e096b7b	0.13419907
111	0x3de96e9f	0.113980524
112	0x3eb840f8	0.35987067
113	0xbdd38668	-0.1032837
114	0x3bd7ddc4	0.006587716
115	0x3dc962f5	0.09833328
116	0xbe31e614	-0.17372924
117	0x3d093eda	0.033507206
118	0xbde29650	-0.11063826
119	0xbb31aaa2	-0.0027109762
120	0x3b268868	0.0025410894
121	0xbea4d110	-0.32190752
122	0x3e1d82e1	0.15381958
123	0x3e6584e8	0.22413981
124	0xbd2c41ba	-0.04205487
125	0x3d342dc5	0.04398896
126	0x3e421b69	0.18955769
127	0x3de6439e	0.11243366
128	0x3d33cabb	0.04389451
129	0x3c1fe2eb	0.009758691
130	0x3e69a88f	0.22818206
131	0x3ec7425a	0.3891781
132	0x3db91461	0.0903709
133	0x3e806a72	0.2508121
134	0x3d0e6017	0.034759607
135	0x3b190cf0	0.0023353659
136	0x3aa14046	0.001230248
137	0x3e48286b	0.19546668
138	0x3db7f446	0.08982138
139	0x3ef9f63c	0.48820674
140	0xbe284ec1	-0.16436292
141	0x3e60756a	0.2191979
142	0xbe3636b8	-0.17794311
143	0x3e2442da	0.16041127
144	0x3d847e40	0.06469393
145	0x3e198524	0.14992195
146	0x3d29955e	0.041402213
147	0xbf112064	-0.5669005
148	0xbdb571d7	-0.08859604
149	0x3e5f27ba	0.21792498
150	0x3e8464b7	0.2585809
151	0x3d158004	0.03649904
152	0xbe94effc	-0.29089344
153	0x3e25ab80	0.16178703
154	0x3e078fbd	0.13238426
155	0xbea7ebb8	-0.32797027
156	0xbd5acf2f	-0.053420242
157	0x3d8f0c3a	0.06984754
158	0x3e4df249	0.20111956
159	0xbed95a4a	-0.42451698
160	0x3eb1d0b6	0.34729546
161	0x3e0cd6e8	0.13753855
162	0xbe483f5d	-0.19555421
163	0xbe3c51ca	-0.18390575
164	0x3df6cd0c	0.12050828
165	0x3d90e4d1	0.07074893
166	0xbbe92394	-0.007114837
167	0x3dfa2774	0.12214556
168	0xbbfe69b5	-0.007764066
169	0xbc03a901	-0.008035899
170	0xbdcdc521	-0.10047365
171	0x3d119157	0.035538998
172	0xbcd0550c	-0.025431179
173	0xbde84ba7	-0.113425545
174	0x3f0102b9	0.5039478
175	0xbecc0282	-0.39845663
176	0xbcaaef6f	-0.020866124
177	0xbdfd9915	-0.12382714
178	0xbe251da0	-0.16124582
179	0x38f8dd8b	0.00011866827
180	0x3ee73f80	0.45165634
181	0x3cc1d29f	0.023660002
182	0x3ed9aea8	0.42516065
183	0x3e077901	0.13229753
184	0x3c90d657	0.01768033
185	0x3dcb170c	0.09916505
186	0xbe1a1dc8	-0.15050423
187	0x3d93939b	0.07205888
188	0x3f130784	0.5743334
189	0xbe06e347	-0.13172637
190	0xbd1a6b73	-0.037700128
191	0x3e140393	0.14454488
192	0x3e57d023	0.21075492
193	0xbd7b7c44	-0.061397806
194	0x3e1fe8f0	0.15616202
195	0xbe54fd86	-0.20799837
196	0x3e147d84	0.14501005
197	0x3e0bd49a	0.1365532
198	0x3e8326ea	0.25615627
199	0xbe66c662	-0.22536615
200	0x3dab17e3	0.083541654
201	0xbd8bd935	-0.06828538
202	0xbe8fd248	-0.2809012
203	0x3e1d49b5	0.15360148
204	0x3dd848f5	0.105607904
205	0x3e40c7b2	0.18826178
206	0x3e6592d2	0.22419289
207	0xbd754990	-0.059884608
208	0x3e46eacd	0.19425507
209	0xbdb64ad4	-0.08900991
210	0xbe61949e	-0.22029349
211	0x3ddec6b3	0.108777426
212	0x3d90c62a	0.07069047
213	0x3e3f2e7f	0.1867008
214	0x3cc54d0a	0.024084587
215	0xbf05567c	-0.5208509
216	0xbdafbf51	-0.085814126
217	0x3d32c4d2	0.043644734
218	0x3d231386	0.03981354
219	0xbb50e259	-0.0031873195
220	0x3e11e3c3	0.1424704
221	0x3e0cbfd6	0.13745055
222	0x3ddc991c	0.10771391
223	0xbd8f7b4e	-0.070059404
224	0x3c130c62	0.00897512
225	0xbddba94d	-0.10725651
226	0x3d3f30d3	0.04667742
227	0xbc096049	-0.008384773
228	0x3de1fa71	0.11034096
229	0xbe49246b	-0.19642799
230	0x3dacb75a	0.08433409
231	0xbd232b72	-0.039836355
232	0x3e0c8f2f	0.13726495
233	0x3d88f339	0.06687016
234	0x3de218a3	0.11039855
235	0x3db27f0f	0.08715641
236	0xbe86c9d8	-0.2632587
237	0x3e177c66	0.14793548
238	0x3ca397a1	0.019969763
239	0x3c018990	0.007906333
240	0x3e9f077a	0.31060392
241	0x3e89ac61	0.26889327
242	0x3dfb4365	0.12268714
243	0x3b50819d	0.0031815537
244	0x3c8bed4a	0.017080922
245	0x3e74e9b2	0.23917273
246	0xbdab68d0	-0.08369601
247	0x3c90b235	0.0176631
248	0x3deec8e2	0.11659409
249	0xbdb0f96c	-0.086413234
250	0xbde9af24	-0.114103585
251	0xbe1edb26	-0.15513286
252	0x3e9a20af	0.3010306
253	0xbdc6b9e0	-0.097034216
254	0x3cc5fb14	0.024167575
255	0x3eb2f5ed	0.3495325

net.2.weight f4 [32, 256]
0	0x3de2978c	0.110640615
1	0x3d65ae9f	0.056074735
2	0xbe290cc4	-0.16508776
3	0x3d1eda74	0.038782552
4	0x3d29ad05	0.04142477
5	0xbca67da6	-0.020323586
6	0xbaa8549e	-0.0012842601
7	0xbe1558da	-0.14584675
8	0x3e30b1be	0.17255303
9	0xbdc39fe7	-0.09551983
10	0xbe08653e	-0.13319871
11	0x3e35ade3	0.17742114
12	0x3dc99b95	0.09844128
13	0xbd857a7a	-0.06517501
14	0xbdf118ad	-0.11772285
15	0xbcdbc7d5	-0.026828686
16	0x3ca72c7a	0.02040695
17	0x3ed9c302	0.42531592
18	0x3e7936bd	0.24337287
19	0x3d48a244	0.048982874
20	0x3d11ead1	0.03562433
21	0xbe666ba8	-0.22502005
22	0xbde6b7bb	-0.112655126
23	0x3da06d4e	0.07833348
24	0x3d5599a8	0.05214849
25	0x3c827f36	0.0159298
26	0xbcda64f2	-0.026659463
27	0xbbeba3d0	-0.007191159
28	0xbd875717	-0.06608408
29	0x3d2d6d18	0.042340368
30	0x3dc77988	0.09739977
31	0xbd0ee23d	-0.034883726
32	0xbccb9394	-0.024850644
33	0x3e31c4f6	0.17360291
34	0xbdc1bd1c	-0.09459898
35	0x3e2d637f	0.16932486
36	0xbe7d59f7	-0.2474135
37	0x3d183157	0.03715643
38	0x3dfa8de4	0.12234095
39	0xbdcdfcc3	-0.10057976
40	0xbd40e06a	-0.047089018
41	0x3d8ac610	0.06776059
42	0x3e3fdd5e	0.18736789
43	0x3e05b86a	0.1305863
44	0xbd3da7ec	-0.04630272
45	0x3c119287	0.0088850325
46	0xbdda0e3b	-0.106472455
47	0xbdbe947f	-0.09305667
48	0x3e0480c5	0.12939747
49	0x3e0430ba	0.12909213
50	0xbe2986a6	-0.1655527
51	0xbc8f6518	-0.01750426
52	0x3d71cb3d	0.059031714
53	0xbe3bcc6f	-0.18339704
54	0xbd109b77	-0.035304513
55	0xbe3ea992	-0.18619373
56	0x3cdac57b	0.026705494
57	0x3d82f084	0.06393531
58	0x3d218b1c	0.039439306
59	0x3e4b327e	0.1984348
60	0xbe884370	-0.2661395
61	0x3ce08d17	0.027411027
62	0xbe1d2eb9	-0.15349855
63	0x3d9fb868	0.077988446
64	0x3dcb07dc	0.099136084
65	0x3ddf3726	0.108991906
66	0xbc14ebbf	-0.009089409
67	0x39b50e8e	0.00034533854
68	0x3e3b8950	0.183141
69	0x3f0a21a4	0.5395758
70	0x3cf48971	0.029850693
71	0x3da1d51e	0.07901977
72	0xbd989eca	-0.074521616
73	0xbd3557f1	-0.04427332
74	0xbd95ebf1	-0.07320393
75	0x3e38e0d6	0.18054518
76	0xbdf3f951	-0.11912788
77	0x3daf91dc	0.08572742
78	0x3e0d8765	0.1382118
79	0x3d52bedd	0.051451553
80	0x3d24ef3f	0.040267225
81	0x3d167849	0.036735807
82	0x3e8a96a2	0.2706805
83	0xbe8ee95d	-0.27912417
84	0x3d3c3101	0.04594517
85	0x3c8f1f0b	0.017470857
86	0x3e1d0317	0.1533321
87	0x3edadc99	0.42746428
88	0xbe2bee40	-0.16790104
89	0x3e8da830	0.2766738
90	0x3c13d1c3	0.009022179
91	0xbb6de720	-0.0036301091
92	0xbe81f177	-0.25379536
93	0xbc7c6bb4	-0.015406538
94	0x3e05759b	0.13033144
95	0x3d846084	0.064637214
96	0x3e7cec1b	0.24699442
97	0x3d152831	0.036415283
98	0x3dce682e	0.100784644
99	0x3d48e0e9	0.049042616
100	0x3e536de7	0.20647393
101	0x3d650110	0.055909216
102	0xbcd49a70	-0.025952548
103	0x3e7b9393	0.24568014
104	0x3d06fe62	0.032957442
105	0x3c75126e	0.014958007
106	0xbe758614	-0.23976928
107	0xbe5bbd1a	-0.21458855
108	0xbd1e6080	-0.03866625
109	0xbe07be56	-0.13256201
110	0xbd94a4d3	-0.07258
111	0xbd73643e	-0.05942177
112	0xbe345f7b	-0.17614548
113	0x3e9c38d8	0.30512118
114	0x3d8cbb3f	0.06871652
115	0xbe343c83	-0.17601208
116	0xbc6376c2	-0.013883295
117	0x3e272002	0.16320804
118	0xbccc4ca0	-0.024938881
119	0x3e9029eb	0.2815698
120	0x3dd6b339	0.10483403
121	0xbd12b077	-0.03581282
122	0xbe26d6d4	-0.16292888
123	0x3e1af8d0	0.15133977
124	0xbdd95b83	-0.106131576
125	0xbcfe9c88	-0.0310805
126	0x3e3bccc2	0.18339828
127	0x3d1a5fe6	0.037689112
128	0xbe2ff5f4	-0.17183667
129	0xbdb66673	-0.089062594
130	0xbe167def	-0.14696477
131	0xbe3841e4	-0.17993885
132	0x3daa680c	0.083206266
133	0x3e213d87	0.15746127
134	0x3e2d471e	0.1692166
135	0xbb5216b4	-0.003205699
136	0x3d870756	0.06593196
137	0xbdbd823c	-0.09253356
138	0xbdc9aee1	-0.09847809
139	0x3c9df112	0.01927999
140	0xbe296491	-0.1654227
141	0x3e62eee1	0.22161438
142	0x3de49c22	0.111625925
143	0xbe3c45ab	-0.18385951
144	0x3d4340b7	0.04766914
145	0xbd060e2d	-0.032728363
146	0xbe275eb1	-0.16344716
147	0xbe01ac21	-0.12663318
148	0x3e46ad9c	0.19402164
149	0x3e8c0173	0.27344856
150	0xbe1c6b29	-0.15275253
151	0xbd3dda06	-0.0463505
152	0xbc121608	-0.0089163855
153	0x3e39e88e	0.18155119
154	0x3d06f94d	0.032952596
155	0x3e9391b3	0.28822097
156	0xbd8a9ab2	-0.06767787
157	0xbe278c78	-0.16362178
158	0xbe6d5659	-0.2317747
159	0x3d6fafe4	0.05851735
160	0xbe0cc538	-0.13747108
161	0x3ce8fade	0.028439935
162	0xbcd222a0	-0.025651276
163	0x3db18643	0.086681865
164	0xbe7a5423	-0.24446158
165	0x3e132a47	0.14371596
166	0xbc91ea88	-0.017812029
167	0xbe452d24	-0.19255501
168	0x3dbdbe84	0.092648536
169	0x3e748b29	0.2388121
170	0xbe5cba25	-0.21555384
171	0xbddcc8a6	-0.10780458
172	0x3e75ee34	0.24016649
173	0x3c26cd47	0.010180778
174	0xbd652656	-0.055944763
175	0x3c07d02f	0.008289381
176	0x3ca96f3d	0.020682925
177	0x3e1e8959	0.15482081
178	0x3dc69b51	0.09697593
179	0x3e88ddf8	0.2673185
180	0x3de1f0a7	0.11032229
181	0xbe10bbb7	-0.14134108
182	0xbde855bf	-0.1134448
183	0x3df8d5d7	0.12150162
184	0xbddb1c2c	-0.10698733
185	0xbdf1e832	-0.11811866
186	0xbd71efd2	-0.0590666
187	0x3dd97a07	0.10618978
188	0x3e453e92	0.1926215
189	0xbdea515e	-0.11441301
190	0xbc09f9d5	-0.008421381
191	0xbc9319fe	-0.01795673
192	0x3cde9b44	0.027173646
193	0xbd13afea	-0.036056437
194	0xbe37572f	-0.17904352
195	0x3de276f4	0.11057845
196	0x3e371c68	0.1788193
197	0xbb5eb974	-0.003398505
198	0x3d8107d7	0.063003235
199	0x3e8ae13f	0.27124974
200	0xbd73772e	-0.05943983
201	0xbc2a28a5	-0.010385667
202	0xbdaf2dfd	-0.085536934
203	0x3e1d68ca	0.15372005
204	0x3e16d937	0.14731298
205	0xbdc0b138	-0.09408802
206	0x3cf77d99	0.030211257
207	0xbdca66be	-0.09882878
208	0xbd90fe84	-0.07079795
209	0xbe0ad492	-0.13557652
210	0xbce7970d	-0.028270269
211	0xbda3b9c3	-0.079944156
212	0x3e769035	0.24078448
213	0xbdaad498	-0.0834133
214	0x3d8209a0	0.06349492
215	0xbddd3f25	-0.108030595
216	0xbddc408c	-0.10754499
217	0x3c6d376a	0.014478544
218	0xbd360650	-0.044439614
219	0x3e0b1d0e	0.13585302
220	0x3c083bf3	0.008315074
221	0x3ab1333c	0.0013519297
222	0x3e3e76e4	0.1860004
223	0xbc0ad894	-0.008474488
224	0xbe50c555	-0.20387776
225	0xbdecd1c5	-0.11563448
226	0x3e511c9a	0.20421067
227	0xbd794994	-0.060861185
228	0xbd6cba4b	-0.05779485
229	0xbe07f58a	-0.1327726
230	0x3e994766	0.29937285
231	0x3e7353ad	0.23762389
232	0x3e909998	0.28242183
233	0xbba0813f	-0.00489822
234	0xbd4b5eff	-0.049651142
235	0x3d301c96	0.04299601
236	0xbdea9ca6	-0.114556596
237	0x3d789412	0.060688086
238	0x3a6410e3	0.0008700026
239	0xbdd78a94	-0.105244786
240	0xbdca9182	-0.09891035
241	0x3c988676	0.018618803
242	0x3e15b622	0.1462026
243	0xbdc380d3	-0.09546056
244	0xbd248e3a	-0.0401747
245	0x3cbdefbe	0.023185607
246	0xbd879460	-0.06620097
247	0xbece0267	-0.40236208
248	0xbdb0514a	-0.08609255
249	0xbe53e6ff	-0.20693587
250	0x3b952f5c	0.004552765
251	0xbdcddf70	-0.10052383
252	0xbe43ddbb	-0.19127552
253	0x3d045a06	0.032312416
254	0x3d09b003	0.033615123
255	0xbe491b76	-0.19639382

net.2.bias f4 [32]
0	0xbe961a48	-0.29316926
1	0xbd5588ca	-0.052132405
2	0x3e01e413	0.1268466
3	0x3da6b65d	0.08140252
4	0xbe71c210	-0.23609185
5	0x3ddfba9a	0.10924263
6	0xbedbd88e	-0.42938656
7	0x3d68b41f	0.0568124
8	0x3bbdd1e7	0.0057928446
9	0xbe29672a	-0.1654326
10	0xbd9f42a2	-0.07776381
11	0xbe162067	-0.14660798
12	0x3d97e185	0.07416061
13	0xbe767d8f	-0.24071334
14	0xbeb6fcfb	-0.35739884
15	0x3c851574	0.016245581
16	0x3f24ee76	0.6442636
17	0xbe8db9df	-0.2768087
18	0xbe6f2ec7	-0.23357688
19	0xbddc17b0	-0.107467055
20	0xbeefc7b7	-0.46832058
21	0xbd076bb9	-0.033061717
22	0xbe6fdcf4	-0.2342413
23	0xbe9a72bf	-0.3016567
24	0x3e24f643	0.16109566
25	0xbd2bd7bb	-0.041953783
26	0x3d9ec866	0.07753067
27	0x3d707eaa	0.058714546
28	0x3cfe7678	0.03106235
29	0x3d05465b	0.0325378
30	0x3e163d45	0.1467181
31	0x3ca0e8be	0.01964223

net.4.weight f4 [32, 32]
0	0x3e8efcf3	0.2792736
1	0x3f237c2e	0.6386136
2	0x3f051418	0.51983786
3	0x3ea08c05	0.31356826
4	0x3dfc8ba6	0.12331323
5	0x3e8958ff	0.2682571
6	0x3db16765	0.08662299
7	0xbd9a6f3d	-0.07540748
8	0x3ec0ba41	0.376421
9	0xbf0e62b8	-0.5561938
10	0xbe98b367	-0.29824373
11	0xbf35b3a5	-0.7097724
12	0x3ed72193	0.42017803
13	0xbec8ec75	-0.39242902
14	0xbe72b5b7	-0.23702131
15	0xbea59506	-0.32340258
16	0xbdfdc9c1	-0.12391997
17	0xbe3c081f	-0.18362473
18	0x3d8e54e4	0.06949785
19	0xbea683df	-0.32522485
20	0xbe3b0a4a	-0.18265644
21	0x3e18ac9f	0.149096
22	0xbdd266bd	-0.10273502
23	0xbe53c084	-0.20678908
24	0xbd878812	-0.0661775
25	0xbcbaf7bc	-0.022823207
26	0x3e8de8ac	0.27716577
27	0x3ec15c26	0.37765616
28	0x3ecb2eb3	0.39684066
29	0xbea94cf3	-0.3306652
30	0xbd772a70	-0.060343206
31	0x3ee02929	0.43781403
32	0xbe9c9c98	-0.30588222
33	0xbee04578	-0.43803
34	0xbf1486c4	-0.58018136
35	0xbea518a1	-0.32245353
36	0xbdc9c96e	-0.09852873
37	0xbe07d6bd	-0.1326551
38	0x3e830678	0.25590873
39	0x3e19fa2b	0.15036838
40	0xbe884445	-0.26614586
41	0xbdb07036	-0.086151525
42	0x3e78c892	0.24295262
43	0xbba92a4d	-0.0051625133
44	0xbeacc8ca	-0.3374694
45	0x3ea4ac25	0.32162586
46	0x3e45aa77	0.19303308
47	0x3e8b729f	0.27235886
48	0x3e414dae	0.18877289
49	0x3e85e646	0.26152247
50	0xbeaae0a6	-0.33374518
51	0x3eb3e57c	0.3513602
52	0x3d6fd5b0	0.058553398
53	0x3ca9dbb2	0.020734642
54	0xbc2526a3	-0.0100800125
55	0x3ca3650b	0.019945642
56	0x3e1713cb	0.14753644
57	0x3e4d89d0	0.20072103
58	0xbe6af8d6	-0.22946486
59	0xbe88d220	-0.26722813
60	0xbe9746d5	-0.29546228
61	0x3e2ab4be	0.1667051
62	0x3e22bea6	0.15893039
63	0xbea5cb44	-0.32381642
64	0xbe243482	-0.16035655
65	0x3bfec782	0.007775248
66	0xbe14e1ab	-0.1453921
67	0xbe6c0e05	-0.23052223
68	0xbe86cfd9	-0.2633045
69	0x3c28c780	0.010301471
70	0x3e50d250	0.20392728
71	0xbd51fb58	-0.05126509
72	0xbea799c7	-0.3273451
73	0xbeb3fe66	-0.35155028
74	0x3d8b17a6	0.0679162
75	0x3f2348b3	0.63782805
76	0xbdf19dc2	-0.11797668
77	0x3eeaca0c	0.45857275
78	0xbe136084	-0.14392287
79	0x3e5cb7b3	0.2155445
80	0x3e86ca52	0.26326233
81	0x3c8196af	0.015818922
82	0xbe82fa36	-0.2558152
83	0x3e934a69	0.28767708
84	0xbd973251	-0.07382644
85	0xbe967ce7	-0.29392168
86	0x3e1eff71	0.1552713
87	0xbd6b4e87	-0.057447936
88	0xbe995a35	-0.29951635
89	0xbdf46e68	-0.11935121
90	0xbe6bbb45	-0.23020656
91	0xbdc559ab	-0.096362434
92	0xbe84b8a7	-0.2592213
93	0xbe1e4fad	-0.15460081
94	0x3e7194aa	0.23591867
95	0xbd806a0c	-0.06270227
96	0xbc56b9d2	-0.013105826
97	0x3e90faa8	0.28316236
98	0x3d9da918	0.07698268
99	0xbe86f9e7	-0.26362535
100	0xbda12f1a	-0.07870312
101	0x3e5b8e5a	0.21441022
102	0xbedcc75e	-0.43120855
103	0xbe22db10	-0.15903878
104	0xbe472b0c	-0.19450015
105	0xbdfe7a0f	-0.124256246
106	0xbe8c608d	-0.27417412
107	0xbeb0e285	-0.3454782
108	0x3d8c26fe	0.06843375
109	0xbd4f34d9	-0.05058751
110	0xbebe66e5	-0.37187877
111	0x3e02b155	0.1276296
112	0x3de96615	0.11396424
113	0xbdbd9af9	-0.09258074
114	0xbdd9e343	-0.1063905
115	0xbe4852b2	-0.19562796
116	0xbe12615f	-0.14294957
117	0x3dd5d2c6	0.104405925
118	0x3dea5161	0.11441303
119	0xbd20fd17	-0.039303865
120	0xbe0dba55	-0.13840611
121	0xbd9ebb27	-0.0775054
122	0xbdc2f391	-0.09519113
123	0xbebfe2ad	-0.37477627
124	0x3df159c8	0.117847025
125	0xbcdc0e09	-0.026862161
126	0xbd77924a	-0.060442246
127	0x3d806231	0.062687285
128	0xbeb6119f	-0.3556032
129	0xbe04a414	-0.12953216
130	0xbeb96630	-0.36210775
131	0xbd79c49f	-0.060978528
132	0xbd4d2b3c	-0.05009006
133	0xbd71c6f1	-0.059027616
134	0x3e809178	0.25110984
135	0xbd02df9f	-0.031951543
136	0xbde8c71d	-0.11366103
137	0xbc0b4b16	-0.008501789
138	0xbe053a1f	-0.13010453
139	0xbe2abd1c	-0.16673702
140	0xbe8a3fa9	-0.27001694
141	0xbe21e2db	-0.15809195
142	0x3c838110	0.016052753
143	0x3dafc55f	0.085825674
144	0x3e60eab4	0.21964532
145	0x3e36f5b6	0.17867169
146	0xbf292a2c	-0.66079974
147	0x3dfa5515	0.12223259
148	0xbe00a293	-0.12562017
149	0x3e93a81c	0.28839195
150	0xbdc6119a	-0.09671326
151	0xbea8a42d	-0.32937756
152	0x3e993a26	0.29927176
153	0x3e389881	0.18026926
154	0x3e21ae1c	0.15789074
155	0xbe7c7b21	-0.24656345
156	0xbd8d6374	-0.06903735
157	0x3e866fa9	0.26257065
158	0x3e89c939	0.26911333
159	0xbe38e68c	-0.18056697
160	0x3e35d240	0.17755985
161	0xbd9624b7	-0.073312216
162	0x3ed800ac	0.42188013
163	0x3e583eb2	0.21117666
164	0x3e9fa6ff	0.31182095
165	0x3ed92861	0.4241362
166	0x3e074b6e	0.13212368
167	0xbef6d362	-0.48208147
168	0x3dfe97ab	0.12431272
169	0xbea45782	-0.32098013
170	0x3dc7e6bb	0.09760805
171	0xbe15c88d	-0.14627285
172	0x3e19c80b	0.15017717
173	0xbe0b54d0	-0.13606572
174	0xbda7bb4d	-0.08190022
175	0xbe9c771e	-0.3055963
176	0xbe83c0e9	-0.25733116
177	0xbead2bcd	-0.3382248
178	0xbf00af95	-0.50267917
179	0xbf01b20a	-0.5066229
180	0x3ea30d46	0.31846064
181	0x3ebd62c4	0.36989415
182	0x3e9f99dd	0.31172076
183	0x3e957258	0.291888
184	0xbe16298a	-0.14664283
185	0xbf00f559	-0.5037437
186	0x3d286316	0.04111012
187	0x3dbef92d	0.0932487
188	0x3e62ad23	0.22136359
189	0xbe820eb9	-0.25401857
190	0xbd8b92ef	-0.06815135
191	0xbe49a45d	-0.19691606
192	0x3f0b5d15	0.54438907
193	0x3f59ebb7	0.851253
194	0x3e03b6e7	0.1286274
195	0x3edfc71e	0.43706602
196	0x3f36091e	0.7110766
197	0x3e51d695	0.20492013
198	0xbed52fd4	-0.41638052
199	0xbf014f79	-0.5051189
200	0x3eb84371	0.35988954
201	0xbe7c386e	-0.24630901
202	0xbebbdfc1	-0.36694148
203	0xbf2773f2	-0.65411294
204	0x3eb9c62d	0.3628401
205	0xbdf92a1e	-0.12166236
206	0xbeb87744	-0.36028492
207	0xbe791444	-0.24324137
208	0xbecc24f0	-0.3987193
209	0xbe73669e	-0.23769614
210	0x3ed5be55	0.41746774
211	0xbf22441a	-0.63385165
212	0xbe3eab7d	-0.18620105
213	0xbf0a8450	-0.5410814
214	0xbe4b330c	-0.19843692
215	0x3d1247e1	0.03571308
216	0xbc4c2ff6	-0.012462607
217	0xbf45a99f	-0.77211946
218	0xbd46011c	-0.0483409
219	0x3e87dca9	0.26535538
220	0x3e98c8d3	0.29840717
221	0xbe31141e	-0.1729283
222	0xbde42c79	-0.11141295
223	0xbd70333c	-0.05864261
224	0x3e56c434	0.20973283
225	0xbe53152a	-0.20613542
226	0xbf233aac	-0.637614
227	0xbe8eb3c3	-0.27871522
228	0x3d0aaaff	0.03385448
229	0xbe876469	-0.26443794
230	0x3cebd03d	0.02878582
231	0x3ed39c47	0.41330168
232	0xbdbd8069	-0.09253008
233	0xbe96b5fc	-0.29435718
234	0x3e03ea94	0.12882453
235	0x3e741dbd	0.23839469
236	0xbe900b0c	-0.28133428
237	0xbde86ede	-0.11349271
238	0xbe98de5a	-0.2985714
239	0x3e43437e	0.19068715
240	0x3ea8e27a	0.32985288
241	0x3e5f3969	0.21799244
242	0x3d990198	0.07471007
243	0x3dbbe95b	0.091753684
244	0xbdd4ab83	-0.10384276
245	0xbd5dcb20	-0.054148793
246	0xbea1f865	-0.31634822
247	0xbe243a88	-0.16037953
248	0x3eaf03c7	0.3418257
249	0x3de17df5	0.110103525
250	0xbdd3357a	-0.10312934
251	0xbd31dc38	-0.043422908
252	0xbc77b023	-0.015117678
253	0x3e155aa4	0.14585358
254	0xbc691374	-0.014225829
255	0xbe7fcd5e	-0.24980685

net.4.bias f4 [32]
0	0x3e29cbba	0.16581622
1	0x3e186960	0.14883947
2	0x3e075b97	0.13218533
3	0x3d3317f3	0.04372401
4	0x3e0ddd14	0.13853866
5	0xbbf364b4	-0.007427776
6	0xbe1d0274	-0.15332967
7	0x3e5f7819	0.21823157
8	0x3dbf0f38	0.093290746
9	0x3c51cfc6	0.012805885
10	0x3d790291	0.060793463
11	0x3c7a86aa	0.0152908955
12	0x3da8a752	0.08235039
13	0x3d89efec	0.067352146
14	0xbddc38f9	-0.10753054
15	0x3d249619	0.040182207
16	0x3e24e63f	0.16103457
17	0x3dd1c587	0.102427535
18	0x3d5796ee	0.052634172
19	0x3db0c3ba	0.08631082
20	0xbd8bb8b1	-0.068223365
21	0xbe9ed83c	-0.3102435
22	0xbe459629	-0.19295563
23	0x3da8134d	0.08206806
24	0x3dad5137	0.08462756
25	0x3db37e95	0.08764378
26	0x3c10baeb	0.008833627
27	0x3d0c1b02	0.034205444
28	0x3e3ef138	0.18646705
29	0x3e404e57	0.18779884
30	0xbd7497b0	-0.059714973
31	0x3e01ccfb	0.1267585

net.6.weight f4 [1, 32]
0	0xbf5fecb1	-0.8747054
1	0xbfeb9962	-1.8406184
2	0x3f1bbe9d	0.6083773
3	0xbf927136	-1.1440799
4	0x3f402b6b	0.7506625
5	0x3f754a17	0.9581618
6	0x3f4c4886	0.7979816
7	0x3f847258	1.0347395
8	0xbf21fa12	-0.632722
9	0xbf3c4eff	-0.7355804
10	0x3f0b44be	0.5440177
11	0xbf0a258d	-0.5396355
12	0xbf156b84	-0.5836718
13	0x3f18b8b4	0.59656835
14	0xbee8672b	-0.4539121
15	0x3f1b8d57	0.6076254
16	0x3eba8548	0.3642981
17	0x3f83d6c8	1.0299921
18	0xbf5cde19	-0.86276394
19	0x3f02b6e1	0.510603
20	0x3efecd1c	0.4976586
21	0xbfb9534d	-1.4478546
22	0x3e7e749a	0.24849167
23	0x3efa4497	0.48880455
24	0x3f79d7fd	0.97595197
25	0x3f2fbec0	0.68650436
26	0xbf16ef23	-0.58958644
27	0xbf521723	-0.82066554
28	0x3f237b3e	0.6385993
29	0xbf06da88	-0.526772
30	0x3f3cdaa4	0.7377112
31	0x3f550283	0.8320696

exp_avg f4 [256, 120]
0	0x36609d1c	3.347005e-06
1	0xb696d7ac	-4.495456e-06
2	0xb6d65740	-6.3878542e-06
3	0xb71152c2	-8.661942e-06
4	0x35e40898	1.6989825e-06
5	0xb7090eed	-8.1693115e-06
6	0xb57b8e2e	-9.3711685e-07
7	0x36dba631	6.546056e-06
8	0x34f569c3	4.5711758e-07
9	0x35d38bf5	1.5761458e-06
10	0xb6bddc79	-5.6583053e-06
11	0x36f1bf45	7.2046264e-06
12	0x37975610	1.8040679e-05
13	0xb74981fb	-1.2010797e-05
14	0x369867f8	4.5420566e-06
15	0x37ad15e9	2.063341e-05
16	0x37930947	1.7528086e-05
17	0xb70de85b	-8.458354e-06
18	0x370cbbcc	8.388375e-06
19	0x371ed51e	9.467154e-06
20	0x372c6775	1.0276087e-05
21	0xb6da7699	-6.510713e-06
22	0x378b117e	1.6578237e-05
23	0x35cb687e	1.515509e-06
24	0x3702837f	7.77922e-06
25	0x375a2ded	1.30045055e-05
26	0x37b0a9bd	2.1059876e-05
27	0x340fd6f2	1.339611e-07
28	0xb53b7066	-6.982649e-07
29	0x372d7155	1.0337991e-05
30	0x36bf483b	5.7006523e-06
31	0x37a2069b	1.931498e-05
32	0x36ea8991	6.9897583e-06
33	0x37657814	1.36774215e-05
34	0x37dc2302	2.6242345e-05
35	0xb72f9ef1	-1.0467819e-05
36	0x368d9f26	4.220655e-06
37	0x37b93008	2.2076085e-05
38	0xb680c19b	-3.837236e-06
39	0x3707c270	8.091898e-06
40	0xb6d8b79a	-6.4586757e-06
41	0x37965191	1.7919376e-05
42	0x36afd8fe	5.2406676e-06
43	0x37098d72	8.198769e-06
44	0xb6dec13e	-6.638612e-06
45	0x331bdbdc	3.628871e-08
46	0xb65af54c	-3.2627313e-06
47	0x37731354	1.4488429e-05
48	0xb60d8db4	-2.109312e-06
49	0xb7523658	-1.2529628e-05
50	0x3606ae5a	2.0069042e-06
51	0xb68530d2	-3.9693923e-06
52	0x357545dc	9.137127e-07
53	0xb4fea980	-4.7434514e-07
54	0xb653cd5d	-3.1560987e-06
55	0xb6a5666e	-4.9293076e-06
56	0xb73992a1	-1.1060999e-05
57	0xb48459be	-2.4652212e-07
58	0xb5b4bb2f	-1.3465523e-06
59	0xb6e6b319	-6.875384e-06
60	0xb5de1aa7	-1.6548046e-06
61	0xb6860709	-3.99433e-06
62	0xb63c6ad5	-2.8076367e-06
63	0xb6cba2c6	-6.0688208e-06
64	0xb66bb03e	-3.5120315e-06
65	0xb6087fff	-2.0340083e-06
66	0xb5ccb2d7	-1.5251234e-06
67	0xb6636e92	-3.3889996e-06
68	0xb62817a4	-2.5047711e-06
69	0xb5ad0bf2	-1.2892981e-06
70	0xb6877973	-4.037452e-06
71	0xb64b3429	-3.0279718e-06
72	0xb647b726	-2.9759917e-06
73	0xb68a56a4	-4.122807e-06
74	0xb630c5dd	-2.6341215e-06
75	0xb6821948	-3.877245e-06
76	0xb6647b85	-3.4046545e-06
77	0xb660937e	-3.3464453e-06
78	0xb66368cc	-3.3886636e-06
79	0xb65a8df4	-3.256716e-06
80	0xb63a0df2	-2.7724277e-06
81	0xb642c8e6	-2.902519e-06
82	0xb64a4109	-3.01382e-06
83	0xb65ea6c9	-3.317766e-06
84	0xb65aaac9	-3.2583941e-06
85	0xb650e1c3	-3.1125826e-06
86	0xb64e14ef	-3.0708577e-06
87	0xb65f5b13	-3.3282602e-06
88	0xb65c2381	-3.280322e-06
89	0xb65105fe	-3.1146915e-06
90	0xb65b0623	-3.2637115e-06
91	0xb65aa888	-3.258263e-06
92	0xb65bfdf6	-3.2781368e-06
93	0xb64958b9	-3.0002977e-06
94	0xb65df399	-3.3073359e-06
95	0xb657acbe	-3.2138046e-06
96	0xb685330b	-3.969651e-06
97	0xb65a27a6	-3.250761e-06
98	0xb65c01a3	-3.2783507e-06
99	0xb656f457	-3.203071e-06
100	0xb642dad3	-2.9035625e-06
101	0xb64139c5	-2.8792867e-06
102	0xb62f66f0	-2.613695e-06
103	0xb64ea93c	-3.07949e-06
104	0xb66cd716	-3.5291937e-06
105	0xb6ba5126	-5.552679e-06
106	0xb65d623f	-3.2988753e-06
107	0xb635c68c	-2.7086671e-06
108	0xb64a85d0	-3.0178235e-06
109	0xb4d77d73	-4.0138147e-07
110	0xb661c1a9	-3.3640338e-06
111	0xb67cb72b	-3.7657544e-06
112	0xb68244f0	-3.8823273e-06
113	0xb61816d0	-2.2663044e-06
114	0xb65553d2	-3.1788263e-06
115	0xb61e4e2a	-2.3589332e-06
116	0xb623c3dd	-2.44029e-06
117	0xb6d96c47	-6.479709e-06
118	0xb6e0d2a6	-6.700243e-06
119	0xb6941e97	-4.414305e-06
120	0xb73420fc	-1.0736516e-05
121	0xb73ec48d	-1.1370646e-05
122	0xb71406d7	-8.82308e-06
123	0xb6d42ca5	-6.3232897e-06
124	0xb44201af	-1.806827e-07
125	0x3717a874	9.039522e-06
126	0xb588001d	-1.0132823e-06
127	0xb7458122	-1.1772181e-05
128	0x3813e264	3.5258374e-05
129	0xb799655c	-1.828622e-05
130	0xb7344153	-1.07440455e-05
131	0x3706a731	8.02595e-06
132	0x371d7cb6	9.386966e-06
133	0xb555776f	-7.952248e-07
134	0x36e3d520	6.789938e-06
135	0x3795d5ad	1.7861685e-05
136	0x36fdff50	7.56971e-06
137	0x37cc678e	2.4366916e-05
138	0x365d9da6	3.302333e-06
139	0x37df39e8	2.6610636e-05
140	0x36a9ecaf	5.064146e-06
141	0xb6aa8d6a	-5.0828576e-06
142	0x34f6cb93	4.596919e-07
143	0x382a1a99	4.055593e-05
144	0x3851e30f	5.0040948e-05
145	0xb7f9f659	-2.9797828e-05
146	0x382dc307	4.1428048e-05
147	0xb7b35f28	-2.1382773e-05
148	0xb6a762e7	-4.9885016e-06
149	0x381be652	3.7169382e-05
150	0x387b6a46	5.994204e-05
151	0x3786172d	1.5984837e-05
152	0x3884661c	6.31327e-05
153	0x37744ec7	1.4561875e-05
154	0xb6e025dd	-6.680128e-06
155	0x374a6bec	1.2065266e-05
156	0x386f8b05	5.7111512e-05
157	0x3730790d	1.0518602e-05
158	0x37be86a4	2.2712462e-05
159	0xb7e6f692	-2.7532955e-05
160	0xb796628e	-1.7927287e-05
161	0xb79a98d5	-1.8429399e-05
162	0xb63ef1bb	-2.8452912e-06
163	0xb7e5b739	-2.7384247e-05
164	0x372bf1ef	1.0248724e-05
165	0xb7b19e84	-2.1173859e-05
166	0x36835bbc	3.9147835e-06
167	0x378b6164	1.6615442e-05
168	0xb6d37df8	-6.3029547e-06
169	0xb58d9300	-1.0548101e-06
170	0xb6cb3826	-6.056408e-06
171	0xb66a605c	-3.4924806e-06
172	0xb6953c25	-4.447548e-06
173	0xb6365c94	-2.7174e-06
174	0xb66b088c	-3.5022704e-06
175	0xb75b43c5	-1.3069196e-05
176	0xb59c9829	-1.166719e-06
177	0xb6a8930b	-5.023908e-06
178	0xb69dd35d	-4.7035705e-06
179	0xb64cd108	-3.052004e-06
180	0xb64f4187	-3.0883546e-06
181	0xb6affdf6	-5.2449714e-06
182	0xb6102bf7	-2.1483263e-06
183	0xb6cbfbb0	-6.0791717e-06
184	0xb6d17770	-6.2425897e-06
185	0xb5af4c50	-1.3060726e-06
186	0xb72973e1	-1.0100165e-05
187	0xb69698c7	-4.488134e-06
188	0xb6bba807	-5.5925952e-06
189	0xb68c3301	-4.1782628e-06
190	0xb69d0605	-4.6796654e-06
191	0xb6b06bde	-5.257766e-06
192	0xb68fd8a8	-4.286954e-06
193	0xb6d3feb7	-6.3179427e-06
194	0xb686ce08	-4.0174964e-06
195	0xb6ae6181	-5.196955e-06
196	0xb69a1040	-4.5914494e-06
197	0xb6c4e74b	-5.8681812e-06
198	0xb68efa57	-4.261073e-06
199	0xb684cb22	-3.9575543e-06
200	0xb6921ad1	-4.354261e-06
201	0xb6a6ba72	-4.9688906e-06
202	0xb69aba0f	-4.6112177e-06
203	0xb6a10c7f	-4.7996286e-06
204	0xb6a314bd	-4.860193e-06
205	0xb69f694e	-4.7508283e-06
206	0xb69829a3	-4.5348e-06
207	0xb6aae786	-5.0933477e-06
208	0xb6a07f60	-4.7832e-06
209	0xb6a04a5e	-4.777029e-06
210	0xb6aad6e3	-5.091411e-06
211	0xb6a35e25	-4.8687384e-06
212	0xb69feea6	-4.7663516e-06
213	0xb6a20259	-4.8282495e-06
214	0xb68164c6	-3.856231e-06
215	0xb694a181	-4.4295452e-06
216	0xb69c87aa	-4.6649557e-06
217	0xb6bd5286	-5.642246e-06
218	0xb699b482	-4.580769e-06
219	0xb6a8c9a8	-5.030266e-06
220	0xb68dd632	-4.227063e-06
221	0xb6710229	-3.5913056e-06
222	0xb69cbcbe	-4.671135e-06
223	0xb6bb0c0a	-5.574436e-06
224	0xb67e006a	-3.784919e-06
225	0xb6bde69d	-5.659486e-06
226	0xb68a523b	-4.1222934e-06
227	0xb6ab1517	-5.0986523e-06
228	0xb6cae198	-6.0463317e-06
229	0xb6db8e47	-6.543272e-06
230	0xb6512683	-3.1165844e-06
231	0xb7085d1f	-8.127913e-06
232	0xb69e2f0d	-4.7142444e-06
233	0xb64625fe	-2.9526414e-06
234	0xb6ac7251	-5.1393076e-06
235	0xb64b19b0	-3.026431e-06
236	0xb70541dd	-7.942753e-06
237	0xb64977c0	-3.0021038e-06
238	0xb691b99a	-4.3429436e-06
239	0xb706340f	-7.999143e-06
240	0x370f0ff7	8.527181e-06
241	0xb4ab8a1a	-3.1951714e-07
242	0x34565a65	1.9963188e-07
243	0x3718d0d8	9.108531e-06
244	0x36bc62b0	5.6143253e-06
245	0xb453d8ac	-1.9729731e-07
246	0x37aa9b46	2.0337884e-05
247	0xb66cfe88	-3.5314897e-06
248	0x34bced50	3.5190396e-07
249	0x3706a635	8.0257205e-06
250	0x361b8a36	2.317725e-06
251	0x3785dbc0	1.5957165e-05
252	0x37c5e290	2.3589731e-05
253	0x35c547e0	1.4698562e-06
254	0xb806cefc	-3.214086e-05
255	0xb8040bb5	-3.1482155e-05

exp_avg_sq f4 [256, 120]
0	0x306f28d5	8.700572e-10
1	0x306885d9	8.459132e-10
2	0x305f0651	8.1135904e-10
3	0x30582e0e	7.864579e-10
4	0x309ec9db	1.1553384e-09
5	0x308499e9	9.648008e-10
6	0x309891c2	1.1100882e-09
7	0x30f0fd34	1.7534263e-09
8	0x31993556	4.4589497e-09
9	0x30a7f3bf	1.2220126e-09
10	0x30af697d	1.2762907e-09
11	0x30ae5e25	1.2686924e-09
12	0x319f4da4	4.6363358e-09
13	0x3185ee64	3.8979113e-09
14	0x326e9536	1.388735e-08
15	0x31887b2e	3.972125e-09
16	0x32861a28	1.5611548e-08
17	0x31d55aa0	6.2094188e-09
18	0x3294811c	1.728818e-08
19	0x31fc6bca	7.3464195e-09
20	0x3195f026	4.3637725e-09
21	0x31d0056e	6.054214e-09
22	0x324f0a63	1.20513475e-08
23	0x320fe8f1	8.37666e-09
24	0x31a65dcd	4.8418998e-09
25	0x32143362	8.626417e-09
26	0x3253b763	1.2323514e-08
27	0x32197e51	8.934493e-09
28	0x320463d7	7.706112e-09
29	0x32380bf6	1.0712929e-08
30	0x321a0b99	8.966617e-09
31	0x319a6751	4.4937356e-09
32	0x31b34aa0	5.2180695e-09
33	0x322734e3	9.732704e-09
34	0x320d27a9	8.216298e-09
35	0x31bac0af	5.435218e-09
36	0x31a172ce	4.6987685e-09
37	0x327e1931	1.4790474e-08
38	0x321c4f61	9.098444e-09
39	0x32a2ccd0	1.895242e-08
40	0x31a8feb7	4.9184012e-09
41	0x32343905	1.0490344e-08
42	0x31804fe8	3.7343746e-09
43	0x31b43420	5.2446154e-09
44	0x30d185c4	1.524477e-09
45	0x30dc69a3	1.603713e-09
46	0x3040d6f4	7.015466e-10
47	0x32086b51	7.940643e-09
48	0x3111ab00	2.119748e-09
49	0x3112ff04	2.1390756e-09
50	0x3098728d	1.1092013e-09
51	0x30ba2aaa	1.3545407e-09
52	0x308b8066	1.0150074e-09
53	0x307ec0e4	9.2678776e-10
54	0x306b5607	8.5614754e-10
55	0x307a22c5	9.099888e-10
56	0x3066bfb4	8.394594e-10
57	0x306b3768	8.557124e-10
58	0x305df843	8.075213e-10
59	0x304c696b	7.4364576e-10
60	0x304a73b9	7.3651624e-10
61	0x305ddfa6	8.0717155e-10
62	0x3054c784	7.740868e-10
63	0x3052db57	7.6709256e-10
64	0x304878d8	7.2931305e-10
65	0x304d2bff	7.464109e-10
66	0x3050850f	7.5859047e-10
67	0x30415e51	7.034702e-10
68	0x3046354b	7.2107714e-10
69	0x304cf187	7.4558e-10
70	0x304ae57b	7.3813283e-10
71	0x3041c4ed	7.049284e-10
72	0x304451a6	7.1420414e-10
73	0x30448e03	7.1506195e-10
74	0x30470258	7.239911e-10
75	0x30420c22	7.059403e-10
76	0x30412227	7.0261524e-10
77	0x30443a80	7.138752e-10
78	0x3047afc6	7.264557e-10
79	0x3043999b	7.1158873e-10
80	0x30410f0c	7.0234374e-10
81	0x3041219a	7.026074e-10
82	0x3041fb6a	7.057027e-10
83	0x3040b4a4	7.01059e-10
84	0x30407ee9	7.0029543e-10
85	0x30412a18	7.027281e-10
86	0x30420a0a	7.0591055e-10
87	0x30409cd6	7.007207e-10
88	0x3040a6b6	7.0086104e-10
89	0x3040ae33	7.0096745e-10
90	0x30405801	6.9974254e-10
91	0x3040c60a	7.0130624e-10
92	0x30409a07	7.006808e-10
93	0x3040b0da	7.0100514e-10
94	0x3040b619	7.010797e-10
95	0x30405d23	6.998155e-10
96	0x304216bd	7.06091e-10
97	0x304243fb	7.0673395e-10
98	0x3042b385	7.08319e-10
99	0x3040b019	7.0099443e-10
100	0x3043423c	7.103471e-10
101	0x3042c136	7.085136e-10
102	0x304833b1	7.2833034e-10
103	0x304129fd	7.027266e-10
104	0x304907b3	7.3134315e-10
105	0x304a08e0	7.3499784e-10
106	0x30435214	7.1057227e-10
107	0x30413e2b	7.0301337e-10
108	0x304582d4	7.18541e-10
109	0x3066fa09	8.4028834e-10
110	0x3040e0df	7.0168754e-10
111	0x30411d8f	7.0254996e-10
112	0x306726ae	8.409228e-10
113	0x305fd537	8.1429924e-10
114	0x3040fde3	7.020999e-10
115	0x3043cda2	7.123281e-10
116	0x3069b3cf	8.502043e-10
117	0x30802b70	9.325571e-10
118	0x3064d8ef	8.32542e-10
119	0x304f8bed	7.550501e-10
120	0x332d967a	4.041656e-08
121	0x333371ab	4.1780066e-08
122	0x33340fa3	4.1923737e-08
123	0x3332ab8e	4.1599883e-08
124	0x33228672	3.784084e-08
125	0x332d2379	4.0311964e-08
126	0x33289172	3.924783e-08
127	0x3312b7fc	3.4160607e-08
128	0x32ffa38a	2.9760276e-08
129	0x32df3612	2.5985205e-08
130	0x32eb7e25	2.7414965e-08
131	0x3314e7a0	3.4669597e-08
132	0x330e311f	3.3106627e-08
133	0x338cd783	6.5584594e-08
134	0x3424d551	1.5351294e-07
135	0x338453b4	6.1619545e-08
136	0x35391536	6.8948736e-07
137	0x349d7d2a	2.9334598e-07
138	0x34fece36	4.7461225e-07
139	0x34333bbd	1.6692407e-07
140	0x34b76e12	3.4166493e-07
141	0x34e1526f	4.1969494e-07
142	0x34e9ea12	4.356994e-07
143	0x34e05991	4.178842e-07
144	0x34dce2e1	4.114327e-07
145	0x350bc96b	5.2074637e-07
146	0x3552cbe6	7.852781e-07
147	0x3532ca72	6.6604764e-07
148	0x35336a15	6.6837066e-07
149	0x35613b95	8.3905735e-07
150	0x350ff475	5.3627383e-07
151	0x349e3f00	2.9475632e-07
152	0x34caa062	3.7742126e-07
153	0x34e6b34b	4.297129e-07
154	0x34e70f5b	4.3038276e-07
155	0x346d612c	2.2107696e-07
156	0x343fa807	1.7849389e-07
157	0x34fb8935	4.6852225e-07
158	0x349b4f40	2.8928662e-07
159	0x351eb83d	5.912769e-07
160	0x336fc151	5.5822344e-08
161	0x344d5434	1.9122746e-07
162	0x33ddde4a	1.03315486e-07
163	0x337a4221	5.8267805e-08
164	0x33094eed	3.196958e-08
165	0x32efb665	2.7906205e-08
166	0x32c03d54	2.237963e-08
167	0x33049217	3.0866513e-08
168	0x330e1c57	3.3087726e-08
169	0x33268d2f	3.8778293e-08
170	0x33300095	4.0978723e-08
171	0x33298453	3.9468727e-08
172	0x33337ab9	4.17883e-08
173	0x3334894f	4.2034397e-08
174	0x3333e9a0	4.1889166e-08
175	0x332bf0ff	4.0033225e-08
176	0x33343370	4.1956298e-08
177	0x333352a5	4.175185e-08
178	0x333346d2	4.1741096e-08
179	0x3330612b	4.1066567e-08
180	0x3332ccd1	4.1630134e-08
181	0x33339861	4.1815273e-08
182	0x33332e8f	4.171903e-08
183	0x33325e4c	4.1529617e-08
184	0x3332b8b0	4.1611827e-08
185	0x3333bbb2	4.1847393e-08
186	0x333446c9	4.1973895e-08
187	0x33331e46	4.170422e-08
188	0x3333ac71	4.183352e-08
189	0x3333d0e2	4.1866663e-08
190	0x3332f488	4.1666254e-08
191	0x33339a6c	4.181713e-08
192	0x33336eca	4.1777447e-08
193	0x33338c46	4.1804263e-08
194	0x33339831	4.1815102e-08
195	0x33335701	4.1755815e-08
196	0x33337bd1	4.1789296e-08
197	0x3333a2f6	4.1824897e-08
198	0x33333910	4.1728583e-08
199	0x33333ac1	4.173012e-08
200	0x33334408	4.173856e-08
201	0x333340dd	4.1735678e-08
202	0x3333476b	4.174164e-08
203	0x33333da8	4.173276e-08
204	0x33334ca0	4.1746375e-08
205	0x33334a9a	4.1744535e-08
206	0x3333286f	4.171346e-08
207	0x33334dd6	4.1747477e-08
208	0x3333239a	4.1709065e-08
209	0x333343dd	4.1738407e-08
210	0x33335ef7	4.1763055e-08
211	0x333334fd	4.1724878e-08
212	0x33335290	4.1751775e-08
213	0x333394f3	4.1812154e-08
214	0x33332a58	4.1715197e-08
215	0x33331a73	4.170074e-08
216	0x333378bd	4.1786496e-08
217	0x3333341d	4.1724082e-08
218	0x3332f89d	4.1669967e-08
219	0x33334ffd	4.1749434e-08
220	0x333347f5	4.174213e-08
221	0x3332e1da	4.1649265e-08
222	0x33338743	4.1799705e-08
223	0x3332fbba	4.16728e-08
224	0x33331b18	4.1701327e-08
225	0x3333b153	4.183796e-08
226	0x33337e2a	4.179143e-08
227	0x33339294	4.1809997e-08
228	0x3333d7d4	4.187298e-08
229	0x33345486	4.198639e-08
230	0x33335ba6	4.176004e-08
231	0x3333bbfb	4.1847652e-08
232	0x333369ab	4.177279e-08
233	0x3333d15f	4.1867107e-08
234	0x33333c14	4.1731326e-08
235	0x3333a57e	4.18272e-08
236	0x3334953a	4.2045237e-08
237	0x33323fb2	4.1501785e-08
238	0x3334889a	4.2033754e-08
239	0x33332ad2	4.171563e-08
240	0x31ad0184	5.035135e-09
241	0x318ef963	4.161096e-09
242	0x31851e8a	3.8742813e-09
243	0x31885a79	3.9684065e-09
244	0x31b78ead	5.3422213e-09
245	0x31c3b686	5.6959975e-09
246	0x31c069fd	5.599985e-09
247	0x31e045a3	6.527175e-09
248	0x32d350d3	2.4600388e-08
249	0x323f57a5	1.1137591e-08
250	0x31dd2698	6.436334e-09
251	0x31e1c830	6.5711205e-09
252	0x32a86099	1.9601702e-08
253	0x32b36fbc	2.0889154e-08
254	0x32fa147b	2.9113144e-08
255	0x32cee589	2.4085937e-08
