Training/PyTrainer/policy8dbrescore.ckpt (torch, 654085 bytes, 28 tensors)

net.0.weight f4 [256, 120]
00000000: 981a 96bf 8572 a9bf 332f a4bf 865c b1be
00000010: f6fd 6cbf 4c95 6fbf 8736 6dbe b6bd 0cbe
00000020: e60b b03a aa96 c7be d884 05be 2cce 3dbe
00000030: 5f41 87be 6e0e 86be 3748 59be fa67 1cbe
00000040: 56bb 25be 1002 27be 642c 50be 025f 20be
00000050: 00cd f4bd 4eab 3dbe 4bc1 30be a1fa f1bd
00000060: 4a24 efbc 82cd c1bd 38b0 41be 5069 00be
00000070: c2c0 66bd 35cd 903e 012d b63e 4cbf 0a3e
00000080: 36c4 2cbe 2244 ec3d 7ca1 f33e 7204 493e
00000090: b3e6 d23c b626 de3e e458 353e 5051 2e3e
000000a0: 2476 be3c be5c 843d 0427 483e 8e0d 033e
000000b0: 7655 e23d 5288 da3d a672 0f3e ec60 e63d
000000c0: a436 5c3e 0c51 1d3e fc3d ee3d 8754 1b3e
000000d0: a02b 5d3e 3b91 253e 6a86 233e a0b6 0b3e
000000e0: d048 44bf 30a3 a2bf 301a f4be ee9a 51be
000000f0: 3390 bcbe 6625 33bf bc12 10bf f6f1 8ebe
00000100: 6c63 d4be 5869 83be 9ffa 9bbe 7027 fabe
00000110: dc3e 73be b219 f0be ce76 81be 3bc0 98be
00000120: 72ff 79be 7e0f 43be 62b8 0cbe c74d dbbd
00000130: 1fdd 273e 58b6 febd 64df 543c 649c 5a3d
00000140: 3265 063e 14de 793d 1021 3f3e 98d0 fd3e
00000150: 7457 8a3e af2e 883e 109e 2c3e 58a5 de3e
00000160: ab02 003f 1b4c da3e b03d 313f 7cb1 913f
00000170: 1e49 ea3e 6ea3 c93e 22a9 0f3f 8cc1 203f
00000180: a0b8 553e b948 8c3e 7c90 b93e 8499 063f
00000190: 14cb c13e 146f d13e 2c35 c03e 70a9 9c3e
000001a0: a08f a33e 8d72 713e dd8e 4b3e ee99 0b3f
000001b0: 62ae 643e 883f 873e bc68 663e d2b9 703e
000001c0: 3e3f 863e 3ef3 933e 9601 753e 95f3 2c3e
000001d0: 5553 a43e a84b 823e 8a11 213e ed97 5f3e
000001e0: 410e 4f3d aeb8 493e f000 453e 6fd7 463e
000001f0: b6e5 ac3e 5e90 ad3e c6ff 2e3e 1839 a13d
00000200: 5791 c63f b384 1b3e 92f8 5f3e fd1a f03d
00000210: 7b79 60be 7de5 883e faa8 243e d27c 063e
00000220: 2870 0cbe 8f43 903d 3b90 fd3d 7421 3f3e
00000230: 97a5 463c 7cff f13d d278 3d3e 2792 2a3e
00000240: bd3a ae3d aac2 453e 1e5f dc3d bfeb 223e
00000250: 34ef 08bf b20f dbbd 3f65 febd d6cb 41be
00000260: def4 21bf 42c3 2f3e baf4 dfbd 2a61 30be
00000270: 9cf7 583f d46c 04be 483c 5abe 8d21 36be
00000280: 5621 593f eee2 32bf 9d56 01be 48ba 2bbe
00000290: 5ea9 d6bd 3794 61be 5b2b 90bd 3ce4 36be
000002a0: a640 b7bd 3e09 4ebe a09e 0cbe 9cfb 09be
000002b0: aeff 32be d07e f4bd 0a8c eebd fe55 1abe
000002c0: 02fa bc3d 950b 0ebc 5bf6 373e 103d 5e3e
000002d0: 9677 3b3d adff 153c e02b 1b3e ac89 503e
000002e0: a69d da3d d464 1b3e 2cc4 3c3e ea8c 833e
000002f0: eaf9 5a3f e8cb 023e f8d2 233e e057 2a3e
00000300: 5c86 b3be fe43 403e 3183 6c3e bc03 a03e
00000310: 8251 c63e 5008 b13e d42c 5a3e 46ea 903e
00000320: 9230 2a3f 0cc7 d73e b800 843e f8fd da3e
00000330: 155a 793f da7a 8c3e 0c1b 653e 3d35 d43d
00000340: 2ec0 09bf aa1c 093e 7c01 b1bd f4b0 2dbb
00000350: f520 75be 5981 833e e874 9ebd 0c27 ddbc
00000360: ff55 4f3f 7024 01be 3c66 58be f852 afbc
00000370: 60d5 af3f 1c2d 43be c6c7 34be f19b 3abe
00000380: 96f1 35bd fac4 76be 0506 4fbe 86aa 37be
00000390: c603 91be 6cb0 9cbd 12eb 71be aac8 2dbe
000003a0: 4c0c d0bd 9e17 27bd 0250 50be 10c4 11be
000003b0: 487a 96bd ceea 9dbd b715 bcbd e0dc 0fbe
000003c0: 222e ed3d 52f2 b73e 449d 443e 8a02 37be
000003d0: 8664 7dbd 79a1 d4be 587a 8abe cc45 79bd
000003e0: da6f e9bd 4099 0bbf 9ac0 b3bd 0e25 d1be
000003f0: e60d dbbe b88e e1be 343f aebd 6b3a 7dbe
-1.1726866 -1.3238074 -1.2826904 -0.34640902 -0.92575014 -0.93587184 -0.23165332 -0.13744244
0.001343128 -0.38982135 -0.13038957 -0.1853568 -0.26417062 -0.26182884 -0.21218954 -0.15274039
-0.16184744 -0.1630938 -0.20329434 -0.15661243 -0.11953163 -0.18522379 -0.17261235 -0.11815382
-0.029192109 -0.09463026 -0.18914878 -0.12540174 -0.056336172 0.2828156 0.3558121 0.13549536
-0.16871724 0.11536433 0.4758414 0.19630602 0.025744772 0.4338891 0.1770969 0.17023206
0.023249693 0.06463002 0.19546133 0.1279814 0.11051457 0.10670532 0.14008579 0.11248955
0.21505219 0.15362948 0.11632916 0.15168963 0.21598673 0.16168682 0.15969244 0.13643885
-0.76673603 -1.2706051 -0.4767623 -0.20469257 -0.36828765 -0.6997894 -0.56278586 -0.27918977
-0.41482103 -0.25666308 -0.30464646 -0.48858213 -0.23754448 -0.46894604 -0.25285953 -0.2983416
-0.24413851 -0.19048879 -0.13742211 -0.10708194 0.16392945 -0.12437123 0.012992714 0.053371802
0.1312454 0.061002806 0.18664956 0.49573207 0.27019846 0.26598117 0.16857171 0.43485522
0.5000407 0.4263619 0.6923475 1.1382289 0.4575891 0.393825 0.5611745 0.6279533
0.2087121 0.27399233 0.36243045 0.52577996 0.3785025 0.40905058 0.37540567 0.3059802
0.31945515 0.23578854 0.19878717 0.54531753 0.22332147 0.26415658 0.2250089 0.23508385
0.26220125 0.28896517 0.23926386 0.16889794 0.32094827 0.25448346 0.15729347 0.21835299
0.050550703 0.19699356 0.19238639 0.19418119 0.33769006 0.33899206 0.17089757 0.07872218
1.5513104 0.1518734 0.21872166 0.117238976 -0.21921341 0.26737586 0.16080084 0.13133553
-0.13714659 0.07044136 0.123810254 0.18665105 0.012124441 0.11816308 0.1850312 0.16657315
0.08507297 0.1931254 0.1076033 0.15910242 -0.53489995 -0.10696353 -0.12421655 -0.18925413
-0.6326426 0.17164329 -0.1093535 -0.17224565 0.8475282 -0.1293214 -0.21312058 -0.17786236
0.8481649 -0.6987752 -0.12630697 -0.1677028 -0.10481523 -0.22029196 -0.070395194 -0.17860502
-0.089478776 -0.20120713 -0.13732386 -0.13474888 -0.17480347 -0.1193825 -0.11647804 -0.15071866
0.09227373 -0.008669754 0.17965071 0.21702981 0.045768343 0.009155196 0.15153456 0.20365018
0.106746 0.15175182 0.18434209 0.25693446 0.8553759 0.12773097 0.15998447 0.16635084
-0.35063446 0.18775937 0.2309692 0.3125285 0.3873406 0.34576654 0.21306163 0.28303736
0.6648036 0.42144048 0.25781798 0.42771888 0.9740308 0.27437478 0.22373599 0.10361717
-0.5380887 0.1338984 -0.08642861 -0.0026503177 -0.23938353 0.25684622 -0.07737142 -0.026996158
0.80990595 -0.12611556 -0.2113275 -0.021401867 1.3736992 -0.19060177 -0.17654333 -0.1822355
-0.044419847 -0.24098578 -0.2021714 -0.17936143 -0.2832319 -0.07650837 -0.23624828 -0.16971079
-0.101585954 -0.040794007 -0.2034302 -0.14234948 -0.07347542 -0.07710801 -0.09183829 -0.14049101
0.11581065 0.35927063 0.19200617 -0.17872062 -0.061863445 -0.41529444 -0.27046466 -0.06085758
-0.11398287 -0.54530716 -0.0877697 -0.40848583 -0.4278404 -0.44054198 -0.08508149 -0.24729316

net.0.bias f4 [256]
00000000: 01c8 c93e 10e2 4abf 8a9d 90bf 019e 20bf
00000010: c22c 783d d106 153e 1c01 95be dc0c babf
00000020: ec63 80be 0ed3 cebe f0de 41bf 60ad 04bf
00000030: 04a3 523d ad05 85bf 5a79 8dbf 38a1 eebe
00000040: 20e7 8ebe 91aa 0b3c 67fa c43d 269b 12bf
00000050: ec34 c53d 5c73 a23c 9ee7 e2bb c6de 4bbf
00000060: b084 bdbd ba18 abbf f208 313e b06a 9fbe
00000070: 426d 0cbf 6e13 81bf d8d7 98bf 1d5b 09bf
00000080: 7a73 fdbd 48a2 57be 7f14 9d3e a246 2dbf
00000090: 0e53 c7bc 726b 4ebe b693 c1bf 16c3 f3be
000000a0: ca33 debe 80a0 5fbe 80cb 8cbe ef0d 02be
000000b0: b526 36bf d4e6 65bf 0698 a0bf c489 2ebf
000000c0: a67c bcbf 8c2f f6be 2e39 45bf 41f9 76ba
000000d0: 47c8 50bf e0ac 213d 42f1 82be bc90 5ebf
000000e0: 185b 93bf ba68 89bf f66a ab3f 9042 08bf
000000f0: 26fe 1bbf 8299 b6bf 826a 40bf 5e92 08c0
00000100: 7b8f 47be b265 3a3f 7aea 31c0 0312 6fbf
00000110: 2a4a 87c0 c0a8 e1be de1b 09be 5c3c 4fbf
00000120: 7709 f03e 44ef 633d 0adb c7be 16b4 cebf
00000130: 8011 03bf b4b3 853c 94cc f6bd 535f cabe
00000140: cc91 11bf f0c7 6f3e 54e6 dbbf 5b19 54be
00000150: 7b0b f2bc d27d 8ebf c45f c1bd e122 04c0
00000160: 9e28 0bbe 7b03 f6be 5436 94be f281 1cbf
00000170: 56bb 06be 0c6b f8be ee37 2cbf de5f c0be
00000180: ca89 48be ba35 a93e fcf7 573e 2cca e53e
00000190: e8c0 e5bc ac0c c7be de17 28bf 260f 97bf
000001a0: 53dc 5ebf 004a 123d 9ac1 193e 03d4 5bbf
000001b0: f451 b43e 3452 8cbf 3aa3 98bf e6fc b5bf
000001c0: b353 243e 37ea a1bf 9316 52bf 16d1 debe
000001d0: faa3 c4be c857 d5be 226b 85bf 7a43 b9bd
000001e0: b2f8 c1be 468f 1dbb b2e8 f8be 38e8 43bf
000001f0: 1032 78be 38cd 4abe 1025 00c0 e0b1 3abe
00000200: c6a6 c23e 1da7 2fbe a21c f8bf 8150 c4be
00000210: 38fa 2abf baac 8abf 8930 353c 27d8 18be
00000220: 141a 1ebf 44fb 173f ec76 c7be 5fe1 7dbf
00000230: becf 0abf ba2a 21bf ea08 793d 1857 8abf
00000240: 201b 50bf b62f d5bd c603 84bf c3ab 40bf
00000250: efea 08bf da66 8cbf e836 9dbf df39 c2bd
00000260: 9e07 a63e 09e2 14bf e930 4abf 61bc 33bf
00000270: cefe 01be 0e06 383f 4466 b7be 7a0d 14c0
00000280: 5022 afbd 10ca eabe 7e0e 19bf 5839 7fc0
00000290: fba7 cebd 62c5 01c0 88ca 073d ecbf 16be
000002a0: b267 afbd f847 cf3e 01f5 40bf 203f cbbd
000002b0: 9716 333f 76e2 ce3e 0917 95be 01a4 9dbf
000002c0: 72f0 07be c1be ebbf 0693 f1bd 142e f1be
000002d0: 5222 42bc b3d2 1dc0 9e0a a6be 9878 04c0
000002e0: e2e0 34bf 46ee 8ebd 23ab 8bbe 18ed 64be
000002f0: 386c 3ebf 58a9 07bd b86c bdbe 0e01 1fbe
00000300: 616b 0bc0 bc9e 8b3e 5ffd 7fbe 9c02 6abf
00000310: 0523 98bf 148a ed3e 6cfa 82be 6a04 053f
00000320: 3be8 8b3e bc99 89bf 2a41 18bf c6a1 8cbe
00000330: 4ed5 f7be 00ee 38be 54aa 50be bd8c 81be
00000340: 5afc b2be 41a4 c6bf b148 93bf e45a 1ec0
00000350: 38a7 14be ef9b 98be c711 4bbf b307 90bf
00000360: 1be2 02be 0437 cfbd 7215 95bf 7235 6b3f
00000370: d3c1 49bf acf9 a5be cf3d 5dbe 4468 38bf
00000380: 2ad9 2dbe 8a84 47bf f025 f7be edf3 33bd
00000390: d004 3fbf 8e18 99be 74e1 223f 24e9 a5bf
000003a0: 24ac 52bf c4ff d4be 14fa a9bf c659 86bf
000003b0: 0875 44bf 1c10 603f fa02 393e 2843 d2bd
000003c0: cceb 0dbf 7ccc 40bf d0f1 e9be 3f8d 103f
000003d0: 4a84 92bf 48aa 6f3e b677 34be 84c1 fd3e
000003e0: 30a4 d23c fc7a 38bf e0e1 4a3d 1ddd 17be
000003f0: 640f 96be 4ae0 63bf 3e34 8dbe 553a 6dbe
0.39410403 -0.79251194 -1.1298077 -0.62741095 0.06058956 0.14553382 -0.2910241 -1.4535174
-0.25076234 -0.40395397 -0.757308 -0.5182705 0.051424995 -1.0392357 -1.1052659 -0.46607375
-0.2791071 0.008524553 0.09618073 -0.5726799 0.09629235 0.019830398 -0.0069245836 -0.796368
-0.09253824 -1.3366921 0.17288569 -0.31136084 -0.54854214 -1.0084054 -1.194087 -0.5365465
-0.12375541 -0.21057999 0.306797 -0.676859 -0.024331596 -0.20158175 -1.5123203 -0.47609776
-0.43398887 -0.2183857 -0.27499008 -0.12700628 -0.7115281 -0.8980534 -1.2546394 -0.68178964
-1.472554 -0.4808315 -0.77040374 -0.0009421297 -0.815556 0.039471507 -0.2557469 -0.869396
-1.1512175 -1.0735085 1.3392017 -0.53226566 -0.60934675 -1.4265597 -0.7516252 -2.1339335
-0.19488327 0.72811425 -2.7799363 -0.9338686 -4.227803 -0.4407406 -0.13389537 -0.80951476
0.4688222 0.055648103 -0.390343 -1.6148708 -0.5119858 0.01632104 -0.12050739 -0.39525852
-0.56863093 0.23416114 -1.7179666 -0.20712797 -0.02954649 -1.1132147 -0.09442094 -2.0646288
-0.13589713 -0.4804953 -0.289477 -0.6113578 -0.131574 -0.4851917 -0.6727284 -0.3757314
-0.19583812 0.33048803 0.21090692 0.44880807 -0.028046086 -0.38876855 -0.6566142 -1.1801498
-0.8705494 0.035715103 0.1501526 -0.8587038 0.35218775 -1.0962586 -1.1924813 -1.4217803
0.16047554 -1.2649602 -0.82065696 -0.43518895 -0.38406354 -0.41668534 -1.0423319 -0.09046073
-0.37885052 -0.0024041696 -0.48615032 -0.7652621 -0.24237847 -0.19804847 -2.002262 -0.18231916
0.38017863 -0.17153592 -1.9383738 -0.3834267 -0.66788054 -1.0833962 0.011058935 -0.14926206
-0.6175854 0.59367776 -0.38957918 -0.99172014 -0.5422324 -0.6295582 0.060799517 -1.0807829
-0.8129139 -0.10409491 -1.0313652 -0.7526209 -0.5348348 -1.0968888 -1.2282381 -0.09483694
0.32427686 -0.581574 -0.7898088 -0.7020932 -0.12694857 0.7188424 -0.3582021 -2.3133225
-0.085514665 -0.45857286 -0.5978774 -3.987875 -0.100906335 -2.0276723 0.033152133 -0.1472165
-0.085647 0.40484595 -0.75373846 -0.099241495 0.69956344 0.4040715 -0.29119137 -1.2315675
-0.13275316 -1.8417588 -0.117956206 -0.47105467 -0.011849003 -2.465985 -0.32429975 -2.0698605
-0.70655644 -0.06979041 -0.27279004 -0.22356069 -0.7438388 -0.033120483 -0.36997008 -0.15527746
-2.178429 0.27269542 -0.24998997 -0.9141023 -1.1885687 0.46394408 -0.25581682 0.5195986
0.27325615 -1.0750041 -0.5947443 -0.27467173 -0.48404926 -0.1805954 -0.20377475 -0.25302687
-0.34958154 -1.5518876 -1.1506559 -2.4742975 -0.14516914 -0.29806468 -0.79324 -1.125235
-0.12781565 -0.10117915 -1.164717 0.91878426 -0.7881138 -0.32417047 -0.2160561 -0.72034097
-0.16977373 -0.77936614 -0.48271132 -0.043933798 -0.7461672 -0.29901546 0.63625264 -1.2961774
-0.82293916 -0.41601384 -1.3279443 -1.0496147 -0.76741076 0.8752458 0.18067542 -0.10266715
-0.5543792 -0.7531202 -0.456923 0.56465524 -1.1446621 0.23404801 -0.17623791 0.49561703
0.025713056 -0.7206266 0.049531817 -0.14830442 -0.29308617 -0.8901411 -0.2757892 -0.23166783

net.2.weight f4 [32, 256]
00000000: c90d 37be aab0 cdbc 603e 6fbe 8463 843e
00000010: 9c18 283e 5059 5abc 2432 0abe 503f e13d
00000020: be91 043e 7800 033d 623c 1dbe 2424 8c3e
00000030: 0c09 1c3c d2f4 873d 66e7 6abe 1708 373d
00000040: 700e cb3c 0012 683c 90e3 533e b74e 173f
00000050: 4835 1a3e e8d5 8ebc bcc5 84bd 7a83 4f3e
00000060: 378a d2bc 3e73 56bd f8e1 123e a80d 873d
00000070: 4d20 a93d 2f56 903d b801 d2bd 2643 ee3c
00000080: 4a90 743d ecca 0ebe 2a8d c1be 02ce 1c3d
00000090: 822b 983e 604d 84bd be92 2d3d 2ec4 66bd
000000a0: 3962 0dbe 309d ac3e fecd e83c 68fe 53be
000000b0: f4fc dbbc cdb2 2fbe f6c5 85be 6198 94bc
000000c0: 4667 003e 3532 36bd 4460 20be 7b10 e03c
000000d0: 840f a93d 93ef c4bd 2035 143e e2d3 f8bd
000000e0: 6261 d33d 4279 2ebd 9035 f9be 2488 babc
000000f0: fa17 e73d 750a a1bd 58f5 0dbc 4c62 ddbe
00000100: 60a1 f13c ca8e b33e 4b9c c6bf defd 693d
00000110: 2685 00bf 5e3e 81bd adeb 343e 4ed2 8d3d
00000120: c084 d23a c746 5dbe 82d9 bebc 62d5 363f
00000130: 4c93 26bb 1472 653d 7cb3 143d 849a ad3c
00000140: 52bf c4bd 1aa5 71bd 4c73 d9bf 6c9e 49be
00000150: 4cd7 09be 92ad 47bc 628b 08be d2d8 e5bd
00000160: 8550 803c 284e bfbb b899 9e3e ea6b b83c
00000170: 8109 0fbe 7899 52bd 9b9a b5bd 3958 f4be
00000180: 2a3d 16be 42af 9cbe ef43 68be 6e7f fdbd
00000190: 2600 c63c 8e30 ef3d bec3 55be 5631 3e3e
000001a0: 3495 e43d d496 cebc 448d ee3c ca23 20bf
000001b0: c13c 2ebe 40d5 3e3e ca8a 72be d4b2 b5be
000001c0: aa3d 26bd 18be a63d 823a a43d e6cd 34be
000001d0: 2a3b b13e 2b7a a8bd de4c e9bd 7e1f bb3c
000001e0: 7632 633d 546b 1fbe 6c0c d63c b0f6 b2bc
000001f0: f5fc 0d3d 2af3 a33d daa5 aebd f249 7e3d
00000200: b6de 7dbd eb35 4bbd 6a93 01be 6c2a ac3d
00000210: ee69 87be 9bb5 0ebe c08f 033d 2a49 23be
00000220: e6e1 8cbe 0ec8 babd 0b4e 9dbe 3a41 68bf
00000230: 182a 2d3e e022 39be 121b 703d 687b 05be
00000240: 0182 1dbd 4c5c 413e 06c2 d33c 7263 d1be
00000250: 5dd4 27be 863f aebc 2372 52be 6586 35bc
00000260: 3ce9 853d a8fa 473e 40bc 6a3e be39 373d
00000270: 22e3 243e 3b69 04be a090 dc3e d0ed 563e
00000280: 0171 1ebe 4913 61be e04c 4dbd 7415 01c0
00000290: c2ac be3e 03d2 acbe 17a4 24bd d205 47be
000002a0: 86ad 64bb 4908 9d3d 27af ffbd c147 a7bd
000002b0: b2d7 7fbc bb35 2e3e 26f0 7d3e 34dc e3be
000002c0: 3413 093e ee3e 9c3d 071b d13e 7902 43be
000002d0: 74ae 693c 14e8 b5be 1070 7f3d 79f6 17bf
000002e0: a436 233e c515 853e 8037 0a3e 88ba 2cbe
000002f0: 0c98 e83c aff5 2d3d 42a4 01be 4a1e c23d
00000300: d2af 04bf 271c f73d 81ea b83e 7b5e d1bc
00000310: 0663 023e 433b 97be 1c50 7dbe ecec 02be
00000320: c67e 85bd 65cc 813e 53da 80bd 9e51 f2bd
00000330: f45c 613d 3e0c b83d 460f b83b 6f32 6f3c
00000340: 02d1 1abd fc81 f4be 6858 2ebe a4ad 0d3e
00000350: c54b f93d 90f9 bf3c 697e 7ebe 081c 323e
00000360: a9a2 98bc fc5c aebd 2f70 903e 0c1d a0be
00000370: f45a 793d b0b2 98be 6800 8a3d 1fb4 c13d
00000380: 0f20 283c c610 033e 18ee a2bd f305 9f3b
00000390: 80b1 d7bd 62d8 f9bb ae9b 15be f6d8 d2bd
000003a0: f771 0f3f 372c e6bd df60 06be 52fe 9bbd
000003b0: 7236 6cbc 8f8b 1bbf 582b 2fbe cbe2 90be
000003c0: dcf9 83bd 3d47 1a3e d816 2e3d 032e 92be
000003d0: 18da 063f a2ac f63d 00b0 413e c164 28be
000003e0: 6ab6 a5bd 3b03 293d 1ab5 ff3d 9a8d 553d
000003f0: 8e68 a7bc a152 8f3d f660 80be b6ac 3cbe
-0.17876352 -0.025108654 -0.23363638 0.25857174 0.16415638 -0.013326958 -0.1349569 0.10998404
0.12946221 0.03198287 -0.15355065 0.27371323 0.009523641 0.06638493 -0.22939834 0.04468545
0.024787158 0.014164448 0.20692277 0.59104484 0.15059388 -0.017435983 -0.06483027 0.20264998
-0.025700672 -0.052355997 0.14344013 0.065944016 0.08258114 0.07047688 -0.10254234 0.029084753
0.059707917 -0.13944596 -0.37803012 0.0382824 0.29720694 -0.064600706 0.042376272 -0.056339435
-0.13807 0.33713675 0.028418537 -0.20702517 -0.026854016 -0.17158051 -0.26127595 -0.018139066
0.12539396 -0.044481475 -0.15661722 0.027351608 0.082549125 -0.09616008 0.1447339 -0.121497884
0.10321309 -0.04259611 -0.48673677 -0.022769995 0.1128387 -0.07863323 -0.008664452 -0.43239057
0.029495895 0.35069877 -1.5516447 0.057126872 -0.5020317 -0.06310724 0.17668028 0.06924878
0.0016061291 -0.2160903 -0.023297075 0.71419346 -0.0025417386 0.056016997 0.036303982 0.021191843
-0.09606804 -0.058995344 -1.6988311 -0.1968934 -0.13461035 -0.0121873785 -0.1333442 -0.11222996
0.015663395 -0.0058381744 0.30976653 0.022512395 -0.13968469 -0.05141589 -0.08867379 -0.4772356
-0.1467177 -0.3060246 -0.22682165 -0.12377821 0.024169993 0.11679183 -0.20875451 0.18573508
0.11161271 -0.025218405 0.029120095 -0.6255461 -0.17015363 0.18636036 -0.23685756 -0.35487998
-0.04058615 0.08141726 0.08018972 -0.17656669 0.3461545 -0.08226427 -0.113916144 0.022842165
0.055468045 -0.15568286 0.02612897 -0.021846145 0.034665067 0.08005364 -0.085277274 0.06208224
-0.06197997 -0.049611967 -0.1265389 0.08406529 -0.26448005 -0.13936464 0.032119513 -0.15945879
-0.27516097 -0.09120189 -0.30723605 -0.9072453 0.16910589 -0.1807971 0.058619566 -0.13035357
-0.03845406 0.18882865 0.025849354 -0.40896183 -0.16389604 -0.021270525 -0.20551352 -0.011079405
0.065386266 0.19529212 0.22923374 0.0447328 0.1610227 -0.12930767 0.4307909 0.20989156
-0.15472795 -0.21980013 -0.05012214 -2.0169344 0.3724118 -0.33753976 -0.04019555 -0.19435814
-0.0034893467 0.07667596 -0.124845795 -0.08167983 -0.015615391 0.17012684 0.2479864 -0.4450394
0.13386232 0.076291904 0.40840933 -0.19043912 0.014262784 -0.35528624 0.06236273 -0.5936046
0.15938812 0.2599317 0.13497734 -0.16868031 0.028392814 0.04247063 -0.12660316 0.094784334
-0.5183078 0.120659165 0.36116412 -0.025557747 0.12733087 -0.295374 -0.2473759 -0.12785691
-0.06518321 0.25351253 -0.06291642 -0.118319735 0.055020288 0.0898671 0.005617055 0.014599427
-0.03779698 -0.4775542 -0.17025912 0.1383577 0.12172655 0.02343443 -0.24852909 0.17393506
-0.01863225 -0.08513829 0.2821059 -0.3127216 0.060877755 -0.29823828 0.06738359 0.094581835
0.01026155 0.12799367 -0.07955569 0.004853004 -0.10531902 -0.007624672 -0.14610168 -0.10295288
0.5603327 -0.11238902 -0.13122891 -0.07616867 -0.014417278 -0.60759825 -0.17106378 -0.2829803
-0.06444141 0.15066238 0.042502254 -0.2855073 0.52676535 0.12044646 0.18914795 -0.16444685
-0.08091433 0.041262846 0.12485714 0.052136995 -0.020435598 0.06998182 -0.25073975 -0.18425259

net.2.bias f4 [32]
00000000: 8414 9e3f 3a26 81bf ae0e 3cc0 72a6 e5bf
00000010: e11d 9cbe 2826 debf 3529 acbe 540b 8abf
00000020: be47 21c0 5e8f 47bf d208 b5bf b41c c0bf
00000030: c102 80bf 5e3b c4be 1e1d 93bd 427b 6ac0
00000040: da2d d7bf c739 263f 1144 81bf ace7 64bf
00000050: a485 f6bd 2e4c 04c0 36d8 c8be c61b 03be
00000060: 5c55 4b40 2d81 01c0 e28e d3be fe78 ebbf
00000070: dfbf bdbe 316f 743f 56b6 19bf 4177 533f
1.2350011 -1.0089791 -2.938396 -1.794142 -0.30491546 -1.7355394 -0.33625188 -1.0784707
-2.5200038 -0.77953136 -1.4143317 -1.500876 -1.000084 -0.38326544 -0.07183288 -3.663773
-1.6810868 0.6493191 -1.0098897 -0.89416003 -0.12037209 -2.0671496 -0.39227456 -0.12803563
3.177085 -2.0235093 -0.41319948 -1.8396299 -0.3706045 0.95482165 -0.6004385 0.8260384

net.4.weight f4 [32, 32]
00000000: a416 9e3e 11d0 3bba fdeb 5fbd cad2 24be
00000010: 4659 80bf 6538 e5bd 3c39 b93d 3492 3f3e
00000020: 3276 883e cbf7 f43d e069 753e decc 2e3e
00000030: d3fe 4e3e 0e19 4bbe 1c57 ae3e 9a5d 9c3d
00000040: 7c9c 05bf 207f 44be 661d fe3e ee81 bb3e
00000050: f0e7 38bd 0eaf 153e 525a 01be 9e1e 1fbe
00000060: 2420 7cbc da30 87bf 5ea7 99be 56c8 83bf
00000070: 204a 1a3e a238 bf3d 4e46 163e 805a 053f
00000080: df64 66be dc63 d83d 966d c3bd 6271 2cbd
00000090: 1a43 b4be 8f16 3bbe 6ae4 573c a519 bc3e
000000a0: 7413 17be 4441 12be d282 443e b8ff 563e
000000b0: 9488 8dbd 6085 c53d 10e2 0f3f 4001 14be
000000c0: 82c5 663d ed8a 273e 7366 fc3d aebf baba
000000d0: 8214 d93e 65d2 13be 88ac fabd 8637 13be
000000e0: 8c4e 1fbe f7da aebe 0c84 10be 4a7b a9be
000000f0: 9fce 04bc f865 853e 236e c13d 8839 2f3d
00000100: 6e34 86bd 04bc bbbd fcbc aabd e40f d53d
00000110: 055d 99be 62f6 093e 7dbb 65bc 022e 3bbf
00000120: 597a 09bf e0a3 843d 4c84 d73d d248 d43e
00000130: 46c2 783d 2288 223e 8ab3 7fbc f78e c3be
00000140: f36b fa3e 4a17 57bf c60a b03b 7c1a 83bd
00000150: 167e 3b3d 36d9 1bbe 0ea6 d6bd 78c6 c33e
00000160: 3d03 f03e ec8f ec3d b74a 9b3e 7eca 16bd
00000170: d092 0abf c181 bd3e 3a11 e03e f087 0ebd
00000180: 46f3 02be 4486 5f3e aa77 d0bd 902f 733b
00000190: 602b 163f bf88 b3bd 5815 95be 8428 05be
000001a0: eac8 c8be 5495 c7bd d20f 82be c475 043d
000001b0: 069b 87be ba48 163e b7c6 72be 90d8 a43e
000001c0: 8040 c33e 5457 bcbd 5a1a bcbe dad6 b6be
000001d0: 70c0 fb3d bc96 b8bd 50aa 3abd 5c51 a83e
000001e0: a094 d4be 0450 cebe 68dc 2e3f 90b5 863e
000001f0: 6832 2dbe 0822 0bbf 262a 3d3e 0796 0c3d
00000200: a8ff ee3c ce8f a2bd 303b 97be aa96 ddbd
00000210: 330e 663d e648 0b3e 9f1c 16bd 2c15 0c3d
00000220: 1937 04bc d2e2 ca3d 4762 423b d8b0 1abe
00000230: 333a a63d 92a0 6bbd 4cf2 45be 98e5 573d
00000240: 0406 23bd 16b5 a13e 439e 96be 9ec1 8f3e
00000250: 7c97 8ebd c55b b2be 1e53 763d a8b4 a4bd
00000260: f57e 953e 5c58 b73d 9421 c6bc 82e2 b2be
00000270: d50d 0abe 79e5 39be 948a 6e3e 6653 82bc
00000280: d027 943e a486 36be 40c3 5ebd 25d8 a3bb
00000290: 9ccc 703e c433 2f3e ec43 d23e 8373 c13c
000002a0: 2faa dabe c7d0 68bd d07d 16bd 409d 27bf
000002b0: 290b b7bd b3af 4ebe 2c70 b3bd 5086 1a3e
000002c0: 20a8 3f3f 68ea 713b c453 b53e a2a2 8f3e
000002d0: 309c 013f 119f 013e 994d 523d a4d6 863e
000002e0: be47 113e 5f96 6bbf f4fe 93be 3edf 34bf
000002f0: 2688 093e ffea cbbd b834 a3be b4b4 e13d
00000300: f2f9 bbbe 9f83 f13e 940a c2be 6c7f 763f
00000310: ac6d 143f bc00 acbe e66a debe 8ae8 04bf
00000320: 827b 34bf cd13 253d 46fb cfbe a651 5f3f
00000330: 5a3b 03be d845 d73e bc81 20bf e7ae edbd
00000340: f441 91bf 2146 adbd d467 2fbf 1866 e1be
00000350: 2ef4 983e 34cf abbe f7a9 8fbd a3ac 703e
00000360: b852 8abd 08d9 46bf c195 6a3f 6340 a03f
00000370: 7092 84be a7cf eabe 2e70 253f 508d 273f
00000380: 211e 613c f72e 443e 8e73 febd d050 203e
00000390: 84a9 0bbe d6c3 7cbe 28e1 b63c 40e6 b93e
000003a0: f7e1 eb3e b8b6 b93d bafc 00bc 5c13 203e
000003b0: e230 343e 40c7 4f3d d87a 593e 00be 013f
000003c0: 80f1 dd3e 7ecb aa3c 0ac8 743e d546 89bf
000003d0: 052d 68be 49ae 173e 1057 d23c 847a 47bd
000003e0: 78ba 513e 85c9 8ebe c2ca 9c3d 9c6c 02be
000003f0: d85e 4a3e a298 c2be 9c1f 523d f260 c6bd
0.30876648 -0.0007164488 -0.054668415 -0.16096035 -1.0027244 -0.11192397 0.0904412 0.18708116
0.26652676 0.11961325 0.2396617 0.17070338 0.20214395 -0.19833776 0.34050834 0.076350406
-0.521919 -0.1918912 0.49631804 0.36622566 -0.045143068 0.1461756 -0.1263211 -0.15539023
-0.015388522 -1.0561783 -0.30010504 -1.0295513 0.15067339 0.09336974 0.14675257 0.5209122
-0.22499417 0.10565922 -0.09542386 -0.042100318 -0.35207444 -0.18270324 0.013177017 0.36738315
-0.14753515 -0.1428271 0.19190529 0.20995986 -0.06910816 0.0964458 0.5620432 -0.14453602
0.056340702 0.1636159 0.12324228 -0.0014247799 0.4239846 -0.14435728 -0.12239939 -0.1437665
-0.15557307 -0.34151432 -0.14112872 -0.33101875 -0.008105903 0.26054358 0.09444835 0.042779475
-0.06552969 -0.091667205 -0.08336827 0.104034215 -0.2995378 0.13472894 -0.0140217515 -0.7311708
-0.5370231 0.06476569 0.105232805 0.41461807 0.06073215 0.15872243 -0.01560677 -0.3819501
0.48910484 -0.8401991 0.005372378 -0.06401536 0.04577454 -0.15219578 -0.10480891 0.38237357
0.4687747 0.115508884 0.3033044 -0.036814205 -0.5413027 0.37013057 0.43763143 -0.03479761
-0.12788114 0.21828562 -0.10179074 0.0037107207 0.58659935 -0.087663166 -0.29117846 -0.13003737
-0.39215785 -0.09745279 -0.25402695 0.032338873 -0.2648546 0.1467618 -0.23708616 0.32196474
0.38135147 -0.09196344 -0.36738855 -0.35710794 0.12292564 -0.09013125 -0.04557258 0.32874572
-0.41519642 -0.40295422 0.68305063 0.26310396 -0.1691376 -0.543488 0.1847311 0.034322765
0.02917464 -0.07937585 -0.29537344 -0.108197525 0.056165885 0.13602027 -0.03664839 0.03419988
-0.008069777 0.09906544 0.0029660629 -0.15106523 0.08116569 -0.05752618 -0.1933071 0.052709192
-0.03980066 0.3158347 -0.2941762 0.28077406 -0.06962487 -0.3483564 0.06013786 -0.0804227
0.29198423 0.089524 -0.024185933 -0.34938437 -0.13481839 -0.18153943 0.23295051 -0.015908908
0.28936625 -0.17824799 -0.054385424 -0.0050001317 0.23515552 0.17109591 0.41067445 0.02361465
-0.42707965 -0.05683973 -0.036741078 -0.6547432 -0.089376755 -0.20184211 -0.087616295 0.15090299
0.74865913 0.0036913399 0.3541547 0.28053766 0.5062895 0.12658335 0.051343534 0.26335633
0.14187524 -0.92026323 -0.2890545 -0.7065314 0.13430843 -0.09956931 -0.3187616 0.110207945
-0.3671413 0.4717073 -0.37898695 0.9628818 0.57979846 -0.3359431 -0.43440932 -0.51917326
-0.7050096 0.040302087 -0.40621394 0.8723396 -0.1281561 0.42045474 -0.6269796 -0.116056256
-1.1348252 -0.08460642 -0.68517804 -0.44023204 0.29873794 -0.3355652 -0.0701484 0.23503356
-0.067540586 -0.77674913 0.91634756 1.2519649 -0.25892973 -0.4586155 0.646243 0.6545
0.013740093 0.1915854 -0.12424384 0.15655828 -0.13638884 -0.2468408 0.02232416 0.3630848
0.46070835 0.09068054 -0.007872755 0.15632385 0.17596772 0.05072713 0.21238267 0.5068054
0.43348312 0.020848986 0.23904434 -1.0724741 -0.22673424 0.14812578 0.02567628 -0.048700824
0.20481288 -0.27888122 0.076558605 -0.12736744 0.19762743 -0.38007075 0.051299676 -0.096864596

net.4.bias f4 [32]
00000000: 080a 08bb 76f5 a4be 69b3 973e de85 963d
00000010: f427 c33d 5e9c 35be d393 b63f 146e ec3e
00000020: 242e 6cbc 0eba d03e 19e7 91be a598 813e
00000030: 9e0b 113d 30b8 b1be 02dd 0c3e 9a63 343e
00000040: 7ade d63e 1270 2fbf 00fb 53bf 6420 023e
00000050: 78df a0be b892 673d 722b 74bf 4851 6dbf
00000060: 8064 c23e 9738 d13d c257 86bf 76cb b4be
00000070: 265f 0c3f 46ce 083e 06bd 04bf 5602 b13e
-0.0020757932 -0.32218522 0.29629067 0.07349752 0.09529105 -0.1773543 1.4263862 0.46177733
-0.014415298 0.40766948 -0.28496626 0.2531177 0.03541147 -0.34710836 0.13756183 0.1761612
0.4196661 -0.6853038 -0.8280487 0.12707669 -0.31420493 0.056536406 -0.9537879 -0.9270215
0.379673 0.10215872 -1.0495532 -0.35311478 0.54832685 0.13359937 -0.51850927 0.34572095

net.6.weight f4 [1, 32]
00000000: 887f 853e 0494 0bbf cff9 81be bc52 c63f
00000010: 88b7 05bf 6286 bebe 029a 033f 9bf8 95be
00000020: 2827 6e3e e98b 94bf d074 a4be ff51 c5be
00000030: c66b 223f ee8e 00bf 693c 3bbf 232e 80be
00000040: 76b7 043f 4be4 263f 1830 093f 0897 883e
00000050: f963 ac3e 8000 81be de5f f83f 07c3 cbbf
00000060: ecb2 993e 82e0 9f3e 91bf 85be d1c9 f33e
00000070: a542 023f d77d 2e3f 62a2 38c0 67be cb3e
0.2607386 -0.5452273 -0.253859 1.5493999 -0.5223317 -0.372119 0.5140687 -0.29291233
0.23257124 -1.1605197 -0.3212037 -0.3853912 0.634457 -0.50218093 -0.73139054 -0.250352
0.5184244 0.651921 0.5358901 0.26677728 0.33670023 -0.25195694 1.9404256 -1.5918893
0.3001932 0.31225973 -0.26122716 0.4761491 0.5088294 0.68160766 -2.884911 0.39793703

exp_avg f4 [256, 120]
00000000: d865 6236 2311 2337 464a 2437 a980 ea35
00000010: 6246 2fb6 0971 2f37 d055 0737 4c75 27b8
00000020: c85c 9cb7 d9f0 01b8 244c 8eb7 31ff f137
00000030: 4990 4b37 e061 c035 898d adb7 cea2 a8b7
00000040: fdcf 1db8 7a7f 1838 6e6d 9037 3ff4 f8b7
00000050: cb8d 0938 f848 2cb7 9f6e 04b7 a575 1b36
00000060: 35ed d6b7 e604 46b8 e3da 1db8 dc8b 3db8
00000070: bc3e 0b38 5996 bab8 95be b6b7 6d26 7eb7
00000080: 1fc5 2db7 02a3 1fb8 742c 2b37 4cd8 0db8
00000090: c22c ae37 99c5 8db7 9a16 2eb7 dbe0 0bb8
000000a0: 5c96 f0b7 2bc2 cc37 8897 b2b7 8444 97b6
000000b0: ad10 d037 0318 37b8 fb91 11b7 4bf3 d136
000000c0: cff3 c7b7 1f63 e937 5893 fd36 1f73 efb7
000000d0: 283f 1cb6 f7fa 8137 bae4 9eb6 e91d 6837
000000e0: 49d3 6a36 ef5e 1137 19f3 60b7 eb76 2336
000000f0: ab95 4c37 ba66 8f36 29e9 04b7 cc04 0d37
00000100: 1181 fab6 fc16 4837 f0cb 3737 50e5 6937
00000110: c266 4a37 84eb 1f36 bf44 ed36 1519 4f37
00000120: df9b 5337 bc01 9136 7f33 0937 88a4 7537
00000130: 4392 3537 20cf 20b5 a995 1037 9f64 0637
00000140: fdc8 2a37 991f 2437 0b52 1237 a463 0637
00000150: a85a 2837 9eb4 4637 136e 2837 7365 1e37
00000160: 5685 1037 d5b5 3037 e18a 2c37 154e 2737
00000170: 392d 2c37 8841 1037 6fff 3737 8a5a 2437
00000180: 10b6 7837 288f 4137 2235 f836 3591 2937
00000190: 5e1c e436 a1ec 7637 3ecb cb35 4fad a836
000001a0: cc15 8536 a36d 0337 bc61 e536 9a79 9d36
000001b0: 67fb 6937 d8bf 02b7 6146 1b36 d7ec 0537
000001c0: 39a1 6c36 94e5 2f36 857e f435 2ab5 3f37
000001d0: ef1e 6d37 3e5c 09b6 1eec c136 4c80 6137
000001e0: 3f8c 3eb7 5966 dab5 b5c5 0237 cfa1 0a37
000001f0: 1097 4c36 3dba 2937 6246 16b7 f3f2 0c37
00000200: 568c 5137 75df 2238 7a54 5eb7 88fb 56b7
00000210: 0ce4 cfb7 6eef f6b6 8d34 ebb6 3676 5eb7
00000220: 0434 a1b6 6eee 33b8 ea5e d437 f717 2338
00000230: a524 75b8 0c44 3bb7 64ab 09b6 045f a2b7
00000240: 7e79 cfb7 403a 0837 bfb1 b7b5 cd51 6d37
00000250: ef5a 1ab7 60ee 31b7 5bcd 82b6 4830 8db5
00000260: 91bc 9836 6ff9 e436 382d d836 f0c6 0a37
00000270: eb1f 95b7 1205 85b7 3273 ebb6 e15b 57b7
00000280: b2db f0b7 abd6 07b8 8170 1f37 f0f4 e0b6
00000290: 4073 fe35 af2f 86b5 b52c e1b6 fe02 0d36
000002a0: a58a f636 834b a7b4 4be6 6e34 d507 62b6
000002b0: cea6 0a37 ce61 b4b6 1fb2 ad34 9f8c c4b5
000002c0: 8f49 ed36 b5b0 8836 f325 3937 bc4d e7b6
000002d0: 6278 0a36 cbe1 8736 bacb b0b5 797f 60b6
000002e0: 0c92 bd36 8401 b5b5 5583 8f36 eeda 38b6
000002f0: 0d15 6636 79be 3137 1f85 ba35 251f 12b6
00000300: 7b3c c635 9e6d 0eb5 0bc3 e436 667b 2736
00000310: 961f 6b36 4ebe b736 3e7a da36 668a 6636
00000320: 973b 5f36 533f b935 d934 8936 dc39 0437
00000330: cfa4 7736 1f79 b036 9a5c 5c36 6d8e 6f35
00000340: 91c1 8336 b12a 2a36 01c4 3336 6941 7136
00000350: 613c 7236 c770 8335 cdb1 9635 56e2 8136
00000360: 2fe3 4c36 09fb 7936 60c3 b635 ce11 9836
00000370: a114 0136 8807 f236 a85c 4f36 6f3e f135
00000380: 298d 9835 9f67 b236 f76c a936 491c 1636
00000390: 3450 8e35 1c9c 3837 f823 1437 0ef9 d136
000003a0: 4679 0eb6 7de5 b836 cc58 1bb7 c2ae 3037
000003b0: b432 7336 914f a0b6 770a a0b5 be78 3e37
000003c0: 0c43 4c35 e166 5d36 8909 0836 84f6 b536
000003d0: 11e6 54b5 dc1d 8836 8dc1 1536 145d 4036
000003e0: 584c d3b5 953f 6b36 fa4c 0f37 f51e 0836
000003f0: 031a 04b6 4e6d f536 45f2 6534 bfdc 4337
3.3735905e-06 9.719547e-06 9.792455e-06 1.7471804e-06 -2.6118e-06 1.0457131e-05 8.066607e-06 -3.9925144e-05
-1.8639854e-05 -3.0980304e-05 -1.6963175e-05 2.8848272e-05 1.2133337e-05 1.43336e-06 -2.0689115e-05 -2.0102972e-05
-3.762542e-05 3.6358346e-05 1.7217095e-05 -2.967764e-05 3.27954e-05 -1.0268988e-05 -7.893569e-06 2.3165278e-06
-2.5621246e-05 -4.721144e-05 -3.763557e-05 -4.5191366e-05 3.319861e-05 -8.8971756e-05 -2.1784837e-05 -1.51485265e-05
-1.0357499e-05 -3.8060367e-05 1.0202744e-05 -3.381846e-05 2.0763258e-05 -1.6900523e-05 -1.03764705e-05 -3.3349595e-05
-2.8680246e-05 2.4409112e-05 -2.1289816e-05 -4.508127e-06 2.4803297e-05 -4.3652963e-05 -8.676662e-06 6.2570084e-06
-2.383618e-05 2.7821921e-05 7.5571406e-06 -2.8544628e-05 -2.3282573e-06 1.5494863e-05 -4.735394e-06 1.3835242e-05
3.4991701e-06 8.664777e-06 -1.3408041e-05 2.4358112e-06 1.2194195e-05 4.273691e-06 -7.9221e-06 8.405372e-06
-7.465606e-06 1.192628e-05 1.0955133e-05 1.3941273e-05 1.2064063e-05 2.3829934e-06 7.0711535e-06 1.2344001e-05
1.2612872e-05 4.3215387e-06 8.177826e-06 1.4641446e-05 1.0822495e-05 -5.990605e-07 8.617914e-06 8.01045e-06
1.0179586e-05 9.782519e-06 8.72138e-06 8.010222e-06 1.0034688e-05 1.1843773e-05 1.0039209e-05 9.441154e-06
8.6141135e-06 1.0532754e-05 1.0284334e-05 9.972156e-06 1.0262528e-05 8.5983265e-06 1.0967123e-05 9.796242e-06
1.4824342e-05 1.1537028e-05 7.3971614e-06 1.0106994e-05 6.798232e-06 1.4717837e-05 1.518383e-06 5.026966e-06
3.9662464e-06 7.833735e-06 6.8361096e-06 4.693121e-06 1.3946416e-05 -7.793271e-06 2.3137766e-06 7.982561e-06
3.5260584e-06 2.6210664e-06 1.8216239e-06 1.1426668e-05 1.4133503e-05 -2.0468283e-06 5.779336e-06 1.34409165e-05
-1.1357536e-05 -1.6272053e-06 7.794636e-06 8.263115e-06 3.0486299e-06 1.0116547e-05 -8.957084e-06 8.401216e-06
1.2490045e-05 3.883192e-05 -1.32519e-05 -1.2813958e-05 -2.4782516e-05 -7.3592446e-06 -7.0096635e-06 -1.3259754e-05
-4.8042293e-06 -4.289898e-05 2.5316567e-05 3.8884547e-05 -5.844668e-05 -1.1161912e-05 -2.0514353e-06 -1.935615e-05
-2.4732897e-05 8.119794e-06 -1.3686293e-06 1.41453465e-05 -9.200287e-06 -1.0605523e-05 -3.8982084e-06 -1.051937e-06
4.551905e-06 6.8239674e-06 6.442566e-06 8.27176e-06 -1.7777047e-05 -1.5857197e-05 -7.0169563e-06 -1.2836391e-05
-2.8712533e-05 -3.2386433e-05 9.503333e-06 -6.7042347e-06 1.8958017e-06 -9.997656e-07 -6.710727e-06 2.101238e-06
7.3475117e-06 -3.1161116e-07 2.2249257e-07 -3.3681183e-06 8.264278e-06 -5.375804e-06 3.235336e-07 -1.4644064e-06
7.0717138e-06 4.0736873e-06 1.1035695e-05 -6.893386e-06 2.0633674e-06 4.0495993e-06 -1.3172314e-06 -3.34528e-06
5.649641e-06 -1.3485992e-06 4.277021e-06 -2.754557e-06 3.4284924e-06 1.059437e-05 1.3896823e-06 -2.1773824e-06
1.4769752e-06 -5.3058636e-07 6.8176355e-06 2.4956767e-06 3.5036114e-06 5.4759794e-06 6.511137e-06 3.435323e-06
3.3264275e-06 1.3802004e-06 4.0890704e-06 7.881285e-06 3.69018e-06 5.259309e-06 3.2836456e-06 8.9241695e-07
3.9266383e-06 2.5356824e-06 2.6787168e-06 3.5949872e-06 3.6095955e-06 9.793083e-07 1.1227618e-06 3.8708486e-06
3.0530607e-06 3.7250013e-06 1.3616918e-06 4.5320257e-06 1.9234506e-06 7.2130388e-06 3.0899337e-06 1.797407e-06
1.1365966e-06 5.3168765e-06 5.0492777e-06 2.2368206e-06 1.0603167e-06 1.1003602e-05 8.829862e-06 6.257679e-06
-2.123024e-06 5.5103433e-06 -9.259395e-06 1.0531106e-05 3.6239335e-06 -4.7776343e-06 -1.1923975e-06 1.1352995e-05
7.609349e-07 3.299145e-06 2.027113e-06 5.4229185e-06 -7.9310945e-07 4.056592e-06 2.2315392e-06 2.8664408e-06
-1.5742944e-06 3.5054738e-06 8.541387e-06 2.0283599e-06 -1.9684674e-06 7.3142937e-06 2.1415424e-07 1.1674302e-05

exp_avg_sq f4 [256, 120]
00000000: 961a a631 bca0 9c31 e4c1 9831 64c4 e731
00000010: f136 ea31 7b73 9d31 d5df 5a32 7d1b af32
00000020: 7c64 6e33 4c77 c832 5adc a532 31dc 8832
00000030: c896 8233 612c 4d33 099b 5633 0c0f 6733
00000040: 59b2 d733 4ab6 9733 5ea1 8933 6846 7433
00000050: c516 8233 af01 a533 6929 9f33 7683 b633
00000060: ba16 7933 0d61 c133 625a e533 d114 c833
00000070: 3c05 a433 c960 ca33 a263 b433 abd7 7e33
00000080: 4028 a133 0ad9 c833 487b 9c33 79b9 7833
00000090: bc17 8c33 1b03 bb33 de14 8f33 9d7c d133
000000a0: 605e 4033 b50c 8233 04e8 6533 dd76 2433
000000b0: db4e 7f32 eec8 ac32 ffcf 1833 5679 2233
000000c0: 8bb9 9e32 15b0 7632 b1cd 5232 1091 6d32
000000d0: 926f f731 2b0c f431 4ac2 0432 b35a 3c32
000000e0: c835 dd31 9201 a331 4f52 0732 8839 e931
000000f0: d39d be31 1d5f d131 eb48 c731 bf2c ee31
00000100: 236d bf31 bb57 c831 9a19 de31 02cd a331
00000110: 0fa0 9f31 4b3b b431 344b c831 d119 aa31
00000120: ee34 9f31 67e7 b131 d33e b431 6b0f a031
00000130: 90a4 9931 5830 a931 4dab a531 ec2d a031
00000140: c108 9a31 e3b4 9e31 f0c2 9b31 cb69 9b31
00000150: d388 9931 7300 9a31 cd85 9c31 6b10 9c31
00000160: 8a83 9d31 6c6e 9d31 d049 9d31 17fa 9931
00000170: e68d 9b31 37b5 9e31 b55d a131 893e 9a31
00000180: 3363 a031 135f b031 67ba ab31 1a2f 9b31
00000190: 95d2 9d31 4f43 bc31 b9f5 b531 22ae a431
000001a0: 214f a931 b146 c931 b325 bb31 feae a731
000001b0: e048 a431 59bf e231 ea1f d431 974d b731
000001c0: 1bf6 e331 a943 ea31 9d57 d531 d9e1 af31
000001d0: 8fe0 dd31 d9cf 0d32 2de8 0632 884f f831
000001e0: 7533 6631 8d9b 3131 b6f7 5931 d4a7 6331
000001f0: 52a8 8c31 a92a 9d31 3dd8 c431 b86f 1e32
00000200: d99a 0233 b579 1d32 d9db 0832 3db5 cc31
00000210: 6440 ce32 199b e132 fcbc a532 0f6d a932
00000220: f858 3033 f135 1e33 f70c ea32 9dc5 bf32
00000230: 489f e932 464a 0633 a99b e532 a7a1 0533
00000240: 0f19 a232 0193 0333 3f91 1433 7d81 0f33
00000250: 9a18 c332 8b76 1733 1754 f632 e5a7 ab32
00000260: f166 cf32 c3f1 2f33 fce6 de32 fb6b b232
00000270: bb5e 4e33 7c63 0b33 ee0d df32 5d00 1333
00000280: d791 3133 6cd2 a632 a765 b732 1bf6 9832
00000290: 5704 b031 27b6 ff31 d614 6c32 39bc 9432
000002a0: 3de9 0532 519f 9731 af73 d931 c348 e431
000002b0: 3f3f 4e31 90b2 5631 35dd 6831 7724 b231
000002c0: 9532 6e31 26eb 6e31 09e8 a031 d7fc 4f31
000002d0: 3790 1431 3ef7 3b31 1870 7431 1e6e 6531
000002e0: aa21 0e31 ce7b 3a31 8f94 6f31 2f5d 0f31
000002f0: bec8 0231 b374 2131 3707 4f31 a990 2231
00000300: c155 f230 5046 3231 caee 2231 3178 0431
00000310: 74dc ea30 5de9 2031 f89d 1931 0887 0231
00000320: d663 ef30 4ab2 ff30 bfe8 fe30 835d f430
00000330: 3f9d f230 1108 f230 6677 f430 cb8c f330
00000340: cc41 f330 21a7 f330 e41c fb30 08e3 eb30
00000350: 9f1d ed30 8f12 0031 4333 0031 3354 ef30
00000360: 54d5 0d31 5eef 1131 13d0 0d31 0826 f030
00000370: 9356 1031 8655 1e31 3681 1c31 c3c6 0831
00000380: c1c9 0e31 b1a4 3631 c416 3c31 15f9 0831
00000390: 0349 f530 3544 4d31 da44 5b31 072e 4931
000003a0: 7c2f 4631 d67e 6331 8b5f 7031 58a8 3b31
000003b0: 56e3 4431 8f42 7331 7233 9631 3527 8b31
000003c0: 8586 0c31 b7dd a730 7d32 8230 d7c2 7030
000003d0: e5b9 ba30 4538 9130 3bd4 9930 6698 8d31
000003e0: 2446 b031 1f7c 2d31 a081 1931 be7d 9830
000003f0: e467 a231 824f ab31 3d38 c231 7679 b931
4.8342583e-09 4.558471e-09 4.445825e-09 6.745312e-09 6.8165424e-09 4.58243e-09 1.2740164e-08 2.0385182e-08
5.5505083e-08 2.3337314e-08 1.9308732e-08 1.5932615e-08 6.081024e-08 4.7770644e-08 4.996676e-08 5.3797564e-08
1.0044159e-07 7.0646436e-08 6.408912e-08 5.687471e-08 6.0577385e-08 7.6837175e-08 7.411547e-08 8.498948e-08
5.79955e-08 9.004916e-08 1.0680084e-07 9.317012e-08 7.637797e-08 9.423963e-08 8.400026e-08 5.9335132e-08
7.504468e-08 9.352705e-08 7.286741e-08 5.7910686e-08 6.523575e-08 8.708431e-08 6.662752e-08 9.754988e-08
4.4789317e-08 6.055908e-08 5.3529234e-08 3.829233e-08 1.4860883e-08 2.0114808e-08 3.557943e-08 3.782892e-08
1.8477996e-08 1.4359121e-08 1.2270378e-08 1.3828199e-08 7.20133e-09 7.102718e-09 7.7275875e-09 1.0963663e-08
6.4380608e-09 4.744103e-09 7.876749e-09 6.787733e-09 5.5476703e-09 6.0935137e-09 5.799952e-09 6.9317987e-09
5.571239e-09 5.83074e-09 6.463961e-09 4.767231e-09 4.6457056e-09 5.2454303e-09 5.8293157e-09 4.950586e-09
4.6335265e-09 5.1776854e-09 5.2458318e-09 4.6583657e-09 4.4715947e-09 4.9240434e-09 4.8216067e-09 4.6618336e-09
4.482985e-09 4.6189697e-09 4.5332555e-09 4.523121e-09 4.468441e-09 4.482041e-09 4.555409e-09 4.542064e-09
4.5842556e-09 4.581855e-09 4.577693e-09 4.481318e-09 4.5272257e-09 4.619007e-09 4.69637e-09 4.4890993e-09
4.6678905e-09 5.133083e-09 4.9979465e-09 4.5164485e-09 4.593242e-09 5.4791722e-09 5.2957287e-09 4.792825e-09
4.9275433e-09 5.8579066e-09 5.446702e-09 4.880234e-09 4.781313e-09 6.5992194e-09 6.1736403e-09 5.334822e-09
6.6345485e-09 6.8179884e-09 6.2090764e-09 5.1188462e-09 6.457476e-09 8.254539e-09 7.852617e-09 7.2267916e-09
3.3498655e-09 2.584531e-09 3.1718463e-09 3.3128247e-09 4.093672e-09 4.5741513e-09 5.728934e-09 9.222212e-09
3.0408817e-08 9.166276e-09 7.9662295e-09 5.957786e-09 2.4010838e-08 2.6263978e-08 1.9294468e-08 1.9723783e-08
4.105911e-08 3.68363e-08 2.7247081e-08 2.232519e-08 2.7197203e-08 3.1266858e-08 2.6729895e-08 3.1113498e-08
1.8870677e-08 3.0634514e-08 3.4591036e-08 3.341255e-08 2.2712175e-08 3.526524e-08 2.8676409e-08 1.998337e-08
2.4144784e-08 4.0965244e-08 2.5949241e-08 2.0771031e-08 4.804927e-08 3.245394e-08 2.5966951e-08 3.4226435e-08
4.1343664e-08 1.9420632e-08 2.135023e-08 1.7807045e-08 5.1227675e-09 7.442185e-09 1.37417455e-08 1.7315061e-08
7.794651e-09 4.4127906e-09 6.328683e-09 6.6439454e-09 3.0012897e-09 3.12426e-09 3.3886185e-09 5.1846274e-09
3.466231e-09 3.4767225e-09 4.682992e-09 3.0266187e-09 2.1618811e-09 2.7352622e-09 3.557039e-09 3.338648e-09
2.0682855e-09 2.7136937e-09 3.4863523e-09 2.0862208e-09 1.9031599e-09 2.349492e-09 3.0126566e-09 2.3656332e-09
1.763219e-09 2.5942377e-09 2.3709839e-09 1.927685e-09 1.7088397e-09 2.3415716e-09 2.2354225e-09 1.8994246e-09
1.7417914e-09 1.8604365e-09 1.8547083e-09 1.7779914e-09 1.765251e-09 1.761011e-09 1.7787272e-09 1.7720593e-09
1.7699278e-09 1.7728078e-09 1.8270865e-09 1.7163027e-09 1.7252438e-09 1.8637e-09 1.865559e-09 1.741347e-09
2.0639463e-09 2.1236342e-09 2.0636477e-09 1.7473107e-09 2.100397e-09 2.304064e-09 2.2774436e-09 1.9903588e-09
2.0778403e-09 2.6578102e-09 2.7370541e-09 1.9932191e-09 1.7846847e-09 2.9870197e-09 3.1907832e-09 2.9275513e-09
2.8839784e-09 3.3104945e-09 3.4978906e-09 2.7307774e-09 2.865098e-09 3.5398988e-09 4.3714232e-09 4.0498898e-09
2.0449147e-09 1.2213864e-09 9.473095e-10 8.7588375e-10 1.3586116e-09 1.0566131e-09 1.1192535e-09 4.120966e-09
5.1302482e-09 2.5245368e-09 2.2338114e-09 1.1095194e-09 4.7266315e-09 4.985794e-09 5.6525367e-09 5.398017e-09

slow_buffer f4 [256, 120]
00000000: 981a 96bf 8572 a9bf 332f a4bf 865c b1be
00000010: f6fd 6cbf 4c95 6fbf 8736 6dbe b6bd 0cbe
00000020: e60b b03a aa96 c7be d884 05be 2cce 3dbe
00000030: 5f41 87be 6e0e 86be 3748 59be fa67 1cbe
00000040: 56bb 25be 1002 27be 642c 50be 025f 20be
00000050: 00cd f4bd 4eab 3dbe 4bc1 30be a1fa f1bd
00000060: 4a24 efbc 82cd c1bd 38b0 41be 5069 00be
00000070: c2c0 66bd 35cd 903e 012d b63e 4cbf 0a3e
00000080: 36c4 2cbe 2244 ec3d 7ca1 f33e 7204 493e
00000090: b3e6 d23c b626 de3e e458 353e 5051 2e3e
000000a0: 2476 be3c be5c 843d 0427 483e 8e0d 033e
000000b0: 7655 e23d 5288 da3d a672 0f3e ec60 e63d
000000c0: a436 5c3e 0c51 1d3e fc3d ee3d 8754 1b3e
000000d0: a02b 5d3e 3b91 253e 6a86 233e a0b6 0b3e
000000e0: d048 44bf 30a3 a2bf 301a f4be ee9a 51be
000000f0: 3390 bcbe 6625 33bf bc12 10bf f6f1 8ebe
00000100: 6c63 d4be 5869 83be 9ffa 9bbe 7027 fabe
00000110: dc3e 73be b219 f0be ce76 81be 3bc0 98be
00000120: 72ff 79be 7e0f 43be 62b8 0cbe c74d dbbd
00000130: 1fdd 273e 58b6 febd 64df 543c 649c 5a3d
00000140: 3265 063e 14de 793d 1021 3f3e 98d0 fd3e
00000150: 7457 8a3e af2e 883e 109e 2c3e 58a5 de3e
00000160: ab02 003f 1b4c da3e b03d 313f 7cb1 913f
00000170: 1e49 ea3e 6ea3 c93e 22a9 0f3f 8cc1 203f
00000180: a0b8 553e b948 8c3e 7c90 b93e 8499 063f
00000190: 14cb c13e 146f d13e 2c35 c03e 70a9 9c3e
000001a0: a08f a33e 8d72 713e dd8e 4b3e ee99 0b3f
000001b0: 62ae 643e 883f 873e bc68 663e d2b9 703e
000001c0: 3e3f 863e 3ef3 933e 9601 753e 95f3 2c3e
000001d0: 5553 a43e a84b 823e 8a11 213e ed97 5f3e
000001e0: 410e 4f3d aeb8 493e f000 453e 6fd7 463e
000001f0: b6e5 ac3e 5e90 ad3e c6ff 2e3e 1839 a13d
00000200: 5791 c63f b384 1b3e 92f8 5f3e fd1a f03d
00000210: 7b79 60be 7de5 883e faa8 243e d27c 063e
00000220: 2870 0cbe 8f43 903d 3b90 fd3d 7421 3f3e
00000230: 97a5 463c 7cff f13d d278 3d3e 2792 2a3e
00000240: bd3a ae3d aac2 453e 1e5f dc3d bfeb 223e
00000250: 34ef 08bf b20f dbbd 3f65 febd d6cb 41be
00000260: def4 21bf 42c3 2f3e baf4 dfbd 2a61 30be
00000270: 9cf7 583f d46c 04be 483c 5abe 8d21 36be
00000280: 5621 593f eee2 32bf 9d56 01be 48ba 2bbe
00000290: 5ea9 d6bd 3794 61be 5b2b 90bd 3ce4 36be
000002a0: a640 b7bd 3e09 4ebe a09e 0cbe 9cfb 09be
000002b0: aeff 32be d07e f4bd 0a8c eebd fe55 1abe
000002c0: 02fa bc3d 950b 0ebc 5bf6 373e 103d 5e3e
000002d0: 9677 3b3d adff 153c e02b 1b3e ac89 503e
000002e0: a69d da3d d464 1b3e 2cc4 3c3e ea8c 833e
000002f0: eaf9 5a3f e8cb 023e f8d2 233e e057 2a3e
00000300: 5c86 b3be fe43 403e 3183 6c3e bc03 a03e
00000310: 8251 c63e 5008 b13e d42c 5a3e 46ea 903e
00000320: 9230 2a3f 0cc7 d73e b800 843e f8fd da3e
00000330: 155a 793f da7a 8c3e 0c1b 653e 3d35 d43d
00000340: 2ec0 09bf aa1c 093e 7c01 b1bd f4b0 2dbb
00000350: f520 75be 5981 833e e874 9ebd 0c27 ddbc
00000360: ff55 4f3f 7024 01be 3c66 58be f852 afbc
00000370: 60d5 af3f 1c2d 43be c6c7 34be f19b 3abe
00000380: 96f1 35bd fac4 76be 0506 4fbe 86aa 37be
00000390: c603 91be 6cb0 9cbd 12eb 71be aac8 2dbe
000003a0: 4c0c d0bd 9e17 27bd 0250 50be 10c4 11be
000003b0: 487a 96bd ceea 9dbd b715 bcbd e0dc 0fbe
000003c0: 222e ed3d 52f2 b73e 449d 443e 8a02 37be
000003d0: 8664 7dbd 79a1 d4be 587a 8abe cc45 79bd
000003e0: da6f e9bd 4099 0bbf 9ac0 b3bd 0e25 d1be
000003f0: e60d dbbe b88e e1be 343f aebd 6b3a 7dbe
-1.1726866 -1.3238074 -1.2826904 -0.34640902 -0.92575014 -0.93587184 -0.23165332 -0.13744244
0.001343128 -0.38982135 -0.13038957 -0.1853568 -0.26417062 -0.26182884 -0.21218954 -0.15274039
-0.16184744 -0.1630938 -0.20329434 -0.15661243 -0.11953163 -0.18522379 -0.17261235 -0.11815382
-0.029192109 -0.09463026 -0.18914878 -0.12540174 -0.056336172 0.2828156 0.3558121 0.13549536
-0.16871724 0.11536433 0.4758414 0.19630602 0.025744772 0.4338891 0.1770969 0.17023206
0.023249693 0.06463002 0.19546133 0.1279814 0.11051457 0.10670532 0.14008579 0.11248955
0.21505219 0.15362948 0.11632916 0.15168963 0.21598673 0.16168682 0.15969244 0.13643885
-0.76673603 -1.2706051 -0.4767623 -0.20469257 -0.36828765 -0.6997894 -0.56278586 -0.27918977
-0.41482103 -0.25666308 -0.30464646 -0.48858213 -0.23754448 -0.46894604 -0.25285953 -0.2983416
-0.24413851 -0.19048879 -0.13742211 -0.10708194 0.16392945 -0.12437123 0.012992714 0.053371802
0.1312454 0.061002806 0.18664956 0.49573207 0.27019846 0.26598117 0.16857171 0.43485522
0.5000407 0.4263619 0.6923475 1.1382289 0.4575891 0.393825 0.5611745 0.6279533
0.2087121 0.27399233 0.36243045 0.52577996 0.3785025 0.40905058 0.37540567 0.3059802
0.31945515 0.23578854 0.19878717 0.54531753 0.22332147 0.26415658 0.2250089 0.23508385
0.26220125 0.28896517 0.23926386 0.16889794 0.32094827 0.25448346 0.15729347 0.21835299
0.050550703 0.19699356 0.19238639 0.19418119 0.33769006 0.33899206 0.17089757 0.07872218
1.5513104 0.1518734 0.21872166 0.117238976 -0.21921341 0.26737586 0.16080084 0.13133553
-0.13714659 0.07044136 0.123810254 0.18665105 0.012124441 0.11816308 0.1850312 0.16657315
0.08507297 0.1931254 0.1076033 0.15910242 -0.53489995 -0.10696353 -0.12421655 -0.18925413
-0.6326426 0.17164329 -0.1093535 -0.17224565 0.8475282 -0.1293214 -0.21312058 -0.17786236
0.8481649 -0.6987752 -0.12630697 -0.1677028 -0.10481523 -0.22029196 -0.070395194 -0.17860502
-0.089478776 -0.20120713 -0.13732386 -0.13474888 -0.17480347 -0.1193825 -0.11647804 -0.15071866
0.09227373 -0.008669754 0.17965071 0.21702981 0.045768343 0.009155196 0.15153456 0.20365018
0.106746 0.15175182 0.18434209 0.25693446 0.8553759 0.12773097 0.15998447 0.16635084
-0.35063446 0.18775937 0.2309692 0.3125285 0.3873406 0.34576654 0.21306163 0.28303736
0.6648036 0.42144048 0.25781798 0.42771888 0.9740308 0.27437478 0.22373599 0.10361717
-0.5380887 0.1338984 -0.08642861 -0.0026503177 -0.23938353 0.25684622 -0.07737142 -0.026996158
0.80990595 -0.12611556 -0.2113275 -0.021401867 1.3736992 -0.19060177 -0.17654333 -0.1822355
-0.044419847 -0.24098578 -0.2021714 -0.17936143 -0.2832319 -0.07650837 -0.23624828 -0.16971079
-0.101585954 -0.040794007 -0.2034302 -0.14234948 -0.07347542 -0.07710801 -0.09183829 -0.14049101
0.11581065 0.35927063 0.19200617 -0.17872062 -0.061863445 -0.41529444 -0.27046466 -0.06085758
-0.11398287 -0.54530716 -0.0877697 -0.40848583 -0.4278404 -0.44054198 -0.08508149 -0.24729316
